1223-code-DL/model/BiLSTM_without_features_state_dict.pt (torch, 353739 bytes, 39 tensors)

lstm.weight_ih_l0 f4 [128, 1]
00000000: 0040 4ebc c62b 703f 661c 83bd b9bf 9dbd
00000010: 9902 d53e 8944 6e3f e620 f83c 4c40 a03f
00000020: 96fd fa3e 1260 a23e c6a9 4e3e 9654 513e
00000030: db81 cdbe 1fe9 673d 0a1d ee3e 8a58 733d
00000040: a38e 3e3f b54f 0b3e 5b11 993e 4ead d6bd
00000050: 0a13 52bd 2779 7f3c de46 133e dbfc 053f
00000060: 906f 0f3f 6719 bebf 93b9 a53c 10ef 8abd
00000070: 3461 00bf d636 31be 45da f43e 824c a4bd
00000080: 3831 15be 0ce0 1e3f cf3b dcbd 5e32 38be
00000090: b418 d83e 1bc7 8e3f 64a2 fb3d c818 993f
000000a0: 3998 ce3e a1c1 653e 7dea 1c3f 7ed0 47bc
000000b0: 2b0b 8dbe 337a 2e3f 8d3e 023f 198d 513e
000000c0: dff7 a93d 64b3 f83a f87f 383f b038 9d3d
000000d0: 6b80 1c3f 9ba9 aabd 33df 573e 8753 a93e
000000e0: 59bd 213f 2561 ccbf 4d0c 28be f916 53bd
000000f0: 1715 0bbc 5d2e 783e 5d4e c93e cdcc 07be
00000100: ae2f bd3e 9c41 903f 0eea d23d e1f3 78bd
00000110: 5477 14be 4e37 103f 4743 82be dc7f 04bf
00000120: 364a 6dbe 735c b33e e0af 8d3e 10b4 bb3e
00000130: c9fb a9bd 4342 a9be ee42 753e 737b 47bd
00000140: 6a79 77bf 73af 863d 868b af3e 3f78 7abe
00000150: 8f37 513d 41f0 3ebd 4e41 e6bc 85a8 3e3e
00000160: 30fd c83e bc16 2abd ad2b 2fbd 6480 233e
00000170: 63c9 033e 944a a93d 5984 febe 83fa babe
00000180: de41 9ebe 184a 6f3f 3a47 2dbf 28a7 00bf
00000190: d999 903f f2ae 9c3f 022c 51bd 943f a23f
000001a0: 1f04 bb3e 8d23 083f af98 17bf 0f2a fcbe
000001b0: 1c6f f6be 224e 453f 39ac 033f 4836 463e
000001c0: 0dd5 233f 4891 cfbc 78b6 e63e 50c3 76bf
000001d0: 6fbd 153e 8645 b0be eefc c2be a6cc 3b3f
000001e0: d68c 4a3f 7485 ddbf da16 7abe 09f8 063e
000001f0: 9988 11bf e95e a73e dde2 6e3f 6d51 9dbe
-0.012588501 0.9381679 -0.06401901 -0.07702584 0.41603544 0.93073326 0.030289125 1.2519622
0.49021596 0.3171392 0.20181951 0.20442423 -0.40138134 0.056618806 0.4650653 0.05941061
0.74436396 0.13604625 0.29896054 -0.10482274 -0.05128769 0.01559285 0.14382502 0.5233895
0.56029606 -1.4851502 0.02023009 -0.06783879 -0.5014832 -0.17306075 0.47822776 -0.08022405
-0.14569557 0.6206062 -0.10753595 -0.17987964 0.42206347 1.1154512 0.12286833 1.1960688
0.40350512 0.22437145 0.612953 -0.0121957045 -0.27547583 0.6815521 0.50876695 0.2046398
0.08299231 0.0018974361 0.72070265 0.07676828 0.6113345 -0.08333131 0.21081237 0.3307154
0.63179547 -1.5967146 -0.16410942 -0.05153558 -0.008488915 0.24236436 0.393176 -0.13261719
0.3695044 1.1270022 0.10298549 -0.060779456 -0.14498645 0.5633439 -0.25441954 -0.517576
-0.2317284 0.3503147 0.27673244 0.36660814 -0.08299977 -0.33058366 0.23951313 -0.048701715
-0.9666964 0.06576433 0.34286135 -0.24459933 0.051078375 -0.046615843 -0.028107312 0.18618973
0.39255667 -0.041525587 -0.04276626 0.15966946 0.12869792 0.08266178 -0.49710348 -0.3651925
-0.30909628 0.93472433 -0.6768681 -0.5025506 1.129695 1.2240889 -0.05106736 1.2675653
0.36526582 0.53179246 -0.5921735 -0.49250838 -0.48131645 0.77072346 0.51434666 0.19356644
0.63996965 -0.02533783 0.45061088 -0.96391773 0.14623044 -0.34428042 -0.38083595 0.73359144
0.7912115 -1.7306352 -0.2442278 0.13180555 -0.56849056 0.32689598 0.93314916 -0.30726185

lstm.weight_hh_l0 f4 [128, 32]
00000000: d447 8bbf 0e09 f13f cfd3 3fbe 012a a83c
00000010: 0497 1ebd 662d 2cbe 01b3 ddbd d228 c63d
00000020: 4246 99be b995 bcbd a6c4 47bf ee2a a53d
00000030: fbe0 e93d 9788 66bf b94b bb3f b89f e03d
00000040: b8c8 b7bf 2445 debe d752 fe3e c5a3 d6bd
00000050: 22ea 903f f17e 47be 56f9 41bf b5bd 70be
00000060: 26a1 aabe 6bfb a93e 1193 943d d2fe 283f
00000070: b16f 943e bc6d 1ac0 c06d b3be e59f 9b3e
00000080: 27d0 163f 3f3c f9be 90d5 133f 7e45 57bf
00000090: b0d3 48bf a762 3a3f a327 8ebe fd2d 2fbf
000000a0: 5ee0 2dbf 71ea 353f 33b2 313f 551e 2c3f
000000b0: bc71 53be 48da 20be cd65 a63d 613f 1b3f
000000c0: b1b1 863e 488f e4be 22dd 1cbf 27c9 22bf
000000d0: 8a3b 143f 64c2 aabe ed4a 0f3f 60c5 293f
000000e0: 9251 453f bf27 10bf dde4 fa3e 3575 04be
000000f0: 1059 10be 0814 d53e 776d 63be 8fbb a43e
00000100: 4afa 723d 4caa c03e 2875 cf3c 6185 6fbe
00000110: a4da 95be dbc9 803e f1ce 96be 9703 77be
00000120: 276b 3dbe 2275 863e cbf0 6bbc 3c53 d639
00000130: 5e1a b5be 0b16 5bbd 4a45 dc3d df62 b53e
00000140: 5c7e 84be 35dc 47be 2d65 af3d 17e3 18be
00000150: f7a0 093e 595d 36be 69f0 8e3e 3acf 653e
00000160: 0e30 ae3d 9249 43be 3a57 c43e 5837 013d
00000170: 6022 1c3d 6e7f 18bf a377 c03c 4225 bcbe
00000180: 2fae 9f3c f3dc ad3e b1b7 1dbd 29ba 0cbe
00000190: aec9 46be ef98 ba3d 1d8a eebd fcb7 b8bb
000001a0: 12f5 22be a216 8d3e aee6 363e 0534 15bc
000001b0: 7b73 51bd 7c95 d1be 6121 f93d 95a8 3e3e
000001c0: 836f d4be df35 6dbb 5ed6 9d3d cea8 97bd
000001d0: cfb4 2a3e b4e0 90be 5155 9a3e edc6 593c
000001e0: f046 0c3e a39b 8ebd 6b7b 103d 35df 333e
000001f0: 6079 823e 805a 563e e7d1 bbbe a382 e1bd
00000200: bd7e 523b 3498 38be 7aff 053e b012 aabe
00000210: 640e b0be 2dee b13e 5655 0fbd f1d9 49be
00000220: 4b82 a4bd d9ae 213e 3622 503e 74d1 933e
00000230: 06d1 12bc 506a febd f9ec b63d 48e0 e13d
00000240: c6c7 8abd 3c35 04be e068 54be f0c4 b1be
00000250: 98b4 8e3e 7e51 72be ea48 033e 34dd 853e
00000260: b522 613e 2949 35be f67e f53c 654e a43d
00000270: 993c 84bd 0d56 2abd d9e1 47be 8d56 783d
00000280: a22f d1bd c8c7 89be 55e4 18be 84b8 d23d
00000290: 04d6 1f3d 8b7e ca3d b11b bbba c726 a1be
000002a0: 9dcd 863e 7542 35be e1af 893d f410 dabd
000002b0: 6ec5 49bc f922 5f3d 53b5 26be f818 55bc
000002c0: 6392 983e 0294 b3bd d4b2 073e d055 f83d
000002d0: 4083 373d 5e1a 863d 5fc2 66be 5670 b9bd
000002e0: dccd 6f3d e1d9 ac3e 0a9d 53bb 32cd 0bbd
000002f0: b689 99be 3289 f0be d91f 833e 0464 f1bc
00000300: c5c3 51be cd8d 323e e10e a9be 1851 683e
00000310: 7f4c a53e 4404 02be 0faa 8e3d f47f 963e
00000320: ceb5 aa3e 7508 c8be 4e62 ffbe defd b4be
00000330: d491 7c3e b824 a53d eaee afbd 749d 123d
00000340: 81d7 963e e946 2d3e dc7f 153f a122 263e
00000350: 2de7 1cbe 833a 78bb 554f d5bc aa67 20bd
00000360: 9859 90be 5d41 093f 7ec4 c0ba 22b9 3a3d
00000370: 2938 57be 4c48 79be cdac 003e f5d8 4ebc
00000380: 0950 01be 2e39 64be 2618 5fbd bad0 173e
00000390: e134 42bd 6166 343e 0e77 4abd ea08 27be
000003a0: 6d66 fab9 7634 7dbe 767a 5fbe 983f 533d
000003b0: af6a 393e 38a8 833e c914 2e3d f9d2 82be
000003c0: f8e9 da3d 0061 493d 2c6b 753d 9470 5f3e
000003d0: 0f01 31be 1ef2 f33b ed47 95be 475b 4cbe
000003e0: 0606 f23d 86e3 133f 8076 8d3c 227e 14bd
000003f0: f040 6cbd ce5a 38bf 787c 8b3e 908e 313d
-1.0881295 1.8830888 -0.18733142 0.020527842 -0.03871824 -0.16814193 -0.10825158 0.096757546
-0.29936415 -0.09208245 -0.78034437 0.08064829 0.11419865 -0.9005217 1.4632484 0.10967964
-1.435813 -0.43412125 0.49672577 -0.10480455 1.1321452 -0.19482018 -0.7577108 -0.23509867
-0.33326072 0.3319963 0.07254613 0.66013825 0.28991464 -2.4129477 -0.3504467 0.30395427
0.58911365 -0.48678777 0.57747746 -0.8409041 -0.7844801 0.7280678 -0.27764615 -0.6842955
-0.6792048 0.71060854 0.69412535 0.67233783 -0.20648855 -0.15708268 0.08124886 0.60643584
0.26307443 -0.44640565 -0.6127492 -0.63588184 0.5790335 -0.33351433 0.559737 0.66316795
0.7707759 -0.5631065 0.49002734 -0.12935336 -0.14096475 0.41616845 -0.22209726 0.32174346
0.059320726 0.37629926 0.02532442 -0.23390724 -0.29268372 0.25154004 -0.2945476 -0.24122463
-0.18497907 0.2626124 -0.014400671 0.00040879275 -0.3537168 -0.05348782 0.10755403 0.35426995
-0.25877655 -0.19517596 0.085642196 -0.14930378 0.1344031 -0.17809047 0.27917793 0.22442332
0.085052595 -0.19071034 0.383478 0.03154692 0.03811872 -0.5956944 0.023494547 -0.36747175
0.019492237 0.33957633 -0.03850526 -0.1374289 -0.19412872 0.09111201 -0.11647437 -0.005637167
-0.159138 0.2755633 0.17861435 -0.009106641 -0.05113552 -0.4093436 0.1216457 0.18618996
-0.41491327 -0.003619544 0.07706903 -0.07405244 0.16670536 -0.28296435 0.30143216 0.0132920565
0.13698936 -0.06963279 0.03527395 0.17565615 0.25483227 0.2093296 -0.3668358 -0.11011245
0.0032119 -0.18026811 0.13085738 -0.33217382 -0.3438598 0.34752026 -0.034993492 -0.19712044
-0.08032664 0.15789355 0.2032555 0.28870738 -0.008960968 -0.12422621 0.08931918 0.110291064
-0.06776385 -0.12910932 -0.20743132 -0.34720564 0.27872157 -0.236639 0.12820783 0.26145327
0.21985896 -0.1770369 0.029967766 0.08022765 -0.064568706 -0.04158597 -0.19519748 0.060629416
-0.10214163 -0.26910233 -0.14930852 0.102891 0.03902246 0.098874174 -0.001427522 -0.31474897
0.26328745 -0.17701133 0.06722999 -0.10647765 -0.012315137 0.054476712 -0.16280107 -0.013006441
0.29799184 -0.087684646 0.13251811 0.121257424 0.044802904 0.06547998 -0.22535084 -0.090546295
0.058545932 0.33759978 -0.0032289647 -0.034131236 -0.29987878 -0.46979672 0.25610235 -0.029466636
-0.20484836 0.17436905 -0.33019164 0.22687185 0.32284924 -0.1269694 0.0696603 0.29394495
0.3334183 -0.39068952 -0.49879688 -0.35349935 0.24665004 0.08063644 -0.08590491 0.03579469
0.2946129 0.16921581 0.5839822 0.16224147 -0.15322562 -0.0037876673 -0.026038805 -0.03916136
-0.28193355 0.5361536 -0.0014706997 0.045586713 -0.21017517 -0.24343985 0.12565918 -0.012624969
-0.12628187 -0.22287437 -0.05446639 0.14825717 -0.04741371 0.1761718 -0.049429946 -0.16311994
-0.0004776003 -0.24727044 -0.21824059 0.05157432 0.18107103 0.25714278 0.04250029 -0.25551584
0.10689157 0.049164772 0.05991666 0.21820289 -0.1728556 0.007444634 -0.29156438 -0.19956695
0.11817555 0.5776905 0.01726842 -0.036253102 -0.057679117 -0.72013557 0.272434 0.04334885

lstm.bias_ih_l0 f4 [128]
00000000: 6fce 993d 3fb4 4a3f b9d5 be3e 7a32 9a3e
00000010: 68d1 1c3e 643b 2c3d f356 32be 8f33 5dbd
00000020: ce19 133e 46bb 833e 1f67 2abe 8fd6 213e
00000030: faee 07be 80a0 ecbc f177 8d3c dcc0 28be
00000040: d6d2 243f 29f0 e83d f70b 843e 5e5b 8f3e
00000050: b18d 4ebd c93b 01be ec30 803e bde3 673d
00000060: 0fbf 6e3a cace 033e 67fb 443d bddb 9cbe
00000070: a038 f8be 270d 1a3e c0a0 85be ab38 87bd
00000080: 8f77 e13e 0763 94bd dc0b 5c3e 328d 4f3e
00000090: c42d 8d3d 1d40 f0bd 8936 383d 4a25 6f3d
000000a0: dd79 03be e2f2 3c3e 6a99 293e c974 563e
000000b0: d495 d63c a298 553e 82d3 9b3c 979e 523d
000000c0: 99c8 21be 7cba 253e c0a3 f03d 6320 8dbc
000000d0: 422d 423e 2843 95be c0d0 a93e d950 45bd
000000e0: cb25 23be 9dab 7a3d 2ace 0cbe c176 fbbc
000000f0: 41b6 5b3c 9faa 03bc 9073 643e a6f3 1abd
00000100: 515b 47bd 2ea2 9d3c e95e 973e d68e 41be
00000110: e23d 47be 38bf 453e 4e4f a9bd 79d2 12bd
00000120: cc64 3cbe d20e 603e 68dd 283e 5c74 6c3e
00000130: f255 00be 9d24 86be 1a90 58bc 1c58 5e3d
00000140: 683b 563d e418 4ebe 1bb1 4bbe b60c 40be
00000150: 08cd 533e 41b6 3ebe b144 cd3d b3c3 4f3e
00000160: a4bf 8bbc fc77 acbe 6c03 cd3d 976f da3d
00000170: 8b9a 373d ed4d 743d ece2 92bd 4294 b93d
00000180: ab24 ec3d 2b72 4c3f 795e 883d deb0 12bc
00000190: e752 383d 1993 133e 9718 8cbd 0b55 1bbe
000001a0: 712f 47bc 7dd0 03be a171 213e 73e8 4c3e
000001b0: 93b3 81be e81e 4ebd 58a7 153e 290b 59bd
000001c0: cd86 1b3f 0651 36be efee a83e 23de bcbe
000001d0: 1f98 5f3e a282 14be b58e 6d3e 5321 3cbe
000001e0: 61e9 4fbe 2e9e e53b 1ec2 59bd f34f b7be
000001f0: af38 acbe 3405 e33e bf8b 443e 47b0 81bd
0.07510077 0.79181284 0.37272432 0.30116636 0.15314257 0.042048827 -0.17415981 -0.05400425
0.14365312 0.25728816 -0.166409 0.15804504 -0.13274756 -0.028885126 0.017269107 -0.1647982
0.6438421 0.11373932 0.25790378 0.27999395 -0.050428096 -0.12620462 0.25037324 0.056613673
0.00091074494 0.12871853 0.04809132 -0.30636397 -0.484807 0.1504408 -0.26099205 -0.066026054
0.44036528 -0.072454505 0.21488899 0.20268705 0.06893495 -0.11730979 0.044973884 0.05838517
-0.12839456 0.18452027 0.16562429 0.20942988 0.02619449 0.20859006 0.019021753 0.051420774
-0.15799178 0.1618442 0.11749983 -0.017227357 0.18962577 -0.291528 0.33167076 -0.048172805
-0.15932386 0.06119882 -0.1375052 -0.030696275 0.013410152 -0.008036285 0.22309709 -0.037830018
-0.04867107 0.019242372 0.29564598 -0.18902144 -0.194572 0.19311225 -0.08267079 -0.035845254
-0.18397826 0.21880654 0.1649071 0.23091263 -0.12532786 -0.2619981 -0.01321795 0.054283246
0.052302748 -0.20126683 -0.19891779 -0.18754849 0.20683682 -0.18624212 0.100228675 0.20289497
-0.017059155 -0.3368529 0.10010418 0.10665815 0.044825118 0.05964463 -0.07172188 0.09061481
0.11530431 0.79861706 0.06658644 -0.008953301 0.045000937 0.14411582 -0.06840628 -0.1516916
-0.012157307 -0.128725 0.15766002 0.20010547 -0.25332317 -0.050322443 0.14614618 -0.05298916
0.60752565 -0.17804345 0.32994792 -0.36888227 0.21835373 -0.14502957 0.2319897 -0.18372087
-0.2030387 0.007007382 -0.05316364 -0.35803184 -0.33636996 0.44339907 0.19193934 -0.0633245

lstm.bias_hh_l0 f4 [128]
00000000: f9b4 bcbd 449b 2e3f 81c1 bb3e b55a 363e
00000010: e0ca 263e dd48 f63b eab6 66be 6c70 2fbe
00000020: 4efe 11bd 861c 763d 1009 163e d470 893e
00000030: eb01 1d3e 3b12 1cbe 00ce 773c 09cc 133c
00000040: 16d4 253f 2078 94bb 9184 8b3d 823b 7d3e
00000050: bf2f e53d ffb3 b6be 7753 7b3e 3219 c9bd
00000060: a210 9ebd 1541 e43d 9274 8c3d c599 60be
00000070: 4124 81be 8e2b be3e 7d51 cdbd 357a 6cbe
00000080: af4b a83e 73d9 63be 6bc1 f13c a861 403d
00000090: 2b9d 3f3e 6336 0dbe b143 90bc f400 8a3b
000000a0: 170e eebd ba4b 5b3e 1582 fc3e f440 353e
000000b0: 6ee9 e3bd 851f 4e3d 48f0 a7bd a99e f5bd
000000c0: b5d9 75be 80c1 20bd 9dfa bb3e d074 0e3e
000000d0: 403a fe3e 7ea8 333d 933e 0c3e 23d8 96bd
000000e0: 5470 743b 380a eebd 0677 bd3d 7ebd 92bd
000000f0: e1e4 5fbe 303c d5bd a08a 2a3c e119 d1bc
00000100: 982e 6a3e d8fa fe3d 6d34 083e ba5e 80be
00000110: a258 94be 9cfb 4b3d 72e4 12be 633f 77be
00000120: b45b a33d 7751 a7bd e184 b5bc 8cca a73e
00000130: b156 94be 980c 9ebd c7bc 2d3e 89e4 713e
00000140: 6a3e cc3d 7d60 1bbe 9bea eebd 4cd8 0dbe
00000150: 4acd c13c 81f8 0abd cba1 f83d 7b80 4e3e
00000160: 7d1c 473e 3250 7dbe cfc0 373d ca7c d83c
00000170: ab3e c93d 2a87 fb3c f4f0 f0bd 6cb3 e5bc
00000180: a194 063d cd31 173f 1c4a c43d faf1 3f3d
00000190: 554f 4dba 9647 dcbd e3f6 24be 16ea 263e
000001a0: 7726 a4ba 5242 913d 02ae cdbd 1092 363e
000001b0: ddd0 8abd e3f1 213d 53c2 c73d 1a95 5dbe
000001c0: ffd5 3a3f c3c3 00be b02f fb3e a0c4 b0be
000001d0: 8794 a53e 7dbc 52bd 70cd 183e 7147 4ebe
000001e0: cfda 26bd d77b b83d dfff d6bc 302b bfbe
000001f0: e44b 94be 4e8e fc3e 33c3 033e 0106 c13c
-0.09214205 0.68205667 0.3667107 0.1780804 0.16288328 0.00751601 -0.22530714 -0.1713273
-0.035642914 0.060085796 0.14651895 0.26843894 0.15332763 -0.1524133 0.015124798 0.009020814
0.6477674 -0.0045309216 0.068123944 0.24729732 0.111907475 -0.356842 0.24543558 -0.09819259
-0.07718016 0.11145226 0.068581715 -0.21933658 -0.25222972 0.37142605 -0.10025308 -0.23093493
0.32870242 -0.22250919 0.029511174 0.046968132 0.18712299 -0.13790278 -0.017610403 0.0042115394
-0.11623781 0.21415606 0.49317995 0.17700559 -0.111285076 0.050323028 -0.08200127 -0.11993153
-0.2400883 -0.039247036 0.3671464 0.13911748 0.49653816 0.04386186 0.13695745 -0.073654436
0.0037298398 -0.11623043 0.092512175 -0.07165049 -0.21864654 -0.104118705 0.010409027 -0.025525035
0.22869337 0.124501884 0.13301249 -0.2507227 -0.2897387 0.0498005 -0.14344957 -0.24145274
0.07976475 -0.08169835 -0.022158088 0.32771719 -0.2897239 -0.07717246 0.16966544 0.23622335
0.09972842 -0.15173526 -0.11665841 -0.13852042 0.02365746 -0.033928398 0.121402346 0.20166199
0.19444461 -0.24737623 0.04486161 0.026426692 0.09826406 0.0307041 -0.11764708 -0.028039657
0.032856587 0.59060365 0.09584448 0.046861626 -0.0007831951 -0.107558414 -0.16109805 0.16300234
-0.001252367 0.07092728 -0.10042955 0.17829156 -0.06778119 0.03953732 0.09753861 -0.21638909
0.7298278 -0.12574677 0.4905982 -0.34525013 0.3233988 -0.051449288 0.14922118 -0.2014444
-0.040736016 0.090079956 -0.026245056 -0.37337637 -0.2896415 0.4932732 0.12867431 0.023562433

lstm.weight_ih_l0_reverse f4 [128, 1]
00000000: 2701 813e 3ffa f93e 4453 45bf e6da 9d3e
00000010: f042 da3e fc60 17bf 7ab4 963e 633a 9dbe
00000020: 890d bc3e 8206 463e 55b7 d93c 5399 033f
00000030: 33e6 33bd 9ef5 cd3e 5f69 ae3e 8f33 c2be
00000040: 070e 8a3e 93f2 d93e 5472 073f e0bf 1b3f
00000050: 6c8d e13e 0398 873e aaa2 223f 656f 783e
00000060: 7257 923e 211f d7bf bb22 1a3d e9fe e1be
00000070: 8dd5 f73e d6f6 ed3e a6c3 323c 54aa 153f
00000080: 7c25 d93d 8c84 de3e b503 afbe 6f26 e43e
00000090: fdf4 a53e a46d 07bf 4d65 bd3e 682f 9ebe
000000a0: eae9 0d3e b4a7 633e 7ce5 5bbd 39b3 063f
000000b0: dade 29bd 162e a73e a136 493e 164e d7be
000000c0: a16f 673d d0dc b63e 1140 413e 1f62 de3e
000000d0: b87c 8b3b 0352 aa3e 19a9 ce3e 9ba4 533d
000000e0: 0b8e de3d b245 c2bf bcf8 4fbe 2aed 353d
000000f0: f711 9c3e 56c8 a13e 7b76 d3be cecc 0a3f
00000100: 6803 c4be 0870 073f 3bc8 54be dfc8 b6be
00000110: 0db0 82be 19c4 703e a51a ce3e 84ec 3a3d
00000120: abc4 bdbe 3121 a7be a938 85be 04c0 08bf
00000130: 2a1f 11be cbd6 abbe 6bbb 7cbe 693d 84be
00000140: fe6f bebe 9485 bd3e bbaf 003f 4f31 cfbe
00000150: 778e f4be 76d7 97be a484 df3e 44bb 863e
00000160: fe95 003e 9e4c 62be 26a8 b03d 8d7a 12be
00000170: 4eb7 3dbe 2b7b ccbe ccd0 ec3e 4fe9 b43e
00000180: 1d46 d83d f7c2 233f ccff 06bf 88f1 823e
00000190: bd3e 533f e927 48bf 9dbf f53e 36cf 52bf
000001a0: 41bd 673e ccb0 e33e 3b8f 94bd d198 743f
000001b0: 7c59 7bbf 7fa1 003f 125d 1c3f da03 8cbf
000001c0: 02bb 003f 3f89 023f e696 3d3f 3338 533f
000001d0: 1088 d33e 5e3b 173f 2143 483f 81df 0bbe
000001e0: 1e6e 713e e4fe eabf 89af c3be 4a22 f5be
000001f0: 7f22 4b3f d278 573f f1a7 68be 8f82 613f
0.25196192 0.48823735 -0.7708018 0.3083107 0.42629194 -0.5913236 0.29434568 -0.30708608
0.36729077 0.1933842 0.026576677 0.5140583 -0.043920707 0.40226454 0.34064767 -0.3792996
0.26963827 0.42567882 0.52908826 0.60839653 0.4405321 0.26483163 0.63529456 0.24261244
0.2858234 -1.6806375 0.037630778 -0.44139794 0.48405114 0.46477383 0.010910904 0.58463025
0.10602853 0.434605 -0.34182516 0.44560573 0.32413474 -0.52901673 0.3699135 -0.30895543
0.13858762 0.22231942 -0.05368565 0.5261722 -0.041472293 0.32652348 0.19649746 -0.42051762
0.056502942 0.35715342 0.18872096 0.43434235 0.004256811 0.33265695 0.40363386 0.051670652
0.10866936 -1.5177519 -0.20309728 0.04441563 0.30482456 0.31598157 -0.4130133 0.5421876
-0.3828385 0.5290532 -0.20779507 -0.35700127 -0.2552494 0.23512305 0.40254703 0.045635715
-0.37064108 -0.3264251 -0.2601979 -0.5341799 -0.14172044 -0.33562312 -0.2468087 -0.25828102
-0.37194818 0.37015975 0.50268143 -0.40467307 -0.47764942 -0.2965657 0.43655884 0.26314747
0.12557217 -0.2209954 0.08625822 -0.14304562 -0.18526956 -0.3993772 0.4625305 0.3533425
0.10560248 0.6396937 -0.52734065 0.255749 0.82517606 -0.781859 0.47997752 -0.8234743
0.22630788 0.44470823 -0.072538815 0.9554568 -0.9818342 0.50246423 0.61079514 -1.0938675
0.5028535 0.5099067 0.7405838 0.8250763 0.41314745 0.5907496 0.7822743 -0.13659479
0.23577163 -1.8359036 -0.3821986 -0.47877723 0.7934951 0.8416873 -0.22720315 0.8808984

lstm.weight_hh_l0_reverse f4 [128, 32]
00000000: e1e5 553e c437 0fbc 4360 05be 9702 443e
00000010: dec6 1b3e 9127 143e f9d9 d9bd ccfc c73c
00000020: 3153 f1bd 8081 85bc 49f5 113e 08e7 cd3d
00000030: df71 04bb b67f bc3c 5d17 5abd daff 1abe
00000040: b71e 323d a951 20ba 9df2 dbbd 3fcb 7f3e
00000050: 0a34 12be dcbf 303e 80ab e73d 129c 3d3d
00000060: 1afa df3d 7bcb 8dbe 2bc4 f3bd 96c4 27bd
00000070: e107 d23d 2fa3 123e e7bf 883d 114e 77bc
00000080: 78dc 113f cb9f adbe 10a8 22bd 993c 283f
00000090: 39d4 cf3e e1ea 2b3e ea6a bdbe 8e6c d53e
000000a0: 7ce0 483f 9d49 8a3f 59b1 8c3e 4a92 d33e
000000b0: d866 a2be b644 4c3e 3354 a43e adc6 02bf
000000c0: 71ba 523e 6177 d1be bc27 c5be 0b8b 323f
000000d0: 14f9 ca3e d6ad f03e ab15 18bf 8db3 09bf
000000e0: bff2 0dbf 5cba adbe 3381 11bf 5956 23be
000000f0: 5e5b e53e aac2 b03e 92e0 03bd 8c86 dcbe
00000100: 92ba 873e a728 b8be 090e 8abe 6e49 c23e
00000110: cfad a63e 9034 893e 99fa 4dbe 7900 9d3e
00000120: 8e01 7c3e c982 c73d 06c6 5cbe 4a88 ab3d
00000130: 698f 9cbe a5ed 4d3e 2354 5f3e 8120 c9bd
00000140: 3f3f 893e 8af2 7fbe 87ef 7abe 9ceb b83e
00000150: 5d09 1b3e f43f 413e e38f 89be 59bc bfbe
00000160: bec0 89be 10f6 d9bd a280 abbe cc24 66be
00000170: 8634 ca3e 4586 ae3d f918 ae3e e9a1 42be
00000180: 59c8 00bf 01c3 893f 47dc 1abe 3511 42be
00000190: e0a4 8bbd 691f b73e 074d 993b 4a5b a1bd
000001a0: f79d 99be c645 cfbe a58e 993b fda7 71be
000001b0: b7d5 7abe 6f70 833c e2e3 43be e899 50be
000001c0: c091 e9bd 6e74 8d3d 3ddb 6e3e d4f4 17bf
000001d0: 3e51 d0bd 8101 b0bd 5a67 923e 0f72 a13c
000001e0: debf 423e f0ec 83be 06d5 8f3d 88e3 153e
000001f0: 57ff a2be be17 8abe 9231 943e 2fd6 7f3e
00000200: 561f 38be c873 223e cc38 003d 89e9 85be
00000210: 58fd 39be 7b32 51bd 2c4f 873e 3a3c 8fbc
00000220: b6a7 a1be 8728 e9bd df16 a5bc 2c44 95be
00000230: a648 ca3d 68ae 69be 4d02 8abe 8a18 b13d
00000240: f473 81bd 4a19 1b3e f53d 233e 6cad 11be
00000250: 73f1 86be 7b8c 79bd b11c a93e 55f9 083e
00000260: 6faf 323e 2f07 dd3d dfc7 8f3e 380c a6bd
00000270: 37a1 5abe 0795 b4be d30c f63d 8b44 a53e
00000280: bf73 4e3d 8985 353d d9c6 91bd 0cf5 d2bc
00000290: c4ad 583e bb1f 1a3e 8919 f0bd 8a59 193e
000002a0: 035a 1e3e 4319 6e3e 43d1 41bb 95f8 3a3e
000002b0: e0d3 66ba e9fe c23d 879e 7e3e 3ba1 d1bd
000002c0: ed24 93bc d5d1 34bd cc1f 93bd 893f 053e
000002d0: 92ce 513e 987d 153e bd34 7abd fbbd 7fbd
000002e0: 360a 76be 71f2 153e dff0 dfbd 1bcb 6cbc
000002f0: 071b 5fbc 4877 313e eaad 2f3e 0591 85be
00000300: 15a7 533e 792e 47be be59 d83d a201 fabc
00000310: 47d5 d2bd 1f2c 9b3d 7a8d d6bc ce9d bdbd
00000320: 6671 3c3e f420 74bd a10c 47bd d31e 13bd
00000330: dbc5 023e 05b9 72bd 7c45 3f3e de06 a9bd
00000340: 74d6 a93a 858f 613d f95c 513d b704 c13d
00000350: 4a22 09bd a1a2 553e fee1 043d 6847 bcbd
00000360: 22be 74bd 4b35 fcbd 1ad8 bf3d 599c a6bd
00000370: 244a 2dbd cf74 e5bd 72e6 76bc 829c 3c3d
00000380: 04d8 363d aa4f a9bd 5f98 02be 14d0 773e
00000390: 90a9 66bd 3f4d 443e 8b13 4a3d 270a 943e
000003a0: df82 0abe 739a b7bd 3451 5fbe 9894 6c3e
000003b0: d6fc 1dbe f659 b23d b839 663e e8c0 44be
000003c0: e9ed 943c 7105 37be 1cae 93bd 3c74 a53e
000003d0: e677 d53d 2719 413e 165d bcbd efac b5bd
000003e0: b0bc e9bd 72f4 003e e79a d5bd 9dec 68be
000003f0: b163 973d b966 1f3e 4d9f c63e 10f3 e3bd
0.20888473 -0.008741323 -0.13025002 0.19141613 0.1521258 0.14468218 -0.10637278 0.024412535
-0.117834456 -0.016297102 0.14253725 0.10053831 -0.0020209474 0.023010116 -0.053244937 -0.15136662
0.043486323 -0.0006115684 -0.10739634 0.24979876 -0.14277664 0.17260689 0.11312008 0.04629142
0.10936375 -0.27694306 -0.119026504 -0.040958963 0.10255409 0.14320062 0.066772275 -0.015094296
0.56977034 -0.33910975 -0.03971106 0.65717465 0.405916 0.16788818 -0.3699563 0.41684383
0.78467536 1.0803715 0.27479056 0.41322547 -0.3171909 0.19948086 0.3209549 -0.51084405
0.20578934 -0.4091139 -0.38506877 0.6974341 0.39643157 0.47007626 -0.5940806 -0.537896
-0.55448526 -0.33931243 -0.5683777 -0.15950908 0.4479627 0.34523517 -0.03219659 -0.430714
0.2650953 -0.35968515 -0.26963833 0.37946647 0.3255448 0.26797915 -0.20115127 0.30664423
0.24609968 0.09741742 -0.21559915 0.083756045 -0.30578163 0.20110185 0.2180944 -0.09820653
0.26806065 -0.24994865 -0.24505435 0.36117256 0.1514029 0.18872052 -0.2686759 -0.37448385
-0.26904863 -0.10642636 -0.33496577 -0.22474974 0.39493197 0.08521704 0.34003428 -0.19007076
-0.50305706 1.0762635 -0.15123092 -0.18951876 -0.06818557 0.35766152 0.004678372 -0.0787874
-0.3000333 -0.4048292 0.004686194 -0.23599239 -0.24495588 0.016044823 -0.19129899 -0.2037121
-0.11404753 0.06906973 0.2332582 -0.59357953 -0.10171746 -0.08594037 0.28594476 0.019707708
0.19018504 -0.25766706 0.07023053 0.14637578 -0.31835434 -0.2697124 0.2894407 0.24984048
-0.17980704 0.1586448 0.031304166 -0.26154736 -0.18163049 -0.051073533 0.2642759 -0.017484773
-0.31573266 -0.11384683 -0.020152507 -0.29153574 0.09877138 -0.22820437 -0.2695488 0.086472586
-0.063209444 0.15146366 0.15941603 -0.14226311 -0.26356086 -0.06092499 0.33029702 0.13376363
0.17449735 0.10792386 0.28082177 -0.08107799 -0.21350561 -0.3526995 0.12014165 0.32278857
0.050403353 0.044316802 -0.07118005 -0.025751613 0.21160036 0.15051167 -0.117236204 0.14975563
0.15464024 0.23251824 -0.0029574193 0.18258889 -0.00088053755 0.095212765 0.24865161 -0.102358304
-0.017961944 -0.044145424 -0.07183799 0.13012518 0.20488957 0.14598691 -0.06108545 -0.06243704
-0.24027333 0.14643265 -0.109346144 -0.014452721 -0.013617284 0.17330658 0.17156187 -0.26087204
0.20669205 -0.19451322 0.10563992 -0.030518357 -0.10294586 0.07576775 -0.026190508 -0.092586145
0.18402633 -0.05960174 -0.04859603 -0.03591807 0.12770788 -0.05925848 0.1867885 -0.08253263
0.0012957589 0.05506851 0.051114056 0.094247274 -0.033479966 0.20862819 0.032442085 -0.09193307
-0.059751637 -0.12314852 0.0936739 -0.0813529 -0.042307034 -0.1120392 -0.015069591 0.046047695
0.044639602 -0.08267148 -0.12753437 0.2420047 -0.05631405 0.19170092 0.049335044 0.28913996
-0.13526486 -0.08965006 -0.2180832 0.23103559 -0.1542848 0.08708565 0.22482955 -0.19214213
0.01817985 -0.1787317 -0.07210943 0.32315242 0.104232594 0.18857251 -0.09197442 -0.08870875
-0.114129424 0.12593248 -0.10429936 -0.22746511 0.073920615 0.1556653 0.38793412 -0.11130345

lstm.bias_ih_l0_reverse f4 [128]
00000000: 592b 543d b8d5 2cbb 6376 5bbd 3c96 b6bd
00000010: 4ab1 903d 2934 07be d512 2cbe ad4d 8ebd
00000020: a82e bb3d ba00 16be d7a3 6d3d 0667 3c3e
00000030: 7b3e 883e aa73 52bd 7cd5 03bd 959f 613e
00000040: 97ba 4b3e 1f9c 75bd a197 2fbd 3010 3dbd
00000050: af4c 5a3e ca35 27bd eb20 39be c3ec a9bd
00000060: 07b9 c2bd 9f48 693e b7cc 5dbe bacf a73c
00000070: 6a5a 66bc c7f6 ca3d fdcc a8bd ba46 483e
00000080: 8505 c7bd 177d f83e 5945 42bd 5b98 c83e
00000090: 4cf6 533e 715a 98bd 14c7 2cbe 0880 a5bd
000000a0: 9b6f 6fbc 7cac 09be 7e2f 23be 3ccb 413e
000000b0: 6e4c 7d3d 9e9e 343d 6581 8a3e 519b 943d
000000c0: 2106 ac3d 48b6 32bd b4b2 b6bd 53d8 033e
000000d0: 4f2c 993d 0952 20be ed8e 9cbd ca69 a03d
000000e0: d4eb cb3d c190 353e ede4 5e3d 0d72 183e
000000f0: 1c61 383c 184f af3e 395d b4be 1511 963e
00000100: a09c 233d a8b6 753d 7b1b a73e 9825 a7bd
00000110: bd6f f2bd 9976 5dbe a8f1 b73d 4d8c 1cbe
00000120: ee65 273e dd84 0dbe f4da e83d 6e67 08be
00000130: 6f6a a63e ee0a 16be 5a45 41be 30f9 543d
00000140: b671 52be b6d8 403e f39f f13d 2ace 39bc
00000150: 7fad c0bd 7775 69bd 5891 7b3d 0755 08bd
00000160: 3401 373e c61c c23e 62c5 e73d 8a11 853e
00000170: db35 febd 48aa 3cbe 9bab 2cbe e115 ce3d
00000180: 977a babc d38b f43d 82ce 11be 630a e73d
00000190: 3366 ab3d c081 45bc 96f7 42bd 3e03 61be
000001a0: 6853 91bd 8fcf 043e 0c53 08be c17d ea3c
000001b0: 5006 ffbd bc1c 9c3d 3ace 54be 2b34 efbd
000001c0: 9753 a9be 1b96 433c 0721 b7bd 4cea 29be
000001d0: d121 7dbe af8a 1cbd af88 4a3d a332 d5bd
000001e0: 0b85 26bd d6b7 243d f4ac 5cbd e858 b63d
000001f0: 2220 36be 2b6b 18be 4bff 0ebe 16ec 07be
0.051799152 -0.0026372503 -0.0535797 -0.08915374 0.07065065 -0.13203491 -0.16804059 -0.06948409
0.09139758 -0.14648715 0.058017578 0.18398675 0.2661017 -0.051379837 -0.032186016 0.22033532
0.19895397 -0.05996334 -0.042869214 -0.046158016 0.21318315 -0.04082278 -0.18078963 -0.08297112
-0.095079474 0.22781609 -0.21660124 0.020484794 -0.014059642 0.0991035 -0.082422234 0.1955823
-0.0971785 0.48532936 -0.047429416 0.39178738 0.20699424 -0.07439125 -0.16872817 -0.08081061
-0.014614011 -0.13444704 -0.15936086 0.18925184 0.061840467 0.04409658 0.27051845 0.07256187
0.083996065 -0.04363087 -0.08920804 0.1287549 0.07479154 -0.15656294 -0.076444484 0.07832678
0.0995709 0.17731 0.05441754 0.14887257 0.011253621 0.3424003 -0.35227373 0.29309908
0.03994429 0.059988648 0.32638153 -0.08161467 -0.11837719 -0.21627273 0.08981639 -0.15287896
0.16347477 -0.13820215 0.11369887 -0.13320705 0.32503077 -0.14652607 -0.18874112 0.051995456
-0.2055119 0.18832669 0.11798086 -0.011340657 -0.09408092 -0.05699679 0.061417907 -0.033284213
0.17871553 0.37912577 0.11316945 0.25989944 -0.12412616 -0.18424332 -0.16862337 0.10062767
-0.022763534 0.11940732 -0.14238933 0.11281278 0.08369102 -0.012054861 -0.047599398 -0.21973893
-0.070959866 0.12969802 -0.1331293 0.028624417 -0.12452376 0.07622668 -0.20781794 -0.11679872
-0.33071586 0.011937643 -0.08941846 -0.16593283 -0.24719931 -0.038218196 0.049446758 -0.10410049
-0.040654223 0.040214382 -0.05387588 0.08903676 -0.17785695 -0.14884631 -0.13964574 -0.13273653

lstm.bias_hh_l0_reverse f4 [128]
00000000: 2c3b 3f3d a643 353e 104b 49bc 44a6 863a
00000010: fcfa 413c 702b 5ebd f996 02be e3ca 9fbd
00000020: 86bc cf3d 6854 21bd c6f7 bfbc 7f6e 703d
00000030: 703c 823e 8311 f7bd 8e23 783e a435 6d3e
00000040: 6586 00be fe4a ad3d e07f 1c3d 3d81 4c3d
00000050: 143a 433e 7728 debd 4268 e5bd fdaa 0dbe
00000060: 23a1 093e 4141 5bbd 6818 4abe 28b4 433d
00000070: b32a 343c 8be5 713e fdff e93d c19d 66bd
00000080: 8d30 28bd 25e9 093f e468 23bd 1e04 d23e
00000090: 7776 353e c90f f1bd 9cf3 7d3d 14d4 66be
000000a0: 7d39 31be fa0e e1bd a690 7bbe 5162 713e
000000b0: 9bce 1c3e 2f5e 293e f4f8 5b3e d65d b03d
000000c0: b960 39bd 7256 643e e0cf bf3d ee9c 3c3d
000000d0: a024 6c3d 60c5 dd3d c3a0 563c b553 6fbc
000000e0: 2f9b 95bd ac26 11bd b6a2 21be bf4e bf3e
000000f0: 9d23 ea3d 1fd5 c63d 1cdd 6dbd c1f2 073e
00000100: 568a 4abd 0ef4 dd3d 1ddc f73b aef6 e6bd
00000110: 89b6 c3bd 5ed5 0fbe c1a6 f73c 8814 86bd
00000120: 78be 14be eaea 25be ee74 3b3e 0579 0e3d
00000130: 1df4 cdbb 455a 31be 1460 3ebe c4b3 863e
00000140: ec56 063d 96bf 9f3d 305d 1c3e 25bd ea3d
00000150: 6f96 293e f647 10be 3cf3 313e 292b 023e
00000160: 8ce6 093e 8036 143f ffa7 d43c 323e 473d
00000170: 1209 40bd 311e 37be 4cf4 d83a ff15 223e
00000180: 30bb 03be c580 673e f9c4 53bd 28de 22be
00000190: cfc5 2dbe d3cf 86be 5080 923d 727b d2be
000001a0: 6ea0 1438 0bc9 d13d 0e1b 42be 6221 8bbd
000001b0: 639b 093d 5045 55be e7f5 55be f623 b1bd
000001c0: 195a 3cbe c0c1 d0bd 901a 10bd 4557 963d
000001d0: 6309 8dbc 4427 18bd 4635 2a3d 8598 acbe
000001e0: 8cc4 19be 3202 783e c76e 13be a952 12be
000001f0: 1c94 2fbd 4bed e9bd e0ff c3bd a247 15be
0.04668729 0.17701587 -0.012285963 0.001027294 0.0118396245 -0.054240644 -0.12752904 -0.078023694
0.1014338 -0.039387137 -0.023433577 0.058699127 0.25436735 -0.12063887 0.24232313 0.23164994
-0.12551267 0.08461569 0.03820789 0.04992794 0.19065124 -0.10847562 -0.11201526 -0.13834758
0.13440375 -0.053529028 -0.19735873 0.047779232 0.010996508 0.2362272 0.11425779 -0.05630279
-0.041061927 0.53871375 -0.039894953 0.41018766 0.17720972 -0.11770589 0.061999902 -0.22541839
-0.17307086 -0.10989185 -0.24566898 0.23572661 0.15313189 0.16539834 0.21481687 0.08611648
-0.045258258 0.22298601 0.09365821 0.046048097 0.057652116 0.10828662 0.013099852 -0.01460736
-0.073049895 -0.03543727 -0.15784726 0.37364766 0.11432574 0.097086184 -0.058072194 0.13276197
-0.049448334 0.10837565 0.0075640813 -0.11277519 -0.095563 -0.14046237 0.030230882 -0.06546885
-0.14525783 -0.16202894 0.18306324 0.034783382 -0.006285204 -0.17319591 -0.18591338 0.26309025
0.03279774 0.07800214 0.15269923 0.11461858 0.16561292 -0.14089951 0.17377943 0.12711777
0.13466853 0.5789566 0.025959013 0.0486433 -0.04688365 -0.17882611 0.0016552298 0.15828703
-0.12864375 0.22607715 -0.05170152 -0.15905058 -0.16969989 -0.26330432 0.0715338 -0.41109806
3.543536e-05 0.10243424 -0.18955633 -0.06793477 0.033595454 -0.20827222 -0.20894586 -0.08649437
-0.18393745 -0.10193205 -0.035181582 0.07340864 -0.01721639 -0.03714682 0.04155471 -0.33710113
-0.15016383 0.24219587 -0.14397727 -0.14289345 -0.042865857 -0.11422213 -0.09570289 -0.14578107

lstm.weight_ih_l1 f4 [128, 64]
00000000: 40d8 fe3d 62d5 fdbc 92c4 6c3e f768 68be
00000010: 609c 76bd 6ca4 823e 120c 673d fb3e 7cbd
00000020: c79c 39bd 6146 103e a419 433e 381d c43d
00000030: e4e2 73be 7cd7 4c3d d8de c0bc 638b 8e3e
00000040: 5eb6 81bd 9a13 c0bc 9695 d63d 100c ffbc
00000050: 86f3 663e aef7 8dbe cf98 503e 2446 483d
00000060: 9784 a2bd 6130 52be 4d07 fb3d 59fb 593e
00000070: be1c d0bd d341 283e 7a2f 1bbd 7d83 51be
00000080: a1ec 84bd ba56 6c3c 8937 593d 4f23 2fbe
00000090: ec54 1c3d 19cc 1dbe 017c 4d3e 682b 35be
000000a0: e099 5cbd 75e5 b9bd d2e2 60bd 6af8 41be
000000b0: 762b 9c3d 3d17 d0bd 87eb 48be 0de8 5f3e
000000c0: 9147 43be ab35 513c ce67 3c3e a694 06be
000000d0: f890 4abd 2c2d 1e38 a7dd 223d 86ac 1d3e
000000e0: 9d9a 7c3e 8a39 c33d 1349 673e a518 123e
000000f0: a090 a23c 9647 fe3c b973 c83d 2b33 1e3e
00000100: 648d 113e fd6b c73d 9726 023e 6532 84bd
00000110: 1343 3cbe e51d eb3d 06b1 1c3d 9fe6 fcbd
00000120: 050e cbbd 6636 3a3e 7af8 033e 8e39 e53d
00000130: 850b cebd 5b37 44bd b5d4 35bd 84a6 4d3e
00000140: 1040 0dbe 7948 4abe 31a4 cabd 7ce3 51bd
00000150: ff2a 263e 96f6 c63c 285a dd3d 05ea cbbd
00000160: b5bb 743d fc35 16be f43e a73b a459 20be
00000170: 8eb9 0c3c 27e7 543d 1feb 7c3a c7ad 1c3d
00000180: 89bc b53d eabc a83d c604 783e a539 93bd
00000190: 603f 0ebd ebfc ab3d b913 e7bd 22a4 0e3d
000001a0: e61e ac3d 29e0 b7bc aed9 cf3c f037 eebd
000001b0: 17c9 38bd 5ca5 4dbd d2e0 92bb b1aa af3d
000001c0: 2b5d c53d 600b 06bd 218f 713e 9ece a5bd
000001d0: 6803 ecbd 3184 0dbe bb46 8dbd 4a82 cd3d
000001e0: 8476 023d 7d1b 393e a304 95bd bbdb ed3d
000001f0: 204f 413d 4d2d 34be 1c63 593e b246 e9bc
00000200: 7068 9fbc a546 403e 5b9e 713e 4479 19bb
00000210: 8e67 283c af26 78bc b07b 47bd 2baf adbd
00000220: 368e 16be 737d f73d af1e 1a3e 6219 2ebd
00000230: 1c5b d1bd c082 05bd 173e 833e 3a9b 77bd
00000240: ce30 c13d 09b5 cabd 249a e93d c6e4 6ebe
00000250: bc1c 98bd 650f 32be ed15 913d 0112 f13d
00000260: 3211 633e df18 bdbd 1769 553e 15d4 0ebe
00000270: 5409 803d 1cc9 a9bd 659b 79be 5c05 2a3d
00000280: d600 49be e051 bcbc ca87 20bd 3dea 00be
00000290: da18 253b 1343 193e 40cc 54bd a512 85bd
000002a0: 2cef 67be 49de 6cbe 054d 04bc b01d c3bd
000002b0: d829 1b3e e372 7bb9 1245 11bd 030a 803e
000002c0: 1a8a cebd dec9 7d3d 3ae2 7f3e 7800 87bd
000002d0: ebd5 213d 81da 2bbe df06 4b3e b307 403e
000002e0: be81 5e3e e48a 15bd de58 dfbd d39b f43d
000002f0: 6996 e4bd 962f b93d 9b9b 7ab9 4c52 593b
00000300: 5740 fb3d 1b71 5cbd 689b 43bd e861 c03c
00000310: 5982 6dbd a4d7 f23d 2f8d f7bd ddfc 653c
00000320: de1a 16be 9295 173e d782 223e 2e15 0a3e
00000330: ba63 59be bd9a 81be f23f 133c ff53 6ebd
00000340: 64ac 80be e41f 1fbe d6ef 8a3d cdcd 84bd
00000350: 1e9b 66b8 116d 52be f79d 5b3d 5532 4a3e
00000360: 4f48 383e 3250 ca3d f4b9 383e 273d 523e
00000370: 1012 9e3d 7273 e2bc d0ca 06bd c86b 393e
00000380: 6475 1dbe f0b1 ae3d 09d8 59be 6358 3c3d
00000390: f7f5 76be 9c67 15be a9a3 bd3d 356a 31be
000003a0: d193 bbbd 73ed 3fbe 6aad 803e 6e49 46be
000003b0: cd28 e73d 0581 83be c403 85bd 6ad0 713e
000003c0: 1d76 4ebe 03d3 5a3d 89d2 a93d 3fa7 c0bd
000003d0: e444 6fbd 6972 5a3d 8d77 2a3d 08f6 1c3e
000003e0: c1b9 65bd 7eb6 40bd 8566 4dbd 2d6d 663d
000003f0: 254c 8dbd 352d ad3d a711 b6bb 1f53 9b3d
0.1244359 -0.030985538 0.2312186 -0.22696291 -0.060207725 0.2551607 0.056407996 -0.0615835
-0.04531553 0.14089347 0.1905275 0.095758855 -0.2381702 0.05001019 -0.02354376 0.2784072
-0.06333612 -0.023446847 0.1047775 -0.031133682 0.22553834 -0.27728027 0.20370792 0.048895016
-0.07935446 -0.20526268 0.12257252 0.21287288 -0.10161732 0.1643136 -0.037887074 -0.20460315
-0.06490446 0.014424974 0.053031478 -0.17103313 0.038166925 -0.15409888 0.20066835 -0.1769234
-0.053857684 -0.090769686 -0.054903813 -0.18942419 0.07625477 -0.10160682 -0.19621097 0.21865864
-0.19070269 0.012769143 0.18398973 -0.13142642 -0.04945466 3.7712205e-05 0.039762165 0.15397844
0.24668355 0.09532459 0.2258647 0.14267214 0.019844353 0.031039994 0.09787697 0.15449207
0.14214092 0.09737394 0.12710033 -0.064549245 -0.18384962 0.11480311 0.03825476 -0.12348675
-0.099147834 0.18184814 0.12887755 0.11192618 -0.10060791 -0.047904354 -0.044392306 0.20083052
-0.13793969 -0.19754209 -0.09894598 -0.051242337 0.16227339 0.024287503 0.108082116 -0.09956745
0.059749324 -0.14669031 0.00510394 -0.15659195 0.008589162 0.051978257 0.0009648073 0.038251664
0.08873851 0.082391575 0.24220571 -0.07188729 -0.034728408 0.0839785 -0.11283059 0.034824498
0.08404331 -0.022445755 0.025372352 -0.11631763 -0.04511365 -0.050206527 -0.004482367 0.08577479
0.09636911 -0.03272569 0.23589756 -0.0809605 -0.11524087 -0.13819958 -0.068982564 0.10034616
0.031851307 0.18076892 -0.07276275 0.11614176 0.0471946 -0.17595406 0.21229213 -0.028476093
-0.01945898 0.18776949 0.23595564 -0.0023418227 0.010278596 -0.015145942 -0.048701942 -0.08480676
-0.14702687 0.120844744 0.15050767 -0.042504676 -0.10222456 -0.032595396 0.25633308 -0.06045077
0.09433137 -0.09897811 0.11406353 -0.23329458 -0.07427356 -0.17388685 0.0708426 0.11771012
0.22174528 -0.092332594 0.2084087 -0.1394809 0.06251779 -0.08290312 -0.24375685 0.041509017
-0.19629225 -0.02298826 -0.039192 -0.12589355 0.0025191815 0.14966993 -0.0519526 -0.06497697
-0.2264983 -0.2313167 -0.0080750035 -0.09527147 0.15152681 -0.00023980024 -0.03546626 0.25007638
-0.100849345 0.061960094 0.24988642 -0.06591886 0.03951065 -0.16782571 0.1982684 0.18752937
0.2172918 -0.03650941 -0.10905622 0.119437836 -0.11161501 0.090422794 -0.00023899825 0.0033160625
0.12268131 -0.053818803 -0.04775563 0.023484185 -0.057985637 0.118575364 -0.120874755 0.014037338
-0.14658687 0.1480315 0.15870224 0.13484642 -0.21229449 -0.25313368 0.008987414 -0.058185574
-0.25131524 -0.15539509 0.06784026 -0.06484566 -5.4980737e-05 -0.20549418 0.053617444 0.19745763
0.17996334 0.09878577 0.18039685 0.2053114 0.07718289 -0.02764294 -0.03290826 0.18107522
-0.15376812 0.08530033 -0.21273817 0.04598273 -0.24117266 -0.14590305 0.09259731 -0.17325671
-0.09159053 -0.18742923 0.25132304 -0.19363949 0.11287079 -0.25684372 -0.06494859 0.2361466
-0.20162244 0.053423893 0.082921095 -0.094069 -0.05841531 0.053331766 0.04161792 0.15328228
-0.05608535 -0.047049038 -0.0501466 0.056256462 -0.06899289 0.08455888 -0.0055563035 0.075842135

lstm.weight_hh_l1 f4 [128, 32]
00000000: 3dfd 6b3e 142a 2cbe cace f2bd b409 4d3e
00000010: 1787 d83d d3ad 77be 39e8 6bbd 6a41 b5bd
00000020: 0d3d 87bd c19f e33d 3f41 61bc 3aee 8e3e
00000030: 17a3 a4bc 0245 3f3e 7d90 463d d097 2bbe
00000040: 0250 d63d 4e44 26be e6d1 043e 1798 ee3d
00000050: 9d90 83bd 6121 1e3e 8121 a13d 5dbc de3c
00000060: 3d9e 173d 3c8c 263d b966 113e 63ee ff3c
00000070: da70 73bd f784 543d bc03 debd 0d3b 0f3d
00000080: 4aba babd 71bb 2dbd 5409 7f3c 8161 233e
00000090: c355 0a3e 84ff 113d 3313 aebd 73ed 85be
000000a0: e1d0 7ebe 3e49 173e 1725 82bc de99 4d3e
000000b0: 45ba 723d 323c 1e3d 3d3a bc3d 6a6a 703c
000000c0: ccd7 e93d de56 03be d080 013d 5388 66bc
000000d0: 050b 183e 06ad 483e 0db0 1b3d 5134 843d
000000e0: 776e 853d fa1b a0bd 29c3 973d 48c8 093e
000000f0: 2bb5 2ebe 5192 b63d bf9a 773d af40 5dbe
00000100: 6239 ae3c cf96 06be 202e 1c3a 1287 063e
00000110: 65aa 8bbd faef c3bd e688 70bd 6664 5cbe
00000120: ddf1 72bd 6b77 8fbd e5cc 7c3d dee2 41bc
00000130: 25c3 f1bd 325f 263e 487c edbc 3faa 303b
00000140: 9099 403d f441 f8bd 190f 0fbb 12ba 643e
00000150: e856 5e3e 4116 b7bc 1f90 fb3d ad9b f73d
00000160: 9e94 1dbd 3e1c 07bc 949f a63d fda7 bfbd
00000170: 6a86 51be 7fd2 6b3d 3cc3 78be c08a 48be
00000180: 08df f73d 343c ecbd 0dbd cfba 88ec 613e
00000190: 7765 563e 265c 37be a235 e63d a655 17be
000001a0: af53 4ebd b8d6 41be 82d8 4a3d d38a 5a3e
000001b0: 7974 10be 5154 f73c 2cc7 5e3d 206f 8a3c
000001c0: 8b82 d73d 5723 4cbe 0182 f8bc 3b4e 61be
000001d0: 4369 a43d af8d 6a3c b9f3 463e 8aed 51bb
000001e0: f59e 83bd 92e3 c23d 8b3c 093e 47c3 bd3d
000001f0: 5898 3dbe b37d 71bd 08e6 86be a16d a83d
00000200: 6872 3d3d e538 03be c74e d8b8 b1f3 6c3a
00000210: 7861 8ebd 59f6 86be e1f8 ab3d 7d40 1bbd
00000220: 57a3 28bc a329 81be 2fd7 9abd 5013 cc3d
00000230: 6068 813c 77c2 85bc 3bf1 123d b083 ddbd
00000240: abc1 143e fe22 74be 002b ee3c 1327 c5bc
00000250: 6b87 0d3c ddba 43bd 833d 123e ab64 8b3e
00000260: ddb2 663e 235a 6ebc 9dba 943d ca24 bd3d
00000270: 259e 0fbe 5f49 a93c b1fa 43bd e817 2dbe
00000280: 0920 7dbc 7a49 aebd da40 783d bf9c d03d
00000290: ecbd 8f3e 39ed 61be 9f8e 833e 12ed e5bd
000002a0: 2c1a 8c3c 72c4 62bd 3c64 81bd 6532 21bd
000002b0: 125d 0ebe 3750 d63d fbdc 0cbe 4e0a 8e3c
000002c0: 2ac2 81bd a9aa 37be 73cf 9bbc baf9 9a3d
000002d0: 649e 803e 66dc a83d f3d1 bcbc 804a 1d3e
000002e0: cf03 083e 8ea7 613e a557 dc3d c3e7 733e
000002f0: 2e16 093d a8f7 84bc 5def c93c 2dd8 2cbe
00000300: 9672 89bd 8ea3 603d 3618 48be 09dd 073e
00000310: 2234 8b3e d96d 44be 5da0 6d3e 421d 74bd
00000320: 4e34 d6bd 4c91 133d 588b 3fbe 5a6a 073d
00000330: b76c 83be 1577 823e b2ce 38be 5527 2d3d
00000340: 7cb7 91bc 6ef9 f5bd 9343 863e b8d2 6e3d
00000350: 702e 523e cd78 b03a 8f11 0c3e b2b6 adbd
00000360: 6783 d13d 25c2 cd3d b5f5 1dbd 0845 a23c
00000370: 4a65 70bd 64c8 583e 283e c1bd 8fae 31be
00000380: f184 6c3c 22c6 5cbd f307 23be 0249 9a3b
00000390: f1e2 c53c 6f90 6cbd 63a7 aabc 6d5e 70bd
000003a0: a6c4 f93c 7606 3fbe b164 3abd 27e9 4fbd
000003b0: be31 83be 5c80 863e 78dd 31be 2e3d adbd
000003c0: 060c 743e 9a82 d13c 3ded c63c 7561 0b3e
000003d0: e266 183e 675c f33d 40aa 163f b6b5 aa3e
000003e0: db0f 123e 7677 2f3e 77e3 903d 608b 433d
000003f0: 6f71 3bbd d3a1 fb3d 3eec 62bd 8915 41be
0.23045821 -0.16812927 -0.11855848 0.20023233 0.10572641 -0.24187402 -0.05759451 -0.08850367
-0.066034414 0.11114455 -0.013748466 0.27916127 -0.020097299 0.18678668 0.04847764 -0.1675713
0.10464479 -0.16236994 0.12970695 0.116501026 -0.06424067 0.1544242 0.078677185 0.027189428
0.037016142 0.04066108 0.14199342 0.031241601 -0.059433796 0.051884618 -0.10840556 0.034968425
-0.09117563 -0.042415086 0.015566189 0.15955164 0.13509278 0.03564407 -0.08499756 -0.26157722
-0.24884368 0.14774033 -0.015886826 0.20078227 0.05925967 0.038631625 0.091907956 0.014673809
0.11418113 -0.12826106 0.031616986 -0.014070588 0.14847954 0.19597253 0.038009692 0.06455291
0.0651521 -0.07817836 0.07410271 0.13455307 -0.17061298 0.089146264 0.06045031 -0.21606706
0.021267597 -0.13143466 0.0005957801 0.13137463 -0.068196096 -0.09567256 -0.058724307 -0.21522674
-0.05931269 -0.07005199 0.06171884 -0.0118338745 -0.11804799 0.16247252 -0.028989926 0.0026956943
0.04702145 -0.121219546 -0.0021829067 0.22336605 0.2171284 -0.022349479 0.12283348 0.1209024
-0.03847181 -0.00824648 0.08135906 -0.09358213 -0.20461431 0.05757379 -0.24293226 -0.19584179
0.12103087 -0.1153492 -0.0015849188 0.22062886 0.20937143 -0.17906246 0.112406984 -0.14778766
-0.050372776 -0.18929565 0.049522884 0.2134202 -0.14106931 0.030191572 0.054389164 0.016898692
0.10522946 -0.19935356 -0.030335428 -0.22002499 0.080278896 0.014316007 0.1942891 -0.0032032453
-0.06426803 0.09516062 0.13402002 0.09265762 -0.18515146 -0.058957767 -0.26347375 0.08224035
0.046251684 -0.12814672 -0.00010314356 0.00090389984 -0.069521844 -0.26359823 0.08397079 -0.037903298
-0.0102928495 -0.2522708 -0.07560574 0.09964621 0.01579684 -0.01632808 0.035874587 -0.10816133
0.14527003 -0.23841473 0.029073238 -0.024066484 0.008638243 -0.04778563 0.14281277 0.2722524
0.22529168 -0.014547857 0.07262156 0.092355326 -0.14025171 0.020664869 -0.0478465 -0.16903651
-0.015449532 -0.08510108 0.060608722 0.10186147 0.28074586 -0.2206315 0.2569475 -0.11226858
0.017102323 -0.055363126 -0.06317946 -0.0393547 -0.13902691 0.104645185 -0.13756172 0.017338898
-0.06335862 -0.17936195 -0.019019818 0.07567163 0.25120842 0.08245163 -0.02304933 0.1536045
0.13282703 0.22036573 0.10758904 0.23818879 0.033468418 -0.016231373 0.02465027 -0.1687934
-0.06711309 0.054843478 -0.19540486 0.13267912 0.27188212 -0.19182529 0.23205705 -0.059598215
-0.10459195 0.036027238 -0.18705499 0.03306041 -0.2566888 0.25481477 -0.18047598 0.042273838
-0.017787687 -0.120104656 0.2622343 0.058306426 0.20525527 0.0013463736 0.13678573 -0.08482112
0.10230141 0.10046796 -0.038564403 0.019808307 -0.058690347 0.21170193 -0.094356835 -0.17351745
0.014435993 -0.05389989 -0.15921001 0.0047084102 0.024156066 -0.05775493 -0.02083177 -0.0586838
0.030489277 -0.18654808 -0.045506183 -0.05075946 -0.25623888 0.26269805 -0.1736964 -0.08458935
0.23832712 0.025574971 0.024283046 0.13611396 0.14882997 0.11882859 0.5885353 0.3334176
0.14263861 0.17135414 0.070746355 0.04774034 -0.045762476 0.12286725 -0.05540108 -0.18855871

lstm.bias_ih_l1 f4 [128]
00000000: e622 7f3e c709 a43c 8ab4 b2bd 654a 853e
00000010: 8621 8bbd 0bf2 893e c333 803e 4f11 b23d
00000020: 9aab 463d a83a 3a3d 9bc4 983e c44a 7d3e
00000030: 7140 5fbd 9b6d 323e 95e0 8d3e 2b6d 5cbe
00000040: 2fc1 61be a831 3a3c d8ca b5bc e8d0 7abe
00000050: a46b 96bc a91d 99bd 64ee 47be 5f17 1d3e
00000060: e7a3 223e 54be 6a3d 1857 58bd fdff 6e3d
00000070: 2bd5 0d3e ae97 383e 1d2e 70bd 829c 653e
00000080: 517c 2f3e ff7a 653d 2a18 fd3d 6da2 833c
00000090: 5f0b 473e ddb0 4b3e e38d 7e3d b60a dc3d
000000a0: 96c6 88bd 0c08 663e 0f51 683e d0b7 dd3d
000000b0: 128a 10bd 9e62 6b3e 9ac2 e2bc 009c f13d
000000c0: 73dd 2f3d 77b3 6cbd 2592 933e 814f 95be
000000d0: 9057 743d c330 15be 8595 80bd 5c3c 483e
000000e0: 4ffb f53d e4c0 603e 5979 6e3e 7387 863d
000000f0: 1801 653e 35de 54bb 0461 2f3d ad97 133c
00000100: c6c2 833e 1c7b cdbd 4e96 c2bd 9059 a83d
00000110: fd4a 423e 385a bdbc cb4b 503e 6af6 30be
00000120: 770e 8bbe 1b7a f73d 52ca 99bd 8085 363e
00000130: cfb1 313d 6e25 ae3d fad1 8ebe 5691 73bc
00000140: 1263 23be c9d8 f7bd 4593 863e 6086 fcbd
00000150: fbdf 163d dfd3 403c b490 1cbe f011 c2bc
00000160: 7a13 1d3e 7709 363e 057c 013d d7ff bb3d
00000170: 3a85 5fbe 528a b53c 329b 5fbe fed4 4fbe
00000180: bd4c 0f3e d83d ddbc aa87 92bd 9cdb a5bc
00000190: bc57 d5bd 9560 383e 4e8c 3fbe 0834 51bd
000001a0: 4267 b63c 89f1 133e a4fe cd3c 6097 b6bb
000001b0: bdb2 89bd 514b 2dbe 0006 d23d 5dcc 60bc
000001c0: 758e 48be 321e 173e 4dcc d33d 5842 a2bd
000001d0: 0a78 d23d 5599 f3bd 30ee 88bd b59a 0d3e
000001e0: e908 c83d 04c6 2abd e017 c03d 8eba 40bc
000001f0: bce6 27bd e6f9 23be ea7d c53d 64c5 38bc
0.24915656 0.020024193 -0.08725841 0.2603332 -0.067935035 0.26942477 0.2503949 0.086947076
0.048503496 0.045466095 0.29837498 0.24735552 -0.054504815 0.17424624 0.27710405 -0.2152602
-0.2204635 0.011364378 -0.02219145 -0.24493754 -0.018361874 -0.0747636 -0.19524533 0.15340947
0.15882836 0.057310417 -0.052817434 0.0583496 0.13850848 0.18026611 -0.058637727 0.22422984
0.17137267 0.0560255 0.123581246 0.016068662 0.19437931 0.19891687 0.062147032 0.107442304
-0.06678502 0.22464007 0.22687171 0.10826075 -0.035287924 0.22986838 -0.027680684 0.11797333
0.0429358 -0.05778834 0.28822437 -0.2916222 0.05965382 -0.14569382 -0.062785186 0.19554275
0.12010824 0.21948582 0.23288478 0.06568804 0.22363698 -0.0032481079 0.04281713 0.00900833
0.25734538 -0.10033247 -0.095013246 0.08220208 0.18973918 -0.023114309 0.20341413 -0.172815
-0.27159473 0.12083837 -0.07509293 0.17824364 0.043382462 0.08503233 -0.27894574 -0.014866194
-0.15955761 -0.12101895 0.26284233 -0.123303175 0.0368347 0.011769264 -0.15289575 -0.023690194
0.15339461 0.17777048 0.031612415 0.09179657 -0.21828166 0.022160683 -0.21836546 -0.20296094
0.13994117 -0.027007028 -0.07154782 -0.02024632 -0.10417125 0.18005593 -0.18705866 -0.05107501
0.022266034 0.14447607 0.025145836 -0.0055722445 -0.06723545 -0.16923262 0.10255051 -0.013720599
-0.19585593 0.14757612 0.10341702 -0.0792281 0.10276802 -0.1189448 -0.06686056 0.13828547
0.097673245 -0.04169275 0.09379554 -0.011763228 -0.04099153 -0.16013297 0.09643157 -0.01127753

lstm.bias_hh_l1 f4 [128]
00000000: 6f53 903e 8d2a 28bc 565a 653e da03 2a3e
00000010: 7251 663e 082b 8a3e 223d 5c3d 1d33 6b3d
00000020: f9de 513e 9869 4ebd 7aa3 0e3d 0180 85bc
00000030: 9213 2a3d 190e b0bc 9cd8 fcbc 4492 06be
00000040: 83c2 21be 2612 553e 4c21 32bb 7a92 48be
00000050: 8bed bf3d 2451 933d 5977 60be 251b 79bd
00000060: 5d62 6e3e 52d2 653c 4f52 8ebd c73a 4ebd
00000070: 0761 b43d 0512 d03d d55f 35bd c3f4 803c
00000080: feec d23d 38a9 b83d b8ea a73a 85e0 dd3d
00000090: fc4c 123e fb85 35bd 61fa 8fbd 3459 323e
000000a0: 5be2 023e e1f4 873e 291e 05bd d5f8 cc3d
000000b0: 8a1f ea3d 064a 0d3e 28b9 9e3c b002 14bb
000000c0: 3105 6abd 208f 87bd 5cce 083e d6e4 97be
000000d0: 6469 92bb b8f8 06be e540 8a3c 2e87 5e3e
000000e0: 78c5 753e e7a7 eb3d 7242 843c 0b99 12be
000000f0: e478 803d b528 1b3e 5c2f 6e3d 7e9c 4d3d
00000100: ca59 533e 12a2 29be 93f6 0bbe a072 033e
00000110: 90b6 3c3e e638 88be b5ee 223e a6d4 e2bd
00000120: 0c40 f5bd fb4c b23d 8450 65be 700b c73d
00000130: 57a4 79be 090c 173e 76ff 7abe f92b 7ebd
00000140: 2433 7b3d a5bf 4bbe 78c8 723e 4590 493c
00000150: 6ce1 8e3e 4fc1 c53d 582a 893d 7161 ec3d
00000160: ee04 8e3e deb0 32bd 9332 cc3d f5ad e3bd
00000170: 0a85 053d 15f6 5e3e 7340 3dbe 4f95 83be
00000180: 63ab c03d 31ab dbbc f331 b9bc 0837 e6bc
00000190: 85aa c43d ca11 39bc 813c 90bc fd6d f6bb
000001a0: 053b 853d 8196 8d3d 6b57 273e f131 733d
000001b0: a7bf 0c3d 4985 80bc f0c6 db3c d922 f8bd
000001c0: 54b7 323c 54aa 86bd 0b41 3e3e fdd5 36be
000001d0: 111c a1bd 0428 55bd a515 27be 372b 00be
000001e0: 14d2 17bc c3f9 183d 7c72 6f3d 4a85 383e
000001f0: 0edd 253e e7cb 33be 951c 3dbe 13e9 9fbd
0.28188655 -0.010264051 0.22397742 0.16603032 0.22492006 0.26985955 0.05376924 0.057421792
0.20495214 -0.05039367 0.034823872 -0.016296389 0.04152257 -0.021491097 -0.030865006 -0.13141733
-0.15796857 0.20807704 -0.002718049 -0.19587126 0.093714796 0.07193211 -0.21920528 -0.060816903
0.2327971 0.014027195 -0.06949293 -0.050349023 0.08807569 0.10159687 -0.044280846 0.015741711
0.10299109 0.09016651 0.001281104 0.10833839 0.1428718 -0.044317227 -0.07030178 0.17416841
0.1278166 0.26554015 -0.032499466 0.100083984 0.11431797 0.13797769 0.019375399 -0.002258461
-0.057133857 -0.06619096 0.1335997 -0.29666775 -0.00446813 -0.13180816 0.016876647 0.21731254
0.2400111 0.11506634 0.016144965 -0.14316194 0.06273058 0.15152247 0.058150634 0.05019807
0.2063972 -0.16565731 -0.1366828 0.12836695 0.18429017 -0.2660591 0.15911372 -0.11075716
-0.119751066 0.08706089 -0.22393996 0.097189784 -0.24379097 0.14750685 -0.24511513 -0.062053654
0.06132807 -0.19897325 0.23709285 0.012302463 0.27906358 0.09656011 0.066975296 0.11542023
0.27738136 -0.043625705 0.09970584 -0.11117164 0.03259758 0.2177356 -0.18481617 -0.2569985
0.094076894 -0.026815029 -0.022606825 -0.028102413 0.096028365 -0.011295745 -0.017606976 -0.007520436
0.06505398 0.06913472 0.16341941 0.0593738 0.03436246 -0.015688555 0.02682826 -0.12116022
0.010907967 -0.06575456 0.185795 -0.17855068 -0.07866681 -0.052040115 -0.1631685 -0.12516485
-0.009266395 0.037347566 0.05845879 0.18019596 0.16197607 -0.17558251 -0.18467934 -0.07808127
