1223-code-DL/model/CNN_RNN_state_dict.pt (torch, 400056 bytes, 18 tensors)

cnn.0.weight f4 [16, 16, 5]
00000000: 66f9 a5bd 5b92 cfbc 97fb 803d 4209 6f3d
00000010: 1b78 6d3d 1a2f 173d 835e 1b3c 503c bcbc
00000020: c0fe 86bd 179f ebbd c5b1 6bbc c4fa fe3c
00000030: 9bf9 4d3d 893b 323d a9a0 413c 7c65 a83d
00000040: c3c8 c33d 004d f03d bc86 be3d 1bf7 bc3d
00000050: 63b6 303d bf6a 8b3d 072b a63d d537 883d
00000060: 20fa 033c 7402 67bd 3e4f 9a3b 4e42 813d
00000070: da85 f13d bff2 2d3e 3973 99bc 3ba8 e1bc
00000080: b801 82bd f09e e7bd ed74 37be e82e a4bb
00000090: 18c5 7abc 8556 c1bb 7aee 7abb 99d4 903b
000000a0: ded8 463a 2c0c ae3c 6875 d43c a1e9 85bb
000000b0: 4632 ecbc 4821 5bbd 7e2a c4bc da46 71bc
000000c0: 5cd0 18bb 246d c5bc ab4c 87bd 17d3 ebbc
000000d0: 6b6b 4f3c d4cb 17bd 476f d9bd 8942 fc3b
000000e0: 4488 b53c 8324 de3c 92e9 00ba c522 ccbc
000000f0: ceeb 7d3b ec10 213c 7703 b1ba 7d36 47bc
00000100: a215 4ebd d87d dbbb ed84 0ebd 253e 0abd
00000110: 4420 4cbd 7411 3cbd 0a98 c2bd 89c1 23bd
00000120: b85e 1abd e4bd 07bd 0f2a 5f3d 8810 f63d
00000130: 413f eb3d 7f4a 2c3e 76a5 9c3e 01f6 1a3f
00000140: ed55 0700 0eb7 0580 727c 0600 1087 0200
00000150: b93a 0600 4e61 0600 ea90 0680 7672 0600
00000160: c0c3 0380 0e9b 0780 eba2 0600 bbf4 0100
00000170: 9c68 0800 fbe1 0700 3c39 0680 2cc2 0200
00000180: 2152 0700 eb29 0480 3d33 0380 8000 0180
00000190: 1eb0 0700 6c96 0780 4390 0780 64bc 0380
000001a0: ec57 0300 a2f7 0280 c168 0780 61c5 0380
000001b0: d715 0900 afac 0600 afbb 0000 8cf4 0480
000001c0: feda 0200 ecf0 0480 b1ea 0480 3e5d 0180
000001d0: 9bf8 0200 cd6e 0500 aa53 0100 6643 0700
000001e0: 9fdc 0500 46f0 0200 041e 0200 1dfc 0180
000001f0: dcd7 0600 a49b 0100 fed7 0680 1a7c 0000
00000200: f7de 0500 ed1d 0380 77bb 0000 bdf1 0480
00000210: 053a 0480 517a 0200 356a 0500 e1f4 0100
00000220: 4bd8 0200 6648 0080 4e6e 0180 4d54 0400
00000230: 592f 0780 d23c 0780 0c66 0780 65f7 0680
00000240: bf40 0580 5bd9 0400 4eb9 0680 b542 0700
00000250: 5acf 0600 6568 0380 98e6 0180 a9c8 0200
00000260: 51b0 0600 201e 0500 ad6c 0400 1a13 0700
00000270: af70 0200 07f3 0580 e6e0 1b80 68df 5883
00000280: c4e0 c23d 69d9 1d3d 7009 efbb 4b91 91bc
00000290: 018e 56bc 4aa0 973c 1e65 143d c9e0 5b3d
000002a0: 0a95 953d 887e bb3d 9f1d bf3d 3027 883d
000002b0: 74ff f23c c6f0 f4bb 74c3 4cbd 9664 8f3d
000002c0: 2248 ab3d 7fc9 4f3d 3d88 0ebd b956 0bbe
000002d0: fe84 f0bd f0f1 dfbd 02a5 a1bd 18e6 a0bd
000002e0: fee9 a1bd 6c1c 693d 5741 363d 5717 033d
000002f0: e4ba 013d 054f 5b3d bfab fc3d 83e7 103e
00000300: 6323 1f3e 628a 2e3e fcce 393e e4b9 49be
00000310: ab49 4abe 81ef 49be 5c6c 49be 28e3 48be
00000320: 6c92 5cbd ad07 61bd 65fe 6bbd 784b 78bd
00000330: 8162 81bd 2fb0 14be b96f 04be 0e74 00be
00000340: a8fb 02be 7a03 0cbe 66c2 e8bd 72f4 a3bc
00000350: 4366 ac3c a3e9 0c3d 0aa3 dc3c 7747 82bd
00000360: d5b2 81bd 2ffe 85bd cc00 8cbd d9be 92bd
00000370: 0f15 7ebd 6930 80bd ace2 86bd 2324 8ebd
00000380: 3040 95bd fd4a 07bd 0445 abb9 cfa5 1e3d
00000390: d803 5e3d 712d 983d 1a9d 743d 3712 d73c
000003a0: c0fc bdbc cdc8 7fbd 24b3 f1bd 4188 963d
000003b0: 94ae fa3b a92b 8a3a 06dc bc3d b11e a43e
000003c0: 6941 073e d5cb bd3d 8d2d 113d 1dd4 003d
000003d0: dc77 513d 0f9b 16bd ca23 e8bc 156f f4bb
000003e0: 6193 e23c 45d0 a83d 48b1 e73d 3e52 b93d
000003f0: 3364 a43d 4943 a53d 5ae6 ba3d 799a 573d
-0.081042096 -0.025338342 0.06297987 0.05835844 0.05797587 0.036910154 0.009482983 -0.022977978
-0.065915585 -0.11504953 -0.014385645 0.031125434 0.05028687 0.04351381 0.0118180895 0.082224816
0.09559777 0.117334366 0.09303042 0.09226819 0.043142688 0.068074696 0.081136756 0.06651274
0.00805524 -0.056398824 0.0047091534 0.06311475 0.11793108 0.16987132 -0.0187317 -0.027546039
-0.06347984 -0.11309612 -0.17915697 -0.0050104745 -0.01530578 -0.0059002065 -0.0038289116 0.004419875
0.00075854163 0.021246038 0.02593489 -0.0040866886 -0.028832566 -0.053498536 -0.023946043 -0.014726365
-0.0023317551 -0.024099894 -0.0660642 -0.028787179 0.012659888 -0.03705962 -0.106169276 0.0076983613
0.022159703 0.02711702 -0.0004917617 -0.024918923 0.0038745287 0.009830695 -0.0013505061 -0.012158987
-0.0503136 -0.0066983514 -0.034794737 -0.033750672 -0.04983546 -0.045915082 -0.095016554 -0.03997949
-0.037687987 -0.03314008 0.05448347 0.12014872 0.11486674 0.16825293 0.30594987 0.6053162
6.73673e-40 -5.24845e-40 5.95656e-40 2.32122e-40 5.72079e-40 5.8592e-40 -6.02998e-40 5.92074e-40
-3.45728e-40 -6.98472e-40 6.09457e-40 1.79628e-40 7.72211e-40 7.23915e-40 -5.71545e-40 2.53327e-40
6.72311e-40 -3.8238e-40 -2.93887e-40 -9.2015e-41 7.06027e-40 -6.9681e-40 -6.946e-40 -3.43088e-40
3.07047e-40 -2.72505e-40 -6.80427e-40 -3.46313e-40 8.34354e-40 6.1296e-40 6.7328e-41 -4.55069e-40
2.6223e-40 -4.53768e-40 -4.51533e-40 -1.25284e-40 2.72854e-40 4.98925e-40 1.21849e-40 6.67026e-40
5.38321e-40 2.69865e-40 1.94439e-40 -1.82277e-40 6.28449e-40 1.47669e-40 -6.28496e-40 4.4519e-41
5.39162e-40 -2.86242e-40 6.725e-41 -4.54061e-40 -3.88155e-40 2.2755e-40 4.97277e-40 1.79681e-40
2.61262e-40 -2.5972e-41 -1.31405e-40 3.97583e-40 -6.59834e-40 -6.64667e-40 -6.79456e-40 -6.39761e-40
-4.82404e-40 4.45314e-40 -6.17488e-40 6.66778e-40 6.25397e-40 -3.12956e-40 -1.74557e-40 2.55654e-40
6.14263e-40 4.69984e-40 4.06328e-40 6.49701e-40 2.24094e-40 -5.46359e-40 -2.560237e-39 -6.3733153e-37
0.09515527 0.038537417 -0.007294826 -0.017769476 -0.01309538 0.018509049 0.036229245 0.05368117
0.073038176 0.09154993 0.09331822 0.066480994 0.029662825 -0.0074749915 -0.049991086 0.07001607
0.083633676 0.05072927 -0.034797896 -0.13607301 -0.11744116 -0.10934818 -0.07892801 -0.07856387
-0.079059586 0.05691187 0.044495907 0.03200468 0.031672373 0.053542156 0.123374455 0.14150815
0.15540843 0.17044976 0.18145365 -0.19699818 -0.19754665 -0.1972027 -0.19670242 -0.19617903
-0.053850576 -0.05493896 -0.057615656 -0.060618848 -0.06317616 -0.14520334 -0.12933244 -0.12544271
-0.12791312 -0.13673201 -0.113652036 -0.020014022 0.021044856 0.0344025 0.026933212 -0.06361287
-0.06332938 -0.06542622 -0.068360895 -0.071653076 -0.0620318 -0.062592335 -0.06586203 -0.06940486
-0.072876334 -0.0330305 -0.00032667082 0.038732346 0.054202884 0.07430542 0.059720136 0.026253803
-0.02319181 -0.062447358 -0.118017465 0.07350207 0.007650206 0.0010541576 0.09221654 0.32054666
0.13208546 0.092673935 0.03544383 0.031452287 0.051139697 -0.03676897 -0.028337378 -0.007459531
0.027658166 0.08242849 0.113131106 0.090488896 0.08026924 0.08069474 0.09125967 0.05263755

cnn.0.bias f4 [16]
00000000: 64a5 fbbe 13cd 0480 c19a 1d3d 68e5 f03e
00000010: 4419 013f 8dec 9d80 1abd e3be 003e edb4
00000020: 2861 c0bd b7d2 c6a1 6dff 8bbe bc95 40be
00000030: 5b97 e6ad 41ff 810c 36d1 30be 3520 98be
-0.4914962 -4.40909e-40 0.038477663 0.47050023 0.5042918 -1.4503031e-38 -0.4448021 -4.41898e-07
-0.09393531 -1.3472778e-18 -0.27343312 -0.18807119 -2.6215188e-11 2.0029222e-31 -0.17267308 -0.29712072

cnn.2.weight f4 [32, 16, 5]
00000000: 24a1 9bb2 1e4d 9fb2 70d3 a8b2 9d83 b7b2
00000010: 757a bfb2 240c 0880 56e4 1000 ee7e 1280
00000020: a0fc 0200 3f87 0300 c543 5c31 9ea3 8231
00000030: 2cf4 9631 7d82 9f31 663a a031 dcc0 7eb2
00000040: 854a 5cb2 465e 37b2 a228 18b2 0d38 1ab2
00000050: aebb 43b2 1cce 51b2 d834 61b2 cbf4 64b2
00000060: 0038 84b2 c818 1280 f939 1100 a070 1600
00000070: f595 0680 58b0 1800 f93f 0cb3 5ac5 12b3
00000080: 7829 19b3 b8df 21b3 d6df 26b3 1c33 1498
00000090: 09ec ae98 ef4b b897 6d3b 9818 645c 9c18
000000a0: 2576 8ab1 ec9c 94b1 516a a7b1 498e bdb1
000000b0: bc17 c9b1 14b6 1d00 a61b 1380 d604 1900
000000c0: 3bdf 1900 89cb 0180 8c5b 1eb3 1593 27b3
000000d0: da6e 2eb3 f4d6 33b3 4b33 3fb3 2fee d531
000000e0: 9f4f e331 85e1 c331 d85b aa31 861e 8831
000000f0: 6ea2 1a80 14f5 1300 07df 1700 7ebc 1500
00000100: 0ca9 0200 52d3 1300 bfc4 0900 f8a9 0c80
00000110: 4824 1d00 8d66 0380 9c40 0031 d130 1631
00000120: 86d1 0f31 dbe2 cc30 084e 2c30 eedb 3db3
00000130: 3b89 48b3 2136 4fb3 1f12 54b3 52bf 5ab3
00000140: 5839 0300 a9a5 0700 049d 0000 0249 0700
00000150: d581 0000 8a1f 0600 f23d 0800 8bb7 0c00
00000160: a82c 0b00 ea20 0180 4178 0380 ff95 0300
00000170: 9cec 0280 372a 0300 3a16 0700 b3b5 0700
00000180: 0534 0000 ed44 0680 566d 0280 9136 0700
00000190: 0e93 0700 d3e0 0400 00bb 0180 b70c 0780
000001a0: fd7f 0680 4941 0f80 f4c2 1380 8507 0c80
000001b0: 1d58 0700 de48 1100 dd38 0480 56ba 0080
000001c0: 627b 0700 b7f4 0600 efbf 0400 3ae8 0a00
000001d0: 1a28 1a80 633d 1600 7216 1580 0a97 0d00
000001e0: 54c7 0780 b190 0800 8eb6 0680 10c9 0080
000001f0: 571a 0880 04b9 1280 288f 1680 ef57 1c80
00000200: 4008 1500 0660 1880 5296 0080 ab2a 0380
00000210: efd2 0400 2230 0280 7eed 0380 723b 0100
00000220: 3f18 0600 2768 0300 5dd3 0300 ab51 0780
00000230: 511c 1500 6ee7 0400 0623 0e00 e11b 1800
00000240: e156 0e00 b927 0a00 caa1 0780 0124 0c00
00000250: c1a9 0800 e53a 0b80 4e7a 0080 5f3f 0180
00000260: 7802 0800 5b5c 0900 498d 0580 a748 0700
00000270: 1c37 0580 a63b 0100 d573 0700 c32c 0580
00000280: 10c5 acb1 2141 beb1 7cd8 bab1 7495 b7b1
00000290: 76e3 afb1 6149 1580 87d0 1d80 5501 0880
000002a0: 6ea9 0a80 45fa 0900 d5df 48b0 cd39 72b0
000002b0: fffc 9bb0 2a3b aeb0 d6d8 c9b0 8c0e 83b1
000002c0: 3e2a 70b1 5fb8 65b1 cb9a 64b1 c004 68b1
000002d0: 624a 10b1 6901 08b1 6efb d7b0 6e00 e7b0
000002e0: ecff f1b0 667a 0c00 3dc1 1d00 bc59 0200
000002f0: 40e4 1600 5b9e 1500 c4aa b2b1 e8ec bcb1
00000300: 8563 c0b1 d50d bfb1 833a c5b1 feaf be23
00000310: 1661 8ba2 e608 c9a3 279c 9224 a6aa e5a4
00000320: dbf4 0cb1 8d3a 0fb1 ad24 25b1 734f 26b1
00000330: 59a4 30b1 141f 1400 e0a0 0500 42ba 1180
00000340: 3ad3 1880 26c8 1780 5712 e1b1 89d1 ebb1
00000350: 92ba efb1 915b e7b1 fcda e2b1 7b21 862f
00000360: 089a e92e b765 94ae d122 5caf 1f30 0eb0
00000370: ef09 1e80 63ec 0a00 818e 0280 8c8d 1e00
00000380: 36d2 0380 5f12 1100 72f5 0600 1afb 1d00
00000390: 9d32 1480 8b44 1c80 f803 56b1 c2a5 56b1
000003a0: 946c 71b1 afc9 53b1 ca76 45b1 9788 ccb1
000003b0: 114b d7b1 2ae0 dcb1 cf06 d8b1 4088 d4b1
000003c0: b972 153a d95c 673c bd76 d63b c995 243d
000003d0: f30e 373e e434 0180 1ecf 0100 ed19 0780
000003e0: 43c5 0500 6ed2 0580 3cf8 5c3d 8f99 8a3d
000003f0: 9e9b 963d 85ff a13d 4bd9 123e 52f2 073d
-1.8117653e-08 -1.8545105e-08 -1.9653925e-08 -2.1363855e-08 -2.2291013e-08 -7.39039e-40 1.55128e-39 -1.698573e-39
2.74296e-40 3.24024e-40 3.2052736e-09 3.802099e-09 4.3933337e-09 4.642344e-09 4.663252e-09 -1.4828597e-08
-1.2822629e-08 -1.0673437e-08 -8.856803e-09 -8.976724e-09 -1.1393167e-08 -1.2212265e-08 -1.3108739e-08 -1.3327006e-08
-1.5392288e-08 -1.661929e-39 1.582e-39 2.060783e-39 -6.04807e-40 2.267312e-39 -3.2654473e-08 -3.4172764e-08
-3.5660804e-08 -3.7689205e-08 -3.8853464e-08 -1.9154355e-24 -4.521628e-24 -1.190989e-24 3.9351084e-24 4.0418346e-24
-4.02976e-09 -4.325207e-09 -4.8724265e-09 -5.5168e-09 -5.852568e-09 2.728547e-39 -1.754793e-39 2.297622e-39
2.375967e-39 -1.6485e-40 -3.6870503e-08 -3.9016488e-08 -4.061335e-08 -4.1872184e-08 -4.4517304e-08 6.2261942e-09
6.6156214e-09 5.7008855e-09 4.9580926e-09 3.961591e-09 -2.445992e-39 1.832792e-39 2.192224e-39 1.996164e-39
2.44314e-40 1.820682e-39 8.97099e-40 -1.162999e-39 2.676245e-39 -3.12295e-40 1.8663178e-09 2.1855622e-09
2.092834e-09 1.490743e-09 6.2684125e-10 -4.4205017e-08 -4.669094e-08 -4.8245173e-08 -4.9376577e-08 -5.0931085e-08
2.96078e-40 7.02276e-40 5.6327e-41 6.69039e-40 4.6575e-41 5.62327e-40 7.56906e-40 1.167869e-39
1.02621e-39 -1.03643e-40 -3.18645e-40 3.29315e-40 -2.6855e-40 2.9065e-40 6.50822e-40 7.0803e-40
1.8661e-41 -5.75739e-40 -2.22893e-40 6.62423e-40 6.95602e-40 4.47994e-40 -1.58918e-40 -6.4741e-40
-5.96927e-40 -1.400952e-39 -1.81481e-39 -1.104723e-39 6.74458e-40 1.587343e-39 -3.8774e-40 -6.6845e-41
6.8711e-40 6.388e-40 4.36195e-40 1.001662e-39 -2.402109e-39 2.042402e-39 -1.936597e-39 1.248044e-39
-7.14354e-40 7.8659e-40 -6.16501e-40 -7.2128e-41 -7.44133e-40 -1.71941e-39 -2.071736e-39 -2.602939e-39
1.931505e-39 -2.238499e-39 -5.3925e-41 -2.90813e-40 4.4301e-40 -2.00938e-40 -3.60703e-40 1.1316e-40
5.59711e-40 3.1287e-40 3.5133e-40 -6.72145e-40 1.938703e-39 4.50363e-40 1.298261e-39 2.214053e-39
1.316863e-39 9.32605e-40 -7.00887e-40 1.114942e-39 7.9558e-40 -1.031318e-39 -4.3875e-41 -1.14569e-40
7.3557e-40 8.5965e-40 -5.09861e-40 6.68911e-40 -4.78947e-40 1.13233e-40 6.84401e-40 -4.75235e-40
-5.0282623e-09 -5.537132e-09 -5.437924e-09 -5.342992e-09 -5.1190296e-09 -1.954869e-39 -2.738035e-39 -7.35162e-40
-9.79135e-40 9.16299e-40 -7.307766e-10 -8.8121227e-10 -1.134964e-09 -1.2676982e-09 -1.4686303e-09 -3.8142556e-09
-3.4948608e-09 -3.3428689e-09 -3.3266356e-09 -3.3763143e-09 -2.099704e-09 -1.9791406e-09 -1.571477e-09 -1.6807584e-09
-1.7607795e-09 1.145934e-39 2.73255e-39 2.15862e-40 2.102262e-39 1.985353e-39 -5.1998956e-09 -5.4984532e-09
-5.5992495e-09 -5.560404e-09 -5.7401066e-09 2.0674377e-17 -3.777882e-18 -2.1796232e-17 6.358194e-17 -9.960201e-17
-2.0511866e-09 -2.084252e-09 -2.4031508e-09 -2.420134e-09 -2.5704792e-09 1.847859e-39 5.16889e-40 -1.62802e-39
-2.279826e-39 -2.184016e-39 -6.550447e-09 -6.8632215e-09 -6.977026e-09 -6.7333947e-09 -6.6023613e-09 2.4398247e-10
1.0622975e-10 -6.748329e-11 -2.0021253e-10 -5.1727683e-10 -2.758628e-39 1.003155e-39 -2.34792e-40 2.805842e-39
-3.50916e-40 1.567794e-39 6.39062e-40 2.753308e-39 -1.854867e-39 -2.595982e-39 -3.1143355e-09 -3.123532e-09
-3.5131835e-09 -3.0819185e-09 -2.8734797e-09 -5.95271e-09 -6.2658576e-09 -6.428327e-09 -6.2872014e-09 -6.185502e-09
0.0005700994 0.014121258 0.0065449164 0.04018191 0.17876796 -1.10809e-40 1.66135e-40 -6.52149e-40
5.29942e-40 -5.34665e-40 0.053947672 0.0676757 0.073539004 0.079100646 0.14340703 0.03319008

cnn.2.bias f4 [32]
00000000: a168 c0b2 5b9c 0f80 81d6 a5b1 48e8 693a
00000010: f4cb 363e 1ce9 b6bd 97cd 0600 bdb6 4735
00000020: 04dc 2580 cea4 9fbd 876f 139e c658 8b88
00000030: f42f 0fa3 04e6 a6ae 3f35 28a2 f49c 053d
00000040: a060 edb8 aafc 448e 930a c73d decb 8793
00000050: 4072 353d 1bf1 d4aa 424c be3e f039 bfb4
00000060: 3570 73be 5edf d4bd 0fa7 58bd 5295 6199
00000070: 7474 49b1 ef7f 47be 2588 81b3 32f4 a11a
-2.2399322e-08 -1.433622e-39 -4.8265183e-09 0.0008922857 0.1785124 -0.08931181 6.24765e-40 7.4399196e-07
-3.47684e-39 -0.07795106 -7.8051785e-21 -8.386629e-34 -7.7622e-18 -7.589665e-11 -2.2796434e-18 0.032620385
-0.000113190385 -2.4280519e-30 0.09718814 -3.427982e-27 0.04429841 -3.7826066e-13 0.37167555 -3.5618677e-07
-0.23773272 -0.103941664 -0.052893694 -1.1662382e-23 -2.9315546e-09 -0.19482397 -6.031795e-08 6.698256e-23

cnn.4.weight f4 [32, 32, 3]
00000000: 2801 0880 51c9 0380 1f1b 1280 4bb8 0a80
00000010: 251e 1100 7116 1500 712b 0780 d8e8 0f00
00000020: ea72 1900 fc00 0c92 d607 ba91 76b5 dd91
00000030: 95a1 0100 061e 0000 25d6 0180 f172 0380
00000040: 0eee 0480 0534 0680 ac52 0c80 0223 0800
00000050: 9009 0180 8650 1a80 2c59 1f00 f4de 1180
00000060: c8cd 0300 06b6 0480 5f13 0780 b127 bd9f
00000070: 8f75 8f9f 996c c29f b397 0e80 de8d 1d00
00000080: a079 1980 272a 0c00 d6fe 0880 121b 1a80
00000090: 8180 2200 42c8 1080 39d5 0880 76e8 1600
000000a0: c1d3 0280 e028 1b80 548b 1c00 2999 1b00
000000b0: 7ae2 0080 c01c 0600 da0d 0580 641f 0480
000000c0: ff70 1d80 b4dc 0f80 6629 2100 0e01 1b80
000000d0: 01f4 1e80 be93 1b80 e3c7 0100 d10e 0000
000000e0: 5cc1 0580 ff5b 2580 441e 1b00 73a8 2200
000000f0: 710c f988 d5f9 6688 0e37 ef87 05a0 1280
00000100: 03dd 1600 5ad8 0900 3056 0280 e366 0180
00000110: a0ab 0680 d868 1100 be70 1d00 8f5c 1800
00000120: 5776 3200 7f3d 0900 785f 0300 8204 049c
00000130: bbe7 f59b 4552 079c c311 ff99 df30 ec99
00000140: b325 119a a1a9 0a00 376d 0780 306f 0400
00000150: d6e9 0580 a5c3 0700 ddfa 1000 57e2 008c
00000160: 10a8 dc09 22b8 e509 d237 1300 52f4 0d00
00000170: 688a 0880 ae1c 0200 ecb0 1b80 c5b6 1a80
00000180: ef9b 5ea7 fc36 f5a6 87aa 90a8 a0ce 1100
00000190: c4bc 1900 e4f5 1900 335e 85a2 d3fa b7a1
000001a0: 869a 4422 fab8 9db9 812b 11ba 4a91 45ba
000001b0: 61a1 ca39 06a2 9f39 882f 3c39 92ef 333a
000001c0: ad5b 293a ed18 e839 66f5 0b80 b042 0b00
000001d0: 0827 0980 4094 f227 30f8 8b2d 6f44 1e30
000001e0: 36da 1980 63b6 0480 153a 1900 d91b 59ba
000001f0: 7e65 92ba 5b8c b2ba 4e4d af16 3aba e715
00000200: 406d a995 e5a9 1800 16aa 1880 30f2 0e80
00000210: af31 da87 fd5e 4e08 4b52 a887 4434 a927
00000220: 1576 c828 c4a8 e628 5015 1496 5e16 8e16
00000230: f6f7 3b16 28c4 873a 3626 083a b3aa 42b8
00000240: 9db2 d922 18bd 9ba2 7bef a7a2 a9ca cd07
00000250: b839 7b07 3293 4807 1e52 41b7 4e2b c835
00000260: a0b5 bd38 8557 a609 9eb3 d789 3977 a789
00000270: 628a 7e3a b99f 373a 4c9c b339 32e9 209c
00000280: e8d4 249c 0eda 4b9c 5f3d d5b9 077b f5b9
00000290: 948a 0cba 616e 89a8 bb1a 4427 cc99 b129
000002a0: f6d0 b7ba ff6a bdba e9bc 7dba 5c87 4139
000002b0: 63e4 2338 c16a 36b9 d68f 5139 e28a 77b8
000002c0: 9e82 b2b9 aa73 0600 782e 0180 2495 0a00
000002d0: 0b42 5e2b 84e8 fcac 2453 5a2d ec25 11b9
000002e0: 3d69 38b9 20ba 4fb9 9a15 531f 55ba 7b1f
000002f0: fb30 a11d d54e 410c a880 398d d4ee d20d
00000300: a7a8 1b80 5618 1f80 9531 0900 c9f6 0080
00000310: db07 0300 8580 1000 a5c8 1e80 e6d6 1d80
00000320: 7219 0e00 5254 eea4 e1e0 d3a4 c747 05a5
00000330: 8637 1906 1b57 1c06 b30a 4b06 728a 3605
00000340: ef92 8504 0f5f 1e04 76cd 1400 f9cb 1280
00000350: 2f4d 1900 c0e5 1000 4b13 1b80 fe38 1100
00000360: 8195 0100 ee66 0780 2bad 0180 63ec f5ab
00000370: b578 e3ab d4cf 05ac e202 0c80 8bfc 1680
00000380: 916e 0280 85cf 1a80 2caa 0200 bbb3 0680
00000390: 4af0 1680 bf30 0180 6890 0c80 26a3 1a00
000003a0: a4dd 1600 c57a 0080 ec5b 2000 8848 1900
000003b0: 4ff0 1a00 6e2c 0280 636d 0500 a27e 0500
000003c0: bac9 0c80 6f1b 1c80 7903 1900 6868 0580
000003d0: e340 0180 8989 1580 9669 0080 ac86 0280
000003e0: 6c87 0180 19b8 0e80 4966 0b00 444b 0380
000003f0: 2f4c 7ca1 4c67 26a1 34bd 1ba1 ecf1 0700
-7.35099e-40 -3.47725e-40 -1.662768e-39 -9.84467e-40 1.572017e-39 1.936596e-39 -6.58432e-40 1.461061e-39
2.337111e-39 -4.4177424e-28 -2.9350455e-28 -3.4979486e-28 1.498e-40 1.077e-41 -1.68656e-40 -3.1674e-40
-4.5274e-40 -5.69674e-40 -1.131683e-39 7.47242e-40 -9.5266e-41 -2.416609e-39 2.878889e-39 -1.641184e-39
3.49327e-40 -4.3264e-40 -6.49798e-40 -8.011028e-20 -6.075734e-20 -8.2341856e-20 -1.340116e-39 2.714122e-39
-2.339518e-39 1.117147e-39 -8.26102e-40 -2.397434e-39 3.168505e-39 -1.541207e-39 -8.11174e-40 2.103772e-39
-2.59634e-40 -2.494222e-39 2.621375e-39 2.534502e-39 -8.1244e-41 5.61327e-40 -4.64146e-40 -3.78603e-40
-2.703765e-39 -1.456706e-39 3.045422e-39 -2.479937e-39 -2.842597e-39 -2.532558e-39 1.63541e-40 5.315e-42
-5.28542e-40 -3.430915e-39 2.490416e-39 3.182835e-39 -1.4989067e-33 -6.9506784e-34 -3.5993081e-34 -1.710443e-39
2.099665e-39 9.04132e-40 -2.14589e-40 -1.28744e-40 -6.1258e-40 1.598814e-39 2.703674e-39 2.237256e-39
4.634227e-39 8.4858e-40 3.09754e-40 -4.3680963e-22 -4.0681602e-22 -4.4774084e-22 -2.6373556e-23 -2.4421567e-23
-3.001575e-23 9.79206e-40 -6.82027e-40 4.07229e-40 -5.43062e-40 7.13033e-40 1.559361e-39 -9.928873e-32
5.312112e-33 5.5302902e-33 1.764899e-39 1.281507e-39 -7.84335e-40 1.9396e-40 -2.543026e-39 -2.453288e-39
-3.089322e-15 -1.7015194e-15 -1.6061166e-14 1.635327e-39 2.363604e-39 2.384096e-39 -3.614946e-18 -1.2466955e-18
2.6644757e-18 -0.00030083192 -0.00055377936 -0.00075366034 0.0003864868 0.0003044756 0.00017946784 0.0006864007
0.0006460499 0.0004426906 -1.098223e-39 1.034113e-39 -8.40521e-40 6.7329226e-15 1.5912688e-11 5.7577315e-10
-2.374167e-39 -4.3277e-40 2.316723e-39 -0.00082820427 -0.0011169163 -0.0013622151 2.832156e-25 9.359397e-26
-6.843092e-26 2.264999e-39 -2.265067e-39 -1.372577e-39 -3.2830196e-34 6.210253e-34 -2.5326198e-34 4.696359e-15
2.225567e-14 2.560832e-14 -1.196207e-25 2.2955453e-25 1.5183982e-25 0.0010358142 0.0005193682 -4.641218e-05
5.900708e-18 -4.2213045e-18 -4.5519e-18 3.0964085e-34 1.8900103e-34 1.5089585e-34 -1.1522816e-05 1.4913765e-06
9.0460526e-05 4.004535e-33 -5.192828e-33 -4.0315904e-33 0.00097099517 0.00070046965 0.0003425799 -5.3240957e-22
-5.4538223e-22 -6.7448895e-22 -0.0004067225 -0.00046821704 -0.0005361226 -1.5257925e-14 2.7214955e-15 7.8870585e-14
-0.0014024067 -0.0014451443 -0.0009679334 0.0001845634 3.907493e-05 -0.00017396641 0.00019985376 -5.9018734e-05
-0.00034048123 5.92505e-40 -1.08505e-40 9.71857e-40 7.8961897e-13 -7.188085e-12 1.2410326e-11 -0.00013842405
-0.00017586812 -0.00019810395 4.4698856e-20 5.3305448e-20 4.266699e-21 1.4891902e-31 -5.716239e-31 1.2999745e-30
-2.54006e-39 -2.85563e-39 8.44306e-40 -8.853e-41 2.78324e-40 1.515472e-39 -2.827043e-39 -2.74032e-39
1.294825e-39 -1.0335889e-16 -9.188762e-17 -1.156023e-16 2.8816894e-35 2.9404334e-35 3.8187917e-35 8.583027e-36
3.1403087e-36 1.861646e-36 1.910415e-39 -1.72621e-39 2.323576e-39 1.551787e-39 -2.48648e-39 1.581648e-39
1.45467e-40 -6.79773e-40 -1.53956e-40 -1.7473908e-12 -1.6162823e-12 -1.9015805e-12 -1.10306e-39 -2.110976e-39
-2.23335e-40 -2.462167e-39 2.44717e-40 -6.15488e-40 -2.10658e-39 -1.09322e-40 -1.153829e-39 2.44625e-39
2.09989e-39 -4.4041e-41 2.971711e-39 2.321907e-39 2.47393e-39 -1.9961e-40 4.98418e-40 5.04605e-40
-1.174392e-39 -2.581235e-39 2.297133e-39 -4.96631e-40 -1.15112e-40 -1.977884e-39 -3.7877e-41 -2.31982e-40
-1.40416e-40 -1.351739e-39 1.046883e-39 -3.02507e-40 -8.548175e-19 -5.63797e-19 -5.276645e-19 7.29634e-40

cnn.4.bias f4 [32]
00000000: 900b 2696 5400 f5b9 9cf0 c1a7 cf15 0380
00000010: 7993 3f26 58b8 0d3d 4d36 0509 7441 0780
00000020: d9ec 02be 11b5 9a8e baf1 69b3 3b5b b99f
00000030: d520 3c80 4d8d 3a3e 0d00 36bd 4869 5835
00000040: ce1f 28bd 28d9 0592 9197 0081 0230 b2bd
00000050: 5c2d 61bd 0859 20a3 7dd8 bbb0 bd4b b0bd
00000060: fa84 0480 95c6 90a4 72a7 9ea7 dd96 933c
00000070: cff4 0034 b83a 1490 4370 44a6 2d4c 0700
-1.3413022e-25 -0.00046730286 -5.382913e-15 -2.8333e-40 6.64663e-16 0.034599632 1.6034825e-33 -6.66329e-40
-0.12785663 -3.813829e-30 -5.446939e-08 -7.8501476e-20 -5.521908e-39 0.18217964 -0.044433642 8.0619475e-07
-0.041045956 -4.2235066e-28 -2.361863e-38 -0.08700563 -0.0549749 -8.6924705e-18 -1.366757e-09 -0.08608196
-4.15045e-40 -6.2786456e-17 -4.4035354e-15 0.018016273 1.200999e-07 -2.923309e-29 -6.8153303e-16 6.70175e-40

cnn.6.weight f4 [64, 32, 3]
00000000: 3b0d 0700 1cb4 0380 8240 0000 07ba 113b
00000010: 5ee4 3e3b b1e3 563b 2d67 0880 c0ef 0680
00000020: 3eeb 0000 2304 1682 4bda 0300 26f1 0580
00000030: cb4b 7ea3 e4b8 baa3 bb8a 7223 55cf 85bc
00000040: 94b9 223b ca42 2f3c d7d2 be84 8c6a 0683
00000050: 9801 d081 9b66 0700 1cb4 0400 0eb2 0600
00000060: 6102 f4bd 3ae7 c2bd 67f0 b5bd eba8 e58c
00000070: 4af1 7e8d 64fd da8d 592e 6009 ac7a 9b89
00000080: 8785 8b89 f697 e89c fe97 d21d fcbb ef9c
00000090: d625 0400 ec5a 0700 3bcb 0000 8b8e 993e
000000a0: 2291 403e af2e d5be f3f2 29be 53ea 85bd
000000b0: 6e73 b6bd 066a 8fb4 6689 beb4 1ebc abb4
000000c0: 3417 26be faae 0dbd 72e3 75bc 2c74 c32b
000000d0: 3d82 c60f 2cf6 fe8d fc2f 0280 97b3 0900
000000e0: e242 0d00 af41 ca3d 8f96 fe3d 58b9 b83d
000000f0: d73a 3dbd 914a cf3c e82c c63d 3594 4022
00000100: 29b9 a922 2682 f722 3c4c 74af e43d 99af
00000110: d940 b2af ef71 8d3d 8693 3e3e 53f9 a53d
00000120: a643 0980 d0e4 0680 dc50 0400 6ae9 e1a3
00000130: dbca 99a2 9096 c923 42a2 8ba5 7ec1 e7a5
00000140: 0f8b 43a6 6195 6f3d d48e f13d e510 af3c
00000150: 5683 86b0 4fdf ddb0 5dcb c9b0 589c 0080
00000160: ca9f 0400 ff86 0400 e211 4924 2940 d8a4
00000170: 25cc af24 4462 0500 f005 0480 6ef7 0000
00000180: c620 0580 d34a 0600 bf1b 0600 8d8b d2a9
00000190: df27 9d2a 81f2 5925 850b 0880 e22d 0880
000001a0: 03fa 0100 548b 0a80 d4fb 0a00 fd3e 0a00
000001b0: 3cbb ad18 a28c 2917 5f4c 2898 43b1 20b5
000001c0: 7220 acb5 00bc 60b5 668a 0580 8289 1780
000001d0: d3d9 1600 c772 0400 f4a2 1380 3324 0300
000001e0: 668a 4533 f9c4 4333 f002 99b2 b86d eb03
000001f0: 9f14 b404 7878 b304 cdfc 4302 c46a 8c01
00000200: 0931 8b02 7d5e 1f14 2494 1a14 bfa8 b914
00000210: 89f0 0f80 9148 1480 983d 1400 249c 47b6
00000220: 7a27 53b6 7b2c 80b6 25b2 89b6 2085 6bb6
00000230: 4353 92b6 17b0 012b 135b 1d2b dfd9 a22a
00000240: 3cff 00b3 de89 1830 ee13 34b3 1417 cb87
00000250: 586c 8187 f12b 7407 c9a1 1400 3e9b 0b80
00000260: 3bed 0780 ab3c 5b34 5a67 8532 0af6 032f
00000270: d340 17b2 2028 5ab1 4b3a 5bac 31d0 9195
00000280: d3f9 6296 17b6 1997 d788 ad23 7f61 57a4
00000290: bbbc 1f24 f5ae b5b6 9929 86b6 242c 92b6
000002a0: 81b8 0a00 bb27 0580 22c3 0c80 dc48 2919
000002b0: 3121 d019 f98b b397 8b0b 009c f1b2 959b
000002c0: 0be9 a79b 93af 92b5 63ea a0b5 5833 f5b5
000002d0: 60e5 dda3 7cf6 8828 e138 d728 cca9 0180
000002e0: 155a 0080 f5b2 0300 5671 009b 769a 479c
000002f0: e54c 611c 6694 1280 e63d 1780 346b 0100
00000300: d352 0880 8c5a 1780 b8ea 0680 0b8f 0d80
00000310: cb85 1580 2cf5 0b00 8522 1a80 415c 1e80
00000320: 0fae 1400 1698 1e00 9d2e 0e00 a62d 1e00
00000330: 49b1 1600 91cd 0280 d56c 0e80 1d10 0480
00000340: 1c26 0300 2b52 0600 aa9c 0f80 3e36 0d00
00000350: b4ee 0b80 3c77 1480 7d6a 1080 563c 1800
00000360: 0cad 0180 6626 0780 4d4b 0280 63bc 1b80
00000370: 8720 1400 c819 1400 2928 0100 c898 0000
00000380: 26f8 0b80 c7bb 1480 4997 1380 025d 0780
00000390: 63c8 0280 0734 0380 5c7f 1380 43c8 31b3
000003a0: 5327 9bb3 6f96 e9b4 a7c5 5eb0 e8ca 29b0
000003b0: ba05 17b1 f1ae 0900 a8c2 0b80 6079 0c00
000003c0: 6dd3 3c95 3e62 aa95 4af9 2899 c952 0b80
000003d0: 7d0f 0a80 a8c9 0080 7cd2 0e00 0f00 1480
000003e0: ef7c 0980 c504 0880 6bd7 0580 728f 0780
000003f0: 97f9 0100 abdc 0300 b87d 0100 979b 1180
6.47595e-40 -3.40118e-40 2.3141e-41 0.0022236125 0.0029127817 0.0032789523 -7.71696e-40 -6.37019e-40
8.4389e-41 -1.1021447e-37 3.53815e-40 -5.45685e-40 -1.3785417e-17 -2.0244465e-17 1.3148224e-17 -0.016334215
0.0024829851 0.010697076 -4.486241e-36 -3.950137e-37 -7.640942e-38 6.79656e-40 4.31953e-40 6.14887e-40
-0.11914516 -0.09516759 -0.08883744 -3.53847e-31 -7.8560234e-31 -1.3496289e-30 2.6984812e-33 -3.7430253e-33
-3.35886e-33 -1.5391753e-21 5.5743693e-21 -1.5864286e-21 3.80915e-40 6.75465e-40 7.2905e-41 0.29991564
0.18805364 -0.4163718 -0.16596584 -0.065388344 -0.08908735 -2.6712968e-07 -3.5490228e-07 -3.1988105e-07
-0.16219789 -0.0345907 -0.0150078405 1.3887828e-12 1.9574473e-29 -1.5713222e-30 -2.00885e-40 8.90944e-40
1.217854e-39 0.098758094 0.124310605 0.090197265 -0.046198692 0.02530411 0.09676534 2.6099312e-18
4.6003588e-18 6.7087284e-18 -2.2218755e-10 -2.7874514e-10 -3.2424088e-10 0.06906497 0.18610963 0.081041954
-8.50787e-40 -6.33095e-40 3.96349e-40 -2.4493404e-17 -4.1685515e-18 2.185623e-17 -2.4222606e-16 -4.0203228e-16
-6.7842675e-16 0.05849207 0.117948204 0.02137036 -9.787111e-10 -1.6143334e-09 -1.4682474e-09 -5.6086e-41
4.24663e-40 4.1577e-40 4.3600075e-17 -9.378376e-17 7.6239986e-17 4.94429e-40 -3.69472e-40 8.8761e-41
-4.70934e-40 5.77855e-40 5.60966e-40 -9.3500816e-14 2.7916469e-13 1.8903913e-16 -7.38816e-40 -7.51144e-40
1.81523e-40 -9.68336e-40 1.008694e-39 9.40951e-40 4.490851e-24 5.478435e-25 -2.1752049e-24 -5.9862595e-07
-1.2824441e-06 -8.372008e-07 -5.08825e-40 -2.161545e-39 2.098522e-39 4.08516e-40 -1.803331e-39 2.88492e-40
4.599351e-08 4.558112e-08 -1.781288e-08 1.3837249e-36 4.2336734e-36 4.219333e-36 1.4398888e-37 5.158108e-38
2.045236e-37 8.046083e-27 7.804229e-27 1.8746785e-26 -1.46382e-39 -1.862742e-39 1.858806e-39 -2.9744197e-06
-3.1464429e-06 -3.8198755e-06 -4.103657e-06 -3.5095218e-06 -4.360832e-06 4.607438e-13 5.5903996e-13 2.892816e-13
-3.0034457e-08 5.54932e-10 -4.1927642e-08 -3.055761e-34 -1.9473441e-34 1.8369433e-34 1.894748e-39 -1.065881e-39
-7.27951e-40 2.0418035e-07 1.5530237e-08 1.2001791e-10 -8.804096e-09 -3.1745984e-09 -3.115413e-12 -5.88935e-26
-1.8334965e-25 -4.9666796e-25 1.8814652e-17 -4.6703276e-17 3.463749e-17 -5.414588e-06 -3.998354e-06 -4.3562777e-06
9.84542e-40 -4.7343e-40 -1.172026e-39 8.751809e-24 2.1520102e-23 -1.1602938e-24 -4.2366566e-22 -2.476562e-22
-2.7778433e-22 -1.0928946e-06 -1.1989144e-06 -1.8268865e-06 -2.4058012e-17 1.5205929e-14 2.3894462e-14 -1.52747e-40
-3.2315e-41 3.39704e-40 -1.0624533e-22 -6.6043213e-22 7.454564e-22 -1.706274e-39 -2.134421e-39 1.30293e-40
-7.64396e-40 -2.144699e-39 -6.35214e-40 -1.245176e-39 -1.976541e-39 1.098142e-39 -2.400106e-39 -2.78816e-39
1.89915e-39 2.809623e-39 1.302419e-39 2.77144e-39 2.083979e-39 -2.57414e-40 -1.324739e-39 -3.73122e-40
2.89178e-40 5.80489e-40 -1.433733e-39 1.21332e-39 -1.095821e-39 -1.879483e-39 -1.507569e-39 2.225696e-39
-1.53913e-40 -6.56623e-40 -2.10684e-40 -2.547139e-39 1.848379e-39 1.845958e-39 1.06242e-40 5.4808e-41
-1.09921e-39 -1.904072e-39 -1.799145e-39 -6.76213e-40 -2.55556e-40 -2.9417e-40 -1.790562e-39 -4.139316e-08
-7.224903e-08 -4.3509087e-07 -8.104401e-10 -6.177019e-10 -2.1976647e-09 8.89277e-40 -1.08002e-39 1.145567e-39
-3.8133083e-26 -6.881745e-26 -8.73574e-24 -1.039888e-39 -9.23911e-40 -7.234e-41 1.361205e-39 -1.836731e-39
-8.71337e-40 -7.36395e-40 -5.36455e-40 -6.94307e-40 1.81371e-40 3.54667e-40 1.36935e-40 -1.617019e-39

cnn.6.bias f4 [64]
00000000: 9ca8 73bd 02ac 6d38 9725 bf98 2394 cb33
00000010: 2113 883d eb5a 2f82 32f2 0480 fd5b 04b8
00000020: 0433 23bd f257 0cbd 7885 2c96 82ec f8b8
00000030: 27a5 183e da9e 0f3a 2ae2 92b7 b6fa 569f
00000040: 96b7 523c 1127 b6b7 1742 70bc 288c 0700
00000050: 1cae f8bd 8591 453a 7ddd bf3a 08a9 d4ae
00000060: 7524 5e92 c9c5 799d 765d 68bd d0da d9bc
00000070: a2f1 9b3a bbb0 be9f e3f2 58a3 731c 883c
00000080: 93b6 1b3d 47c7 a439 a05d e480 9754 4482
00000090: 9226 bdbd 68fa c637 7f4d 0180 8fd7 2582
000000a0: cfd9 8fa7 b19f b3bc 10f0 d9bb 2dd4 933c
000000b0: e3ce 96ba 73bf 6539 0d8f bc33 1c14 f0a1
000000c0: 85aa b081 0857 3e80 acf4 7a94 2d8a a7a6
000000d0: 92db 26bd a6d4 2ebd 3d0e 0700 ee43 8b83
000000e0: b011 84ab 798d d93c ec87 59bb 5959 1c3d
000000f0: 2fd7 c13c b4f9 0280 7ae1 41bd a852 b5bb
-0.05948697 5.6665398e-05 -4.94103e-24 9.47987e-08 0.066442735 -1.2883062e-37 -4.54225e-40 -3.1556923e-05
-0.039843574 -0.03426356 -1.3936165e-25 -0.000118696145 0.1490675 0.0005478688 -1.7509872e-05 -4.5523646e-20
0.012861153 -2.1714282e-05 -0.014664195 6.93127e-40 -0.12142584 0.0007536638 0.0014638152 -9.67067e-11
-7.0095785e-28 -3.3057128e-21 -0.056729756 -0.026593596 0.0011897574 -8.0760506e-20 -1.1760817e-17 0.016615128
0.038015913 0.0003142899 -2.097208e-38 -1.4424082e-37 -0.09235872 2.3720044e-05 -1.19636e-40 -1.2184148e-37
-3.992662e-15 -0.021926733 -0.006650932 0.01804551 -0.0011505749 0.00021910462 8.780453e-08 -1.6268355e-18
-6.4896873e-38 -5.725022e-39 -1.26700275e-26 -1.1625405e-15 -0.040736742 -0.042683266 6.47956e-40 -8.185282e-37
-9.384073e-13 0.026556717 -0.0033192588 0.038171146 0.023662178 -2.73248e-40 -0.04733417 -0.005533535

rnn.weight_ih_l0 f4 [384, 64]
00000000: 729a fab8 068a cf2e 2b2a 1380 bf58 caa8
00000010: 977f 90b8 f8e9 1880 f951 0000 068e 0c2f
00000020: 86e5 5db7 4061 98b8 f4d1 df11 85ff 8e32
00000030: de3a 58bb 6cc0 af32 15be 0900 b66a dc98
00000040: d32e 93b8 6361 fcb2 d9ca 1e38 6b85 1800
00000050: b5e9 e937 d7d5 86ae 78f5 4db5 5142 ee90
00000060: ebb6 4f8d 5715 0d80 aa3b 13b8 1f30 d633
00000070: b10a 9d31 c30d 0800 dc01 0300 da37 91b9
00000080: c757 b136 fe8f 1731 8e73 0c80 16f9 1600
00000090: e2bb 1ab8 2d4b 2831 2db1 0280 ffe2 1c80
000000a0: f0a4 1a00 50a1 1ab7 5f2e d3b4 f0c2 52b9
000000b0: 4c85 6c34 fa80 59b0 a3dc b72f c7ee 351d
000000c0: 2da0 0200 6e77 1300 c617 288e c7f4 0500
000000d0: 8ec3 87ba 7829 94b9 4a3a 1580 efc6 0a80
000000e0: 8fd0 9d23 9083 aebb ad0e 2539 636a beb5
000000f0: 275b 2cb8 7abd 1d00 bd50 76b7 478c bfb5
00000100: 8e5d ba3b 7d6c 1633 8bb2 0f00 d7ff e5ac
00000110: 0ece af3d 030e 1601 2e5c 0080 a336 e4b5
00000120: c572 843c 9014 523d 3704 2d16 628b 49b8
00000130: 46af f13d 0a14 77b8 269d 0300 4980 201c
00000140: 8bff 4c3b dab2 c1b7 811d ac3b 235f 0380
00000150: 7185 023d 7e77 3233 fcee 96b9 8e6b b095
00000160: b6c8 2d10 d5a0 0280 b1af 263c fe31 dbb9
00000170: b6df f9b3 1918 1b80 0720 0200 24b0 953c
00000180: bf85 43bb 8fa6 8b35 aea2 0700 a359 0000
00000190: c52b 3e3c 3d84 a636 d49d 1980 e25e 0d80
000001a0: 5d02 1200 e0d4 0e3c e0b8 73b9 0c52 e0b9
000001b0: 2f6d 5cba 349f e7b6 23b5 de31 e6c5 7d9f
000001c0: 612d 0e00 7c9b 0100 154f 0894 f49b 0800
000001d0: 7c13 003d f322 f53b 871f 1400 4c7f 0a80
000001e0: 3524 4128 31d7 603e 2128 c83c 8834 153d
000001f0: cc73 353c 95ab 0d80 7225 d83c a946 1538
00000200: 9756 bfb9 43cf 2cac f497 0300 e586 6ca7
00000210: d05c 2fba 555c 1900 ad68 1780 102a 91af
00000220: e6ac efb8 9c6d 59b9 90d5 0e12 8a79 3332
00000230: e1b4 7abb 0ce6 41b2 8d71 0a80 d979 ea97
00000240: 84d0 5cb9 0655 cdb2 1521 65b8 bba9 0880
00000250: d6f6 9ab9 a18f 6230 d126 aeb5 89e2 2c12
00000260: acc1 170d 4a19 0400 91d7 8cb9 5421 0837
00000270: 1f30 ad30 7e8c 1b80 eb05 0c00 6384 2dba
00000280: a7d4 2835 f26d c6af 40ad 1080 9731 0c00
00000290: 96d0 3e38 7fac 2130 fda0 1080 d749 0300
000002a0: af88 0c80 11c1 f2b8 cc93 09b6 6b1e d4b9
000002b0: 4db0 3b36 6eaa c930 e54f d12e 4d2e 379a
000002c0: 2c19 0d00 eea6 0180 0a4b 0a8d be6f 0600
000002d0: bf46 adba a6a4 15ba 1040 1200 b388 0e80
000002e0: 16e7 57a2 9a4a 95bb 17cf 12b9 c1b4 d6b7
000002f0: ee68 3db9 d2f0 0500 de38 c1b8 c36a acb3
00000300: 7d41 6a3c d335 fbb3 120a 0d80 819e 96ab
00000310: 6269 8a3d 88a6 2b81 b352 0b80 9833 3335
00000320: f5d3 cd3b 3982 0bbc 5e19 b914 b32a a4b7
00000330: 41df 0e3e ef6c 7737 71f6 0600 76c3 b21c
00000340: e004 803b 70f1 a437 6486 743c 64c0 0880
00000350: d6e6 cc3c 5955 8a34 2588 c539 81b6 8e96
00000360: 0e4e 1d10 d555 1480 d94b 803c 4d3e b33b
00000370: 913c b735 af80 1800 d8fa 0580 cd1f 743c
00000380: 7c1e 973b 711c ab35 b8e2 0600 ca2e 0800
00000390: aa04 ff3b 76f5 5135 8f20 1080 920d 3800
000003a0: 8967 1900 0110 863b cce0 b13a e46c 593c
000003b0: 7405 bb3a da22 1935 3dd8 df32 fa7b 311c
000003c0: 394e 0500 b733 0f80 571b 9414 7c88 0d80
000003d0: 7ee4 203d 15fc fc3b cbfe 0480 ac67 0580
000003e0: c307 4428 fd5b 273e 510f dc3b 8467 d73c
000003f0: 6f15 7d3c be46 1280 2c8d 69ba aba0 a1b7
-0.00011949697 9.437788e-11 -1.760001e-39 -2.2464993e-14 -6.8902205e-05 -2.287984e-39 2.9406e-41 1.2783383e-10
-1.3226067e-05 -7.266039e-05 3.531259e-28 1.6647173e-08 -0.0032994072 2.0460185e-08 8.94708e-40 -5.6976418e-24
-7.018228e-05 -2.9380947e-08 3.7859052e-05 2.251913e-39 2.7884593e-05 -6.1316e-11 -7.6725655e-07 -9.3976624e-29
-6.400698e-31 -1.201517e-39 -3.5103098e-05 9.973905e-08 4.570517e-09 7.39621e-40 2.76174e-40 -0.00027698168
5.2852297e-06 2.2055242e-09 -1.143479e-39 2.109736e-39 -3.689144e-05 2.448995e-09 -2.4723e-40 -2.652825e-39
2.446891e-39 -9.216674e-06 -3.9335552e-07 -0.0002009978 2.2027706e-07 -7.9127427e-10 3.3444278e-10 2.4078596e-21
2.41131e-40 1.787718e-39 -2.0719045e-30 5.46987e-40 -0.0010357962 -0.00028259656 -1.949456e-39 -9.89719e-40
1.7110302e-17 -0.005325742 0.00015741093 -1.4187066e-06 -4.1092888e-05 2.731201e-39 -1.4681541e-05 -1.4271435e-06
0.005687422 3.5023266e-08 1.441582e-39 -6.5369754e-12 0.08584224 2.7560702e-38 -3.3068e-41 -1.7003225e-06
0.016168008 0.05128914 1.3976159e-25 -4.8051945e-05 0.11801009 -5.8908052e-05 3.31881e-40 5.3105364e-22
0.0031280245 -2.3090677e-05 0.0052525406 -3.09635e-40 0.03186554 4.1552532e-08 -0.00028788287 -7.1255525e-26
3.4272856e-29 -2.41367e-40 0.010173724 -0.00041808182 -1.1635659e-07 -2.488203e-39 1.9516e-40 0.018272467
-0.0029834358 1.0404782e-06 7.01207e-40 3.2156e-41 0.011607115 4.96258e-06 -2.352505e-39 -1.227899e-39
1.653887e-39 0.008717746 -0.00023243157 -0.0004278574 -0.00084086036 -6.90287e-06 6.4816432e-09 -5.3738532e-20
1.301976e-39 1.47613e-40 -6.8818415e-27 7.9063e-40 0.03126858 0.007480973 1.84802e-39 -9.6402e-40
1.0721503e-14 0.21957089 0.024433197 0.03642705 0.011074971 -1.255413e-39 0.026385043 3.5590176e-05
-0.00036494873 -2.4557723e-12 3.30017e-40 -3.2824706e-15 -0.00066895504 2.32901e-39 -2.149767e-39 -2.6405234e-10
-0.00011428613 -0.00020735565 4.5070536e-28 1.0446806e-08 -0.0038254785 -1.1286385e-08 -9.5909e-40 -1.5152654e-24
-0.00021058513 -2.3903805e-08 -5.4628665e-05 -7.95572e-40 -0.00029557076 8.242243e-10 -1.2975307e-06 5.4552856e-28
4.676359e-31 3.76414e-40 -0.0002686349 8.1139915e-06 1.2601084e-09 -2.529957e-39 1.104149e-39 -0.00066191534
6.2894327e-07 -3.609411e-10 -1.531518e-39 1.119815e-39 4.549379e-05 5.881659e-10 -1.52712e-39 3.01995e-40
-1.151059e-39 -0.00011575421 -2.050062e-06 -0.00040458454 2.7967792e-06 1.4673114e-09 9.518412e-11 -3.7880914e-23
1.202891e-39 -1.51719e-40 -4.261486e-31 5.91099e-40 -0.0013219937 -0.00057084335 1.67602e-39 -1.334735e-39
-2.926027e-18 -0.0045560123 -0.00014000792 -2.5594958e-05 -0.00018063534 5.45568e-40 -9.2135495e-05 -8.028794e-08
0.01429784 -1.1697889e-07 -1.197474e-39 -1.0702135e-12 0.067583814 -3.152722e-38 -1.039857e-39 6.6757775e-07
0.0062813708 -0.008514934 1.8690232e-26 -1.9570207e-05 0.13952352 1.474771e-05 6.3942e-40 1.1829577e-21
0.003906831 1.9662752e-05 0.014924619 -8.03701e-40 0.025012415 2.5766602e-07 0.00037676204 -2.3056513e-25
3.1022922e-29 -1.8675e-39 0.015661167 0.0054700733 1.365219e-06 2.250215e-39 -5.49163e-40 0.01490016
0.0046117883 1.274877e-06 6.32344e-40 7.51469e-40 0.0077825384 7.821576e-07 -1.481048e-39 5.147656e-39
2.333029e-39 0.0040912633 0.0013571023 0.01327059 0.0014268593 5.704766e-07 2.605895e-08 5.8724623e-22
4.87238e-40 -1.396084e-39 1.4954965e-26 -1.242823e-39 0.039280407 0.00772048 -4.58744e-40 -4.96368e-40
1.0881869e-14 0.16343684 0.006715693 0.026294477 0.015447005 -1.678416e-39 -0.0008909281 -1.9267512e-05

rnn.weight_hh_l0 f4 [384, 128]
00000000: f547 5237 35cc b5b8 e9b3 ca37 562b ff37
00000010: 495f d037 0d40 57b7 1107 bab6 074d 81b6
00000020: 9dee 0db9 b9aa 7938 4fb1 3239 797e 5c38
00000030: 7417 2738 4c14 b436 da7a 28b6 352f 84b6
00000040: f721 4a38 d05d 2cb9 a66e 49b7 c3de 23b7
00000050: c721 3cb8 817e 0ab8 6df2 86b5 b0a7 1cb8
00000060: f5b2 a636 bdfb e636 e6ba d636 5667 df36
00000070: f426 15b7 d55e d1b8 0b01 0f37 b8cb 9838
00000080: 8b50 8635 d473 5bb7 0be1 e3b6 ad6e 4339
00000090: fc20 c637 3fde c6b6 f2fb 34b9 31a7 9236
000000a0: 0ab1 89b7 1f4a 3539 3e60 c136 6be0 c1b7
000000b0: 8179 3cb9 e200 9a37 2630 7536 cb76 c434
000000c0: 548e 82b6 df87 8338 fdc8 3cb9 999f 3eb9
000000d0: 6b42 2bb5 7ad6 1e38 0216 e6b6 18ba a436
000000e0: 83f2 6036 dd5d 0a37 85b6 5b37 6ef8 09b5
000000f0: e1f7 9e36 7442 48b8 f292 65b7 2d2e 5bb6
00000100: a62f afb8 6c56 1fb6 6c89 9b35 8661 6237
00000110: 7ccc 3db9 d76e 0637 be91 1638 8291 4a36
00000120: 8253 41b9 451e ff36 7c6c 45b7 24a4 4739
00000130: f208 0c37 cc13 94b5 e51a 2239 8f3a 17b6
00000140: beb5 f0b6 de54 42b9 1f53 1d39 5c1f 67b7
00000150: 2c80 7f37 d511 38b8 b970 9ab8 5457 3739
00000160: 41d7 a636 5fa0 1538 53bc 92b7 d41a ea38
00000170: 5b3c 98b6 d86b 1a39 c253 9336 a8de 4139
00000180: f85b a3b8 0e1b 0937 88a8 3fb7 3866 29b5
00000190: 494f b136 208b e935 8064 d637 ed2c 21b8
000001a0: 1d04 b3b4 5fe3 29b8 7d35 3bb9 207e ea37
000001b0: 88ec 4939 85ea 93b6 ed9e 9a36 f8b7 6c36
000001c0: 6f25 1036 81d6 bbb6 7fc7 0f38 06ef ecb5
000001d0: 668f b5b6 f855 3039 c438 eb37 4dc6 6f36
000001e0: 87f4 55b8 e6de bf38 6250 22b6 2903 d3b8
000001f0: 82e3 1f37 d68a c2b4 cde9 6c37 46ba b638
00000200: c996 8fb9 cab1 6abb 0b6f 8cba b5f8 39bc
00000210: 684c b53a 8fff 063b 86c8 8dbb c904 bc39
00000220: 749f e13c 0ae0 96bb f288 9dbc 52d7 783c
00000230: ddbe 0f3d 9478 2abb 916d d5ba 1cec 0aba
00000240: dd6c 1cbd 62c0 073d 948e 983b 8366 083b
00000250: a0b3 a63a db83 733c 9b6b 3d39 2d6c 733c
00000260: 0c41 723b 9c83 1e3d 0f2b 34ba 21fc 313a
00000270: 0c2e c93a 9d53 9abc 801f b638 e977 af3c
00000280: ec93 a13a 1a2d 4abc 6185 3cbb 27cb 12bd
00000290: b325 1d3c 5ae4 a03a ad2a 093d 1258 3dbb
000002a0: 98fe 203c 5903 0bbd 57f4 dfbb bf6d 753b
000002b0: ea2d 0c3d 7352 81ba f619 e339 4068 6dbb
000002c0: 049b 24ba baf0 083d f26b 0d3d 501e 103d
000002d0: b53b f2ba e7de 583b 0885 cfba 94ed 2d3b
000002e0: 347a 863b 04d9 aeba 5f83 1e39 efc6 313b
000002f0: b8fc 273d 7019 49bc 2705 31b8 f03d cabc
00000300: 3f38 c6bc f298 a8ba f15a 3dbb ce75 f3ba
00000310: 408f 0e3d 9b56 a33b b32d 95bc 58f3 bb39
00000320: 2bc8 123d e10b 1d3a 4b29 ea3b 1ef8 16bd
00000330: 8172 16bb 5eed acba 2b5b 01bd 39af 8bba
00000340: e5fc 2fba 081e 133d 3b91 c8b8 301d a83a
00000350: a5cc 35bc e5ab 003d ff96 9e3c e5d9 08bd
00000360: 73e5 90bb 28a1 1abd c751 eb3a 4011 ccbc
00000370: b218 803b 8cc1 f2bc 7dd3 833a fe99 11bd
00000380: eb66 72bc 2f5f ecba 4ad3 713a 1bbc a93b
00000390: 7d81 a539 c8ca b8ba b4df 8f3c f782 16bd
000003a0: f032 ce38 2c83 213c 07a8 0a3d 2879 67bb
000003b0: d4b4 13bd 4a27 0f3b fe19 9c39 d643 50bc
000003c0: c81d 1dba 5406 0dbd 9e37 93ba 9e33 bcbb
000003d0: 944d debc 44c2 07bd 04ab ca3c d4bb 833a
000003e0: 97c9 49bc d163 f73c 6219 ca3b 5fbd bf3c
000003f0: 3d10 e83b 30f7 28bb 8b80 783b c410 e83a
1.2533729e-05 -8.668789e-05 2.4164054e-05 3.0418549e-05 2.4839903e-05 -1.2829912e-05 -5.5440546e-06 -3.8534668e-06
-0.00013535698 5.9525224e-05 0.00017041455 5.2569874e-05 3.9837745e-05 5.366781e-06 -2.510546e-06 -3.939402e-06
4.8192185e-05 -0.00016438146 -1.2006296e-05 -9.767423e-06 -4.485415e-05 -3.301958e-05 -1.0054333e-06 -3.734947e-05
4.968019e-06 6.8838403e-06 6.399455e-06 6.657948e-06 -8.890162e-06 -9.9835604e-05 8.523707e-06 7.2858704e-05
1.0007219e-06 -1.30803855e-05 -6.7913256e-06 0.00018637879 2.3618799e-05 -5.9267327e-06 -0.00017259995 4.3706027e-06
-1.6414113e-05 0.00017289117 5.7630523e-06 -2.3111896e-05 -0.00017974341 1.8358642e-05 3.653587e-06 3.6594278e-07
-3.890871e-06 6.271875e-05 -0.00018003951 -0.00018179267 -6.3799115e-07 3.7869882e-05 -6.857096e-06 4.909245e-06
3.3519761e-06 8.247295e-06 1.3095913e-05 -5.139799e-07 4.737624e-06 -4.7745605e-05 -1.3683677e-05 -3.266042e-06
-8.3535255e-05 -2.374315e-06 1.1588395e-06 1.3493356e-05 -0.00018100621 8.012829e-06 3.589852e-05 3.0185042e-06
-0.00018437023 7.603116e-06 -1.17673735e-05 0.00019039266 8.346733e-06 -1.1032621e-06 0.00015459543 -2.253484e-06
-7.173715e-06 -0.00018532897 0.00015003652 -1.3775974e-05 1.5229027e-05 -4.3885626e-05 -7.3642885e-05 0.00017484772
4.9722444e-06 3.5673726e-05 -1.7492252e-05 0.000111629866 -4.5369793e-06 0.0001472676 4.390692e-06 0.0001848886
-7.789576e-05 8.1721355e-06 -1.1423726e-05 -6.3106154e-07 5.284241e-06 1.7400343e-06 2.5557587e-05 -3.842723e-05
-3.334434e-07 -4.0504496e-05 -0.00017853636 2.7953705e-05 0.00019256969 -4.408243e-06 4.608059e-06 3.5273824e-06
2.1479461e-06 -5.598006e-06 3.4279652e-05 -1.7652935e-06 -5.410914e-06 0.00016816694 2.8040617e-05 3.5729201e-06
-5.101089e-05 9.149108e-05 -2.418667e-06 -0.00010061853 9.530109e-06 -3.6236332e-07 1.4121132e-05 8.7131324e-05
-0.0002738743 -0.0035811537 -0.0010714246 -0.0113508 0.0013831975 0.0020599102 -0.004326883 0.0003586172
0.027541853 -0.0046043443 -0.01923034 0.015188055 0.03509413 -0.0026011812 -0.0016283264 -0.0005299465
-0.038189758 0.033142455 0.0046556685 0.0020813055 0.0012718327 0.01486298 0.00018064531 0.014857334
0.003696504 0.03869973 -0.00068728713 0.00067895843 0.0015348806 -0.018838698 8.6843036e-05 0.021419482
0.0012327409 -0.012339855 -0.0028766023 -0.035838272 0.009591508 0.0012275085 0.033487964 -0.0028891605
0.009826325 -0.03393874 -0.0068345475 0.0037449447 0.034223475 -0.0009866491 0.00043316156 -0.0036225468
-0.00062792026 0.0334327 0.034526773 0.03518516 -0.0018480929 0.0033091845 -0.0015832493 0.0026539313
0.004103923 -0.0013339822 0.00015116994 0.002712663 0.041012496 -0.012274131 -4.2204887e-05 -0.024687737
-0.024196742 -0.0012862964 -0.0028893317 -0.0018574537 0.034804583 0.0049846894 -0.018210268 0.00035848725
0.035835426 0.0005990845 0.007146036 -0.036857717 -0.0022956433 -0.00131933 -0.031581085 -0.0010657079
-0.00067134044 0.035917312 -9.5637944e-05 0.0012826081 -0.011096154 0.03141393 0.01935911 -0.033410925
-0.0044218837 -0.037751347 0.0017953449 -0.02491057 0.003909194 -0.029633306 0.0010057535 -0.03554725
-0.014795045 -0.0018033738 0.0009224905 0.0051798946 0.0003156773 -0.001409852 0.017562725 -0.03674599
9.832333e-05 0.009857934 0.03385165 -0.0035320017 -0.036061123 0.0021843486 0.00029774004 -0.012711486
-0.00059935125 -0.034429863 -0.0011231785 -0.005743458 -0.027136602 -0.03314425 0.02473975 0.0010050484
-0.012316129 0.030198963 0.0061675766 0.023405729 0.007082014 -0.00257821 0.0037918414 0.0017705192

rnn.bias_ih_l0 f4 [384]
00000000: 5730 83b9 2b9a 273d f3ae 38ba bf92 ef3c
00000010: 6372 e2ba b8a9 82bb de19 85ba 6178 91b8
00000020: c376 2dbb 2891 ff3c 8d24 f23c ec86 d3bb
00000030: 97c0 923c 712d b6ba e1d0 35b9 9105 7db8
00000040: 42a0 9e3c ee66 0abb 75ca a23c 9774 feb9
00000050: 6f17 333d db7e 3c3c 3a7a b0b8 4135 03bb
00000060: bbbd f8ba a29f 0c3d 9b22 adb8 8353 31b9
00000070: a369 93b9 ad15 ab3c 502c 90ba 6974 183c
00000080: 3c94 57b9 7c7c f23c 9105 1eba b654 15bb
00000090: e6de 85bb 31e5 8fb8 1ec7 26bb 7c82 92ba
000000a0: 9f55 183c 0085 1fbb 7c3f 14bb ac42 e53a
000000b0: 48cf 1ebb 965b 9bb9 a085 4db9 5637 3eba
000000c0: 19d3 16b8 4e19 613c f8f2 0fbb 791f 1fbb
000000d0: 879d acb9 40ba 1c3d a523 76b9 c2c9 1aba
000000e0: 551c 92ba e854 81bb d267 a43c d56e 3cba
000000f0: 86c8 973c baa4 e03c 2bb3 eab8 f949 d73c
00000100: 2016 163c 5c60 90b8 2aed 36ba 773f c9b9
00000110: 01e2 19bb f2b2 ccba 0a3a 403c 1ae3 44b8
00000120: f497 15bb 63af b3ba 743b 19bb 9dd3 19bb
00000130: 3c42 2cba f30d 60b9 0cf1 34bb 31b3 32b8
00000140: f12f bdb9 370d 0bbb 231e 013d 46e4 45ba
00000150: e2e4 bb3c 93d0 e03c 1ad5 9d3c ad1c 21bb
00000160: 594f 62ba f724 8f3c cbfe dfb9 46cb 27bb
00000170: d100 91bb b063 24bb ee32 17b9 5c81 21bb
00000180: a43b 243d 6231 8cb9 d413 9ab9 b637 d0ba
00000190: a6dc a5b8 d86e 1cb9 7dc9 003d 67a9 c93c
000001a0: fc17 14b7 e03d 0ebb 72f9 18bb 87ae 63bb
000001b0: 7142 19bb f576 13bb 98cd 3aba 366a bb3c
000001c0: 769c 5fb8 575e 943c b6c6 b4b9 a17c b13c
000001d0: b5f5 863c fc6c 1ebb 5620 b4bb afab 8eb8
000001e0: 53b6 0cbc 24ad b93c 4506 8abb 51e5 0bbb
000001f0: 6be5 b9ba 75c9 38ba 6cbf a4ba ed72 90ba
00000200: ad65 9038 5d00 7ebd c211 6937 d3c6 41bd
00000210: 51bc 333b 3416 94ba cd1d dc37 a6c7 63b7
00000220: 78ad fa3a 5f41 803c 3400 2bbd f069 86bc
00000230: cbe5 01bd 45e7 c2b9 2301 9ab6 c5e4 5439
00000240: c2a6 26bd c069 afb9 d7be dfbc 9e36 463a
00000250: e9bc 05bd d2e7 d1bc 6520 0638 da06 aa3b
00000260: 6a89 dcba 2346 16bd cfcf b837 cf7c 8f39
00000270: 9482 9a36 876c 09bd 2ac4 d33a 5eef 35bc
00000280: d242 acb5 74c7 373d 31aa de38 a95d 22bb
00000290: fffd c5bb c40c 8137 bb1d afba d7a0 0438
000002a0: edcd e7bb ce63 8fba 4877 1939 bc52 2bbc
000002b0: 540b 22bb 4edc 0538 7f40 21b9 0b8c dc38
000002c0: 761d a137 ca73 c1bc 8afc 1cbb ba8c 17bb
000002d0: b4d5 5a38 705b 993d 5056 1d38 26ce 4539
000002e0: 3978 9739 0068 75ba bacf 4d3a ae40 1a38
000002f0: cc99 10bd 9cd1 2fbd 5d8b a237 e389 30bd
00000300: 2f94 0ebb 35d1 2d38 9ee2 e5b7 24ad 9db7
00000310: 6918 0abb d67d 5d3b 638d b2bc 6b76 6137
00000320: e30b 31bb 3f40 4b39 b1b1 b23b b288 4fbb
00000330: 3d1d 1039 5ed8 8d37 0cc1 86b8 bb46 3638
00000340: d6a7 52b7 81fb 0bbb 9011 1bbd 2228 b73a
00000350: 53c4 25bd 4dce 6fbc 1320 0bbd e3fb 8dba
00000360: 256f 1038 ab03 efbc af02 6438 b851 4b3b
00000370: 753f b3ba 8fee 553a 226c cd38 dd36 1ebb
00000380: 0f01 46bd 674c 4538 f3b8 6c3a ef34 b639
00000390: 5178 a338 21a9 9539 d844 2fbd 84a6 25bd
000003a0: 0bf7 9936 3b06 19bc c4e9 f7ba ca93 dabb
000003b0: 166d 35bb 5960 a7ba d092 a23b f41b 20bd
000003c0: 3150 1e39 9df3 8cbc 0876 3839 65be 933d
000003d0: 37bb 01bd 6880 c2ba 45ae 88bc d0a0 f737
000003e0: d315 80bc ac6f 34bd e098 deb9 e278 853b
000003f0: 9b70 853b fe60 0a39 e908 503b 7c01 23ba
-0.00025022283 0.04091851 -0.00070451124 0.029244779 -0.0017276522 -0.003987517 -0.0010154804 -6.936561e-05
-0.0026468493 0.031197146 0.029558444 -0.006455293 0.0179141 -0.0013899041 -0.00017339319 -6.0325085e-05
0.019363526 -0.002111848 0.01987193 -0.00048533521 0.04372352 0.011504854 -8.4151005e-05 -0.0020020755
-0.0018977443 0.034331925 -8.2557286e-05 -0.00016911146 -0.0002811673 0.02088436 -0.0010999534 0.009305098
-0.0002055922 0.029600374 -0.0006028051 -0.0022786087 -0.0040854095 -6.8614616e-05 -0.0025448273 -0.0011177803
0.009297757 -0.0024340749 -0.0022620847 0.0017491183 -0.0024232436 -0.0002963214 -0.00019600103 -0.00072561705
-3.5959387e-05 0.013738943 -0.002196489 -0.0024280234 -0.00032923764 0.03826356 -0.00023473667 -0.0005904698
-0.001114736 -0.003946889 0.020069037 -0.0007188146 0.018528234 0.027422298 -0.00011191362 0.02628039
0.009160548 -6.8844034e-05 -0.0006978089 -0.00038384993 -0.0023480656 -0.0015617295 0.011732588 -4.6941546e-05
-0.0022826167 -0.0013708886 -0.0023381384 -0.0023472079 -0.0006571149 -0.00021367501 -0.0027609495 -4.2605392e-05
-0.00036084608 -0.0021217593 0.03152288 -0.0007548969 0.022936288 0.027443206 0.019266654 -0.0024583742
-0.00086330395 0.01747368 -0.0004272371 -0.0025603338 -0.004425146 -0.0025083832 -0.00014419455 -0.0024643755
0.04009594 -0.00026739674 -0.00029387942 -0.0015885744 -7.908912e-05 -0.00014918612 0.031442154 0.02461691
-8.827072e-06 -0.002170436 -0.002334204 -0.0034741478 -0.002338555 -0.0022501324 -0.0007125973 0.022877794
-5.331306e-05 0.018111391 -0.00034480327 0.021665873 0.016474584 -0.0024173846 -0.005497019 -6.803066e-05
-0.008588391 0.022665568 -0.004212173 -0.00213464 -0.0014182752 -0.00070490624 -0.0012569255 -0.0011020579
6.885394e-05 -0.062012065 1.3892017e-05 -0.047308754 0.0027425478 -0.0011298121 2.623992e-05 -1.3576739e-05
0.0019125184 0.015656171 -0.04174824 -0.016407937 -0.03171329 -0.00037174873 -4.58969e-06 0.00020303119
-0.040686376 -0.0003345739 -0.02731268 0.0007561239 -0.032650862 -0.025623236 3.197826e-05 0.005188805
-0.001682562 -0.03668798 2.2031278e-05 0.00027368075 4.604759e-06 -0.033550765 0.0016156484 -0.011104433
-1.2834446e-06 0.044867948 0.000106174855 -0.0024775064 -0.0060422416 1.5383943e-05 -0.0013360301 3.1621046e-05
-0.007074109 -0.0010939778 0.00014635653 -0.010456737 -0.002472599 3.1914846e-05 -0.00015378183 0.000105165025
1.9206414e-05 -0.023614783 -0.0023954236 -0.002312465 5.2174277e-05 0.074881434 3.75121e-05 0.0001886418
0.00028890537 -0.00093615055 0.0007851083 3.67767e-05 -0.035302922 -0.04292451 1.9376801e-05 -0.04310025
-0.0021755805 4.1441253e-05 -2.7404454e-05 -1.8796483e-05 -0.0021071678 0.0033796928 -0.021795934 1.3438616e-05
-0.0027015142 0.00019383522 0.0054533114 -0.003166717 0.00013743802 1.6909264e-05 -6.425576e-05 4.3458054e-05
-1.2556053e-05 -0.0021359625 -0.037858546 0.0013973753 -0.040470432 -0.014636588 -0.033966135 -0.0010832514
3.4435787e-05 -0.029176554 5.4361935e-05 0.003102405 -0.0013675528 0.0008160853 9.795303e-05 -0.0024141588
-0.048340853 4.7039615e-05 0.0009030245 0.00034753184 7.794856e-05 0.00028545505 -0.042790264 -0.040442005
4.588515e-06 -0.009339864 -0.0018914272 -0.00667045 -0.0027683428 -0.0012769803 0.004961349 -0.03908916
0.00015097928 -0.017206008 0.00017591577 0.07214049 -0.031672683 -0.0014839293 -0.01668466 2.9519579e-05
-0.015635407 -0.04405181 -0.0004245704 0.0040732482 0.0040722615 0.00013196838 0.0031743592 -0.0006218178
