1223-code-DL/model/CNN_RNN_state_dict.pt (torch, 400056 bytes, 18 tensors)

cnn.0.weight f4 [16, 16, 5]
0.050476212 -0.038132608 -0.046050806 -0.05658225 0.05039084 0.07593334 -0.043729648 -0.036048546
-0.02711075 0.105239235 -0.021165496 0.066130646 0.038371474 -0.04929433 -0.027099917 -0.02077559
0.013267701 0.0015315982 -0.05426985 0.043627445 -0.016282314 -0.002800386 0.016278753 -0.035167612
0.028547563 0.037373688 -0.023691898 -0.100267865 0.0151553685 -0.033324927 0.00020373407 -0.019349476
-0.052887402 -0.05111379 0.0846357 -0.023993451 -0.041446403 0.11400168 -0.00091454916 -0.04899184
-0.10190208 -0.010119335 0.09572201 -0.07798483 -0.08369656 0.01409297 0.012337708 -0.09038134
0.03969511 -0.004574667 0.0141712045 -0.010202684 0.049899757 0.023206599 -0.02558942 0.043867562
0.034469422 0.09574334 -0.06577795 -0.07436396 0.10406335 0.0075525367 -0.031902302 0.09019393
-0.029408976 -0.060742535 0.021108754 0.114762686 -0.04302948 -0.05530814 -0.043165006 -0.04182451
-0.008522663 -0.051846165 0.07867738 0.44738373 0.42536196 0.47889447 0.51042575 0.549314
0.025337707 0.02412239 -0.14629209 -0.021081505 -0.094205655 -0.107629426 -0.13732858 -0.1543655
-0.042460263 -0.06377737 0.010828137 0.019579137 0.0018650261 -0.15259148 0.027051928 0.01906797
-0.17963539 -0.045889582 -0.086988814 -0.049731568 -0.00096151663 -0.025556063 -0.035646264 -0.18557134
-0.003305126 -0.14699763 -0.10322231 0.021658683 -0.11640292 -0.02042277 -0.012539704 -0.19317605
-0.0070989695 -0.19281174 -0.14955659 -0.117013454 -0.0055961465 -0.07725714 -0.19169566 -0.076017156
-0.02405266 -0.14199775 -0.059015915 0.011582281 -0.12967332 -0.047935195 -0.02391515 -0.028727086
-0.032112602 -0.023914425 -0.1693071 -0.16369085 -0.16162932 0.025396286 0.01401763 -0.0850262
-0.013370388 -0.04860947 -0.111084 -0.15959688 -0.0059647434 -0.057226762 -0.15281701 -0.17370765
0.009205671 -0.07225702 -0.025307916 -0.18970886 -0.1008192 -0.16261172 -0.110674255 -0.12307808
-0.19368422 0.024717733 -0.18832724 -0.07370125 0.026555903 -0.037403766 -0.16615945 -0.01628261
-0.07448709 -0.025332902 0.024373796 -0.08004807 0.06860062 -0.020217458 -0.1633828 -0.15426713
-0.07606951 -0.07215282 -0.05979667 -0.042411547 -0.19108187 -0.12570427 -0.28658438 0.012583589
0.077562325 0.024949137 -0.029013926 -0.06548515 -0.033201203 0.004081951 0.009441215 -0.062629126
-0.17154354 0.024604375 -0.030721333 0.02142589 0.019419225 0.06883691 -0.164152 -0.099465825
-0.17387308 -0.19894342 -0.12576865 -0.026761 0.052869957 -0.039179325 0.008280596 -0.038478807
0.045492556 0.01607949 0.022838555 0.039321586 0.08407046 -0.049380057 -0.055209845 -0.09088086
-0.0243744 -0.02281596 -0.11127617 -0.07136952 -0.031057937 -0.0315109 -0.093506776 -0.11121422
-0.09886515 -0.0030896585 0.079623014 -0.054646727 0.05103651 -0.04826794 0.009449876 0.054710045
0.058343917 0.25120786 0.22470409 0.30073172 0.2908301 0.25710204 0.1649546 0.13898116
0.0029645625 -0.030340977 0.10723328 0.19525701 0.13282047 0.3395406 0.34355408 0.36099172
0.0050826757 0.01769364 -0.12813306 -0.12740053 -0.008798362 0.034542825 -0.15480764 -0.14623512
-0.11942394 -0.13322766 0.03520824 -0.03968398 -0.1194196 -0.09102924 -0.03625712 -0.16465892
00000000: 25c0 4e3d f030 1cbd c59f 3cbd cac2 67bd
00000010: a066 4e3d f082 9b3d dc1d 33bd a4a7 13bd
00000020: 5d17 debc ab87 d73d 4363 adbc 816f 873d
00000030: 682b 1d3d dae8 49bd a500 debc 9231 aabc
00000040: c560 593c e8bf c83a 104a 5ebd b1b2 323d
00000050: 7d62 85bc ae86 37bb 055b 853c ea0b 10bd
00000060: 94dc e93c 2715 193d 8315 c2bc 3d59 cdbd
00000070: 394e 783c b87f 08bd 73a1 5539 cb82 9ebc
00000080: 76a0 58bd b25c 51bd 7b55 ad3d ea8d c4bc
00000090: b4c3 29bd b679 e93d 5bbe 6fba abab 48bd
000000a0: 0ab2 d0bd 91cb 25bc e709 c43d 83b6 9fbd
000000b0: 1a69 abbd 33e6 663c 1924 4a3c da19 b9bd
000000c0: 5797 223d 17e7 95bb 572e 683c 2929 27bc
000000d0: b063 4c3d c41b be3c e7a0 d1bc 79ae 333d
000000e0: cf2f 0d3d 1615 c43d 97b6 86bd 224c 98bd
000000f0: 2a1f d53d 457b f73b fdab 02bd 98b7 b83d
00000100: 18eb f0bc 2acd 78bd 44ec ac3c b308 eb3d
00000110: ae3f 30bd ca8a 62bd cacd 30bd 2d50 2bbd
00000120: a4a2 0bbc a55c 54bd 9b21 a13d 7b0f e53e
00000130: 0bc9 d93e a831 f53e 43ab 023f d89f 0c3f
00000140: 0691 cf3c 529c c53c 98cd 15be 1fb3 acbc
00000150: e5ee c0bd d16c dcbd dd9f 0cbe fd11 1ebe
00000160: d0ea 2dbd b69d 82bd 8068 313c 6d64 a03c
00000170: e473 f43a f140 1cbe 019c dd3c 6e34 9c3c
00000180: 57f2 37be b7f6 3bbd 3127 b2bd 54b3 4bbd
00000190: 4a0e 7cba f35a d1bc d101 12bd 6a06 3ebe
000001a0: d09a 58bb 8c86 16be 3866 d3bd 8d6d b13c
000001b0: a764 eebd a74d a7bc 5573 4dbc f1cf 45be
000001c0: 799e e8bb 7170 45be 5d25 19be c0a4 efbd
000001d0: e15f b7bb fe38 9ebd de4b 44be e2ae 9bbd
000001e0: 160a c5bc dc67 11be acba 71bd 9cc3 3d3c
000001f0: 15c9 04be b257 44bd b4e9 c3bc 1155 ebbc
00000200: 8188 03bd 2fe8 c3bc d75e 2dbe 939e 27be
00000210: 2882 25be df0b d03c 34aa 653c 3722 aebd
00000220: 790f 5bbc b91a 47bd 0280 e3bd 5d6d 23be
00000230: e573 c3bb 9c66 6abd 107c 1cbe 6be0 31be
00000240: 62d3 163c 7dfb 93bd 8c52 cfbc 0a43 42be
00000250: 4c7a cebd b083 26be 2fa9 e2bd 5c10 fcbd
00000260: 2855 46be d87c ca3c dbd8 40be aef0 96bd
00000270: c48b d93c b134 19bd b425 2abe 1c63 85bc
00000280: b08c 98bd f286 cfbc 8eab c73c 3ef0 a3bd
00000290: 7b7e 8c3d 159f a5bc d24d 27be 34f8 1dbe
000002a0: 55ca 9bbd dcc4 93bd 5aed 74bd bbb7 2dbd
000002b0: f7aa 43be 9fb8 00be 30bb 92be 662b 4e3c
000002c0: ffd8 9e3d 2262 cc3c 9dae edbc 141d 86bd
000002d0: fcfd 07bd e3c1 853b 53af 1a3c b343 80bd
000002e0: 1ca9 2fbe 1d8f c93c 4eab fbbc 5985 af3c
000002f0: 1115 9f3c 5efa 8c3d 7617 28be bdb4 cbbd
00000300: c90b 32be d3b7 4bbe 7fc9 00be e239 dbbc
00000310: 2b8e 583d 807a 20bd 56ab 073c f49b 1dbd
00000320: 6756 3a3d 22b9 833c ec17 bb3c ac0f 213d
00000330: 222d ac3d be42 4abd b823 62bd bf1f babd
00000340: d2ac c7bc 89e8 babc c3e4 e3bd 2f2a 92bd
00000350: 376d febc 9311 01bd 7b80 bfbd 48c4 e3bd
00000360: d079 cabd de7b 4abb 6411 a33d 3fd5 5fbd
00000370: a90b 513d 9ab4 45bd a7d3 1a3c a417 603d
00000380: 08fa 6e3d 519e 803e d418 663e 82f9 993e
00000390: afe7 943e e1a2 833e dce9 283e 1451 0e3e
000003a0: 1b49 423b a48d f8bc 1f9d db3d 74f1 473e
000003b0: 1702 083e 44d8 ad3e 52e6 af3e e8d3 b83e
000003c0: 938c a63b 41f2 903c 5035 03be 4975 02be
000003d0: 0127 10bc c77c 0d3d e585 1ebe a9be 15be
000003e0: 8a94 f4bd d56c 08be 8436 103d ab8b 22bd
000003f0: 4392 f4bd 8a6d babd 5982 14bd 599c 28be

cnn.0.bias f4 [16]
-0.06501357 -0.014866719 -0.07947201 -0.121749826 -0.074608974 0.059077684 -0.07481746 -0.15454292
-0.07783653 0.037676007 -0.040866364 -0.123400554 -0.004736858 -0.069628924 -0.12046506 -0.13137726
00000000: d625 85bd 8a93 73bc 39c2 a2bd f957 f9bd
00000010: 97cc 98bd 71fb 713d e539 99bd 8040 1ebe
00000020: c268 9fbd 2852 1a3d 7d63 27bd 6eb9 fcbd
00000030: a537 9bbb 9c99 8ebd 63b6 f6bd c387 06be

cnn.2.weight f4 [32, 16, 5]
0.007494975 -0.081882074 -0.098170504 -0.10976024 -0.09027157 0.00033544656 -0.0136267105 0.032124437
0.013929887 -0.10204156 -0.013644272 -0.044766087 0.0053978427 -0.14649384 -0.00683731 -0.1332798
-0.063736044 -0.11010362 -0.14235963 0.016900618 -0.11649946 0.027631294 -0.026769364 0.0065097483
0.025791079 0.028226921 -0.10732034 0.0031767003 0.0024080249 0.038490802 -0.072230645 -0.0680285
0.00634298 -0.1259892 -0.14736506 -0.15521914 -0.11444191 0.034482848 0.029047456 -0.13599479
0.04719107 -0.11135211 -0.017197112 0.027210876 -0.07121677 -0.08074027 -0.09550976 -0.15263566
-0.136503 0.055581197 -0.101321325 -0.063880146 -0.10267559 -0.15521309 -0.14603448 -0.1477954
-0.11288666 0.05159444 -0.029951356 0.029052144 0.040423438 -0.12657157 9.613686e-05 -0.06943871
0.018469129 -0.11258844 -0.100545034 0.031338062 -0.083248764 -0.116385244 -0.0040238807 -0.0927416
0.044230904 -0.09507458 -0.07982595 -0.030692512 -0.059695512 -0.023809701 0.09280759 0.05046505
-0.0021803079 -0.0035126256 -0.078240804 0.025255622 0.05525476 -0.014447017 -0.037779104 -0.0003017822
-0.016378146 0.04952461 -0.017844807 -0.0879414 -0.008103246 -0.09786049 -0.11815936 0.12617157
0.14498715 0.10243484 -0.13329563 0.087979525 -0.115307406 -0.05532205 0.01144797 0.01911914
-0.1252247 -0.0027736973 -0.014280656 -0.058169175 -0.118006825 0.0475246 -0.06722373 -0.0986215
-0.01883856 0.0425568 -0.04544786 -0.0131071545 0.06715795 -0.045499746 -0.06519642 -0.03338594
-0.089947045 -0.13053654 0.080080435 0.04314327 -0.045213725 0.0053054173 -0.09964282 -0.046348087
-0.12865444 0.0638805 0.0445618 -0.042217422 0.05952293 -0.098906584 -0.040125675 -0.09523181
-0.13829717 -0.15566525 -0.07828935 0.05355589 -0.040346734 0.12874235 0.14471953 0.120034195
0.101483315 0.16062225 0.01990118 0.0074559744 0.13944574 0.0030673137 0.03283539 -0.14087166
-0.061058372 -0.09345732 0.048052553 -0.04846631 0.059293985 -0.15430301 -0.1607262 -0.058868144
-0.07188827 -0.002339771 0.08290622 -0.05947346 -0.02383327 -0.03393259 0.013122433 -0.043348998
-0.027101057 -0.008931749 0.010590165 -0.10795843 -0.04716751 0.070278324 0.08654781 0.0056669074
-0.00016697323 -0.03594432 -0.03693387 -0.018810932 0.05210202 -0.012495163 0.041101977 -0.09892256
0.10243247 -0.054393567 -0.008782022 0.065911174 -0.08674459 -0.024418542 0.04664904 -0.06298841
-0.08819096 -0.063383065 -0.025262125 -0.03147853 0.07757631 0.006357271 -0.042057607 0.021530204
0.08364726 0.026102735 0.09221731 0.03323151 0.0622828 0.055570643 -0.10288601 0.04373928
-0.10801363 -0.011117634 -0.0437957 -0.007627243 -0.07318494 0.10815886 -0.06422682 -0.10707262
-0.012272386 -0.040684637 -0.017451448 -0.029545851 -0.08233277 -0.06460845 -0.06821702 0.003930868
-0.0971064 0.053690664 -0.03303275 -0.021745384 0.059274442 -0.066609964 -0.101485856 -0.065566644
-0.09854006 0.036379013 -0.05740643 -0.04182118 0.101743914 -0.020463098 -0.06934354 0.08819972
0.012396083 0.13386832 0.058505703 0.13778433 0.15759458 0.084461376 0.097184196 0.12921724
0.033414733 0.013626441 -0.030084467 -0.042046323 0.055723302 0.111258104 0.04121688 0.0057360777
00000000: 6898 f53b cab1 a7bd 9e0d c9bd fac9 e0bd
00000010: 4de0 b8bd e0de af39 9142 5fbc ea94 033d
00000020: 2e3a 643c 2afb d0bd 3a8c 5fbc a55c 37bd
00000030: 63e0 b03b 7b02 16be 830b e0bb 807a 08be
00000040: 0b88 82bd 027e e1bd b9c6 11be 2a73 8a3c
00000050: 4597 eebd 065b e23c 6d4b dbbc ba4f d53b
00000060: d047 d33c 253c e73c c4ca dbbd 3030 503b
00000070: f4cf 1d3b 88a8 1d3d a9ed 93bd 8752 8bbd
00000080: c6d8 cf3b 5003 01be dee6 16be c4f1 1ebe
00000090: 8560 eabd e33d 0d3d eef4 ed3c 3842 0bbe
000000a0: 6c4b 413d 930c e4bd f5e0 8cbc 58e9 de3c
000000b0: 19da 91bd 285b a5bd 9f9a c3bd 864c 1cbe
000000c0: 71c7 0bbe 1ca9 633d 8e81 cfbd 98d3 82bd
000000d0: 9447 d2bd 2ef0 1ebe 108a 15be ad57 17be
000000e0: 1f31 e7bd b154 533d 8c5c f5bc c3fe ed3c
000000f0: 0c93 253d fa9b 01be 159d c938 e235 8ebd
00000100: 924c 973c c594 e6bd 8eea cdbd 575c 003d
00000110: 547e aabd 635b eebd c2da 83bb 4fef bdbd
00000120: 772b 353d 76b6 c2bd ca7b a3bd dd6e fbbc
00000130: 4883 74bd 900c c3bc e811 be3d 71b4 4e3d
00000140: 7fe3 0ebb 1434 66bb b73c a0bd e1e4 ce3c
00000150: d152 623d 2eb3 6cbc 43be 1abd 8538 9eb9
00000160: 762b 86bc 51da 4a3d 462f 92bc 9f1a b4bd
00000170: 7ac3 04bc 156b c8bd 89fd f1bd 1f33 013e
00000180: 8377 143e 5bc9 d13d a67e 08be 9c2e b43d
00000190: 4a26 ecbd 6099 62bd 4490 3b3c be9f 9c3c
000001a0: e73a 00be ebc6 35bb 6af9 69bc cd42 6ebd
000001b0: 90ad f1bd 28a9 423d 98ac 89bd 12fa c9bd
000001c0: 5353 9abc 0a50 2e3d 8927 3abd 64bf 56bc
000001d0: 1b8a 893d f15d 3abd b385 85bd b2bf 08bd
000001e0: 2836 b8bd 5fab 05be 3601 a43d ffb6 303d
000001f0: 0732 39bd 11d9 ad3b 8911 ccbd 7ed7 3dbd
00000200: fdbd 03be c8d3 823d 6f86 363d 2dec 2cbd
00000210: 51ce 733d 898f cabd d25a 24bd e508 c3bd
00000220: c69d 0dbe b666 1fbe 2b56 a0bd 6c5d 5b3d
00000230: 9e42 25bd 09d5 033e 5b31 143e 7dd4 f53d
00000240: 7cd6 cf3d 297a 243e cd07 a33c 3f51 f43b
00000250: ddca 0e3e fc04 493b 677e 063d a940 10be
00000260: 5818 7abd 8d66 bfbd c1d2 443d 9c84 46bd
00000270: 40de 723d 9c01 1ebe 6995 24be b91f 71bd
00000280: 283a 93bd d856 19bb bcca a93d 719a 73bd
00000290: fd3d c3bc e6fc 0abd 79ff 563c b88e 31bd
000002a0: 0903 debc 7856 12bc 5f82 2d3c 4f19 ddbd
000002b0: b832 41bd 15ee 8f3d fa3f b13d 77b1 b93b
000002c0: 8915 2fb9 5a3a 13bd f847 17bd 6219 9abc
000002d0: ed68 553d 83b8 4cbc 8c5a 283d e997 cabd
000002e0: 1dc8 d13d cacb 5ebd 78e2 0fbc 70fc 863d
000002f0: 26a7 b1bd 6509 c8bc 1013 3f3d 1100 81bd
00000300: 769d b4bd fbce 81bd 84f2 cebc a2ef 00bd
00000310: 54e0 9e3d a850 d03b 9944 2cbd 1c60 b03c
00000320: 414f ab3d 67d5 d53c 6edc bc3d c41d 083d
00000330: 401c 7f3d 0b9e 633d e7b5 d2bd f627 333d
00000340: 4036 ddbd bd26 36bc 1f63 33bd f4ed f9bb
00000350: fce1 95bd 6482 dd3d 5a89 83bd e448 dbbd
00000360: 1e12 49bc efa4 26bd 57f6 8ebc 240a f2bc
00000370: 159e a8bd 6f51 84bd 5db5 8bbd 83ce 803b
00000380: b8df c6bd beea 5b3d 594d 07bd 6023 b2bc
00000390: c2c9 723d ce6a 88bd d1d7 cfbd ce47 86bd
000003a0: 5fcf c9bd 2902 153d 0123 6bbd b04c 2bbd
000003b0: 1d5f d03d 3aa2 a7bc fc03 8ebd 0ea2 b43d
000003c0: f118 4b3c c714 093e ada3 6f3d 5617 0d3e
000003d0: 7960 213e 16fa ac3d 8208 c73d 8651 043e
000003e0: e3dd 083d 7041 5f3c b373 f6bc c438 2cbd
000003f0: 1e3e 643d 4adb e33d 08d3 283d b5f5 bb3b

cnn.2.bias f4 [32]
-0.15594044 -0.12117886 -0.07115988 -0.1370805 0.2380192 -0.071093105 -0.025810134 -0.06827058
-0.15035403 -0.02605583 -0.065976165 -0.11559876 -0.19839557 -0.019785924 0.09472405 -0.16147861
-0.19598952 -0.1799562 -0.19862896 -0.17144413 -0.0064104707 -0.046936717 -0.15180813 -0.15566519
-0.2703713 -0.21337378 -0.14510088 -0.06528953 -0.1686495 0.031180136 -0.10046386 -0.19532616
00000000: daae 1fbe 9f2c f8bd 45bc 91bd d55e 0cbe
00000010: 4ebb 733e 4399 91bd c66f d3bc 72d1 8bbd
00000020: 68f6 19be 0973 d5bc 831e 87bd 0bbf ecbd
00000030: 3528 4bbe 1716 a2bc affe c13d a65a 25be
00000040: 7ab1 48be 7046 38be 6465 4bbe 0d8f 2fbe
00000050: ed0e d2bb b740 40bd 9773 1bbe b266 1fbe
00000060: 1b6e 8abe a87e 5abe 5395 14be 84b6 85bd
00000070: 74b2 2cbe 7c6d ff3c ffbf cdbd 9503 48be

cnn.4.weight f4 [32, 32, 3]
-0.026909707 -0.069458075 0.080736324 -0.090903096 -0.07185736 -0.07309089 -0.009953397 0.042903457
0.10090686 -0.034124073 -0.05932785 -0.09017404 -0.09980727 -0.11486678 0.038288586 0.0040200255
0.052588914 0.08967184 0.09517381 0.036249742 -0.08926888 0.04865003 0.043192465 -0.045439783
0.017092556 0.016883412 -0.057943564 0.031206109 -0.081469536 0.001833824 0.07122838 -0.015506384
0.052158512 0.03607391 0.0010627046 -0.09229668 -0.0031993801 -0.08742605 -0.067648806 0.027897868
0.04845563 -0.03247923 -0.029176837 0.04710432 -0.095712446 0.046357434 0.015759515 0.07854675
0.02140285 0.07521344 -5.7554604e-05 -0.09013544 -0.028960582 0.020241015 -0.059008364 -0.05009464
0.019371966 -0.053452022 -0.013768871 0.0427981 -0.04685349 -0.0040431456 -0.04566921 -0.058842257
-0.0861239 -0.099686325 0.073039 -0.08386028 0.0823802 -0.062454633 0.06976285 -0.059848934
0.035724875 -0.058138687 -0.038506158 0.004834405 -0.025388645 -0.082900785 -0.06245654 0.023637893
0.004292301 -0.0020133983 -0.11134571 -0.11471329 -0.06999053 -0.038407866 -0.048874117 -0.13963826
0.028774397 -0.04256685 -0.01660598 -0.0066631194 0.03160168 0.07262352 0.029048843 0.05637667
-0.15042157 -0.15716197 -0.113812484 -0.022601655 0.12972991 0.113909915 0.058533274 -0.0068352786
0.08641841 -0.06818444 -0.23738956 -0.22562344 -0.025734792 -0.025734343 -0.03912207 -0.027127083
-0.042827506 0.0062619536 0.036627665 -0.14426515 -0.119701624 -0.09263159 -0.080428876 -0.1742753
-0.13393469 -0.15028635 -0.13815695 -0.25491238 -0.24164343 -0.32692653 -0.053514656 0.09634851
0.07644103 -0.07349258 -0.06701478 -0.061367895 -0.05143884 -0.0012688289 -0.11553813 0.03917458
-0.15425467 -0.04406804 -0.16162963 0.017691327 0.03091246 -0.015115919 -0.086653545 0.06285632
-0.20901145 -0.053983852 -0.056411214 -0.19944233 -0.09957044 -0.1228194 0.042491917 -0.06906459
-0.13858601 -0.040488273 -0.005105554 0.054362155 -0.11574486 -0.14377937 -0.2456364 -0.06474639
-0.04113815 -0.15385373 -0.018211298 -0.06423448 -0.06871195 -0.07894912 0.054767817 -0.02320242
0.026214808 -0.0218784 0.0040827193 -0.24927042 -0.18138666 -0.28297356 -0.0031951559 0.0035356833
-0.10993469 -0.117298335 -0.1113281 -0.08062192 -0.15490305 0.032031205 -0.080365665 -0.14453003
-0.12142422 -0.05900432 -0.09357526 -0.16481078 -0.097816296 -0.0073403344 0.21634361 0.18282676
-0.06504606 -0.004592497 0.020655828 -0.13239738 -0.078407906 -0.09312041 0.01746589 -0.029895062
0.0021564951 -0.07742122 -0.13822076 -0.08897809 -0.052047726 -0.09084715 -0.0007219222 0.009067152
-0.1776228 0.009624401 -0.03307321 0.039629687 -0.032836907 0.087319896 0.06852411 0.09626612
0.009908344 0.0038909449 0.023888672 0.02829069 -0.048601437 -0.05894063 -0.002725912 -0.017975342
-0.037866436 -0.089623526 0.04365423 0.05024576 -0.054263268 -0.057490036 -0.0024140773 -0.089743495
0.0006809879 0.06687936 -0.033354986 0.022031263 -0.17451271 0.04071728 -0.048782546 -0.09272858
-0.06846388 -0.086773045 0.021220967 0.06695636 0.048513416 -0.015536227 0.01896001 -0.05352375
-0.0048895357 -0.021876067 0.03744472 0.02168774 0.03200235 0.035282724 -0.108454436 -0.0534719
00000000: bf71 dcbc 0940 8ebd 1659 a53d 672b babd
00000010: f429 93bd adb0 95bd 9313 23bc 89bb 2f3d
00000020: 41a8 ce3d afc5 0bbd c201 73bd 2bad b8bd
00000030: c167 ccbd 463f ebbd 7ed4 1c3d 6bba 833b
00000040: 7967 573d dfa5 b73d 7dea c23d 9c7a 143d
00000050: 9ad2 b6bd 4145 473d 95ea 303d 111f 3abd
00000060: b005 8c3c 154f 8a3c 3b56 6dbd f4a3 ff3c
00000070: 80d9 a6bd ec5c f03a 2fe0 913d 7d0e 7ebc
00000080: 2aa4 553d 3cc2 133d 734a 8b3a 0b06 bdbd
00000090: b1ac 51bb 6e0c b3bd 758b 8abd 128a e43c
000000a0: 6979 463d f108 05bd 4304 efbc 76f0 403d
000000b0: e304 c4bd 4be1 3d3d 191a 813c 1edd a03d
000000c0: 0855 af3c 8109 9a3d c966 71b8 ee98 b8bd
000000d0: be3e edbc 7cd0 a53c c1b2 71bd 0a30 4dbd
000000e0: f5b1 9e3c 82f0 5abd d596 61bc 0f4d 2f3d
000000f0: 72e9 3fbd 5d7c 84bb a30f 3bbd 9404 71bd
00000100: ba61 b0bd 5828 ccbd 7995 953d f0be abbd
00000110: f3b6 a83d 6ed0 7fbd d3df 8e3d 2824 75bd
00000120: 3f54 123d d522 6ebd a2b8 1dbd ee69 9e3b
00000130: d9fb cfbc e3c7 a9bd 6ed2 7fbd 41a4 c13c
00000140: 6ea6 8c3b 38f3 03bb 3809 e4bd cdee eabd
00000150: 3257 8fbd 9151 1dbd 3a30 48bd 55fd 0ebe
00000160: 49b8 eb3c 945a 2ebd 4409 88bc 4c56 dabb
00000170: c370 013d a4bb 943d d7f7 ed3c 39eb 663d
00000180: 1d08 1abe 11ef 20be 8516 e9bd 1b27 b9bc
00000190: ebd7 043e 9a49 e93d 96c0 6f3d 79fa dfbb
000001a0: 23fc b03d 49a4 8bbd 4016 73be d509 67be
000001b0: c5d1 d2bc d4d0 d2bc 773e 20bd 9e39 debc
000001c0: e56b 2fbd 1331 cd3b e406 163d 3eba 13be
000001d0: 2026 f5bd a2b5 bdbd e5b7 a4bd 3975 32be
000001e0: 2d26 09be aae4 19be 0479 0dbe e083 82be
000001f0: 6071 77be ea62 a7be 2f32 5bbd 5e52 c53d
00000200: 1d8d 9c3d 4783 96bd 0c3f 89bd e75c 7bbd
00000210: 88b1 52bd d54e a6ba 419f ecbd 8675 203d
00000220: f0f4 1dbe b080 34bd 3d82 25be 67ed 903c
00000230: 213c fd3c c2a8 77bc 6a77 b1bd d0ba 803d
00000240: 1907 56be 2c1e 5dbd 720f 67bd 9c3a 4cbe
00000250: 96eb cbbd bd88 fbbd 010c 2e3d bc71 8dbd
00000260: 7ee9 0dbe 08d7 25bd 7e4c a7bb daaa 5e3d
00000270: a40b edbd e63a 13be 1c88 7bbe c199 84bd
00000280: 7a80 28bd d58b 1dbe dc2f 95bc 5e8d 83bd
00000290: dab8 8cbd 14b0 a1bd 3854 603d 0013 bebc
000002a0: 70c0 d63c 553a b3bc 55c8 853b bf40 7fbe
000002b0: 6dbd 39be e9e1 90be d265 51bb ecb6 673b
000002c0: 7025 e1bd 1c3a f0bd fdff e3bd 1b1d a5bd
000002d0: e89e 1ebe 2733 033d c196 a4bd aeff 13be
000002e0: 43ad f8bd 84ae 71bd 63a4 bfbd 28c4 28be
000002f0: e953 c8bd 3087 f0bb 2e89 5d3e f036 3b3e
00000300: de36 85bd a87c 96bb 6936 a93c 2e93 07be
00000310: 5394 a0bd eab5 bebd a014 8f3c 7de6 f4bc
00000320: fc53 0d3b 048f 9ebd be89 0dbe 253a b6bd
00000330: ff2f 55bd 120e babd 613f 3dba 648e 143c
00000340: c0e2 35be aaaf 1d3c c677 07bd bd52 223d
00000350: fe7f 06bd c6d4 b23d 5e56 8c3d 2c27 c53d
00000360: 9b56 223c 39ff 7e3b 2db2 c33c e1c1 e73c
00000370: 4d12 47bd bb6b 71bd 37a5 32bb 0641 93bc
00000380: d619 1bbd 8a8c b7bd c7ce 323d 7fce 4d3d
00000390: 2943 5ebd ac7a 6bbd 7f35 1ebb 70cb b7bd
000003a0: 5384 323a 0cf8 883d 3d9f 08bd e87a b43c
000003b0: 76b3 32be 2ac7 263d 35d0 47bd 7be8 bdbd
000003c0: ca36 8cbd 11b6 b1bd 98d7 ad3c 6b20 893d
000003d0: 01b6 463d a98b 7ebc 0652 9b3c b83b 5bbd
000003e0: 6638 a0bb 7035 b3bc a25f 193d 7daa b13c
000003f0: e514 033d 9e84 103d 5c1d debd 5a05 5bbd

cnn.4.bias f4 [32]
-0.12786072 -0.085451365 -0.15606262 -0.15621762 -0.048092425 -0.06457439 -0.08397095 -0.11540234
-0.08269952 -0.056169186 -0.025646744 -0.09939384 -0.07252859 -0.14629036 -0.04168158 -0.01904953
0.02553993 -0.044477068 0.007062174 -0.06744532 -0.118715554 -0.10267471 -0.08856149 -0.045474157
-0.01021084 -0.13018368 -0.11770922 0.06296251 -0.0456169 -0.060345855 -0.10042097 -0.097210236
00000000: eced 02be 2001 afbd e1ce 1fbe 83f7 1fbe
00000010: 90fc 44bd 943f 84bd f6f8 abbd 1058 ecbd
00000020: 5e5e a9bd a911 66bd 1f19 d2bc ff8e cbbd
00000030: df89 94bd 24cd 15be 4eba 2abd c30d 9cbc
00000040: 1e39 d13c 962d 36bd cf69 e73b c620 8abd
00000050: 2421 f3bd 1e47 d2bd ba5f b5bd 1c43 3abd
00000060: 5e4b 27bc df4e 05be 8811 f1bd 7df2 803d
00000070: c9d8 3abd 372d 77bd 82a9 cdbd 2916 c7bd

cnn.6.weight f4 [64, 32, 3]
-0.069988266 0.021857582 -0.04214648 0.13964567 -0.002582211 0.06238541 -0.04327599 -0.1411665
-0.13562019 0.045281474 0.08347526 -0.054838695 0.13787074 0.11625136 0.10005151 -0.031711638
0.15160468 -0.01303032 0.00048869394 0.0885828 0.11360954 0.12973231 0.10942077 0.124844186
-0.077637754 -0.056143805 -0.04199023 -0.08465065 -0.03002341 -0.030102931 0.08401377 7.089465e-05
0.16037759 -0.049281523 -0.08863941 0.053626895 -0.025605565 0.048582774 0.16010615 0.101197116
-0.0057825353 0.041009776 -0.11806073 0.00035256663 0.008236296 0.09828636 0.11417104 0.11046847
-0.08813384 -0.075302325 -0.0005222042 0.08970822 0.100681804 0.10454986 0.11652951 0.14655764
0.09267751 0.012164376 0.03430989 -0.14606474 -0.08306537 0.051070668 -0.09950457 -0.029236406
0.09743103 0.091534674 0.035953116 -0.063042976 0.025211155 -0.08407972 0.043813415 -0.10658711
-0.0031381738 0.056455053 -0.038393628 -0.0012625707 0.049718104 0.00012958303 0.14239621 0.14787352
0.1520567 -0.10722594 0.033621244 -0.0696564 0.018591901 0.03924159 0.026131589 -0.086747274
0.027621113 -0.009688591 -0.008467894 0.04968558 0.10187025 0.034926455 -0.04258501 -0.0709263
-0.08384261 -0.00078019855 -0.03878688 0.00042011248 0.053687904 0.11547826 -0.00694577 0.1264889
0.08481223 0.07194284 -0.03211217 -0.07139321 0.0021878034 0.13692969 0.13511129 -0.0028039713
0.12509269 0.14391676 -0.00022759111 -0.033237167 0.077036336 0.051541746 -0.017292434 0.043492667
-0.09489722 0.010403931 0.04327278 0.03151977 -0.04800645 -0.066232 0.036472667 0.0638682
0.078115076 0.04425359 -0.030687405 0.0996704 0.1613854 0.025128474 0.076645665 0.10017532
0.07062946 -0.06912194 -0.100624636 -0.049851883 -0.050272867 0.060386185 0.069988295 0.15239786
0.061567497 -0.07437097 -0.07271044 0.13772272 0.12982917 0.1543741 0.086418614 -0.0047982186
0.14547786 0.014072347 -0.079098776 -0.0056605074 0.026284328 -0.12477916 0.058038555 0.15400346
-0.01316455 0.054252446 0.07154584 0.0346344 -0.045584206 -0.11597336 0.03987053 -0.10688846
0.034415483 -0.031134358 0.139906 -0.010167553 0.09163211 0.0011340276 0.10237819 0.12064273
0.116739996 0.054007575 0.11480533 -0.13870241 0.14906897 0.08909181 0.14790107 -0.06906715
0.09340495 -0.030247632 0.042966865 -0.01869951 -0.043545365 0.17778791 0.15699284 -0.03735725
0.024371529 -0.020239433 0.01506623 -0.15615484 -0.05136067 -0.090039454 0.02770658 0.035755064
-0.08837934 0.021304972 0.05233008 0.055213723 -0.09226458 0.016199093 0.010580031 -0.12462965
0.01807216 0.014217401 -0.003954847 -0.101267 -0.10804487 0.011164512 -0.09156742 -0.04862734
-0.0052748933 -0.10193731 -0.028600069 -0.048570607 0.025712933 -0.057901017 -0.11785883 -0.08955729
-0.011922863 0.03222361 -0.10252039 -0.059686583 0.033570316 -0.14708789 -0.045776997 -0.05610883
0.061059162 -0.04600453 -0.057309315 -0.060191736 0.03296077 -0.04661571 -0.14225915 -0.11555311
-0.04493715 -0.10596858 -0.15208252 -0.123511344 -0.025238395 -0.06282783 -0.05605021 -0.07175936
0.013573629 -0.000327541 -0.07117647 0.099191405 -0.13709162 -0.13957681 -0.0076253368 -0.08538143
00000000: 0256 8fbd ac0e b33c caa1 2cbd 46ff 0e3e
00000010: 503a 29bb d887 7f3d 2a42 31bd f38d 10be
00000020: 05e0 0abe 1179 393d 14f5 aa3d 8a9e 60bd
00000030: fd2d 0d3e 3115 ee3d cee7 cc3d 10e4 01bd
00000040: 423e 1b3e 207d 55bc b21b 003a e66a b53d
00000050: 1eac e83d 8cd8 043e ff17 e03d 4fae ff3d
00000060: 8b00 9fbd 0cf7 65bd f3fd 2bbd 525d adbd
00000070: a8f3 f5bc 6c9a f6bc 690f ac3d 47ad 9438
00000080: 063a 243e 6cdb 49bd 9488 b5bd e0a7 5b3d
00000090: c3c2 d1bc bbfe 463d def2 233e 6f40 cf3d
000000a0: 6c7b bdbb def9 273d d3c9 f1bd b1d8 b839
000000b0: 87f1 063c 5c4a c93d 82d2 e93d 4b3d e23d
000000c0: 847f b4bd 1b38 9abd 88e4 08ba f1b8 b73d
000000d0: 4332 ce3d 3d1e d63d 06a7 ee3d 3513 163e
000000e0: b5cd bd3d 174d 473c 8788 0c3d ff91 15be
000000f0: 2d1e aabd 7a2f 513d 0dc9 cbbd 3081 efbc
00000100: eb89 c73d 8876 bb3d 9343 133d ad1c 81bd
00000110: a087 ce3c fd31 acbd b275 333d 584a dabd
00000120: d2a9 4dbb 6a3d 673d a342 1dbd d87c a5ba
00000130: 36a5 4b3d aee0 0739 50d0 113e 286c 173e
00000140: c0b4 1b3e 4699 dbbd 6eb6 093d 04a8 8ebd
00000150: 0b4e 983c cabb 203d ea11 d63c 8ea8 b1bd
00000160: ac45 e23c e5bc 1ebc ecbc 0abc 1b83 4b3d
00000170: 5aa1 d03d 0b0f 0f3d 9f6d 2ebd cf41 91bd
00000180: adb5 abbd 3d86 4cba fede 1ebd 8b42 dc39
00000190: d9e7 5b3d de7f ec3d 5799 e3bb 4e86 013e
000001a0: 09b2 ad3d c556 933d 0d88 03bd 9a36 92bd
000001b0: 4061 0f3b 4c37 0c3e 9d5a 0a3e d5c2 37bb
000001c0: 4c18 003e ea5e 133e 86a5 6eb9 b223 08bd
000001d0: 3ac5 9d3d 701d 533d dda8 8dbc 5e25 323d
000001e0: 7959 c2bd 4075 2a3c cc3e 313d e01a 013d
000001f0: 69a2 44bd a5a4 87bd 5d64 153d 55cd 823d
00000200: ccfa 9f3d 4143 353d 2764 fbbc ff1f cc3d
00000210: 3742 253e 3bda cd3c 67f8 9c3d b828 cd3d
00000220: 2ea6 903d ce8f 8dbd 4a14 cebd 7d31 4cbd
00000230: ecea 4dbd 8157 773d 0656 8f3d 2f0e 1c3e
00000240: 332e 7c3d cf4f 98bd 36e9 94bd 2f07 0d3e
00000250: f0f1 043e 3e14 1e3e 3efc b03d 603a 9dbb
00000260: 26f8 143e b48f 663c 8afe a1bd c77b b9bb
00000270: 3b52 d73c 378c ffbd d6b9 6d3d 15b3 1d3e
00000280: 20b0 57bc d037 5e3d a086 923d cddc 0d3d
00000290: 81b6 3abd 7183 edbd 484f 233d 56e8 dabd
000002a0: 40f7 0c3d 7b0d ffbc 8543 0f3e cf95 26bc
000002b0: 9ea9 bb3d a7a3 943a a8ab d13d 8913 f73d
000002c0: 6115 ef3d 0c37 5d3d 0f1f eb3d 0108 0ebe
000002d0: 89a5 183e c475 b63d 6173 173e 1473 8dbd
000002e0: 184b bf3d e2c9 f7bc 06fe 2f3d b72f 99bc
000002f0: a05c 32bd 090e 363e bbc2 203e ea03 19bd
00000300: cda6 c73c 2bcd a5bc 59d8 763c 0ee7 1fbe
00000310: 915f 52bd 9b66 b8bd e9f8 e23c e773 123d
00000320: 3a00 b5bd c487 ae3c 1158 563d c927 623d
00000330: 36f5 bcbd f6b3 843c de57 2d3c d43d ffbd
00000340: 110c 943c 1af0 683c a997 81bb 1365 cfbd
00000350: a146 ddbd 5beb 363c b387 bbbd 762d 47bd
00000360: 03d9 acbb 82c4 d0bd b14a eabc f9f1 46bd
00000370: eea3 d23c 9e29 6dbd f85f f1bd d069 b7bd
00000380: 1d58 43bc e7fc 033d 36f6 d1bd eb79 74bd
00000390: 0781 093d 359e 16be a980 3bbd 5fd2 65bd
000003a0: 2c19 7a3d 3f6f 3cbd 2cbd 6abd 9c8b 76bd
000003b0: df01 073d 1df0 3ebd 62ac 11be 1ca7 ecbd
000003c0: 0410 38bd 0e06 d9bd 85bb 1bbe 84f3 fcbd
000003d0: c0c0 cebc e1ab 80bd e894 65bd 92f6 92bd
000003e0: ed63 5e3c cfb9 abb9 f8c4 91bd dd24 cb3d
000003f0: bf61 0cbe 39ed 0ebe f6dd f9bb 76dc aebd

cnn.6.bias f4 [64]
0.007293468 0.09123411 -0.058881756 -0.01684201 -0.090923466 -0.13107373 -0.07192239 0.029616423
0.05898926 -0.02814599 -0.12722017 -0.08010159 -0.14425296 0.0528823 -0.04108248 -0.07728844
-0.007322825 -0.013311799 0.013222474 -0.05452175 0.13780947 0.013087699 0.07018987 -0.08636502
-0.06895586 -0.019134868 -0.017906494 -0.14170127 0.09103634 -0.06855527 -0.14145711 0.00089161715
0.027114023 0.031263817 -0.14135547 -0.06478572 -0.05134359 0.09024964 -0.06222094 -0.13933483
-0.09329042 0.03323927 -0.045446634 0.07851937 0.060657322 -0.043696415 -0.03057792 -0.095488004
-0.07571657 -0.09820089 -0.050694566 -0.02733439 -0.013949696 -0.027883107 -0.06258947 -0.15366855
-0.023992317 0.09994717 -0.0072247703 0.11475094 -0.02760428 -0.14958932 -0.018958831 -0.08907928
00000000: 0bfe ee3b f3d8 ba3d ff2d 71bd 41f8 89bc
00000010: 1536 babd 3138 06be 0c4c 93bd 249e f23c
00000020: b99e 713d 6b92 e6bc 0146 02be 4d0c a4bd
00000030: 0cb7 13be 1c9b 583d 1a46 28bd 6749 9ebd
00000040: 4ff4 efbb bb19 5abc 13a3 583c 3352 5fbd
00000050: ed1d 0d3e ca6d 563c b5bf 8f3d 25e0 b0bd
00000060: bb38 8dbd bac0 9cbc a4b0 92bc 231a 11be
00000070: 4371 ba3d b566 8cbd 22da 10be 6abb 693a
00000080: 3a1e de3c 7d0e 003d 7dbf 10be 60ae 84bd
00000090: a84d 52bd ced4 b83d 62db 7ebd caad 0ebe
000000a0: 0c0f bfbd e725 083d 4026 3abd c3ce a03d
000000b0: d073 783d 03fb 32bd 8c7e fabc 378f c3bd
000000c0: 4a11 9bbd 8c1d c9bd 1ba5 4fbd 5fec dfbc
000000d0: 448d 64bc 1d6b e4bc e82e 80bd 4a5b 1dbe
000000e0: 898b c4bc 1ab1 cc3d c4bd ecbb 8a02 eb3d
000000f0: 5f22 e2bc f12d 19be 8d4f 9bbc 336f b6bd

rnn.weight_ih_l0 f4 [384, 64]
-0.074500084 -0.14751396 -0.10750725 -0.05767097 0.053792063 -0.05386647 0.03984834 -0.07714725
0.00030005115 -0.058986276 -0.10981154 0.060051724 -0.092824765 -0.33143476 -0.022666562 -0.11583564
-0.080300614 -0.055063438 -0.07359409 0.018057404 -0.073748775 -0.1033283 0.038724367 -0.0010096936
-0.123021595 -0.12418704 -0.033616062 -0.105317935 -0.07820793 -0.056951836 -0.033241756 -0.15896767
-0.101777054 -0.067351975 -0.022311183 0.026182707 -0.12558922 -0.08902855 0.015302304 -0.038084257
-0.031817548 -0.14228186 0.03203296 -0.0050137653 0.00062574213 -0.028365484 0.087668434 0.025122799
-0.0725567 0.007615833 0.029479263 -0.029960988 -0.0851653 -0.08737587 0.08496322 0.05530294
-0.06506189 0.071100414 0.040181622 -0.11061095 0.019732486 0.033539798 -0.05488516 -0.0871403
-0.09424913 0.0008209965 -0.012974274 0.014162032 0.045974053 0.07870435 0.060274765 -0.067288645
-0.023323683 -0.114278905 -0.050408978 -0.03354551 -0.13332611 -0.21556525 0.019250128 -0.17348884
-0.094810665 0.008367867 -0.11701466 -0.014275981 -0.044836283 -0.101490125 0.040468164 0.06927647
-0.12700452 -0.012385238 -0.064587265 -0.10294618 -0.025387125 0.021124193 -0.021827698 -0.069365285
0.003569703 -0.004259151 0.09862858 -0.08754849 -0.03155132 0.036184568 -0.08672078 0.026345218
0.09099766 -0.1389811 -0.09199084 -0.14374316 0.0054258257 -0.037599802 -0.07447925 0.015088013
-0.054364804 0.0137647865 0.034349445 -0.08065023 -0.16922751 -0.028205127 -0.021318814 0.01752185
-0.008598667 0.012295256 0.011812955 0.1314715 -0.1375451 0.0025578956 0.030888204 -0.16652088
-0.029123304 -0.41228646 -0.040310882 -0.062493972 0.00809286 -0.14187156 -0.057976402 -0.06791166
-0.08083012 -0.00089386856 0.05304992 -0.04997928 -0.028035201 0.3182925 -0.08597821 0.103010334
0.004145414 -0.020959668 -0.06599119 -0.106023796 -0.13190913 -0.10261336 -0.08875753 -0.0070650624
0.07938831 -0.07208311 -0.057397015 0.13426845 -0.19454013 0.022534149 -0.03926271 -0.07259174
-0.09913679 -0.21435764 -0.04472219 -0.072272845 -0.11053515 -0.23164646 0.015257446 0.020051826
-0.09570789 -0.014573413 -0.044244204 -0.19907331 -0.18934928 -0.1285509 -0.077589534 -0.07249842
0.08846338 0.011407193 0.02182199 -0.14774933 0.0764164 -0.06838616 -0.008669698 0.031754788
0.009032555 -0.11350926 -0.12069218 -0.16691251 0.017771179 0.010638254 0.005235875 0.14040373
-0.023073617 -0.0035690123 -0.041110992 -0.14588507 0.0070279515 0.07780907 -0.08632197 -0.051170655
-0.087606154 -0.019066382 -0.045548912 0.049420755 0.008714058 -0.04054191 -0.026918633 -0.22365673
-0.006510734 -0.1581174 -0.034332655 -0.0918712 -0.18004279 -0.19436216 -0.13410912 -0.07117035
-0.076662935 -0.058058497 -0.060089782 -0.08759738 -0.065349944 -0.035881966 0.012522867 -0.13396405
-0.053600702 -0.10471249 0.10360134 0.013208727 -0.10263637 -0.084431246 0.021966044 -0.03898603
0.046021704 -0.06130764 0.014496704 -0.036422614 -0.1614177 -0.0868116 -0.08196206 -0.033797093
0.0057022674 0.024550451 0.04759371 -0.026101435 -0.14949074 -0.09082152 -0.061825473 0.03446823
-0.06211987 -0.19548038 -0.02449132 -0.05041171 -0.15068664 -0.074467465 -0.080261104 -0.06150471
00000000: 8093 98bd e60d 17be c32c dcbd 6538 6cbd
00000010: 1155 5c3d 16a3 5cbd 0338 233d 61ff 9dbd
00000020: 2f50 9d39 989b 71bd dfe4 e0bd ccf8 753d
00000030: e91a bebd d1b1 a9be 3aaf b9bc 3c3b edbd
00000040: a674 a4bd 338a 61bd 80b8 96bd 1fed 933c
00000050: 9909 97bd ca9d d3bd 719d 1e3d b257 84ba
00000060: bff2 fbbd c655 febd ffb0 09bd eeb0 d7bd
00000070: 7b2b a0bd 5446 69bd 8228 08bd 6cc8 22be
00000080: 7d70 d0bd d5ef 89bd f1c5 b6bc 1e7d d63c
00000090: 769a 00be 9a54 b6bd 84b6 7a3c 3dfe 1bbd
000000a0: 1e53 02bd 56b2 11be fe34 033d 834a a4bb
000000b0: d808 243a bb5e e8bc 828b b33d 54ce cd3c
000000c0: 9b98 94bd 3d8e f93b 7f7e f13c bf70 f5bc
000000d0: 256b aebd 1ff2 b2bd 3201 ae3d 5685 623d
000000e0: 2b3f 85bd 189d 913d 7c95 243d fe87 e2bd
000000f0: 06a6 a13c 0761 093d 43cf 60bd 9d76 b2bd
00000100: b005 c1bd 2438 573a 0d92 54bc de07 683c
00000110: 4a4f 3c3d bf2f a13d ace2 763d a1ce 89bd
00000120: 4f11 bfbc 0f0b eabd a579 4ebd 0467 09bd
00000130: a486 08be 23bd 5cbe 72b2 9d3c 0fa7 31be
00000140: 182c c2bd 6119 093c 62a5 efbd cee5 69bc
00000150: 40a6 37bd 0eda cfbd f2c1 253d d2e0 8d3d
00000160: 790d 02be 74eb 4abc 5446 84bd 72d5 d2bd
00000170: a9f8 cfbc a50c ad3c 00d0 b2bc 630f 8ebd
00000180: aef1 693b 5990 8bbb c8fd c93d 9f4c b3bd
00000190: f53b 01bd 4536 143d aa9a b1bd edd1 d73c
000001a0: fb5c ba3d 1051 0ebe b265 bcbd 6831 13be
000001b0: 20cb b13b 4002 1abd 9488 98bd b733 773c
000001c0: a1ad 5ebd b385 613c 01b2 0c3d f32b a5bd
000001d0: fa49 2dbe 700e e7bc cba4 aebc fc89 8f3c
000001e0: 6ce1 0cbc 0b72 493c 208b 413c 77a0 063e
000001f0: 9fd8 0cbe 5ea2 273b 4209 fd3c 7384 2abe
00000200: ff93 eebc 3617 d3be 061d 25bd aef9 7fbd
00000210: ea97 043c c746 11be aa78 6dbd 4515 8bbd
00000220: 438a a5bd 8152 6aba df4a 593d 13b7 4cbd
00000230: 14aa e5bc 3cf7 a23e 5815 b0bd 15f7 d23d
00000240: 41d6 873b 9cb3 abbc 6426 87bd 0123 d9bd
00000250: 3013 07be f426 d2bd 82c6 b5bd 0a82 e7bb
00000260: 5796 a23d 4fa0 93bd 2219 6bbd ab7d 093e
00000270: 8735 47be 8999 b83c efd1 20bd faaa 94bd
00000280: 3b08 cbbd 9280 5bbe 9d2e 37bd c903 94bd
00000290: 4160 e2bd bb34 6dbe 5efa 793c ba43 a43c
000002a0: 8002 c4bd 53c5 6ebc 6939 35bd e0d9 4bbe
000002b0: c7e4 41be d9a2 03be 43e7 9ebd 0d7a 94bd
000002c0: 4a2c b53d 3ce5 3a3c 08c4 b23c 9a4b 17be
000002d0: 3480 9c3d 0b0e 8cbd 590b 0ebc 4f11 023d
000002e0: 48fd 133c 8b77 e8bd 762d f7bd 1deb 2abe
000002f0: dd94 913c 124c 2e3c b491 ab3b ffc5 0f3e
00000300: e204 bdbc 17e6 69bb 0064 28bd e562 15be
00000310: bb4a e63b 5d5a 9f3d 93c9 b0bd 5298 51bd
00000320: db6a b3bd 1a31 9cbc 7f91 3abd 6b6d 4a3d
00000330: 69c5 0e3c 460f 26bd 7784 dcbc 4506 65be
00000340: ff57 d5bb 87e9 21be 66a0 0cbd f826 bcbd
00000350: 235d 38be e006 47be e753 09be c3c1 91bd
00000360: 7501 9dbd bfce 6dbd b420 76bd 4166 b3bd
00000370: 31d6 85bd f8f8 12bd b62c 4d3c df2d 09be
00000380: 698c 5bbd 8173 d6bd f02c d43d 6b69 583c
00000390: 0433 d2bd 4aea acbd 22f2 b33c d1af 1fbd
000003a0: 4181 3c3d b81d 7bbd 9583 6d3c e12f 15bd
000003b0: ae4a 25be 48ca b1bd b9db a7bd d26e 0abd
000003c0: 16da ba3b 071e c93c 9ff1 423d add2 d5bc
000003d0: 1a14 19be a200 babd b53c 7dbd 8f2e 0d3d
000003e0: 6871 7ebd 022c 48be 05a2 c8bc 827c 4ebd
000003f0: 994d 1abe 6682 98bd ef5f a4bd 5dec 7bbd

rnn.weight_hh_l0 f4 [384, 128]
-0.21222262 0.021979256 -0.2247576 -0.047710348 -0.08284842 0.048968058 -0.08087763 -0.008932437
-0.049935855 0.019031674 -0.037893098 0.0027204324 -0.010178106 0.022969674 -0.076127715 -0.102372296
0.1267863 0.014270033 -0.23146547 -0.050908413 -0.018186063 -0.10010661 -0.16126844 -0.08930817
-0.069193885 -0.22806497 0.078938015 -0.09309874 0.01015636 -0.09390544 -0.13273822 -0.052696995
-0.08784035 0.0033002503 0.06732658 0.121838875 0.029241707 -0.044257414 -0.08826677 -0.08005132
0.052777387 0.048867546 0.10716701 -0.048904464 -0.14808275 0.046024334 -0.11898338 -0.1277108
0.06113816 0.0005038309 -0.12244039 0.011078009 0.11760705 -0.2752855 0.0546768 0.04318865
-0.017043635 -0.055773284 -0.093053855 -0.072684735 0.088894606 -0.001688235 0.054161847 -0.015736219
0.051314387 0.041215412 0.06859843 0.034002427 -0.119407885 0.036217283 -0.0076278774 0.022118853
-0.049870502 -0.1119984 -0.034552343 0.0025499568 -0.08747186 0.101146065 -0.026466174 0.013558298
0.0466294 0.049152933 0.017525 0.06356194 -0.014992616 -0.011110239 0.04554577 0.11992781
-0.040777 0.07573885 0.010620481 -0.03765844 0.13945186 -0.007580577 -0.061507806 -0.03298008
0.010559959 0.03681278 0.08239072 0.089541025 -0.11449202 -0.015014642 -0.0021344572 -0.05842785
0.11064687 0.02271839 -0.13260925 0.23158957 0.10959742 0.04296984 0.118312046 0.035423756
0.035280127 -0.07092499 0.017689196 -0.086517595 -0.13539508 -0.030519878 -0.0017318375 0.0017372208
0.03777512 0.07550798 0.032273073 0.025503324 -0.021163197 -0.018299488 -0.02144865 -0.039709438
0.065321214 -0.02516552 -0.12214282 0.016753357 -0.049392384 0.04351836 0.010063363 0.13393672
-0.10061783 0.00089910073 0.060678557 0.010514076 -0.02427311 0.0119958725 -0.030782629 -0.12749504
-0.062216677 0.02430992 -0.0650852 -0.0005364548 0.023683434 -0.061581187 -0.04629867 0.01237394
0.098914616 -0.04242039 0.13886529 0.022525778 -0.113391496 0.08603692 -0.09934222 -0.1902723
0.019344987 -0.123348214 0.06989249 0.028168032 0.07930162 0.08585689 -0.021221125 0.1120699
0.09851742 -0.012106893 0.13445343 -0.00020908893 -0.025591655 -0.107455365 0.0068729343 -0.032577723
-0.05440134 0.014098108 -0.008680866 0.0034690597 -0.010959537 -0.14729738 -0.06852418 -0.08030847
-0.042183023 -0.07725381 -0.08656633 -0.013679911 -0.052511342 -0.15671158 0.05638789 -0.036903545
0.040123153 -0.12159812 0.04929103 0.10867459 0.028563347 0.02560126 0.023196358 0.10046048
-0.0486215 0.11749173 -0.10562769 0.11087023 0.109742284 0.027142 0.12151956 -0.03668727
0.08726493 -0.14385237 0.10911725 0.060877804 0.018616574 -0.021959292 -0.030182617 -0.00033850226
-0.08817536 -0.045047257 -0.13057579 -0.007143318 0.07162095 0.12654689 0.0024135665 0.05173893
0.065466836 0.015191439 0.035435732 0.008640144 -0.017842537 -0.042317763 0.0669246 -0.13056388
0.03805825 -0.005086906 -0.08126127 0.03325604 0.060922418 -0.0059885764 0.04446148 -0.018937761
0.009097595 -0.0037947972 0.1020287 -0.05460628 -0.07657009 0.08045761 0.0089746285 0.10935066
0.013023209 0.064452395 0.14558366 -0.12009028 0.010215091 -0.0051577743 0.021830438 -0.05600396
00000000: e350 59be d70d b43c db26 66be ed6b 43bd
00000010: 6fac a9bd bb92 483d 2ca3 a5bd 5b59 12bc
00000020: 8a89 4cbd 50e8 9b3c cb35 1bbd 4849 323b
00000030: 12c2 26bc e62a bc3c d9e8 9bbd 91a8 d1bd
00000040: 45d4 013e dbcc 693c 4905 6dbe 5785 50bd
00000050: f0fa 94bc b204 cdbd 8e23 25be 34e7 b6bd
00000060: 86b5 8dbd dd89 69be 41aa a13d 8daa bebd
00000070: dd66 263c 7f51 c0bd 87ec 07be ced8 57bd
00000080: a4e5 b3bd 0349 583b 85e2 893d a986 f93d
00000090: 4e8c ef3c 4347 35bd 35c5 b4bd f2f1 a3bd
000000a0: 1a2d 583d 5629 483d 617a db3d 0c50 48bd
000000b0: 01a3 17be 0384 3c3d 8fad f3bd 9fc6 02be
000000c0: 026c 7a3d 8513 043a 07c2 fabd 8a80 353c
000000d0: f7db f03d 39f2 8cbe c8f4 5f3d 95e6 303d
000000e0: 189f 8bbc 8772 64bd 0593 bebd bcdb 94bd
000000f0: 600e b63d c447 ddba d0d8 5d3d 3ee9 80bc
00000100: 092f 523d 7ed1 283d 557d 8c3d 2146 0b3d
00000110: 1f8c f4bd 9358 143d 46f3 f9bb 9932 b53c
00000120: 0345 4cbd 6b5f e5bd c286 0dbd 2d1d 273b
00000130: 7224 b3bd ab25 cf3d 97cf d8bc a023 5e3c
00000140: 78fe 3e3d 9654 493d 9790 8f3c c32c 823d
00000150: 97a3 75bc b807 36bc 348e 3a3d b69c f53d
00000160: c905 27bd f81c 9b3d 8701 2e3c bd3f 1abd
00000170: 78cc 0e3e 7d66 f8bb 9cef 7bbd 1f16 07bd
00000180: ae03 2d3c ffc8 163d 77bc a83d 4961 b73d
00000190: cb7a eabd f9ff 75bc 40e2 0bbb 0b52 6fbd
000001a0: d49a e23d eb1b ba3c b8ca 07be d125 6d3e
000001b0: 9d74 e03d 2501 303d 964d f23d 8018 113d
000001c0: e581 103d 1f41 91bd efe8 903c 2330 b1bd
000001d0: 02a5 0abe d304 fabc d3fe e2ba 75b3 e33a
000001e0: 16ba 1a3d eea3 9a3d c530 043d 59ec d03c
000001f0: 715e adbc cfe8 95bc 14b5 afbc 5da6 22bd
00000200: 21c7 853d ec27 cebc 0426 fabd 563e 893c
00000210: ab4f 4abd 4f40 323d cee0 243c b526 093e
00000220: b910 cebd a1b1 6b3a 148a 783d 3b43 2c3c
00000230: 67d8 c6bc 568a 443c da2b fcbc 0f8e 02be
00000240: ead6 7ebd 9925 c73c 644b 85bd dfa0 0cba
00000250: c303 c23c 8e3c 7cbd ada3 3dbd 11bc 4a3c
00000260: bf93 ca3d 01c1 2dbd b432 0e3e fb87 b83c
00000270: cd39 e8bd 2034 b03d ef73 cbbd bed6 42be
00000280: 6179 9e3c fd9d fcbd cb23 8f3d a5c0 e63c
00000290: e368 a23d bdd5 af3d edd7 adbc e784 e53d
000002a0: 80c3 c93d fd5b 46bc 29ae 093e e23e 5bb9
000002b0: 97a5 d1bc 8f11 dcbd 5a36 e13b 3870 05bd
000002c0: f1d3 5ebd c0fb 663c 313a 0ebc 2a59 633b
000002d0: a18f 33bc 20d5 16be 6856 8cbd c478 a4bd
000002e0: 1bc8 2cbd 3f37 9ebd b049 b1bd b521 60bc
000002f0: 2216 57bd 0079 20be fdf6 663d 2c28 17bd
00000300: 2d58 243d 6f08 f9bd 64e5 493d c990 de3d
00000310: aefd e93c bcb9 d13c 4a06 be3c 39be cd3d
00000320: 5727 47bd 819f f03d 5553 d8bd ee0f e33d
00000330: 90c0 e03d e658 de3c 3fdf f83d 6445 16bd
00000340: f5b7 b23d 094e 13be dd78 df3d 015b 793d
00000350: c981 983c f9e3 b3bc 8941 f7bc 0179 b1b9
00000360: 4895 b4bd 7983 38bd a9b5 05be 7f12 eabb
00000370: 01ae 923d 8295 013e ed2c 1e3b 33ec 533d
00000380: 7a13 863d 83e5 783c 0f25 113d 648f 0d3c
00000390: 832a 92bc 6455 2dbd c40f 893d 8ab2 05be
000003a0: f8e2 1b3d 0fb0 a6bb 4f6c a6bd 7c37 083d
000003b0: c989 793d d23b c4bb 3e1d 363d 5d23 9bbc
000003c0: 140e 153c 22b2 78bb 6cf4 d03d d6aa 5fbd
000003d0: c8d0 9cbd f6c6 a43d 520a 133c 3df3 df3d
000003e0: 4c5f 553c 9eff 833d e213 153e e5f1 f5bd
000003f0: 325d 273c 8c02 a9bb bfd5 b23c 6964 65bd

rnn.bias_ih_l0 f4 [384]
-0.075612225 -0.13566794 -0.10904233 -0.025832985 0.07211179 -0.08876115 -0.11335993 -0.045941915
-0.12560306 -0.13936785 -0.026366755 -0.0074296743 0.25225976 -0.2753616 -0.048725385 -0.12247451
0.31762162 -0.049298234 -0.02797725 -0.043633126 -0.12795445 0.029748306 -0.31584662 0.025698472
0.04401473 -0.13837384 -0.0336164 -0.27246022 -0.13018839 -0.20056924 -0.019030327 0.06270131
0.01891912 0.023486918 -0.001672098 -0.042649947 -0.12820365 0.041114423 -0.030821994 -0.16812101
-0.13438971 0.045308232 -0.033000562 0.049083866 -0.17411773 -0.05656352 -0.08044808 -0.09403319
0.042780157 0.011841063 -0.067395136 0.028360045 0.037593666 0.026821205 -0.08074671 -0.08753743
-0.25709403 -0.042779673 -0.20207645 -0.05376902 -0.030625902 -0.20935914 -0.0764988 -0.07560145
-0.02479453 -0.0670312 -0.09477588 -0.16525343 -0.043963697 -0.058415614 -0.14757542 -0.16432634
-0.13116834 -0.020473145 -0.02498142 -0.022248885 0.02899709 -0.11525341 -0.082869254 0.033417195
-0.04516524 0.036688216 0.31358072 -0.03948083 -0.29443148 -0.10413415 -0.007930216 -0.011738402
0.033538915 -0.05103832 -0.028997645 0.06164414 -0.06675156 -0.08390376 -0.19158596 0.0056995475
-0.17668417 -0.3148207 -0.100143075 -0.05260857 0.0034714693 0.031105664 -0.23956552 -0.10604818
-0.03623836 -0.158236 0.031653766 -0.15631321 0.033214234 -0.22436725 -0.10592339 -0.060454868
0.047344603 -0.041287653 -0.31422505 -0.09080931 -0.09601618 -0.080748454 -0.08172089 -0.10025717
-0.10745775 -0.102380484 -0.074384704 -0.00066239096 0.009791909 -0.08544782 -0.018961046 -0.1280219
-0.026163176 0.29292062 -0.43346557 0.019479742 0.14875366 -0.011671955 0.011404095 -0.02993124
0.025239607 -0.16150036 -0.67202693 0.16819169 -0.56364256 -0.33728078 0.11043682 0.06561835
-0.82541144 0.044483308 -0.276589 0.22445858 0.047284227 -0.20816214 -0.07721909 0.022397552
0.21796064 0.004084353 0.22882701 -0.595603 -0.6745166 -0.42571002 0.051142663 -0.7385757
0.24285276 0.15745997 0.23889275 0.007056988 0.13033497 0.20039192 0.08274881 -0.29272422
0.17397198 0.2129805 0.14890717 0.11601763 0.2476147 0.26526096 -0.5093383 -0.1332166
0.1204092 0.2198337 -0.010007464 0.051168796 0.027962143 0.067426525 0.08096835 -0.17996569
-0.11097973 0.038010895 0.20486218 -0.2515064 0.49285942 -0.46341518 0.40105486 0.32320043
0.1287196 0.035842486 0.1374224 -0.017520564 0.08619692 0.086076245 0.38513792 0.34779373
0.10104473 0.2806747 0.022041522 0.10640327 0.30128852 0.22618492 0.24024895 0.031501643
0.053472273 0.006528614 -0.6606755 0.07562631 -0.44764808 0.13414754 -0.0368462 0.23763618
-0.09912712 0.4794874 -0.5497731 -0.06263302 0.042921487 0.03607605 0.26090968 0.15394443
-0.014097703 -0.35627693 0.03352725 0.13448486 0.13721879 0.044253826 0.05777219 0.0905323
0.51745623 -0.38529634 0.21699452 0.15543225 0.1349011 0.32021165 -0.08196648 0.42491046
0.053102896 0.07925168 -0.044699267 0.035292733 0.26544303 0.10160228 0.37369892 0.19881074
0.20703334 0.30917913 0.44736394 0.06395247 -0.043956205 -0.23847061 0.08814777 -0.44901723
00000000: 95da 9abd 89ec 0abe 9651 dfbd b29f d3bc
00000010: 59af 933d 68c8 b5bd 4029 e8bd 972d 3cbd
00000020: 179e 00be 72b6 0ebe 18ff d7bc a074 f3bb
00000030: 3128 813e 32fc 8cbe 4594 47bd ead3 fabd
00000040: 4d9f a23e f2ec 49bd 8c30 e5bc a6b8 32bd
00000050: 7e06 03be b8b2 f33c a6b6 a1be 9a85 d23c
00000060: ca48 343d dfb1 0dbe 5ab1 09bd e87f 8bbe
00000070: 1b50 05be 0662 4dbe 7de5 9bbc 8b69 803d
00000080: 45fc 9a3c a367 c03c 4c2a dbba b6b1 2ebd
00000090: d147 03be 9967 283d 687e fcbc ea27 2cbe
000000a0: 759d 09be 2095 393d 992b 07bd 2a0c 493d
000000b0: eb4b 32be 26af 67bd f7c1 a4bd 7994 c0bd
000000c0: 3f3a 2f3d 0501 423c 7606 8abd 5353 e83c
000000d0: d1fb 193d 25b8 db3c 885e a5bd d346 b3bd
000000e0: d4a1 83be bd39 2fbd 21ed 4ebe e73c 5cbd
000000f0: 2ce3 fabc 3e62 56be 67ab 9cbd efd4 9abd
00000100: e61d cbbc a747 89bd db19 c2bd 3238 29be
00000110: 4713 34bd 3645 6fbd 031e 17be 2a45 28be
00000120: fe50 06be 4cb7 a7bc d6a5 ccbc 4b43 b6bc
00000130: 4e8b ed3c fb09 ecbd 5bb7 a9bd 78e0 083d
00000140: 30ff 38bd 6246 163d a78d a03e a7b6 21bd
00000150: b9bf 96be 4944 d5bd bded 01bc 6d52 40bc
00000160: 1a60 093d 8f0d 51bd 788c edbc 917e 7c3d
00000170: 0bb5 88bd bcd5 abbd 1c2f 44be 45c3 ba3b
00000180: b2ec 34be 2e30 a1be d017 cdbd 157c 57bd
00000190: 9781 633b 4ed1 fe3c aa50 75be ca2f d9bd
000001a0: ad6e 14bd 9e08 22be 61a7 013d 9210 20be
000001b0: a60b 083d 87c0 65be 5dee d8bd 869f 77bd
000001c0: 6aec 413d 3e1d 29bd 1be2 a0be 3bfa b9bd
000001d0: 22a4 c4bd 725f a5bd 485d a7bd a253 cdbd
000001e0: cf12 dcbd dcac d1bd 0257 98bd 4ea4 2dba
000001f0: 3e6e 203c 44ff aebd 3254 9bbc 2c18 03be
00000200: 2854 d6bc b1f9 953e 33ef ddbe fb93 9f3c
00000210: e152 183e ba3b 3fbc 3ed8 3a3c 5c32 f5bc
00000220: 4bc3 ce3c 5a60 25be f509 2cbf 713a 2c3e
00000230: e14a 10bf 11b0 acbe b32c e23d ea62 863d
00000240: 2a4e 53bf 2134 363d 139d 8dbe 78d8 653e
00000250: 1bad 413d 7528 55be 0b25 9ebd 127b b73c
00000260: 1331 5f3e 09d6 853b a151 6a3e 7079 18bf
00000270: 1fad 2cbf aaf6 d9be f87a 513d 4c13 3dbf
00000280: 65ae 783e 303d 213e 4da0 743e 4e3e e73b
00000290: 8876 053e 8a33 4d3e 3578 a93d f3df 95be
000002a0: b625 323e 8f17 5a3e 1f7b 183e a79a ed3d
000002b0: b58e 7d3e 49d0 873e ff63 02bf ef69 08be
000002c0: 1999 f63d 161c 613e 59f6 23bc 5f96 513d
000002d0: dd10 e53c eb16 8a3d bcd2 a53d ed48 38be
000002e0: 5749 e3bd 50b1 1b3d 64c7 513e 72c5 80be
000002f0: 1258 fc3e c144 edbe 1057 cd3e 877a a53e
00000300: 12cf 033e 92cf 123d 75b8 0c3e 4987 8fbc
00000310: 0388 b03d be48 b03d cc30 c53e 0512 b23e
00000320: 8af0 ce3d 98b4 8f3e 6c90 b43c f5e9 d93d
00000330: 7d42 9a3e 059d 673e d203 763e de07 013d
00000340: be05 5b3d fced d53b 0822 29bf f8e1 9a3d
00000350: 2132 e5be f95d 093e 0aec 16bd e656 733e
00000360: 2903 cbbd 5f7f f53e eebd 0cbf be45 80bd
00000370: 71ce 2f3d 7bc4 133d f495 853e 9ca3 1d3e
00000380: 0dfa 66bc ee69 b6be df53 093d 66b6 093e
00000390: 1583 0c3e 8043 353d 88a2 6c3d 0069 b93d
000003a0: 0378 043f 9045 c5be d033 5e3e a229 1f3e
000003b0: 8423 0a3e c8f2 a33e 0bde a7bd dd8d d93e
000003c0: 6c82 593d b44e a23d 9416 37bd 1d8f 103d
000003d0: 26e8 873e db14 d03d 7755 bf3e 0b95 4b3e
000003e0: 8c00 543e ba4c 9e3e e30c e53e 83f9 823d
000003f0: 6c0b 34bd a431 74be d186 b43d 96e5 e5be
