1223-code-DL/model/CNN_state_dict.pt (torch, 148743 bytes, 10 tensors)

fc.0.weight f4 [6, 1, 11, 7]
0	0xbc89cf2e	-0.016822424
1	0xbca6498e	-0.020298745
2	0x3cd293ef	0.025705306
3	0x3db85097	0.08999746
4	0x3d4743e0	0.048648715
5	0xbdeb48f0	-0.11488521
6	0xbe24c71a	-0.16091576
7	0x3d3f1be3	0.046657454
8	0xbb66f141	-0.0035239013
9	0xbd3cfd68	-0.046140105
10	0xbb2d0433	-0.0026400208
11	0x3d1772a0	0.03697455
12	0x3de36024	0.11102322
13	0xbde78b43	-0.11305859
14	0x3d0d1639	0.03444502
15	0xbcf5d41d	-0.03000837
16	0x3d53d960	0.051720977
17	0xb99994bf	-0.0002929326
18	0xb9c02095	-0.0003664537
19	0x3ea9c276	0.33156174
20	0xbe59c5a4	-0.212668
21	0x3d9d5466	0.07682113
22	0xbd315278	-0.04329154
23	0x3cbcc4f3	0.023043131
24	0xbd428ac9	-0.047495637
25	0xbd2e01f9	-0.04248235
26	0xbeba5d65	-0.3639938
27	0xbda9f33b	-0.08298346
28	0x3dd851b5	0.105624594
29	0xbcb5481d	-0.022129113
30	0x3dd6f736	0.104963705
31	0xbca0c399	-0.019624518
32	0x3d04459c	0.032292947
33	0xbe65f018	-0.2245487
34	0xbda38219	-0.079837985
35	0x3db493af	0.08817231
36	0x3d17bf36	0.037047587
37	0xbc9de622	-0.019274775
38	0xbbf3304b	-0.0074215285
39	0xbd3ca039	-0.046051238
40	0xbdbbe8c3	-0.09175255
41	0xbda9dd51	-0.08294166
42	0x3dfb43d8	0.122687995
43	0x3c0b8817	0.008516333
44	0x3d93453f	0.07190942
45	0x3d07ce53	0.03315575
46	0x3cc8ed94	0.024527349
47	0xbbce8cc0	-0.0063034
48	0xbd613dc7	-0.054990556
49	0xbe12ecb3	-0.14348106
50	0xbcfed576	-0.031107645
51	0xbdbe676f	-0.09297072
52	0xbcf9835c	-0.030458145
53	0xbc9dc1d9	-0.019257473
54	0x3e0d5e5e	0.1380553
55	0xbdc5d4d7	-0.096597366
56	0xbd871b69	-0.06597025
57	0x3c7479e5	0.01492164
58	0x3c8d09f3	0.017216658
59	0xbdaff095	-0.08590809
60	0x3bb1de52	0.005428114
61	0xbe5d3db3	-0.21605568
62	0xbe2e1fec	-0.17004365
63	0xbd0d7a7a	-0.03454063
64	0x3cb84ef7	0.02249859
65	0xbd926ee3	-0.07150056
66	0x3df9e7cb	0.12202414
67	0xbbf7457c	-0.007546125
68	0xbe042a2a	-0.1290671
69	0xbea49206	-0.32142657
70	0xbeac9bf0	-0.3371272
71	0x3af333d6	0.0018554877
72	0x3bc66cc9	0.0060554487
73	0xbcbf56de	-0.023356851
74	0xbba660c3	-0.005077453
75	0x3c899690	0.016795427
76	0xbeb36029	-0.35034302
77	0x3c2fa7b8	0.01072114
78	0x3bb17aac	0.005416235
79	0x3d738d58	0.059460968
80	0xbdc23041	-0.0948186
81	0xbde8318a	-0.11337574
82	0x3ccf911e	0.025337752
83	0xbdd12a84	-0.10213187
84	0x3d09f7bd	0.033683527
85	0xbd7fc628	-0.062444836
86	0x3cf554f7	0.029947741
87	0xbdfec190	-0.12439263
88	0xbdbedd02	-0.09319498
89	0xb9bf1d45	-0.00036452166
90	0xbd030a28	-0.031992108
91	0xbd841f77	-0.06451314
92	0x3d053170	0.03251785
93	0x3d2cee15	0.04221924
94	0xbdf2b6e8	-0.11851293
95	0xbdc5ac95	-0.09652058
96	0x3d8dd24a	0.06924875
97	0xbdc1a480	-0.09455204
98	0xbd9b86b1	-0.0759405
99	0xbe15204a	-0.14563099
100	0xbdcdacfd	-0.100427605
101	0xbc01d721	-0.007924826
102	0xbd4f6d0c	-0.050641105
103	0xbdf17a99	-0.11790962
104	0xbd5a0683	-0.053228866
105	0xbde82cda	-0.1133668
106	0xbe073ee8	-0.1320759
107	0xbdc88414	-0.09790817
108	0xbe1edf66	-0.15514907
109	0xbddd8740	-0.108168125
110	0x3da148e1	0.07875229
111	0xbd0c9c1b	-0.03432856
112	0xb9be120b	-0.00036253067
113	0xbe111544	-0.14168268
114	0xbde14775	-0.109999575
115	0xbdbf3341	-0.09335948
116	0xbc912e89	-0.017722385
117	0xbe1f9e8d	-0.15587826
118	0xbdae189e	-0.08500789
119	0xbdd455d6	-0.103679344
120	0xbd0fbfaf	-0.035094913
121	0xbd9edc19	-0.07756824
122	0xbd81bb9a	-0.0633461
123	0xbde6ef94	-0.11276165
124	0xbe09015c	-0.13379425
125	0xbdd1c90d	-0.102434255
126	0xbd98839a	-0.07446976
127	0xbe005f21	-0.12536289
128	0x3d7747c7	0.060371187
129	0xbd9ffc45	-0.078117885
130	0x3d8001d1	0.062503465
131	0xbca3faae	-0.020016994
132	0xbe078b2f	-0.13236688
133	0x3d318945	0.0433438
134	0xbd88ce7c	-0.06680009
135	0xbda185df	-0.07886862
136	0xbe19ba64	-0.15012509
137	0xbe18652c	-0.14882344
138	0xbcbb5005	-0.022865305
139	0xbd7903a1	-0.060794476
140	0x3c11b52e	0.008893294
141	0xbe04190c	-0.1290018
142	0x3d4a6be6	0.049419306
143	0xbe0e8980	-0.1391964
144	0xbd62269d	-0.055212606
145	0xbd017f81	-0.031615738
146	0x3cbb8f25	0.022895405
147	0x3d67867b	0.056524735
148	0x3d8bdc42	0.0682912
149	0xbe008e1d	-0.12554212
150	0xbcdc1994	-0.026867665
151	0xbdad2af6	-0.0845546
152	0xbd8ae1d3	-0.06781354
153	0xbe10232b	-0.14075916
154	0x3d369c5e	0.044582717
155	0xbe21bfb5	-0.15795787
156	0xbbcaf23b	-0.006193427
157	0xbc993440	-0.018701673
158	0xbcdf0f59	-0.027228998
159	0xbe09812b	-0.1342818
160	0x3d3692cf	0.0445736
161	0xbd0b9700	-0.03407955
162	0xbd761e40	-0.060087442
163	0xbe2a36d4	-0.16622478
164	0xbc30e27d	-0.0107961865
165	0xbda59df5	-0.080867685
166	0xbdffff0b	-0.124998175
167	0x3d1f7c51	0.038936917
168	0xbd0b726d	-0.03404467
169	0xbe0ce0d4	-0.1375764
170	0xbdfdd2c3	-0.12393715
171	0xbd82cda9	-0.06386883
172	0x383a07ff	4.4353303e-05
173	0xbdd1729e	-0.102269396
174	0xbe0041cb	-0.12525098
175	0xbdc8c547	-0.09803253
176	0xbe23d20a	-0.15998092
177	0xbcd96398	-0.026536748
178	0x3cf3c80b	0.029758474
179	0xbe30803a	-0.17236415
180	0xbd40027b	-0.046877366
181	0xbab8e89a	-0.0014107407
182	0xbd1f0d88	-0.038831264
183	0xbdec06cf	-0.11524736
184	0xbc029b1f	-0.007971554
185	0x3ac46f4d	0.0014986783
186	0xbcb83f6c	-0.02249118
187	0xbdbe725c	-0.09299156
188	0xbdba86ce	-0.09107743
189	0xbd412b93	-0.047160696
190	0xbdc0c63a	-0.09412809
191	0xbdcced44	-0.10006192
192	0x3c6c422e	0.014420075
193	0x3d089ae8	0.033350855
194	0xbdacf5fc	-0.08445355
195	0xbdb0f685	-0.0864077
196	0xbd6dd660	-0.058065772
197	0xbda3cfea	-0.07998641
198	0xbd1eb87b	-0.038750153
199	0xbcd5dd29	-0.026106434
200	0xbe35bc12	-0.17747524
201	0xbdebceba	-0.11514039
202	0x3d0f41d6	0.034974895
203	0xbc7995c4	-0.015233461
204	0xbda0505f	-0.078278296
205	0xbe0a28b3	-0.13492088
206	0xbe094d57	-0.13408409
207	0xbe341a5e	-0.17588183
208	0xbde1859c	-0.11011812
209	0xbcc0ff2c	-0.023559175
210	0x3c54ed85	0.012996082
211	0xbca4bbb0	-0.020109028
212	0xbe2a7a2c	-0.16648167
213	0xbe091f40	-0.13390827
214	0xbdbab3ca	-0.09116323
215	0x3d190509	0.037358318
216	0xbd3c1382	-0.04591704
217	0xbdb646c3	-0.089002155
218	0xbcd12619	-0.025530862
219	0xbde07ded	-0.109615184
220	0xbe0eeb21	-0.13956882
221	0x3c4a296b	0.012338976
222	0xbe0045a0	-0.1252656
223	0xbdaeb2df	-0.08530211
224	0xbe322832	-0.17398146
225	0x3af2a328	0.0018511759
226	0x3c947651	0.018122824
227	0xbcd2cc36	-0.025732141
228	0xbe1c99a7	-0.15292989
229	0xbe406feb	-0.18792693
230	0xbe2035f9	-0.15645589
231	0x3d506b68	0.05088368
232	0x3ca802f8	0.020509228
233	0x3d7ad97a	0.061242558
234	0x3ba2f2b8	0.004972782
235	0xbba48917	-0.005021225
236	0xbd12aefd	-0.035811413
237	0xbdf8622d	-0.121281005
238	0xbe06fec9	-0.1318313
239	0xbe104a79	-0.14090909
240	0x3c43f763	0.011960837
241	0xbdb9e15a	-0.090761855
242	0xbd688523	-0.056767594
243	0xbdcd897e	-0.1003599
244	0xbd62da81	-0.055384163
245	0xbdea5247	-0.114414744
246	0xbddebeee	-0.10876261
247	0x3b280a55	0.0025640924
248	0xbd8cad0a	-0.06868942
249	0x3d158ee5	0.036513228
250	0xbd92231b	-0.07135602
251	0xbdf21188	-0.1181975
252	0xbd5e5779	-0.05428264
253	0xbdb7553b	-0.08951803
254	0xbd8e98e6	-0.06962757
255	0xbe12c24d	-0.14331932

fc.0.bias f4 [6]
0	0x3e803618	0.2504127
1	0xbded23c4	-0.115790874
2	0xbc96cbea	-0.01840778
3	0xbdbce508	-0.09223372
4	0xbe004f58	-0.12530267
5	0xbdc55996	-0.09636228

fc.3.weight f4 [16, 6, 5, 3]
0	0x3d421b4f	0.047389325
1	0x3d1353aa	0.03596846
2	0x3d23f9ab	0.040033024
3	0x3bf68568	0.0075232275
4	0x3cd03c36	0.025419336
5	0xbd8c4a14	-0.06850067
6	0xbde641f0	-0.11243045
7	0xbaccb24c	-0.0015617101
8	0xbddf5999	-0.10905761
9	0xbe0093fb	-0.1255645
10	0xbdb400ea	-0.08789237
11	0xbd0469ee	-0.032327585
12	0xb8207915	-3.825974e-05
13	0xbdc2df7f	-0.09515285
14	0xbdee7a09	-0.1164437
15	0xbd280db4	-0.041028693
16	0xbdf141fc	-0.11780164
17	0xbdd57dc0	-0.104243755
18	0xb8b606e6	-8.679721e-05
19	0xbd5ad19d	-0.05342256
20	0x3d299748	0.04140404
21	0x3d42bd4e	0.047543816
22	0xbcc45ffd	-0.023971552
23	0x3a6dc55a	0.000907024
24	0xbcfc905a	-0.030830551
25	0xbd5d84be	-0.05408167
26	0xbd824a37	-0.063618116
27	0xbd3577a4	-0.04430355
28	0xbc860fba	-0.01636492
29	0x3d2d56be	0.042319052
30	0xbdc2714c	-0.09494266
31	0xbdcd2343	-0.10016491
32	0xbdbd7944	-0.09251645
33	0xbdfb7aed	-0.122793056
34	0xbd20df41	-0.03927541
35	0x3c67e1bb	0.014152939
36	0x3c4a36d0	0.01234217
37	0xbc52eb18	-0.0128734335
38	0xbe132bef	-0.14372228
39	0xbdfd29f4	-0.123615175
40	0xbdb93ffe	-0.09045409
41	0xbda4ed6d	-0.08053098
42	0xbc972a5a	-0.018452812
43	0xbe1bf651	-0.15230681
44	0x3b8c042d	0.0042729587
45	0xbdefdeb5	-0.117124
46	0xbdd204f8	-0.10254854
47	0xbdfb75cc	-0.12278327
48	0x3d15fc07	0.036617305
49	0xbe0a9ee2	-0.13537171
50	0x3cdd87c4	0.027042277
51	0xbd6f71b5	-0.05845805
52	0xbd440d95	-0.047864515
53	0x3c3602d5	0.011109074
54	0xbd85d79d	-0.065352656
55	0x3cf76c66	0.030203056
56	0x3cb080f9	0.021545874
57	0xbe1698b3	-0.14706688
58	0x3b95d14b	0.004572069
59	0xbc9135cf	-0.017725853
60	0xbd047ce5	-0.03234567
61	0xbd1f7b8a	-0.038936175
62	0xbcd36f16	-0.025809806
63	0xbdd84faa	-0.1056207
64	0xbd8b0f11	-0.06789983
65	0x3d3a94c3	0.045552026
66	0x3c83736b	0.016046247
67	0xbd6f36b9	-0.058401797
68	0xbe1d9fb9	-0.1539296
69	0xbd4d8db6	-0.050183974
70	0xbdd9dfdb	-0.106384
71	0x3cfd2b98	0.030904576
72	0xbdf3ac02	-0.11898042
73	0xbd2c2e62	-0.04203642
74	0xbda04ec4	-0.07827523
75	0xbd1a35ad	-0.037648845
76	0x3d347a70	0.044062078
77	0xbd3a889e	-0.045540445
78	0x3ba2ee57	0.00497226
79	0x3cd9f0a1	0.026603999
80	0x3cf350ec	0.029701672
81	0xbdbd0c0e	-0.09230815
82	0xbd715f33	-0.05892868
83	0xbb95f545	-0.0045763575
84	0xbdaecc5c	-0.08535072
85	0x3c68cc7a	0.014208907
86	0xbda0accc	-0.078454584
87	0xbe02bf48	-0.1276828
88	0x3bfbb3ac	0.0076813307
89	0xbd2181b7	-0.039430346
90	0x3e9546ac	0.2915548
91	0x3d980f40	0.07424784
92	0x3da0a354	0.07843652
93	0x3e9697b2	0.2941261
94	0x3c5956e9	0.01326535
95	0x3f054d43	0.5207102
96	0x3e9d3b71	0.30709413
97	0x3d4fd775	0.050742585
98	0x3dfd9bd0	0.123832345
99	0x3e880691	0.2656751
100	0x3cd7e4c9	0.02635421
101	0xbc11440f	-0.008866324
102	0x3e7bf6ba	0.24605837
103	0x3d32c19b	0.043641668
104	0x3e1880a4	0.14892823
105	0x3ca66de9	0.020316081
106	0x3db40dc5	0.08791689
107	0x3c50a440	0.012734473
108	0xbd90556c	-0.07047543
109	0x3be81474	0.0070825163
110	0xbdda3de3	-0.10656335
111	0xbd4c2600	-0.049840927
112	0x3d850248	0.06494576
113	0xbe119a32	-0.14218977
114	0x3c532bee	0.012888892
115	0x3dbeb3ef	0.09311663
116	0xbd0c8e6a	-0.034315504
117	0x3b68a666	0.0035499572
118	0xbd7b7378	-0.061389416
119	0xbd601877	-0.05471083
120	0x3d1c2bd4	0.038127735
121	0x3dd18c46	0.10231833
122	0x3d432eff	0.04765224
123	0x3e05050a	0.12990203
124	0xbc004201	-0.007828237
125	0xbd2444af	-0.040104564
126	0xba019ee7	-0.0004944638
127	0xbce0a40b	-0.027421972
128	0xbd707643	-0.058706533
129	0xbd5840f9	-0.052796338
130	0x3e024d41	0.12724783
131	0xbd0e8869	-0.03479806
132	0xbd513896	-0.051079355
133	0x3ddd6698	0.10810584
134	0xbd59ae84	-0.053144947
135	0xbccc79cc	-0.024960421
136	0xbd96ecfa	-0.073694184
137	0xbe00d92b	-0.12582843
138	0xbd2a5b38	-0.0415909
139	0xbd8f9b75	-0.07012073
140	0x3cd760af	0.02629122
141	0x3ddb85ad	0.10718856
142	0x3d895aec	0.06706795
143	0xbd80e7f1	-0.06294239
144	0xbdf9eb81	-0.12203122
145	0x3dbc6539	0.09198994
146	0x3d18b841	0.037285093
147	0xbd4c1704	-0.049826637
148	0x3c69b8d3	0.014265257
149	0xbdad8026	-0.08471708
150	0x3dc4c26b	0.09607395
151	0x3e833ea1	0.2563372
152	0x3da53026	0.08065824
153	0x3dd01a5c	0.10161278
154	0x3d548e2e	0.051893406
155	0x3d3206eb	0.04346363
156	0x3dd63ba5	0.10460595
157	0x3da9345f	0.08261942
158	0x3ddda84b	0.10823115
159	0x3e20c9ed	0.15702029
160	0xbc8836f6	-0.01662777
161	0x3defc651	0.11707748
162	0x3d58b6f1	0.05290884
163	0x3d946dd0	0.072475076
164	0x3e2c4fba	0.16827288
165	0x3e07de27	0.13268338
166	0x3db2d0f4	0.08731261
167	0xbd188818	-0.037239164
168	0xbdc3346c	-0.09531483
169	0x3d229ccc	0.039700314
170	0xbdeadbca	-0.11467703
171	0xbcc5a1f1	-0.024125071
172	0x3d743875	0.059624154
173	0xbd568004	-0.05236818
174	0x3dbc7c74	0.09203425
175	0x3d816eae	0.063199386
176	0xbd5bb095	-0.0536352
177	0xbd4e3898	-0.05034694
178	0x3d9f93fb	0.07791897
179	0x3d8a75a3	0.06760719
180	0xbd38229b	-0.044954877
181	0xbda5d292	-0.08096804
182	0x3d51ffd9	0.051269386
183	0xbdbd4c28	-0.09243041
184	0x3d5da318	0.054110616
185	0xbcd9bee6	-0.026580285
186	0xbc492ec7	-0.012279219
187	0x3d485d6d	0.048917223
188	0xbd4fded5	-0.05074962
189	0xbdbf93f4	-0.09354392
190	0xbd4e6ae2	-0.0503949
191	0x3d556bf0	0.05210489
192	0xbde4da18	-0.111744106
193	0xbc1a8644	-0.0094314255
194	0xbe0c509b	-0.13702624
195	0x3c1e6041	0.009666503
196	0xbbd91a60	-0.0066254586
197	0xbd021520	-0.031758428
198	0xb941ff86	-0.00018501104
199	0xbd399fdf	-0.04531848
200	0x3cb807ea	0.022464711
201	0xbe0b6654	-0.13613254
202	0xbd792ce3	-0.060833823
203	0x3c262d55	0.010142644
204	0x3d8cae5f	0.06869196
205	0x3c078844	0.008272234
206	0xbdfa5808	-0.12223822
207	0x3d34548b	0.04402594
208	0xbd8d6eb8	-0.069058836
209	0xbd8b8735	-0.06812898
210	0xbe00c321	-0.12574436
211	0xbd447bdb	-0.04796968
212	0x3d30b92d	0.043145347
213	0xbc84053b	-0.016115775
214	0xbdbabb83	-0.09117796
215	0x3a7ada99	0.0009569317
216	0xbd828a31	-0.06374014
217	0x3d87afb7	0.06625312
218	0xbdfc8ea0	-0.12331891
219	0xbd7baf54	-0.061446503
220	0xbe07f7a1	-0.13278057
221	0xbd97e268	-0.074162304
222	0x3b369663	0.0027860634
223	0x3d8f2952	0.06990303
224	0xbc6f7519	-0.014615321
225	0x3d72e06f	0.059296068
226	0xbccb9ff2	-0.024856541
227	0x3cd05df8	0.025435433
228	0x3d422a33	0.047403526
229	0x3d2ec3d8	0.04266724
230	0xbde5f735	-0.112287916
231	0x3d77ab88	0.06046632
232	0x3c966d0c	0.018362544
233	0xbdd38916	-0.103288814
234	0xbdafc30a	-0.085821226
235	0xbe091948	-0.1338855
236	0xbce5ffa8	-0.028076008
237	0xbdfa81b7	-0.122317724
238	0xba6dd74b	-0.00090729137
239	0xbb2549cd	-0.002522099
240	0xbe01b338	-0.12666023
241	0xbbadd9e5	-0.005305516
242	0xbd31b6c1	-0.04338718
243	0x3c518155	0.012787183
244	0x3cd87a67	0.026425553
245	0xbe15ab9e	-0.14616248
246	0x3d7d5207	0.061845805
247	0x3d5ec3ae	0.054385833
248	0x3bed143f	0.0072350795
249	0xbe06bb5f	-0.13157414
250	0xbd92e82d	-0.0717319
251	0xbd853802	-0.06504823
252	0xbda5de0f	-0.08098995
253	0x3cd0272a	0.0254093
254	0x3b5cce35	0.0033692245
255	0x3d43bf3b	0.047789793

fc.3.bias f4 [16]
0	0xbded96f0	-0.11601055
1	0xbc0be846	-0.008539265
2	0xbdf5fd0e	-0.12011157
3	0xbd95db27	-0.073171906
4	0x3def16c8	0.11674267
5	0xbe046ade	-0.12931392
6	0xbdcdd2b9	-0.10049958
7	0xbd2c8d72	-0.04212708
8	0x3d8b3b1c	0.067983836
9	0xbd9ba6ba	-0.0760016
10	0xb7f82bb6	-2.9584258e-05
11	0xbdb2cba0	-0.08730245
12	0xbdfd519a	-0.1236908
13	0xbe0e1f79	-0.13879193
14	0xbda32034	-0.07965127
15	0xbcf380ed	-0.029724563

fc.7.weight f4 [128, 192]
0	0x3c3f2897	0.011667392
1	0xbd1a85c4	-0.037725225
2	0xbc2401b5	-0.010010173
3	0xbd81f753	-0.063460015
4	0x3cd20d58	0.025641128
5	0x3ce400bc	0.027832381
6	0xbdc7f7ca	-0.09764059
7	0xbd559ed9	-0.052153442
8	0xbdc0f3a9	-0.094214745
9	0xbb372a2c	-0.002794872
10	0xbdc4f546	-0.09617095
11	0xbd8a0e10	-0.067409635
12	0x3d56599c	0.052331552
13	0xbe9ffb8a	-0.31246597
14	0xbe12e746	-0.14346036
15	0xbea1ad31	-0.31577447
16	0xbd079b5e	-0.033107154
17	0xbf00f3ef	-0.50372213
18	0x3cf43738	0.029811487
19	0xbd861418	-0.06546801
20	0x3d89a520	0.06720948
21	0x3e6f012e	0.23340294
22	0x3e1ab4a7	0.15107976
23	0x3ed59608	0.41716027
24	0x3cdff062	0.027336303
25	0xbd9f6c57	-0.07784336
26	0xbdbd8edf	-0.09255766
27	0xbd1a1702	-0.0376196
28	0xbd6f6189	-0.058442626
29	0xbd463079	-0.04838607
30	0xbdaadf21	-0.0834334
31	0xbc145ab2	-0.009054827
32	0xbdd5f003	-0.10446169
33	0xbce23cfe	-0.027616974
34	0x3be5cfd5	0.007013301
35	0xbcb0e862	-0.021595184
36	0xbc95bddd	-0.01827901
37	0xbcb8dcf7	-0.022566302
38	0xbd491692	-0.04909379
39	0xbd427ea6	-0.047484063
40	0xbd6e7d80	-0.058225155
41	0xbd9b7c2f	-0.075920455
42	0xbd8197cc	-0.06327781
43	0x3d30b850	0.043144524
44	0xbd1ef7b9	-0.038810465
45	0x3c367980	0.011137366
46	0x3cc2319c	0.023705296
47	0xbd462706	-0.04837706
48	0xbc9e5ba9	-0.019330816
49	0xbd828f5c	-0.06375
50	0x3aebc9f1	0.001798926
51	0x3bf3fb1e	0.007445707
52	0xbd5a5992	-0.053308077
53	0xbd8ccb66	-0.06874733
54	0x3d189cfe	0.037259094
55	0xbd228053	-0.03967316
56	0x3d4162e7	0.04721346
57	0xbe37a5c6	-0.17934331
58	0xbc3141f4	-0.010818947
59	0xbe93f550	-0.28898096
60	0xbc12ae8b	-0.008952747
61	0xbd655ee6	-0.055998705
62	0xbdba9d85	-0.09112076
63	0xbd4977b8	-0.04918644
64	0xbd3e79da	-0.046502925
65	0xbce7f1f5	-0.028313616
66	0xbd2a2a85	-0.041544456
67	0xbb92bf85	-0.0044783973
68	0x3c6dd29b	0.014515544
69	0xbd809d0b	-0.062799536
70	0xbdd13126	-0.102144524
71	0xbd909e80	-0.070614815
72	0xbd0d7071	-0.03453106
73	0x3d278f52	0.040908165
74	0xbd3ead53	-0.046552014
75	0xbbde6dbf	-0.006787985
76	0xbc7a9980	-0.015295386
77	0xbd336945	-0.043801565
78	0x3d05fe15	0.032713015
79	0xbcf64539	-0.030062305
80	0xbb74ace0	-0.0037334487
81	0xbd4fd58d	-0.050740767
82	0xbbee840f	-0.007278926
83	0x3c28010f	0.010254159
84	0xbd111afa	-0.035426117
85	0xbd6f9be1	-0.058498267
86	0xbc2db06e	-0.010601146
87	0xbd4f7cb6	-0.050656043
88	0xbd937ac8	-0.07201153
89	0xbdadc4ed	-0.08484826
90	0xbd42efef	-0.0475921
91	0xbdcc2cdc	-0.09969494
92	0x3ce603e0	0.02807802
93	0xbd87d4f7	-0.06632417
94	0xbd7e3450	-0.062061608
95	0xbccc22da	-0.024918962
96	0xbcffa274	-0.031205393
97	0xbddcf836	-0.1078953
98	0x39e7dfaa	0.00044226396
99	0xbe1aae8a	-0.15105644
100	0x38de9fed	0.000106155734
101	0xbdb5e9ec	-0.08882508
102	0xbdd34fd8	-0.10317963
103	0xbd22c9fc	-0.03974341
104	0x3887c11e	6.4732725e-05
105	0x3d858d9d	0.06521151
106	0x3e0c2aff	0.13688277
107	0x3eb6526e	0.35609764
108	0xbd93fff2	-0.07226552
109	0xbd809dcb	-0.062800966
110	0xbd451d09	-0.048123393
111	0xbdab1ec4	-0.083554775
112	0xbd5614ff	-0.052266117
113	0xbdbada64	-0.09123686
114	0xbbbed855	-0.0058241286
115	0x3c9a8487	0.018862022
116	0xbcdeac13	-0.02718166
117	0xbdab1353	-0.08353295
118	0xbdb2f3da	-0.08737917
119	0xbd766375	-0.060153443
120	0xbd49363e	-0.049123995
121	0xbdd04aa8	-0.101704895
122	0xbd90155b	-0.07035323
123	0x3cc2c961	0.023777666
124	0xbca6afd4	-0.020347513
125	0x3dbdea42	0.09273197
126	0xbd3fbebf	-0.04681277
127	0xbd8a0f2a	-0.067411736
128	0x3d3ba243	0.04580904
129	0xbdb6f81b	-0.08934041
130	0x3e0a665f	0.13515614
131	0x3ddc3a1c	0.10753271
132	0xbb1aa3d0	-0.0023596175
133	0x3b9f1a05	0.0048553967
134	0xbd94bd12	-0.07262625
135	0xbdd0471b	-0.10169812
136	0xbd0944b4	-0.033512786
137	0xbd1db2d2	-0.038500614
138	0xbc10091c	-0.008791234
139	0xbd4d6959	-0.050149295
140	0x3cd12674	0.025531031
141	0xbccf7009	-0.025321977
142	0x3cbc0f11	0.022956403
143	0xbda4e5e8	-0.08051664
144	0x3d628ca8	0.05530992
145	0x3d236dbc	0.039899573
146	0xbd13d873	-0.036095094
147	0x3d463bce	0.048396878
148	0xbd5b5cdb	-0.05355535
149	0x3cee0b97	0.02905826
150	0x3d35a62f	0.04434794
151	0x3d3872e1	0.045031432
152	0x3d9763a8	0.07392055
153	0x3d2560c0	0.04037547
154	0x3d76c06c	0.0602421
155	0x3da616dc	0.08109829
156	0xbcdf0b5e	-0.0272271
157	0x3d0a4106	0.033753417
158	0xbc9952d2	-0.01871625
159	0xbcbc0bfc	-0.022954933
160	0x3d888495	0.06665913
161	0x3d71b7f6	0.05901333
162	0x3c3ecaa7	0.011644996
163	0xbc016b46	-0.007899111
164	0x3d17a50e	0.037022643
165	0xbcaa412b	-0.020783028
166	0x3bda2abe	0.0066579273
167	0x3d14b4d1	0.036305252
168	0x3da2b59f	0.07944798
169	0x3dea5389	0.11441714
170	0x3cbc8c51	0.023016127
171	0x3cc9bc2b	0.024625858
172	0x3dc2b4db	0.09507152
173	0x3d820251	0.06348098
174	0x3d537c24	0.05163206
175	0xbb829417	-0.003984939
176	0x3df76344	0.1207948
177	0x3d68eec2	0.056868322
178	0x3d3db531	0.046315376
179	0x3cf50140	0.029907823
180	0xbd2f9149	-0.042863164
181	0xbb87fff9	-0.0041503874
182	0xbcfcad72	-0.030844424
183	0x3d269cb5	0.04067679
184	0xbd0630fd	-0.032761563
185	0xbd102fd4	-0.035201862
186	0x3c21130f	0.009831204
187	0xbcf31e11	-0.029677423
188	0xbd375a4e	-0.044763856
189	0xba4212e0	-0.0007403325
190	0x3cd9973e	0.026561376
191	0xbc618438	-0.013764434
192	0xbc201154	-0.009769756
193	0xbc58d17d	-0.01323354
194	0xbd22406d	-0.039612222
195	0xbd0f07a7	-0.034919407
196	0xbd1675d8	-0.03673348
197	0xbd5726aa	-0.052527107
198	0x3ab4575e	0.0013758948
199	0x3bd90651	0.0066230674
200	0xbd0c9e0c	-0.034330413
201	0xbd8247c2	-0.06361343
202	0x3b997b97	0.0046839225
203	0xbdedefa1	-0.11617971
204	0xbdbad119	-0.091219135
205	0xbd07bdec	-0.033140108
206	0xbdc493fb	-0.095985375
207	0xbbb5b3f5	-0.005545134
208	0xbe355989	-0.17709936
209	0x3c4c5975	0.0124725
210	0xbe20313a	-0.15643778
211	0xbd51e9d4	-0.051248387
212	0xbdc6d5e6	-0.09708767
213	0xbdffcece	-0.12490617
214	0xbe08cb2a	-0.13358751
215	0xbcd20320	-0.025636256
216	0x3d51ce58	0.051222175
217	0xbda844ad	-0.08216224
218	0x3c508695	0.012727399
219	0xbbadb116	-0.0053006513
220	0xbc8448dd	-0.016148025
221	0x3d8de434	0.06928292
222	0x3c3313ec	0.010930043
223	0xbdf0a772	-0.11750688
224	0xbbbf5439	-0.0058388975
225	0xbd4c0060	-0.049805045
226	0x3abbb853	0.0014321901
227	0xbdc530a7	-0.0962842
228	0xbd9c2782	-0.07624723
229	0xbdc2ac1e	-0.09505485
230	0x3c2e96db	0.010656084
231	0xbc0d9214	-0.008640785
232	0xbbcad26c	-0.006189635
233	0xbc2dbbe3	-0.010603878
234	0xbdd68d74	-0.10476199
235	0xbdba692f	-0.091020934
236	0xbdb4c6e5	-0.088269986
237	0xbdb62f7d	-0.088957764
238	0xbb7c33de	-0.0038483064
239	0xbd116f8d	-0.035506774
240	0xbb0f5dd0	-0.0021875985
241	0xbd821c4b	-0.06353053
242	0xbdfecc10	-0.124412656
243	0xbda617c0	-0.08109999
244	0xbc1a33f4	-0.009411801
245	0xbc84ba27	-0.016202046
246	0xbd1ac76f	-0.03778785
247	0xbda68963	-0.08131673
248	0xbe027d1a	-0.12743035
249	0xbdca9cec	-0.09893212
250	0xbcb7aebd	-0.022422189
251	0xbdb6c6be	-0.08924626
252	0xbccea463	-0.02522487
253	0xbd22f90b	-0.039788287
254	0xbdb32ed7	-0.08749168
255	0xbc809e25	-0.01570041

fc.7.bias f4 [128]
0	0x3deb8802	0.11500551
1	0xbc9ac8c5	-0.018894562
2	0x3bec62a7	0.0072139087
3	0x3de54cd3	0.11196294
4	0x3da81c53	0.082085274
5	0xbd8aa43f	-0.06769609
6	0xbd8a0b92	-0.06740488
7	0x3cb04e7e	0.021521803
8	0xbd56f662	-0.052481063
9	0xbce38a56	-0.027775925
10	0xbdfc68e9	-0.123246975
11	0xbdeb7ced	-0.11498437
12	0xbdc27bbe	-0.09496258
13	0xbd920af0	-0.071309924
14	0xbc8e823f	-0.01739609
15	0x3d6a5d42	0.057217844
16	0xbcfa8202	-0.03057957
17	0x3bc77c78	0.006087836
18	0xbd642276	-0.055696927
19	0xbd185fd2	-0.037200756
20	0xbddb8a46	-0.10719733
21	0xbe426ec4	-0.18987566
22	0xbdb021f9	-0.0860023
23	0xbc37dffc	-0.011222836
24	0xbe00561d	-0.1253285
25	0xbe911e31	-0.28343347
26	0x3e017923	0.12643866
27	0xbd0a64f1	-0.03378767
28	0xbc9c975b	-0.01911514
29	0xbc8b076f	-0.016971318
30	0xbdac4310	-0.08411229
31	0xbdaaa0c2	-0.08331443
32	0xbd1be7b9	-0.038062785
33	0xb9f209d2	-0.00046165154
34	0xbdad25bd	-0.08454464
35	0xbe3b9493	-0.18318395
36	0xbd68d2aa	-0.05684153
37	0xbd694f73	-0.056960534
38	0xbd75d283	-0.060015213
39	0xbd059f66	-0.032622717
40	0x3c18cbbe	0.00932592
41	0xbd4d4d0b	-0.050122302
42	0xbb0fcedc	-0.0021943366
43	0xbe4b27e3	-0.19839434
44	0xbde2f706	-0.11082272
45	0xbd3a1065	-0.04542579
46	0x3b33ea74	0.0027452977
47	0xbebb0799	-0.36529234
48	0xbd934363	-0.07190587
49	0xbd201bd1	-0.039089028
50	0xbdceb1de	-0.10092519
51	0xbd3d3720	-0.04619515
52	0xbded2094	-0.115784794
53	0xbadbee37	-0.0016779368
54	0xbd014e37	-0.031568732
55	0x3ddd736b	0.1081303
56	0xbc232ba1	-0.009959132
57	0x3dc88ec3	0.09792855
58	0xbd2a3b79	-0.041560624
59	0xbd17a22a	-0.037019886
60	0x3d25aa61	0.04044569
61	0xbdab2ec9	-0.08358533
62	0xbaf6ca38	-0.0018828576
63	0xbdec9bb1	-0.11553133
64	0xbe31fc18	-0.17381322
65	0xbd71ee02	-0.059064873
66	0xbdf2e269	-0.118595906
67	0xbe23d0a2	-0.15997556
68	0xbc98a302	-0.018632416
69	0xbd438181	-0.047730926
70	0x3e6ecf93	0.23321371
71	0xbe30abc7	-0.17253028
72	0xbe004519	-0.12526359
73	0xbd298603	-0.04138757
74	0xbd9bcfaf	-0.07607972
75	0xbde0c498	-0.10974997
76	0xbd2be4d0	-0.04196626
77	0xbcc3f732	-0.023921583
78	0xbe01a241	-0.12659551
79	0x3d12b455	0.03581651
80	0xbe6840a3	-0.22680907
81	0x3ea2f189	0.31824902
82	0xbe0a98b3	-0.13534813
83	0xbdb6708b	-0.089081846
84	0x3a35005f	0.00069046573
85	0x3e1446eb	0.14480178
86	0x3ec26c96	0.3797347
87	0x3ea291d5	0.31751886
88	0xbac44588	-0.0014974335
89	0xbe007889	-0.1254598
90	0xbd925a14	-0.07146087
91	0xbda308e2	-0.07960679
92	0xbd27cd1b	-0.04096709
93	0xbe257ee4	-0.16161686
94	0xbdf79f67	-0.120909505
95	0xbd2fe5e8	-0.042943865
96	0x3d14092d	0.036141563
97	0xbd71ae7b	-0.05900429
98	0xbca739e9	-0.020413356
99	0x3b7e2a5d	0.0038782575
100	0xbdbc9677	-0.092083864
101	0xbd1881d8	-0.037233204
102	0xbceedca5	-0.029157946
103	0xbd4e6f04	-0.05039884
104	0xbdb0d905	-0.08635143
105	0x3b1e01ef	0.002411004
106	0xbc2e4b59	-0.0106380815
107	0xbe4edc72	-0.2020128
108	0x3dd216a2	0.10258223
109	0xbd9ab63e	-0.07554291
110	0xbd916224	-0.07098797
111	0xbde91506	-0.11380963
112	0xbda70c05	-0.081565894
113	0x3d6755d1	0.056478325
114	0xbd9df79d	-0.07713244
115	0x3e3e9138	0.18610084
116	0xbc06d4af	-0.008229419
117	0xbdc5f47b	-0.096657716
118	0xbd72fe79	-0.059324715
119	0xbdf5c73c	-0.120008916
120	0xbdc52e72	-0.09627999
121	0xbbdd4af0	-0.006753318
122	0xbd1b4f87	-0.03791764
123	0xbda73c8a	-0.08165844
124	0x3c39874e	0.011323763
125	0xbd7ec1c3	-0.062196504
126	0x3dbd9205	0.09256367
127	0xbe4f29f8	-0.20230854

fc.10.weight f4 [64, 128]
0	0xbdec81b3	-0.11548176
1	0x3c958c82	0.018255476
2	0x3d4d43eb	0.0501136
3	0x3d46289f	0.048378583
4	0xbc722682	-0.014779689
5	0xbd1b28ed	-0.037880827
6	0x3c9db0ab	0.01924928
7	0x3d3c81da	0.046022274
8	0xbd48ba61	-0.04900587
9	0xbd410288	-0.047121555
10	0x3e12af4d	0.14324684
11	0x3d064f72	0.03279061
12	0x3d4ffef5	0.050780255
13	0x3d57b102	0.052659042
14	0x3de41358	0.11136502
15	0xbd0f2d79	-0.034955475
16	0xbd92ca9c	-0.07167551
17	0x3d70377e	0.05864667
18	0x3d83c475	0.064339556
19	0x3e11bdac	0.1423251
20	0x3dce97f9	0.1008758
21	0xbd31c21c	-0.043398008
22	0x3e054a1a	0.13016549
23	0xbd8eb554	-0.06968179
24	0x3c3edb54	0.011648972
25	0x3d7c50b9	0.06160042
26	0x3d467a4e	0.048456483
27	0x3de85b5d	0.11345551
28	0x3d76efec	0.0602874
29	0xbddefbb1	-0.1088785
30	0x3db328d4	0.08748022
31	0x3d906a25	0.070514955
32	0x3c5fa70e	0.013650669
33	0x3d419314	0.047259405
34	0xbc5af537	-0.013364128
35	0x3d8a8a74	0.06764689
36	0xbcc6cac0	-0.0242666
37	0x3e035dbf	0.1282873
38	0x3d3b9b52	0.045802422
39	0x3e0f9e3e	0.14025208
40	0x3db7493b	0.089495145
41	0x3c1f0457	0.009705625
42	0xbd331070	-0.043716848
43	0xbccff8a2	-0.025387112
44	0xbd423850	-0.047416985
45	0x3ca464ee	0.020067658
46	0x3d128477	0.03577086
47	0x3c6f8737	0.01461964
48	0xbd1bed8a	-0.03806833
49	0x3d16f8c1	0.036858324
50	0xbdbdaac9	-0.0926109
51	0xbd43e92b	-0.04782979
52	0xbd513209	-0.051073108
53	0x3d1dbf63	0.0385126
54	0xbd6c8dab	-0.057752293
55	0xbd70b7ed	-0.058769155
56	0x3e0fc206	0.14038858
57	0xbd7fffd8	-0.06249985
58	0x3e0acaa2	0.13553861
59	0x3da2871b	0.079359256
60	0x3c560d6e	0.013064725
61	0x3e0b9966	0.13632736
62	0x3b4d1afc	0.0031296602
63	0xbde0d9bd	-0.1097903
64	0x3bed8c30	0.0072493777
65	0x3d8a4d96	0.067530796
66	0x3c6c7fda	0.014434779
67	0x3ca04091	0.019562038
68	0xbd2b46d1	-0.041815583
69	0xbdacaa93	-0.08430972
70	0xbd2ac7ad	-0.041694332
71	0x3d30d195	0.043168623
72	0x3d140358	0.036136
73	0xbd21e33d	-0.039523352
74	0x3dc9b59e	0.09849094
75	0xbc2d3143	-0.010570827
76	0x38d0d1fc	9.9573255e-05
77	0x3d02a111	0.031891886
78	0x3e05f8ca	0.13083187
79	0xbda6351b	-0.08115598
80	0xbd53f875	-0.05175062
81	0xbb32c31a	-0.0027276934
82	0x3a8245fc	0.000993907
83	0xbc022c61	-0.007945151
84	0xbdceffbc	-0.10107371
85	0xbd993fad	-0.07482848
86	0xbcf6d01a	-0.030128527
87	0xbd0410ab	-0.03224246
88	0x3d2524bb	0.040318232
89	0xbd93db8c	-0.072196096
90	0xbd0580f9	-0.0325937
91	0x3df16bcd	0.117881395
92	0x3d8fd441	0.07022906
93	0x3bfdd67e	0.0077465167
94	0x3cd7a773	0.026324963
95	0x3d4d7c6c	0.050167486
96	0xbdcb54f6	-0.099283144
97	0xbcdd6c50	-0.027029186
98	0xbd7a746f	-0.061146196
99	0x3c50f955	0.012754758
100	0xbb75ac60	-0.0037486777
101	0x3ce627ab	0.028095087
102	0xbdf7be18	-0.120968044
103	0x3e0ba33f	0.13636492
104	0xbcb2f145	-0.021843562
105	0x3deaaebc	0.11459109
106	0x3db67c19	0.089103885
107	0x3cf294ca	0.029611964
108	0x3d594934	0.053048328
109	0x3cdb84cf	0.026796727
110	0x3e0fbb52	0.14036301
111	0x3cdcc83d	0.02695095
112	0xbd897d1d	-0.067133166
113	0xbcd8014e	-0.02636781
114	0xbd2729b7	-0.040811267
115	0x3b6f06c7	0.0036472545
116	0xbd0c4e6d	-0.03425448
117	0xbd862bce	-0.06551324
118	0xbd24797e	-0.040154926
119	0x3d35b99a	0.044366457
120	0xbd47429b	-0.048647504
121	0xbcbfab8f	-0.023397235
122	0x3bbc9254	0.0057547484
123	0x3cf3805a	0.029724289
124	0xbda11ae0	-0.07866454
125	0x3ddc4ba4	0.10756615
126	0xbd8ad151	-0.06778205
127	0xbdbd1792	-0.09233011
128	0xbdeb52bf	-0.11490392
129	0x3d3b4a5e	0.04572522
130	0x3c8e40cb	0.01736488
131	0x3d9e76fb	0.077375375
132	0xbdc57c1e	-0.09642814
133	0x3cda855c	0.026674919
134	0xbd812de0	-0.06307578
135	0x3bbab2ac	0.005697569
136	0x3d11208d	0.035431433
137	0xbce0d4e1	-0.027445259
138	0xbc4c06ed	-0.012452823
139	0xbb31aa2b	-0.0027109485
140	0xbd7109e7	-0.058847334
141	0xbd09c0a7	-0.033630993
142	0xbdb3ba69	-0.08775789
143	0xbdf21f91	-0.11822427
144	0xbb423e0c	-0.0029639034
145	0xbc4adcf8	-0.012381785
146	0xbc8d8e2f	-0.017279712
147	0xbc917356	-0.017755192
148	0xbada8c69	-0.0016673926
149	0x3d84502d	0.06460605
150	0xbaad9c7d	-0.001324549
151	0x3d6ac761	0.05731905
152	0xbce87b09	-0.02837898
153	0x3d0b7dee	0.034055643
154	0xbd5b0ed1	-0.053480927
155	0x3c24e0e2	0.010063382
156	0xbd6d8ce5	-0.057995696
157	0x3d33de13	0.04391296
158	0x3c6d15cd	0.01447053
159	0xbd841240	-0.064487934
160	0xbd9c5ed7	-0.07635277
161	0xbce1f555	-0.027582804
162	0xbd4fbbe3	-0.050716292
163	0xbda1be02	-0.07897569
164	0xbba0ee13	-0.004911193
165	0xbd469763	-0.048484217
166	0xbd7b1bf3	-0.06130595
167	0x3da22a1a	0.079181865
168	0x3d2c6a06	0.0420933
169	0x3db4d461	0.088295706
170	0x3d811c57	0.063042335
171	0xbd84d34a	-0.06485613
172	0x3da13fe9	0.07873518
173	0xbd899ea8	-0.067197144
174	0x3cea2456	0.02858178
175	0xbe2cf2c0	-0.16889477
176	0x3bfeb12b	0.007772585
177	0x3d76a905	0.060219783
178	0xbc48d797	-0.012258432
179	0xbda11246	-0.078648135
180	0xbd3e8df6	-0.046522103
181	0x3d423034	0.04740925
182	0xbd19bad3	-0.037531685
183	0xbcdf009f	-0.027221976
184	0xbd798784	-0.060920253
185	0xbd810b33	-0.06300964
186	0x3db4f430	0.088356376
187	0xbd2937c8	-0.041312963
188	0xbe221328	-0.1582762
189	0x3d3ea94e	0.04654818
190	0xbd85088f	-0.06495773
191	0x3c626d90	0.013820067
192	0xbd8a1e69	-0.067440815
193	0xbd8104d2	-0.062997475
194	0xbda74240	-0.08166933
195	0x3cdba8bb	0.026813855
196	0x3b43793d	0.0029826902
197	0xbd820466	-0.06348495
198	0xbe2fcbab	-0.17167537
199	0x3cb6fd8f	0.022337703
200	0x3d6ea8e9	0.058266554
201	0xbd195757	-0.03743681
202	0x3ca87239	0.020562278
203	0x3d9b6faf	0.07589661
204	0x3d8a7732	0.06761016
205	0xbd23a253	-0.039949726
206	0x3d09a03c	0.033600077
207	0xbd4217d7	-0.047386017
208	0xbdad0b0a	-0.08449371
209	0xbd9b0a64	-0.07570341
210	0xbd5a2553	-0.05325825
211	0x3d9c69fa	0.07637401
212	0xbac6870d	-0.001514645
213	0xbc1b9ac2	-0.009497346
214	0xbbc1f84d	-0.0059194923
215	0xbe362863	-0.17788844
216	0xbd8d0007	-0.06884771
217	0x3d80c70d	0.06287966
218	0x3cc779e7	0.02435012
219	0x3da58d79	0.080836244
220	0x3ce557a6	0.027995896
221	0xbd154f87	-0.036452796
222	0xbdb1a165	-0.08673362
223	0xbcd93c56	-0.026518028
224	0xbd77d4fe	-0.06050586
225	0x3c2bde15	0.01048996
226	0xbd37e5be	-0.044896834
227	0xbb9196cd	-0.0044430257
228	0xbd6152ca	-0.055010594
229	0x3c873749	0.016505854
230	0xbd89b8be	-0.0672469
231	0xbc6a1df9	-0.014289373
232	0x3cb35ffa	0.021896351
233	0xbd5e65af	-0.05429619
234	0xbcae56a2	-0.021281544
235	0xbd883ac8	-0.06651837
236	0xbdb80823	-0.08985927
237	0x3ccd3488	0.025049463
238	0xbd1fc440	-0.039005518
239	0x3d55148f	0.05202156
240	0xbe10b523	-0.14131598
241	0xbd4a4ea9	-0.049391422
242	0x3d2eef8c	0.04270892
243	0xbceed7f7	-0.029155714
244	0x3d456004	0.04818727
245	0x3d82e6b6	0.06391661
246	0xbd0b37c3	-0.033988725
247	0x3c711add	0.014715877
248	0x3db02511	0.0860082
249	0x3d8c76d6	0.06858604
250	0x3b30d390	0.002698157
251	0x3d7b240c	0.061313674
252	0x3d61e665	0.055151362
253	0x3d385221	0.0450002
254	0xbdc4831c	-0.0959532
255	0xbe470bff	-0.1943817

fc.10.bias f4 [64]
0	0xbcd93936	-0.026516538
1	0xbdd1f768	-0.10252267
2	0xbcafcaf3	-0.021459078
3	0x3e326cd4	0.17424327
4	0x3c9308c5	0.017948518
5	0xbdca36a8	-0.09873706
6	0x3bf7bb79	0.0075601903
7	0xbd59ea98	-0.05320224
8	0x3de8f909	0.11375625
9	0xbe389208	-0.18024457
10	0xbdaed12f	-0.08535992
11	0xbdf4bb73	-0.119498156
12	0x3d7493cb	0.05971126
13	0xbc31dbd6	-0.010855636
14	0x3e17d18f	0.14826034
15	0xbd5ec9eb	-0.054391783
16	0x3da9506f	0.082672946
17	0x3e410e74	0.1885317
18	0x3e4add8f	0.1981108
19	0xbe715a00	-0.23569489
20	0xbe811799	-0.25213316
21	0xbd93e41d	-0.072212435
22	0x3e25a71e	0.16177031
23	0xbc5d2b80	-0.013499141
24	0xbd09a6b2	-0.03360624
25	0xbdcd65c5	-0.100291766
26	0xbbd964a7	-0.006634313
27	0xbd9c5a18	-0.076343715
28	0xbdabd276	-0.083897516
29	0xbdcaa981	-0.098956116
30	0x3a3a1132	0.0007097899
31	0xbd96c5cd	-0.07361946
32	0x3e689225	0.22712
33	0xbc81f42c	-0.0158635
34	0xbc8c8942	-0.017155293
35	0xbda90f33	-0.08254852
36	0xbe471a5f	-0.19443654
37	0xbe1ee745	-0.1551791
38	0xbd9947d9	-0.07484407
39	0xbe15481a	-0.14578286
40	0xbd8c3e1b	-0.06847783
41	0x3e476e3e	0.19475648
42	0x3e26324d	0.16230126
43	0x3e6ca072	0.2310808
44	0xbd4b2d8e	-0.04960399
45	0x3e740499	0.23829879
46	0x3e02d14d	0.12775154
47	0xbd92b2a5	-0.0716298
48	0x3bd1a7e1	0.0063981866
49	0xbd8bf98c	-0.06834707
50	0xbe048d10	-0.12944436
51	0xbda60b7c	-0.08107659
52	0x3e357049	0.17718615
53	0xbe460a4a	-0.19339862
54	0xbe106556	-0.14101157
55	0xbdca4a6b	-0.09877475
56	0xbd1d1f84	-0.038360134
57	0xbe07c32f	-0.1325805
58	0xbe5e37ef	-0.21701024
59	0xbd405505	-0.04695608
60	0xbd219354	-0.039447144
61	0x3d6c6e2e	0.057722263
62	0x3e08602d	0.13317938
63	0x3e5c95dd	0.21541543

fc.13.weight f4 [24, 64]
0	0x3dac0aaa	0.084004715
1	0x3e4cc8ba	0.19998446
2	0x3dec749a	0.115456775
3	0x3d4b8dd3	0.0496958
4	0x3da94716	0.08265512
5	0x3da167ca	0.07881124
6	0x3d5a9ddf	0.053373214
7	0x3dc8637e	0.09784602
8	0x3e214a97	0.1575111
9	0x3d8c4829	0.06849701
10	0x3ca82fe1	0.020530643
11	0x3d5b353b	0.05351756
12	0xbda04c7d	-0.07827089
13	0x3d4a25f2	0.049352594
14	0x3d91c325	0.07117299
15	0x3ca9e0b8	0.020737037
16	0xbe41ccd1	-0.18925788
17	0x3e93a7c6	0.28838938
18	0xbcf8a448	-0.030351773
19	0xbd3bb54f	-0.045827206
20	0x3e3010bb	0.17193882
21	0x3e2e1e21	0.17003681
22	0x3d76b64b	0.060232442
23	0x3e06898a	0.13138404
24	0x3d8ccf53	0.068754815
25	0x3e241cf8	0.16026676
26	0xbd5a5a10	-0.053308547
27	0x3d97ef00	0.074186325
28	0xbd262ab0	-0.040568054
29	0xbc4432bd	-0.011974988
30	0xbb892d56	-0.0041863127
31	0x3d8e1f22	0.06939532
32	0x3e56a508	0.20961392
33	0x3af3d619	0.0018603235
34	0x3ce02770	0.027362555
35	0xbc21a370	-0.009865627
36	0xbbd03388	-0.0063537993
37	0x3d4c9efc	0.049956307
38	0x3e197f4c	0.14989966
39	0xbdce286a	-0.10066302
40	0xbc3f2024	-0.011665378
41	0x3e2324d8	0.15932024
42	0x3ddbf94d	0.1074091
43	0x3e60c248	0.21949112
44	0x3e359ba1	0.17735149
45	0xbdee89e7	-0.116473965
46	0xbecae9b1	-0.39631417
47	0x3dd525fe	0.10407637
48	0x3e3c5b09	0.18394102
49	0xbdd0c058	-0.10192937
50	0x3ccfe6e3	0.02537865
51	0x3d0d250f	0.03445917
52	0x3e47287d	0.19449039
53	0x3caca2cc	0.021073721
54	0x3e3f59af	0.18686555
55	0x3d9edc84	0.07756904
56	0x3d6f2602	0.058385856
57	0x3c0c5228	0.008564509
58	0xbd20dbe7	-0.039272215
59	0xbd77d41b	-0.060505014
60	0x3db038cb	0.086045824
61	0x3c76531a	0.015034461
62	0x3dbd05d8	0.0922963
63	0xbc8d0107	-0.017212404
64	0x3cc126ca	0.023578066
65	0x3e440a28	0.191445
66	0x3bef88c0	0.007310003
67	0x3e1766f7	0.14785372
68	0x3d8a35b3	0.067485236
69	0x3dd81a83	0.10551932
70	0x3de5fa2d	0.11229358
71	0xbdd5aa66	-0.104328915
72	0x3df9bbd7	0.12194031
73	0xbd935cd7	-0.07195442
74	0xbd9679ce	-0.07347451
75	0xbc02ad0a	-0.007975826
76	0xbd162344	-0.036654726
77	0x3d40fce8	0.04711619
78	0x3d255b8c	0.04037051
79	0x3d4ba638	0.049719065
80	0xbd86a955	-0.06575266
81	0x3e931323	0.28725538
82	0xbe245f4a	-0.16051975
83	0x3d4ded05	0.050274868
84	0xb94cdb7e	-0.00019536723
85	0xbe16b805	-0.14718635
86	0xbd00dd89	-0.031461272
87	0xbd5efa36	-0.05443784
88	0xbb873324	-0.0041259695
89	0x3dad2c09	0.08455665
90	0x3ddd8794	0.10816875
91	0xbdba13c0	-0.09085798
92	0x3d6b3420	0.057422757
93	0x3ddc9d82	0.1077223
94	0xbcde9699	-0.02717142
95	0x3d9f0b3e	0.07765816
96	0x3e7fcc93	0.24980383
97	0x3e2e91b3	0.17047767
98	0xbd64fd8d	-0.055905867
99	0x3d26321c	0.04057513
100	0xbd8057a1	-0.06266714
101	0xbcbdea81	-0.02318311
102	0x3e2533ac	0.16132993
103	0xbe2595c9	-0.1617042
104	0xbd75ae7c	-0.059980854
105	0x3e402dea	0.18767515
106	0x3ddf9448	0.10916954
107	0x3e34ca07	0.17655192
108	0x3e19e170	0.15027404
109	0x3c91de38	0.017806157
110	0xbec5a965	-0.386058
111	0x3d8e626f	0.069523685
112	0x3df4dabe	0.11955784
113	0x3ddb0904	0.10695079
114	0x3e3627f0	0.17788672
115	0x3e02c11e	0.12768981
116	0x3e5b1c50	0.21397519
117	0xbd23f9e0	-0.04003322
118	0xbcac2b5b	-0.021016767
119	0x3d7b3f6c	0.06133978
120	0x3ddaa319	0.1067564
121	0x3d44a7f6	0.048011743
122	0x3ba2ef42	0.0049723694
123	0x3e03c168	0.12866747
124	0xbd59a4cb	-0.053135674
125	0xbd87b6f8	-0.066266954
126	0x3d00bd06	0.031430267
127	0xbe59d5fb	-0.21273033
128	0xbd4ad69d	-0.049521077
129	0xbe4d881e	-0.20071456
130	0x3cfd8df0	0.03095147
131	0xbd89e82b	-0.06733736
132	0x3ba9bdd0	0.005180098
133	0x3e113db8	0.141837
134	0x3b63d7bd	0.0034766041
135	0xbdb142be	-0.08655308
136	0x3e494382	0.19654658
137	0x3e06fe59	0.13182963
138	0x3be54820	0.0069971234
139	0x3c4cbbc3	0.012495938
140	0x3c830009	0.015991228
141	0xbde8b974	-0.113634974
142	0x3cd81fbb	0.026382318
143	0x396bcc00	0.00022487342
144	0x3db0f395	0.086402096
145	0x3e6905fb	0.22756188
146	0x3dbc9f07	0.092100196
147	0xbdc6111c	-0.09671232
148	0x3e3fe252	0.18738678
149	0x3da7964c	0.08182964
150	0x3d784b75	0.060618836
151	0x3d887581	0.06663037
152	0x3dfaf992	0.12254633
153	0x3d5d824f	0.05407935
154	0x3d613da3	0.054990422
155	0x3d4a7434	0.049427226
156	0x3d2cb1ac	0.04216163
157	0xbd0f94a1	-0.035053853
158	0xbb5d0d8c	-0.0033729998
159	0xbdb8a1ca	-0.09015234
160	0x3de5957f	0.11210155
161	0x3dc61b13	0.09673133
162	0x3dc88c88	0.09792429
163	0x3de0788c	0.109604925
164	0xbde84dd7	-0.11342972
165	0x3df609e1	0.12013603
166	0xbd73dbb5	-0.0595357
167	0xbe481817	-0.1954044
168	0x3e1d22a2	0.15345243
169	0x3e7a3ed4	0.2443803
170	0xbcdf7f40	-0.027282357
171	0x3e937031	0.28796533
172	0x3bbe5a53	0.0058091073
173	0x3dcf3491	0.10117448
174	0xbeb3b754	-0.35100806
175	0xbd37ebbc	-0.04490255
176	0x3dc75f7d	0.0973501
177	0xbd13d560	-0.036092162
178	0x3e2f9c66	0.17149505
179	0xbd6d0844	-0.05786921
180	0x3e1d18b1	0.1534145
181	0x3da49a5c	0.08037254
182	0xbd67fa6a	-0.056635298
183	0x3dcdc844	0.10047963
184	0xbcc31d6b	-0.023817739
185	0xbe11489c	-0.14187855
186	0xbdde79b7	-0.10863059
187	0xbc444189	-0.011978515
188	0x3d26e78d	0.040748168
189	0x3c0cab94	0.008585829
190	0x3d5b1a9a	0.053492166
191	0xbe55de15	-0.20885499
192	0x3d1524fa	0.036412217
193	0xbdc53feb	-0.09631332
194	0xbd18b579	-0.03728244
195	0xbdc98240	-0.09839296
196	0x3d16f9e7	0.03685942
197	0xbd4a7996	-0.04943236
198	0x3d40f890	0.047112048
199	0xbb7cc440	-0.0038569123
200	0x3e1a0868	0.15042269
201	0xbda6e477	-0.08149045
202	0xbd93e0fd	-0.072206475
203	0x3defbc20	0.11705804
204	0x3da012d2	0.0781609
205	0xbc1eefdd	-0.009700743
206	0x3d5d2dc9	0.053998742
207	0x3da6f3e6	0.08151989
208	0x3e2ff273	0.17182331
209	0x3e4c72f9	0.19965734
210	0x39a3dcc8	0.00031254278
211	0x3dc26da2	0.09493567
212	0x3e6d72b2	0.23188284
213	0x3d3d4198	0.046205133
214	0x3da79d95	0.08184353
215	0x3ccfa5e9	0.025347667
216	0x3cfb64f2	0.030687783
217	0xbdc9d325	-0.09854726
218	0x3daf9c89	0.085747786
219	0xbc907510	-0.017633945
220	0x3d5b0214	0.05346878
221	0x3e0f50a9	0.13995613
222	0x3d8507bd	0.064956166
223	0xbd9a9004	-0.07547
224	0x3d388a60	0.04505384
225	0x3c7e9bed	0.015540105
226	0x3d2e24d0	0.042515576
227	0xbd7b6bd8	-0.061382145
228	0xbdfd621f	-0.12372231
229	0x3d4b30a8	0.04960695
230	0x3d0b89c1	0.03406692
231	0xbe681b0f	-0.22666572
232	0x3e0c0e0d	0.13677235
233	0x3e796f7d	0.24358936
234	0x3c9ad582	0.018900637
235	0x3e3fc4e5	0.18727453
236	0xbd345496	-0.04402598
237	0x3e7e4c19	0.24833716
238	0xbe9ffb53	-0.31246433
239	0xbd59c039	-0.053161833
240	0x3dddf595	0.10837857
241	0xbd3af7cc	-0.045646474
242	0x3e41d6ee	0.18929645
243	0xbdf08ff1	-0.11746205
244	0x3dfb6d2f	0.122766845
245	0x3e2f8965	0.17142256
246	0xbcd1689f	-0.025562583
247	0x3e2742a9	0.16334023
248	0xbd44a820	-0.0480119
249	0xbd9a7d79	-0.07543463
250	0xbe1a8adb	-0.15092032
251	0x3dd63df9	0.10461039
252	0x3dde3e68	0.10851747
253	0xbdbe5b86	-0.092948005
254	0x3db2c20e	0.08728419
255	0xbdd275bc	-0.10276362

fc.13.bias f4 [24]
0	0x3e325687	0.1741582
1	0x3e5b09f9	0.21390523
2	0x3e17b7e6	0.14816245
3	0x3e0cb32a	0.1374022
4	0x3e513fb1	0.20434453
5	0x3e4277e9	0.18991055
6	0x3e465092	0.19366673
7	0x3e130e2e	0.14360878
8	0x3d814d45	0.06313566
9	0x3e044dd3	0.12920313
10	0x3dfbeea6	0.12301378
11	0x3d95dc9d	0.07317469
12	0x3da19860	0.07890391
13	0x3e39a667	0.18129884
14	0x3e160bee	0.14652988
15	0x3e187918	0.14889944
16	0x3e1cf50d	0.15327854
17	0x3e668bc1	0.2251425
18	0x3e7d03ed	0.24708529
19	0x3e634de0	0.22197676
20	0x3e4d4098	0.20044172
21	0x3e5383b6	0.20655712
22	0x3e54bea5	0.2077585
23	0x3e341e5a	0.17589703
