1223-code-DL/model/decoder_without_features_state_dict.pt (torch, 109131 bytes, 15 tensors)

embedding.weight f4 [60, 1]
00000000: d9bc 30bf f989 8ebe 2a67 ee3e 0489 413f
00000010: 8c6c 753f ce64 16bf 6e7e 74bf 08b7 033f
00000020: 011c 1a3f 09ff 0a3f 3de1 03be 1f45 703f
00000030: d31d 51bf fbef 6abf 86e4 4e3f 4060 5cbf
00000040: 83ac 69bf 8586 b4be 50fb 1a3f 5a67 8cbe
00000050: ddca 253e b985 6fbf 0086 2a3f 7e99 f2bd
00000060: 9145 613f 7641 2e3f 3ec5 64bf 736a e03e
00000070: b2f2 96be 78de 75bf eb90 72bf f6a7 7d3f
00000080: 3b0e 903f 6b4a 76bf 1430 8f3e 9127 453f
00000090: 385e f93d bb3a 1abf 5e23 ea3e 827d 883f
000000a0: 6ae9 6a3e acfe 00bf be6f 21bf c219 7fbf
000000b0: b692 363f 5d3b 3dbf 02b3 603e 01c9 2dbf
000000c0: 9080 5f3f 5e8f 8ebe badb d23e 18ec 68bf
000000d0: 3e43 ccbe 915a c0be 3a81 043f 6333 943d
000000e0: 81de 823f 423b e8be fee7 fe3d 3bec 913f
-0.6903816 -0.2783964 0.46563083 0.75599694 0.95868754 -0.58747566 -0.95505416 0.5145116
0.6019898 0.542954 -0.1287889 0.9385547 -0.81686133 -0.9177243 0.8081745 -0.86084366
-0.91278857 -0.3525888 0.6053972 -0.274226 0.16190667 -0.9356342 0.6661072 -0.118456826
0.87996775 0.68068635 -0.8936347 0.43831214 -0.29482037 -0.96042585 -0.9475238 0.99084413
1.1254343 -0.962073 0.27966368 0.770135 0.12176174 -0.60245866 0.45730108 1.0663302
0.22940603 -0.503886 -0.6306113 -0.9964868 0.71317613 -0.73918706 0.21943286 -0.6788483
0.87305546 -0.27843755 0.41183263 -0.9098525 -0.39895052 -0.37569097 0.51759684 0.07236364
1.0224153 -0.4535771 0.12446593 1.1400217

embedding.bias f4 [60]
00000000: 426a 8c3e 71aa 37be 5fa0 3d3f 7db6 2ebf
00000010: d5b1 39bd 7f8a 2a3d 7e20 493f 6174 c7be
00000020: 72ad 4dbe 6a48 d23e 18eb ca3e abb5 0b3f
00000030: f05e 5abf c2c5 70be e66a 9cbe 1f7a 053f
00000040: 2a3e 433f e04b 3fbd 76cd 743e ece5 cc3e
00000050: a523 10bf 4061 0b3f 0eb6 39bd 64be 663d
00000060: 0ac4 44bf 7f0a fdbe 27d2 acbe 0a8b d5bd
00000070: 9770 203f e2cb f23b 028c d73d bc7d 9c3c
00000080: 699c 003f 6d22 cebd 6f0e 953d 0df8 4fbe
00000090: c323 813e 2d31 2f3f 2b91 393f 8c69 e5be
000000a0: 5f3d 0cbf f6bf 013e b59d 373f e871 4f3f
000000b0: 0e7f 913e b03c 073f b80b 083f 1a40 ff3e
000000c0: 69f4 9d3e e94e 413f ce3b 063e 040c 36be
000000d0: ec9f da3e e7b3 c73e b96a bc3e cc96 4c3f
000000e0: 804d c6be 6e61 c7bd 9e50 0a3f ba11 33bf
0.27424818 -0.17936112 0.7407283 -0.68247205 -0.04533561 0.041635986 0.78565204 -0.38955978
-0.20085695 0.41070873 0.39632487 0.5457408 -0.85301113 -0.23512939 -0.30550307 0.52139467
0.7626673 -0.04670322 0.23906502 0.40019166 -0.5630439 0.54445267 -0.045339637 0.056333914
-0.7686163 -0.4942207 -0.33754084 -0.1042691 0.626718 0.0074095586 0.10524751 0.019102924
0.5023866 -0.1006516 0.072781436 -0.20309468 0.25222597 0.6843441 0.72487134 -0.44807088
-0.54781145 0.12670884 0.71725017 0.8103318 0.28417248 0.52826977 0.5314288 0.49853593
0.30850533 0.7551103 0.13108751 -0.17778021 0.42700136 0.39004442 0.36800173 0.799176
-0.38731003 -0.0973538 0.5402926 -0.69948924

attn.weight f4 [72, 120]
00000000: 834a e7bd 475c c2bc e010 34bd 64b1 0d3e
00000010: c7a1 c33d 99fa 46be cc0b dabd 3ad9 413e
00000020: a473 243e a042 c73d c5cb 7b3d ed9b 87bb
00000030: f25c 43bd 6a4e a3bd 5386 8c3e 144f 14be
00000040: 5a5a 53bd 58bc b3bd 6ab5 f13d 303d 18bc
00000050: 73f6 4a3d 893a 2dbe 9b66 0f3e 3002 23bd
00000060: 9de2 343e 96a8 1f3e aa6d 02be c6f7 073e
00000070: ee22 35bd a88b 34bd 1296 45be 0e9b 4e3d
00000080: a118 cf3d 583f 43bd 73f7 723d 4e81 4a3e
00000090: 9cee 21bd acd5 21be d1b2 903c 06eb 163e
000000a0: 3723 ec3d 67cf 85be 9f5d a5bc 8688 63be
000000b0: a831 023e a986 99bd 99a6 093d 9ae2 63bd
000000c0: 5faf f3ba b5e0 c8bd 2e39 7e3d baff 82bd
000000d0: 5863 dcbd eebb c2bd 1d95 e83d e87f 2b3d
000000e0: e3b7 883e 0fe5 f2bb f5e2 4fbc 2dff d83d
000000f0: 87cb bebd 7f24 953d 1317 e73d 24c4 043e
00000100: 2b12 bf3d a2b6 053d 1183 e03c 0611 f93d
00000110: 05f5 29bd ab3d 963c 8a21 89bd 888a be3d
00000120: e3d8 4abc 6916 2bbd 8d6d d9bd 1171 dfbd
00000130: 6479 02be 16bd d7bc 9667 84bd c44a 9fbd
00000140: d2f9 14bd 3aa1 813d 8ed9 c53d cbff da3d
00000150: 24f2 11bd f123 57be 0e12 9fbc 0f4a a5bd
00000160: ade0 a73d c111 c2bb 54a8 34bd b091 15bd
00000170: 0c3f 9eba 3692 3bbe f153 0abe 9357 c3bd
00000180: 41bc c7bd 591a 31bc c4d7 9dbc d9aa bdbd
00000190: 40c4 0a3c 4075 d33d 0fef 4e3c 0cec d33c
000001a0: 4bd4 ce3c 192f 05be 9914 d53d 28d8 acbd
000001b0: d10f 423d d66e 473c fee3 883c ebca aa3c
000001c0: 0633 0dbd 2b6e 583d 3611 c13c 34c8 99bd
000001d0: 175e 05bc 5de0 26bd 7d96 dd3d d71f d4bd
000001e0: b5e8 7cbd c93b b7bc b84b 7dbd a862 f03d
000001f0: 2872 703b e443 86bd 57de 39be 35fc 963d
00000200: 167c 0b3d 63bd bbbc 0718 563c 0e57 6fbd
00000210: c2ca 9d3c 342a 7d3c 349c f13d c915 17be
00000220: 240e 34bd 9865 a5bc f8e9 0fbd 77bb f6bd
00000230: 29bd ad3d f4ef 5ebe e606 413c 6ec2 a0bd
00000240: 76ce 243e dc9f ab3d 6ae3 5cbd ec7e 233d
00000250: 9b0b 6dbd d1e5 7ebd b673 49bd 699d 803d
00000260: f06b 503c 3d0d dd3c 3991 49bd 5768 a53d
00000270: 30d7 0ebd 4fdf 19be aa3e 99bc 5c67 293e
00000280: 2ab9 b83d 74b1 15bd 6ba6 dbbd a0ac 9dbd
00000290: ce26 fa3a 31dd 39be 5632 dd3c 0403 96bd
000002a0: b7b4 91bd fdd3 11be 2f54 213d 5e75 1e3d
000002b0: 3a15 9cbd 2b1b b53b 6f97 d8bc ed97 813c
000002c0: 2bf4 be3d 7eba ad3c 48cd 92bd cb96 213e
000002d0: 9906 cfbd af65 a83d 5863 9e3c bfa8 cc3c
000002e0: 5ceb 323d eda5 8a3a 27d9 443d 1b3c 523d
000002f0: ad2f 9abc 829b a43d 94ca 8ebd d959 1e3d
00000300: a208 fa3c ccaf 8abb 1816 08bd dd4a 9abd
00000310: 5417 56bd d2f6 2fbc 4859 7d3d 6236 9d3c
00000320: ed42 a13c 8372 bb3c c682 7e3c bcdc 213d
00000330: 51bd 24bc f8a7 81bd 1f05 133d b651 42bd
00000340: b2f8 863c 25f2 84bd d43f b13c f6be bf3c
00000350: 9afb 04bb 9c81 5bbd c3d3 59bd 4a48 eab9
00000360: 9bc9 d5bc 2759 1e3b c122 aab8 e3ab d8bc
00000370: 8bb0 303d 87ca 923d a635 47bc 4d99 1a3c
00000380: b404 de3c 6bc1 5bbd 03e9 2e3d e8d6 4abd
00000390: 8934 94bc eee3 69bd b734 3c3d 3fd4 403d
000003a0: e68d cabc ee47 74ba a15d a7ba c478 57bd
000003b0: 820c a3ba a4e4 05bd ed2c fc3b 35da 4cbd
000003c0: 9a9c cd3b 4ce2 113d 19d9 03be 285b d83c
000003d0: 2d54 9dbd b7f4 ed3c 33e0 6cbc 7f27 943d
000003e0: de81 853b 0ac0 09be 66d0 69bd 4306 40bc
000003f0: b060 0c3e e90e 1b3d 960b c53c 1470 42bc
-0.11293509 -0.023725642 -0.043961406 0.138372 0.09552341 -0.19431533 -0.10646781 0.18930522
0.16059738 0.097295046 0.061473627 -0.004138461 -0.04769606 -0.07973941 0.2744623 -0.14483291
-0.051599838 -0.08776158 0.1180218 -0.009291932 0.04955144 -0.1691686 0.14003985 -0.039797008
0.17664571 0.15591654 -0.12737146 0.13278112 -0.044222765 -0.0440785 -0.19295529 0.05044084
0.101121195 -0.04766783 0.059318017 0.19775888 -0.039534196 -0.15804166 0.017663391 0.14738092
0.11530154 -0.26134798 -0.020186244 -0.22220048 0.12714255 -0.074963875 0.033606146 -0.055636026
-0.0018591693 -0.098084845 0.06206625 -0.06396432 -0.10761136 -0.09508501 0.11356566 0.041870028
0.26702794 -0.00741256 -0.012688388 0.10595546 -0.093161635 0.07282352 0.11283698 0.12965447
0.09329637 0.032644875 0.027406247 0.1216145 -0.041493434 0.018339952 -0.0669585 0.093037665
-0.012380811 -0.04176942 -0.10616598 -0.109102376 -0.1274162 -0.02633528 -0.0646507 -0.07777932
-0.03637106 0.0632958 0.09660636 0.1069332 -0.035631314 -0.21009804 -0.019417789 -0.08070766
0.081971504 -0.0059225266 -0.044105843 -0.03651589 -0.0012073233 -0.18317494 -0.13508584 -0.09538188
-0.097527035 -0.010809504 -0.019267924 -0.09261102 0.008469641 0.10325098 0.012630238 0.025869392
0.025247714 -0.13006248 0.10404319 -0.08439666 0.047378365 0.012172421 0.016710278 0.020848712
-0.034472488 0.05283944 0.023567777 -0.07508889 -0.008140109 -0.040741313 0.10819719 -0.103576355
-0.061745364 -0.022367375 -0.06183979 0.11737567 0.0036689136 -0.06555918 -0.18151222 0.073723234
0.034053884 -0.022917455 0.013067252 -0.05843263 0.019261722 0.015451957 0.117973715 -0.14754404
-0.043958798 -0.020190045 -0.03513524 -0.12047475 0.08483345 -0.21771222 0.01178143 -0.078495845
0.16094384 0.083801 -0.053927816 0.039915964 -0.057872396 -0.06223089 -0.049182616 0.062800236
0.012721047 0.026983852 -0.04921076 0.08076542 -0.034873188 -0.15026592 -0.018706638 0.16543335
0.09019692 -0.036546186 -0.10725101 -0.07698941 0.0019085051 -0.18150784 0.027001541 -0.07324794
-0.07114547 -0.14241023 0.039386924 0.03868615 -0.07621236 0.0055269203 -0.026439397 0.015819514
0.09323915 0.02120709 -0.071680605 0.15780179 -0.1010868 0.082225196 0.01933448 0.024982808
0.043681487 0.0010578014 0.048058655 0.051326852 -0.018821562 0.08037473 -0.069722325 0.038659904
0.030521695 -0.0042323824 -0.033224195 -0.0753381 -0.05226834 -0.010739999 0.061852723 0.01919097
0.019685233 0.022881752 0.0155341085 0.03951715 -0.010054902 -0.063308656 0.035893556 -0.047441207
0.016476009 -0.06491498 0.021636881 0.023406487 -0.0020291568 -0.053590402 -0.053180467 -0.00044685818
-0.02609711 0.0024162026 -8.112705e-05 -0.02644915 0.043137114 0.07167535 -0.012158787 0.009435964
0.027101852 -0.053651255 0.042702686 -0.049521357 -0.018091457 -0.057102136 0.04594871 0.047077414
-0.024725866 -0.00093185797 -0.0012768992 -0.052605405 -0.0012439641 -0.03268875 0.0076957853 -0.050012786
0.006274772 0.035616204 -0.12875785 0.026410654 -0.07682071 0.029047353 -0.01445775 0.07234096
0.0040743193 -0.13452163 -0.05708351 -0.011720243 0.13708758 0.037856016 0.024053376 -0.011867542

attn.bias f4 [72]
00000000: e00d c03c cd8b cebd 3b82 e5bd 50d3 4fbd
00000010: 7a99 523d e85a 993c 5eea 2cba 9ab3 153e
00000020: aeee 6abc 2388 203e 7301 9a3d 94a6 603e
00000030: fcae 473d c045 8f3d ba7a 8a3e 4db3 ba3e
00000040: feec 283d 5b12 f5bb cfc2 b9ba de47 8bba
00000050: fca5 8cbc 9758 2fbc 17b5 82bd 1725 f3bc
00000060: c159 df3c e129 993c 9205 87bc 857f db3c
00000070: e2fd aabc 9dbd 8a3d 14f0 463d b3f4 293d
00000080: f3d2 8c3c a995 6c3c 2973 abbc 61ac dc3c
00000090: 23ac 9f3d bea6 b0bc a196 833d 6ff3 443d
000000a0: fbef 5c3c a489 0abd 6609 a13c e681 8f3d
000000b0: 7542 2abd 5b24 253d 29b1 8fbd 4add 59bd
000000c0: 66b5 abbc 264b f3bc 625c 47bc 5c8f a53d
000000d0: 6192 b23e cb03 4e3e 03d5 8d3e 6f9f 173e
000000e0: 233c 273e 828d 583e fae8 5a3e 1e6a a03e
000000f0: 551a b33e 00b2 823e 9e47 8e3e 7509 8a3e
00000100: e534 a93e 60fc b33e 5b26 b03e 186c 693e
00000110: 8204 2f3e 9e97 7a3e ea35 4c3e 07e3 b73d
0.023444116 -0.10085259 -0.1120648 -0.050738633 0.051415898 0.018720105 -0.0006596203 0.14619294
-0.014339132 0.15676932 0.07519808 0.21938545 0.048750862 0.06995726 0.27046758 0.3646492
0.04124164 -0.007478995 -0.0014172437 -0.0010626276 -0.017168991 -0.010702274 -0.063821964 -0.029680772
0.027264478 0.018696727 -0.016482148 0.026794204 -0.020873014 0.06774447 0.0485688 0.04149313
0.017190432 0.014439979 -0.020928936 0.026937665 0.07796504 -0.021563884 0.064252146 0.04808372
0.01348495 -0.03382267 0.019657802 0.07007198 -0.041567285 0.040317874 -0.070162125 -0.053189553
-0.020960521 -0.02969892 -0.012168022 0.08083984 0.34877303 0.20118634 0.27701578 0.14806913
0.16331534 0.21147731 0.21377936 0.3133096 0.34981027 0.25526428 0.27789015 0.2696034
0.33048168 0.35153484 0.34404263 0.2279514 0.17091563 0.244719 0.19942442 0.08978849

attn_combine.weight f4 [30, 90]
00000000: 4c91 ecb3 a61d 9934 dba1 ebb6 3173 8c36
00000010: d31e 17b2 4c87 e031 8560 6ab7 eb4f ba33
00000020: 816a acb2 352b 0eb7 fc1f c1b6 b526 cfb6
00000030: 25e8 c937 dbc3 30b3 6ecf c534 cd2d 45b6
00000040: 02fc 43b5 80fa a531 e144 2ab5 c1c9 5035
00000050: 2b24 ae35 9de0 ecb5 861a 91b1 b3bd 70b4
00000060: a79d b0b5 f795 32b4 4818 3835 7e39 0c33
00000070: a9bf 27b7 c191 1ab2 8c97 2332 92f7 e1b2
00000080: fecf bcb2 dd79 a533 7e87 e2b2 fcb1 3e33
00000090: 126c 07b6 75f6 5fb5 6a01 7cb7 4a93 5b35
000000a0: a31a 8436 65ac aeb2 9b6e 6fb7 f97e c935
000000b0: 44a5 85b5 4245 1db6 7d54 e9b6 8a8d 8bb5
000000c0: 9d29 32b5 007a 86b7 c475 5533 c793 2734
000000d0: 0815 a9b5 dc73 b6b6 f0ae c3b5 a6d8 3eb7
000000e0: e3fc 8535 d695 ad31 3fd8 b935 3ab5 afb5
000000f0: c631 f831 3d1d d235 3570 a7b0 62e6 9235
00000100: 5e57 2e32 e0be 97b2 f9e0 82b1 f23c c532
00000110: 3932 8930 f569 a932 3401 17b2 54ec 06b2
00000120: 62a9 28b2 69bf 33b1 cdea 9eb2 1f11 1631
00000130: 06b4 9434 f032 aeb3 5bef 7fb0 190d 2833
00000140: 07e5 bc31 f71d 2732 20d0 3a32 3346 c1b2
00000150: 545b 07b2 9882 d032 9517 4d35 ad53 8432
00000160: eb2a 6cb1 5758 76b1 abdb 063d 6a35 93bc
00000170: 601b 72bc ad53 383d e347 bdbc cab6 13bd
00000180: dc6d 9e3c 0a0c 4abc 0a90 0c3c 5b3c f6bd
00000190: 87f1 d6bd b9d6 f7bc dd10 0b3e 59a1 0ebd
000001a0: 7256 523c 6263 19be 941f 9f3c 8498 183d
000001b0: 81a9 24be e16e 1abe 3760 663d 763a 0cbd
000001c0: f124 46bd 6be9 ffbd cb88 0a3e 8be9 9a3d
000001d0: 9d55 a3bc 0264 8c3c fcfe 67bd 5816 03bd
000001e0: a05b 77bc bbeb e6bd ac63 eb3c a944 113c
000001f0: 7024 4fbd 6fc1 0cbe c877 26bb 44aa 133d
00000200: 7073 83bc 0bff 0d3b 200c 5f3d 5f31 09bd
00000210: 1fb3 ee3c 96d1 3eba e2aa cbbd 2ad1 6b3c
00000220: b96e 27bd fa37 20bd 368c e6bd e5d7 1abe
00000230: e259 00bd 8211 c13d 46bf 81bc d36a 96bc
00000240: 07a4 8bbc 3f12 1c3c f3e9 0ebe 569f c33d
00000250: 50cb a3bc 57c7 323e a211 5f3d 1c93 e0bd
00000260: 2a41 bfbd 7a87 ccbd c22e 1cbe ed1a 5dbd
00000270: a2eb bdbd 1a48 eb3d ef15 ac3d acc2 24bd
00000280: 1881 8fbd bc8b 93bd ee4a 9fbc 8dfe 643c
00000290: 565b 27bd a2ee 263d 47fb 57bb a21c 88bd
000002a0: f9a5 8abd 6203 8c3d e994 43bc 6e0d 7e3d
000002b0: 5286 7a3c f0ca d3bd dda5 c5bd f7ad 06bd
000002c0: 185a 27bc ee70 06bd 6073 7ebd 7fd7 8dbd
000002d0: 7577 043e 9849 9b3d 7c4f 93bd a651 2c3d
000002e0: 989d c8bd c830 c93d 6a36 10bd 47a4 233d
000002f0: 0e04 1dbe f72c 98bd 8251 80bd af4e 9cbd
00000300: 1b62 913d 9fea a93d 4886 18be bed7 9abc
00000310: 6f7a 26bd 5abf ae3d ae42 a2bd e8d3 6ebd
00000320: 977f 7c3d 54ee 07bc edb6 c7bd 2339 a93d
00000330: e1c4 253d f05e 073d 939a a43d 39f3 e5bd
00000340: 80e6 6fbd 5705 c23d 381e d53d e572 babd
00000350: a0a7 9ebd 2099 b43d 900a a7bd 7aea 04be
00000360: 60da 8cbd b22e 48bd 2449 8fbd 5b81 e5bd
00000370: f643 813d faf8 f33d ee4e 53bd 100e 18bd
00000380: 74a1 a4bd 762f 01bd 9ebe 8abd 63f3 11bd
00000390: 00df a8bd 005e 78bd f184 a4bd 96c5 ad3d
000003a0: ee6c 62bd 67b2 73bd f323 9dbd 5cfa 82bd
000003b0: ee71 1fbe eeeb a83d 9f16 8bbd 831d 8c3c
000003c0: d150 c83c 4587 2d3d 1310 743d 0acf 7dbc
000003d0: bfa8 693b c3b5 adbb a887 953b 5fd7 36bd
000003e0: 6f4c 14bd ef20 a9bb 25c8 03bd 8866 a8bb
000003f0: 9c12 5b3c 5f70 303d 8149 10bc 2654 0abd
-1.1016036e-07 2.8520043e-07 -7.022388e-06 4.185735e-06 -8.796365e-09 6.5346395e-09 -1.396996e-05 8.675837e-08
-2.0071868e-08 -8.4739195e-06 -5.7555717e-06 -6.173587e-06 2.4069168e-05 -4.1156323e-08 3.6845034e-07 -2.9381947e-06
-7.300988e-07 4.8306106e-09 -6.3430167e-07 7.777963e-07 1.2974537e-06 -1.7648741e-06 -4.223071e-09 -2.2420754e-07
-1.3158905e-06 -1.6632099e-07 6.8580675e-07 3.264858e-08 -9.9986e-06 -8.99712e-09 9.5223065e-09 -2.630603e-08
-2.1980664e-08 7.705578e-08 -2.6371477e-08 4.4399698e-08 -2.0179473e-06 -8.3432616e-07 -1.50207e-05 8.179819e-07
3.9370075e-06 -2.0334662e-08 -1.4271262e-05 1.5012621e-06 -9.957371e-07 -2.3435136e-06 -6.953777e-06 -1.03975e-06
-6.637072e-07 -1.6030855e-05 4.9700034e-08 1.5606848e-07 -1.2597602e-06 -5.4375105e-06 -1.4579546e-06 -1.1375325e-05
9.982872e-07 5.051997e-09 1.384651e-06 -1.309126e-06 7.2234085e-09 1.5654729e-06 -1.218274e-09 1.0944898e-06
1.0147998e-08 -1.7665513e-08 -3.8090744e-09 2.2961533e-08 9.982336e-10 1.9722373e-08 -8.78963e-09 -7.853561e-09
-9.8174e-09 -2.6156732e-09 -1.8500396e-08 2.1837605e-09 2.7698132e-07 -8.111772e-08 -9.3108604e-10 3.912746e-08
5.4975575e-09 9.727493e-09 1.0873947e-08 -2.250008e-08 -7.8788e-09 2.4273774e-08 7.640277e-07 1.5404874e-08
-3.4366916e-09 -3.5847927e-09 0.032924335 -0.017969806 -0.0147770345 0.045001674 -0.023105567 -0.036062993
0.019339494 -0.012331972 0.008579263 -0.12023231 -0.104952864 -0.030253755 0.13580652 -0.034821842
0.012837993 -0.14979318 0.019424237 0.037254825 -0.16080286 -0.1508136 0.0562441 -0.03423544
-0.048375074 -0.12495693 0.13528745 0.07564076 -0.019938285 0.017137531 -0.056639656 -0.03200373
-0.015097529 -0.11275431 0.02873405 0.0088664675 -0.05057186 -0.13745664 -0.0025400985 0.03605105
-0.016046256 0.002166691 0.054454923 -0.03349435 0.029138146 -0.00072791555 -0.09944703 0.01439313
-0.040877078 -0.039115883 -0.11257212 -0.1512142 -0.03133572 0.094271675 -0.015838277 -0.018361485
-0.017045988 0.009525835 -0.13956432 0.09551875 -0.019994408 0.17458855 0.054460175 -0.10965559
-0.09338601 -0.099867776 -0.15252212 -0.053980757 -0.09273459 0.11488362 0.08402621 -0.040224716
-0.070070446 -0.072043866 -0.019444909 0.013976705 -0.04085859 0.04075492 -0.003295617 -0.06646086
-0.06769938 0.06836583 -0.011937358 0.062024526 0.0152908135 -0.10341442 -0.096507765 -0.03288075
-0.010214351 -0.032822542 -0.06212175 -0.06925868 0.12936194 0.07582396 -0.07192895 0.042070054
-0.097956836 0.098237574 -0.035208143 0.03995159 -0.15333578 -0.07430451 -0.062655464 -0.07632195
0.0709879 0.082967035 -0.14894974 -0.018901702 -0.040644106 0.08532591 -0.079228744 -0.05830756
0.061645117 -0.008296568 -0.09751687 0.08262851 0.04047096 0.033049524 0.08037295 -0.11228032
-0.05856943 0.09473675 0.104061544 -0.09103946 -0.07746816 0.08818269 -0.081563115 -0.1298007
-0.06877589 -0.048872657 -0.06996372 -0.11206313 0.06311791 0.11912723 -0.051588945 -0.037122786
-0.08038607 -0.031539403 -0.067746386 -0.035632502 -0.08245659 -0.06063652 -0.08033169 0.08484952
-0.055279665 -0.05949631 -0.076728724 -0.063954085 -0.15570804 0.08248125 -0.06791424 0.017103916
0.024452599 0.04236533 0.059585642 -0.0154912565 0.003565356 -0.0053012087 0.0045632906 -0.044638988
-0.036205705 -0.0051613967 -0.032173295 -0.005139176 0.013371136 0.043075915 -0.008806587 -0.033771656

attn_combine.bias f4 [30]
00000000: 4be3 0ab8 44ba a1bd 3bc7 81bd 350b 073c
00000010: e4be 163d 4e12 253c 1506 36bb aeb9 b5bb
00000020: 1cad 24be d530 233e 3b24 ccbc 2205 b7bd
00000030: 08ec 03b4 ede0 c43d e922 36b8 ee8c a83d
00000040: 4bd4 4fbd 79dd bbbd 1ea4 d83c d8c9 1530
00000050: 8716 39ba f3b4 ebbd 5ef2 fcbd b2ae 883d
00000060: e76f 22be 5acb bdbd ad7a 0ebe 0e22 97bd
00000070: ee12 56ba 76be 14bd
-3.3113447e-05 -0.078968555 -0.06336828 0.008242418 0.03680314 0.010075165 -0.0027774621 -0.0055458164
-0.16081661 0.15936597 -0.02491962 -0.08936526 -1.2286193e-07 0.09613214 -4.3424694e-05 0.08230005
-0.050739568 -0.09173102 0.026445445 5.449272e-10 -0.0007060547 -0.11509123 -0.12350915 0.066739455
-0.15863 -0.09267302 -0.13913985 -0.07379542 -0.0008166273 -0.03631445

lstm.weight_ih_l0 f4 [120, 30]
00000000: 65a2 ba32 f413 aebc a90a 20be c145 cf3e
00000010: b7cc 6abe 8bf3 0ebc b64b deb2 b587 1abc
00000020: f4b5 663d 6e2b 0e3e ae43 60b3 2140 463d
00000030: 0059 6632 98e1 b7bc 9a3d b4b2 949c 373e
00000040: a337 54b2 68a8 b93d 6cf5 dbbd ec55 1bb2
00000050: 6ca9 aa3d fb1e 193e ae34 5d3d d326 a03d
00000060: 5599 09be 98bb 87b2 0b81 4b39 8dd1 29ba
00000070: 88a8 98bd 40f2 73bd 1b34 e7b1 b941 49be
00000080: b4a7 c3bc 3003 99bd d50d 70bd ee65 fd3c
00000090: db92 8c32 0f78 553d c236 76b9 86b3 56be
000000a0: 80a8 bcb2 3cd4 05be 3afd a531 e27d 4abe
000000b0: d0af a6b2 4278 26be c9f6 56b2 22e0 0a3d
000000c0: b47e 853d 69e3 3530 4a29 b7be 5a32 6b3d
000000d0: b298 43bd 65f8 293d 0c32 b2bd da3c e236
000000e0: 9ec6 b83c 7dbe 0f36 6b52 023c cc2f 8c3d
000000f0: 59ec 64b2 0477 513c 412f 7cbc 78ed 1d3e
00000100: 0cef 17bb b77c 8c3a 6951 dd32 dc61 9cbe
00000110: 659e 92bc 92f0 0fbe bda0 372f 8a91 88be
00000120: 6e53 afb0 243d d4bd 812a bc32 d1ad babe
00000130: 1f4f c4b2 870f 14be b542 10be 0247 d032
00000140: 2c16 86be e2ac 19be 2e16 01bd 564e 833d
00000150: 6abc 08be 33b2 cf2f cdc5 9d37 33fe cdb2
00000160: e547 953c 1db5 a5bd dd76 10b1 eb61 fc3d
00000170: 46a4 16be f3c9 c73d 31a8 aa3d 0d39 94bb
00000180: b184 e532 ad02 da3d c8a9 08be a487 cd3d
00000190: 92d0 ed33 2a2a 0f3d e025 9632 ac27 cb3c
000001a0: 2408 fdb1 6347 c23b 917a 94b3 fdc0 8abd
000001b0: fd61 5a3d 1470 4cb2 5666 833c 3a01 6fbc
000001c0: 294b 4ebd a114 14be 86e0 ad3c 71c0 f233
000001d0: 32bb 2fb9 c74d 94b9 9fbc c2bb cd71 d1bd
000001e0: b0b7 bc31 60f4 8abd 9c02 fc3c 6c80 9ebe
000001f0: b0f6 a23c b7dd c8bd 8130 1333 804c 7abd
00000200: 13d8 5b3d e269 32be 4265 b3b3 2722 70be
00000210: 5d5c 4fb1 e050 8cbd f166 d531 aace 2dbe
00000220: 2c48 89b3 13b4 b6bd 0190 e33d 9585 d831
00000230: 5e64 83be 8c57 263d a7a9 edbc 9e33 47bd
00000240: 5c16 2cbd c4fe 68b3 d6dd beb9 823e 33b7
00000250: afda 893d fd55 24bd f8f9 cd32 2fb8 cdbd
00000260: 8834 01bd 06b4 ebbc 9afa 83be f3bc b43a
00000270: 7792 a834 99aa 733e 0166 30be 8711 39ba
00000280: 083b b2b6 46b2 d43d 770c bc32 2fd7 333e
00000290: d2b6 f52f 6070 8c3e e8f0 9934 0d83 e53d
000002a0: bde4 843b b49d b7b2 e393 2fbd 7f54 8dbd
000002b0: 516b f2bc c73e 62be 0003 4fbd 5032 21b7
000002c0: 825e afbc 8bf4 9eb9 b423 0ebe 2fde dbbd
000002d0: 3090 be32 6d8d 58bd cf70 bdbd d61d e53d
000002e0: 8edd 8b39 35e7 c4bb d9d7 97b6 5367 003e
000002f0: d05d 4a3e 125c 38be 912b 92b7 1ebe d3bd
00000300: 61e6 a032 2061 613e 5536 cdb1 bb65 01bc
00000310: 81f2 85b6 c8a3 0c3e 71ec 24bc 1f67 a131
00000320: 8c10 653c e9f0 293e 9bed 1cbd 56ef e73d
00000330: 373b 1b3e 96ba 9db8 685c 853d 0385 b230
00000340: 753f 613e 63c5 8e3d 4570 7932 78f2 69bc
00000350: 659d fe3c 52a1 7abe a7fb 2ebe 9dc8 76bd
00000360: 1553 5b32 6bc7 4dbe f03d 8f3a da46 9b3d
00000370: 3231 9fb2 bc07 0dbe 2fe4 b9b2 a4b2 d5bd
00000380: 6600 93b0 9d02 e0bd cd0d 7732 0854 e53d
00000390: e146 88bc 274f e7b1 8f85 95be 139b ca3d
000003a0: c31c 4abe 13d2 c6bd 043b b4bd e617 d8b2
000003b0: fc2a fb38 7c35 5eba 2e03 8e3d 411e 1abc
000003c0: 3cdc 49b1 c6f3 d5bd eb3d 973d d999 583d
000003d0: dc20 a3bb 2136 9abd 8f10 91b3 ffd4 88bd
000003e0: 9729 533e 57e0 e43d b10e 90b1 c924 08be
000003f0: 3a5a cb31 1a31 18bd b4f3 cfb2 f167 8b3b
2.1727098e-08 -0.021249749 -0.15629067 0.40482906 -0.22929655 -0.008725057 -2.587863e-08 -0.009431769
0.056325868 0.13883755 -5.221562e-08 0.048401 1.3407998e-08 -0.022446439 -2.0982771e-08 0.17930824
-1.2352674e-08 0.09065324 -0.1074017 -9.041724e-09 0.08333096 0.14953224 0.054005317 0.07819905
-0.13437398 -1.5801376e-08 0.00019407661 -0.0006478064 -0.0745402 -0.0595572 -6.7289085e-09 -0.19653977
-0.023883678 -0.07471311 -0.05860694 0.030932393 1.6364927e-08 0.05211645 -0.00023480787 -0.2096692
-2.1962705e-08 -0.13069242 4.8309206e-09 -0.19774583 -1.9404894e-08 -0.16256812 -1.2512552e-08 0.033905156
0.06518307 6.6170586e-10 -0.3577369 0.057421066 -0.047753043 0.041496653 -0.08700952 6.742409e-06
0.022555646 2.141954e-06 0.00795422 0.06845054 -1.3325086e-08 0.012784723 -0.015392126 0.15422618
-0.0023183255 0.001071832 2.5764807e-08 -0.3054341 -0.017897794 -0.14056614 1.6700859e-10 -0.26673537
-1.2756638e-09 -0.10363224 2.1905409e-08 -0.36460736 -2.2853383e-08 -0.14459048 -0.14087947 2.4246678e-08
-0.2618879 -0.15007356 -0.031515293 0.06411426 -0.13353124 3.77797e-10 1.8807967e-05 -2.3980737e-08
0.018222759 -0.08091185 -2.1022324e-09 0.12323364 -0.14711103 0.09755316 0.08332861 -0.0045234025
2.671945e-08 0.106450416 -0.13346016 0.10035637 1.1074111e-07 0.03495232 1.7479522e-08 0.02479919
-7.3641946e-09 0.00592892 -6.914082e-08 -0.06775091 0.053316105 -1.1899846e-08 0.016040009 -0.014587695
-0.050364647 -0.14460994 0.021225225 1.1304008e-07 -0.00016759036 -0.00028286708 -0.0059428955 -0.10226784
5.492403e-09 -0.06784892 0.030762963 -0.30957353 0.01989302 -0.09807914 3.427022e-08 -0.061108112
0.05367286 -0.17423204 -8.353756e-08 -0.23450528 -3.0174967e-09 -0.06851363 6.210819e-09 -0.16973367
-6.3926876e-08 -0.08921065 0.11111451 6.301614e-09 -0.25662512 0.040610835 -0.02901156 -0.04863321
-0.04201351 -5.4248417e-08 -0.00036404905 -1.0683785e-05 0.06731164 -0.040121067 2.3978814e-08 -0.10044896
-0.03154424 -0.028772365 -0.2577713 0.0013789221 3.1399006e-07 0.23795547 -0.17226411 -0.0007059802
-5.3116855e-06 0.103855655 2.1891749e-08 0.17562555 4.4695142e-10 0.27429485 2.8673753e-07 0.112066366
0.004055588 -2.1375719e-08 -0.042865645 -0.06900882 -0.029592188 -0.2209426 -0.05053997 -9.608062e-06
-0.02140737 -0.00030318307 -0.13880807 -0.107357375 2.218448e-08 -0.05286925 -0.09250032 0.111873314
0.00026677217 -0.0060090073 -4.5252787e-06 0.12539415 0.19762349 -0.18003872 -1.7424843e-05 -0.10338996
1.8731216e-08 0.22009706 -5.972462e-09 -0.00789779 -3.99194e-06 0.13734353 -0.010066138 4.69744e-09
0.013980996 0.16595806 -0.038312536 0.113249466 0.15159307 -7.521098e-05 0.06511766 1.2989009e-09
0.21996863 0.06971242 1.4519235e-08 -0.014279 0.031080911 -0.24475601 -0.17088185 -0.060249913
1.2766368e-08 -0.20095603 0.0010928493 0.07581873 -1.8532408e-08 -0.13772482 -2.16406e-08 -0.104344636
-1.0695771e-09 -0.109379984 1.438043e-08 0.11197668 -0.01663536 -6.7319834e-09 -0.2920346 0.09892859
-0.19737534 -0.09708037 -0.08800319 -2.5156577e-08 0.00011976619 -0.0008476598 0.069342 -0.009406627
-2.9374538e-09 -0.10446887 0.07384857 0.052881096 -0.0049782824 -0.075298555 -6.755101e-08 -0.06681251
0.20621334 0.11175602 -4.192622e-09 -0.13295282 5.918335e-09 -0.037156202 -2.4208795e-08 0.004254334

lstm.weight_hh_l0 f4 [120, 30]
00000000: 8551 193d 945f 01bf 4e17 ae3e 11e8 513e
00000010: a70f 9dbe efac c53e b104 88be 402a 2dbd
00000020: 764a b13c 1c55 9abe 3ecf c2bd 48f9 33be
00000030: 426d e8ba 9bc9 bb3f 6b59 443e 80b2 993e
00000040: c932 df3d 9d51 8f3f f9fa 2ebc d779 0b3f
00000050: 132e dd3e 3be2 99be 785e 533e e9f9 60be
00000060: e806 bf3d 1486 ab3d 4ab7 39bf 2b47 a5bd
00000070: 6dde 2f3e 847d 4cbc ad9f 293e 8175 b0bd
00000080: a3c1 2d3e 02ad a2bc 6071 a83e 0ac7 a8be
00000090: e96a cebc 0313 393e 5822 c23c 4283 debd
000000a0: 8498 b0be 819e 82be 099b 87bc 4cce 72b8
000000b0: 74b3 953d 0388 25be ec1c f23d 675e 2c3e
000000c0: b941 6e3c 6763 2dbd 1211 c7bc b72f b13d
000000d0: 4cef 143e 3164 0bbf fec0 f93e 0e50 2fbe
000000e0: c57f 69be 804c 6bbe 05b3 143e e21a b6bd
000000f0: 8601 543e 802f 463c 4726 1c3d 9336 e63d
00000100: 9d1b cc3d 3871 7fbe ac97 b8bd 1a4d 9fbd
00000110: df81 713e acde 79bd 69a4 d4bd 3743 66be
00000120: f3b4 3b3d 7604 2f3d 9874 9abc dbf2 2f3b
00000130: 084c 22be 7708 ad3d 592f e93c b82a 0fbd
00000140: 2312 3c3d 456b b8bd 7927 d83d a168 80be
00000150: 8360 51be f8f6 ebbd 7dab 193f df55 f5be
00000160: be39 e13d b683 0abe 600d 383e 39d9 02be
00000170: 3887 a73e fa16 243e e776 d1be 75a7 843c
00000180: 3ebc fdbd 5c24 0dbe 83be b03e 6bb1 80be
00000190: e3b2 fb3a 39b3 673d 0bbf 633e 716e 3f3f
000001a0: 8c8e 8a3e 4706 203e 97bb 313e 6137 283f
000001b0: 7b03 a13e 50e6 ea3e ca80 d33e 0278 06be
000001c0: f6d4 dbbc 6c73 f7bd 5fa9 aabd 103c 193e
000001d0: c742 fabe e34d 3dbe d0ef 533e 43c0 463e
000001e0: b105 4bbb 4078 3abe 4e2d 9dbe 47a7 983d
000001f0: d4ea 243e 81bc e9bd d179 0c3c a4bd dfbb
00000200: 1de2 663e 7809 ba3d e00b a0bd 8179 8f3c
00000210: f958 3d3d e38a 34bd 5ac6 49be dd52 753d
00000220: 8602 0f3e 613a 93be 7d06 073e bfd4 d0bd
00000230: cffe 343e 1c45 85be a15d d33c c5f7 283d
00000240: 919a d2bd 3c28 2cbe 3b05 52bd f08c 1ebf
00000250: acd7 58bd c27e 8c3d 7683 483e 815b 74be
00000260: 5f07 8f3c a995 f5bd 49c1 b3bd f46e b9bd
00000270: c384 01bf 1fd8 42be be8e ca3d 0300 70be
00000280: 3429 913d aec1 2ebf 2eb1 29be 065a 823e
00000290: 80ef 0d3d 04b3 893e 7fd1 d63d c22f 0f3f
000002a0: 72f6 6fbc f3ed 4ebe 06cb a63e ea7d b8be
000002b0: 1444 05be 929b f6bd 9101 723d ae2b a53d
000002c0: 7d15 053c fc86 fdbe dfec 4fbd d24b 82bc
000002d0: 3dd9 b63e 2e1f d03d 0c06 e83e 276a 583e
000002e0: 04ff 25be 6d5f febd 0886 563d cb4b 20be
000002f0: 4561 843d dd6b af3d dfca 7bbe 4049 da3d
00000300: c69b cd3d 23a2 173f eab1 0a3d ff87 e03d
00000310: eaf5 fabd 2afe 2d3f 1b20 103e 496a 613e
00000320: ab9d d83d 1eb1 813d 7713 c23c 4480 63bd
00000330: c6fa 673d 789e 503e 3779 ebbd 624d b8be
00000340: 1039 cc3e 4068 12be ae50 14bd 5f10 af3d
00000350: 3047 1a3e 49df 313e c414 8a3e 4ba4 863e
00000360: 4ecc e6bc 8821 953d 2caf d0bd 5c9f 3a3d
00000370: 036c 313e fb91 2b3e b4c8 6dbd 6a96 613e
00000380: 3200 e3bc 79e3 e5bd a231 51bd 5a2e c7bd
00000390: 1648 b43c 77e7 c73d 3fa5 01be 54f3 24be
000003a0: 2611 3cbe 052c b6bd 3c4b 82be 4367 02bc
000003b0: 69bc 7f3d 7c78 2bbe 35b3 543e 189b bbbc
000003c0: b3a8 5cbe 3489 c4bc c806 803e 55fc a1bd
000003d0: 1040 293e 5e9c 4b3e 876c ddbd bc51 3e3d
000003e0: 473f 113d 5bbb 673e dda1 cebd 4f53 283b
000003f0: ec5e 043e 3b55 acbd 44bd 1ebe c088 cc3b
0.03743126 -0.50536466 0.34002155 0.20498683 -0.30676004 0.386085 -0.2656608 -0.04227662
0.021641951 -0.30143058 -0.095121846 -0.17575562 -0.0017732757 1.46709 0.19174735 0.30018997
0.108983584 1.1196781 -0.010679954 0.5448279 0.43199214 -0.30055413 0.20641506 -0.21970333
0.09327489 0.08375183 -0.725453 -0.08070215 0.17174692 -0.012481097 0.16564818 -0.08616162
0.16968398 -0.019857887 0.32898998 -0.32964355 -0.025197463 0.18073659 0.023698017 -0.10864879
-0.3449136 -0.25511554 -0.016553419 -5.7889425e-05 0.073096186 -0.16165166 0.11821923 0.16832887
0.014542037 -0.042331126 -0.024300132 0.08651679 0.1454441 -0.54449755 0.48780054 -0.17120382
-0.22802646 -0.22978401 0.14521416 -0.08891846 0.20703706 0.012096286 0.03812244 0.11240878
0.09966204 -0.24945533 -0.09013304 -0.07778378 0.23584698 -0.061003372 -0.10382921 -0.22486578
0.045826863 0.042728864 -0.018854424 0.0026847634 -0.15849316 0.0844888 0.02846496 -0.03495285
0.045915734 -0.09004835 0.10554404 -0.25079826 -0.20446973 -0.11521715 0.60027295 -0.47917077
0.109973416 -0.13526806 0.17973852 -0.12778176 0.3272035 0.1602439 -0.40911028 0.016193131
-0.1238942 -0.13783401 0.3452035 -0.2513536 0.0019203093 0.056567404 0.22240846 0.74777895
0.2706188 0.15627395 0.17356716 0.657095 0.31447968 0.4587884 0.41309196 -0.13131717
-0.026834946 -0.12082562 -0.08333086 0.14964318 -0.48879072 -0.18486743 0.2069695 0.1940928
-0.0030978734 -0.18209934 -0.30698627 0.074537806 0.16105205 -0.114129074 0.008573965 -0.006828027
0.22547193 0.09083837 -0.07814765 0.017513992 0.04622743 -0.044077765 -0.19704571 0.059893478
0.13965806 -0.28755477 0.13186069 -0.10196828 0.17675327 -0.2602929 0.025801482 0.041251916
-0.102833875 -0.16812223 -0.05127452 -0.61933804 -0.052940056 0.06860115 0.19581398 -0.23863031
0.01745957 -0.11991436 -0.087771006 -0.09054366 -0.50593203 -0.19027756 0.09890507 -0.23437504
0.07087937 -0.6826428 -0.16571495 0.25459307 0.034652233 0.2689439 0.10489177 0.5593225
-0.0146461595 -0.20207958 0.3257677 -0.36033565 -0.13014251 -0.120413914 0.059083525 0.08064972
0.008122799 -0.49517047 -0.050763007 -0.015905295 0.35712615 0.10162197 0.45317113 0.21134244
-0.16210562 -0.12420545 0.052373916 -0.15653913 0.06463865 0.08565495 -0.24589108 0.106585026
0.10039477 0.59231776 0.03386108 0.10963439 -0.12253936 0.6796595 0.14074747 0.22013201
0.10576948 0.063326105 0.023690922 -0.055542246 0.05663564 0.20372951 -0.11497729 -0.35996538
0.39887285 -0.1429758 -0.036209755 0.085480444 0.15066218 0.17370333 0.26968968 0.2629722
-0.028173592 0.07281786 -0.101896614 0.045562133 0.1732636 0.16754906 -0.058052734 0.22030035
-0.027710054 -0.112250276 -0.051072724 -0.09725638 0.02200703 0.09760945 -0.12660693 -0.16108447
-0.18365917 -0.08895115 -0.25448024 -0.00795919 0.06243554 -0.1674518 0.20771487 -0.022901103
-0.21548729 -0.023991205 0.25005174 -0.07909457 0.16528344 0.19883868 -0.108117156 0.046464667
0.035460737 0.22630064 -0.10089467 0.0025684421 0.12926835 -0.08414694 -0.15501887 0.006241888

lstm.bias_ih_l0 f4 [120]
00000000: 7b7d 88be cffb 8fbc f0fa 29be 5635 773d
00000010: 50c9 083d 5fe6 1e3c 0270 2dbe 537e c2bd
00000020: e975 11bd 58f5 773e fa6e 33be 2659 2ebe
00000030: bdea 243e 4f8d aabe d1a2 313e 078e 12be
00000040: c9e2 353e a5e2 303e ed4c 0bbc 9c52 08be
00000050: 03e5 09bd e476 62be df5a 8abe 4f6e 84bc
00000060: 1326 0d3e d1d2 2b3e 119f 6cbe db83 2cbe
00000070: 9c82 aabd a6c2 1a3b f409 5cbe cc4e f83c
00000080: 4457 073e eab0 cabd 07c1 a63d 8036 a43e
00000090: be54 163e a29c 11bd 8bef 1dbe 6984 9ebb
000000a0: d9a4 123e 9a18 6d3d 1bdb 91be 19f1 813e
000000b0: 4cb9 babd 9fe1 773d 8d76 a1bd 35a8 073e
000000c0: ad5f 7dbe 959e 7b3e aad5 343b 8d9b b7bd
000000d0: 27a7 033d 13b4 933e f8cf ba3d f03b 47bd
000000e0: f0e7 a83d ac98 943e 187a 2abe 74a0 323e
000000f0: c9e7 2bbd 6421 d23c ba93 bd3d 7950 95bd
00000100: 2733 4e3e db4e a93c 4165 743e e820 5ebd
00000110: fb40 2a3d b017 77bd f933 42be 47bc 11be
00000120: b656 36be b953 f8bd c722 fc3c 07b7 00bd
00000130: 7644 b13d 0877 9c3d c69e cfbd dace 1b3e
00000140: 2776 d13c ccc0 ad3d 0854 e738 b98e e5bd
00000150: f8a3 d33d 88f4 4c3e 8b5f fb3d 9b15 34bd
00000160: 62f0 73bd 4733 2e3e 1621 b53d a19e 693b
00000170: c399 0fbd 497c d73d 8641 c73d 4f91 453e
00000180: 8f8f 3fbe a2ba 853b 1f6c 0d3e 2e13 3fbd
00000190: 918b 813e b4e2 703e 0d0a 3abd 11c9 b93d
000001a0: 8ffb 873e 87a0 373d 45d0 e23d 1762 1f3e
000001b0: 03b8 20bd 2712 9c3d effc 263d b6f8 4fbd
000001c0: 0d8e 533c 72d0 093e 650c ba3e 25d6 433e
000001d0: b54d 07be 835a 4e3e 5125 343e 42ed f5bc
-0.26658234 -0.017576126 -0.16599631 0.0603536 0.03339511 0.009698479 -0.16937259 -0.09496751
-0.03551284 0.24214685 -0.17522803 -0.17026195 0.1610517 -0.33310935 0.17347266 -0.14311992
0.17762293 0.17273958 -0.008502227 -0.13312763 -0.03366567 -0.22115666 -0.27022454 -0.01616588
0.13784055 0.16779639 -0.23107554 -0.16847174 -0.08325693 0.0023614555 -0.21488172 0.03031101
0.13216883 -0.09897025 0.08142286 0.3207283 0.14680764 -0.035549767 -0.1542341 -0.004837562
0.14320697 0.05788479 -0.28487477 0.25379255 -0.09117374 0.060517903 -0.0788394 0.1324776
-0.24743529 0.24572213 0.0027593174 -0.08965216 0.03214183 0.28848323 0.09121698 -0.048641145
0.082473636 0.2902273 -0.16648138 0.1744402 -0.041969094 0.025650688 0.09256692 -0.072907396
0.201367 0.020667484 0.2386675 -0.0542306 0.041565876 -0.060325325 -0.18965138 -0.14231978
-0.17806515 -0.12125344 0.030778302 -0.03142455 0.08655636 0.07639891 -0.101377055 0.15215626
0.025569035 0.08484039 0.000110305904 -0.11208863 0.10334009 0.20015156 0.12274083 -0.043965917
-0.05955542 0.17011748 0.08844201 0.0035647529 -0.035058748 0.105217524 0.097292945 0.19293712
-0.18707107 0.0040810863 0.13810776 -0.04664915 0.25301793 0.2352398 -0.04541974 0.090715535
0.2655911 0.044830825 0.110748805 0.15564762 -0.039237987 0.0762065 0.04076856 -0.0507743
0.0129122855 0.13458422 0.3633758 0.19124658 -0.13213237 0.20151715 0.1759236 -0.03002036

lstm.bias_hh_l0 f4 [120]
00000000: c7a8 85be 8eb1 6abb 4d13 4ebe 55d3 50be
00000010: d264 98bd 332d ccbd dffe 10be 6fb8 33bd
00000020: b686 44bd c22e ee3d a75d c6bd 16fd 04be
00000030: 2586 2b3e ae26 0dbe d19c 503e 0760 97bd
00000040: 1faa 1c3e 50df 333e 71c2 82bd bff9 e1bd
00000050: bcf9 173d a4e7 6cbe 94f2 14bc c8bb 25be
00000060: 5867 96bc 54ef 1e3e 752d c4be 47b5 07bd
00000070: 52a0 463e 10fb f8bd 09db 67bd a929 2a3e
00000080: cc5a 01be 32c5 06be 3641 803d a665 e03d
00000090: a11a c9bc 23f2 2bbe c0c4 fbbd 717f 1cbe
000000a0: 1289 84bd 2017 e93c 21f3 8fbe fdb3 393e
000000b0: c5e0 f33d 8f82 0b3e d4c0 febd cb09 fcbc
000000c0: b0f6 fabc 488a ab3e ed7c 3dbe 4f1c aabd
000000d0: ee2c bb3c f3ea 223e 18f4 0d3d 6048 fbbd
000000e0: 8033 823e 5dc8 6a3e c097 f33c be62 1ebe
000000f0: bdae fa3d c394 4c3d de8f 1abe 15d9 ecbc
00000100: eed0 1b3d 1add 91be e431 203e 730e 983d
00000110: b336 723d 4060 68be 3c4b 80bd 45b4 a03c
00000120: 7ac8 39bd b970 92bd 8579 2a3e 7a57 f23c
00000130: 7e03 3d3e 8891 023e dffd 863d 7b59 c93d
00000140: 9c06 86bb aaf3 cb3d c01b 1cbe e8c1 2c3e
00000150: 4f32 17be 62dd 0e3e 45f4 5abc 944d 68bd
00000160: 7290 56be d082 143e 673a 1bbe e9e7 c7bd
00000170: 9a29 51be e7a8 7c3e b001 d9bd 5eee 0b3d
00000180: 7287 fcbb cfb9 ca3d 14bd 10be 1adc 893e
00000190: 2f6f b8bc f23a 133e a987 003e 98f3 633d
000001a0: f22f 2c3e 6692 f33d c0d7 4c3e f2d0 5bbd
000001b0: 4e65 0f3e c95b 0c3e 7495 c23b bc41 b93c
000001c0: 510c a33b 0092 a53e cc67 2c3e 056b 1a3e
000001d0: ffed 04be 410a dabd 0749 fabd 0974 103d
-0.2610533 -0.0035811397 -0.2012455 -0.20393117 -0.07441105 -0.099695586 -0.14159726 -0.04387706
-0.047980033 0.11630012 -0.096858315 -0.1298717 0.16750391 -0.13784286 0.2037232 -0.07391363
0.15299271 0.17565656 -0.06384743 -0.110339634 0.0371034 -0.23135239 -0.009091038 -0.16184914
-0.018359825 0.15520984 -0.3831593 -0.033131864 0.19397095 -0.12157261 -0.056605373 0.16617455
-0.12632293 -0.13161162 0.06262438 0.10956888 -0.02454883 -0.16791587 -0.122933865 -0.1528299
-0.064714566 0.02845341 -0.2811518 0.18135066 0.11908106 0.13624023 -0.12439123 -0.030766388
-0.030635208 0.33503938 -0.18504687 -0.08306181 0.022848573 0.15909939 0.034656614 -0.12269664
0.25429916 0.22927995 0.029735446 -0.15467355 0.1224036 0.049946558 -0.15093943 -0.028912107
0.038041048 -0.28489 0.15644032 0.07424631 0.059134196 -0.22692966 -0.0626435 0.01961721
-0.045357205 -0.071504064 0.16647919 0.029582728 0.18458363 0.12750828 0.06591391 0.0983152
-0.0040901434 0.099585846 -0.15244961 0.16870844 -0.14765285 0.13951638 -0.013363902 -0.05671461
-0.20953539 0.14503026 -0.15158997 -0.0976103 -0.20426026 0.24673806 -0.10596025 0.03416287
-0.007706576 0.098987214 -0.14134628 0.26925737 -0.022513954 0.14377955 0.1255175 0.05565223
0.16815165 0.11893158 0.20004177 -0.053666063 0.14003488 0.13706888 0.0059382264 0.022614352
0.0049758335 0.32337952 0.1683647 0.15079887 -0.12981413 -0.10646487 -0.1222096 0.03526691

lstm.weight_ih_l1 f4 [120, 30]
00000000: 3029 44be 2e8e 473e 0c94 033e f38d 03bd
00000010: fbd1 103e b5bb 4dbe cb9a 5dbe 4441 b2bc
00000020: 693c df3d 305c 953e 82eb cebd edbd 04be
00000030: 580f ba3d c4ce ae3e 8cb9 4bbe 2c46 1c3e
00000040: 9788 a33d 50cc 71bd a622 0bbd 88b3 ea3d
00000050: 549e 083e 29b3 0bbe 3d36 da3d bb0a 4fbd
00000060: 3572 1c3e 7311 ce3d a03f d13d 7b18 8d3c
00000070: 68bc 933d fc02 f9bd 7e09 75bd a9b1 9cbd
00000080: 7e68 8ebd 997a 6b3d 69e9 c13e 6a6e 9c3e
00000090: b852 85bd 84ab b4bd ca3d e3bd 006c f3bb
000000a0: a62d b73e 4d64 a93e e119 d0bd 9ee5 0abe
000000b0: fce0 00be fef1 9fbd 05b4 b23d 0e55 08be
000000c0: de39 023e 5825 37be e159 14be 9d6f 94be
000000d0: 06d6 0cbd 38fb 663d b117 573e 204f 8f3c
000000e0: e9ef 903e ddf5 db3d 1b5a 09bd a820 193e
000000f0: 5691 5bbd 75af 963e a066 0a3e 951c bfbd
00000100: 6a53 a93d 9c34 003d 276f d5bd dfea 5c3e
00000110: 7e53 a73e 28fc 4e3e 0b6c ac3d 512a 4c3e
00000120: 3324 0f3d d2f2 f83e 1c36 b8be 0407 003e
00000130: ca37 cfbc 265e bfbe 91be 843e 8510 f63d
00000140: 6cf5 c93d 210d 07bd 04d0 33be af23 74bd
00000150: 51e8 793d bbb5 cf3d c2ea 2b3e 5a4d d33d
00000160: d5a6 793c 9104 1c3d db96 4cbe 3610 09be
00000170: a2ab 743d d843 e0bd d30a 353e 8abd 2d3e
00000180: fb42 f2bd d242 19bc c72d ec3d e1dd 2e3e
00000190: b5aa 903e 88aa 9e3e 4a82 093e cf00 873d
000001a0: 92cf 11be 2c1b d83d aa39 a63d 0702 31be
000001b0: f766 bfbd d1ae a23d 2d07 e5bd b83c d3bd
000001c0: 0e76 f83d f8c8 52bd 43ef 083e 2a8c e43c
000001d0: 1fc3 733e fbce 763e cb79 09be 0ec7 33bd
000001e0: d21c 55be 3318 dc3b c7fc 45be 423e 0abe
000001f0: 2c49 683e 102b 27be c4e1 98bd 1eb2 db3c
00000200: 266f 05bd bbad 74bd 8599 3f3e 1361 3f3d
00000210: f1dc 583e f933 d93d 1240 2abe 5de6 55be
00000220: de35 323d 0773 b1bd da78 023d b505 79bd
00000230: 47b2 cabd cc15 0f3c 93e3 6dbd 7e61 bf3c
00000240: 6693 2e3e f31c 61bd a331 5bbd ee16 98bc
00000250: 378f e73c 6cbc 5cbe 7f67 b8bc 3d10 4e3d
00000260: f384 4b3e 3391 24be edf9 7dbb c23a f33d
00000270: c4a0 2fbd e176 96bc 40e6 513e bada 2d3d
00000280: db9c 8c3d c8cb afbd a05e f63d 1a74 613d
00000290: e1d2 1ebe 7cfa 063e f1f4 d73d 3b35 61be
000002a0: 4b00 84bd aa0f 883d f0f2 123e 557e c2bd
000002b0: cd1f 283d 02aa b2bc 7590 a5bd d96c 77be
000002c0: 72a5 be3c 5f5a cd3d 57e6 013e fd67 b03d
000002d0: 9a4d 91bc 9fc9 073e 4529 183e f143 673d
000002e0: ccb9 493c c56a 3c3e dfd6 f03d bb05 2a3e
000002f0: 8c07 153e bfac 423e 9c3e 5b3d 1441 763e
00000300: d7c9 6a3d afc4 813e b592 283c 840a 293e
00000310: 8653 e8bc 4f6c 9cbd 835f 86bd b167 b7bd
00000320: cb98 413e a946 aebd 48db 823d 3877 3f3d
00000330: fd7c 243e b049 65be 6f64 6f3e f8cd 3bbd
00000340: 576d fcbd c46e 09bd 7120 92be 557f 50be
00000350: aeb4 103e 2d3e b5bd c4ae bb3e a188 153d
00000360: 9fdd 85bd d671 d33d 8667 31bc 584b d83d
00000370: 35e5 66bd 8c66 663d a5c7 063d c081 973e
00000380: c12c 30be bedd 8ebd 887a a4be e93c 07be
00000390: c9cc 623d 78d7 17bc 296d 013e 7b81 64be
000003a0: 4c26 9f3d 13d4 a2bd 251a e83c 0839 5abe
000003b0: a0cc b03d a1e0 fb3e 4875 a33d fa72 8fbd
000003c0: e03e 35bd 5512 333e 47c2 8fbd dd1f aebd
000003d0: 11f8 d43c 481b 773e 1e5c 9fbb b8d3 963d
000003e0: 33bc d5bc e5ed b83d 9906 0a3e 6aba 373b
000003f0: c84f c63d bfc8 4fbe cd4d db3c 19dd e7bd
-0.19156337 0.19487831 0.12849444 -0.032117795 0.14142601 -0.20091136 -0.2164108 -0.021759637
0.10900194 0.29171896 -0.10103513 -0.12963076 0.09084958 0.34142125 -0.19895 0.15261143
0.07985037 -0.05903274 -0.03396859 0.11460024 0.13341647 -0.13642563 0.106548764 -0.050547343
0.15277942 0.10061922 0.10217214 0.017223587 0.0721367 -0.12158772 -0.059823506 -0.076510735
-0.06953524 0.057489965 0.3787339 0.3055299 -0.06509918 -0.088217765 -0.1109577 -0.007428646
0.35777014 0.33084336 -0.10161186 -0.13564155 -0.12585825 -0.07809828 0.08725742 -0.13313696
0.12717387 -0.1788534 -0.14487411 -0.28991404 -0.034383796 0.056391925 0.21005131 0.017493784
0.28308037 0.10740254 -0.033533197 0.14953864 -0.0536054 0.29430738 0.13515711 -0.093316235
0.08267863 0.031300172 -0.10421591 0.21573971 0.32680887 0.20213377 0.08419045 0.19938017
0.03494663 0.48622757 -0.35978782 0.12502676 -0.025295157 -0.37376517 0.2592664 0.120148696
0.09861264 -0.032971505 -0.1755982 -0.059604343 0.06101257 0.10142084 0.16788772 0.10317488
0.01523753 0.038090292 -0.19979422 -0.1338509 0.059733994 -0.1095044 0.1767991 0.16966835
-0.11829182 -0.00935431 0.11532169 0.17076828 0.2825524 0.3098948 0.13428608 0.06591951
-0.14239338 0.105520576 0.08116467 -0.1728593 -0.09345811 0.079435 -0.11183009 -0.103143156
0.12131892 -0.05146119 0.13372521 0.027898867 0.23804902 0.24102394 -0.13425367 -0.043891005
-0.20811775 0.006716752 -0.19334708 -0.13500312 0.22684163 -0.16325021 -0.074649364 0.026818331
-0.032576703 -0.059735995 0.18710907 0.046723437 0.21178032 0.10605616 -0.16626003 -0.20888658
0.043508403 -0.08664518 0.031853534 -0.06079646 -0.09897285 0.008733224 -0.05807836 0.023361918
0.17048416 -0.05495925 -0.053514134 -0.018565621 0.028266532 -0.21556252 -0.022510288 0.050308455
0.19874935 -0.16071014 -0.0038753704 0.118764415 -0.042877927 -0.018367233 0.2049799 0.042444922
0.06865855 -0.0858379 0.12029767 0.055042364 -0.15510131 0.1318149 0.10544766 -0.21992962
-0.064453684 0.06643613 0.14350486 -0.09496752 0.041045953 -0.021809582 -0.080841936 -0.24162616
0.02327225 0.100270025 0.12685524 0.08613584 -0.017737199 0.13260506 0.14859493 0.05646128
0.012312364 0.18400104 0.117597334 0.16603749 0.1455366 0.1901121 0.053526506 0.24048263
0.057321396 0.2534537 0.010288884 0.16507918 -0.02836014 -0.07637846 -0.06561186 -0.089553244
0.18905942 -0.08509571 0.06389481 0.046744555 0.16063304 -0.22391391 0.23378156 -0.045850724
-0.123255424 -0.0335529 -0.28540376 -0.20361073 0.14131424 -0.0884975 0.36656773 0.036507253
-0.065364115 0.10324447 -0.010827905 0.10561246 -0.056370933 0.05625014 0.03290524 0.2959118
-0.17204572 -0.06975888 -0.32124734 -0.13206829 0.05537108 -0.00926768 0.12639298 -0.22315018
0.077709764 -0.07950606 0.02833278 -0.21310818 0.08632779 0.49194816 0.07981354 -0.07004352
-0.044249415 0.17487462 -0.07019477 -0.08502171 0.025997194 0.241315 -0.004863276 0.07364601
-0.026090717 0.0902975 0.1347908 0.0028034695 0.09683186 -0.20291422 0.026770497 -0.11321468

lstm.weight_hh_l1 f4 [120, 30]
00000000: 83b3 10be 65e5 a33d 1a1e b83d e119 6fbd
00000010: 1aa5 6bbe 3ead 7abd 1eef 823d c952 2dbd
00000020: 5326 f6bc 93bc d43c abf3 713e a2b6 553e
00000030: 65ac 053e bae4 583e 1b4a 7c3e c919 60bc
00000040: 572f 943e 934f 72bd 99a3 7cbb 927c a0bd
00000050: 43ae 9e3e 3883 eabd 4fc1 803d 331f 5b3e
00000060: 236b 9bbe f3f7 19ba 4974 763e 6fc2 a8bd
00000070: 0ef8 84bd 0d44 053e e179 e4bc 454b 4fbe
00000080: f0e3 c4bd 4003 cabd 8eaa c83d f0f8 b13d
00000090: 4a27 123e 3ab2 123e f483 23bd acd6 c43d
000000a0: cfb5 5d3d 57e0 90bd a2d1 043d 7050 bdbc
000000b0: 0bb0 38be d2c2 8fbb 5c38 f4bd 7178 f83c
000000c0: 17cf 38be 381e 823d 4831 4e3a 3a1c 8cbd
000000d0: 2334 f73d 7d02 113e 0452 933d 9c08 193e
000000e0: a545 ffbd 2109 14be 094b a4bd bfc5 1a3e
000000f0: 05d5 d63d af38 ae3e 000c 273e ab26 0ebe
00000100: a58b a6be 4549 a23b 615f 3a3e 1490 1abe
00000110: 348e cabd a622 14be 525d 6f3e c557 77be
00000120: ee66 53be 9c9d 863e e03c 573e 70fc dcbd
00000130: 53ca fc3c b393 0e3b 149e b9bd 6b09 adbd
00000140: 98b3 df3e 26da 493e 66a0 73be b6d2 fe3d
00000150: cc7e 94be 5629 46bd 47f2 893d a2ac e8bd
00000160: ad65 30bc 74c8 30be 293a 20be 1d65 0b3d
00000170: 45b4 acbd 3100 203e c50d c1bd fdbc 413d
00000180: 254d a6bc 5c29 7abd 688c 09bd 81f3 60bd
00000190: 40cf 9abd 3101 2bbe d4d2 cd3d 8f20 513e
000001a0: 2a1d ecba 3327 8f3d 7fd0 30be b9ec 523d
000001b0: 37ca d5bd 9beb febd f1ee 073e ba6b cebd
000001c0: ec7f 44be e777 813e 578e 41be 98dc febc
000001d0: 0495 8a3d b898 2abe 184f 033e c35c b93c
000001e0: 5001 a23d d75b a43d d471 e1bd 3efc 063e
000001f0: 5993 61bb 0b52 2bbe 8d68 c3bc 4fcb dfbd
00000200: 0fb9 66be b2af 62bd db62 433e 1b5d af3d
00000210: b868 0f3e f48d dbbd 0dc3 e03d 034d 4d3d
00000220: 1a56 ec3c 9210 fcbd 65b1 993d 0dbb 40be
00000230: 85ce df3d f946 2b3e 1ddb 0abd 0de1 463e
00000240: 9b1a 08be 3ff0 f33d 6c0a 8c3c d80e 263e
00000250: f4de c6bb 76af a6bc b8d4 40be a81e a23e
00000260: f474 89be ef81 a13d 8a2f 7ebd f8ac 07bc
00000270: d106 0b3e 480a ec3d 324d 08be 065d 61be
00000280: a666 7e3e 33ed 283e 2e41 44be a523 893d
00000290: 9f3b 1c3e 37c8 3fbd 7aa7 16bd f87f e03d
000002a0: 9965 4a3e e763 c63d f7c6 3f3e 7a2e 23bd
000002b0: 4a9f 583d 8158 85bd 7bd2 09be 0681 83bd
000002c0: 9272 3f3e 6f3b 26be 01bb 6c3d c3f4 53bd
000002d0: 3454 a53a d5e5 333c 59f1 90be 1fc5 3e3d
000002e0: ee52 a73a 9980 a73d dae0 0c3d 6ac7 e93d
000002f0: e126 c23b 0c04 09be 7773 2b3e ada1 07be
00000300: 3f57 1abe d878 5fbd 5be9 41b9 0477 1ebd
00000310: 0c32 21bd 26a3 0d3e 0001 4b3d 20d2 883c
00000320: 9510 003e 20b0 f33a 9b21 23bd a360 6cbe
00000330: 8969 23be 1466 943c ecef 2e3e 685a 0ebe
00000340: fe93 d33d 3cfd d5bd ab51 4c3e 9097 303e
00000350: 7cc6 ee3c 6dc7 eabd a05d bf3d 1f0f 3ebe
00000360: 65cd a23c b266 b93b 12a3 6fbe 252b 9c3d
00000370: 772a 823e a055 9d3d 99f3 543e 787d c93d
00000380: 6417 0cbd fcee 5dbe 36a8 27bd ec3b 44be
00000390: 486a 393e 679e 8ebd 04d6 a23d bf20 4e3e
000003a0: ae72 2cbe a7b1 933e 0cac dcbe 4988 0fbd
000003b0: 0c6d 1abe 6dac c73d 88fe 503e 0aa8 f4bc
000003c0: db99 d0bd 54bc 003d 906e 44be 3d32 b9bd
000003d0: db40 08be c289 ff3d fd99 e13d 929b 49bc
000003e0: 18f9 a6bd db31 36be 0c0d e03d c3ea 503e
000003f0: 3ac2 683d 5c56 bf3a b7db 9dbc 6a60 c53b
-0.14130978 0.08002738 0.089901164 -0.05837429 -0.230122 -0.061200373 0.06393264 -0.04231528
-0.030047571 0.025968825 0.23628108 0.2087045 0.13054045 0.21181002 0.24637644 -0.013678023
0.28942367 -0.05915792 -0.003854966 -0.0783626 0.30992326 -0.11450809 0.06286871 0.2139862
-0.30355176 -0.0005873434 0.24067797 -0.0824021 -0.06492625 0.1301424 -0.027890148 -0.20243557
-0.09613788 -0.09863901 0.09798156 0.08690059 0.142728 0.143258 -0.039920762 0.09611258
0.054128464 -0.070740394 0.032426484 -0.023109645 -0.18035905 -0.004387238 -0.11924812 0.030330868
-0.18047749 0.0635342 0.000786562 -0.06841321 0.12070491 0.14161105 0.071933776 0.1494469
-0.124644555 -0.14456607 -0.08022124 0.15114497 0.10489849 0.3402762 0.16313171 -0.13881938
-0.32528415 0.004952582 0.18200447 -0.15094024 -0.09890404 -0.14466342 0.23375443 -0.24154575
-0.20644733 0.2629212 0.21019316 -0.10790336 0.030858194 0.0021755516 -0.09063354 -0.08449062
0.43691707 0.19712123 -0.23791656 0.12442534 -0.29002988 -0.048379265 0.06735664 -0.11361052
-0.010766429 -0.17263967 -0.15647186 0.034031976 -0.08432821 0.15625073 -0.094264545 0.047299374
-0.020300457 -0.0610746 -0.033581167 -0.054919723 -0.07559061 -0.16699673 0.10049978 0.20422576
-0.0018014063 0.069898985 -0.17267035 0.051495288 -0.1043896 -0.12447282 0.13274743 -0.10079141
-0.19189423 0.2528679 -0.18901955 -0.031111047 0.06766704 -0.1665982 0.1282314 0.02262724
0.079104066 0.080253296 -0.11008039 0.1318216 -0.0034420101 -0.16730516 -0.023853565 -0.1092745
-0.22531532 -0.055343337 0.19080679 0.0856268 0.14004791 -0.10720435 0.10974703 0.050122272
0.02884965 -0.12307848 0.075045384 -0.18821354 0.10928062 0.16726293 -0.03390037 0.19421788
-0.13291399 0.11911058 0.017094813 0.162166 -0.0060690586 -0.020347338 -0.18831146 0.31664014
-0.2684704 0.07886111 -0.062057056 -0.008280985 0.13576819 0.115253985 -0.13310698 -0.22008142
0.24843845 0.16496734 -0.19165489 0.06696252 0.15257119 -0.0468218 -0.03678081 0.10961908
0.19765319 0.096870236 0.18728243 -0.039839245 0.052886285 -0.065110214 -0.13459198 -0.06421094
0.18696049 -0.1623361 0.05779553 -0.051747095 0.0012613595 0.010980089 -0.28309134 0.046574708
0.0012765804 0.08178825 0.034394123 0.11414988 0.005925045 -0.1338045 0.16743265 -0.13245268
-0.15072344 -0.054558605 -0.00018492846 -0.03868772 -0.03935437 0.13831767 0.0495615 0.016701758
0.12506326 0.0018591918 -0.03982697 -0.23083739 -0.15958227 0.01811508 0.1708371 -0.13901675
0.10330962 -0.10448691 0.19953029 0.17245317 0.02914738 -0.11463819 0.093440294 -0.18560456
0.01987333 0.005657994 -0.2340205 0.07625417 0.25423023 0.07682347 0.2079605 0.098383844
-0.034201995 -0.21673197 -0.040931903 -0.19163483 0.1810695 -0.069638066 0.079509765 0.20129679
-0.16840622 0.28846475 -0.4310001 -0.03504208 -0.1508066 0.097496845 0.20409596 -0.029865284
-0.101855956 0.031429604 -0.19182801 -0.09042785 -0.1330599 0.12477447 0.11015699 -0.012305157
-0.081529796 -0.17792456 0.109399885 0.20402054 0.056825854 0.0014597881 -0.019269807 0.0060234563
