1223-code-DL/model/encoder_state_dict.pt (torch, 189931 bytes, 4 tensors)

lstm.weight_ih_l0 f4 [400, 16]
0.05422047 -0.047008798 -0.05176234 0.004925885 -0.064740315 0.011431497 -0.056400493 0.09120249
0.07115094 0.04680364 0.023585266 0.071213126 0.020198682 -0.11168636 0.027129617 -0.09117984
-0.022497894 -0.2131418 -0.16678534 -0.104528375 -0.11937723 -0.029531268 -0.121286795 -0.03678373
-0.06702499 -0.09296171 0.07152871 -0.23728721 -0.16669516 0.02766137 -0.086418554 -0.4518277
-0.1057823 -0.059127554 -0.07514565 -0.04302937 -0.04528441 -0.093883604 -0.12385915 -0.0387423
0.061618272 0.03413658 0.09417914 -0.0646194 -0.029361995 -0.013425495 -0.0005854473 -0.13990445
-0.030089015 0.007898155 0.050639436 -0.058992874 -0.002001579 0.012686761 0.04305856 0.03744861
0.046978924 0.01325206 -0.10604522 -0.03414985 0.049780447 -0.102228336 -0.034950104 -0.026998295
0.01560256 0.017685411 0.09258256 0.014603623 -0.07731536 -0.04096321 -0.011394926 -0.15225613
-0.022977868 -0.034999568 0.052995056 -0.14262815 -0.130995 0.04753638 -0.06993978 -0.0744025
-0.11967147 -0.0064860177 -0.06537794 0.030849706 -0.08517056 0.018733805 -0.112947255 0.03206214
-0.11343781 -0.0865439 -0.14907874 -0.10836748 -0.049823485 -0.054849017 -0.0042161364 -0.002551254
0.06665579 -0.107161425 0.019381989 0.030639214 -0.08988308 0.023076648 -0.009222315 -0.009203696
-0.023708967 -0.063194215 -0.11440464 -0.0013601456 -0.0011862031 0.07190552 -0.07828394 -0.029070128
0.053791415 -0.014246626 0.018174749 0.03214019 0.010389177 -0.1150144 -0.073693514 -0.064512484
-0.06422522 0.07695601 -0.11569332 -0.11962904 -0.0210557 0.0010038159 -0.08457685 0.00019130537
-0.11475286 0.018502526 -0.043082934 -0.049135607 -0.12670735 -0.102824956 0.019235 -0.039338592
0.0046584364 0.04530552 -0.08804096 -0.13174246 -0.041532427 -0.095732264 -0.016587185 -0.008258767
-0.11094398 -0.12238734 -0.036400117 -0.026066562 0.0028078235 -0.03490015 -0.08590006 -0.03336726
-0.093375586 0.03188121 -0.0611834 -0.091874346 0.03510894 -0.08718386 0.06239771 -0.054415897
-0.050279662 -0.048488222 -0.06872122 -0.026924435 0.0038486468 -0.098938316 0.032680593 0.035102837
-0.080702566 -0.08914691 -0.02924237 -0.10003845 -0.095830135 -0.14631015 0.0554657 0.034893155
0.05016112 0.108874366 0.02922208 0.07995623 -0.03645844 0.029611541 0.03218075 -0.1284377
0.0021169258 -0.06225138 0.13984513 0.008114298 0.09432039 0.052483745 0.029920297 0.13552484
0.043189425 -0.052976895 -0.031335164 0.03359462 -0.007949498 -0.08309758 0.03967019 -0.04699996
-0.019131025 0.018036576 -0.119588256 -0.14869885 -0.07090926 -0.056042496 -0.03942052 -0.11841708
-0.08127693 -0.10505239 -0.072301455 -0.07383496 -0.17022552 0.027265279 -0.17639197 -0.073581286
-0.11984869 0.030064477 0.05558238 -0.08493248 -0.02274043 0.018274024 -0.09402631 -0.40136847
-0.00791451 0.104870625 0.015673973 -0.05821429 -0.0072277114 0.1287431 -0.044987224 -0.028750252
0.05640123 -0.046174467 0.105072975 -0.09376869 0.09120589 0.043477125 0.02155339 0.054829344
-0.062378075 0.06102106 0.054090116 -0.065051325 -0.086250946 0.00797046 0.061236024 -0.014092528
-0.14924662 -0.11961268 0.050263222 -0.13064955 -0.0047014384 -0.023404233 -0.058937635 -0.23408838
00000000: 4916 5e3d 4c8c 40bd bf04 54bd 5169 a13b
00000010: 9296 84bd 2c4b 3b3c 3404 67bd 5fc8 ba3d
00000020: 96b7 913d 2cb5 3f3d e335 c13c 30d8 913d
00000030: b577 a53c d1bb e4bd ee3e de3c 7fbc babd
00000040: 814d b8bc d841 5abe c7c9 2abe f912 d6bd
00000050: 0d7c f4bd 8feb f1bc 3665 f8bd 89aa 16bd
00000060: 6644 89bd b662 bebd a57d 923d 6bfb 72be
00000070: 23b2 2abe 199a e23c 36fc b0bd f655 e7be
00000080: 64a4 d8bd bc2f 72bd f6e5 99bd 913f 30bd
00000090: 257c 39bd 0c46 c0bd dea9 fdbd 3fb0 1ebd
000000a0: 7163 7c3d ccd2 0b3d fee0 c03d 2d57 84bd
000000b0: 9188 f0bc 9bf6 5bbc b478 19ba 1d43 0fbe
000000c0: 3d7d f6bc 4367 013c 4c6b 4f3d 83a2 71bd
000000d0: ec2c 03bb 22dc 4f3c 2c5e 303d b763 193d
000000e0: f96c 403d 2b1f 593c 3c2e d9bd b7e0 0bbd
000000f0: 95e6 4b3d 175d d1bd d727 0fbd 872b ddbc
00000100: e1a1 7f3c ffe0 903c ed9b bd3d 0944 6f3c
00000110: 8457 9ebd 0ac9 27bd c9b1 3abc 08e9 1bbe
00000120: 153c bcbc b55b 0fbd 5811 593d 1d0d 12be
00000130: 8e23 06be 82b5 423d 963c 8fbd 5760 98bd
00000140: 5116 f5bd a988 d4bb dfe4 85bd 86b8 fc3c
00000150: e76d aebd a377 993c e450 e7bd 9753 033d
00000160: 1552 e8bd ee3d b1bd 19a8 18be c5ef ddbd
00000170: b613 4cbd 5da9 60bd 8427 8abb f032 27bb
00000180: d582 883d 7377 dbbd fac6 9e3c 17ff fa3c
00000190: 9f14 b8bd 3d0b bd3c 3119 17bc 19cb 16bc
000001a0: 4f39 c2bc f86b 81bd fb4c eabd ea46 b2ba
000001b0: 5f7a 9bba 3443 933d 5553 a0bd 7a24 eebc
000001c0: 6354 5c3d ae6a 69bc 36e3 943c 6fa5 033d
000001d0: 5e37 2a3c ab8c ebbd a0ec 96bd 1f1f 84bd
000001e0: 8388 83bd 1d9b 9d3d 9ff0 ecbd 1200 f5bd
000001f0: 017d acbc 7992 833a a136 adbd 2599 4839
00000200: 8c03 ebbd 9c92 973c bb77 30bd 6b42 49bd
00000210: 92bf 01be e495 d2bd b892 9d3c 8121 21bd
00000220: cca5 983b 4892 393d d24e b4bd 7fe7 06be
00000230: e81d 2abd 470f c4bd d9e1 87bc c84f 07bc
00000240: 9936 e3bd 37a6 fabd 4a18 15bd 8b89 d5bc
00000250: 7603 383b 76f3 0ebd 5fec afbd 1cac 08bd
00000260: b33b bfbd df95 023d 729b 7abd 9e28 bcbd
00000270: 64ce 0f3d 748d b2bd be94 7f3d 34e3 5ebd
00000280: 0cf2 4dbd 969b 46bd b6bd 8cbd a290 dcbc
00000290: 9439 7c3b 2ca0 cabd 16dc 053d fec7 0f3d
000002a0: 6347 a5bd a892 b6bd b28d efbc f5e0 ccbd
000002b0: 9742 c4bd 54d2 15be 0030 633d 20ec 0e3d
000002c0: bf75 4d3d 86f9 de3d 2563 ef3c 18c0 a33d
000002d0: 7255 15bd e793 f23c f6cf 033d 2c85 03be
000002e0: 1fbc 0a3b 4efb 7ebd 9033 0f3e d5f1 043c
000002f0: 0c2b c13d 32f9 563d 691b f53c 06c7 0a3e
00000300: 65e7 303d 4dfe 58bd 4d59 00bd 839a 093d
00000310: 9c3e 02bc 102f aabd 367d 223d 0883 40bd
00000320: abb8 9cbc 71c1 933c b0ea f4bd 8344 18be
00000330: e038 91bd d18c 65bd 6977 21bd a784 f2bd
00000340: 8574 a6bd b525 d7bd c912 94bd c936 97bd
00000350: 994f 2ebe 6f5b df3c 19a0 34be c9b1 96bd
00000360: 3b73 f5bd c749 f63c 5aaa 633d 14f1 adbd
00000370: 234a babc 68b3 953c de90 c0bd 2b80 cdbe
00000380: dcab 01bc 69c6 d63d b466 803c 1b72 6ebd
00000390: 70d6 ecbb 3bd5 033e 8644 38bd a685 ebbc
000003a0: fa04 673d 7021 3dbd 8030 d73d cd09 c0bd
000003b0: 27ca ba3d 1215 323d bc90 b03c bc94 603d
000003c0: 2780 7fbd 38f1 793d 998d 5d3d a139 85bd
000003d0: 56a4 b0bd 8896 023c a0d2 7a3d 59e4 66bc
000003e0: 1bd4 18be 7ef7 f4bd cfe0 4d3d ffc8 05be
000003f0: 860e 9abb 3cba bfbc 9768 71bd ddb4 6fbe

lstm.weight_hh_l0 f4 [400, 100]
-0.12494067 -0.054725293 -0.07233218 -0.1333755 0.019572811 -0.124365754 -0.036361277 0.018025113
-0.1304824 -0.02246294 0.0001287951 -0.015960572 0.015329802 0.011057327 -0.15959558 0.12671298
0.0071867867 0.13352334 0.0895116 0.034734957 -0.11182053 0.03982184 0.083435595 -0.037363417
-0.036634017 0.055874538 -0.009909767 -0.15425785 0.08693908 -0.06549234 -0.0713794 0.04967483
-0.07866039 0.14298283 -0.0020690528 -0.11299118 -0.11235234 -0.08745095 0.038566306 0.066414446
0.017126799 -0.004742714 0.029865632 -0.018264176 0.065236576 0.069394894 -0.03491975 -0.01223268
0.10725107 0.11781086 0.0125910165 0.09728167 -0.09670223 -0.012820821 -0.068445034 -0.00016173585
-0.07077496 -0.0012792663 0.02554977 0.005772065 -0.0067471536 -0.00028767317 -0.0037253753 -0.026244419
0.12314867 -0.008612624 -0.13621011 -0.033530515 -0.057103466 -0.055481553 0.0011668841 -0.068682864
0.1205184 -0.046859432 -0.049200956 -0.041393843 0.09372356 0.0072105 0.035528418 0.04758086
0.04512045 0.10402868 0.1335479 -0.07189789 -0.05699754 0.03418506 0.004330294 -0.039159086
0.07905103 -0.050121065 0.11816852 -0.06242131 0.06380801 -0.0065554865 -0.116458364 0.12513472
0.0060688504 0.029633565 0.041186184 0.08041977 -0.15037774 -0.035771806 -0.18815216 -0.025762184
-0.035924826 -0.014191646 -0.041837588 -0.031573646 -0.04168133 0.02505442 -0.1110804 0.069551416
0.019802047 -0.050425075 -0.18032269 -0.017856047 0.13935383 0.22318798 0.01515803 0.0705864
-0.052171964 -0.080827564 -0.0100454185 0.017520588 0.06702801 -0.19738041 -0.026070869 -0.054097336
-0.054551028 0.042629994 -0.057101835 -0.01945443 -0.032907378 0.064608775 0.15499583 0.09513322
-0.15392688 0.037721563 -0.062757045 -0.08456282 -0.08422409 0.005977256 0.05591177 -0.020598035
0.23958893 0.0886747 -0.12058295 0.039351635 -0.00972902 0.007763689 -0.04971939 0.03891309
0.09980953 0.07435652 0.050819624 -0.0033084548 0.08687935 -0.08988075 0.0758957 -0.045332078
0.067663126 0.0726093 0.12809663 0.03407086 -0.0117265945 0.06723582 0.058144387 -0.01960087
-0.11939896 -0.08035169 -0.06414364 -0.008619495 0.077498786 0.034142345 -0.026375242 0.043643676
-0.03224039 0.13937762 -0.009296326 -0.051620662 0.002520429 -0.00042025693 0.010683025 0.072208166
-0.07898783 -0.091863185 0.11748057 -0.06999221 0.114598855 -0.08736688 -0.026568316 0.047864377
0.02300525 -0.05160926 -0.093390755 -0.047505565 -0.13684055 0.04132125 0.098492995 0.12462255
-0.0010116241 0.07636997 -0.07304649 0.18110284 -0.019230722 0.038954876 0.06636387 0.11388773
0.1571055 0.13368621 0.12745665 -0.17488351 0.13689661 0.059026167 0.14479043 -0.11648601
-0.07742002 -0.13923457 -0.059360836 -0.06336049 0.047289796 0.059846606 0.0055838516 -0.10934999
-0.041078538 -0.057273593 -0.018634876 0.100760624 -0.06880113 0.007320191 0.1039452 -0.16916806
0.113736026 0.021962235 0.032646544 0.09320068 -0.04479924 0.10593791 0.035111196 -0.19729005
0.041425835 -0.07247668 0.18865778 0.06519295 0.010869062 0.025871435 -0.033446155 0.07308269
-0.08488286 -0.118003294 -0.04885618 -0.11594132 -0.07452948 0.08834938 0.13855359 -0.0087165665
00000000: e5e0 ffbd a127 60bd e522 94bd 9693 08be
00000010: 2957 a03c 79b3 febd 90ef 14bd 67a9 933c
00000020: 2e9d 05be 3304 b8bc 2c0d 0739 bfbf 82bc
00000030: da29 7b3c ca29 353c 066d 23be 0cc1 013e
00000040: 237f eb3b 58ba 083e dc51 b73d 3e46 0e3d
00000050: 2902 e5bd 3a1c 233d 48e0 aa3d 620a 19bd
00000060: 8d0d 16bd b3dc 643d 935c 22bc c5f5 1dbe
00000070: 1e0d b23d d920 86bd 5d2f 92bd d677 4b3d
00000080: b318 a1bd 176a 123e f298 07bb eb67 e7bd
00000090: fc18 e6bd 7c19 b3bd b4f7 1d3d 4c04 883d
000000a0: 804d 8c3c c568 9bbb c5a8 f43c c19e 95bc
000000b0: c19a 853d e91e 8e3d 0308 0fbd 946b 48bc
000000c0: 73a6 db3d d246 f13d 8d4a 4e3c 9d3b c73d
000000d0: d20b c6bd 6c0e 52bc e92c 8cbd a397 29b9
000000e0: 76f2 90bd 0ead a7ba c04d d13c 9723 bd3b
000000f0: 3a17 ddbb d7d2 96b9 6d25 74bb 89fe d6bc
00000100: 5f35 fc3d f71b 0dbc aa7a 0bbe 4b57 09bd
00000110: 53e5 69bd a040 63bd 22f2 983a 9aa9 8cbd
00000120: 5ad2 f63d adef 3fbd f186 49bd 978c 29bd
00000130: 23f2 bf3d 0f46 ec3b 3f86 113d 26e4 423d
00000140: 39d0 383d fd0c d53d c8c0 083e 333f 93bd
00000150: 4176 69bd a205 0c3d 24e5 8d3b 4765 20bd
00000160: 82e5 a13d bf4b 4dbd 5602 f23d 7dad 7fbd
00000170: c6ad 823d 68cf d6bb b981 eebd 5123 003e
00000180: 35dd c63b 17c2 f23c d8b2 283d 1fb3 a43d
00000190: 9ffc 19be 7585 12bd f6aa 40be 370b d3bc
000001a0: e925 13bd 1484 68bc e45d 2bbd 5e53 01bd
000001b0: 0bba 2abd ed3e cd3c 1f7e e3bd f970 8e3d
000001c0: e737 a23c 868a 4ebd 83a6 38be d846 92bc
000001d0: c5b2 0e3e 648b 643e 6359 783c 9a8f 903d
000001e0: 45b2 55bd ec88 a5bd 8a95 24bc 5687 8f3c
000001f0: fb45 893d 171e 4abe 9392 d5bc 2b95 5dbd
00000200: e670 5fbd ca9c 2e3d 9de3 69bd e65e 9fbc
00000210: e3c9 06bd 9b51 843d 3ab7 1e3e 35d5 c23d
00000220: 029f 1dbe ed81 1a3d c486 80bd 462f adbd
00000230: ae7d acbd dcdc c33b bd03 653d 36bd a8bc
00000240: cd56 753e 159b b53d 32f4 f6bd 2e2f 213d
00000250: 7866 1fbc 8b66 fe3b 8fa6 4bbd 5563 1f3d
00000260: f068 cc3d 3b48 983d 3d28 503d a9d2 58bb
00000270: cded b13d 6613 b8bd 346f 9b3d 21ae 39bd
00000280: f792 8a3d 2fb4 943d c32b 033e e38d 0b3d
00000290: e720 40bc efb2 893d cf28 6e3d 0192 a0bc
000002a0: 7187 f4bd 6d8f a4bd be5d 83bd c838 0dbc
000002b0: afb7 9e3d d8d8 0b3d e410 d8bc b6c3 323d
000002c0: 800e 04bd 02b9 0e3e 9e4f 18bc 3070 53bd
000002d0: c82d 253b ee55 dcb9 db07 2f3c e0e1 933d
000002e0: 5fc4 a1bd c422 bcbd a799 f03d 1358 8fbd
000002f0: ceb2 ea3d 68ed b2bd cca5 d9bc 700d 443d
00000300: 8275 bc3c 3b64 53bd a743 bfbd 3295 42bd
00000310: ee1f 0cbe 7940 293d b2b6 c93d 1c3a ff3d
00000320: 7998 84ba dc67 9c3d 6699 95bd 0673 393e
00000330: bf89 9dbc 268f 1f3d c8e9 873d f83d e93d
00000340: 44e0 203e 0ae5 083e ff83 023e aa14 33be
00000350: a02e 0c3e 6cc5 713d f143 143e 3890 eebd
00000360: 638e 9ebd 8293 0ebe 5924 73bd 25c3 81bd
00000370: f2b2 413d b721 753d bef8 b63b e3f2 dfbd
00000380: f841 28bd b797 6abd 2ba8 98bc 965b ce3d
00000390: 9be7 8cbd 36de ef3b 39e1 d43d 643a 2dbe
000003a0: 6fee e83d 25ea b33c 62b8 053d 00e0 be3d
000003b0: 687f 37bd faf5 d83d c2d0 0f3d 6706 4abe
000003c0: 23ae 293d a76e 94bd 812f 413e e283 853d
000003d0: 2614 323c 55f0 d33c d6fe 08bd 61ac 953d
000003e0: 11d7 adbd b6ab f1bd 6b1d 48bd a572 edbd
000003f0: e9a2 98bd 85f0 b43d fee0 0d3e eecf 0ebc

lstm.bias_ih_l0 f4 [400]
-0.0845201 -0.10454909 -0.022002313 0.0810266 0.019172098 -0.0011013777 0.07010119 -0.046408065
5.7487356e-05 0.023840006 0.039541263 0.0341336 0.036665805 0.04140558 0.07042792 -0.012084877
-0.06842836 -0.085536405 0.04785774 -0.040533423 0.03898602 0.04028155 -0.028511623 -0.11504503
-0.09942833 -0.024245381 -0.0015604859 -0.05906801 -0.075692445 0.040295064 -0.04392104 -0.08577549
-0.0017154802 0.042566106 -0.08802757 0.0063613723 -0.08103591 -0.06753161 0.020224905 -0.08387484
0.026278248 0.07136502 0.09565001 -0.0979155 0.07434511 0.04369429 0.010278199 -0.060843892
-0.032754842 -0.09001038 -0.079438016 -0.08167871 0.046701957 -0.06558025 0.019904744 0.0057156
-0.03661138 -0.032425776 -0.018068077 -0.07443323 -0.09504665 0.010054095 -0.004914045 -0.008845213
0.019098511 -0.0015732179 0.048664305 -0.108249955 0.056197368 0.032216117 -0.022580437 -0.0468873
0.12439485 -0.06646272 -0.019891025 0.36749372 0.052421473 0.01154876 -0.080171004 0.048104756
-0.022555422 0.038886134 -0.08266083 -0.026257703 -0.086573 -0.013384506 -0.07346779 -0.014427069
-0.06109083 -0.10316696 -0.0052071153 -0.10155359 -0.104609154 0.07956659 -0.05223997 -0.07853567
0.08852909 0.12140096 -0.0754367 -0.06558684 -0.0253713 -0.009967156 0.07617409 -0.09917137
0.067685075 -0.12253534 0.024490844 -0.099795036 0.017442675 -0.09880206 -0.07619923 0.09882967
0.029817287 0.043436237 0.004906668 -0.09461569 0.049300686 0.04597158 0.04739057 0.00033418808
0.075466156 -0.054908607 -0.03290298 0.0004650895 -0.077083796 -0.07989981 -0.0393774 -0.13355412
0.08013745 -0.0496765 -0.0007403694 -0.01471901 -0.0490377 -0.005707034 -0.06724217 -0.10284443
0.11080913 -0.006776287 -0.00068110734 -0.07163444 0.03761082 0.0142132025 -0.0007416075 0.036299832
0.087843224 -0.051130403 -0.06104147 0.007982772 0.061260223 0.05400493 -0.06925941 -0.044385046
-0.061238535 0.06312228 0.10629659 0.01745081 0.10588635 -0.037680726 -0.03390091 -0.02709801
0.030256674 -0.1720519 0.032444667 -0.022668079 -0.11687036 0.03719131 -0.09010526 0.049418785
-0.0356296 -0.049166013 0.059633628 0.0046015386 0.24453157 -0.02335263 -0.14188246 0.18272148
-0.053675532 -0.031049918 0.02842784 0.039765432 -0.055802166 -0.10927972 0.050374955 0.072581716
0.08470667 -0.09458808 0.055961765 -0.037909828 -0.06822733 -0.081125565 -0.078958474 -0.08022534
0.051386643 0.076337464 0.018238148 -0.042632848 -0.022614028 -0.0059720646 0.03865027 -0.13583666
0.045491673 0.0033310659 -0.09530502 0.058052793 -0.072073646 -0.081409544 -0.12884241 0.056174222
0.026881317 0.03531945 -0.018069344 -0.086654544 -0.029981393 -0.0955689 0.026112115 0.021188723
0.08768832 -0.029733652 -0.091289386 -0.015040815 -0.031760257 -0.06843285 0.053936936 0.12700157
0.14697929 -0.05673052 -0.06853063 -0.07383361 0.010379616 0.040267058 0.014110645 0.0041706995
-0.07694934 0.0919624 0.119094014 -0.052743137 -0.11256206 0.026220404 0.0631576 -0.02402157
0.03433216 -0.031900868 0.028778039 -0.07047408 0.06488184 0.12797229 0.06889866 -0.095592275
0.049561262 -0.038599033 0.025168875 -0.048126787 -0.042540252 0.077623196 0.06425479 0.092722155
00000000: e018 adbd d51d d6bd 323e b4bc 46f1 a53d
00000010: ce0e 9d3c 1a5c 90ba 3691 8f3d 6216 3ebd
00000020: 941e 7138 1e4c c33c 05f6 213d accf 0b3d
00000030: e22e 163d e698 293d 833c 903d a6ff 45bc
00000040: 2b24 8cbd b62d afbd 7a06 443d 6006 26bd
00000050: ceaf 1f3d 44fe 243d 3591 e9bc bb9c ebbd
00000060: 15a1 cbbd 409e c6bc 3889 ccba 4cf1 71bd
00000070: a404 9bbd 700c 253d 8ce6 33bd 0fab afbd
00000080: f7d9 e0ba cc59 2e3d cc47 b4bd 0f73 d03b
00000090: 28f6 a5bd 034e 8abd b3ae a53c 92c6 abbd
000000a0: 7b45 d73c d327 923d 27e4 c33d ec87 c8bd
000000b0: 4042 983d c9f8 323d e465 283c 7237 79bd
000000c0: f129 06bd 5d57 b8bd 66b0 a2bd 2b47 a7bd
000000d0: 8d4a 3f3d f04e 86bd 460f a33c ee49 bb3b
000000e0: d0f5 15bd e4d0 04bd 8103 94bc 7370 98bd
000000f0: d1a7 c2bd eeb9 243c ff05 a1bb 83eb 10bc
00000100: 7b74 9c3c 6f34 ceba 3954 473d 27b2 ddbd
00000110: 362f 663d 0cf5 033d 9cfa b8bc e60c 40bd
00000120: bac2 fe3d 9b1d 88bd 81f2 a2bc 2328 bc3e
00000130: e6b7 563d 0337 3d3c b230 a4bd 7e09 453d
00000140: 26c6 b8bc 1147 1f3d 154a a9bd 651a d7bc
00000150: 2f4d b1bd b04a 5bbc 4876 96bd 835f 6cbc
00000160: 613a 7abd 3349 d3bd 73a0 aabb 54fb cfbd
00000170: 533d d6bd cff3 a23d 94f9 55bd 4fd7 a0bd
00000180: bd4e b53d 11a1 f83d 8e7e 9abd 6552 86bd
00000190: 79d7 cfbc 484d 23bc 2901 9c3d 5c1a cbbd
000001a0: 799e 8a3d cff3 fabd 06a1 c83c 5761 ccbd
000001b0: f1e3 8e3c bc58 cabd 580e 9cbd 3667 ca3d
000001c0: 6243 f43c 32ea 313d 1dc8 a03b dfc5 c1bd
000001d0: 84ef 493d b24c 3c3d 9d1c 423d f735 af39
000001e0: 008e 9a3d d9e7 60bd 46c5 06bd 42d7 f339
000001f0: 1cde 9dbd 83a2 a3bd 324a 21bd 69c2 08be
00000200: 1a1f a43d 9679 4bbd 5915 42ba 0128 71bc
00000210: c1db 48bd 1202 bbbb 43b6 89bd 1aa0 d2bd
00000220: e6ef e23d 9e0b debb 578c 32ba 14b5 92bd
00000230: ce0d 1a3d 7ede 683c 7068 42ba 22af 143d
00000240: 26e7 b33d 1d6e 51bd 9f06 7abd 2cca 023c
00000250: 00ec 7a3d 4634 5d3d e1d7 8dbd 18cd 35bd
00000260: 42d5 7abd 4146 813d 07b2 d93d 00f5 8e3c
00000270: f1da d83d 1b57 1abd aedb 0abd a5fc ddbc
00000280: d8dc f73c 602e 30be b3e4 043d 68b2 b9bc
00000290: ba59 efbd ea55 183d 1b89 b8bd 5a6b 4a3d
000002a0: 58f0 11bd 4d62 49bd 6442 743d 81c8 963b
000002b0: 7c66 7a3e 044e bfbc a349 11be 571b 3b3e
000002c0: e0da 5bbd 665c febc 80e1 e83c 14e1 223d
000002d0: d090 64bd 0cce dfbd f855 4e3d b9a5 943d
000002e0: b17a ad3d 65b7 c1bd 2a38 653d 5647 1bbd
000002f0: c5ba 8bbd 2925 a6bd fbb4 a1bd 2f4d a4bd
00000300: cd7a 523d d156 9c3d 2b68 953c c89f 2ebd
00000310: 0e41 b9bc 4fb1 c3bb bf4f 1e3d c418 0bbe
00000320: 7a55 3a3d 034e 5a3b 472f c3bd c4c8 6d3d
00000330: 599b 93bd 0cba a6bd 44ef 03be f116 663d
00000340: 3536 dc3c 21ab 103d 2906 94bc f077 b1bd
00000350: 8a9b f5bc a1b9 c3bd 13e9 d53c f993 ad3c
00000360: ef95 b33d fd93 f3bc eef5 babd c06d 76bc
00000370: 0b17 02bd 8626 8cbd faec 5c3d b30c 023e
00000380: bd81 163e 435e 68bd c959 8cbd 1336 97bd
00000390: 440f 2a3c 12ef 243d 5630 673c 5daa 883b
000003a0: 9e97 9dbd c856 bc3d 90e7 f33d 3009 58bd
000003b0: f086 e6bd 2ccc d63c c658 813d e2c8 c4bc
000003c0: e19f 0c3d 7caa 02bd ecbf eb3c b754 90bd
000003d0: c5e0 843d 2b0b 033e be1a 8d3d e2c5 c3bd
000003e0: c000 4b3d 051a 1ebd f52e ce3c 9820 45bd
000003f0: b03e 2ebd e9f8 9e3d 0498 833d 1de5 bd3d

lstm.bias_hh_l0 f4 [400]
-0.053644877 0.020618847 0.06263398 0.03195758 -0.014092269 -0.010430701 0.046952456 -0.07162298
-0.1341332 -0.011566315 -0.039902944 -0.010334702 0.034789268 0.009480811 0.071370505 -0.11059412
0.047461323 -0.07177907 -0.007521513 -0.06362487 0.07675924 -0.07974263 -0.008607882 -0.08242759
-0.014304471 -0.05346774 -0.10968359 0.042597193 -0.052812934 -0.009075978 -0.09841629 0.04310358
-0.049385194 -0.046464697 -0.07627173 -0.12174853 -0.06533109 -0.000962567 0.057360828 0.08194493
0.10047576 0.07685475 0.036973506 0.0023738549 0.05454745 -0.0023004562 -0.112727165 -0.111408226
0.07499168 -0.0100840805 0.041033536 0.05989216 -0.09730228 0.098060526 -0.043522492 0.003031969
0.08079682 -0.009183614 0.028786253 -0.066462696 -0.06065151 -0.122771196 0.041261412 0.035192974
0.025292777 0.057808507 0.05453682 0.03393367 -0.04803557 0.013813203 0.051477313 -0.15552156
0.13182622 -0.10219833 -0.116444 0.4166149 -0.08613385 0.023141915 -0.005642077 -0.060807873
-0.10975179 -0.10910683 0.021409918 -0.04577112 0.10244895 -0.058789242 -0.038068436 0.010188745
-0.07749089 -0.08900107 -0.060079217 -0.056361057 0.013234524 -0.013251586 -0.065470785 0.01744125
0.033777054 0.1101078 -0.056874126 -0.13260022 -0.08110553 -0.06509181 0.048840683 -0.06584953
0.0614304 -0.020744024 0.006822789 0.03759883 0.038354542 0.01463977 -0.10069468 -0.0306888
0.013185648 -0.049137883 0.0717775 0.049594034 0.0011350558 0.13125196 0.07491856 -0.12338875
0.07001133 -0.06889587 -0.01654469 0.01653047 0.063221194 0.013304578 0.05434725 -0.046415407
0.08258375 0.06421846 -0.016953407 -0.112835005 0.050365236 0.055958048 0.042723298 -0.049991272
-0.014968867 0.053154405 -0.016240984 0.07206854 0.101486765 0.07155064 0.010318334 -0.08769767
0.067596324 0.027891023 -0.09486982 0.028168913 -0.035738558 -0.08470798 -0.031239372 0.033341177
-0.10901428 0.090992674 -0.060134627 0.017753212 -0.0149806915 0.04101986 0.071445525 0.04122217
-0.04624493 -0.15799333 0.0058389357 -0.023902358 -0.090252355 0.022681296 -0.036261752 -0.098940074
0.016000647 0.06023344 -0.013779399 -0.041277096 0.23937072 -0.0793354 -0.035062153 0.18930353
-0.13008517 -0.087181956 -0.040583264 0.029525917 -0.06607873 -0.0014630894 -0.10246472 -0.05318169
0.055979054 0.0050327145 -0.062338084 -0.1090958 0.02840571 -0.06676548 -0.0026182448 0.030097356
-0.10174799 0.06396701 -0.11555576 -0.09433423 0.013129368 -0.100615315 0.018889183 -0.08254341
0.00253632 0.0018369678 -0.09242692 -0.07243972 -0.053647295 0.028702313 -0.00067151233 0.030579658
-0.055357926 0.006606323 -0.008130367 0.018772453 -0.13260752 0.013984065 -0.04838901 0.040643804
0.0050841076 0.11625008 0.07635311 0.021372596 -0.064938225 -0.11919634 0.08304716 -0.026291389
0.14235742 0.027540963 0.06986131 0.025361666 -0.05053707 -0.13651311 -0.035100985 0.010347354
-0.08804791 -0.031323478 0.00064990576 0.0065849763 -0.019368904 0.0527148 -0.052777287 -0.089269914
0.048855584 0.077036425 -0.08095339 -0.025915459 0.0214309 -0.05476536 -0.07564909 0.037526533
-0.080373675 0.038427293 0.061553624 -0.008763557 -0.037241116 0.050113283 -0.083305635 0.0023306706
00000000: bbba 5bbd dbe8 a83c 3e46 803d f4e5 023d
00000010: 43e3 66bc 88e5 2abc 3851 403d 12af 92bd
00000020: 375a 09be a480 3dbc 4571 23bd e252 29bc
00000030: 317f 0e3d 6755 1b3c b32a 923d 2c7f e2bd
00000040: ce66 423d e800 93bd 0677 f6bb c14d 82bd
00000050: f333 9d3d 1b50 a3bd 1308 0dbc cccf a8bd
00000060: 4d5d 6abc fd00 5bbd caa1 e0bd 657a 2e3d
00000070: 6052 58bd 69b3 14bc 7b8e c9bd 618d 303d
00000080: 2148 4abd c451 3ebd 5a34 9cbd 4b57 f9bd
00000090: 4ecc 85bd c754 7cba 30f3 6a3d bed2 a73d
000000a0: 3cc6 cd3d 0666 9d3d 8871 173d ad92 1b3b
000000b0: 266d 5f3d 40c3 16bb 80dd e6bd ff29 e4bd
000000c0: 3d95 993d b337 25bc c812 283d 7b51 753d
000000d0: 6b46 c7bd f5d3 c83d a444 32bd 00b4 463b
000000e0: ce78 a53d de76 16bc 26d1 eb3c 981d 88bd
000000f0: b86d 78bd 776f fbbd ba01 293d 8226 103d
00000100: cc32 cf3c 9dc8 6c3d 0062 5f3d 08fe 0a3d
00000110: f2c0 44bd c650 623c e0d9 523d 0b41 1fbe
00000120: 74fd 063e 5c4d d1bd 317a eebd 8c4e d53e
00000130: f266 b0bd 1d94 bd3c 2ce1 b8bb ad11 79bd
00000140: 8cc5 e0bd 6773 dfbd da63 af3c 7f7a 3bbd
00000150: c1d0 d13d fdcc 70bd a6ed 1bbd b2ee 263c
00000160: 8bb3 9ebd 3146 b6bd a015 76bd dada 66bd
00000170: 9ed5 583c 2e1d 59bc 8c15 86bd f4e0 8e3c
00000180: cf59 0a3d 3380 e13d d8f4 68bd 5ac8 07be
00000190: a81a a6bd db4e 85bd 2b0d 483d 1edc 86bd
000001a0: 719e 7b3d 5fef a9bc b491 df3b 3b01 1a3d
000001b0: a719 1d3d a5db 6f3c 0339 cebd 1467 fbbc
000001c0: 9e08 583c ce44 49bd 1500 933d 1d23 4b3d
000001d0: 27c6 943a ea66 063e e76e 993d 3eb3 fcbd
000001e0: 1a62 8f3d 4719 8dbd bb88 87bc e96a 873c
000001f0: 1d7a 813d 72fb 593c 399b 5e3d 151e 3ebd
00000200: ab21 a93d f884 833d dfe1 8abc 0a16 e7bd
00000210: c74b 4e3d 4434 653d a0fe 2e3d a6c3 4cbd
00000220: fb3f 75bc 6fb8 593d d00b 85bc ac98 933d
00000230: 4bd8 cf3d 2489 923d 3b0e 293c d69a b3bd
00000240: f16f 8a3d b77b e43c 1c4b c2bd 7ec2 e63c
00000250: 9862 12bd 617b adbd b6e9 ffbc c290 083d
00000260: e142 dfbd 5e5a ba3d ba4f 76bd 2f6f 913c
00000270: 9371 75bc 7104 283d 0852 923d 94d8 283d
00000280: 536b 3dbd 01c9 21be 8b54 bf3b e1ce c3bc
00000290: 3ad6 b8bd 20ce b93c 3487 14bd 18a1 cabd
000002a0: ca13 833c 57b7 763d fdc2 61bc 2c12 29bd
000002b0: 991d 753e 997a a2bd 559d 0fbd c9d8 413e
000002c0: 0c35 05be 748c b2bd a33a 26bd 56e0 f13c
000002d0: 4954 87bd 22c5 bfba 06d9 d1bd 0bd5 59bd
000002e0: 4b4a 653d 78e9 a43b 3856 7fbd 9e6d dfbd
000002f0: 17b3 e83c 57bc 88bd dc96 2bbb bb8e f63c
00000300: 4061 d0bd 2301 833d 80a8 ecbd 4e32 c1bd
00000310: 901c 573c 670f cebd 7dbd 9a3c 850c a9bd
00000320: 6338 263b 69c6 f03a 534a bdbd 475b 94bd
00000330: 44bd 5bbd 1d21 eb3c 6e08 30ba 3182 fa3c
00000340: febe 62bd db79 d83b 3b35 05bc b0c8 993c
00000350: 44ca 07be 6b1d 653c 8e33 46bd 1e7a 263d
00000360: 9698 a63b 8614 ee3d 055f 9c3d 9515 af3c
00000370: 55fe 84bd 361d f4bd a114 aa3d 0a61 d7bc
00000380: 25c6 113e 969d e13c 7213 8f3d 45c3 cf3c
00000390: f5ff 4ebd 18ca 0bbe 0dc6 0fbd f387 293c
000003a0: 7652 b4bd 0c4d 00bd 705e 2a3a c9c6 d73b
000003b0: 89ab 9ebc 79eb 573d ff2c 58bd 25d3 b6bd
000003c0: cb1c 483d 46c5 9d3d e4ca a5bd a84c d4bc
000003d0: db8f af3c a451 60bd e9ed 9abd 6cb5 193d
000003e0: f49a a4bd f065 1d3d a71f 7c3d 0695 0fbc
000003f0: 248a 18bd 9643 4d3d 259c aabd 2abe 183b
