1223-code-DL/model/encoder_without_features_state_dict.pt (torch, 47019 bytes, 8 tensors)

lstm.weight_ih_l0 f4 [120, 1]
000000 8d 4f 99 3e 3d eb 93 bf 74 2b 65 be 0f 04 14 3f
       0.29943505 -1.1556164 -0.22379857 0.5781869
000010 e5 5a ea 3e 9c 9a 97 be 7d 2d 55 3d c2 39 b1 3e
       0.45772472 -0.29610145 0.052045334 0.34614378
000020 30 f4 d9 be c4 f8 7f be af 0e 23 3f 26 ee 1a 3f
       -0.42569113 -0.2499724 0.6369428 0.60519636
000030 64 8a 4c 3e d9 7a 8f be 4d 2a 22 be 8f 46 dc 3e
       0.19974667 -0.28023413 -0.15836449 0.43022582
000040 b9 57 d4 3e 3e 09 38 3e ae 77 a3 be d6 6f 0d 3f
       0.41473177 0.17972276 -0.31927246 0.55248773
000050 6b ab aa 3e b3 d3 9d 3e 45 71 91 3d c2 57 cf be
       0.33333907 0.30825576 0.071016826 -0.4049664
000060 eb 76 06 bf fb b4 b0 3e e2 6d e4 bd 16 00 a6 be
       -0.52525204 0.34513077 -0.11153771 -0.3242194
000070 40 13 b9 3e 24 66 b5 be 05 6b a7 3d 2b ae c0 bf
       0.361475 -0.3542949 0.08174709 -1.5053152
000080 43 92 ec 3c d1 d3 13 3f 3d f9 89 3d 38 83 fd be
       0.028878337 0.5774508 0.067369916 -0.49514174
000090 29 db 21 be 31 18 ff 3e 2a 81 d8 be c5 47 d0 be
       -0.15806259 0.49823144 -0.42286044 -0.40679756
0000a0 e1 a0 eb 3e 48 69 d1 3e 19 e9 a1 3e f5 4e e1 be
       0.46021178 0.40900636 0.31623152 -0.44005552
0000b0 e8 ea 47 be 36 70 ab 3e 8e f1 ca 3d f2 05 9c be
       -0.19523203 0.33484048 0.09909354 -0.30473286
0000c0 9d 51 c2 be e6 29 cb 3e 72 1f 7f 3e 81 9c d8 3e
       -0.3795289 0.39680403 0.24914339 0.42306903
0000d0 51 27 1e 3e 8a f2 72 be 50 20 e8 be e9 c2 d0 3e
       0.15444686 -0.23725334 -0.45337152 0.40773705
0000e0 82 79 0c 3d ea c5 a4 be d7 8f 30 3e 5e de 23 be
       0.034295566 -0.32182246 0.1724237 -0.16002795
0000f0 35 15 e4 3e 94 16 3f 3f bb c1 b4 3c 2a 92 f2 be
       0.4454743 0.74643826 0.022065034 -0.4737714
000100 af e7 e3 be 0c 49 ad 3e 76 78 d5 be 06 6c f9 be
       -0.44512698 0.33844793 -0.41693467 -0.48715228
000110 4e 40 8c be 48 2c 6c be ac 1d 16 3f b1 8b 08 bf
       -0.2739281 -0.23063767 0.58639026 -0.5333815
000120 0f 39 f8 be 62 a7 2c 3e 42 f5 8d 3e 45 6f f6 3e
       -0.48481032 0.16860726 0.2772618 0.48131767
000130 e2 af d5 3e 7f 60 fd 3e 64 75 84 3e c5 9b 0a be
       0.4173575 0.49487683 0.25870812 -0.13535984
000140 2c 2e 04 3f 26 42 f9 be f3 00 d5 3e 8f 80 b1 3e
       0.5163295 -0.4868328 0.41602287 0.34668395
000150 16 58 89 3e a5 e7 0b 3e ab 0a b8 3c 2d 4b d9 be
       0.26825017 0.13662584 0.022466024 -0.42440167
000160 21 d7 a1 be b7 1a 31 be 09 be 91 3e 37 43 ad bf
       -0.31609443 -0.17295347 0.28465298 -1.3536137
000170 17 f3 61 be 38 fb ce 3e 40 c9 90 3e 55 f4 12 bf
       -0.22065388 0.4042604 0.28278542 -0.5740407
000180 19 b0 81 3d 29 02 d6 3e 5d b7 05 bf e8 ef 03 bf
       0.06332416 0.41798523 -0.52232915 -0.5153794
000190 27 80 fb 3e d5 80 2c 3f 1c 7e ce 3d aa 2e 28 bf
       0.4912121 0.6738408 0.10082647 -0.65696204
0001a0 5b 32 59 be 32 ae b6 3e 97 0f 92 3e 63 04 f8 3d
       -0.21210615 0.35679775 0.2852752 0.12110212
0001b0 57 34 19 bf 4d f4 0c bf 1a d9 16 3f 3b 70 3d 3e
       -0.5984549 -0.55060273 0.5892502 0.18499844
0001c0 64 49 57 be ea 7b 97 be 19 f9 3b bf 39 9e 8f 3e
       -0.2102409 -0.29586726 -0.7342697 0.28050402
0001d0 1c 67 6f bd 6e 57 c4 be ff 14 22 3e f8 a1 f2 be
       -0.058447942 -0.38347954 0.15828322 -0.47389197

lstm.weight_hh_l0 f4 [120, 30]
000000 21 65 6b be d8 f7 16 bf 4f 19 99 be 96 4c f8 bd
       -0.22987796 -0.5897193 -0.2990212 -0.121239826
000010 f8 1f 56 3e 95 8f 1e bf 57 95 40 bf 9f 95 e6 3c
       0.20910633 -0.6193784 -0.75227875 0.028147517
000020 dd 73 9b 3d 01 5d 6e bd 0b 61 7a be 21 8d 63 bf
       0.075904585 -0.058194164 -0.24451081 -0.8888722
000030 9e 81 92 3e 06 55 ea be 1c 9b 6c bd bd 12 72 3e
       0.28614515 -0.45767993 -0.05776511 0.2363996
000040 ed e2 20 be 24 96 30 3c 7f e4 38 be 37 bf 23 bf
       -0.15711565 0.010777984 -0.18055914 -0.63963646
000050 e3 ec c8 be 36 62 be 3e 54 51 02 3f 5a a0 4c bf
       -0.3924323 0.37184304 0.50905347 -0.7993218
000060 36 1c bd be 9d 63 8d bc 92 7b 0d bf c8 51 48 3e
       -0.36935586 -0.017259413 -0.5526668 0.19562447
000070 7f 42 c3 be 49 dd 17 be 77 46 46 bf cc 11 d5 be
       -0.3813667 -0.14830507 -0.7745127 -0.4161514
000080 ac ad d0 be e1 b4 fe 3e ff 96 fb 3e f4 29 e9 be
       -0.407575 0.49747375 0.49138638 -0.4553982
000090 e1 a9 9e bd 97 f3 e6 3e 92 e9 84 3e d0 3b c7 bd
       -0.077472456 0.4510772 0.2595945 -0.09728205
0000a0 80 b1 24 bf c2 d7 12 3e 76 05 fb 3e cf ca 86 be
       -0.64333344 0.14340118 0.49027604 -0.26326606
0000b0 a4 ab 1c be 07 f6 2d bf bc 08 c4 be 22 53 53 bf
       -0.1529985 -0.6795353 -0.38287914 -0.82548726
0000c0 ac 20 89 bd ae f9 40 bf 09 2e 53 bf 93 8d 0a bd
       -0.06695685 -0.7538098 -0.8249212 -0.033826422
0000d0 6c eb d3 be 88 93 86 be a9 7c 31 be fd 93 07 bf
       -0.4139055 -0.26284432 -0.1733271 -0.5296019
0000e0 75 e3 c0 3e 2d d2 83 3f 82 7b 4a 3e 15 7d c2 be
       0.37673536 1.0298516 0.19773677 -0.37986055
0000f0 a7 ae 89 3e 1a 14 ae bd b1 65 b1 bc 9a 30 61 be
       0.26891062 -0.08499928 -0.021654936 -0.21991196
000100 51 53 02 be 58 5c 25 3d 45 f8 19 3e 95 2d 1d 3e
       -0.12727095 0.04037127 0.15036114 0.1534942
000110 d0 3d 25 3d 6d 01 49 3e ef 71 e7 3b 28 8f 2e 3f
       0.040342152 0.1962945 0.0070631425 0.6818719
000120 d9 c8 14 3e c5 a7 01 3e 78 f0 41 bd 68 cc b4 3e
       0.14529742 0.12661655 -0.04734847 0.353122
000130 39 1b 84 be 0c 01 8a be db e7 48 bd db a3 96 be
       -0.2580202 -0.26953924 -0.04904924 -0.29421887
000140 91 0d 01 3e ef c7 94 3e 47 c1 60 3e 8c 78 45 3e
       0.12602831 0.29058787 0.2194873 0.19284266
000150 2e 6e 97 3e ec 7e 47 3e e8 8a b0 3e 0b 20 52 be
       0.29576248 0.1948201 0.34480977 -0.20520036
000160 a6 c6 0a 3f 2a 26 50 be 20 e5 7f bd 6e c5 cb be
       0.54209363 -0.20327058 -0.06247437 -0.39799064
000170 60 5e 8c bd cf 12 ea bc 01 cc 71 be 8a f5 31 be
       -0.06853938 -0.028573422 -0.23612978 -0.17378822
000180 56 62 84 3d 0a b4 75 ba fb 2a 99 3c f3 46 2f bd
       0.064640686 -0.0009372836 0.018697252 -0.04279227
000190 bc df 99 3e 6b 29 47 be 4d 9b 81 bc 42 98 1d bd
       0.30053508 -0.19449393 -0.015821123 -0.038475282
0001a0 64 6b f6 3d 41 b6 09 3e 31 b2 0f 3e ac e6 ac 3d
       0.12032202 0.1344843 0.14032818 0.08442435
0001b0 d8 de 9f 3d 9f 94 80 bc 5c 94 41 3e f5 3b 1c 3e
       0.07806176 -0.015695868 0.18904251 0.15257247
0001c0 cf b5 05 3d 6a 37 5f 3d 4f bb 54 be 1c 8f c6 bd
       0.03264409 0.054496206 -0.20774578 -0.09695265
0001d0 bb 2a 99 3c f7 b5 df bd cc a3 90 3c 19 77 ed bd
       0.018697133 -0.10923379 0.01765623 -0.11594982
0001e0 51 5a 3a 3e 3a eb 13 bf 81 3b ae be a0 02 0d be
       0.18198515 -0.577808 -0.34029773 -0.13770533
0001f0 5b 04 87 bd d1 83 bd 3d ad ef c1 be 06 0e 9f bd
       -0.065926276 0.092536576 -0.3787817 -0.07766347
000200 72 f9 92 3e 90 7b 8d be e3 7a 28 bd 74 b1 f6 be
       0.28705937 -0.27633333 -0.04113282 -0.4818226
000210 1e d2 fc bd 4a 2d 11 be b0 a4 47 3c b5 70 a7 bc
       -0.12344764 -0.14177433 0.012185261 -0.020439485
000220 fe 6c 4c bd 94 5e b8 3d 96 20 62 3e 11 ec 75 be
       -0.04990863 0.09002414 0.22082743 -0.24015833
000230 bf 0e 33 be 93 86 3a bd 2b b7 7c 3e 44 a1 17 be
       -0.17486094 -0.045538496 0.24679248 -0.14807612
000240 e3 55 b2 bd 63 9f 03 3e ce cb d3 3e c2 23 8b bc
       -0.08707788 0.1285377 0.41366428 -0.016984824
000250 bf f1 fe bd 17 ff a8 be 9a 8b e3 bd cb aa 88 3e
       -0.12448453 -0.33007118 -0.11110611 0.26692805
000260 e7 07 8c 3e f4 d2 28 bd f1 9c 4d be 71 d4 35 bc
       0.2734978 -0.041216806 -0.200794 -0.011098013
000270 2f 47 75 bc 2f 76 4d be 5c 36 a2 bd a7 1e 60 3e
       -0.014970585 -0.20064615 -0.079205245 0.21886693
000280 ca b8 57 be c8 75 03 3e 8b 76 24 3e ad c9 5c be
       -0.21066585 0.12837899 0.16060846 -0.21561308
000290 8e d7 bf 3d 75 04 97 3e 44 0d b2 3b 57 e4 2f 3e
       0.09367286 0.29495588 0.0054337103 0.17176948
0002a0 a3 44 89 be 20 62 0a be cd 15 c4 3d ff db 9e 3e
       -0.26810178 -0.13513994 0.09574471 0.3102722
0002b0 90 98 5e 3e dc a7 00 3e 25 55 ee 3d b4 04 d6 3d
       0.21737885 0.12564033 0.11637334 0.10450116
0002c0 1b 2d d4 be 11 f5 76 3e 34 48 98 3c 85 3b 00 3d
       -0.41440663 0.24116923 0.018589117 0.031306762
0002d0 ec 83 68 3d 70 43 ea 3e 7e d4 e4 3d 36 e6 bf bc
       0.056766436 0.45754576 0.11173342 -0.023425203
0002e0 b6 69 f9 bb c6 3d 8b bd 94 24 48 be 46 8c 8a bd
       -0.0076114787 -0.06798892 -0.19545203 -0.06765036
0002f0 4f 95 1a be 2c e9 0e bd 0c 48 24 be e9 64 84 bf
       -0.15096019 -0.03489034 -0.16043109 -1.0343295
000300 d5 7c 96 3e 93 b8 34 3e e7 78 8f be cb 73 2b 3d
       0.29392114 0.17648534 -0.2802193 0.041858476
000310 d3 84 8a 3d 13 e2 5b 3d 5d 61 29 be 7d 9f b2 be
       0.067636155 0.053682398 -0.16541047 -0.34887305
000320 68 50 96 be 38 84 8b 3e c3 cb 01 3f f1 ca 91 bd
       -0.2935822 0.27249312 0.5070154 -0.07118786
000330 cb 08 17 3e f2 c9 99 be ad e9 0a be 1b 59 0f be
       0.14749448 -0.30036885 -0.13565703 -0.13998835
000340 50 77 c0 be 67 d6 8c 3d 8f 02 0e 3e 16 32 a7 be
       -0.37591028 0.068768315 0.13868164 -0.326554
000350 92 68 e2 be c2 c2 01 be f9 ad 2a 3e c9 0c c9 bd
       -0.44220406 -0.1267195 0.16667928 -0.09816892
000360 b8 11 b4 be 4e 6a 09 bd 5f 26 0b bc 4b 5b cb bb
       -0.35169768 -0.033548646 -0.008493035 -0.0062059513
000370 91 3c 5b 3e 95 35 07 bf 4e a6 4a be fc a3 10 be
       0.21409823 -0.52816135 -0.19790003 -0.14125055
000380 40 ea 78 be af e1 4e be 77 67 f3 3c 5a d6 49 3e
       -0.2430811 -0.20203279 0.029712422 0.19710675
000390 0b 27 b5 b9 dc 57 7f bd 6f cd 61 3c d6 34 ca 3e
       -0.000345521 -0.06233965 0.013781889 0.39493436
0003a0 7b c3 f1 3d fd 81 0a 3d 33 a4 83 be bf ef 05 3d
       0.11804863 0.033815373 -0.25711212 0.032699343
0003b0 0f 1d c9 3d 3f f5 38 be f8 c4 07 be e5 0e 0d 3e
       0.098199956 -0.18062304 -0.13258731 0.13775213
0003c0 06 5f 9e be 90 73 ea be 64 c9 fd 3d b1 e1 ae 3d
       -0.30931872 -0.45791292 0.12391928 0.08539141
0003d0 de 5e 43 3c 15 9c bd 3d f4 ba 58 be 8e 0d 74 3e
       0.011924474 0.09258286 -0.21165067 0.23833296
0003e0 aa 36 bc 3b fd 40 78 bc 8d ea a8 be c3 01 d3 3e
       0.005743821 -0.015152213 -0.32991448 0.41212282
0003f0 3c ed 91 3b 1c 98 4e 3e e5 5c 1b 3c 78 0a ad bd
       0.0044533294 0.20175213 0.009482597 -0.084492624

lstm.bias_ih_l0 f4 [120]
000000 32 d6 6d 3e 26 59 ad 3d 89 8a 82 3d 10 3a 80 bd
       0.2322624 0.08464269 0.0637408 -0.062610745
000010 3e bc 14 3e 2b 45 78 3c d1 ad cc 3d 7c d8 fa 3d
       0.14524934 0.01515321 0.0999409 0.12248322
000020 65 93 4f be a5 ff 23 be 09 95 51 3e 47 63 e5 3e
       -0.2027107 -0.1601549 0.20467009 0.44802305
000030 52 da 08 3e 5b 1d 25 3e 65 b0 93 bd 81 0e e1 3e
       0.13364533 0.1612448 -0.07211379 0.43956378
000040 c5 c5 67 bd c2 65 40 3e 8e f4 4f 3c bb f3 05 3f
       -0.056585092 0.18788818 0.012692584 0.5232503
000050 81 6c 8a 3e 98 27 c1 3e db b2 35 3e 7a 15 20 be
       0.27035907 0.3772552 0.17744009 -0.15633193
000060 98 8e 41 be ce e4 08 bc 03 b6 ca bd 79 9c 26 3e
       -0.18902051 -0.008355333 -0.09897997 0.16270627
000070 af 21 82 bd 1a 37 b2 be 30 ed 09 3e 35 81 4b bd
       -0.06354081 -0.34807664 0.13469386 -0.04968377
000080 f4 f6 c7 3e 72 19 02 bd 15 e0 fa bd da 51 f3 bc
       0.39055598 -0.031762548 -0.122497715 -0.029702116
000090 2b 51 c6 bd 66 8d 1f bc 70 fc 10 be d6 d1 13 bd
       -0.0968345 -0.009738302 -0.14158797 -0.036088787
0000a0 58 23 b1 bd 33 8b c2 3d d8 20 1f 3e 17 3f 9a 3d
       -0.086493194 0.094992064 0.15539873 0.07531565
0000b0 a0 aa 90 bc 20 f1 2a 3e b7 68 e5 3d d0 27 af bd
       -0.017659485 0.16693544 0.112016134 -0.085525155
0000c0 d1 e6 d9 bc 51 26 b9 3e cf da 0d bd d4 a2 f5 3d
       -0.02659932 0.36162046 -0.0346325 0.119939476
0000d0 53 ad 11 3e a8 3e a9 bd 08 3a 13 be f4 6b 77 bd
       0.14226274 -0.08263904 -0.14377606 -0.060405686
0000e0 f7 32 a0 3e d2 f6 1f 3e 45 97 f0 3d 94 bc 20 3e
       0.31288883 0.15621498 0.117476024 0.15696937
0000f0 aa ea 6a bb e6 f4 6d 3d 1a 54 bc bd 01 ef e3 3d
       -0.0035845437 0.05809488 -0.091957286 0.11129571
000100 4c 4c 02 be 31 3a 9a be d8 d6 5a bd e5 e6 17 bb
       -0.12724417 -0.30122522 -0.053427547 -0.0023178395
000110 ca 88 d0 3d 94 b8 11 3e 05 06 13 3d d1 d3 72 3c
       0.101823404 0.14230567 0.035894413 0.014821009
000120 9c fb b1 bd bf 67 77 be 3d a1 87 bd 98 07 ab bd
       -0.08690569 -0.2416067 -0.06622551 -0.08351058
000130 13 b5 a8 bd 21 60 c0 3b c2 cd 91 be 5d fd ca be
       -0.08237662 0.0058708345 -0.28477293 -0.39646426
000140 ac 20 10 be b0 5c e6 3d 15 5c f2 bd 10 bd ab bd
       -0.14074963 0.112481475 -0.118339695 -0.0838567
000150 88 7f 16 be f0 65 d0 bd e5 49 00 be d9 e4 0f bc
       -0.14697087 -0.10175693 -0.12528189 -0.008782589
000160 5e e8 2a bd 99 c6 66 3d 92 e5 a8 3e e7 b5 60 bd
       -0.04172551 0.05634174 0.32987648 -0.054860976
000170 fb 13 ef 3c fa 7c 0a be 94 33 97 3e 01 ce 27 3e
       0.029184332 -0.13524237 0.29531538 0.16387178
000180 6e 55 ea 3a 71 1b 3b 3d 3c 49 76 bd 8b 60 f9 bd
       0.0017878243 0.045680467 -0.060128435 -0.12176617
000190 71 66 25 3e 98 00 15 3e 7b ad 87 bd c7 d8 6f be
       0.1615236 0.14551008 -0.06624886 -0.23422538
0001a0 69 6c 7c be 28 c6 a0 3e d0 3e 16 3e ac fc a0 3e
       -0.2465073 0.3140118 0.14672399 0.31442773
0001b0 c3 27 21 be e3 73 02 bf c3 9a 3d 3e 82 13 66 3e
       -0.15737824 -0.5095808 0.18516068 0.22468379
0001c0 55 22 3f bd 4a bc a8 3d be a9 86 be c5 fa 47 be
       -0.0466636 0.08239038 -0.26301378 -0.19529255
0001d0 ab 40 d9 be ca 2c a1 3d 72 86 41 bd dd ed 99 be
       -0.4243215 0.07869871 -0.047247358 -0.30064288

lstm.bias_hh_l0 f4 [120]
000000 b7 a3 bd 3e 3e 2c fb 3d a1 d0 81 be 97 7a 25 3e
       0.37038967 0.12264298 -0.25354484 0.16160046
000010 1a 93 6f bc 5c 55 72 bd 4a ae 8c 3e f9 1c 68 3e
       -0.014622474 -0.059163436 0.27476722 0.22667302
000020 c1 d4 0f be e9 a8 c5 bd 0b 26 a8 3e f0 64 48 3e
       -0.14046003 -0.09651358 0.32841524 0.19569755
000030 49 29 34 3e 83 4a fc 3d 7c 49 02 3d 8a 6e 96 3e
       0.17593874 0.123188995 0.03180836 0.2938121
000040 82 fd 22 3d 73 6b ad 3e e8 7b f1 3d 0b 8c f7 3e
       0.039792545 0.3387104 0.11791211 0.48349032
000050 50 f9 c3 3e 76 78 9f 3e 1f 0c 83 3d 17 7e 9a 3d
       0.38276148 0.31146592 0.06398796 0.07543581
000060 60 8f e6 3d 0e 14 2f be 68 cb 3b 3d e5 b3 69 3e
       0.11257815 -0.17097494 0.04584828 0.2282253
000070 b4 72 76 3d de 5c e2 bd fc 0b 37 be be be b2 3b
       0.060167983 -0.11052869 -0.17875665 0.005454867
000080 a7 2c 54 3e ce 3f 8d bd ed a5 3e bd ea 95 3d 3e
       0.20720159 -0.068969354 -0.046544958 0.18514219
000090 3f b6 cd bc 53 c0 66 3b 65 b6 85 be 9c 0e 53 bd
       -0.025111316 0.003520985 -0.26115718 -0.051527604
0000a0 f6 3e 11 3e 63 20 af 3e 39 2e 01 be 0a 7a b8 3d
       0.14184174 0.34204397 -0.12615289 0.09007652
0000b0 41 77 dd bd ce 76 51 bd b4 6b 61 be 11 27 62 be
       -0.108137615 -0.05113869 -0.22013742 -0.22085215
0000c0 2c 77 b6 3d e2 e2 2a 3f a8 0f bd 3d 07 04 c5 3e
       0.08909449 0.66752446 0.09231502 0.38479635
0000d0 c7 aa dd 3d be 5f 41 be 2d 4b 22 be 96 16 8f bd
       0.10823589 -0.18884179 -0.1584899 -0.0698673
0000e0 05 3a ca 3e 8e 75 b0 3e bf 0d 60 3e fb d6 44 3d
       0.3949739 0.34464687 0.21880244 0.048056584
0000f0 18 06 1f be 8e 64 54 be 05 d9 a0 bc f5 4b 88 bd
       -0.15529668 -0.20741484 -0.019634733 -0.06655113
000100 74 89 30 3e ec 64 ac bb 02 d0 6f 3e dd 4b 44 3c
       0.17239934 -0.0052610543 0.23419192 0.011980978
000110 fc 36 27 bd 00 6d 8c bc 64 a5 4e be aa 91 36 3c
       -0.04082392 -0.017141819 -0.20180279 0.011143127
000120 9b ca 50 3e 23 24 5c be c3 53 ec bc f1 99 ba bd
       0.20389788 -0.2149816 -0.028848534 -0.09111393
000130 01 50 92 3d 28 d5 08 be 15 eb e1 3c 7c 14 04 bf
       0.07144166 -0.13362563 0.027577916 -0.51593757
000140 91 ff 99 3d d3 7c 9a 3c 3a 3c 59 bd 94 2f 00 be
       0.075194485 0.018858349 -0.053035952 -0.1251815
000150 f0 73 1e be 2c b8 0a bc de 0c f6 3d a4 39 82 3e
       -0.15473914 -0.008466762 0.12014173 0.254346
000160 23 b1 b9 3c a4 b0 28 3d 4e fa 30 3e de 67 e3 3d
       0.022667473 0.041184083 0.17282984 0.111037955
000170 ef 5c 55 be fc e9 4c 3c 45 03 98 3e c0 17 49 3e
       -0.20836233 0.012506958 0.29689994 0.19637966
000180 a1 dd 2e be bc 9a cb 3d 96 32 82 bd 17 65 b8 bc
       -0.17076732 0.099416226 -0.06357305 -0.02250914
000190 1b 76 3e 3e 0b bb b4 3e 9c f6 15 3e 64 ca 5d bd
       0.18599741 0.35298952 0.14644855 -0.054148093
0001a0 8e 73 b0 3c 7c 32 a0 3e 7e d5 11 be 81 9c 42 3e
       0.021539476 0.31288517 -0.14241597 0.19005014
0001b0 71 22 bb bd 45 db 2b bf 21 13 c5 3e 14 a5 d3 3d
       -0.091374286 -0.67131454 0.38491157 0.103342205
0001c0 18 98 38 bd 85 7c a0 3d 0e 86 59 be 89 5f 88 3d
       -0.045066923 0.0783625 -0.21242544 0.06658847
0001d0 2b 58 d8 be e2 5c 64 3e 4b 5b 4a 3e 41 6a 2f be
       -0.42254767 0.22301057 0.19761388 -0.17130376

lstm.weight_ih_l1 f4 [120, 30]
000000 b7 77 62 3e 14 44 86 be a5 26 8a be 7a 4d 33 be
       0.2211598 -0.26223814 -0.26982608 -0.17510024
000010 2a 9f b9 3c a3 1b b6 3e 7b b7 54 be 89 78 d7 be
       0.022658903 0.3556796 -0.20773117 -0.4208415
000020 27 15 b3 bd fc 3b d5 3d c0 5e 9d 3e b6 b4 97 3c
       -0.08744269 0.10411832 0.3073635 0.018518787
000030 6c d8 1a be fb 1f 41 be 60 53 9c 3d f9 5b 8d 3e
       -0.15121621 -0.18859856 0.0763309 0.27609232
000040 d2 00 39 bd f6 3d b2 3e c3 64 87 bd 04 1f 53 be
       -0.045166798 0.34812897 -0.06611016 -0.206173
000050 c3 61 c0 3e 14 a5 da 3c 30 2b 51 3e 19 3f e5 3d
       0.37574586 0.026690044 0.20426631 0.111936755
000060 01 c8 d3 3d a0 62 25 3e 71 b2 97 bd c6 49 91 be
       0.10340882 0.16150904 -0.07407082 -0.28376597
000070 c0 ba 1a bc c3 b0 d1 bd fd 23 9a be 14 e8 a7 be
       -0.009443939 -0.10238793 -0.30105582 -0.3279425
000080 08 92 37 bd 34 4b bc 3d 53 66 54 3e 8e 8c a1 be
       -0.044817 0.09194031 0.20742159 -0.31552547
000090 3f fa 22 be 61 d4 38 3e b4 60 96 3e fe a1 b0 3d
       -0.15915774 0.18049766 0.29370654 0.086246476
0000a0 47 ea 18 bf dd 86 84 3d 45 15 ab 3e 8d 27 2e be
       -0.5973248 0.06471036 0.33414665 -0.17007275
0000b0 68 2b 52 be e1 02 9b be b3 0d 55 be 8f 6c b4 be
       -0.2052437 -0.30275634 -0.20806007 -0.35239074
0000c0 9c e8 0d bd df 84 7d be a0 f9 77 be 74 f4 a9 3e
       -0.03464566 -0.24757718 -0.24216318 0.33194315
0000d0 14 b8 59 3e 05 dd 95 be cc c7 26 bd 7c c5 59 be
       0.21261626 -0.29270187 -0.040717885 -0.2126674
0000e0 15 91 38 3c 8f f0 25 3c c3 5b 33 3e 3c aa 12 be
       0.011265059 0.010128154 0.17515473 -0.14322752
0000f0 9d 88 e3 3e 5a 2d 05 bf 17 14 bf be 4c 1b dd be
       0.44440165 -0.52022326 -0.37320015 -0.43184888
000100 b5 0e 70 be 8c 87 e0 3e a0 6f 09 bf 62 07 d6 be
       -0.2344311 0.43853414 -0.5368595 -0.41802508
000110 fd ef 5d 3c 52 e4 92 be 0c 00 4f 3f 4d 86 ba be
       0.013545987 -0.2868982 0.80859447 -0.36430588
000120 c6 f1 db be 44 32 8a 3e c7 35 7d 3e 2f 03 24 3f
       -0.42957896 0.26991475 0.24727546 0.6406736
000130 1c dc d0 3e 85 46 ec 3e 9f 00 bd 3e e4 b2 00 bf
       0.4079293 0.46147552 0.36914536 -0.50272965
000140 99 25 e1 3e 8a 7d f4 be 89 4e e4 3d 7d 67 80 3e
       0.43973997 -0.4775203 0.11147792 0.25078955
000150 a3 1c d5 bc 5b 9f c8 3d 3d 02 c0 3e 3c 56 64 bf
       -0.026014632 0.0979602 0.37501708 -0.89194083
000160 39 20 03 3c 69 58 cc be 14 10 a4 be f2 5e 15 bf
       0.008003288 -0.39911202 -0.32043517 -0.58348
000170 bc 22 7b 3d e0 f6 fb bc 13 92 09 3e 52 db 58 be
       0.061312422 -0.030757368 0.13434629 -0.21177414
000180 ea 3e 9c 3d 99 6e 3c 3e fe 24 55 3e 2f 7b 41 bd
       0.076291874 0.18401565 0.20814893 -0.047236618
000190 98 86 f4 be e8 c9 80 3d b5 b8 23 3e 95 76 e5 bd
       -0.47758937 0.062885106 0.15988429 -0.11204258
0001a0 3f 16 ad 3b 6f f7 0d be d1 52 43 be a9 7a 31 be
       0.005282193 -0.1386392 -0.1907456 -0.17331947
0001b0 2e ec cb bd 92 b6 e1 bd 4a 3b 86 be 54 96 f4 3e
       -0.09957157 -0.11021151 -0.2621711 0.4777094
0001c0 7b 43 99 3e 13 ee 9c be 0f 01 8c bd ea 76 19 bd
       0.29934296 -0.30650386 -0.068361394 -0.03746692
0001d0 b8 20 88 be bd 43 27 3d 20 82 ea bb c8 27 65 bd
       -0.26587462 0.040836085 -0.0071566254 -0.05594614
0001e0 80 40 10 3e 8f 33 11 be 71 e3 7c be 81 85 43 3d
       0.14087105 -0.14179824 -0.24696137 0.04773474
0001f0 6f 2d 8d bd 1a d8 4c 3e 45 ce 90 3d 9c 35 fc bd
       -0.068934314 0.20004311 0.07070593 -0.12314913
000200 84 7f c8 bc 0b 2f 20 be b4 1c e1 3d 86 7a 1b bd
       -0.024474867 -0.15642945 0.10991803 -0.037958644
000210 ec 15 35 bd 99 d8 18 3e 09 06 0c 3e c6 42 58 3e
       -0.04421036 0.14926375 0.13674177 0.21119222
000220 7a a7 16 be d4 4b e2 bd 09 9c f6 3d fd af 30 be
       -0.14712325 -0.11049619 0.1204148 -0.17254634
000230 3d 73 96 3e 49 57 33 bd 08 b9 f6 3d dd 56 a4 bd
       0.29384795 -0.043784413 0.12047011 -0.0802438
000240 e0 d6 88 3d e0 ae 9a 3d 18 c8 07 3e a9 b8 8c be
       0.06681609 0.07552886 0.13259923 -0.27484635
000250 c3 02 18 3d 38 b3 bd 3d 3d 1b 33 3e d3 48 71 bf
       0.03711201 0.09262699 0.1749086 -0.94251746
000260 29 39 be be f3 f8 b7 be 20 b1 d7 3c 96 99 2e 3e
       -0.37152985 -0.3593212 0.026329577 0.17050776
000270 a5 f1 bd be 38 13 08 be 74 b7 2b 3d 5a 99 70 bd
       -0.37098423 -0.13288581 0.041923 -0.058739997
000280 49 29 e7 3e dc f3 10 bf 1d 54 3c be e9 4f 01 3e
       0.45148686 -0.566221 -0.18391462 0.1262814
000290 ac 2b 89 3d a4 1c 94 3e 5b a5 9f 3c 9f 3e af 3e
       0.06697783 0.289281 0.019488027 0.34227464
0002a0 78 15 61 ba 07 f5 df bd 82 01 9c 3e 37 ef 18 3e
       -0.0008586268 -0.10935407 0.304699 0.14935003
0002b0 e3 6b f6 3d 67 68 d2 bd 33 6a 4b bd d5 95 89 3e
       0.120322965 -0.102738194 -0.049661826 0.26872125
0002c0 1e 21 ef 3d 9d 20 c5 bd a5 1a ca be 98 de 6f be
       0.116762385 -0.09625361 -0.39473453 -0.23424757
0002d0 e8 1d c7 3d 27 e8 a6 be 05 79 24 be 03 02 c4 bd
       0.09722501 -0.32598993 -0.1606179 -0.09570696
0002e0 dc 8e 35 be 75 e1 10 3e 44 33 09 be 9e 55 7c bc
       -0.17730278 0.14148505 -0.13398463 -0.015401272
0002f0 1a ce a7 3d f1 4d 27 be 4e 6e 23 3e b7 95 4d 3d
       0.08193608 -0.16338326 0.15960047 0.050191607
000300 7c 15 6d 3d 01 a0 fa bd 04 b1 c8 3d 8c e8 b9 3e
       0.057881817 -0.122375496 0.09799388 0.36310232
000310 06 e8 04 3e 53 34 ab 3e 46 d2 3f 3e 09 77 f1 bd
       0.12979135 0.33438358 0.18732557 -0.11790282
000320 e8 98 6d 3e b7 8a 4e 3e ae ab 0b 3e f0 ef 25 bd
       0.2320286 0.20170103 0.1363971 -0.040512025
000330 65 3d b8 bd b3 76 ee bd a3 f9 4e 3d b4 c2 0a be
       -0.08996085 -0.11643734 0.05053104 -0.13550836
000340 19 ad c2 3d cf 9f f6 bd 38 c3 01 3f ca 0d 4d bf
       0.09505672 -0.120422 0.50688505 -0.80099165
000350 b6 e5 2e bf 1e 1d be be 2e c3 17 be f2 58 a4 3e
       -0.6831926 -0.3713159 -0.14820549 0.3209911
000360 c8 e9 f3 be 3f bb 9c be f9 88 fb 3d a3 c8 79 bd
       -0.47639298 -0.30611607 0.12281985 -0.060982358
000370 b8 85 1d 3f ce a2 21 be cd 4f d1 be 8b 50 33 bd
       0.61532164 -0.15784761 -0.40881196 -0.043777984
000380 ae 3d 8b bd f2 d9 bb 3e a2 fd bc 3e e5 f5 81 3e
       -0.06798874 0.36689717 0.36912256 0.25382915
000390 7f 5e 4e 3d 1f 48 96 bd 87 ca 0c 3f b1 61 36 be
       0.050383087 -0.07337975 0.5499653 -0.17810704
0003a0 d6 ee 65 3c 0e 26 85 3e e4 52 e2 bd b4 ef 9a 3e
       0.014033994 0.26005596 -0.110509664 0.30261004
0003b0 1a 44 7f 3e 94 25 9c be 74 3a 8b bd c0 91 91 be
       0.24928322 -0.3049742 -0.067982584 -0.2843151
0003c0 85 12 60 be ce 2e f9 be 1b da 84 3d 5f e5 9d 3d
       -0.21882065 -0.48668522 0.06486913 0.07709765
0003d0 46 78 7e 3d 66 c5 19 3c 4c 48 2f be 22 a8 33 3e
       0.06212642 0.009385442 -0.17117423 0.17544606
0003e0 7a 19 66 3e f6 69 84 bc ad 47 74 be 03 3c a0 be
       0.22470656 -0.016163807 -0.23855467 -0.31295785
0003f0 04 ae 88 3c a2 e1 ee bc 1c cb 0d be 67 c9 5f 3c
       0.01668454 -0.029160324 -0.13847011 0.013658858

lstm.weight_hh_l1 f4 [120, 30]
000000 24 b7 29 be c8 91 57 be 38 9a 85 be e5 fe 87 3d
       -0.16573769 -0.21051705 -0.26094222 0.06640414
000010 f6 1d f2 bd 1a 71 09 3e 8d da e3 bd c4 e0 76 3e
       -0.11822121 0.13422051 -0.1112567 0.24109179
000020 35 f9 2c be 14 5f 51 be 89 a2 e8 3e 1b fd ae be
       -0.1689194 -0.20446426 0.45436504 -0.3417748
000030 f2 e9 f8 be cb c9 9c 3e bf 6a ae be 1b 8e 10 3e
       -0.48615986 0.30622706 -0.34065816 0.14116709
000040 db 7d 84 bd 20 26 8a 3d 5e 68 6e 3e 7f 96 ee 3c
       -0.064693175 0.06745553 0.23282 0.029124497
000050 d6 26 3c 3e 7d cb 52 be d7 78 07 3e ca 21 4e 3e
       0.1837419 -0.20585437 0.1322969 0.20130077
000060 c7 ea 8a 3a 61 a2 45 3e 32 26 43 be be 17 1a be
       0.0010598534 0.19300224 -0.19057539 -0.1504812
000070 5b 32 0c bd 03 2a 8c bc 2d 64 a0 3c 7a 9d 30 be
       -0.03422771 -0.017109876 0.019579018 -0.17247573
000080 5c 44 61 3b de 1d 37 be 63 fc d1 3b 03 2d 8d 3d
       0.003437302 -0.17882487 0.0064082607 0.06893351
000090 82 5c a4 bd cb 10 9f bb 22 5e 10 be f6 51 16 be
       -0.08025457 -0.004854297 -0.14098409 -0.14679703
0000a0 92 7e 86 3e 04 f0 4e 3d 60 e6 8c be a1 f9 40 3e
       0.2626844 0.050521865 -0.27519512 0.18845226
0000b0 6a 4a 00 be 5e 27 d4 3c d9 29 c3 bd be 38 4d 3e
       -0.12528387 0.025897678 -0.09529466 0.20041177
0000c0 e9 91 a8 3e be ec 0e be 04 be 0d be 02 b1 73 bc
       0.3292382 -0.13957497 -0.13842016 -0.014873745
0000d0 e4 9b 8b 3e 63 63 5c 3e 93 e5 57 be 00 a6 df be
       0.27267373 0.21522288 -0.2108367 -0.43681335
0000e0 0b f7 a4 3c 9b 17 7e be 01 e7 ef bc 61 c0 82 bd
       0.02013733 -0.24813692 -0.029284956 -0.063843496
0000f0 93 22 19 bf 7b 77 f2 be ef 82 4e be a9 e7 8c be
       -0.5981838 -0.4735678 -0.20167135 -0.27520493
000100 01 22 71 be 30 cd 83 3e 62 53 5a bd c0 f4 07 3f
       -0.23548128 0.25742483 -0.053302176 0.53107834
000110 3c f1 ff bc e8 23 72 be 06 e2 70 3f e3 7f 3e 3c
       -0.03124296 -0.2364651 0.94094884 0.01162717
000120 a6 b1 99 bf f8 90 41 3f 0c 23 3e bd 49 01 85 3e
       -1.2007339 0.7561183 -0.046420142 0.25977543
000130 2d 6e 89 be 3b 99 00 3e b1 84 6b 3e 5b 8a 0f bf
       -0.2684187 0.12558453 0.22999837 -0.5607049
000140 ce ca 0d 3f e1 c5 b7 be 72 99 c3 3e 4f b7 3a 3e
       0.5538758 -0.35893157 0.38203007 0.18233989
000150 5d 96 f1 be b6 a1 7b 3e 31 14 dc be b2 a0 45 bf
       -0.4718503 0.24573407 -0.42984155 -0.77198327
000160 2e 7f 1b be fd a6 b8 3d c2 7a ca be cc 15 9b bd
       -0.15185234 0.090162255 -0.39546782 -0.07572517
000170 d0 1a 81 be 3c 79 18 be 37 f2 d9 3d d3 72 8c 3e
       -0.2521577 -0.14889997 0.10641902 0.27431354
000180 18 ba ab bd ad cc 52 3e fc e8 c7 3d d4 18 80 3d
       -0.08385104 0.2058589 0.09761235 0.062547356
000190 57 1d 93 3e b9 6f a6 be 7f b0 4f be 72 ee 15 3f
       0.28733322 -0.32507113 -0.20282172 0.58566964
0001a0 e6 c8 ac 3d 85 e4 17 3d f7 b1 ac 3d 20 85 02 3a
       0.08436756 0.037083168 0.084323816 0.00049789436
0001b0 f5 b9 4d 3e c3 1e 8b 3d 1d 43 8c be b0 e9 21 be
       0.20090468 0.06792977 -0.27394953 -0.15811801
0001c0 96 ea b1 3d fa 3d c6 3e 84 5f 8d be 97 f1 d1 be
       0.08687322 0.3871916 -0.27611935 -0.4100463
0001d0 27 4c be 3d 64 58 a8 be d6 d6 7a bd cd f6 17 be
       0.09291869 -0.32879937 -0.06124004 -0.14840241
0001e0 3b f8 1f be 89 da 21 be ed 45 1d be 5e 67 b9 bd
       -0.15622036 -0.15806021 -0.15358706 -0.09052919
0001f0 65 82 a8 bd 4b 86 47 3e 8d f6 3c bd f3 08 32 3e
       -0.08227996 0.19484822 -0.046133567 0.17386226
000200 04 21 26 3d 98 bc df bd 3f aa 0d 3f 9d c0 7f be
       0.04055883 -0.10924643 0.553379 -0.2497582
000210 58 59 fa be 46 94 b9 3e da 27 70 3d b2 51 31 bd
       -0.4889629 0.36245936 0.058631755 -0.0432908
000220 c5 9d 86 be 91 64 17 3e 2e 4b c7 3e e4 f7 ca be
       -0.26292244 0.14784457 0.38924545 -0.3964225
000230 ab 80 f9 3d 41 07 74 3b ef fb 82 3e 67 2a 1a 3e
       0.121827446 0.003723577 0.25582835 0.15055238
000240 e4 9a 5e be 3c 00 24 3d d2 d6 a8 be 21 2e ba be
       -0.21738774 0.040039286 -0.32976395 -0.3636332
000250 4c 6f fe bc c6 9a b6 bd 11 0e b1 be 94 4d 3c 3d
       -0.03105893 -0.089162394 -0.34581044 0.04597242
000260 63 3a fe bd 20 de ec bd 5f 05 a9 be 34 a2 aa bc
       -0.1241348 -0.115658045 -0.3301191 -0.020829298
000270 77 64 e9 bc 12 81 8c 3e 25 69 e1 3d a8 65 16 be
       -0.028490288 0.27442223 0.11006383 -0.14687216
000280 3b 89 21 3f 5b 36 af 3d 74 02 f7 be 05 87 0a 3f
       0.6310002 0.08555289 -0.4824406 0.54112273
000290 92 b0 ac 3d a2 a0 dc 3b f9 71 43 3d 72 3c 83 3e
       0.084321156 0.006733016 0.047716115 0.25632054
0002a0 2d 0e e7 3b d4 87 49 be 1f 71 14 3c 5d 70 72 be
       0.0070512504 -0.1968072 0.009060173 -0.23675676
0002b0 cd 0a d5 3d 67 34 54 3d 6e bf 90 3d 95 0a 9f be
       0.10402451 0.051807787 0.07067762 -0.3106276
0002c0 47 84 c5 bd 3c ad de be fc d9 fc bd 62 65 4f 3d
       -0.096443705 -0.43491542 -0.12346265 0.050633796
0002d0 d5 e2 fa be 67 1d 90 be a8 3e a4 bd d5 e3 b4 bc
       -0.49001184 -0.28147432 -0.08019763 -0.022081295
0002e0 6b 89 42 bd b8 e5 ad 3c 65 5c 87 bd ef 46 c5 3e
       -0.047494333 0.021227702 -0.0660942 0.3853068
0002f0 7e cd ac 3d 29 8e aa 3d c6 29 28 3f a9 83 fd 3d
       0.08437632 0.08327896 0.6568874 0.12378628
000300 31 5f f3 be fc ff 24 3f 61 94 8f 3d fd 8f ef 3a
       -0.47533563 0.644531 0.07010723 0.0018277165
000310 85 5a 14 3d ec 29 e3 bc d4 72 25 3e 10 df 8e be
       0.03621914 -0.02772995 0.16157085 -0.27904558
000320 64 40 af bd f7 c4 60 be 6f 7e 20 3e 0a 68 26 3f
       -0.085572034 -0.21950136 0.1567323 0.650025
000330 b1 15 2f bf 06 2b e6 bb 27 b6 8c be 24 2c b4 be
       -0.68392473 -0.0070241718 -0.2748272 -0.35189927
000340 27 19 a3 bd 74 84 2b 3d 0f 4c fe be 65 ad 91 be
       -0.07963782 0.041874364 -0.49667403 -0.28452602
000350 14 a7 a0 be a3 bb 89 bd a7 86 b1 3d a4 db 2a 3e
       -0.3137747 -0.06725242 0.08668261 0.16685349
000360 28 36 67 be 3e b9 f7 3e 03 b0 92 3c bc 1f 3f be
       -0.22579253 0.48383516 0.017906195 -0.1866445
000370 ea d6 ee 3e 39 56 b1 bd eb de 15 bf c6 67 3c 3f
       0.4664834 -0.08659024 -0.5854327 0.73595846
000380 7b 53 a2 3d 09 b3 b3 3e c9 5c bb 3d fc 4c 24 3d
       0.07926079 0.3509753 0.09148557 0.04011248
000390 01 bb 04 bc 30 42 d1 bd 69 ce 3a be e0 f5 b9 be
       -0.008101226 -0.102177024 -0.18242802 -0.363204
0003a0 dd c3 3e 3e 29 96 ff 3d b4 2c 82 be 2d 5e 28 3e
       0.18629403 0.12479813 -0.2542473 0.16442175
0003b0 63 d0 37 be 1e df c2 be bc 13 8d be f1 5c 1b 3d
       -0.17950587 -0.3806085 -0.2755412 0.037930433
0003c0 ec 00 ba bd 76 42 c8 bd 7e bf 62 be 4b 0f c3 3d
       -0.09082207 -0.097783014 -0.22143361 0.09524401
0003d0 3a cd 09 be fc 57 06 3e 52 67 41 3e af 74 80 3d
       -0.13457194 0.13119501 0.1888707 0.06272256
0003e0 ed d0 09 3d 69 34 1d 3c 34 41 68 3e b2 72 92 be
       0.033646513 0.009595015 0.22681123 -0.2860313
0003f0 57 f6 ee bd 55 5a d1 3e 54 64 69 bd 5e 6c ec bd
       -0.11668079 0.4088923 -0.056980446 -0.11544107

lstm.bias_ih_l1 f4 [120]
000000 28 a7 a7 ba 71 dc 79 bc 08 be 0a 3e a1 0e f1 bd
       -0.0012790905 -0.015250311 0.13549054 -0.11770368
000010 ed b6 a1 bd 02 c5 b3 3d 70 35 e6 3c 5c 75 83 3e
       -0.078962184 0.08777811 0.028101653 0.25675476
000020 9f d8 ad bd 96 de 9c bd 09 70 b7 3e 26 8d 95 bd
       -0.08488583 -0.076596424 0.35827664 -0.073023126
000030 a3 3b 26 be ba 8e 05 3e 1a 80 3e 3d e7 69 90 3d
       -0.16233687 0.13042727 0.046508886 0.07051449
000040 24 f2 2f bd 8d 39 0b 3d 11 b6 18 be 92 78 97 bd
       -0.042955533 0.03399043 -0.14913203 -0.07396044
000050 b8 63 d7 3e 32 6e 61 3e 54 c3 5f 3d 9f 9f 3a 3c
       0.42068267 0.22014692 0.05462964 0.011390596
000060 9f 59 33 3c ad 03 28 3f 45 1a 7c be 7a 8e b5 be
       0.01094666 0.6563061 -0.24619396 -0.35460263
000070 44 ee e7 3d 24 6d 32 3e 85 4e 40 be 8f 81 ce 3d
       0.113247424 0.17424446 -0.18779953 0.10083305
000080 23 0f 08 bf 48 14 6c bd 44 86 17 bd a3 af 72 3d
       -0.53148097 -0.05763653 -0.03699328 0.05924953
000090 dc 85 20 be e8 b8 6f be cc 3d c4 be 4d f1 67 be
       -0.15676063 -0.2341038 -0.38328397 -0.22650643
0000a0 42 8a 89 be 55 31 32 be 71 7e c5 be eb 61 0d 3e
       -0.26863295 -0.17401631 -0.3857303 0.13806884
0000b0 6b e8 44 be f2 2b 93 be 5a 1c 77 3e 67 ca 57 bd
       -0.19229285 -0.28744465 0.24131909 -0.05268326
0000c0 47 66 e4 be 66 81 62 be a3 04 c1 bd 03 ff dd 3d
       -0.4460928 -0.22119674 -0.094247125 0.10839655
0000d0 da a6 a4 bc b6 8c 17 3f 13 07 cc be 61 65 41 be
       -0.020099092 0.5919908 -0.39849147 -0.18886329
0000e0 27 47 a0 be 61 12 86 be 20 3a 72 bd 75 35 f7 3c
       -0.31304285 -0.26185897 -0.059137464 0.030176857
0000f0 a0 d2 7f 3d dd 77 09 3d 9f 64 05 3d 88 88 3e 3d
       0.062456727 0.033561576 0.032566663 0.046516925
000100 a3 2f 17 3c 76 36 92 bd 52 12 9e bd e2 67 5a bd
       0.009227666 -0.07139294 -0.07718338 -0.053321727
000110 a9 47 31 be c1 64 b2 bc 5d f5 a2 3d 0f 78 42 3d
       -0.17312492 -0.021776559 0.079569556 0.047477778
000120 70 08 5a 3c a7 19 4f be 22 e5 c9 3b 49 3b f1 bd
       0.013307676 -0.2022463 0.006161348 -0.11778886
000130 2a 0e 70 3d 16 d7 d3 3d 2b d0 cc bd 94 c2 10 be
       0.058607258 0.10343759 -0.100006424 -0.14136726
000140 54 48 17 be cc d3 d5 bd 87 36 36 be be 4b 11 bd
       -0.14773685 -0.10440788 -0.17794238 -0.035472624
000150 1e c6 11 3d e8 fc bd 3d e1 52 65 3b be 8a 8c bd
       0.03558933 0.09276754 0.0034992027 -0.068624005
000160 a1 c8 fa bd 4d d4 8d 3d fc 30 a5 bd 25 49 61 bc
       -0.12245298 0.06925259 -0.08065984 -0.013750349
000170 77 b8 58 be 6b df be 3d 37 0d 44 be 91 97 e7 3d
       -0.21164118 0.09319957 -0.19145666 0.11308206
000180 bd 51 0a bd d6 b2 42 be 57 30 8b 3d ba 80 b2 39
       -0.033769358 -0.19013533 0.067963295 0.00034046714
000190 b3 83 89 be cf c5 56 be 13 17 1a 3e 3f fd ba 3d
       -0.2685829 -0.20973895 0.15047865 0.09130334
0001a0 33 c3 0f bb 2b 96 9f bd 1b 3f 9b 3d b3 eb 96 bd
       -0.0021936416 -0.07792314 0.07580396 -0.07369175
0001b0 7f a8 88 bd 50 d4 90 3c aa e1 13 3f 50 62 f8 bd
       -0.06672763 0.017679363 0.5776621 -0.121281266
0001c0 79 37 d9 3a 8e 0c 99 3c 61 cc 79 3e 86 1c ee bd
       0.0016572318 0.018682744 0.2439437 -0.11626534
0001d0 a0 ad 6d 3e 5b 2a 07 bf 6c 67 83 3e eb ed e6 3d
       0.23210764 -0.52799004 0.25664842 0.11275848

lstm.bias_hh_l1 f4 [120]
000000 36 37 5c 3c 34 59 83 bd 51 0d 2e bd aa 54 2d be
       0.013440898 -0.064134985 -0.04249317 -0.16926828
000010 9f 20 13 3e b2 97 38 3d d5 f0 0e be bb 8f 02 3d
       0.14367913 0.045066543 -0.13959058 0.031875353
000020 da e0 70 be 29 21 9e 3d c5 20 35 3e 74 3b 54 3e
       -0.23523274 0.077211685 0.17688282 0.20725805
000030 1a 24 9c bd 4e ae 51 bd 6c e0 da bc 16 30 27 3e
       -0.07624073 -0.05119162 -0.02671834 0.16326937
000040 49 c4 f0 bc 23 79 27 bc f8 5d 27 bd 2f 6c a5 bb
       -0.029390471 -0.010221752 -0.0408611 -0.005048297
000050 18 16 16 3f 1a 0a 26 3e 08 82 7e 3e fc e9 7f 3d
       0.5862746 0.16214791 0.2485429 0.062479004
000060 32 09 fc bc 54 b6 13 3f 0c 67 d4 bd 33 b6 6f bd
       -0.030766103 0.57700086 -0.10371217 -0.058523368
000070 87 30 67 3c e1 50 00 bd 9b bb cd bc f5 8c 1b be
       0.014110691 -0.031327132 -0.025113871 -0.1519049
000080 f4 6a 27 bf b7 40 d1 bc b1 74 03 be 91 bd 13 be
       -0.6539757 -0.025543554 -0.12837483 -0.14427783
000090 80 f0 89 be 12 89 bd bb 3f 05 01 be a3 5c d0 bd
       -0.269413 -0.0057841623 -0.12599657 -0.10173919
0000a0 3d 68 49 be 40 0b 8f bc a2 a2 2e be 05 f3 93 3e
       -0.1966867 -0.01746142 -0.17054227 0.28896347
0000b0 ed 3f 03 be 96 22 1c be d3 3f 29 bd 9e ad 2f 3e
       -0.12817355 -0.15247568 -0.041320633 0.17156073
0000c0 54 c7 d0 be a8 d9 89 be ff a7 4d be 4f 9b 0d be
       -0.40777075 -0.2692387 -0.20083617 -0.13828777
0000d0 e2 e2 8d be 1b c7 a9 3e 18 c4 80 be 31 8b 5f be
       -0.2771216 0.33159718 -0.25149608 -0.21830441
0000e0 9d 68 6e bc 18 06 a9 be b4 45 4a be 5a 36 d7 bd
       -0.014551309 -0.33012462 -0.19753152 -0.105084136
0000f0 e3 29 86 3b 01 48 87 bc 03 62 65 3d b8 f6 e5 3b
       0.0040943488 -0.016513826 0.056001674 0.0070179366
000100 72 1e 8d 3d a4 50 7b 3d d6 7c f2 3d c4 4a d6 bd
       0.068905726 0.0613562 0.11840217 -0.10463479
000110 77 74 1d 3e 9c 17 7d 3d c3 84 aa bd 18 22 d6 bc
       0.15376459 0.061790094 -0.083261035 -0.026139304
000120 ed 11 be 3d 18 29 bb 3d b8 31 76 3c 8f d8 fd 3d
       0.09280763 0.091386974 0.015026502 0.12394821
000130 79 a9 5f be 05 7a 47 3c fc 06 97 3d 92 c1 e7 3d
       -0.21841992 0.012175088 0.07374379 0.113162175
000140 25 cf 4b bc 51 9d a8 3d 8f 10 93 bc 33 82 08 3e
       -0.012439524 0.08233131 -0.017952232 0.13330917
000150 5d 13 20 3d 18 23 19 bc fc 4d 8c bd 6e 38 6b 3e
       0.039080966 -0.009346746 -0.06850812 0.22970745
000160 b1 c7 dd 3d dd f7 08 bd 94 da a7 3d e1 12 9e bd
       0.10829104 -0.033439506 0.08195987 -0.077184446
000170 22 11 db be 1a 51 d9 3d 28 4b 05 be 3a 61 33 be
       -0.4278651 0.10611172 -0.13016951 -0.17517558
000180 86 3e 1a be 3c d2 4b 3d 59 bf 99 3e 1f 1b fa bd
       -0.15062913 0.049761042 0.300288 -0.12212204
000190 4a eb 9e be 0a 4f 42 be d2 75 72 3e 5c 2e dd 3d
       -0.31038886 -0.18975464 0.23677757 0.10799858
0001a0 d9 ce 31 be 5f f0 93 3a b3 ab 52 be 7e f8 18 3e
       -0.17364062 0.0011286846 -0.2057331 0.14938542
0001b0 2f 2c 32 3e 57 e2 71 3d 6b 35 5e 3f 06 58 68 3d
       0.17399667 0.059053745 0.8680026 0.05672457
0001c0 fa 37 11 bd aa 9a b9 bd 91 47 e2 3d 10 45 8d 3d
       -0.035453774 -0.09062703 0.110488065 0.06897938
0001d0 03 82 61 3e 3c f5 a8 be 05 5c 70 3d b1 8d 02 3e
       0.22022252 -0.329996 0.058681507 0.12749363
