1223-code-DL/model/GRU_A_Step_state_dict.pt (torch, 668737 bytes, 17 tensors)

gru.weight_ih_l0 f4 [384, 16]
000000 c7 bf 20 be ce ed b1 bd ed 29 85 bd b8 9d 24 be
       -0.15698157 -0.08687936 -0.06502137 -0.1607579
000010 95 91 07 3d 5d 8c 8d bc c8 ab d7 bd 46 6e 07 bd
       0.033097822 -0.017278844 -0.105308115 -0.03306415
000020 d4 de 1c be aa ab 9e bd f3 d3 c7 bd ac c1 0e be
       -0.15319377 -0.07747586 -0.09757223 -0.13941067
000030 50 41 22 be 24 c9 f4 bd 55 7d 73 3d 38 30 ae be
       -0.15845227 -0.11952427 0.059445698 -0.34021163
000040 79 90 56 be ad 89 63 be 2f 1f 2a be 05 4d f9 bd
       -0.2095355 -0.22220488 -0.16613458 -0.121728934
000050 36 6f e8 bd 12 b9 26 be c8 24 c2 bd 5d f6 b9 be
       -0.11349337 -0.16281536 -0.09479672 -0.36320773
000060 a2 21 6f be 10 5d e1 be 63 20 19 be 4d f7 ce be
       -0.23352674 -0.44016314 -0.14953761 -0.4042305
000070 98 1a d3 be c9 95 27 be 5b b8 57 be 3d 59 e4 be
       -0.41231227 -0.16365732 -0.2106642 -0.44599333
000080 f8 54 0a be fe fb 6d 3c f7 7e dd 3d 7d c0 d5 3b
       -0.13508976 0.014525412 0.10815232 0.0065231905
000090 e2 20 25 be 52 b3 86 bd 30 15 05 ba c2 3a 0d be
       -0.16125825 -0.065771714 -0.00050767045 -0.13791946
0000a0 0d 03 a1 3d 24 10 97 bd 7b b1 85 bd ab d3 66 3d
       0.0786191 -0.073761255 -0.06527992 0.056354206
0000b0 f5 9f b8 bd 26 bc d6 bd e7 a9 70 3d 6b c7 e9 bc
       -0.090148844 -0.10485105 0.05875578 -0.028537473
0000c0 ba 2f e5 bd 86 f0 2f be a2 50 8e be 82 6b 69 be
       -0.11190744 -0.17181596 -0.27795893 -0.22794917
0000d0 98 a3 1f be 76 fa 8e be 95 31 3f be 18 41 22 be
       -0.1558975 -0.27925462 -0.18671258 -0.15845144
0000e0 27 29 7c be 77 f7 f3 bd ab 59 87 be a3 a6 6a be
       -0.24625073 -0.119124345 -0.264356 -0.2291513
0000f0 49 fb 6d be 76 0e 43 be e8 34 11 be f7 cc 2d 3f
       -0.23240389 -0.19048485 -0.14180338 0.67890877
000100 49 24 45 3e 0b c5 a7 bd 8f 3c a8 be a9 91 bb bd
       0.19252123 -0.0819188 -0.32858703 -0.09158642
000110 02 6e eb 3d 5e 1d 35 3e d0 0e 23 bd 1e 14 e7 3d
       0.11495592 0.17686984 -0.03980905 0.11283134
000120 59 87 18 be 1f 38 92 bd 87 fa 50 be 28 6d 92 bd
       -0.14895381 -0.071396105 -0.20408069 -0.07149726
000130 b0 c9 f7 bd da 61 b0 3d 35 69 1a bd 1d 16 d2 be
       -0.12099016 0.08612414 -0.03769799 -0.41032496
000140 84 31 01 be 52 28 7c 3d 6d 9b 57 3e 2a 05 01 bd
       -0.12616545 0.06156189 0.21055384 -0.031499065
000150 c5 1e b5 3c 1c 07 5f be bb 46 00 3e 0d de d0 3c
       0.022109399 -0.21780056 0.12526982 0.025496507
000160 29 49 f1 bd 45 90 c4 bd 83 60 0e be d6 b9 a3 bd
       -0.11781532 -0.0959783 -0.13904004 -0.0799443
000170 74 f1 63 bb b9 d8 66 3d b3 4a 39 be 23 ee 97 be
       -0.0034781368 0.056359027 -0.18094902 -0.2967387
000180 28 23 ff bd dc e5 88 3d 4d ba 15 be 50 ba 54 3d
       -0.124578774 0.06684467 -0.1462185 0.051935494
000190 c2 f1 b2 3c 8c 6e 8d bd 2c 6d 0c 3e b7 e1 01 3e
       0.021843795 -0.06905851 0.13713521 0.1268376
0001a0 c6 f8 88 3d c8 51 ac bd cc a5 bc bd 97 cd 02 3d
       0.06688075 -0.08414036 -0.09211311 0.031934347
0001b0 41 57 b6 bd 22 b4 9b 3d b5 76 0e 3d af 2b 2d bf
       -0.08903361 0.07602717 0.034781177 -0.6764478
0001c0 2d c1 33 bd bc 08 8e bd 2b a2 29 3c ca 14 21 3d
       -0.0438854 -0.0693526 0.010353605 0.039326467
0001d0 27 9f 03 3e fb 61 3e bd bc d1 a0 bc 0b 40 ce bd
       0.1285368 -0.04648016 -0.01963126 -0.10070809
0001e0 00 7b 07 be 90 16 e2 bd bd 2c fe be 74 68 32 be
       -0.13230515 -0.1103946 -0.49643508 -0.17422658
0001f0 7e 9c 22 be 6d 9c 82 bd 4f b9 0a be cf 16 98 bf
       -0.1588001 -0.06377492 -0.13547252 -1.1881961
000200 f5 5d 01 3e 3d 45 f4 3c 5e 18 44 3d 7e 13 15 3e
       0.12633498 0.029818172 0.0478748 0.14558217
000210 15 67 86 bd 48 05 ad 3d ce 11 9a bc 1f 11 30 3e
       -0.0656263 0.08448273 -0.018807318 0.17194031
000220 7e 76 22 3e fd 84 05 3e 54 0c be 3d 59 6d 44 3e
       0.15865514 0.13039012 0.09279695 0.19182338
000230 ef ef 3b 3e 4a 88 2b 3e cb 68 03 3e 41 8e c0 bb
       0.18353246 0.16751209 0.12832944 -0.005876333
000240 c3 ea 31 be d2 30 41 be e8 43 4f be d5 9c 94 be
       -0.1737471 -0.1886628 -0.20240748 -0.29025903
000250 af f1 02 be fb d7 47 be 96 35 48 be 01 f8 f7 be
       -0.12787507 -0.19515984 -0.19551691 -0.484314
000260 a3 47 1a be b4 fc 98 be 38 08 c8 be f3 3e 35 be
       -0.1506639 -0.29880297 -0.3906877 -0.17699794
000270 b1 63 8c be da bb 0e be 77 ef 7b be 33 14 3c bf
       -0.27419809 -0.13938847 -0.24603067 -0.7346832
000280 12 cf c6 3c 7e c7 d3 bd 48 d9 20 bd 73 4a 89 bd
       0.02426866 -0.103407845 -0.039269716 -0.06703653
000290 fb 8f f6 3c bd fe 88 3c 8e ad 65 bd 41 45 14 3d
       0.030097952 0.016723031 -0.056073718 0.03619886
0002a0 eb 77 7d bc c1 60 42 3d b7 a5 c4 bd 83 f8 04 3d
       -0.015470485 0.047455553 -0.0960192 0.03246356
0002b0 5f 68 67 3d d8 13 d2 bd 8a 48 57 bd cb 83 bb bd
       0.05649602 -0.10257691 -0.052559413 -0.09155997
0002c0 6b 58 cf bd 1a c7 4b be 76 ef c8 bd d6 fa c7 bd
       -0.10124286 -0.1990017 -0.098112985 -0.0976464
0002d0 4e 2e a2 bd 90 19 e7 bd 6c 55 95 be 4a c6 de bd
       -0.07918988 -0.112841725 -0.29166734 -0.108776644
0002e0 8e d7 1c be db fe f3 bd bb 2e 1c be 5f f1 0a be
       -0.15316603 -0.11913844 -0.15252201 -0.13568638
0002f0 ad e3 eb bd 23 ff 8d bd b6 61 c4 bd f9 11 fd 3d
       -0.11518035 -0.06933429 -0.095889494 0.12356944
000300 e3 c5 9c be e2 e8 89 be 04 74 fc bd a4 b0 2d be
       -0.30619726 -0.26935488 -0.12326816 -0.16961914
000310 9e f9 31 be 36 25 7e be ca 1d 3a be 1f e0 4e be
       -0.17380378 -0.24818882 -0.18175426 -0.20202683
000320 f0 c5 e5 bd 0d 36 8b bd de 54 ea bd 14 2b 19 be
       -0.11219394 -0.06797419 -0.114419684 -0.14957839
000330 bf 25 05 be 88 19 af be 56 2f 76 be b3 f7 0d be
       -0.1300268 -0.34199166 -0.24041495 -0.13864021
000340 28 d7 c5 bd b6 fb 1b be 47 ef 12 3d e9 15 ba bd
       -0.096601784 -0.15232739 0.035872724 -0.0908621
000350 20 28 3e ba ba 61 90 bb f4 2e bd bd 50 cd f9 bc
       -0.0007253904 -0.004406181 -0.09237471 -0.030493408
000360 d6 77 be bd d1 81 a7 3d 48 76 93 3d da 8a 9e bc
       -0.09300201 0.081790574 0.07200295 -0.019353319
000370 b1 40 07 be 02 d2 0e bc bb 9f 27 bd 75 2c b4 be
       -0.13208272 -0.008717062 -0.040923815 -0.35190168
000380 8b 38 54 bd 8f a3 f7 3c fa c3 1f 3e a0 e3 66 bd
       -0.051811736 0.030229358 0.15602103 -0.056369424
000390 04 28 4d 3c bd 22 08 3d 49 20 cb bc c7 1d b1 bd
       0.0125217475 0.033236254 -0.024795668 -0.08648258
0003a0 66 4e 06 be 5e 5b 0a 3e 8c a2 45 be 62 1e a5 bd
       -0.13115844 0.13511416 -0.19300288 -0.08062436
0003b0 27 bd f3 bd 6b 38 95 bc 38 88 25 bc 4c be 11 be
       -0.11901312 -0.018215379 -0.010103278 -0.14232749
0003c0 80 de 18 bd 91 7c 5a 3d 48 24 b2 3c 28 45 bf 3d
       -0.037321568 0.053341452 0.021745816 0.093393624
0003d0 93 41 ba bd ed 6f be 3d ec 3a 07 3e 83 02 9d 3e
       -0.090945385 0.09298692 0.1320607 0.3066598
0003e0 87 97 bb 3d 5d 2a 3a 3d b9 7e de bd e4 85 97 3d
       0.09159761 0.045450557 -0.10864014 0.073985845
0003f0 88 d0 b6 3d 16 cc e4 3d 4a 73 10 3e 49 fa a5 3e
       0.08926493 0.11171739 0.1410648 0.32417515

gru.weight_hh_l0 f4 [384, 128]
000000 1d 98 ca 3b 2f d2 19 3e f0 d3 e0 3d 00 6e 93 bc
       0.006182684 0.15021585 0.10977924 -0.017996788
000010 50 7f 7d bc b9 9c 99 3d fd 6c 09 3e e1 ea 81 3e
       -0.015472248 0.075005956 0.13420482 0.2537451
000020 a3 ca 21 be e4 07 c6 3d 57 c1 89 bd 6b ab 42 bd
       -0.15799956 0.09669474 -0.0672633 -0.04752676
000030 93 9e 5e be a8 74 0e 3e a4 cd 72 bd 29 60 96 bd
       -0.21740179 0.13911688 -0.059278145 -0.0734256
000040 02 84 6f bd 3e f5 47 3d 96 1f 65 bd df a2 84 bd
       -0.0584755 0.048817866 -0.055938326 -0.06476378
000050 21 92 0e be bd f1 cf bd d5 24 8d bc 7c 16 67 3c
       -0.13922931 -0.1015353 -0.017229477 0.014104482
000060 b6 a3 88 bd 3c bf 63 bd f6 6e 04 be 45 57 00 3e
       -0.066718504 -0.055602297 -0.12932953 0.1253329
000070 27 bc 04 3a 59 d2 97 bd 51 13 6a bc ec 50 c3 bd
       0.0005063437 -0.074131675 -0.014286832 -0.09536919
000080 25 95 15 3c 63 11 ce bd 13 a2 72 bd d5 bf 96 3d
       0.009129797 -0.1006191 -0.059236597 0.07360808
000090 68 87 ec bd c9 ee 77 bd 42 96 27 be 27 a3 0b 3e
       -0.11549264 -0.060530458 -0.16365913 0.13636456
0000a0 b9 d3 a3 3d 59 41 57 3b fa f3 09 3d f6 d3 61 bd
       0.07999367 0.0032845347 0.03367994 -0.055133782
0000b0 d9 ff c1 bd 77 f6 05 bb 99 9b 6e bd 5c ca 07 3d
       -0.09472627 -0.0020441094 -0.05825386 0.03315197
0000c0 bb 45 ae 3d 89 2a ce 3b 29 8f 3e 3c 5e 97 ed bd
       0.08509394 0.0062916917 0.011630812 -0.116011366
0000d0 e1 a8 52 bd bf 8a ca 3d a9 f5 df 3d c9 4c b8 bd
       -0.051430587 0.09889745 0.10935528 -0.089990206
0000e0 d6 64 3b 3d f6 a0 c6 3d 75 f4 da 3a 00 04 12 3e
       0.04575046 0.096986696 0.0016704934 0.14259338
0000f0 5b f8 9c bc 9b 11 78 3d 50 59 de bd 5d a1 b4 bd
       -0.019161394 0.060563665 -0.10856879 -0.0881984
000100 a4 e1 7f 3c c9 7f 1e 3d b8 8b 10 be 43 64 19 bd
       0.015617762 0.038696084 -0.14115798 -0.037449133
000110 d3 d5 1b 3d d4 ce 4d bd 28 b7 6b bd f5 82 e9 3d
       0.038045716 -0.050246075 -0.05754772 0.11401931
000120 2f 8a 0c 3e ba c2 a4 bc df 8b 4b 3e 3b 2c be bd
       0.13724588 -0.020112384 0.19877575 -0.0928578
000130 b0 22 12 3e 0f 4b 3a 3d 4c 39 af 38 58 ac 02 be
       0.14271045 0.045481738 8.355323e-05 -0.12761056
000140 39 a3 0d 3e 95 f1 f3 3c a3 fd 0f be 26 8a db bd
       0.13831796 0.029778281 -0.14061598 -0.10719709
000150 15 e6 97 3b 70 9e 5e bc 59 18 be 3d d6 39 63 bd
       0.004635582 -0.013587579 0.09281988 -0.05547508
000160 81 06 8c bb a4 e1 72 3d 50 68 1a bd 58 7f 84 3d
       -0.0042732363 0.05929722 -0.037697136 0.064696014
000170 74 33 a8 3c 09 03 9d 3d 86 77 db bd e3 e0 dd bc
       0.020532347 0.076665945 -0.10716157 -0.027084773
000180 d1 23 49 bd 92 e9 18 be d7 2f 12 3c a8 7a ed 3d
       -0.049106423 -0.1493285 0.008922539 0.115956604
000190 48 6f 0a 3d 5a 5b 1a 3e 83 59 19 3d 43 11 ac 3d
       0.033797532 0.1507391 0.03743888 0.0840173
0001a0 df 63 49 3c ff de c7 ba 60 9d 74 bd 73 3f 32 3e
       0.0122918775 -0.0015248953 -0.059720397 0.17407016
0001b0 93 f2 ca 3d bf 03 b8 bd 71 e9 48 3d 9a fc 13 3e
       0.099095486 -0.089850895 0.049050752 0.14451829
0001c0 de 72 07 3e ea 44 97 bd f0 f9 15 be f3 93 cb 3c
       0.13227412 -0.07386191 -0.14646125 0.024850821
0001d0 9e b0 07 3e 7a de 80 3c 07 29 ef 3c bf 35 39 bd
       0.13250968 0.015731085 0.029194368 -0.045217272
0001e0 8f fa 3e bd 43 86 46 bd e7 eb 18 be 4b 9b 14 bd
       -0.04662567 -0.048467886 -0.1493374 -0.03628091
0001f0 aa 72 32 3d 3c 0c 56 3d 16 98 69 3d 6b 5d 0f 3e
       0.043566383 0.05225776 0.057029806 0.1400048
000200 1e 11 e9 bd 5d a3 09 bd aa 59 27 be 27 e8 2a bc
       -0.11380218 -0.03360306 -0.16342798 -0.010431326
000210 58 8c 9f 3e 8e 78 a1 3d 2e 60 f4 3d cf fe d2 bc
       0.3116176 0.07884322 0.11932407 -0.025756268
000220 7d d6 67 be 43 3a e0 bc 39 49 28 be f2 f8 f4 bb
       -0.22640415 -0.027371531 -0.16434182 -0.0074759657
000230 39 2b 7c bd d2 7d 06 3e 3d 40 2e 3e 38 94 49 be
       -0.061564658 0.13133934 0.17016692 -0.19685447
000240 71 c6 1d be 1f b0 e0 bd 97 b0 e8 bd 72 66 7c bd
       -0.1540773 -0.109710924 -0.11361807 -0.061621137
000250 a3 c8 ce 3e 72 8c 49 be c8 b0 aa bd 5a 21 ef bd
       0.4038745 -0.19682482 -0.083344996 -0.11676283
000260 8d bd 79 be c7 3b b3 bd 6c 79 d0 ba d0 f6 c9 3d
       -0.24388714 -0.08751636 -0.0015905327 0.09861529
000270 db 66 8f 3d 8d f1 de be b2 f6 05 3e 3c 5c 9f bc
       0.0700204 -0.43543664 0.13082388 -0.01945316
000280 20 56 3a be 73 cb 20 be ef 30 ea bd 0d b9 45 3e
       -0.18196917 -0.1570261 -0.114351146 0.19308873
000290 d7 a8 90 bd 2f 66 70 3c d1 f2 93 be 3a a8 8d bd
       -0.07063454 0.0146728 -0.28896192 -0.06916852
0002a0 f7 cd c7 be 09 f3 a1 bd 3e fa 6e 3c 71 a7 9a be
       -0.39024326 -0.079076834 0.01458603 -0.30205873
0002b0 90 35 37 be a7 bc 90 bd 03 02 0a 3e 52 f4 9e bd
       -0.17891526 -0.070672326 0.1347733 -0.07761444
0002c0 3f 67 04 bd de d6 be bb 16 0b f0 bd 87 13 1e be
       -0.032325026 -0.005823954 -0.117208645 -0.15437137
0002d0 ec 82 d3 3d b0 ea 9f 3c 18 99 67 bd b5 88 fb 3e
       0.10327706 0.019521087 -0.056542486 0.49127737
0002e0 f7 69 60 3e 94 0c 89 3d eb c4 9f bd 51 d3 41 3e
       0.21915422 0.06691852 -0.07801231 0.18928267
0002f0 80 94 fb 3d 4e a0 e7 3d e9 5b 91 be 23 20 22 bd
       0.122841835 0.113098726 -0.28390434 -0.03958143
000300 b9 ec d6 bd 19 48 d9 3b 6c 0d c8 bd 76 75 10 3e
       -0.1049437 0.006630909 -0.09768185 0.14107308
000310 8c cb 52 3b 22 d3 10 be ee 41 b7 bd 49 4e 9a bb
       0.003216478 -0.14143041 -0.08948122 -0.0047090393
000320 d6 8f 3f 3d 96 48 b0 bd 97 83 38 be 2e a1 ec be
       0.046768032 -0.08607595 -0.18018948 -0.4621672
000330 61 8b 05 3e c3 da 90 3d a5 36 9a 3c eb a7 8b 3d
       0.1304145 0.070729755 0.018824885 0.06819137
000340 75 f1 b2 3d 4d b7 9f bd 85 02 3f 3e df ec 24 3e
       0.087374605 -0.07798634 0.18653305 0.16105984
000350 6f fd 80 3c 33 d4 8c 3d b5 f1 4c 3d 84 49 48 be
       0.015745847 0.06876411 0.050035197 -0.19559294
000360 6d 50 0d 3e f2 97 da 3d 8a 02 ec 3e c3 f8 a4 bc
       0.13800211 0.106735125 0.46095687 -0.02013815
000370 22 1c 4c 3d 95 c3 1d bc e0 3b 32 3d 32 b6 bf 3c
       0.049831517 -0.00962915 0.043514132 0.023402307
000380 69 eb ec bc 16 34 9a bd 3d bf b4 bd 8c 6b 12 be
       -0.028920846 -0.07529466 -0.08825538 -0.14298838
000390 62 84 0a 3d 53 86 98 3d 9f 91 6d be a3 fe 0a 3e
       0.033817656 0.07447495 -0.23200081 0.13573699
0003a0 f8 cf 2d 3d 5b a5 9e 3d e3 ed 4a be 95 d3 a8 bb
       0.042434663 0.07746383 -0.19817309 -0.0051521757
0003b0 e2 2f c6 3b 5a 9a 1c 3d 68 ee 42 3e 09 a8 b6 3b
       0.0060481885 0.03823314 0.19036257 0.0055742306
0003c0 18 80 b2 3d b9 73 79 bd ca 99 00 be e0 9d 62 3d
       0.08715838 -0.060901377 -0.12558666 0.055326343
0003d0 c0 0a a5 3c 0b 15 34 bc 8a 27 e6 3c 63 c2 c4 3e
       0.020146728 -0.010991345 0.028095026 0.38429555
0003e0 b8 26 c1 3e 1d 7f 01 bc 44 a1 cd be 7e 2d a1 bd
       0.37724853 -0.007903841 -0.40162098 -0.07870005
0003f0 4a b1 1e 3d 26 0b e8 bd c1 ec d3 bb e8 c8 81 bd
       0.038743295 -0.113302514 -0.0064674322 -0.06337148

gru.bias_ih_l0 f4 [384]
000000 28 a5 5d bd 2e c0 0f be ff 8d 86 bd 96 8a 14 be
       -0.054112583 -0.14038154 -0.06570052 -0.14505991
000010 8a 8b c8 bd 17 d7 9a bd 95 d2 5d 3d 1d ef d9 bc
       -0.0979224 -0.075605564 0.054155905 -0.026603276
000020 9b e2 9b 3d 70 4a 27 be f3 82 76 bd 8a 16 86 bd
       0.07611581 -0.1633699 -0.060183477 -0.06547268
000030 fd 94 0d be b1 ef 28 bd 90 75 ca bd 99 26 13 bd
       -0.13826366 -0.041244213 -0.098857045 -0.03592548
000040 5f cf 86 be 64 2b 4f bd 4c 1f a3 bd 91 c2 a7 bd
       -0.26330087 -0.05057849 -0.07964954 -0.081914075
000050 8b 57 d0 3d d6 c5 98 bd aa 4f d5 bd a3 69 0f 3d
       0.101729475 -0.07459609 -0.10415585 0.035012852
000060 e4 12 84 bc 31 0d c3 bd 39 91 51 3b 31 67 ee bd
       -0.016122289 -0.095240004 0.0031977429 -0.11640776
000070 0a a1 a8 bc 3c c9 19 be 1c 37 27 3d 36 d9 8e bd
       -0.020584602 -0.15018171 0.04082404 -0.069750234
000080 5e f6 9d bb 25 6c 55 bc 33 6c c1 bd d2 e4 a5 bd
       -0.004820629 -0.013026272 -0.094444655 -0.08100285
000090 05 b2 4b bd 3e 2b 9b bd 9c 85 70 bd 7b d3 ee bd
       -0.04973032 -0.07576607 -0.05872117 -0.116614304
0000a0 8e 85 11 be 34 dc 8c 3b b9 0b e1 bd 43 d5 5e bd
       -0.14211103 0.004298711 -0.10988564 -0.0544026
0000b0 07 e2 ca 3c 9e 06 13 be 2b b9 8e 3d c7 69 67 be
       0.024765981 -0.14357993 0.06968912 -0.22598945
0000c0 5c d4 ed bd 0c 68 d6 bd d9 cd de bd 53 01 9b bd
       -0.1161277 -0.10469064 -0.10879106 -0.07568612
0000d0 3e 88 e3 bd cd a1 06 bd bb aa ee bc 82 0c 9f be
       -0.111099705 -0.03286915 -0.029134145 -0.3106423
0000e0 82 20 cf 3c 5d 34 d0 3c 89 29 c9 bd b4 28 84 3d
       0.025284056 0.025415594 -0.09822375 0.06453076
0000f0 2e 31 42 be a0 54 39 bd 4c ce 87 3c f8 54 95 bd
       -0.18964073 -0.04524672 0.016577862 -0.07291597
000100 34 70 18 be d9 1a 0e be 97 c0 15 bd 1f 8a 76 bd
       -0.14886552 -0.13877429 -0.03656062 -0.060190316
000110 8a db 91 bd 34 c4 d0 3b 29 6e e7 bc 9e 58 9d bd
       -0.07121952 0.0063710455 -0.02825077 -0.07682918
000120 f1 7e 6b be fe 97 c7 bc 70 e8 82 be 41 bd 9d bd
       -0.22997643 -0.024364468 -0.2556796 -0.07702113
000130 78 f1 10 3d 1b 3c cc bd e5 43 ca bd c9 ca d7 bd
       0.035386533 -0.09972402 -0.09876231 -0.10536725
000140 ec 46 23 be 17 bf 03 be a9 54 06 bc c3 10 be 3d
       -0.15945023 -0.12865864 -0.0081988955 0.09280541
000150 6d d1 a4 bb 88 90 6d ba d3 59 7b 3d f5 db a6 bc
       -0.0050298483 -0.00090623694 0.06136496 -0.020368556
000160 d2 f5 d4 bb 0e 98 3b be ef ad ee 3c 9d df e9 bd
       -0.0064990306 -0.18319723 0.029135672 -0.11419604
000170 bd d1 8c bd 18 63 07 bd da 33 8e 3d 3a 71 f4 bd
       -0.06875942 -0.033053488 0.06943484 -0.11935659
000180 95 20 31 bd 8b c2 e4 bd 16 40 6e 3d 85 4b 2b be
       -0.043243963 -0.111699186 0.058166586 -0.16728027
000190 6a 3a 47 bd b2 97 e4 bd a6 ec 28 be 90 52 06 bd
       -0.048639692 -0.11161746 -0.16496524 -0.03279358
0001a0 d6 03 af 3c c9 b2 a1 bd 06 6c 1d bd 26 6c f3 bd
       0.021364134 -0.07895429 -0.038433097 -0.11885862
0001b0 eb bf 92 3d 4b 67 37 be 8b 1c 0e bd 17 2a 68 be
       0.07165512 -0.17910497 -0.03469519 -0.22672306
0001c0 8c 7d 08 be 3f 7d f8 bb 14 bf 76 be ee 10 0d be
       -0.13329142 -0.00758329 -0.24096328 -0.1377599
0001d0 c2 fc 93 bd 5c 36 8c bc 5d 6e 35 be 54 0e a1 bd
       -0.07225944 -0.017115764 -0.17717882 -0.07864061
0001e0 01 18 a6 3d d4 c1 78 bd ff a5 3d 3d ae 92 0c be
       0.08110047 -0.060731724 0.046300884 -0.13727829
0001f0 ad 8d 0b be da fb 45 be ca 24 2c bd 1c 28 10 be
       -0.13628264 -0.19334355 -0.042027272 -0.140778
000200 af 6e bf 3d 90 0f a1 be 94 fe d2 3e b8 b5 df be
       0.09347283 -0.31457186 0.41209853 -0.43693328
000210 ac 91 91 3e be 1c cd 3d 60 54 04 bc 33 25 a1 bd
       0.2843145 0.10015248 -0.008076757 -0.07868423
000220 07 75 3f 3e 71 fa 85 be 2b cf 32 3e 99 37 98 bb
       0.18696986 -0.26167634 0.17461841 -0.0046452996
000230 76 10 b2 be 31 6a b4 3d 3f 6c 85 3e 46 6d ae bd
       -0.34778184 0.08809317 0.26059148 -0.08516936
000240 25 50 34 be ec 97 4f 3e 04 88 3e 3d a2 4d 77 3e
       -0.17608698 0.20272797 0.046516433 0.24150708
000250 f7 28 af 3e 9b 6f 24 be d8 d7 71 3e 1a 81 8d 3e
       0.3421094 -0.16058199 0.23617494 0.2763756
000260 37 f6 7f bc d6 e8 d5 3e e2 21 cc 3d 03 cc bd bc
       -0.015622667 0.41779202 0.099674 -0.02316857
000270 41 b4 61 3e 16 fc b7 3e 9a d5 72 3e cc f8 7c 3d
       0.22041418 0.35934514 0.23714295 0.06176071
000280 cd b8 39 3e 63 17 3a 3e c1 34 7e 3e 7f d5 ca 3d
       0.18136902 0.18172984 0.24824812 0.099040024
000290 5e 25 9d 3e 0c 21 0c bf e9 06 bb 3d 86 34 b1 3d
       0.3069257 -0.54737926 0.091321774 0.08652596
0002a0 99 31 4b 3d 05 46 b7 3e 3e 82 65 3e 7a 15 34 3e
       0.049607847 0.35795608 0.22412965 0.17586318
0002b0 76 6a 88 bc c7 fb 90 bd 9d 5a 53 3e f2 ff fc 3d
       -0.016652327 -0.07079273 0.20640035 0.12353505
0002c0 f0 4f b5 3e b8 af fc 3d 54 79 7f 3e 3f 5e 3a 3e
       0.3541255 0.12338203 0.24948627 0.18200015
0002d0 dc ad 1f 3e 90 6c 19 3e 0d d4 e4 3d 22 36 96 3d
       0.15593666 0.1498282 0.11173258 0.07334544
0002e0 5d 86 bc 3d b6 3b 0f 3d a8 cb 4c 3e 82 aa 7f 3d
       0.09205315 0.034969054 0.19999564 0.06241847
0002f0 10 3a 8d 3e c6 23 8a 3d c5 69 a6 3e 47 28 ee 3d
       0.2758336 0.067451045 0.3250257 0.11628776
000300 cb 14 4c 3e 99 4d 31 3e 8a 87 3d 3e 9f 22 5c bd
       0.19929807 0.17314757 0.18508735 -0.053743955
000310 23 e9 9d 3e e1 ff e7 3d 5a 02 b9 3e 22 44 27 3e
       0.30841932 0.11328102 0.36134607 0.16334584
000320 d3 6b 14 3e 10 3f 13 3e 29 db 31 be 8a 3e a8 3e
       0.14494257 0.14379525 -0.17368759 0.32860214
000330 14 e7 21 3e d1 a3 16 3e 00 ce 93 3e 18 a6 fe 3c
       0.15810806 0.14710928 0.28868103 0.031085059
000340 e6 3f 37 bf 30 48 18 bf ec 9a 92 3e 49 20 60 3e
       -0.71581876 -0.5948515 0.2863382 0.21887316
000350 92 ab 88 3e 9f 79 5a 3d 85 c3 22 3e 04 30 a1 3e
       0.26693398 0.053338643 0.15894897 0.31481946
000360 9a fc f4 be d2 f3 ab 3d da 37 d2 3e 33 fb 25 bf
       -0.4784897 0.083961144 0.41058236 -0.64836425
000370 42 e6 b3 3e 66 53 20 3e ff c6 23 3e 3c 27 87 3e
       0.3513661 0.15656814 0.1599388 0.2639712
000380 d3 a8 c2 3e b2 64 02 bf 1a 09 95 3e 94 7e a1 3e
       0.38019428 -0.509349 0.29108506 0.31541884
000390 76 cb 81 bc 09 57 9f be e6 87 cf 3e 14 d4 9f 3e
       -0.015844088 -0.3112109 0.4053337 0.3121649
0003a0 ae b0 5c 3e 9e bd b3 3e d1 ae d7 3d 31 bc d7 be
       0.21551773 0.35105604 0.105313905 -0.42135766
0003b0 b4 8d f0 3d 89 47 37 bf 75 9f 4f 3e 43 20 da 3d
       0.11745778 -0.7159353 0.20275672 0.10650685
0003c0 7f f4 82 be 34 e4 98 3e df 59 81 be 0d 88 0d bd
       -0.2557716 0.29861605 -0.2526388 -0.034553576
0003d0 07 e1 a1 bd 3c 00 5b 3e 6d 0e e5 be a4 82 a6 be
       -0.07904249 0.21386808 -0.44737568 -0.32521546
0003e0 b8 69 e4 3d fc 3f 49 3e 1b d4 16 3e a2 e7 3b 3e
       0.11152977 0.19653314 0.1472935 0.1835008
0003f0 eb 7e 48 3e d6 9f 31 bc c6 90 8b 3e 16 d2 0c 3e
       0.19579665 -0.0108413305 0.2725889 0.13752016

gru.bias_hh_l0 f4 [384]
000000 37 44 22 bd 6f b0 82 be 7a b6 a8 bd 57 5d dc bd
       -0.039615836 -0.25525233 -0.0823793 -0.10759991
000010 af d8 d3 bd d9 a0 00 be 40 a3 35 3d 02 b8 30 be
       -0.103440635 -0.12561359 0.04434514 -0.17257693
000020 b3 de 9c 3d c1 67 33 be 7f 2f ba bd eb c9 9a bc
       0.07659664 -0.17520048 -0.090910904 -0.01889511
000030 a2 d6 63 be 1b e6 95 bc 67 bb 0d be 7a 2a 25 3d
       -0.22249845 -0.0182982 -0.1384102 0.040323712
000040 e7 0f 14 be b7 e9 69 3d 2f 0d 84 bd d7 03 58 3d
       -0.14459191 0.057107653 -0.06447827 0.052738037
000050 8b 85 c9 bb 22 3b 1a be 4b a6 d3 bc be f7 bf bc
       -0.0061499528 -0.1506162 -0.02583613 -0.023433562
000060 f7 32 81 3d fc 24 b5 bd dd f1 04 be d3 a3 00 bd
       0.06308549 -0.08844945 -0.12982889 -0.031406235
000070 66 1f 44 bd 35 37 24 be 81 45 09 3d 24 1e 56 be
       -0.047881506 -0.16036685 0.03351355 -0.20909935
000080 0c d9 04 be 49 fc ac 3c 12 e6 43 3d 52 f9 b2 bc
       -0.12973422 0.021116393 0.047826834 -0.0218474
000090 de 00 0d be 3a c8 ca bd 35 38 3a 3a 97 c6 52 be
       -0.13769862 -0.099014714 0.00071037124 -0.20583569
0000a0 ba 06 7a be 80 c9 fd bd 97 89 e7 39 23 02 86 3d
       -0.24416628 -0.12391949 0.00044162266 0.06543376
0000b0 14 cd cb bd a8 f7 a6 bd 7a b4 4b bc 39 ac 98 be
       -0.09951225 -0.081527054 -0.012433166 -0.29818895
0000c0 24 35 0a be de c5 50 bd a6 5d 19 be 0a dd 8c 3d
       -0.13496834 -0.05096995 -0.1497713 0.06878097
0000d0 62 04 2e bd cd cb 5c bd a9 e4 15 3d 72 51 ac be
       -0.04248465 -0.053905297 0.03659502 -0.33655888
0000e0 a9 3a 3f ba c4 b4 29 bd 6a 69 db bd 5a 15 7f bd
       -0.0007294813 -0.041432157 -0.107134655 -0.06227622
0000f0 e5 1a f4 bd b9 95 1e bb f6 a5 ba bd 53 d9 9e 3c
       -0.11919192 -0.0024198128 -0.09113686 0.019390738
000100 84 1c 2e be 93 0e 0d bd 7e ed 3f be 2e 18 11 be
       -0.17003065 -0.034437727 -0.1874294 -0.1416938
000110 56 51 bc 3c 62 a7 0c be 8b 0f 50 bd 9c e8 c2 bd
       0.022988003 -0.13735726 -0.050796073 -0.09517023
000120 e8 ac 61 be 80 d0 05 be 54 4c ad be 0a a4 04 bd
       -0.22038615 -0.13067818 -0.33847296 -0.032383002
000130 8e 99 8f 3c 90 4a 07 be 47 ab 3d 3d 4f 18 f0 bd
       0.017529275 -0.13212037 0.04630592 -0.117233865
000140 f4 e0 2e be 31 04 1a be 3d 60 0f be e1 ab c4 3d
       -0.17078 -0.15040661 -0.14001556 0.09603096
000150 39 d2 d9 3c 52 b2 ff bb 2a 6a 6c 3d 35 95 1f bc
       0.0265895 -0.00780324 0.057718433 -0.009740164
000160 40 ba 8d bd 46 26 01 be 04 2e 41 ba aa 5a 54 be
       -0.0692029 -0.12612256 -0.00073692226 -0.2073771
000170 45 66 48 bd a3 18 80 bd f6 67 a5 3d a0 ab e8 3c
       -0.048925657 -0.06254699 0.080764696 0.02840215
000180 53 90 e0 39 43 74 96 bd 20 31 ba 3d 9e e9 25 bd
       0.0004283214 -0.07346394 0.09091401 -0.040505998
000190 00 90 ec 3b 55 14 ff bd 0d b2 b5 bc 8e 11 b1 3d
       0.0072193146 -0.1245505 -0.022179628 0.086459264
0001a0 77 26 f5 bc 65 9c c3 bd 7e d2 6f bd 92 58 e1 bd
       -0.029925568 -0.09551314 -0.05855035 -0.110032216
0001b0 6f 03 b8 3d 0f 16 7d bd 1f ec 93 3d 33 da a3 bd
       0.0898503 -0.061788615 0.07222771 -0.080006026
0001c0 d8 72 2c be e5 e2 1d be fb ff 3f be 51 15 4f be
       -0.16840684 -0.15418585 -0.18749993 -0.20222975
0001d0 9f 9b 5a 3c 48 69 e5 bd 55 bb f7 bd fd 91 c9 bc
       0.013342767 -0.112017214 -0.120962776 -0.024605745
0001e0 2b 0a de bc ab 56 92 bd c5 bd ab bc 73 12 94 bd
       -0.027104458 -0.07145437 -0.020964513 -0.072300814
0001f0 4b 88 a6 bb a3 29 18 be 90 67 f0 bd ed aa a7 bd
       -0.0050821654 -0.14859633 -0.11738503 -0.081868984
000200 0f 79 ef 3d 88 4f 65 be 24 cb d5 3e ae e8 9c be
       0.11693012 -0.2239362 0.41756546 -0.3064627
000210 e3 cc 5f 3e 10 a4 93 3b bb 4c 9d bd 84 64 6c be
       0.21855502 0.0045056418 -0.07680651 -0.23085219
000220 b2 84 29 3e 38 64 cc be 79 f7 ed 3d f9 54 1f bc
       0.16554525 -0.3992021 0.11619467 -0.009724849
000230 1b b5 be be 68 e5 e4 3c 4a 94 23 3e 61 b8 10 be
       -0.37247548 0.02794142 0.15974537 -0.14132835
000240 02 1a 64 be 55 e2 50 3e a8 3a 15 3e f6 f4 50 3e
       -0.22275546 0.20398839 0.14573157 0.20405945
000250 85 c9 30 3e b0 36 34 bd e1 06 4b 3e a8 53 b3 3e
       0.17264374 -0.043997467 0.19826843 0.35024762
000260 3c 9c e9 bd 9b 1f e7 3e ac 1a ea 3d 41 ae 71 3d
       -0.114067525 0.451413 0.114308685 0.059004072
000270 88 dd 54 3e bf 9e b5 3e 7a f1 2a 3e e1 0d 2b 3e
       0.20787632 0.35472676 0.16693678 0.16704513
000280 ee a2 44 3e 3c 25 a9 3d cb aa 89 3e a1 6f 30 3e
       0.19202778 0.08259055 0.26888117 0.17230083
000290 49 5f 9c 3e 7d 6d 0d bf ef 91 30 3d 66 ab 1b 3e
       0.30541447 -0.5524519 0.043107923 0.15202102
0002a0 10 19 58 3d c5 be 98 3e 4a 16 76 3e 41 ea 00 3e
       0.052758276 0.29833046 0.2403194 0.12589361
0002b0 be d7 be 3d 57 06 40 bd 19 e8 52 3e 84 42 0f 3d
       0.09318493 -0.046881046 0.2059635 0.034975544
0002c0 4a b9 9d 3e 47 6c 40 3e f1 11 09 3e 41 f3 db 3d
       0.30805427 0.18791305 0.1338575 0.107397564
0002d0 11 6b ca 3d d0 f4 3a 3e fe ae 2d 3e 9d 1c 01 3e
       0.098837025 0.18257451 0.16961285 0.12608571
0002e0 4e a9 50 bb 0e 9f e7 3d 0a 82 82 3e a9 3f 91 3d
       -0.0031839195 0.11309634 0.25489837 0.0709222
0002f0 b3 47 82 3e 3d 93 5f 3c 7e 03 40 3e d1 76 8a 3d
       0.25445327 0.013645944 0.18751332 0.06760944
000300 1c be 40 3e e8 d5 84 3e f0 01 48 3e f4 9a 3a 3d
       0.18822521 0.25944448 0.19531989 0.04555793
000310 69 30 a7 3e e7 96 e4 3d 94 a9 c1 3e 96 be 60 3e
       0.32654122 0.11161595 0.3782469 0.21947703
000320 02 1c 01 3e 35 5a 4e 3d 73 70 a0 be 80 9c ba 3e
       0.1260834 0.050378997 -0.31335792 0.36447525
000330 90 36 63 3e 3f b6 6f 3d 77 a7 91 3e c1 9c a4 3d
       0.22188783 0.058523413 0.28448078 0.08037711
000340 8f 78 26 bf 7b 50 fb be 25 d4 49 3e 70 f3 9e 3e
       -0.6502771 -0.4908484 0.19709833 0.31045103
000350 52 c4 80 3e d1 5e dd 3d 25 01 df 3b c5 88 c0 3e
       0.2514978 0.108091004 0.0068055564 0.37604347
000360 16 ec ce be ef 01 66 3e 1e 77 ba 3e e9 f9 16 bf
       -0.40414494 0.22461675 0.36419004 -0.5897508
000370 b6 a2 46 3e f0 9f 4a 3e 90 f0 af 3d b8 dd 9e 3e
       0.19398007 0.19787574 0.085908055 0.31028533
000380 de 24 ab 3e 26 ff 00 bf 08 40 63 3e f7 66 7c 3e
       0.33426565 -0.50389326 0.22192395 0.24648653
000390 b8 07 d0 3d fe 7a 75 be f5 f9 e2 3e ad 5d 50 3e
       0.10157722 -0.23972699 0.44331327 0.20348234
0003a0 ff 2d 12 3e cb 41 a4 3e 2e 18 01 3e 76 fa aa be
       0.14275359 0.32081446 0.1260688 -0.33394212
0003b0 98 81 33 3e 00 bf 1b bf 21 40 35 3e 31 86 30 bd
       0.17529905 -0.6083832 0.17700244 -0.043096725
0003c0 88 d0 93 be 06 89 20 3e 0c ab e2 bd f8 8c 5b 3d
       -0.28870034 0.1567727 -0.11067781 0.053601235
0003d0 f7 e7 f5 bc 73 fb 82 3e 12 a9 eb be 61 e1 5a be
       -0.030017836 0.25582466 -0.46027428 -0.21375038
0003e0 07 d1 b9 3d 55 54 8c 3d 83 91 65 3e 3f fe 81 3e
       0.09073072 0.068520226 0.2241879 0.25389287
0003f0 96 0a 78 3e f6 ea 98 3d 7e 34 8e 3e e9 1a a4 3d
       0.24222788 0.0746669 0.27774423 0.08012945

gru.weight_ih_l1 f4 [384, 128]
000000 4b 98 30 3d 4e 2d a1 3d 23 96 24 bd a3 24 e0 bd
       0.043113988 0.07869969 -0.040182244 -0.10944488
000010 d3 f6 d9 3d fa 2c 88 3d 5d ba b3 3d 01 3e 4a 3e
       0.10642781 0.066492036 0.0877578 0.19750215
000020 81 e8 2a be 8d 05 0a 3e 00 7b 99 bc d7 5f 0a 3d
       -0.16690256 0.1347868 -0.018735409 0.033782806
000030 df fb e3 3c 55 0f f3 3d 6b c2 6e bd c6 f6 8c bd
       0.027830062 0.11868159 -0.05829088 -0.06883006
000040 da da 26 be 63 8f c7 bd 6b a0 f3 bd 85 08 d5 bd
       -0.16294423 -0.09744146 -0.11895832 -0.104020156
000050 1f 39 14 bd 2f 87 f0 bc 96 82 cd 3c 4c 91 38 3c
       -0.036187287 -0.029361336 0.025086682 0.01126511
000060 13 d6 aa bd 7a d9 7b bd 24 60 f2 bd c0 25 93 3e
       -0.08341613 -0.0614867 -0.118347436 0.28739738
000070 d1 95 23 bd d8 44 3e be e9 ab a1 bc 3d 1a 7a bd
       -0.039937798 -0.1858095 -0.019735293 -0.06106018
000080 41 cc a7 3b b3 c1 c3 bd c3 d7 8e 3c d4 b6 b1 3d
       0.0051207845 -0.095584296 0.017436868 0.0867745
000090 ea 1e 80 3b 3e 1c 1b be 02 6d af bd 5d bd 0a bd
       0.0039099352 -0.15147492 -0.085657135 -0.033871997
0000a0 8d 9a f4 3d ea 87 a6 bd 09 ef 1f 3d 70 69 33 3c
       0.11943541 -0.08131392 0.03904632 0.010950431
0000b0 37 1b 07 bc a3 89 13 be 7d 0a 05 3e 30 1e d4 3c
       -0.008246235 -0.14407973 0.12992282 0.0258933
0000c0 d0 a8 13 be 6a ae 30 3d ee a5 ae bc ee 8f f8 bd
       -0.14419866 0.043135084 -0.021319356 -0.121368274
0000d0 8f 7f 99 bd f8 0d e7 3d f2 e0 19 3e 9a 23 b6 39
       -0.07495033 0.11281961 0.15027216 0.0003474027
0000e0 b9 a2 b0 bc e1 e8 be 3c 06 f7 d0 bd 58 a2 d2 3d
       -0.021561967 0.023304405 -0.10203366 0.10284871
0000f0 f5 b0 4e bc 0e 7e 5d 3d 3b 27 1d 3d d1 7a 39 3d
       -0.012615432 0.054075293 0.03836749 0.045283142
000100 83 f9 5d 3d ab 8a a6 3d 2e 4e 79 bd 29 cf f2 bd
       0.05419303 0.081319176 -0.060865574 -0.11855919
000110 a8 a1 ba bc 2c 8b f9 bd 4e 72 c3 3c f3 c4 93 3d
       -0.022782162 -0.12184748 0.023858216 0.072152995
000120 13 9c 91 3d 72 3b f9 3a 5d 45 8c 3d fa 8e 43 3e
       0.07109847 0.0019014908 0.068491675 0.1909751
000130 0b 60 d2 3c 89 67 60 3d fd 23 97 3d 6d 7b 97 bd
       0.025680562 0.05478624 0.07379911 -0.073965885
000140 94 00 b1 3d 8e e9 9a bc d9 ec 63 bd 9b d9 45 3d
       0.086426884 -0.018910196 -0.055645797 0.048303228
000150 2f a5 e8 bd 46 a1 a9 3b 22 51 98 3c 4a 31 b4 bd
       -0.11359631 0.005176696 0.018593375 -0.08798464
000160 30 5e fd bc 42 f1 18 3e 36 06 a7 3d 5a b0 64 3d
       -0.030928701 0.14935783 0.081554815 0.055832244
000170 db dd 16 bd 1a 1f 47 bc c2 2e a8 bd 23 ef a8 3d
       -0.03683267 -0.012153411 -0.08212043 0.08248737
000180 53 e1 b9 bc 58 80 0f 3d 5e 46 81 3c 8b 16 cc 3d
       -0.02269045 0.035034508 0.015780624 0.09965237
000190 12 72 7b 3d 69 1d 89 bc b0 21 ae bd 5e 86 39 3d
       0.061388083 -0.016737657 -0.08502519 0.04529416
0001a0 70 59 85 3c de 0d 28 bd 81 fa ad bd a5 17 be 3d
       0.016277999 -0.04102885 -0.084950455 0.092818536
0001b0 5a 88 94 3d 24 39 4f bc 39 8e 6c 3d 1e b2 68 3e
       0.072525695 -0.012647901 0.05775282 0.22724196
0001c0 d2 df 9c 3d 9b cc ee bd b5 fb f8 ba 7f 57 0c bd
       0.07659878 -0.11660119 -0.0018995913 -0.03426313
0001d0 32 4e e9 3d f6 2c 0c bd 99 0b a4 3d 0d 44 15 be
       0.11391868 -0.034222566 0.080100246 -0.1457674
0001e0 42 60 2b bd 9a e6 9a bd 46 ab 7b bd 56 b9 f5 bd
       -0.041839845 -0.07563515 -0.061442636 -0.11998241
0001f0 5d a7 f5 bd a4 aa 04 3e ed 62 28 bd 9f 46 a3 bc
       -0.11994813 0.12955719 -0.041109968 -0.019931136
000200 9f 53 1a bd f2 5b 1c bd ea a7 72 bd 33 dc 48 bd
       -0.037677404 -0.038173623 -0.059242167 -0.049038123
000210 e1 49 4e 3e f0 d9 07 3e b7 13 cd 3d eb 49 bb 3d
       0.2014537 0.1326673 0.10013526 0.09144958
000220 fc 6d 44 bd be 0b 1d 3d 40 9b 4f bc 59 9f eb 3b
       -0.04795645 0.038341276 -0.012671292 0.0071906266
000230 05 84 0f 3c 80 9d 74 bd bb ca b3 3d 0c 3d ca bd
       0.008759503 -0.059720516 0.08778902 -0.09874925
000240 0b d5 b8 3c 3a fe dc bd a8 02 05 be 93 cc 6c 3d
       0.022562524 -0.10790677 -0.12989295 0.057812285
000250 8b 7b a5 3d 6e ab b8 bd b5 5a b1 bc 0e f4 cf 3d
       0.080802046 -0.090170726 -0.021649698 0.101539716
000260 01 7f 90 bb d3 7d bf ba dd f1 8a 3d 8a b5 21 3d
       -0.0044096713 -0.0014609642 0.06784413 0.03947977
000270 a7 fc 0e 3d 9f 8b 22 be 4d 2a 01 3e 9c d1 a0 bc
       0.034908917 -0.15873574 0.12613793 -0.0196312
000280 a2 d0 df bc 3d eb 99 bd 3b 24 94 bb df bf e7 3c
       -0.027321164 -0.07515571 -0.0045209206 0.028289733
000290 16 bd dc bd 6f 67 36 bc 48 f1 26 be a7 b6 b8 bd
       -0.10778253 -0.011133059 -0.16302979 -0.09019213
0002a0 d1 3b c4 bd 02 1f 5a bd c3 5e 97 3d d6 f7 0b be
       -0.095817216 -0.053252228 0.07391121 -0.1366876
0002b0 01 13 76 bd 46 51 89 3c 49 cc ae 3d 7f 46 88 3c
       -0.060076717 0.016762387 0.08535058 0.016635178
0002c0 3a 1a 0a bd e7 b2 1d 3c 05 45 aa bc 8b 9c 30 be
       -0.033716418 0.009625173 -0.020784864 -0.17247216
0002d0 64 2c 8d bd f9 aa 6c bd 1c 94 e2 3d 43 b2 a9 3d
       -0.068932325 -0.05778024 0.11063406 0.08285954
0002e0 29 40 96 3d e8 05 38 3e 87 60 b1 bb 73 3f fb 3d
       0.07336456 0.17971003 -0.0054131183 0.12267961
0002f0 1c 97 1a bd e2 53 f4 3d f1 50 90 bd 1d b0 37 3d
       -0.037741765 0.11930062 -0.07046688 0.04484569
000300 ee 39 91 3d 01 8c 04 bd f5 11 3c 3d a9 5a 11 be
       0.07091127 -0.03236008 0.045915563 -0.1419474
000310 cf dd 88 3c e5 15 22 3d 96 be b0 bb a4 92 9b 3d
       0.01670733 0.03957166 -0.0053938134 0.07596329
000320 35 07 00 3e c1 17 50 3b 78 11 f2 bd 49 eb 9f bd
       0.1250275 0.003175244 -0.11819738 -0.07808549
000330 9e c5 48 bd 5a f4 77 bd 88 f4 9b bd e0 a9 8b bd
       -0.049016587 -0.060535766 -0.07615 -0.068195105
000340 93 0b c7 3d 52 2c 4f 3d e8 7f 92 3d 12 be 2e 3d
       0.097190045 0.050579377 0.071533024 0.042661734
000350 ab d4 3c 3d 47 94 6b bc 54 82 91 bb 3e a2 c2 bd
       0.046101253 -0.014378614 -0.004440585 -0.095036015
000360 52 14 cb 3b 5a 64 eb 3d 67 c6 24 3e cc d5 f9 bc
       0.0061974907 0.1149375 0.1609131 -0.030497454
000370 2b e0 1b bd fc cc 7a 3d 35 60 d0 bd 72 8c b2 bb
       -0.03805558 0.061230645 -0.101746 -0.0054488713
000380 52 59 a5 bc 92 3b 8e bd 96 0d 24 bd fc 55 e8 bc
       -0.020184193 -0.06944956 -0.04005202 -0.028361313
000390 e5 0a a9 3c 82 b7 88 3c 4f 54 b4 bd f8 6f 17 3e
       0.020635078 0.016689066 -0.08805143 0.14788806
0003a0 e7 a0 3c 3b 62 ad 3a 3c f8 ae 5b bd e6 69 a7 3c
       0.0028782429 0.011393877 -0.05363366 0.020436238
0003b0 ab 95 49 3d dc 20 b6 bd 3a fa ca 3d 28 fb 07 3e
       0.049215 -0.08892986 0.09911008 0.13279402
0003c0 fb 4d 6b 3d 20 19 2a bd ca 05 fb bd c5 81 8a bb
       0.057447415 -0.041527867 -0.122569636 -0.0042268955
0003d0 30 0d a9 3d ef 34 d4 3c 1f 91 23 3c e8 10 ab 3d
       0.082544684 0.025904147 0.00998333 0.08352834
0003e0 09 4f bf 3d 33 f0 46 bd 92 86 8a bd c0 7b a6 bd
       0.09341247 -0.048568916 -0.067639485 -0.08129072
0003f0 ae ff 46 bd f7 3a 50 3e 35 01 5b bd 45 4f 42 3d
       -0.04858368 0.20334993 -0.053467948 0.04743888

gru.weight_hh_l1 f4 [384, 128]
000000 ea 02 11 bd 75 a4 b8 3b 41 38 2a 3e 39 db 14 3e
       -0.03540317 0.005634839 0.16623022 0.14536752
000010 4b f7 33 bd 9f ad e1 3d 22 05 06 be 99 c3 eb bd
       -0.04393701 0.11019444 -0.13087896 -0.11511917
000020 6c 63 01 3b f1 2c ae bc 1f 11 e9 3c 3e 76 cb 3c
       0.0019743098 -0.021261664 0.028450547 0.024836656
000030 e7 5d e0 3b ee ae 8f 3d 9b d3 29 bd 5b 70 7c 3d
       0.0068471315 0.07015787 -0.04146157 0.061630588
000040 22 c4 07 be 9f 6a 10 be 4d 0f 0e 3e 2f 51 50 bc
       -0.13258412 -0.14103173 0.13873024 -0.012714668
000050 7e c8 3f 3c bb b7 96 bd cb 52 fa bc 55 a1 23 be
       0.011705516 -0.073592626 -0.030557057 -0.15979512
000060 bb 21 c4 3d f5 18 50 bd d9 37 65 ba ec 2f 83 3d
       0.09576746 -0.05080505 -0.00087439787 0.06405625
000070 fa f2 61 bc 0d 2f ce 3d b1 0d f6 bc ea 00 93 3d
       -0.01379084 0.10067568 -0.030035825 0.07177909
000080 64 ab e0 bb f6 2e d6 bd a9 21 83 3c 76 c0 f0 3c
       -0.006856369 -0.10458176 0.016007261 0.029388648
000090 0d d9 06 3c 60 58 b8 3b 55 92 f7 3d 89 40 10 3e
       0.00823046 0.0056257695 0.120884575 0.14087118
0000a0 e9 61 1e 3d 3a e0 02 bd 02 ac 2e 3c ad 87 8a 3d
       0.038667593 -0.03195212 0.010661127 0.06764159
0000b0 52 a3 c9 bd fb d1 14 3e 66 57 65 bd 42 d3 e4 3d
       -0.09845604 0.14533226 -0.055991553 0.11173107
0000c0 04 f5 7a 3d 1e 44 a6 bd 65 bb 85 3c 96 62 ec bb
       0.06126882 -0.08118461 0.016324708 -0.007213901
0000d0 ef 4e 82 bd fe b5 09 3e e2 8a 4d 3e 5e 6e 81 3a
       -0.06362712 0.13448331 0.20072511 0.0009874811
0000e0 73 e2 03 3e 39 ea 85 3d 17 e6 0a be a1 75 43 3d
       0.12879352 0.06538815 -0.13564335 0.0477196
0000f0 59 81 02 3c a1 68 08 3e 91 94 b8 3d a3 3b c4 3d
       0.007965409 0.13321163 0.09012712 0.09581687
000100 f3 1c 72 bd d6 c6 0c be c3 9e 77 bd 46 7f 08 3e
       -0.05910964 -0.13747725 -0.06045414 0.13329801
000110 8e 3d 8b bd 37 32 1f bd d1 a9 0b 3e 91 b6 13 bd
       -0.0679885 -0.038866248 0.13638999 -0.03606278
000120 61 54 70 bc 0e f7 3b bc 9b c9 00 be 98 d6 03 3e
       -0.014668555 -0.011472477 -0.12576906 0.1287483
000130 8c 36 44 3d 4f 34 6b bd f9 f1 ae 3b fd ec c0 bd
       0.047903582 -0.057422932 0.005338904 -0.09420202
000140 8e 77 12 3e 24 bd 31 3d a5 fa 13 bc 04 0d 93 3c
       0.14303419 0.04339327 -0.009031926 0.017950542
000150 67 e7 1b be 25 29 c8 bd 3d c8 04 3e 3f c2 0f bd
       -0.15224992 -0.09773473 0.1296701 -0.035097357
000160 e6 15 20 be 7b 76 a7 3d 57 79 cd bd 20 cf dc bd
       -0.15633354 0.08176895 -0.10032909 -0.107816935
000170 ab 1a 23 3c f4 af d7 3c 38 db 8f bd 2c c9 77 3c
       0.009955089 0.026329018 -0.070242345 0.015123647
000180 32 34 26 bd 67 33 e0 bc a9 1d f2 bc b0 3e 14 3d
       -0.04057712 -0.02736826 -0.029555159 0.036192596
000190 98 43 19 3d a7 39 b2 3c b6 50 d5 bb 90 7a 8c ba
       0.037417978 0.021756006 -0.0065098656 -0.0010717679
0001a0 5b d3 ff bd ed a5 27 bc fe d1 69 3c 24 b3 1b be
       -0.12491485 -0.010232431 0.014271257 -0.15205055
0001b0 2e d0 a9 bd 17 fd ed 3d b8 f4 32 3d 9c a0 23 3e
       -0.0829166 0.11620539 0.043690413 0.15979236
0001c0 f3 87 4f bb a9 34 43 bd 72 89 c9 3d d7 86 a9 3d
       -0.0031666725 -0.047657643 0.09840669 0.08277672
0001d0 6f f0 0c 3c 15 b0 d1 bd 2b 1a e6 bd 09 d0 fb 3d
       0.008602246 -0.10238663 -0.1123546 0.12295539
0001e0 f5 62 e4 bd a4 12 7e 3d e7 c3 6b 3d 81 35 04 3d
       -0.11151687 0.062029496 0.057559874 0.032277588
0001f0 00 8d 13 bd 41 cd ac 3c d4 4b 81 3c 24 fc 24 ba
       -0.03602314 0.021093966 0.015783228 -0.00062936754
000200 72 34 82 bd f1 f3 98 bd c2 61 10 3c 6b 83 06 bd
       -0.063576594 -0.07468403 0.00881237 -0.032840174
000210 dc 7b 05 3d aa ec b7 3d a3 65 dc bd 83 e7 89 bc
       0.032588825 0.08980687 -0.10761573 -0.016834026
000220 71 2d f3 bc 1d f7 e1 bc 7a d8 c5 bc 18 c0 16 bd
       -0.029684754 -0.027583653 -0.024151076 -0.03680429
000230 bc 63 b9 3b b1 ae 64 bd 4c 51 9e 3d c1 62 af 3d
       0.005657641 -0.05583066 0.0773035 0.08563758
000240 14 e5 e7 bb 97 ca df bc 5b c9 33 3d bc 3c 15 bd
       -0.007076869 -0.027318282 0.0438932 -0.036434874
000250 c9 2a 95 bd 42 5f fd bd a9 af fb 3c 91 52 2c be
       -0.07283551 -0.123716846 0.03072341 -0.16828372
000260 ba 4c 57 3e 45 b5 22 bd 31 68 da 3d 13 4d b5 3d
       0.21025363 -0.039723653 0.10664404 0.08852591
000270 92 e4 a7 bd f9 61 0d bc f2 c4 00 bd fa b1 65 3c
       -0.08197893 -0.0086293155 -0.03143782 0.014019484
000280 d3 06 8d bd e5 46 c9 bd a1 8a 00 3e e9 dd b5 bd
       -0.06886067 -0.09827975 0.12552883 -0.08880217
000290 0e 42 db bd 38 aa ae bb fc fc 1d 3e af 2c 4c 3d
       -0.10705958 -0.0053303503 0.15428537 0.0498473
0002a0 5d f0 8b 3d 19 20 2c 3c 72 d6 ba 3d a4 d8 9c bd
       0.06832955 0.0105057 0.091229334 -0.076585084
0002b0 61 19 0b 3d 58 c9 2b 3e 24 05 7b bd 1a ae 96 3d
       0.03395975 0.16776025 -0.0612842 0.07357426
0002c0 b2 8d 3a 3d 8e 5f 78 bc b5 05 00 3d 8d b6 86 bd
       0.045545287 -0.015159501 0.031255443 -0.065777875
0002d0 7b dc 5a bd 34 eb f5 bd 69 39 f8 bd 91 ef 68 3d
       -0.053432923 -0.12007752 -0.12120325 0.056869093
0002e0 f0 8a af 3c 90 b6 42 3e e6 91 67 3d e9 f5 fb 3d
       0.021428555 0.19014955 0.056535624 0.12302763
0002f0 e8 ea 6b bd 91 cd 88 3b b0 17 30 3d 03 3e 72 3d
       -0.05759707 0.004174896 0.04299134 0.05914117
000300 bc a2 61 3d 43 fe 50 3d 61 d8 20 be 6d cf cf b9
       0.055086836 0.051023733 -0.15707542 -0.0003963666
000310 b6 9c 0b 3e f6 80 c9 3c ec b4 21 bc ef ec 64 bd
       0.13633999 0.024597626 -0.009869795 -0.05589002
000320 30 39 a6 3d 1d c8 95 3b cc a2 9a 3d 22 1e 8a 3d
       0.081163764 0.0045709745 0.07550582 0.06744029
000330 99 02 39 bd 49 3d da 3d 98 56 91 bd 7a 43 21 bd
       -0.045168493 0.106562205 -0.070965946 -0.03937099
000340 5e 9a 88 3c 5b 0b 5f bc ab f6 2d 3e d3 0b 01 3e
       0.01667517 -0.013613547 0.16988628 0.12602167
000350 04 20 98 bd da 2e f1 3c 6e da 10 bd e1 09 1c 3d
       -0.074279815 0.029441286 -0.03536456 0.03809536
000360 e9 87 0f be a1 6a 89 3d 21 cf c2 3b e6 5b 6b bd
       -0.1401669 0.06709791 0.005945102 -0.057460688
000370 e7 c1 73 bb 99 77 94 3d dd 5d 28 be d2 db dd 3d
       -0.0037194432 0.07249374 -0.16442056 0.10832943
000380 36 68 47 bc 1a 2b 81 bd 47 7f 66 bc 34 14 b9 3d
       -0.012170842 -0.06307049 -0.014068431 0.090370566
000390 f1 8d c5 3d bf 32 d9 3d 32 cf e0 bd 5e 96 25 bd
       0.09646214 0.10605382 -0.10977019 -0.040426604
0003a0 b2 d9 66 3d a0 71 47 bd 12 54 23 bd d7 74 04 3e
       0.056359954 -0.048692346 -0.039875098 0.12935196
0003b0 de 85 21 3d e3 17 39 3d 44 5a 79 bc b5 6b 58 3e
       0.039434306 0.045188796 -0.015219275 0.21134837
0003c0 7e 1c ce bd 57 dc 7e 3d c7 c4 8f 3d 0b 53 fb bd
       -0.10064028 0.06222185 0.07019954 -0.122716986
0003d0 74 d6 19 3d 3b 69 08 bd 04 04 0e 3d 40 76 14 3e
       0.037558034 -0.03330348 0.0346718 0.14498234
0003e0 d2 d1 90 bd dd e4 cf 3d b3 4d 87 3d 2d 8b 0c 3e
       -0.0707127 0.10151074 0.06606617 0.13724966
0003f0 4c a1 b9 bd e1 11 bd bc 82 6a 96 bd 44 6e b2 3c
       -0.09063968 -0.023079814 -0.073445335 0.021781094

gru.bias_ih_l1 f4 [384]
000000 63 a7 fc bc ee a1 7e bc b1 82 63 bd f2 02 72 bd
       -0.030841535 -0.015541537 -0.05554456 -0.05908484
000010 00 6a cb bc c9 bb dc bd 53 d4 22 3e 61 e2 0c bd
       -0.024830818 -0.10778005 0.15901308 -0.03439558
000020 d0 68 5d 3d 3e e6 5d bd 12 30 88 bc 0c c1 c5 bd
       0.054055035 -0.054174654 -0.016624484 -0.096559614
000030 10 de b0 bc d7 a4 4d bd d8 71 86 3d 98 aa 36 bd
       -0.021590263 -0.05020603 0.06564683 -0.044596285
000040 64 78 03 be d4 b7 ce 3c bd 61 56 3c 05 a6 40 be
       -0.12838894 0.02523414 0.013084826 -0.18813331
000050 8b 9f e4 3b 27 b2 ef bb c8 72 82 bd 00 67 d4 3d
       0.006977027 -0.0073149386 -0.06369549 0.10371208
000060 3a 59 a3 3d 67 aa ba bd 49 d0 a3 3c 23 fd bf 3d
       0.07976003 -0.09114533 0.019996779 0.09374454
000070 c9 c2 8e bc 58 b7 cc 3d 64 d5 3a bb 17 6f c3 bd
       -0.017426865 0.099959075 -0.0028508538 -0.09542673
000080 52 21 09 3c 69 8e 6e be 4d 12 b0 bc 84 f1 9b bd
       0.008369761 -0.23296513 -0.021493101 -0.07614425
000090 00 ff 4b bd ae e4 c3 3c a8 04 1c 3e 37 7a 04 be
       -0.049803734 0.023912754 0.15236151 -0.12937246
0000a0 13 21 04 3e ed 95 84 bd a9 3d 0c 3e eb 54 b4 bd
       0.12903242 -0.064739086 0.13695396 -0.08805259
0000b0 04 4b 74 3c cf a2 9c bc 85 da 96 bd 8a d8 89 bd
       0.014910463 -0.019120602 -0.07365898 -0.06730755
0000c0 0f b8 38 3e 56 dd 13 3c 2b 6d 0d bd 79 63 79 bd
       0.18038963 0.009024939 -0.03452794 -0.06088588
0000d0 2d 45 be 3c 18 36 17 3e 9d c9 39 bd c7 89 a9 bd
       0.023226345 0.14766729 -0.04535829 -0.08278232
0000e0 0b 23 7b bc 94 0c 63 3d e2 7d 36 be 1e fa 94 3d
       -0.015328179 0.055431917 -0.17821458 0.072742686
0000f0 f2 72 98 bd d5 be cc bd 95 57 b4 bd b8 8d ee bc
       -0.07443799 -0.09997336 -0.088057674 -0.029120311
000100 b2 43 bd bd 8c 86 14 bd 47 d2 96 bd ce 2b 13 be
       -0.092414275 -0.036261126 -0.07364326 -0.14372179
000110 65 9b 69 3d 5b 11 b9 3d ae f0 13 3c cd 84 1c 3d
       0.05703296 0.090365134 0.0090295505 0.038212586
000120 50 f5 bb 3d dd f9 ec bd 18 c9 97 bd b0 73 61 3d
       0.09177649 -0.11571095 -0.074114025 0.05504197
000130 7a cc de bd 3d 91 80 3c c9 5d f0 3c 82 3b 60 bc
       -0.108788446 0.015694255 0.029341595 -0.013686063
000140 da 0f 8b bd 9f b8 c5 bd 1d f9 5c bb 1c 33 88 3d
       -0.06790133 -0.09654354 -0.003371782 0.06650373
000150 54 7d 62 bd 72 f8 74 3c c0 e5 24 be e9 84 bc bd
       -0.055295303 0.014951812 -0.16103268 -0.09205038
000160 9c e3 31 be 54 0b c9 bd 9f 1f f5 bd e6 2d 02 3c
       -0.17371982 -0.09816614 -0.11968922 0.007945513
000170 6e 22 b2 bd e7 58 6c be d8 ad d8 bd b1 66 e6 bc
       -0.08697973 -0.23080789 -0.10580033 -0.028125139
000180 16 bf 82 3d 4f db 20 bd 8f 09 35 bd 32 66 c7 3b
       0.06384103 -0.03927165 -0.04419857 0.0060851807
000190 3c eb 80 bc 57 15 ae bc 35 2d e5 bd 02 c5 e2 bd
       -0.015737168 -0.02125041 -0.11190263 -0.110727325
0001a0 7e 77 a4 bd 80 12 56 be f5 78 a6 bc 7f df 97 3d
       -0.08030604 -0.20905495 -0.020321349 0.07415675
0001b0 17 28 2b 3c 8b 02 c5 bd 1a 1c 76 3d b3 d7 bb bc
       0.01044657 -0.09619626 0.060085393 -0.022930002
0001c0 2d 85 62 3d 7c 45 ed bd ca 81 d9 3c 8f 85 52 3e
       0.055302788 -0.11585519 0.026551146 0.20558761
0001d0 08 f8 22 bd 4c b6 37 be 9c 12 35 be 30 2c 88 bc
       -0.039787322 -0.17940634 -0.1768288 -0.016622633
0001e0 08 37 2a 3d 1c 29 da 3c d5 db 16 be df e8 af 3d
       0.04155639 0.02663093 -0.14732297 0.085893385
0001f0 9c 81 ac bd 2d 26 24 3d 31 8b a2 bd 4b 79 ce bc
       -0.084231585 0.04007547 -0.07936705 -0.025204321
000200 8d 4c e9 bd 24 9a 7a 3e 98 30 34 3e ef c7 53 3d
       -0.11391554 0.24472862 0.17596662 0.051704343
000210 de 82 aa 3e 97 98 2b 3d 60 be c0 be a0 66 6b 3e
       0.3330297 0.041893568 -0.37645245 0.22988367
000220 81 4d bc 3d 66 ab 7a 3d 9f 1e ab 3d 31 1c 01 3e
       0.0919447 0.061198615 0.0835545 0.1260841
000230 04 32 5b 3c 13 2c 82 3d fd 14 51 be c5 16 96 3e
       0.013378624 0.06356063 -0.20418163 0.29314247
000240 66 b9 96 bd f0 f4 56 3d 3c 3d 81 3e 8a 67 d3 bc
       -0.07359581 0.052479684 0.2524203 -0.025806207
000250 81 bf 86 3d d0 ad d8 3d 14 fc 04 3e 07 e4 51 3e
       0.06579495 0.10580027 0.12986785 0.20497142
000260 75 cb 25 3e 4e 88 73 3b 5d 77 21 3e 5f 78 48 3d
       0.16190894 0.0037160101 0.1576819 0.04894292
000270 a8 bd 04 3d 77 03 84 3d 96 d8 fc 3c 83 0b 8a bc
       0.032407433 0.06445973 0.030864995 -0.016851192
000280 82 da 17 3e d0 f9 8c be 2e f4 5c 3e 25 2d f6 3c
       0.14829448 -0.27534342 0.21577522 0.030050823
000290 6c 28 4e 3e a3 f3 10 3e 09 cd fd 3d 54 37 e4 3e
       0.20132607 0.1415544 0.12392623 0.44573462
0002a0 09 d5 f4 bc 2d a5 a9 3e 27 61 ba 3c 13 a2 96 3d
       -0.02988674 0.33133832 0.022751404 0.07355132
0002b0 c5 68 49 3e 19 d1 dc 3e 19 d8 7e 3d 4a 21 8c 3e
       0.19668873 0.4312828 0.062217806 0.27369148
0002c0 22 2f 90 3c a7 ef b7 3e 8e f7 19 be 1a 43 3b bd
       0.0176006 0.35925028 -0.15035841 -0.04571829
0002d0 56 d7 e2 3d 72 42 90 3e 35 5c a1 3e e7 a9 9b 3b
       0.11076228 0.28175694 0.3151566 0.0047504785
0002e0 2d d4 96 3d 1d bc 87 be d2 1e b8 be f2 03 b3 be
       0.07364688 -0.26510707 -0.35961014 -0.34963948
0002f0 1b 3d 4e bb f1 74 1c be 00 68 c1 3d bf c1 78 be
       -0.0031469527 -0.15278985 0.094436646 -0.24292658
000300 7f 59 01 bd ad d5 8f be 5f 7a 8e 3d 6d 54 94 be
       -0.03157949 -0.2809271 0.06956934 -0.28970662
000310 b6 f8 a5 3d cc 5b 69 3e 94 9e 9a 3e 52 73 bd 3e
       0.081040785 0.22788924 0.3019911 0.37002045
000320 ff d5 36 3e 6e 66 72 3e d2 92 56 3e f0 b1 b9 be
       0.1785507 0.23671886 0.20954445 -0.36268568
000330 cd 92 a5 3e a6 de 15 3e 82 9b 23 3e 24 e8 bb 3d
       0.32338563 0.14635715 0.1597729 0.09175137
000340 f5 8d 32 3e bd e7 2f 3e 49 55 a7 3d 7d dc c0 3e
       0.17436965 0.17178245 0.08170564 0.3766822
000350 78 81 3f 3c 23 a9 21 3e 5f fa 8c be 8f 9b 41 3e
       0.011688583 0.15787177 -0.27534768 0.18906997
000360 45 ee cd 3e b3 d5 39 3e b6 8b 60 3e 78 40 75 3e
       0.40220848 0.18147926 0.21928295 0.23950374
000370 c2 d9 27 3d 6c 50 37 be 03 35 2b 3e a6 63 8d 3e
       0.040979154 -0.17901772 0.16719441 0.27615088
000380 0f 68 d0 3d ce b3 85 be 0b 51 1b 3e 0a 16 c9 bb
       0.101760976 -0.26113743 0.15167634 -0.0061366605
000390 9d 7a 8b bd 45 36 54 3e b4 e1 1a bc 7b 82 b6 3e
       -0.06810496 0.20723827 -0.009453226 0.35646424
0003a0 67 9e cc bc 91 c2 9f bd 51 9c aa be 1e fe 81 ba
       -0.024977876 -0.078007825 -0.33322385 -0.0009917652
0003b0 18 f0 bf 3e 0e a6 83 3e 51 99 ec bb cc 3c 5c 3e
       0.37487864 0.25712627 -0.007220425 0.21507567
0003c0 34 37 c2 bd 12 99 a9 3d 96 f2 14 3d fc f9 38 3e
       -0.094831854 0.08281149 0.03636416 0.18064111
0003d0 82 b3 01 be 9e 3a 70 be c9 b6 a3 bc f3 15 8e 3e
       -0.12666133 -0.2345986 -0.01998462 0.2775112
0003e0 d3 62 c2 bd e5 37 48 3e 29 e2 3d 3e 2e a6 3a 3d
       -0.094915055 0.19552572 0.18543305 0.045568638
0003f0 1c 5d 4b 3e 1f c4 a8 3a b8 19 9d 3c 3c 99 e6 be
       0.19859737 0.0012875831 0.019177303 -0.45038784
