1223-code-DL/model/GRU_state_dict.pt (torch, 668484 bytes, 17 tensors)

gru.weight_ih_l0 f4 [384, 16]
000000 8b ca 68 be 0d 45 d1 bd fe 8c 85 bd 4d c9 35 be
       -0.22733514 -0.102182485 -0.06521033 -0.17752571
000010 90 8d 8a bd 9a b1 97 be f4 0b c4 bd a3 e8 39 be
       -0.06765282 -0.29627687 -0.095725924 -0.1815515
000020 b0 57 18 be 0b 56 27 be ae 56 51 be 02 1b 0f be
       -0.148772 -0.16341417 -0.20443222 -0.13975146
000030 75 c6 1e be 84 fd 21 be 11 78 b0 bc 7d a0 90 bc
       -0.15505393 -0.15819365 -0.021541627 -0.017654652
000040 79 a5 69 be 3d 4e 3b be 75 4a 24 be a8 36 21 be
       -0.22817029 -0.18291564 -0.16044028 -0.15743506
000050 f7 9b 0e be 9e a1 68 be 2b b7 33 bd 90 c9 d0 bd
       -0.13926683 -0.22717902 -0.043875854 -0.10194695
000060 52 d8 e3 bd 00 8d 60 be 75 1f 30 be 00 a2 8a be
       -0.11125244 -0.21928787 -0.171995 -0.2707672
000070 b3 8f 88 be eb 2a 5e be 3a bc 46 be 2c 6e 82 be
       -0.26672134 -0.2169606 -0.1940774 -0.2547468
000080 f5 89 43 bd a6 92 05 bd 3b 04 01 3e 3f 0c 26 3d
       -0.047738988 -0.032610558 0.1259927 0.040539023
000090 4d 82 b5 bc d1 ca 0a 3d 76 ac 44 bd 88 ab 65 3d
       -0.022156859 0.033884827 -0.048016034 0.056071788
0000a0 d2 15 17 3e 00 06 84 3c fc 69 8e 3d 7a 3c ff 3d
       0.14754418 0.016116142 0.06953809 0.12462707
0000b0 e3 40 cb bc e1 f5 30 bb fe 18 6b 3e 6a f9 82 bd
       -0.024811214 -0.0027002024 0.22958753 -0.06395228
0000c0 ab 4b 3f 3d da 1a 80 bd 3d 8b 01 bc 33 9e 0f bd
       0.046703022 -0.062551215 -0.007906732 -0.03506298
0000d0 7c 89 01 3d 28 cb 1f 3d bb 74 b8 bd cb c7 04 3e
       0.031625256 0.039012104 -0.090066396 0.1296684
0000e0 22 bc 03 3d 0f 03 f1 3d 5a e5 14 bd 66 b4 33 3d
       0.03216184 0.117681615 -0.03635154 0.043873213
0000f0 90 8e 01 3d 9f f5 8f 3d 44 20 10 3e 3c 42 6f be
       0.0316301 0.070292704 0.14074808 -0.2336511
000100 74 6b cf bd 6c 57 7d bd a5 fa 3d be 8e 2e 30 be
       -0.10127917 -0.06185095 -0.18552645 -0.17205259
000110 8d 7c b4 bd 71 d9 27 be c5 4e ed bc f4 ea 20 be
       -0.08812819 -0.16391541 -0.028968224 -0.15714628
000120 be ab 50 be 82 7d 4c be c0 08 28 be b8 f4 06 be
       -0.20378014 -0.19969752 -0.16409588 -0.1317929
000130 e5 cc 23 be 00 1b 81 be d8 34 cb bb 9c 82 ab be
       -0.1599613 -0.25215912 -0.006201368 -0.33498085
000140 0c d3 9c 3d b6 55 e0 be 6a b8 b5 bd d1 4d 39 be
       0.076574415 -0.43815392 -0.08873065 -0.18096091
000150 98 0f 48 be a3 56 ea bd 90 eb c4 be ce 94 a7 bc
       -0.19537199 -0.11442306 -0.3846097 -0.020456698
000160 78 9c 12 be 95 2e ea 3d e8 f4 82 be aa 96 9d bd
       -0.143175 0.11434666 -0.25577474 -0.076947525
000170 cc 84 c6 3c d8 17 ff bd 50 41 26 bd c5 63 09 be
       0.024233244 -0.1245572 -0.04058963 -0.13416965
000180 94 ea 01 be 28 68 64 3e a2 cd 1f 3d be da 9d 3e
       -0.1268714 0.22305357 0.039014466 0.3083095
000190 a9 1f e9 3e c8 b4 3a be 62 2a 89 3e 7a 94 0d 3e
       0.45531967 -0.18233025 0.26790148 0.1382617
0001a0 66 ad 91 3e 36 2d 2a 3d 94 86 85 3e 95 ab 7e 3e
       0.28452605 0.041547023 0.26079237 0.24870141
0001b0 06 16 0e 3e d4 2d d5 be 7e 4a d8 3e 4f 33 08 3e
       0.13875589 -0.41636527 0.42244333 0.13300823
0001c0 cf e9 01 be 14 fe a8 be 32 a1 f1 bd b4 b8 ca bd
       -0.12686847 -0.33006346 -0.11798324 -0.098985106
0001d0 68 63 ed bd 08 56 6a bd 10 a4 8a be 00 52 27 be
       -0.11591226 -0.057210952 -0.27078295 -0.16339874
0001e0 f5 f1 9a be 6c ae 5d bb 36 5f bb be 79 d1 a3 be
       -0.30262724 -0.0033825887 -0.36596078 -0.31995752
0001f0 84 87 97 be 0e ff d0 bc 13 19 a1 be 1c 83 90 bd
       -0.29595578 -0.025512245 -0.31464443 -0.07056257
000200 41 8c 8d 3e 72 c4 66 be e0 fa 35 bd 8e 30 56 3e
       0.27646068 -0.22535875 -0.044428706 0.2091696
000210 5f 32 56 3d d6 5b af 3d 07 85 7d be 7b 4f 95 bd
       0.05229413 0.08562438 -0.24757777 -0.0729055
000220 0d c9 c4 3c db 8d 17 bd 15 eb 1d 3e cc f7 63 3d
       0.02402165 -0.03700052 0.15421708 0.05565624
000230 fe 1e 29 3d 71 9d 34 bc 8b ab 81 3d 5c fe c4 be
       0.041289322 -0.011023865 0.06331547 -0.3847531
000240 e0 dd ba 3d 12 19 5d bd 12 35 23 3e 71 fc 48 bd
       0.091243505 -0.053978987 0.15938213 -0.049068872
000250 4d 5c 36 3e 55 98 bf 3c 15 76 3b bd 74 c1 ab bd
       0.17808647 0.023388067 -0.04576691 -0.08386508
000260 23 61 12 3e dc 12 03 3e 21 1d ae bd 87 f5 01 3e
       0.14294867 0.12800163 -0.0850165 0.12691317
000270 8a bd 74 3d 74 e9 94 3d 26 1f bc 3d e2 94 5c be
       0.05975107 0.0727109 0.091856286 -0.2154117
000280 4a 0f 3d 3d 8b bb be bd 86 08 24 bd f7 ba 58 bd
       0.04615716 -0.09313115 -0.04004719 -0.05291268
000290 46 54 55 3a 72 fb bd bd 58 7a 0a bd e5 58 62 3d
       0.0008137863 -0.09276475 -0.033808082 0.055260558
0002a0 37 2b 38 3d 27 a2 58 3c c6 e0 00 bd af 36 b2 3d
       0.044963088 0.013222254 -0.03146436 0.08701836
0002b0 10 6e db 3d 4c 89 d8 bc 89 de 02 bd 3a 3b 88 3e
       0.10714352 -0.026432656 -0.031950507 0.26607686
0002c0 b6 cf ef bd 4e f7 40 3c bf 2a 10 be 2e 33 83 bd
       -0.117095396 0.011777712 -0.14078806 -0.06406246
0002d0 b3 08 78 bd c5 e5 5a be f3 bc a3 bd d0 24 ce bc
       -0.06055517 -0.21376713 -0.079950236 -0.025164038
0002e0 36 7f 8e bd 9f 26 a8 bd 4b 6d 8b bd 1d e2 67 bd
       -0.06957857 -0.082104914 -0.06807955 -0.056612123
0002f0 ff 93 e0 bc f2 0a bf bd 3a 40 56 3c 05 38 a9 3d
       -0.02741432 -0.093282595 0.013076836 0.08262638
000300 4e d1 4d be f4 50 22 be 5e 1a f2 bd ab b3 d8 bd
       -0.20099375 -0.15851194 -0.118214354 -0.10581144
000310 c1 1e ee 3d 62 79 9a be 32 0b 91 bd 75 e7 25 be
       0.116269596 -0.30170733 -0.070822135 -0.16201575
000320 5a 09 9c bd ee 0e 93 bd f7 d8 a0 be 37 b6 f3 bd
       -0.07618971 -0.07180582 -0.3141553 -0.11899989
000330 e1 5f b2 bd 2f bd 15 be f8 8b 5c be f8 63 63 bd
       -0.08709694 -0.14622949 -0.21537769 -0.05551526
000340 7c 56 f7 bd 5e 76 29 be b5 b5 2e b9 27 9f e3 bd
       -0.120770425 -0.1654906 -0.00016661624 -0.1111434
000350 0d 10 36 bd c4 ce 0a be 4f c8 be bd 1a c7 b3 bd
       -0.0444489 -0.13555437 -0.093155496 -0.0877821
000360 40 12 ad bd 86 b6 df 3c bb fb 55 3d cc fc 69 bc
       -0.084507465 0.027308714 0.052242022 -0.014281463
000370 63 63 f9 bd ab f8 e0 bc eb 9d 5e 3c dd ba d9 3d
       -0.1217716 -0.027462324 0.013587455 0.106313445
000380 10 89 3c bd 42 62 b4 bc 93 a8 9a bc 5f 16 95 bd
       -0.04602915 -0.02201951 -0.01887921 -0.072796576
000390 cc 29 1e bd b2 9a bd 3d 21 9f 90 bd 13 a6 17 bd
       -0.03861408 0.092580214 -0.070616014 -0.037023615
0003a0 98 c1 ea bd 02 df cd 3c f5 7f f3 bd 69 3e 98 bd
       -0.11462706 0.025130752 -0.1188964 -0.07433779
0003b0 7e 0e ea bd 6c c6 93 b9 a9 3c 79 bd 52 11 98 be
       -0.114285454 -0.0002818586 -0.060848866 -0.29700714
0003c0 83 09 d8 3d 09 ef ad 3c 4c fc d6 3d fe f5 65 3e
       0.10548689 0.021232145 0.104973406 0.2245712
0003d0 cf cd 12 3e 90 21 52 3e cf 8e e0 3d 28 6b b8 3d
       0.14336322 0.20520616 0.109647386 0.090048134
0003e0 7f 56 24 3e f0 0e 2f 3e ca af bf 3d c8 5e 1b 3e
       0.1604862 0.17095542 0.09359701 0.15172875
0003f0 3d 06 04 3e 33 5b a4 3d 90 8a 32 3e 8c 9e f2 3d
       0.12893005 0.08025207 0.1743567 0.11846647

gru.weight_hh_l0 f4 [384, 128]
000000 f5 3f 84 bd 72 11 bb 3d 93 a6 88 bd 75 a9 52 bd
       -0.06457511 0.09134187 -0.066723965 -0.051431138
000010 6e d1 b7 bd 4e 58 95 bd 66 0d ec 3d 77 1e 97 3d
       -0.089754924 -0.072922334 0.11525993 0.073788576
000020 ac 73 5d be 55 44 0d 3e d6 d5 1d be 8b c8 d8 bd
       -0.21626157 0.13795598 -0.15413603 -0.105851255
000030 e1 4c 3f be 36 65 50 3e e9 d9 0e 3e 58 1e 6d bd
       -0.1868167 0.20351109 0.13950314 -0.057890266
000040 73 d5 33 be 01 ef 32 bd ef fe e8 3d ea a6 42 be
       -0.17561893 -0.043684963 0.1137675 -0.19008985
000050 b9 c5 58 be 00 48 42 be 4c 90 b8 3d 89 b5 91 3d
       -0.21169175 -0.18972778 0.090118974 0.07114703
000060 eb cd f6 bd 10 76 56 be 0c 71 62 be e9 0b 4f be
       -0.120509945 -0.20943475 -0.22113436 -0.20219387
000070 21 fa 8d 3d 3f a1 83 3d aa 6a 91 bd c4 2c 4c be
       0.06932474 0.064272396 -0.07100423 -0.19938952
000080 28 15 c0 bd 2b 6b 2f be 5b 49 37 3d a3 49 ee 3d
       -0.09379035 -0.17130725 0.04474769 0.11635139
000090 cd 6a 6a be 6a a8 c1 3c 6e 4a a2 bc bf 76 76 3e
       -0.22892304 0.023639876 -0.019810881 0.24068736
0000a0 c8 e9 d7 3d a7 f5 4a 3d 32 f6 91 bd cb 0a 0d be
       0.10542637 0.04955068 -0.07127036 -0.13773648
0000b0 20 21 30 bd 07 f2 dd bd 13 9c df 3b 6f 0b 51 bd
       -0.04300034 -0.10837179 0.0068240254 -0.051036295
0000c0 94 6b 3f bd c3 d2 b2 3d 33 7e db 3c 92 7d 41 be
       -0.046733454 0.08731606 0.026793575 -0.18895558
0000d0 25 b3 0b 3e 51 57 27 3e 03 d1 e2 bc 17 39 3a bd
       0.13642557 0.16341902 -0.027687555 -0.0454646
0000e0 c4 f0 54 be 10 99 a5 3d 28 e1 ed bd a0 24 3b 3e
       -0.2079497 0.08085835 -0.11615211 0.1827569
0000f0 c5 9d d6 bd 68 7d 05 3e d2 16 28 bd ca 3d 6f bc
       -0.10479311 0.1303612 -0.04103739 -0.014602134
000100 24 54 07 bd c1 a3 2d 3d fe 2a 3b be 7b 4f 87 3e
       -0.033039227 0.042392496 -0.18278119 0.26427826
000110 ff 15 94 bd 1e 24 04 be 87 19 ef bd 97 50 53 3e
       -0.07230758 -0.12904403 -0.11674791 0.20636211
000120 7f a4 37 3e 7c b8 08 3c 22 3c 58 3c 18 a1 df 3d
       0.17933844 0.008344766 0.0131979305 0.10919398
000130 44 ba 51 3e a9 4a d6 3b 5d c6 b0 bd fe e2 57 be
       0.20481211 0.006539662 -0.08631585 -0.21082684
000140 ce 55 8f 3d 15 ad 55 bd 70 fa b6 bd 82 54 7c be
       0.06998788 -0.052167017 -0.08934486 -0.24641612
000150 7d ba e6 3d 65 d4 c8 bd 8b 5d 7a 3e ca 15 19 be
       0.112660386 -0.09806136 0.24449746 -0.14949718
000160 de f8 37 bd 91 51 d9 3d 70 92 61 3d 60 5e 6a bd
       -0.044915073 0.10611261 0.055071294 -0.05721891
000170 f0 59 c4 bd b4 dd 07 3d 33 0a c2 bd a6 39 e3 bc
       -0.09587467 0.033170417 -0.094746016 -0.02773745
000180 06 33 20 3e be 5e 75 be c2 12 cf bd 04 28 2c bd
       0.15644464 -0.23961923 -0.10111 -0.04203035
000190 3e 0e d2 3d 31 c4 6f 3e 7f 4d b5 3d fc 5f 0a 3e
       0.10256623 0.23414685 0.08852672 0.13513178
0001a0 8d a4 66 bd b2 38 8a 3d ad 70 18 be bd 50 02 3e
       -0.05630927 0.06749095 -0.14886732 0.12726112
0001b0 4d 9b aa bd 9e 43 b6 bd c5 17 c6 3d b9 2d 08 3e
       -0.083304025 -0.08899616 0.096725024 0.13298692
0001c0 4a f0 44 3e f8 05 d5 bd dc 8e 17 be 97 9a 71 3d
       0.19232288 -0.10401529 -0.1480059 0.05898532
0001d0 5b 6c 51 3e 95 11 68 bd 4c cf cb 3d 40 96 35 3e
       0.2045149 -0.056657393 0.09951648 0.17733097
0001e0 b0 24 c9 3c 9c e8 01 3c 94 35 f0 bd 2a 26 e0 bd
       0.024553627 0.007928994 -0.11728969 -0.10944779
0001f0 39 75 ba bd 20 4e 6c be 75 74 ec 3c 64 2c 92 3d
       -0.0910439 -0.23076677 0.028864125 0.07137373
000200 64 69 43 be 58 8c ff 3c 38 ca 19 3c 89 9c 1f be
       -0.19083172 0.03119485 0.009386592 -0.15587057
000210 85 e2 16 3a 62 90 c7 bc f1 57 1f 3e 61 30 c9 3d
       0.00057558 -0.02436084 0.1556089 0.09823681
000220 a4 7f 63 be fb 28 78 3d 56 09 6d be f5 5c be bd
       -0.2221666 0.060585957 -0.23148093 -0.09295074
000230 b6 97 16 be 95 c8 50 3e cf b7 13 3b 59 09 22 be
       -0.1470631 0.20389016 0.0022539978 -0.15823878
000240 5a 67 c9 bd 0b 08 40 be b8 8a 5c 3d 38 3a 3e be
       -0.09834166 -0.18753068 0.05384323 -0.18576896
000250 b3 e3 40 be 61 8e 87 be b8 f6 b7 3d 28 d5 1e 3d
       -0.1883686 -0.26475814 0.08982605 0.0387775
000260 d2 c7 03 be 07 3e 5b be 74 db a4 bd 84 49 24 be
       -0.12869194 -0.2141038 -0.0804967 -0.16043669
000270 32 59 19 3e 37 b1 6d 3d 68 1e 3c 3c ee 75 5d be
       0.14975432 0.058030333 0.011481859 -0.21627018
000280 ee f9 21 3e 1d 5a 58 be 35 aa 96 bd d4 1e 36 3e
       0.15817997 -0.21128125 -0.07356683 0.17785197
000290 18 f6 76 be e7 8a 07 3d 08 35 92 bc 94 44 86 3e
       -0.24117315 0.033091452 -0.017847553 0.26224196
0002a0 79 32 4c 3d 4e 45 e4 bd cf a2 c3 bd d4 85 64 be
       0.049852822 -0.11146031 -0.09552538 -0.22316676
0002b0 22 f4 4e be 45 be 6d be e5 12 11 3e 8b d0 7e 3d
       -0.20210317 -0.23217113 0.14167364 0.0622106
0002c0 83 a4 14 be e2 55 da 3d a9 f3 c3 bd 5c 34 27 be
       -0.14515881 0.10660912 -0.09567959 -0.16328567
0002d0 57 62 f8 3d 63 5c f8 3d 69 57 92 bc 29 94 6d 3c
       0.12128132 0.12126996 -0.017863946 0.014500656
0002e0 62 fa 35 bd 19 cd 48 3e 8e d8 3d be 73 4e 5d 3e
       -0.044428237 0.19609489 -0.1853964 0.21611957
0002f0 1a 00 20 bd 33 b3 b4 3d c7 b7 27 bd d2 1b af bd
       -0.039062597 0.08823242 -0.040946748 -0.08550228
000300 a1 cc ae 3d 53 87 a6 bd bd b8 a7 bd 5a da 9a 3d
       0.085351236 -0.0813128 -0.08189533 0.075611785
000310 af 27 1b be 60 11 4b be a6 88 d4 3a 96 be 8c 3d
       -0.15151857 -0.19830847 0.0016215041 0.06872289
000320 bf 0f 7a 3d e4 71 ff bd f8 52 62 3d 4d 6e 21 3e
       0.061050173 -0.12472895 0.055254906 0.15764733
000330 8d 14 5c 3e c5 e2 bf 3d 61 cb ce bb ce 84 51 bd
       0.21492215 0.09369425 -0.0063108657 -0.051152043
000340 94 5f af 3d 24 25 00 be 3f e5 a3 bc 7c 34 46 be
       0.08563152 -0.12514168 -0.020006774 -0.19355959
000350 ca af 7d be a1 3a 33 bd 33 4a 87 3d 9e 1e 5c be
       -0.2477409 -0.043757085 0.06605949 -0.21496055
000360 27 c6 ad 3c 51 5e 06 bd 6d 13 24 3e 76 d2 b3 3d
       0.02121265 -0.03280479 0.16023035 0.087803766
000370 fb 51 c4 bd c8 be 89 3c ac d4 79 b9 9f 82 6e 3d
       -0.09585949 0.016814604 -0.00023825717 0.05823004
000380 a4 f8 ad 3d 83 7f d4 bd 70 8c fc bc 69 d8 b0 bd
       0.0849469 -0.103758834 -0.030828685 -0.08635027
000390 0a ff 1c 3e f7 37 1b 3e a3 da 1a 3e 23 88 11 3e
       0.15331665 0.15158068 0.15122466 0.14212088
0003a0 1e e4 9d bd 46 56 8a 3d c0 3d 50 be 4f ea d4 3d
       -0.077095255 0.067547366 -0.20336056 0.10396253
0003b0 c3 06 fd bc 88 d8 d9 3d b6 fc 37 3e 40 da 9e 3d
       -0.030887013 0.10637003 0.17967495 0.07756472
0003c0 17 bd 60 3e 2c 9d 0a be dc 5e a2 be 05 23 12 3e
       0.21947132 -0.13536519 -0.31712997 0.14271171
0003d0 3f dc 82 3e 99 a4 20 be 27 9d 16 3e 60 a5 48 3e
       0.2555866 -0.15687789 0.14708386 0.19594336
0003e0 c1 f2 53 bd 55 db 83 bd 91 5b 13 be 8d e5 35 be
       -0.05174518 -0.06438319 -0.14390399 -0.17763348
0003f0 03 f4 02 be 9f b0 ef bd a0 de ad bd 8b 06 32 bd
       -0.12788396 -0.1170361 -0.08489728 -0.04346327

gru.bias_ih_l0 f4 [384]
000000 34 8f 9d bd 3d a2 0b be e2 98 f6 3c a2 07 9c 3d
       -0.076933295 -0.13636108 0.030102197 0.07618643
000010 c4 8a 17 be de 8c 61 3d d5 4f 2b 3e 8c f8 2b bd
       -0.14799029 0.055065982 0.16729672 -0.04198508
000020 6e 37 a0 3d 27 2f ba 3d d1 24 f4 bc 63 ad 0e bd
       0.078230724 0.09091025 -0.029802712 -0.034833323
000030 f2 52 c4 bd c4 a5 66 bd f5 ea 80 bd 22 f4 8e 3d
       -0.09586133 -0.05631043 -0.062948145 0.069801584
000040 a7 cf d5 bd 7a 8b 1f be ae 8a ce bd 7c bc 0d 3d
       -0.10439997 -0.1558055 -0.10085045 0.03460358
000050 c6 5c a9 bd 14 c2 1d 3e 18 54 0d 3c d4 a2 d6 3b
       -0.08269648 0.15406066 0.008626007 0.0065501723
000060 2c 7b a3 3d 47 7a 0b 3e 62 d5 75 3c ec b9 d6 3c
       0.079824775 0.13620864 0.015004488 0.026211701
000070 cc 7f ad bd ea 07 49 be 9a bd 25 3d 78 1c 08 bc
       -0.08471641 -0.19631925 0.04046402 -0.008307569
000080 2c 5c ba bb f3 77 01 bd e3 38 ef bc 67 a4 87 3c
       -0.0056872573 -0.031608533 -0.02920193 0.016557885
000090 14 ad d9 3d 24 00 b5 bb 35 77 0c be 0f 3a 47 be
       0.10628715 -0.0055236984 -0.13717349 -0.19455741
0000a0 2a 77 26 be 04 8f 06 3d 12 6c ec bd 75 fd f1 bd
       -0.16256395 0.032851234 -0.1154405 -0.11815921
0000b0 ae c6 5c 3e a3 01 25 bd e0 c1 86 bc ad de c7 bd
       0.21560165 -0.040284764 -0.016449869 -0.09759269
0000c0 6b e5 ac 3c 8c 9a 34 bd 34 d0 c4 bd e4 f9 21 bc
       0.021105489 -0.0440927 -0.09610024 -0.009886239
0000d0 c6 d5 d1 bd d1 93 1f 3e f6 da ff bd a2 9d 72 be
       -0.10245852 0.15583731 -0.12492935 -0.23692945
0000e0 13 d9 2c bd 35 59 15 3e b6 40 ef 3d 3a 54 87 3c
       -0.042199206 0.14584811 0.116822645 0.016519655
0000f0 ab ec e9 bd 9d 8d f5 3c 92 b7 e4 bd 3c 0a bc 3d
       -0.11422094 0.029974753 -0.11167826 0.091816396
000100 65 b0 17 be d4 ff 1d be 40 50 01 3e fc 9d 2b bd
       -0.14813383 -0.15429622 0.12628269 -0.041898713
000110 1a 1d d6 3d ac 19 d6 bc 9a d1 10 be 37 88 83 3d
       0.104547694 -0.026135288 -0.14142457 0.06422465
000120 03 19 7e 3b 44 bd b1 3d 28 fe 32 be ca 83 7b be
       0.0038772232 0.08678678 -0.17479765 -0.24561992
000130 c8 a2 90 3c a0 68 18 bd 07 fd 5a 3b b5 cb 1c bd
       0.017655745 -0.037209153 0.0033414976 -0.038280208
000140 9d ef be 3c 97 2d 0f be 32 6e 13 be 14 6f b8 bd
       0.023307616 -0.13982235 -0.14397505 -0.090055615
000150 01 78 f8 bd c8 cc 8c bc 79 6f ed 3b 6f be 59 3d
       -0.12132264 -0.017187491 0.0072459546 0.053160127
000160 d1 9e b5 bc af 7b 45 be 58 d5 3c be ce 37 d3 bd
       -0.022170456 -0.19285463 -0.18440759 -0.10313378
000170 09 78 51 3c ac 27 bf 3c 03 72 9e 3d 25 86 42 be
       0.012784966 0.023334347 0.0773659 -0.18996485
000180 06 68 46 bd ed 5b 80 3d fc 84 85 bd 89 b1 ce bd
       -0.04843905 0.062675335 -0.065195054 -0.10092456
000190 05 35 a7 3b 41 23 49 3d d2 2d 8b be af c1 1d be
       0.005102756 0.049105886 -0.27183396 -0.15405916
0001a0 4e 6c 09 bd a8 a3 47 be 50 05 1b 3e b3 47 2e be
       -0.033550553 -0.19496024 0.15138745 -0.17019539
0001b0 98 23 01 be 10 ab f8 bd 9e 7d 3f bd ff 7e f7 bd
       -0.12611234 -0.121420026 -0.046750657 -0.120847695
0001c0 26 f6 07 be 3d e0 38 bc f9 a0 81 bd 1f 30 b2 3a
       -0.13277492 -0.011283931 -0.06329531 0.0013594663
0001d0 6b d7 a4 3d 24 be 14 bc b3 b6 77 be e1 3c 6b be
       0.080489 -0.009078536 -0.24190788 -0.22972442
0001e0 a6 5d d2 bd 37 81 45 bd de f6 01 be fe f7 e4 bd
       -0.10271768 -0.048218932 -0.12691829 -0.11180113
0001f0 33 85 07 3c 2b 8b 13 be 08 49 38 bb 44 de 8b bd
       0.008271503 -0.14408557 -0.0028119702 -0.06829503
000200 fd 1e 5a 3e 30 e2 aa be bc 21 89 3e 34 af d2 3d
       0.21300884 -0.33375692 0.2678355 0.102873236
000210 4e 6d 00 be 88 99 69 bd bc c9 11 bd a8 68 9b bd
       -0.12541696 -0.057031184 -0.03559278 -0.07588321
000220 b0 7e 3f 3e 2e cd 48 3e 0d 5b 80 3e d7 97 62 3e
       0.18700671 0.1960952 0.25069466 0.22128235
000230 3e 9f f4 bd c8 73 cc 3e e6 c2 3c 3e 4c 66 b0 3e
       -0.119444355 0.39932084 0.18433723 0.34453046
000240 96 dd aa 3d cd 21 ee 3d 20 1a 43 be 15 93 67 3e
       0.083430454 0.11627541 -0.19052935 0.22614701
000250 05 ed 89 3d 0a 10 06 3e 10 a3 9b 3e de 51 81 3e
       0.06734661 0.13092056 0.30397844 0.25257772
000260 c8 64 ad 3e 3f 19 45 3d d1 49 ff 3d 5d 32 ef bd
       0.33865952 0.04811978 0.12465251 -0.11679528
000270 d9 0a 1a 3e 78 db 85 bd f4 4a 0e 3e 1f 9c 91 3e
       0.150432 -0.06536001 0.1389578 0.28439423
000280 24 6f aa be 2d a4 00 3f 47 3d 68 3c 6d da 91 bd
       -0.3328792 0.5025051 0.014174766 -0.071217395
000290 3f c2 a5 3e 94 85 bf bd c6 f4 8e 3d a9 5d 1b 3e
       0.3237476 -0.0935165 0.069802806 0.15172447
0002a0 5b 24 b4 3e b1 7f 1a 3e ad 21 cb 3e 2b 88 18 3e
       0.35183987 0.15087773 0.3967413 0.14895694
0002b0 99 64 0c bd 02 7c 95 3e ed 8b ee be fa fd 0e be
       -0.034275625 0.29196173 -0.4659113 -0.13964072
0002c0 e2 d9 07 3e ef 44 69 3e 56 55 60 3e 8d f7 97 3e
       0.1326671 0.22780202 0.21907553 0.29681054
0002d0 f1 b3 6e be 03 cf b5 3d 6d 43 59 3d 67 93 da be
       -0.2331083 0.08877375 0.053042818 -0.42690584
0002e0 aa 9d 23 3e 6f 09 12 3d 29 c7 84 3e f3 64 15 bb
       0.15978113 0.035653528 0.25933197 -0.0022795766
0002f0 4f 8b 4d 3c f3 04 4d 3d ef 86 18 bf fa b3 87 be
       0.012545421 0.050053548 -0.5958089 -0.265045
000300 9a a2 73 be 3f 30 b7 3e d3 54 55 3e 52 f4 34 bc
       -0.23792496 0.35778996 0.20833139 -0.011044579
000310 6d 78 94 3e 30 22 da 3e 9d 82 9b be e2 3a ac 3e
       0.28998128 0.42604208 -0.30373088 0.33638674
000320 5a 0c 9e 3e f8 03 f3 3d 85 7d 58 3c d8 71 54 3e
       0.30868798 0.11865991 0.01321352 0.20746553
000330 e8 be bc 3e 0d c1 84 3e e2 d6 c1 3d 61 0a 64 3d
       0.368644 0.25928536 0.09464814 0.05567396
000340 ea 73 42 3e 44 9c b2 3e b4 e9 8d 3e 93 71 20 3e
       0.1898953 0.34884846 0.27717364 0.15668325
000350 15 b2 9d be e1 a1 73 3e b4 28 bb 3e 00 f9 91 3d
       -0.30799928 0.2379222 0.36554492 0.07127571
000360 d3 d8 6f 3d 8e 78 83 be 46 22 61 be e4 78 1d be
       0.05855639 -0.25677913 -0.2198573 -0.15378147
000370 06 d5 36 3e 49 67 e6 3d 52 d9 d0 3d f1 e1 a0 3a
       0.178547 0.11250169 0.101977006 0.0012274367
000380 d8 39 81 3e 0a f4 12 3d 49 82 fb be 3b cc 1e 3e
       0.25239444 0.035877265 -0.49122837 0.15507595
000390 14 dd 55 bd 06 e4 77 3e 45 01 0a 3e b7 45 de be
       -0.05221279 0.24208078 0.13477047 -0.43412563
0003a0 42 8c 85 3e f9 4c 28 bf 7e cf 15 3e 0b 12 36 be
       0.2608357 -0.6574245 0.14629933 -0.1778032
0003b0 7b 67 22 be 16 ee 0e bc eb 62 9d 3e cd 4a 7c 3e
       -0.15859787 -0.008723756 0.3073953 0.24637909
0003c0 e9 a2 10 3d 8b f1 2f 3e a5 50 5f 3d 65 50 af 3e
       0.035311613 0.17181985 0.054520268 0.34241024
0003d0 fb 33 3d 3e fd 1c 95 3e d6 d7 a9 b9 cc 95 22 bc
       0.1847686 0.2912368 -0.00032395002 -0.00992341
0003e0 26 03 1d bc 8a 98 a6 be a0 16 ac 3d b5 45 c7 3e
       -0.00958327 -0.32538253 0.08402753 0.3892037
0003f0 92 a7 ff 3d 4f de 24 be ec 11 09 3e 50 10 49 3e
       0.124831334 -0.16100429 0.13385743 0.19635129

gru.bias_hh_l0 f4 [384]
000000 4a bd 7f bd 79 a1 80 be 85 ee 5b 3c 79 bf e8 3d
       -0.06243638 -0.25123194 0.013423567 0.113646455
000010 52 31 1d be 75 bb a5 3b f5 43 21 3e 18 78 40 be
       -0.15350845 0.005057747 0.1574858 -0.18795812
000020 85 33 a1 3d a2 f4 a1 3d 2e ee 77 bd 2b 6b 40 3c
       0.07871155 0.07907988 -0.06052988 0.011744301
000030 e9 6a 38 be ed a8 08 bd 30 ec d1 bd 58 8e 15 3e
       -0.18009533 -0.033364225 -0.10250127 0.14605081
000040 1e 70 6a 3c 7e 18 45 bd 91 78 af bd 44 51 2d 3e
       0.014308957 -0.04811906 -0.08567918 0.16925532
000050 50 26 43 be 81 d3 9f 3d b8 10 b2 3d 01 91 54 bd
       -0.19057584 0.07804013 0.08694595 -0.0518961
000060 8e d9 22 3e 5a 6e 12 3e c7 b5 f1 bd b6 c3 e3 3d
       0.15903303 0.14299908 -0.118022494 0.11121313
000070 42 67 e5 bd e4 75 53 be 01 cc 07 3d 32 33 17 be
       -0.112013355 -0.2065044 0.033153538 -0.14765623
000080 4a bc 05 be 2b 13 26 3b 34 91 e7 3d 7c 0f 9b 3d
       -0.13060108 0.0025341015 0.11306992 0.07571313
000090 e9 11 96 3c dc b3 eb bc ee 36 9f bd 49 4b 91 be
       0.018319087 -0.028772287 -0.07774149 -0.2837775
0000a0 10 7c 87 be ff 4f c3 bd ad 8e a7 bb 30 cc db 3a
       -0.2646184 -0.095367424 -0.005113444 0.0016769227
0000b0 e7 07 bb 3d c5 52 b2 3c 08 e0 c9 bd 68 de 2d be
       0.091323666 0.021767983 -0.09857184 -0.16979373
0000c0 ef 66 14 3b 1a be 1d 3c e7 5e 0c be 7b cf 09 3e
       0.002264436 0.009627843 -0.13708077 0.13458054
0000d0 20 9f 0a bd 2e 09 0a 3e 9b 7b 72 bd c3 93 86 be
       -0.03384316 0.13480064 -0.05919991 -0.26284608
0000e0 0d b3 8b bd 20 cb a1 3d d6 00 dd 3d 58 de e1 bd
       -0.068212606 0.07900071 0.10791175 -0.11028737
0000f0 53 4b 33 bd 18 19 95 3d 7f a8 60 be b9 8a 3c 3e
       -0.043773007 0.07280177 -0.21939276 0.18412293
000100 a6 5c 2d be 2e a2 4c bd 65 68 c9 bc 49 ba fc bd
       -0.16929874 -0.049959354 -0.024585912 -0.123402186
000110 6d 86 4b 3e af f0 2d be b1 e7 27 be 72 f0 3b 3d
       0.19875498 -0.16986345 -0.16396977 0.045883603
000120 af a6 5c 3c 4b f7 9f bc ea e2 83 be 46 ce 4d be
       0.013467475 -0.019527098 -0.2575906 -0.20098218
000130 63 4f 53 b9 36 8d 8e bd b9 f8 17 3e a6 66 4d bd
       -0.00020152102 -0.069605276 0.14840974 -0.05014672
000140 fc 3d 44 3c b6 72 25 be 7e 34 8d be ef d3 b1 bd
       0.011977669 -0.1615704 -0.2757911 -0.08683001
000150 50 b6 b7 bd d2 4c c5 bc 69 e4 6b 3b 96 a3 82 3d
       -0.0897032 -0.024084482 0.0035994297 0.06378858
000160 9c d2 ad bd e6 09 0b be 4a 6c 5b be c9 06 49 be
       -0.08487436 -0.13577995 -0.21428028 -0.19631495
000170 32 9b 05 3d e1 d2 c9 bb 1d a6 b5 3d 22 e0 2c bd
       0.03261871 -0.006159172 0.08869574 -0.042205937
000180 36 32 9c bb 25 aa ce 3d ae e7 04 bd b5 c2 d3 3c
       -0.004766728 0.10091046 -0.03244751 0.02584968
000190 ed b2 79 3d 05 2a 14 3d 4e 25 04 be 68 90 0e bd
       0.060961653 0.036172885 -0.12904856 -0.034805685
0001a0 a9 c0 ad bd 74 98 58 be 87 6b 06 3e ea 3d 25 be
       -0.08484013 -0.21151906 0.13126956 -0.161369
0001b0 b1 03 dd bd d0 77 86 bb 23 77 76 3d 8a ea d3 3c
       -0.1079172 -0.004103638 0.06017221 0.025868673
0001c0 84 eb 2b be 09 ad 21 be 73 16 21 bc 54 40 81 bd
       -0.16789061 -0.15788664 -0.0098320125 -0.06311098
0001d0 c5 13 2a 3e 3a f3 d4 bd 00 26 3e be f5 e7 33 be
       0.16609104 -0.10397954 -0.18569183 -0.17568953
0001e0 fa fb 57 be b4 6c 71 bd 19 d8 46 be e0 ca 3f bd
       -0.21092215 -0.058941558 -0.19418372 -0.046824336
0001f0 ab d1 0e 3e f8 71 cb bd 7d 17 a0 bd 72 c8 19 bc
       0.1394717 -0.09933847 -0.0781698 -0.009386169
000200 2d 24 72 3e f2 f4 78 be 4b ee 8b 3e b3 f1 6e 3e
       0.23646612 -0.24312189 0.2733024 0.23334388
000210 d3 c3 43 be 98 57 1c be 1e a7 d5 bd 51 86 69 be
       -0.1911767 -0.1526779 -0.10432266 -0.22805144
000220 6e 8e 29 3e 04 e6 6f 3d ee e2 44 3e 44 64 5d 3e
       0.16558239 0.05856897 0.19227192 0.2162028
000230 01 99 13 be 90 a7 ad 3e e3 fd aa 3d 67 a5 93 3e
       -0.14413835 0.33916903 0.08349206 0.2883713
000240 64 93 16 3d 8c b6 f0 3d 64 03 bb bd 6f 3a 41 3e
       0.036761656 0.11753568 -0.09131506 0.18869947
000250 58 24 d1 bd 0a 72 7d 3e 98 3a 88 3e 61 24 a7 3e
       -0.1021201 0.24750534 0.26607203 0.32644942
000260 c1 fa 75 3e 08 68 a7 3d 44 a1 0e 3e 6a d0 0d bd
       0.24021436 0.08174139 0.13928705 -0.034622587
000270 24 34 0d 3e e1 50 8f bd a9 cd 8c 3d e4 83 c7 3e
       0.13789421 -0.06997848 0.06875164 0.38967812
000280 0c fa a4 be 24 86 ce 3e 84 92 0e 3d 7b e8 05 3b
       -0.3222202 0.40336716 0.034807697 0.0020432759
000290 28 fc a4 3e 24 e9 c9 bd 25 dc b0 3c df 6e 5e 3e
       0.3222363 -0.09858921 0.021589348 0.21721981
0002a0 43 c1 b5 3e 54 e2 ba 3d b0 6b d3 3e e8 b9 ca 3d
       0.3549901 0.091252 0.41293097 0.0989874
0002b0 04 c0 9a 3d 2f ba a1 3e 2f c5 ee be 32 ad 69 be
       0.07556155 0.3158736 -0.46634814 -0.22819975
0002c0 3d 59 b1 3d cf ac 95 3e ee db d3 3d a9 8a 63 3e
       0.08659599 0.29233405 0.10344683 0.22220863
0002d0 20 96 94 be ad df f8 3d bf 2b e3 3d c4 92 bf be
       -0.29020786 0.12152038 0.11092328 -0.3741666
0002e0 f2 2f 84 3d c5 05 e9 3d 66 e3 a0 3e fb f3 cb 3b
       0.06454457 0.113780536 0.3142349 0.006224153
0002f0 51 c1 10 bc 8d de 75 bb f4 ba 3b bf 77 a0 a0 be
       -0.008835153 -0.0037516684 -0.7333214 -0.31372425
000300 42 f9 7e be 58 5f e3 3e 37 cf 5f 3e 23 c0 b4 3d
       -0.24899772 0.4440868 0.2185639 0.0882571
000310 b8 bf 9d 3e f1 47 d9 3e 64 db 92 be 1d f8 c8 3e
       0.30810332 0.424377 -0.28683007 0.39251795
000320 6c 64 94 3e e4 ca ce 3c ce 7d 01 be b9 2d 79 3e
       0.28982866 0.02524323 -0.12645647 0.24333848
000330 a5 66 dd 3e df cb 2e 3e c2 3c b9 3d 4d f8 d6 3d
       0.43242374 0.17069958 0.09044792 0.10496578
000340 92 c8 82 3e 43 dc e7 3e 7a 71 40 3e eb 37 7e 3e
       0.25543648 0.45285234 0.18793288 0.24826019
000350 62 99 a5 be 88 d9 95 3e 1f 86 5a 3e f8 ad 07 3e
       -0.32343584 0.29267526 0.21340226 0.13249958
000360 64 17 08 3e 1f d2 ed bd f2 51 88 be 2b e7 c2 bd
       0.13290173 -0.11612343 -0.2662502 -0.09516748
000370 75 5a ad 3c 23 80 1d 3e 6b f0 e4 3c 6e bb 42 3d
       0.021161297 0.15380912 0.027946671 0.047542028
000380 ca 6b 53 3e 1e 4d 29 3d f2 75 0f bf 70 6c b0 3d
       0.20646587 0.04133331 -0.56039345 0.08614433
000390 27 8c 85 3d 7b 8b a0 3e 68 e5 30 3e 51 f5 0a bf
       0.065208726 0.31356415 0.17275012 -0.54280573
0003a0 da 95 40 3e e4 0a 30 bf 3c 10 2b 3e 4a 1d b9 bd
       0.18807164 -0.6876662 0.16705412 -0.090387896
0003b0 5c 59 ce bd 50 66 ca 3d 43 33 90 3e d1 31 c6 3d
       -0.10075638 0.09882796 0.2816411 0.096774705
0003c0 c7 29 1c 3b dd 93 f5 3c 5e 32 49 3e f4 72 dc 3e
       0.0023828612 0.029977733 0.1964812 0.43056452
0003d0 8e 67 6f 3e 5b 98 aa 3e 53 a2 58 bc 5d f5 cf 3d
       0.23379347 0.33319363 -0.013222295 0.10154221
0003e0 1c e4 f8 bc 4f 23 e8 be b6 c8 24 3e 0d 50 eb 3e
       -0.030382209 -0.45339438 0.1609219 0.4595951
0003f0 8a 5f 2f 3e d8 9d 9a bd 62 59 0e 3e 98 4b 0e 3e
       0.17126289 -0.075496376 0.13901284 0.13896024

gru.weight_ih_l1 f4 [384, 128]
000000 de d6 af 3d 0f cb b8 bc 0b 9a c5 bd c1 4a bd bd
       0.085859045 -0.022557763 -0.09648522 -0.09242774
000010 ea e4 38 3e ee 69 85 3d b0 7c 3f 3d c0 b6 83 3d
       0.18056074 0.06514345 0.04674977 0.06431341
000020 b4 cd 02 be 9d 5f c5 3d 66 e9 49 3c 85 1f 98 3d
       -0.12773782 0.096373774 0.012323713 0.07427887
000030 9e 90 fb 3d 8d 09 b1 3d 6d 74 7f 3c 66 e6 78 bc
       0.12283443 0.086444 0.015591723 -0.01519165
000040 e1 4c 2c be 67 32 0c be e0 7c 1b be e0 93 e0 bd
       -0.16826202 -0.13691102 -0.15184355 -0.10965705
000050 a5 78 a9 3d 16 b3 32 bc 20 c3 32 3c 1a 95 0b bd
       0.08274964 -0.010906955 0.010910779 -0.03407774
000060 a7 8f 91 bd b9 f1 ae 3d 45 00 c6 bd 0d a8 3c 3d
       -0.07107478 0.08542199 -0.0966802 0.046058703
000070 47 a8 96 bd be bb 6d bd 71 cc 56 bd 00 dc 02 bd
       -0.07356315 -0.058040373 -0.052441064 -0.03194809
000080 95 8d 24 be d1 b9 5d bd b1 a1 47 3d c5 b8 00 3e
       -0.16069634 -0.054132286 0.048738185 0.12570484
000090 e9 a8 3e 3c bd 21 3c bd cf 60 7b be 51 68 cc bd
       0.011636951 -0.045930613 -0.24548648 -0.09980834
0000a0 30 9e c7 3c db d7 cb bc 65 33 81 3d 90 87 0a 3c
       0.024367422 -0.024883201 0.06308631 0.008455172
0000b0 8c 45 1b 3d c5 ea eb bd ee b9 38 3e 13 df b3 bd
       0.037908122 -0.11519388 0.18039677 -0.087827824
0000c0 c4 dc 06 be 87 ce d6 3c ec 04 fa 3b 14 ba b7 bd
       -0.13170153 0.026221527 0.0076299813 -0.089710385
0000d0 bd 58 bc bd 9f 13 e5 3d e4 11 29 3e 67 fd a9 3d
       -0.09196613 0.11185383 0.16510731 0.08300286
0000e0 6a aa bc bd c5 2a ab b7 91 dc b9 bd 58 53 c1 3d
       -0.092121914 -2.0404705e-05 -0.09075273 0.09439725
0000f0 db 7a 1b 3d 4a ff 3b 3d 62 24 b0 be c8 13 21 3e
       0.03795896 0.04589776 -0.34402758 0.15730202
000100 35 ec 44 bd c2 ef 0f 3d 26 f0 01 bd 17 ab a7 bd
       -0.048076827 0.03514076 -0.031723164 -0.0818693
000110 fe 4a 89 ba 2f aa c7 bd 7b db ab 3d f3 2e 6d 3d
       -0.001047462 -0.09749257 0.08391472 0.057906102
000120 4c a5 e9 3c 66 93 a2 3d 36 ca de 3c e2 db 76 3d
       0.028521203 0.0793827 0.027196031 0.06026829
000130 c4 d1 25 bc d0 85 88 bc cb 06 09 3d c3 fd 16 bd
       -0.010120813 -0.01666537 0.033453744 -0.0368631
000140 2b 1c f9 3c d8 4d 23 3c 0f 05 4e 3d 5f af 9d 3d
       0.03040894 0.00996729 0.050297793 0.07699465
000150 80 ee 0c 3a a1 b1 3c 3d ae 02 84 3d a9 d2 19 bd
       0.00053761154 0.046067838 0.064458236 -0.037554417
000160 f3 72 a0 bd 81 14 43 3e cb 8b 8a 3d fe a4 23 3d
       -0.07834425 0.1905079 0.06764945 0.03995227
000170 ce 93 52 bc f6 0e b1 bd ca 0d 80 bd 3e f1 1b 3d
       -0.012852622 -0.08645432 -0.0625263 0.038071863
000180 25 16 50 3d 9d 97 2c 3d b2 b6 96 bb 91 86 3f 3c
       0.05080237 0.042136777 -0.0045994157 0.011689798
000190 16 dd 24 3d 81 88 f6 bc aa c8 e3 bd ef 99 96 3d
       0.040249906 -0.030094387 -0.11122258 0.07353579
0001a0 41 c7 6a 3d 9e 1a 19 be 43 f7 8f bd 93 62 18 3d
       0.05731893 -0.1495156 -0.07029583 0.037203383
0001b0 2c 73 1e 3c 28 f7 db 3c 65 18 82 3c 6b 21 f8 3d
       0.009671014 0.026851252 0.015880773 0.12115749
0001c0 d3 dd 19 3d c8 aa cb bd 4f e8 11 3c 45 ea b1 bc
       0.037565064 -0.09944683 0.008905484 -0.021718154
0001d0 34 b3 9d 3d 28 cc ac ba 20 e7 b1 3c 4b 62 02 be
       0.07700196 -0.0013183402 0.021716654 -0.12732808
0001e0 09 dc 93 3d 08 6b d7 3c c8 2c e2 bd 7e ea b2 bd
       0.07219703 0.026296154 -0.110436976 -0.08736132
0001f0 95 f0 89 bd 02 f2 df 3b 83 37 a0 bd b8 a4 9d bd
       -0.067353405 0.0068342695 -0.07823088 -0.07697433
000200 8d 5e 62 3d 70 2e 4d be 48 5e 11 be 77 a4 80 3b
       0.055265952 -0.20037246 -0.14196122 0.0039258557
000210 a7 63 f8 3d 3c ca 53 3c dc 0b d8 3c 84 ce 8b bd
       0.12128382 0.012926634 0.026372842 -0.06826499
000220 91 00 50 bd 39 aa 03 bd 9e a3 96 3d 0d 32 c2 3d
       -0.05078179 -0.03214476 0.07355426 0.09482203
000230 3a 94 e7 3d 09 ee 1e be 00 00 d4 3d 28 1d cf 3c
       0.11307569 -0.1552049 0.103515625 0.025282457
000240 79 09 e3 3d 2b c5 43 bd 02 0a e4 bc 6f 92 0d 3e
       0.11085791 -0.047795456 -0.027836803 0.13825391
000250 1b 6c 90 3d f0 1a 68 3c d5 3e dc bd 1c 21 cd 3c
       0.070518695 0.014166579 -0.10754172 0.025040202
000260 bc 47 db 3d 0b 2d f4 bc 79 3a 17 3e 49 2f 1e bd
       0.107070416 -0.029806634 0.147684 -0.038619313
000270 ac 1a 46 bd 16 49 9e bc f3 af fd 3d fe a1 5c 3d
       -0.04836528 -0.01932196 0.12387075 0.053865425
000280 e0 e6 ee bd 38 ff ac 3b 7b 4f 73 3d 33 91 6f bd
       -0.1166513 0.005279448 0.05940197 -0.058488082
000290 82 d1 b4 bc 1e 79 df 3d 2b 37 d6 bd 14 17 f6 bd
       -0.022072557 0.10911773 -0.10459741 -0.120161206
0002a0 34 eb 5d bd 8f 5d 93 3c 1b 2c 05 3e f4 4a e3 3b
       -0.054179385 0.017988948 0.13005106 0.0069364253
0002b0 25 63 2b 3d 4c 10 c2 3d fa 85 f7 ba 3a 52 dc bd
       0.0418426 0.09475765 -0.0018884533 -0.10757871
0002c0 df 1e 71 bd 11 fe ad bd de 10 7c 3d fd f3 6a bd
       -0.05886733 -0.08495725 0.061539523 -0.05736159
0002d0 19 08 da bc dd 5f eb bd ef a3 06 bd 30 b4 09 3e
       -0.02661519 -0.11492894 -0.032871183 0.13447642
0002e0 2b 29 44 bc 14 51 db 3d 54 70 8e 3d 93 79 e1 3c
       -0.011972706 0.10708824 0.06955019 0.027523791
0002f0 a0 f7 0b 3d ec 93 b8 3c c9 38 a0 bd f1 e8 13 3e
       0.0341717 0.022531472 -0.07823331 0.14444329
000300 13 b4 5d bb 07 67 09 be e7 d5 c2 3d 0f d4 da 3c
       -0.0033829256 -0.13418208 0.09513455 0.026712446
000310 08 41 ba 3d a5 1e ca 3d 32 95 81 bd bc 2c 03 bb
       0.09094435 0.09869126 -0.06327285 -0.0020015677
000320 85 77 6a 3d d8 b1 da 3d fc 87 1b be 48 e6 a8 3c
       0.05724289 0.10678452 -0.15188593 0.02061762
000330 b1 cb 0d be 23 e3 17 be c1 ed 16 be 4b ba 07 3b
       -0.13847233 -0.1483274 -0.14739133 0.0020710404
000340 b0 c7 c0 3b f4 4d e8 3d 2e 51 af 3d 13 f8 38 3d
       0.0058831796 0.113429934 0.08560406 0.045158457
000350 3c b3 e9 3d de fd 88 3d 95 17 6d bd d2 9f ed bd
       0.11411139 0.06689046 -0.057883818 -0.11602749
000360 1e f2 d7 bd 3b d8 c6 3d e1 bb a4 3d e7 fd 03 be
       -0.10544227 0.097092114 0.080436476 -0.12889825
000370 28 b4 40 3d 18 ee 67 bc d3 96 b2 bd c1 b3 8c bd
       0.04704681 -0.014155887 -0.08720174 -0.06870223
000380 f5 21 6f 3d e2 35 6c 3c dd 58 41 3d 91 30 15 be
       0.058381993 0.014417144 0.047203887 -0.14569308
000390 20 c7 16 bd 24 80 a1 bd 8a b1 d0 bd 8a c5 01 3d
       -0.036810994 -0.07885769 -0.10190113 0.03168253
0003a0 b8 9b ad 3d f5 b9 b2 3d 70 42 19 3d 80 41 9b bd
       0.084769666 0.08726875 0.037416875 -0.075808525
0003b0 90 e5 e8 bd cc fd 81 3b e8 7b 64 bd be d1 27 3e
       -0.113719106 0.0039670225 -0.05578223 0.16388604
0003c0 77 c1 51 bd 4e 2b e8 3c 18 39 04 bd 1d 32 e5 bd
       -0.051209893 0.028340962 -0.03228101 -0.11191199
0003d0 fd 7d 81 3c a0 c3 c1 3d 35 0d c3 bd f0 72 a2 bd
       0.015807146 0.09461141 -0.095240034 -0.07932079
0003e0 85 12 a6 3d b5 bb 27 3d 27 ea 6f 3d a3 a4 30 bc
       0.08109001 0.040950496 0.058572914 -0.01078144
0003f0 0c fe d5 3b c4 01 8f 3c 6a 94 0f be 0c 31 3d bd
       0.006530529 0.017456897 -0.14021459 -0.046189353

gru.weight_hh_l1 f4 [384, 128]
000000 4b 95 1b 3e 38 4d 91 3c 76 dd 0a 3e e2 b5 33 3d
       0.1519367 0.017737016 0.13561043 0.04387463
000010 69 93 95 bb ca 8c ca 3d 05 2b f0 bd 0f 59 fa bc
       -0.004564692 0.09890135 -0.11726955 -0.030560045
000020 3b 16 b2 bd b7 2d 35 bd 8c 5f 42 3d 73 f1 ec 3c
       -0.086956464 -0.04423305 0.0474544 0.028923726
000030 32 28 71 bd 41 59 34 3d 06 8a 57 bd 42 77 4b bd
       -0.058876224 0.04403043 -0.052621864 -0.04967428
000040 ce da ee bd 00 01 9d be 86 fb d2 3d 52 49 42 3e
       -0.116628274 -0.30664825 0.103018805 0.18973282
000050 44 ac a6 bc 8b 77 bd bd c4 99 0a be 80 ae cb bd
       -0.020345815 -0.09251317 -0.1353522 -0.099453926
000060 41 a2 16 3e 25 d6 0a 3e 18 27 90 3d a6 83 18 3d
       0.14710332 0.13558252 0.070387065 0.037234925
000070 89 da 62 bc 41 cc c2 3d af 25 a2 3d d6 3b e7 3c
       -0.013846048 0.095116146 0.07917344 0.028226774
000080 16 7e 38 3d a0 be 1c 3d 85 bf 10 bd 75 04 0c 3d
       0.04504212 0.03826773 -0.035338897 0.034183938
000090 14 a3 4f 3d 5c 6e 8a bd 80 cb 1a be 18 33 e6 3d
       0.050692633 -0.06759331 -0.15116692 0.11240214
0000a0 28 92 02 bc 9e de 50 bc cb 43 e9 3d 11 51 a4 3d
       -0.007969417 -0.012748389 0.113898836 0.08023275
0000b0 06 e7 56 bd 69 96 df 3d 74 98 7d bd 67 9f ad 3d
       -0.052466415 0.1091736 -0.06191297 0.08477669
0000c0 42 92 af bd 85 77 b4 bc 07 9d c7 3b 4e ba 82 bc
       -0.08572818 -0.022029648 0.006091717 -0.015957978
0000d0 1d d7 40 bd 92 6f 6f 3d 1a 8f 77 bd 81 2a 7b 3d
       -0.047080148 0.05845601 -0.060439207 0.06131983
0000e0 4c dc 92 bc 02 8f a5 3d 9c 3d 2e 3d 49 75 0e 3d
       -0.017927311 0.08083917 0.042539224 0.03477982
0000f0 af 1a a3 3c 81 83 f0 3d d2 96 16 bd e1 bd ac 3d
       0.019910185 0.117438324 -0.036764927 0.08434654
000100 54 c7 34 bd 89 f9 ae 3c 0f f9 17 be de e4 d0 3d
       -0.044135407 0.021359222 -0.14841102 0.10199903
000110 5a 03 80 3d e5 f7 1a bd fa 95 ee 3d 86 cc d9 3c
       0.06250639 -0.037834067 0.116496995 0.026586782
000120 86 76 95 3b 54 8f 05 3c 76 a3 e2 bd 36 e8 eb 3d
       0.0045612482 0.008151848 -0.11066334 0.115189
000130 c0 22 ec b9 b0 aa 47 bd 1b a7 23 bc a8 e8 9b bd
       -0.00045039319 -0.048746765 -0.0099885715 -0.07612735
000140 ad 63 b9 3c cb 81 b7 3c 54 92 92 3b 49 1c 5f bc
       0.022630537 0.022400757 0.00447301 -0.013617584
000150 f6 48 83 be 86 63 a0 bd f5 f3 4c 3d 93 81 fa bc
       -0.25641602 -0.078314826 0.050037343 -0.030579364
000160 ef fa 99 bd a4 9e 6a 3d 4b 15 a8 bd a9 a5 42 bc
       -0.07518565 0.057280198 -0.08207186 -0.011880317
000170 ef af 07 be f0 5d 83 bd 7a a8 12 bd 9d 31 46 bc
       -0.13250707 -0.064144015 -0.035805203 -0.01209679
000180 16 52 3d bd 12 a8 aa 3c 7a e9 35 bc 01 3c ea 3c
       -0.04622086 0.020832095 -0.011103028 0.028593065
000190 9a 48 d9 3c b3 5e ae 3d 75 78 a8 3c 43 65 70 3c
       0.026523877 0.08514156 0.02056525 0.01467258
0001a0 a1 ba 17 bd 48 4a 4b 3c f2 15 2b 3d 18 9e 35 3c
       -0.037043218 0.012407847 0.041768976 0.011085056
0001b0 e8 02 7d bd 0b a2 a1 3d 22 10 7a 3d 38 31 66 3e
       -0.06177035 0.07892235 0.06105054 0.22479713
0001c0 96 0b 16 3c e8 0a 1e bd a3 87 cc 3d c4 45 88 3c
       0.009158036 -0.03858462 0.09986808 0.01663483
0001d0 aa d9 6b bc a9 fa 0e bd 7a a8 a6 bd 82 cb ad 3d
       -0.014395157 -0.034907017 -0.08137603 0.08486082
0001e0 5b 64 e8 bd a3 79 a5 3d 4e 3a 32 3d 35 d7 b6 3d
       -0.11347266 0.08079841 0.043512635 0.08927766
0001f0 47 95 09 bc 17 8c 04 bd 18 cf 79 3b b7 bc 57 3e
       -0.008397407 -0.032360163 0.0038117822 0.21068083
000200 b5 28 f5 bc 0b 5e fd 3c 0f 39 d5 bd 17 d9 d2 bd
       -0.029926637 0.030928632 -0.10411274 -0.10295313
000210 d8 fa 95 3d 59 35 73 3c d8 01 8c bc a0 ea e3 3c
       0.07323235 0.014844262 -0.017090723 0.027821839
000220 03 09 ca bd aa 7c df bd a0 25 79 bd 7f 0d 12 3d
       -0.09865 -0.1091245 -0.060826898 0.035657402
000230 92 9a f9 bd 6f ad 26 be 95 b6 9a bc a0 c8 a1 ba
       -0.12187685 -0.16277097 -0.01888589 -0.0012343116
000240 50 0f 85 3d 03 13 dc 3d 96 fc 9d bd 7f 76 4e bd
       0.06497061 0.10745814 -0.077141926 -0.050405975
000250 7b db cc bc a2 89 07 bd 06 0a cd ba 72 68 c2 bd
       -0.025007 -0.03309024 -0.0015643246 -0.094925776
000260 4e 00 34 3e c7 8a 48 3c 42 35 29 3e cd 9e 03 bc
       0.17578241 0.012240118 0.16524222 -0.0080334665
000270 16 0f 28 bc 02 43 ef bd 2e ea de bd 1c 78 35 bd
       -0.010257503 -0.116827026 -0.1088451 -0.044304
000280 ac 80 8a 3d e7 ef 69 bc 7a 43 07 bd f8 9b 21 be
       0.067628235 -0.014278389 -0.033023335 -0.15782154
000290 2d 44 a2 3a af cd 7d bd f9 66 84 bd d3 86 0b bd
       0.0012379937 -0.061963733 -0.06464953 -0.034064125
0002a0 10 54 76 3c a5 8a 80 3d 71 fc 2f 3e d2 58 20 be
       0.0150346905 0.06276444 0.17186143 -0.15658882
0002b0 10 0d f1 3d 64 0d 5f 3d c8 98 84 3d 44 5e 07 bc
       0.117700696 0.05445613 0.06474453 -0.008262221
0002c0 62 8d 9e bc 8b 59 e4 3d 5c a6 9e bd c2 b6 ff bd
       -0.019354526 0.111498915 -0.07746574 -0.1248603
0002d0 75 85 62 3d a8 e7 85 bc 7d be 76 bd fc 5e ff 3d
       0.055303056 -0.016345814 -0.060240258 0.12469289
0002e0 b8 04 84 3c e3 a3 15 3e 72 e0 f0 3d d2 d5 31 3c
       0.016115531 0.14613299 0.117615595 0.010854201
0002f0 ca b2 69 3d dd 77 81 bd 38 e3 ad bd 46 4e 78 bd
       0.057055272 -0.0632169 -0.08490604 -0.060621522
000300 d5 14 1c 3e 83 03 bb 3d 3e 90 d2 bc dd db c7 bd
       0.15242322 0.09131529 -0.025703546 -0.097587325
000310 44 02 1c 3d 38 87 4f bc e8 73 9f bd be df 6f 3d
       0.0380881 -0.012666516 -0.07785779 0.058562987
000320 db aa 09 3e fe 17 bd 3d 24 a0 0f 3e 20 7f 6b bd
       0.13444082 0.09233092 0.14025933 -0.057494283
000330 84 b0 ba bc 40 76 21 3e c0 e2 1b be 18 d9 bb 3c
       -0.022789247 0.15767765 -0.15223217 0.022930667
000340 eb ac 38 bd 8e 3d b9 bd bf 64 45 3d ec 95 4e 3c
       -0.045086782 -0.09044944 0.048191782 0.012608986
000350 dd 52 fb bc 6d 92 d2 3d c9 a7 b5 bd e5 d9 b2 bc
       -0.03067916 0.10281835 -0.08869893 -0.021832416
000360 83 af 24 bd c9 61 e6 bb 24 3e d3 3d dd 15 79 3c
       -0.040206444 -0.0070307 0.10314587 0.0152029665
000370 2e 6a ad 3d cd c6 d5 3c 44 90 e5 bc e7 d9 4a bc
       0.08467518 0.026095772 -0.028022893 -0.0123810535
000380 01 20 d6 bd 48 8e 42 3d d0 c0 e3 bd 8d 0a a3 bc
       -0.10455323 0.04749897 -0.111207604 -0.019902492
000390 2f 6d 0b 3c e9 b9 34 bd 8c eb 46 bc eb 9a 96 3c
       0.008509918 -0.04412261 -0.01214112 0.018384418
0003a0 37 35 bd 3d b4 37 c0 3d 99 1c 7c 3d 4c 7c 0c 3e
       0.092386656 0.093856245 0.06155071 0.1371929
0003b0 f9 cb 1b 3e e2 02 47 bd eb 9d 83 3d 98 f6 0f 3d
       0.15214528 -0.048586734 0.06426605 0.03514728
0003c0 d7 9c 30 bc d3 cd 0d 3e 6c 93 83 bc 80 46 ba bd
       -0.010779581 0.13848047 -0.016061507 -0.09095478
0003d0 28 8b 2e bd 8c 5e b8 3b d0 d8 4b bc 97 60 06 3d
       -0.04261318 0.0056265052 -0.012441829 0.03280696
0003e0 23 fc d8 3c b7 f8 26 3e 97 a6 8d bd af 18 1c 3d
       0.026487416 0.16305815 -0.0691654 0.038109478
0003f0 e8 6d b7 3c 72 ec 07 be 2b c1 0a be bd 53 bc 3d
       0.022391275 -0.1327379 -0.1355025 0.09195659

gru.bias_ih_l1 f4 [384]
000000 2a 0b 97 bc 2d 01 40 3d 55 9d 96 3d 0a 5c 1b be
       -0.01843794 0.04687612 0.073542275 -0.15171829
000010 98 d0 b4 bd 27 87 97 3c 8b 53 85 3d 8d 3b dd bc
       -0.088288486 0.018497063 0.06510075 -0.027005935
000020 b6 f0 77 3d 89 61 a9 3c 7f d5 72 bd 43 a7 44 bd
       0.060532294 0.020676391 -0.059285637 -0.048011076
000030 ee b5 fd bd f7 86 a1 bd f9 fe 8d 3d bd 4a 8f bd
       -0.12388216 -0.078870706 0.06933398 -0.06996677
000040 77 0d d6 3d 17 37 d1 bc 95 91 77 bc d5 bd 0c be
       0.10451787 -0.025538964 -0.015110393 -0.1374429
000050 f5 9f 9b 3d d1 56 1c be be b3 62 bd 57 02 83 3d
       0.07598869 -0.15267493 -0.055347197 0.06396931
000060 e3 99 42 3d 43 fc 4f bd c8 35 af 3d 29 44 ae 3c
       0.04751004 -0.050777685 0.0855518 0.021272736
000070 94 9c c9 3c da 84 b9 3d e8 bf 36 bd 77 c5 57 bb
       0.024610795 0.090585425 -0.04461661 -0.0032924095
000080 c2 64 23 bd 11 2d 6a bc f4 14 e8 3c e0 2f 2b bc
       -0.039891012 -0.014292971 0.028330304 -0.010448426
000090 42 65 9a bd e0 2b 96 bc c4 b5 7b 3d 6c 2c 3f bc
       -0.07538845 -0.018331468 0.061452642 -0.011668306
0000a0 87 02 b0 3d 45 21 bd 3c 2f be d4 3d 93 76 96 3d
       0.08594232 0.023087153 0.10387837 0.07346835
0000b0 d3 f3 b7 bd 80 78 66 3c 6a 3a a2 bd d6 de f9 bd
       -0.08982053 0.014066815 -0.07921298 -0.12200706
0000c0 2e ba 55 3d 69 e8 8d bc be a0 8c 3d c4 33 3d bd
       0.052179508 -0.017322736 0.06866597 -0.046191946
0000d0 a6 81 d9 3d 07 0f c6 bd 1e 3d 4a bc 56 a0 e7 3c
       0.106204316 -0.09670835 -0.012343673 0.028274696
0000e0 6c 08 d6 bc 7e 16 b4 3d 62 29 a7 bb 5c 2b 0f 3e
       -0.026127063 0.087933525 -0.0051013688 0.13981384
0000f0 59 78 ae 3d 69 79 58 bd 7c 4d 52 bd ed 9e df 3b
       0.08519048 -0.05285016 -0.051343426 0.0068243654
000100 86 90 4f bb 14 f9 8f bb 83 bc 94 bd 3f 9f db bb
       -0.0031671836 -0.004393706 -0.07262518 -0.006702333
000110 1f e7 1b bc b2 73 1d 3d 8b f9 3b bc d0 df 62 3d
       -0.009515553 0.038440414 -0.01147307 0.055389225
000120 15 61 09 3e d8 78 cb bc dc b6 8e bd 55 f2 ff 3d
       0.1341594 -0.024837896 -0.069684714 0.12497393
000130 2f 91 66 bd 98 26 8f 3c f5 6f 13 3d 81 52 89 3d
       -0.0562908 0.017474458 0.035995442 0.067051895
000140 f0 1d aa 3d a3 1c c5 3c 0d 50 3b 3d 46 98 88 3d
       0.083064914 0.024061507 0.04573064 0.06669669
000150 32 32 05 bd 5c f5 8d 3c 65 82 42 bd 06 83 7f bb
       -0.032518573 0.01732891 -0.047487635 -0.0038988008
000160 8e 06 2f be c9 83 c7 bd 05 7e 03 be 4c 9f b8 bc
       -0.17092344 -0.09741933 -0.12841041 -0.022536896
000170 c2 59 88 bd c2 14 9b bd 8d f1 ef bd 03 a1 27 bd
       -0.06657745 -0.075723186 -0.11715994 -0.040925037
000180 10 fa 01 3e 70 42 c2 3c 33 65 83 bd a6 79 c7 3d
       0.12693048 0.02371332 -0.064157866 0.097399995
000190 fd cc a9 3b 3b 86 dc bd 13 cb 59 3d f3 48 75 bc
       0.005181907 -0.1076779 0.053172182 -0.014971006
0001a0 ec 01 11 bd 7f 16 b6 bd 8a ff 4f 3c 3c 53 80 3d
       -0.035402223 -0.088910095 0.012695203 0.06265876
0001b0 64 0b 93 3d b2 1e 6f bd 1e 40 ee 3d 5a 24 23 bd
       0.07179907 -0.058378883 0.11633323 -0.03982959
0001c0 59 37 da 3d bf 3d 86 bd e3 e8 87 3c 5f a9 2e 3e
       0.10655088 -0.06554746 0.016590541 0.17056797
0001d0 0f f8 de bd 12 1d 09 be 44 09 99 bd 05 35 35 3d
       -0.10887157 -0.13389996 -0.074724704 0.044240016
0001e0 11 41 4d 3d 38 59 72 bd 9d 44 92 bc 77 62 12 3d
       0.05011088 -0.059167117 -0.017854983 0.035738435
0001f0 f1 99 bd bd 63 ad 9d bd 1b 2f 83 bd 39 72 42 be
       -0.092578776 -0.076990865 -0.06405469 -0.18988885
000200 7c 7a 0a be 68 4f 91 3e df 28 3e 3d 34 1a 1c be
       -0.13523287 0.28380895 0.046425696 -0.1524437
000210 26 a0 e3 bd 41 d7 3f 3e 1a a1 79 3e c6 20 cd be
       -0.1111453 0.18734457 0.24377862 -0.40064067
000220 2c 01 42 3e 40 e3 d0 3d ae 1c 2d 3e b3 e8 5e bd
       0.1894576 0.101995945 0.16905472 -0.054421138
000230 3f 22 98 be 3f 13 c3 be e0 19 23 3e 21 54 c6 be
       -0.29713628 -0.3810062 0.1592784 -0.3873606
000240 b0 ee 56 bd 7d 8d 90 3e aa d9 cf 3e 6c 5f 4f 3e
       -0.052473724 0.28232947 0.40595752 0.20251244
000250 ad 1b 28 3e e4 11 83 3d 85 6a 82 3d 26 85 a9 3d
       0.16416807 0.06399897 0.06367973 0.08277349
000260 47 18 3b 3e 7a ef c5 3d 48 e1 a1 3e 98 33 a1 3d
       0.1827098 0.09664817 0.31617188 0.07871169
000270 cb 76 92 3e e6 d4 7e 3d cc 17 06 be 60 19 42 3e
       0.28606257 0.062214755 -0.13095015 0.18954992
000280 b6 8a 0b 3e fa 2a 41 3e aa d6 bd 3d 31 cd 05 3e
       0.13627133 0.1886405 0.092694595 0.13066556
000290 ac de 05 be f2 1b a3 3d a5 13 29 3e b1 06 9e 3e
       -0.13073224 0.079643145 0.165114 0.3086448
0002a0 fe 93 0d be 18 60 4b 3d dc e0 33 3b 95 4a a2 3e
       -0.13825986 0.04965219 0.002744726 0.31697527
0002b0 15 88 6c 3b 94 dc 13 3e f9 20 b3 bd 45 7a 19 3e
       0.0036091853 0.14439613 -0.087465234 0.14988048
0002c0 7f dc 76 3e c1 92 32 be 2a ff 56 3e 64 c5 a7 3e
       0.2410755 -0.17438795 0.20995775 0.32767785
0002d0 51 9e d2 3e 45 a8 cb bc 09 76 fd 3d 92 17 77 3e
       0.4113641 -0.02486051 0.12376029 0.24130085
0002e0 a8 7a 99 3e b7 e2 b8 bd 27 98 9c bd 6f ad 1b 3e
       0.29976392 -0.090276174 -0.07646208 0.15202878
0002f0 57 13 90 3e c7 19 f3 3c 0a 89 1b 3e b0 be 55 bd
       0.28139755 0.029675378 0.15188995 -0.052183807
000300 ee ee 1d 3e e5 39 1f 3d 93 6d a9 3e 9f 06 3f 3e
       0.15423176 0.038873572 0.3309141 0.1865487
000310 f2 9c 72 3e 84 94 c9 3e 50 03 2c 3e 54 93 a8 be
       0.23692682 0.3937112 0.16798139 -0.32924902
000320 55 84 56 3e e1 f4 5c 3e 30 9c d2 3d 94 13 a0 3e
       0.20948918 0.21577789 0.10283697 0.31264937
000330 15 03 90 3d 3c bc cc 3d 82 57 78 bd fb 2c 8f 3e
       0.07031838 0.0999684 -0.06063033 0.27964005
000340 9d ba 3a 3d 64 13 83 3e 4d 06 72 3e 11 ca 1b 3e
       0.045588125 0.2560073 0.23635216 0.15213801
000350 d7 a5 3b be ff 6b 72 3d 30 57 c6 3d 03 97 aa 3e
       -0.18324982 0.059185024 0.096845984 0.33318338
000360 e9 45 82 3e 4d 37 49 be 78 c5 43 3d f0 5a d8 3d
       0.25443962 -0.19650002 0.047795743 0.1056422
000370 56 c9 2e be 2a 15 3d 3d 82 80 69 3e f9 4c c9 3d
       -0.17068991 0.04616276 0.22802928 0.098291345
000380 24 6e 61 3d 4f f8 02 3e 27 6e 74 3d 4a 89 04 3d
       0.05503668 0.12790035 0.059675362 0.03235749
000390 91 74 ec 3c 81 08 fb 3b 81 a1 0c 3e ca 88 c7 3d
       0.028864177 0.007660926 0.13733484 0.09742887
0003a0 ed 71 34 3e 6a 3b 72 3d cf 39 f7 3e c7 d9 c0 3d
       0.17621584 0.059138693 0.48286292 0.09416538
0003b0 d7 44 1f 3e d3 d3 81 3c 12 14 93 bd 8f 8b 04 3e
       0.15553604 0.015848076 -0.071815625 0.12943862
0003c0 64 43 f1 3b aa 65 a8 3d 34 29 44 3d 26 4f 0d 3e
       0.00736277 0.08222516 0.047890857 0.13799724
0003d0 d4 82 83 be 9d ac da 3d 06 18 a1 be f8 cb a6 3c
       -0.2568575 0.106774546 -0.3146364 0.020360932
0003e0 0d c2 f2 b9 38 20 b6 be 5e e4 c3 be 50 96 e7 3d
       -0.00046302416 -0.35571456 -0.38260168 0.11307967
0003f0 bc 1b 63 bd 60 00 7c be 06 6d b9 3e f6 8c f1 3e
       -0.05544637 -0.24609518 0.3621599 0.47177857
