1223-code-DL/model/GRU_AR_state_dict.pt (torch, 169427 bytes, 12 tensors)

embedding.weight f4 [5, 1]
-0.78523403 0.3316847 0.95966023 -0.5753384 1.0600535
00000000: 1905 49bf 94d2 a93e 4bac 753f 6149 13bf
00000010: d5af 873f

embedding.bias f4 [5]
-0.9993977 0.33077243 0.26553464 -0.313372 -0.32114005
00000000: 87d8 7fbf 015b a93e 28f4 873e 4b72 a0be
00000010: 786c a4be

rnn.weight_ih_l0 f4 [192, 20]
-0.038100287 0.016427675 -0.08381185 -0.0032861205 0.102632195 -0.022711853 -0.08794723 -0.023146981
0.12786831 0.064536795 -0.005086719 0.10178773 0.16745096 -0.012981567 0.23883276 -0.06770007
0.049480364 -0.070889615 -0.13975157 -0.14228031 -0.115656085 -0.093000695 -0.060068045 0.016136028
0.074764445 0.10429881 -0.06705771 0.1471175 -0.013389906 -0.09159044 0.08577873 -0.07776585
0.11878271 0.100362845 -0.14226317 -0.07567845 0.11370565 0.07533087 -0.041641153 0.13949426
-0.09656614 -0.04370595 0.045970853 -0.14577705 -0.091716796 0.14798225 0.009012157 -0.11793754
-0.04285648 -0.032171544 0.12719187 0.08893813 0.088187344 -0.009002379 0.043360293 0.048543602
-0.034841992 -0.09414761 0.014447385 0.0022601434 -0.050091885 0.044207457 -0.17277613 0.17161529
-0.0055595143 0.20404598 0.13272801 0.14405636 0.12895271 0.16956292 -0.5743895 0.082600616
0.11437348 0.11327207 -0.0017119021 -0.13457751 0.13613221 0.033290178 -0.04978133 -0.47761372
-0.053841654 -0.030281713 0.043454714 0.018286508 -0.0028745306 0.023275115 -0.1343447 -0.13822198
-0.113487095 0.022153553 -0.057010677 0.017815476 0.027499301 -0.11046134 0.11238306 -0.044346176
0.092382826 0.008277502 -0.07451715 -0.18015368 0.022831751 0.13382746 -0.009096335 -0.097985245
0.0061993315 0.13391422 0.10501494 -0.08725625 -0.0081636775 0.028981766 -0.026224138 0.14916658
-0.05075881 -0.12056008 -0.026010156 0.10722553 0.017715922 -0.034709536 0.13336663 -0.23429653
0.0670425 0.15745068 -0.12512936 -0.03951894 -0.07429242 0.07090731 0.08749616 0.017508904
0.02470249 0.12983112 0.20561706 0.09076411 0.12270973 -0.123071775 -0.015346456 -0.061547767
0.09699455 -0.048150808 0.06385835 0.0025654994 -0.028799111 -0.110269405 0.05028456 0.060455713
-0.018598473 0.0238051 -0.096522585 0.01064679 0.020665994 -0.08568169 0.11976407 -0.090479694
-0.02445609 -0.061502833 0.063014336 -0.0018825531 0.017077954 0.024327997 0.0043565384 -0.056416474
-0.12100474 0.057139356 0.06796406 -0.06887153 -0.08703446 0.022978656 -0.029162437 -0.031864468
-0.10878146 -0.04323052 0.033101067 -0.084262595 -0.10967143 -0.051329803 -0.0717019 -0.041117877
-0.066932864 -0.07866095 0.020510197 0.024002073 -0.03659458 -0.08698905 -0.110632084 -0.034406915
0.11978287 0.05904651 0.09379016 -0.08096089 0.08191255 0.12690161 0.17280427 0.107828066
0.13576777 -0.009154766 0.08480438 -0.049668986 0.010636951 0.154879 -0.17521384 0.11117382
0.11664073 -0.054439396 0.010506487 -0.06006051 0.026246255 -0.11378535 -0.04401326 0.12739171
0.07240561 0.08187589 -0.07273748 0.015402843 0.055604726 -0.06366847 0.09627626 0.06159221
0.12947781 -0.039821416 0.0140527105 -0.16124877 0.07767692 0.043507673 -0.045106877 0.16282164
-0.070828654 0.030780915 -0.04593553 0.1906685 0.06307786 0.10741325 -0.085637905 -0.06467715
-0.015448466 0.22768274 0.24083783 0.045705564 0.024080245 -0.007747463 0.070821024 -0.46259642
0.04408484 0.0965919 0.087671876 0.027819058 0.1335476 0.063814655 0.13102075 0.10628566
0.09026751 0.068768054 0.067840025 -0.033732917 0.11392649 0.08638229 0.11874348 0.021730293
00000000: 0c0f 1cbd 5593 863c 8ca5 abbd f45b 57bb
00000010: d430 d23d 350e babc ad1d b4bd bd9e bdbc
00000020: e9ef 023e de2b 843d 7eae a6bb 1676 d03d
00000030: 4478 2b3e a3b0 54bc 9390 743e 56a6 8abd
00000040: ecab 4a3d 932e 91bd 091b 0fbe eeb1 11be
00000050: 19dd ecbd 2677 bebd e909 76bd b42f 843c
00000060: 1a1e 993d 9d9a d53d 8d55 89bd f8a5 163e
00000070: 5661 5bbc c593 bbbd c2ac af3d b443 9fbd
00000080: 5944 f33d 098b cd3d 70ad 11be 4efd 9abd
00000090: 82de e83d 1247 9a3d ea8f 2abd 95d7 0e3e
000000a0: 78c4 c5bd 0305 33bd ef4b 3c3d 9446 15be
000000b0: 04d6 bbbd a988 173e baa7 133c 3d89 f1bd
000000c0: 478a 2fbd 4fc6 03bd 963e 023e 3225 b63d
000000d0: 919b b43d b77e 13bc 909a 313d a8d5 463d
000000e0: 7ab6 0ebd 76d0 c0bd bab4 6c3c ea1e 143b
000000f0: 262d 4dbd e112 353d 3aec 30be ebbb 2f3e
00000100: 962c b6bb 6ef1 503e dae9 073e 8383 133e
00000110: 2e0c 043e e7a1 2d3e 310b 13bf 832a a93d
00000120: a53c ea3d 30fb e73d e761 e0ba b0ce 09be
00000130: 3e66 0b3e 485b 083d 82e7 4bbd c989 f4be
00000140: 1189 5cbd 5b11 f8bc 92fd 313d 96cd 953c
00000150: 9f62 3cbb 74ab be3c a891 09be 108a 0dbe
00000160: ec6b e8bd 5e7b b53c 0784 69bd c3f1 913c
00000170: 3746 e13c 8e39 e2bd 1729 e63d 56a4 35bd
00000180: 3533 bd3d 5c9e 073c 739c 98bd 357a 38be
00000190: a709 bb3c 110a 093e cb08 15bc 7dac c8bd
000001a0: c323 cb3b cf20 093e 1312 d73d 68b3 b2bd
000001b0: f2c0 05bc 2b6b ed3c 01d4 d6bc 20bf 183e
000001c0: 78e8 4fbd 34e8 f6bd 4013 d5bc 0f99 db3d
000001d0: fb20 913c 962b 0ebd 4391 083e 6eeb 6fbe
000001e0: 944d 893d c03a 213e e921 00be 9dde 21bd
000001f0: a026 98bd da37 913d 3031 b33d d56e 8f3c
00000200: e05c ca3c 73f2 043e 478d 523e 89e2 b93d
00000210: 3d4f fb3d 0e0d fcbd b46f 7bbc 8319 7cbd
00000220: 14a5 c63d c839 45bd 2bc8 823d f021 283b
00000230: 1dec ebbc edd4 e1bd 2ff7 4d3d 69a0 773d
00000240: d35b 98bc ea02 c33c a2ad c5bd e06f 2e3c
00000250: bb4b a93c e279 afbd dd46 f53d 6b4d b9bd
00000260: 2358 c8bc 65ea 7bbd a90d 813d 00c0 f6ba
00000270: 11e7 8b3c 824b c73c 4bc1 8e3b f614 67bd
00000280: 55d1 f7bd f50a 6a3d be30 8b3d 840c 8dbd
00000290: 1f3f b2bd bc3d bc3c 10e6 eebc 5184 02bd
000002a0: d0c8 debd 7c12 31bd fc94 073d de91 acbd
000002b0: 6a9b e0bd 333f 52bd 72d8 92bd 386b 28bd
000002c0: 1914 89bd fe18 a1bd 0005 a83c ff9f c43c
000002d0: 33e4 15bd 5127 b2bd 1393 e2bd 44ee 0cbd
000002e0: b950 f53d c1da 713d 0e15 c03d d3ce a5bd
000002f0: c4c1 a73d 7ff2 013e 9af3 303e f6d4 dc3d
00000300: b506 0b3e dffd 15bc ebad ad3d b571 4bbd
00000310: 9b46 2e3c 9a98 1e3e 426b 33be 1aaf e33d
00000320: 56e1 ee3d d8fb 5ebd 6723 2c3c 0202 76bd
00000330: 6302 d73c 4b08 e9bd 4047 34bd f972 023e
00000340: 6449 943d 8cae a73d 63f7 94bd 355c 7c3c
00000350: c8c1 633d 9d64 82bd 7d2c c53d 1d48 7c3d
00000360: d595 043e c81b 23bd 573d 663c 661e 25be
00000370: 1415 9f3d 1a35 323d fdc1 38bd b7ba 263e
00000380: 9d0e 91bd 4228 fc3c e526 3cbd 9a3e 433e
00000390: f72e 813d 7afb db3d ed62 afbd 7475 84bd
000003a0: 901b 7dbc aa25 693e 319e 763e c235 3b3d
000003b0: ef43 c53c 6ede fdbb 9d0a 913d 70d9 ecbe
000003c0: 4e92 343d f9d1 c53d 508d b33d cbe4 e33c
000003d0: b4c0 083e 42b1 823d 4e2a 063e 4cac d93d
000003e0: 2cde b83d 44d6 8c3d b6ef 8a3d 872b 0abd
000003f0: 4b52 e93d 33e9 b03d c82f f33d ba03 b23c

rnn.weight_hh_l0 f4 [192, 64]
0.026617603 -0.16247593 0.14617972 -0.07527728 -0.06412643 -0.010688158 -0.0151920095 -0.012663823
0.14533062 -0.16885528 -0.03847211 -0.031520702 -0.018695306 -0.044806734 0.105972275 0.084182985
-0.108615845 0.007787009 0.107675225 0.065053776 -0.04074401 0.04527969 0.1351884 -0.058415916
0.2086009 0.045626856 -0.02026488 -0.04890256 -0.071951844 -0.1622135 0.022048712 -0.020122398
0.10340058 -0.013229025 -0.1173986 0.11399662 0.114028215 0.0861724 0.024132403 -0.13226013
-0.08375318 0.0753939 0.06406565 0.2423508 -0.012001188 -0.016594905 -0.04910278 0.018500272
0.16140698 -0.20409691 0.07005778 0.13466173 -0.1895759 0.024342358 -0.01435176 -0.037065145
-0.018020809 0.052901637 0.084823154 -0.028726254 -0.12965454 -0.10302126 -0.00029033897 0.10150323
-0.079698645 0.08168425 -0.025985528 -0.024574686 -0.11407101 0.07272289 0.09601485 -0.002217595
-0.014180806 0.08703481 0.0651377 0.055712715 0.00056609575 0.17409968 0.03899336 -0.051630866
-0.12330721 -0.08226024 0.08137259 0.10634023 0.011446263 -0.10515002 -0.074174225 0.16391306
0.1722934 -0.09776058 0.025669493 0.0069975597 -0.051904913 -0.03229932 -0.037749495 -0.0804684
-0.06176086 -0.11014094 0.009486049 0.034020673 0.018855423 0.026639575 -0.09996293 0.07281497
0.022185033 -0.05305082 0.097437754 0.11012072 -0.08818645 -0.00590616 0.046792965 0.06898016
0.06217073 0.23645505 0.08736971 -0.100020826 -0.03858017 0.0993665 0.062603734 0.05292767
0.09343893 0.06485658 0.05276895 -0.013995848 -0.059099518 -0.015168999 -0.12036935 -0.12090402
0.049261436 0.0018876878 -0.08623658 0.021298846 0.07534967 0.13371597 -0.039084192 -0.12385811
-0.04508455 0.06512606 -0.051289722 -0.17823619 -0.027372029 0.0983043 0.038097236 -0.048852272
0.103780575 0.055876203 0.053257607 0.070258826 -0.059172302 0.07505931 0.0065332274 0.0051518707
0.4065398 0.006644854 0.07634062 -0.0724091 -0.009645299 0.0052370816 -0.06453925 -0.06131412
-0.009814238 -0.044288266 -0.09318289 -0.03156954 0.019117853 0.00028314718 -0.104244106 -0.11345786
0.03210793 -0.088083014 -0.0272159 0.24397253 -0.112313315 -0.13670969 -0.04331273 0.061961353
-0.0004970085 -0.45576257 -0.06973326 0.33032858 -0.12205835 0.09997047 -0.082187705 -0.086914696
-0.047822073 -0.034762826 -0.04863907 -0.07167512 0.02108496 -0.13719389 -0.10794696 0.09209775
0.09550102 -0.15843816 -0.097474165 0.7122091 0.10019594 0.11042849 0.025776425 0.006522026
0.10855016 0.11804505 0.067552865 0.37349513 -0.29116315 -0.16002162 -0.27421916 -0.18234774
0.15387219 0.20418322 -0.19584362 -0.05281268 0.07477785 -0.03498731 0.40398583 0.22886685
-0.008626226 -0.07339279 -0.08005112 0.016467081 0.11465104 0.014745629 -0.032619353 0.15213178
-0.039754827 -0.19381802 -0.19937548 -0.1578448 0.042288497 -0.08362324 -0.052116755 -0.0505735
0.026621336 0.024334762 -0.208584 0.027623907 -0.121126935 -0.1782418 0.12645276 -0.115303405
0.124054186 -0.1087637 -0.16586941 -0.41647932 -0.14855184 -0.04384031 -0.018438235 -0.105329916
-0.08463627 -0.074712895 0.3144142 0.064455494 0.4250245 0.26734665 0.4594943 -0.21963914
00000000: 290d da3c 1760 26be 23b0 153e f92a 9abd
00000010: b854 83bd 621d 2fbc e8e7 78bc ec7b 4fbc
00000020: 8dd1 143e 66e8 2cbe ee94 1dbd da1b 01bd
00000030: e626 99bc 4487 37bd fe07 d93d 2168 ac3d
00000040: fc71 debd 2a2a ff3b d484 dc3d ea3a 853d
00000050: 31e3 26bd 3277 393d d46e 0a3e 8745 6fbd
00000060: 799b 553e 3ae3 3a3d 8902 a6bc 0d4e 48bd
00000070: 7d5b 93bd 4c1b 26be 809f b43c bad7 a4bc
00000080: afc3 d33d 8dbe 58bc ad6e f0bd 0f77 e93d
00000090: a087 e93d 287b b03d 51b1 c53c 336f 07be
000000a0: ca86 abbd 1e68 9a3d da34 833d cf2a 783e
000000b0: a1a0 44bc 0af2 87bc ff1f 49bd e28d 973c
000000c0: df47 253e c8fe 50be 747a 8f3d c4e4 093e
000000d0: 2f20 42be a069 c73c a523 6bbc 9fd1 17bd
000000e0: 60a0 93bc 63af 583d c3b7 ad3d 5253 ebbc
000000f0: 29c4 04be cffc d2bd a338 98b9 ede0 cf3d
00000100: 0b39 a3bd 124a a73d 9adf d4bc da50 c9bc
00000110: 109e e9bd bdef 943d 6fa3 c43d 1255 11bb
00000120: 9d56 68bc 4e3f b23d ea66 853d 0433 643d
00000130: 0b66 143a 3047 323e 80b7 1f3d e37a 53bd
00000140: 7e88 fcbd 0f78 a8bd aca6 a63d e8c8 d93d
00000150: 1b89 3b3c e558 d7bd a8e8 97bd d3d8 273e
00000160: ae6d 303e b336 c8bd d448 d23c c94b e53b
00000170: 3f9a 54bd 4b4c 04bd 379f 1abd 9ecc a4bd
00000180: f5f8 7cbd 9391 e1bd 606b 1b3c 4359 0b3d
00000190: b076 9a3c 3d3b da3c 5db9 ccbd 0420 953d
000001a0: 63bd b53c d14b 59bd 728d c73d f986 e13d
000001b0: 199b b4bd 7688 c1bb fba9 3f3d 7845 8d3d
000001c0: bca6 7e3d 4621 723e e4ee b23d b8d7 ccbd
000001d0: 3e06 1ebd aa80 cb3d 6336 803d afca 583d
000001e0: e95c bf3d 87d3 843d 4124 583d d74e 65bc
000001f0: 5612 72bd 6587 78bc 3584 f6bd 879c f7bd
00000200: 5cc6 493d 4b6c f73a ce9c b0bd eb7a ae3c
00000210: ee50 9a3d d7ec 083e bf16 20bd 52a9 fdbd
00000220: 94aa 38bd d060 853d 2c15 52bd 8c83 36be
00000230: 4e3b e0bc c453 c93d d90b 1c3d 5219 48bd
00000240: e98a d43d 72de 643d a624 5a3d dce3 8f3d
00000250: a85e 72bd b2b8 993d af14 d63b 06d1 a83b
00000260: fc25 d03e 13bd d93b 7958 9c3d 394b 94bd
00000270: 5107 1ebc d39b ab3b 282d 84bd 8424 7bbd
00000280: e6cb 20bc 9d67 35bd acd6 bebd 104f 01bd
00000290: 0b9d 9c3c 5f73 9439 ef7d d5bd 985c e8bd
000002a0: 9b83 033d de64 b4bd e1f3 debc efd3 793e
000002b0: 8604 e6bd a0fd 0bbe b068 31bd 30cb 7d3d
000002c0: ad49 02ba b659 e9be 50d0 8ebd d420 a93e
000002d0: baf9 f9bd 51bd cc3d 0752 a8bd 5500 b2bd
000002e0: 14e1 43bd 7763 0ebd c339 47bd 68ca 92bd
000002f0: 5eba ac3c 8e7c 0cbe 4c13 ddbd bf9d bc3d
00000300: 0a96 c33d 9d3d 22be 89a0 c7bd 5653 363f
00000310: 8733 cd3d 5528 e23d 1529 d33c b8b6 d53b
00000320: 8c4f de3d 9ac1 f13d 2859 8a3d c13a bf3e
00000330: 5613 95be b5dc 23be 7466 8cbe 5eb9 3abe
00000340: ac90 1d3e 6815 513e 3b8b 48be 1c52 58bd
00000350: 2125 993d db4e 0fbd 3bd7 ce3e 125c 6a3e
00000360: 0455 0dbc f64e 96bd d7f1 a3bd f9e5 863c
00000370: 2ace ea3d a797 713c df9b 05bd 6fc8 1b3e
00000380: f5d5 22bd 3b78 46be 1629 4cbe 11a2 21be
00000390: b436 2d3d a942 abbd 6178 55bd 2926 4fbd
000003a0: fd14 da3c b259 c73c 0b97 55be 884b e23c
000003b0: 6611 f8bd 0585 36be d57c 013e 3124 ecbd
000003c0: 1f10 fe3d 81bf debd acd9 29be c73c d5be
000003d0: f91d 18be e691 33bd c80b 97bc 36b7 d7bd
000003e0: c855 adbd 1303 99bd e6fa a03e 3e01 843d
000003f0: d09c d93e a9e1 883e d642 eb3e 15e9 60be

rnn.bias_ih_l0 f4 [192]
0.10309295 -0.036357284 -0.09704398 0.019277314 -0.11054424 -0.092655964 -0.055667635 -0.07461422
-0.11662645 -0.05119041 0.11682566 0.028620454 -0.020653134 0.13132204 0.046149578 -0.07991586
0.017477114 0.11343445 0.04383615 -0.10296689 0.08081629 0.095279284 0.004777841 0.0018053835
0.10713557 -0.0065873135 0.05226738 0.04755222 0.12864278 0.1227539 0.1279673 -0.080166064
-0.0553701 -0.030748406 0.21411936 -0.0779239 -0.124345906 0.03228362 0.03649396 0.009363248
-0.0841977 -0.106492735 0.11288979 0.07675517 0.106549874 0.057903506 0.142935 0.06121959
0.095477305 -0.0012840264 -0.07509103 0.11758762 -0.04964434 -0.0010926133 -0.01948441 0.08086059
-0.09447332 0.044173308 0.078067675 -0.07015213 -0.06602085 -0.04041177 0.1387044 -0.115048595
-0.052280027 -0.15744938 -0.12160182 -0.11153917 -0.15661763 -0.23868786 0.08534356 -0.52499175
0.059697423 0.06275963 -0.24962316 0.07371525 0.14107437 -0.5470015 -0.076318204 -0.18317874
-0.005679091 -0.21335416 -0.08317899 -0.03459278 -0.058830004 0.05458244 0.039092924 -0.045666303
0.0068322257 -0.11003873 -0.23661765 -0.32737723 -0.4825582 -0.34808025 -0.13444273 -0.26633015
-0.1128191 -0.2609174 -0.018846465 -0.096666165 -0.08698812 -0.105513856 -0.24574408 -0.029365378
-0.16434224 -0.19284938 -0.31551918 -0.26629382 -0.0090870755 -0.073187254 -0.16083635 -0.5164012
-0.07331012 -0.61155164 0.056673743 -0.12363152 -0.110427044 -0.06540591 -0.3347408 -0.17021807
-0.20633225 -0.1400377 0.0186758 -0.20416175 -0.1495666 -0.25105157 0.07447507 -0.15910661
0.04406083 -0.052689143 0.020037213 -0.004048307 -0.03138317 -0.02928636 -0.080339484 0.029077375
0.109130025 0.11241638 -7.470494e-05 0.11135354 0.027209325 -0.010068856 0.13523525 0.08968836
-0.06475895 -0.03739313 0.05329555 -0.0029945497 0.11897252 0.0073085167 0.11662226 0.0056754327
-0.064479016 -0.07634303 -0.0966944 0.085606806 0.020163354 -0.09525644 -0.10607719 0.13616963
0.06538222 -0.018114787 0.08999764 0.0121802455 0.12556137 0.09009994 0.057982802 -0.12994902
0.07583487 0.026771579 -0.04047646 -0.079703644 0.030436443 0.02640714 -0.06022407 -0.030045765
0.08927734 0.072447546 -0.02082318 -0.14597704 -0.13184074 -0.006715461 0.10571182 -0.014030115
0.09043136 0.03372471 -0.045623936 0.00045434944 0.14119545 0.12920445 0.032969195 0.077021204
00000000: 6622 d33d 60eb 14bd ffbe c6bd 75eb 9d3c
00000010: 0565 e2bd 69c2 bdbd bf03 64bd 57cf 98bd
00000020: d9d9 eebd 09ad 51bd 4b42 ef3d 7175 ea3c
00000030: c330 a9bc 4979 063e 5707 3d3d edaa a3bd
00000040: 2a2c 8f3c 5250 e83d 898d 333d 4ee0 d2bd
00000050: 0383 a53d c921 c33d 6f8f 9c3b 9ea2 ec3a
00000060: e569 db3d 64da d7bb 5216 563d 1ec6 423d
00000070: efba 033e 6666 fb3d dc09 033e 1b2e a4bd
00000080: c2cb 62bd 15e4 fbbc 1b42 5b3e 9196 9fbd
00000090: 11a9 febd d43b 043d b17a 153d 4f68 193c
000000a0: d86f acbd dd18 dabd c332 e73d d131 9d3d
000000b0: d236 da3d 3a2c 6d3d 8d5d 123e 65c1 7a3d
000000c0: 9b89 c33d c74c a8ba 53c9 99bd c7d1 f03d
000000d0: dd57 4bbd 0536 8fba c59d 9fbc 3d9a a53d
000000e0: 3a7b c1bd 12ef 343d f2e1 9f3d ecab 8fbd
000000f0: f035 87bd d086 25bd 8708 0e3e 999e ebbd
00000100: 9523 56bd 693a 21be 600a f9bd a66e e4bd
00000110: 5f60 20be 976a 74be 9bc8 ae3d dc65 06bf
00000120: 4985 743d 1f88 803d 379d 7fbe 05f8 963d
00000130: cd75 103e 4a08 0cbf b84c 9cbd 3593 3bbe
00000140: ab17 babb 8379 5abe bf59 aabd 29b1 0dbd
00000150: bbf7 70bd d691 5f3d e71f 203d 970c 3bbd
00000160: dde0 df3b fc5b e1bd e64b 72be fd9d a7be
00000170: de11 f7be 9337 b2be 5bab 09be 6d5c 88be
00000180: b30d e7bd f796 85be e763 9abc e9f8 c5bd
00000190: d426 b2bd a617 d8bd 56a4 7bbe a98f f0bc
000001a0: 5549 28be 4f7a 45be bb8b a1be aa57 88be
000001b0: f5e1 14bc 33e3 95bd 49b2 24be de32 04bf
000001c0: 9e23 96bd a68e 1cbf ba22 683d 8632 fdbd
000001d0: 9327 e2bd 89f3 85bd 2563 abbe a54d 2ebe
000001e0: c348 53be 0b66 0fbe fefd 983c c70f 51be
000001f0: fd27 19be d589 80be 6386 983d d8ec 22be
00000200: 2179 343d 92d0 57bd 1525 a43c a9a7 84bb
00000210: a48b 00bd f3e9 efbc 0789 a4bd ad33 ee3c
00000220: 907f df3d 8f3a e63d e9aa 9cb8 530d e43d
00000230: 17e6 de3c d8f7 24bc 1c7b 0a3e 88ae b73d
00000240: 57a0 84bd 8a29 19bd 6f4c 5a3d 3540 44bb
00000250: dda7 f33d 487c ef3b a7d7 ee3d fbf8 b93b
00000260: 930d 84bd bc59 9cbd b707 c6bd 9f52 af3d
00000270: 9e2d a53c cf15 c3bd ff3e d9bd 0d70 0b3e
00000280: 1de7 853d 7665 94bc af50 b83d a78f 473c
00000290: 2993 003e 5186 b83d 607f 6d3d 5b11 05be
000002a0: 504f 9b3d 1250 db3c a5ca 25bd aa3b a3bd
000002b0: d955 f93c c953 d83c 84ad 76bd 8922 f6bc
000002c0: 0ad7 b63d 615f 943d 6095 aabc 017b 15be
000002d0: 4201 07be 5f0d dcbb 707f d83d 91de 65bc
000002e0: 1434 b93d ec22 0a3d 2ae0 3abd c035 ee39
000002f0: 8a95 103e 2c4e 043e b50a 073d 4bbd 9d3d

rnn.bias_hh_l0 f4 [192]
0.06602197 0.040345356 -0.02074661 0.09111597 0.06091702 0.015270728 0.087515086 -0.07254978
0.014604202 0.01618744 0.11619102 -0.047842447 -0.027111672 -0.03758986 0.16394725 -0.05924443
0.043425947 0.0272415 -0.047583897 0.14265761 0.030126926 -0.0052197278 -0.0064430963 0.07242801
-0.024461497 0.056098655 0.0052917316 0.115382746 -0.074075 0.054920685 0.15031664 0.011249874
-0.12232638 -0.04004262 0.08262087 -0.1076147 -0.10529152 0.12148254 -0.103732936 0.12129618
0.073952705 0.0496179 0.12971994 -0.0068870373 -0.0467733 -0.00035822406 0.07817445 0.11251988
0.08819338 0.13405506 -0.033462323 -0.093406744 0.12764218 -0.011178332 -0.025851063 0.119518206
0.06789027 0.008249823 -0.052503448 0.11695184 0.09348011 -0.07513419 -0.103700206 0.018610183
-0.11518306 -0.22648242 -0.13631889 -0.09555969 -0.2413035 -0.246941 0.015485657 -0.34245998
0.010202483 -0.062401485 -0.30157238 0.038246844 0.008699505 -0.45072725 -0.03347549 -0.14919543
-0.021092087 -0.2992798 -0.041422937 -0.07456442 -0.06950207 0.07986144 -0.0830995 -0.15734838
-0.029228447 -0.119257964 -0.07676614 -0.4496408 -0.44675738 -0.48258013 0.029587144 -0.2054604
0.1153941 -0.15238178 -0.14706485 -0.1419909 0.1498664 -0.001682699 -0.09063844 -0.03044063
-0.2228876 -0.18955405 -0.32420766 -0.15997712 0.0036377918 -0.279486 -0.14252555 -0.52519864
-0.1265732 -0.5468716 -0.062468395 0.06076884 -0.1746405 -0.15478879 -0.35713217 -0.1368771
-0.21338287 -0.11243378 -0.08016681 -0.121005565 -0.11923601 -0.09608235 0.20704961 -0.081481874
0.08957928 -0.018186133 -0.08379067 -0.0440683 -0.023193391 -0.01676022 -0.04159154 0.06845009
-0.050995905 0.007396096 0.0799019 0.037367802 -0.08499747 -0.022658318 -0.084050946 0.025027305
0.03164792 0.07279026 -0.11962045 0.084445976 0.1134925 0.07045844 0.022597259 0.0472437
0.08085271 -0.04542862 -0.12650774 0.061138574 0.03821183 -0.04716315 -0.05943487 -0.00085185684
0.023252917 -0.082756564 0.0021188883 -0.0030965973 -0.008841895 -0.07287044 0.02718587 0.113376275
0.08735774 -0.043679655 0.09825081 -0.035930082 -0.105336316 -0.1085335 0.062468715 -0.09581192
0.13037331 -0.09052022 0.038567573 -0.108895615 0.04355735 0.17832874 0.00995262 0.11818273
0.1133408 -0.09294854 0.021458095 0.07614719 0.0521797 -0.023898793 0.07539175 0.039146293
00000000: 8736 873d 2c41 253d cbf4 a9bc 029b ba3d
00000010: 2084 793d 1332 7a3c 1c3b b33d fb94 94bd
00000020: 7646 6f3c 869b 843c 8ff5 ed3d 71f6 43bd
00000030: 4c19 debc d3f7 19bd cae1 273e 4aaa 72bd
00000040: 68df 313d 9129 df3c 55e7 42bd d614 123e
00000050: becc f63c 400a abbb 9c20 d3bb 2355 943d
00000060: 7a63 c8bc b4c7 653d 4366 ad3b ca4d ec3d
00000070: a2b4 97bd 83f4 603d 9bec 193e 6451 383c
00000080: 4186 fabd bb03 24bd 2135 a93d 1965 dcbd
00000090: 15a3 d7bd d7cb f83d ef71 d4bd 226a f83d
000000a0: 8474 973d 243c 4b3d 4ed5 043e a8ac e1bb
000000b0: 5c95 3fbd 05d0 bbb9 ed19 a03d d370 e63d
000000c0: bb9e b43d bb45 093e ca0f 09bd 094c bfbd
000000d0: a2b4 023e 5325 37bc 9cc5 d3bc f6c5 f43d
000000e0: 0e0a 8b3d 442a 073c db0d 57bd 7284 ef3d
000000f0: 8072 bf3d f4df 99bd c660 d4bd 6274 983c
00000100: 19e5 ebbd 02eb 67be 2e97 0bbe ccb4 c3bd
00000110: 4418 77be 1ade 7cbe 8eb7 7d3c ea56 afbe
00000120: 5128 273c b398 7fbd b267 9abe b9a8 1c3d
00000130: 5e88 0e3c b9c5 e6be 981d 09bd b0c6 18be
00000140: 50c9 acbc 343b 99be 19ab 29bd 3bb5 98bd
00000150: 1a57 8ebd 658e a33d 1230 aabd ef1f 21be
00000160: 7f70 efbc 853d f4bd 9137 9dbd 5237 e6be
00000170: 62bd e4be be14 f7be bd60 f23c 3664 52be
00000180: be53 ec3d f809 1cbe 2b98 16be 1066 11be
00000190: 9476 193e 028e dcba a5a0 b9bd a15e f9bc
000001a0: a63c 64be 751a 42be 8cfe a5be 0bd1 23be
000001b0: 0568 6e3b ca18 8fbe 38f2 11be 6b73 06bf
000001c0: 689c 01be c7ff 0bbf dcde 7fbd bfe8 783d
000001d0: f6d4 32be f480 1ebe 07da b6be 8329 0cbe
000001e0: 0a81 5abe af43 e6bd 7f2e a4bd c4d1 f7bd
000001f0: 0232 f4bd d3c6 c4bd d004 543e f8df a6bd
00000200: 5775 b73d 16fb 94bc 719a abbd f680 34bd
00000210: 1100 bebc bb4c 89bc e45b 2abd 902f 8c3d
00000220: 15e1 50bd f35a f23b 9ba3 a33d fb0e 193d
00000230: 2713 aebd f09d b9bc e722 acbd 1006 cd3c
00000240: 40a1 013d 0f13 953d 91fb f4bd 03f2 ac3d
00000250: c16e e83d 844c 903d e31d b93c 9c82 413d
00000260: 1b96 a53d 5c13 3abd 3f8b 01be 716c 7a3d
00000270: 0284 1c3d 262e 41bd fa71 73bd 254f 5fba
00000280: e77c be3c 467c a9bd 0cdd 0a3b 48f0 4abb
00000290: 98dd 10bc 193d 95bd e7b4 de3c d231 e83d
000002a0: 9de8 b23d 70e9 32bd b837 c93d 6c2b 13bd
000002b0: 91ba d7bd d046 debd 32df 7f3d 0a39 c4bd
000002c0: 9580 053e aa62 b9bd 08f9 1d3d aa04 dfbd
000002d0: 3169 323d cf9b 363e 5010 233c ca09 f23d
000002e0: 391f e83d ce5b bebd e3c8 af3c 0ff3 9b3d
000002f0: 62ba 553d 67c7 c3bc fd66 9a3d dd57 203d

rnn.weight_ih_l1 f4 [192, 64]
0.019878898 0.14200996 0.010890262 0.052799765 -0.054962758 -0.049155112 0.021000477 0.11073168
-0.053139463 0.14440475 0.10248801 -0.0069876914 -0.062095094 -0.108406164 0.083179586 -0.1403035
0.09777739 0.11803636 0.09689719 -0.10375755 0.11890948 0.059904803 0.07601157 0.07192755
-0.19423501 -0.03954916 -0.08007236 0.17983043 -0.0154631445 -0.018420646 -0.10691156 0.07460552
-0.0047995346 -0.033088855 -0.063323885 -0.020541472 -0.07790804 0.040552396 -0.0004791015 -0.05679771
-0.037390605 -0.12363131 0.053379886 0.009514245 -0.05486639 0.019077767 -0.015072993 -0.06024919
0.07088332 0.15974522 0.07759657 -0.18263264 -0.11349983 -0.02638439 -0.059144262 -0.00022211683
-0.036093026 -0.1174829 0.032455936 0.08359374 0.21479467 0.038610134 0.19367854 -0.032494
0.00049188756 0.08899116 -0.11387622 0.19454442 0.13654679 0.0269039 -0.14715311 -0.045431513
-0.08313441 0.032267477 0.025849655 -0.01574659 -0.10781933 -0.13941084 -0.07396992 -0.01757506
-0.014570279 -0.039845902 -0.8200419 0.07546667 0.030579306 -0.10649939 0.25939906 -0.34600678
-0.0694204 0.032458533 -0.1646766 -0.097738355 0.41158515 0.06982067 0.0015531123 0.07276268
0.007732821 0.09151542 0.04046307 -0.0022313497 0.22568408 0.09277881 0.08939848 -0.057505406
0.0636913 -0.12557295 0.08313199 0.019914769 0.0690999 0.009080138 0.1862894 -0.087533936
0.027263146 0.11686966 0.22767478 -0.1991631 -0.16755517 0.13401191 -0.040793844 0.07489679
-0.092810504 -0.0869604 0.1432814 0.1884975 0.10219072 0.20622472 0.3766629 -0.07325391
-0.027579417 -0.061356556 0.014331786 0.032800894 -0.00697533 0.039200366 0.09331828 0.11122039
0.12641996 -0.11945432 0.062273014 0.1378726 0.24709584 0.28180963 0.061429176 0.016620783
-0.1283684 0.11467804 0.030027542 -0.021880973 0.14082478 0.06749291 -0.075132705 -0.10763694
-0.11797829 0.054608922 0.0936672 -0.070453204 -0.00266712 0.11362913 -0.06770963 0.014899262
-0.066100426 0.08875977 0.0064252187 0.10691311 -0.04444235 -0.023465283 -0.040191747 0.12454339
0.071689285 -0.051994745 0.15970403 0.11169343 -0.0076763458 0.17683968 0.07732355 -0.019483909
-0.10647328 0.1468254 0.17595853 -0.03175505 -0.10580391 0.13591762 -0.064015314 0.05439841
-0.09667213 -0.13481532 0.04376707 0.08624688 0.030449944 0.029719163 0.069435626 0.0450585
-0.15062493 0.113100216 0.09685515 0.02774283 -0.029132316 -0.12298917 -0.13078982 0.107479446
0.097214535 -0.030275136 0.04149638 -0.01471349 0.09492716 -0.20621042 -0.09762636 -0.0030535278
-0.05214915 0.048916634 0.03833693 0.05312485 -0.231094 0.053960606 -0.028120898 0.022035873
0.2604024 0.10436601 0.09510891 0.10278466 0.19095348 0.03820711 -0.10005664 -0.011358273
0.13074401 -0.06311893 -0.26231164 -0.018936258 0.07994165 -0.0014317337 -0.1051525 -0.09894301
-0.071408175 -0.0031643012 -0.08541275 0.10552158 0.08102166 -0.007224152 0.11319658 0.05428131
0.0068009193 0.06394045 0.06567713 -0.046651863 0.10306132 -0.13641143 0.12731063 -0.0066585187
0.024227407 0.075932935 -0.057506688 -0.041018553 -0.34321994 0.0052451584 -0.05706409 0.13962404
00000000: 12d9 a23c 0f6b 113e 126d 323c 9144 583d
00000010: a120 61bd df56 49bd 3109 ac3c 4bc7 e23d
00000020: c4a8 59bd d7de 133e 3ce5 d13d 01f9 e4bb
00000030: 6d57 7ebd 0d04 debd 0f5a aa3d b9ab 0fbe
00000040: 833f c83d 0cbd f13d 0972 c63d d77e d4bd
00000050: d086 f33d bd5e 753d f4ab 9b3d c04e 933d
00000060: 8be5 46be 4dfe 21bd fafc a3bd 7825 383e
00000070: 2159 7dbc e5e6 96bc 73f4 dabd c7ca 983d
00000080: 6a45 9dbb 2e88 07bd f4af 81bd 9746 a8bc
00000090: 408e 9fbd 451a 263d ea2f fbb9 b7a4 68bd
000000a0: e426 19bd 6a32 fdbd dea4 5a3d a3e1 1b3c
000000b0: 94bb 60bd fa48 9c3c b7f4 76bc dbc7 76bd
000000c0: 462b 913d 4094 233e f3ea 9e3d 0d04 3bbe
000000d0: 9972 e8bd 1424 d8bc 4141 72bd 08e8 68b9
000000e0: 48d6 13bd e09a f0bd 84f0 043d 3233 ab3d
000000f0: 22f3 5b3e a925 1e3d ab53 463e 6e18 05bd
00000100: 04f2 003a ff40 b63d f037 e9bd a736 473e
00000110: ecd2 0b3e 9165 dc3c 4eaf 16be 6516 3abd
00000120: 6042 aabd e72a 043d a8c2 d33c fefe 80bc
00000130: 62d0 dcbd b7c1 0ebe 8b7d 97bd 92f9 8fbc
00000140: 2eb8 6ebc 7535 23bd 44ee 51bf 458e 9a3d
00000150: 7481 fa3c 5a1c dabd f4cf 843e cd27 b1be
00000160: 482c 8ebd 3df3 043d fca0 28be 0c2b c8bd
00000170: 4abb d23e 24fe 8e3d cd91 cb3a 9a04 953d
00000180: 9b63 fd3b 706c bb3d 9bbc 253d d63b 12bb
00000190: ba19 673e d102 be3d 8d16 b73d ca8a 6bbd
000001a0: 9670 823d 3296 00be 1b41 aa3d 4c24 a33c
000001b0: 4084 8d3d dcc4 143c a6c2 3e3e fe44 b3bd
000001c0: f656 df3c 5c59 ef3d 9423 693e 69f1 4bbe
000001d0: 9593 2bbe 6b3a 093e 7217 27bd 7d63 993d
000001e0: 6f13 bebd 4b18 b2bd 5cb8 123e 7d05 413e
000001f0: 5e49 d13d 932c 533e f6d9 c03e 2506 96bd
00000200: 3bee e1bc 0351 7bbd decf 6a3c 3b5a 063d
00000210: 4f91 e4bb 9090 203d a81d bf3d 84c7 e33d
00000220: 3c74 013e 77a4 f4bd fd11 7f3d 7a2e 0d3e
00000230: b106 7d3e 5a49 903e 299d 7b3d 4f28 883c
00000240: 0173 03be 52dc ea3d 52fc f53c ba3f b3bc
00000250: 5f34 103e b939 8a3d 2ddf 99bd c270 dcbd
00000260: 9a9e f1bd 9bad 5f3d 97d4 bf3d c549 90bd
00000270: d9ca 2ebb 64b6 e83d 59ab 8abd 091c 743c
00000280: a95f 87bd afc7 b53d a48a d23b 43f5 da3d
00000290: 2e09 36bd 443a c0bc 1aa0 24bd 9b10 ff3d
000002a0: d5d1 923d 71f8 54bd 7489 233e 86bf e43d
000002b0: db89 fbbb 7615 353e cf5b 9e3d b89c 9fbc
000002c0: aa0e dabd 6659 163e 792e 343e 9511 02bd
000002d0: b8af d8bd fd2d 0b3e 761a 83bd ded0 5e3d
000002e0: 0afc c5bd 070d 0abe 1945 333d 34a2 b03d
000002f0: 2972 f93c 9a75 f33c 4434 8e3d 438f 383d
00000300: 6c3d 1abe 16a1 e73d fe5b c63d ee44 e33c
00000310: e5a6 eebc bfe1 fbbd c4ed 05be 2f1e dc3d
00000320: 6a18 c73d 9003 f8bc 1cf8 293d da10 71bc
00000330: 2c69 c23d d328 53be 54f0 c7bd b21d 48bb
00000340: 599a 55bd cf5c 483d 2f07 1d3d 7199 593d
00000350: e8a3 6cbe cc05 5d3d cc5d e6bc 9384 b43c
00000360: 7753 853e d9bd d53d 76c8 c23d c480 d23d
00000370: 4f89 433e 0f7f 1c3d 7fea ccbd 0d18 3abc
00000380: c2e1 053e 7f44 81bd b64d 86be 3620 9bbc
00000390: 73b8 a33d 03a9 bbba 325a d7bd a2a2 cabd
000003a0: 733e 92bd 2a60 4fbb e1ec aebd b31b d83d
000003b0: afee a53d 94b8 ecbb 9cd3 e73d 1456 5e3d
000003c0: 3fda de3b 36f3 823d bb81 863d 0616 3fbd
000003d0: d011 d33d 70af 0bbe b85d 023e b42f dabb
000003e0: 8e78 c63c ba82 9b3d 228c 6bbd 1203 28bd
000003f0: 86ba afbe 94df ab3b 09bc 69bd 9bf9 0e3e

rnn.weight_hh_l1 f4 [192, 64]
-0.054694597 -0.026235236 0.079699755 0.03864866 0.08675791 0.0556038 -0.092154436 0.028159263
0.30685982 0.097688176 -0.08530616 0.18169422 0.14933549 0.073633894 -0.03342068 -0.046831068
0.02385562 0.0027484181 -0.07704876 0.0036530958 -0.14498848 0.08312046 0.01987562 -0.22213337
0.09295234 0.0552234 0.019250454 -0.012519195 0.10605327 -0.065641254 0.0020937473 0.093701325
-0.046054646 0.08625058 -0.13977271 0.14783482 0.08870099 -0.009105566 -0.09879168 0.067160815
0.035982758 0.08535797 0.13420157 0.009442538 0.087669045 -0.0361082 0.05374558 -0.097672485
0.14004295 -0.019110307 0.07787565 -0.053637058 0.03294746 -0.015342099 -0.063338146 0.006410899
-0.12536767 -0.033849817 0.08047699 0.09591767 0.047342077 -0.003497775 0.027827155 0.032525446
-0.03668951 -0.18105504 0.13678098 -0.008784044 0.04116874 -0.121491335 -0.13691671 -0.12810105
0.04842748 0.055779025 -0.13544637 0.022133792 0.09531444 0.02546696 -0.08630298 -0.14475359
0.15731037 0.1860298 0.092152104 0.28616777 -0.2049351 0.0975264 -0.0038227416 -0.108209886
-0.1200425 0.045693435 -0.10452066 -0.046736795 -0.022080867 -0.049033903 0.14283645 0.036118753
-0.08573185 0.09184152 0.0631383 0.05836392 0.012958312 -0.009803573 0.15330338 0.039836574
0.038358137 -0.034504864 0.101180986 0.02863727 0.10577159 -0.024895975 6.1934184e-06 -0.2068259
0.008022076 0.10739749 0.15527444 -0.064647675 -0.06414115 -0.05788283 0.08046699 0.013552927
-0.22243138 -0.0070948806 -0.0062725763 -0.2006428 -0.020899879 -0.03533188 -0.14296667 -0.15926397
0.15517053 -0.065594025 -0.18611482 -0.08990509 0.032467633 -0.026455605 -0.033075258 0.11003103
0.11764067 -0.16919202 0.002677413 -0.09405109 -0.23504363 0.09233811 -0.13503449 -0.035615936
-0.016629573 0.14022554 0.084093735 0.08871952 0.068145186 0.07928244 0.011066768 0.07810816
-0.04394414 -0.12329342 -0.07266403 -0.016982622 -0.11318487 -0.0054741036 0.07229433 0.03676873
0.0039580935 -0.0814713 0.0050616 0.082535654 -0.048905198 -0.13826087 -0.12276996 0.0986386
0.0071620373 -0.022610793 -0.046802573 -0.12077895 0.028760063 0.079596594 0.037558816 0.0012624825
-0.06429172 0.0949401 -0.06539738 0.10862095 -0.0037180257 -0.053728256 -0.094521016 0.0041030315
-0.062547915 0.17446983 0.004431404 0.0868172 0.058391478 0.13819842 0.007239822 0.033797935
0.12975828 -0.1770182 0.11190031 -0.09191745 0.018701581 -0.010481987 -0.10856977 0.0037056648
0.06436065 -0.019873982 -0.033861123 0.31198198 -0.19950937 -0.08930912 -0.17046404 0.027994292
0.14031525 0.0704496 0.029112244 -0.04633645 0.03369615 0.10996291 -0.06316496 -0.05559447
-0.046321202 0.07882268 -0.10224384 -0.15767367 -0.04256003 0.03057932 0.11294576 0.18540254
-0.094658725 -0.11479484 -0.013472196 -0.017522713 -0.18989617 0.08586464 0.052693337 0.070303164
0.023994228 -0.06939905 0.12835993 -0.050025612 -0.058184452 -0.035830513 0.07346221 0.07437493
-0.07584804 0.008869887 -0.16557717 0.032967303 -0.018397814 -0.05913624 0.10043894 -0.025016157
0.1825886 -0.10993551 0.12265774 0.039366655 -0.1210764 0.13110118 0.043523222 0.04570455
00000000: 7107 60bd 47eb d6bc a039 a33d 0f4e 1e3d
00000010: 22ae b13d cfc0 633d 77bb bcbd 41ae e63c
00000020: bb1c 9d3e bd10 c83d ffb4 aebd 0d0e 3a3e
00000030: 67eb 183e 5ecd 963d 1fe4 08bd efd1 3fbd
00000040: dc6c c33c ce1e 343b becb 9dbd c768 6f3b
00000050: dc77 14be 0f3b aa3d 32d2 a23c ee76 63be
00000060: cc5d be3d ef31 623d 21b3 9d3c 4f1d 4dbc
00000070: 7532 d93d ec6e 86bd 4037 093b 7be6 bf3d
00000080: cca3 3cbd 25a4 b03d 9420 0fbe 0362 173e
00000090: dda8 b53d 832f 15bc 4b53 cabd 9c8b 893d
000000a0: a862 133d 29d0 ae3d 236c 093e e0b4 1a3c
000000b0: d48b b33d 31e6 13bd 5324 5c3d 8308 c8bd
000000c0: 6b67 0f3e 388d 9cbc 457d 9f3d 88b2 5bbd
000000d0: eaf3 063d 6d5d 7bbc 6eb7 81bd 8512 d23b
000000e0: 6260 00be 1ba6 0abd 1fd1 a43d 7c70 c43d
000000f0: c4e9 413d ed3a 65bb c6f5 e33c 6739 053d
00000100: bd47 16bd 7e66 39be 5010 0c3e f3ea 0fbc
00000110: 8da0 283d 73d0 f8bd e533 0cbe ec2c 03be
00000120: e55b 463d 8c78 643d 74b2 0abe ed51 b53c
00000130: 3834 c33d 16a0 d03c 9ebf b0bd 493a 14be
00000140: f815 213e 997e 3e3e 3eba bc3d 9584 923e
00000150: 82da 51be ecbb c73d f686 7abb 259d ddbd
00000160: d8d8 f5bd 0a29 3b3d ee0e d6bd 156f 3fbd
00000170: efe2 b4bc c6d7 48bd b843 123e 42f1 133d
00000180: 2e94 afbd 6817 bc3d a74e 813d 010f 6f3d
00000190: 1a4f 543c 2a9f 20bc 90fb 1c3e ad2b 233d
000001a0: 6c1d 1d3d f954 0dbd fa37 cf3d b598 ea3c
000001b0: c69e d83d a5f2 cbbc 0fd1 cf36 2bca 53be
000001c0: 076f 033c 37f3 db3d 4300 1f3e 0066 84bd
000001d0: 6f5c 83bd 8c16 6dbd e1cb a43d 190d 5e3c
000001e0: 0dc5 63be 2c7c e8bb 2f8a cdbb 4e75 4dbe
000001f0: 3936 abbc 29b8 10bd db65 12be 1816 23be
00000200: 06e5 1e3e 2956 86bd e294 3ebe 2920 b8bd
00000210: c8fc 043d 6db9 d8bc ec79 07bd f357 e13d
00000220: 97ed f03d ac40 2dbe 8977 2f3b dc9d c0bd
00000230: 47af 70be c31b bd3d 7b46 0abe 04e2 11bd
00000240: be3a 88bc 4997 0f3e 5639 ac3d 94b2 b53d
00000250: b48f 8b3d d55e a23d 6451 353c 2cf7 9f3d
00000260: c5fe 33bd 4381 fcbd e1d0 94bd 241f 8bbc
00000270: 78cd e7bd 1c60 b3bb 0d0f 943d cf9a 163d
00000280: e5b2 813b 6dda a6bd c7db a53b 7408 a93d
00000290: d150 48bd 4294 0dbe d16e fbbd 0903 ca3d
000002a0: 86af ea3b 453a b9bc 0eb4 3fbd f45a f7bd
000002b0: 399a eb3c 8a03 a33d 46d7 193d e279 a53a
000002c0: 61ab 83bd f56f c23d 10ef 85bd a974 de3d
000002d0: 1faa 73bb 2912 5cbd 3c94 c1bd b972 863b
000002e0: 1f19 80bd 38a8 323e 5035 913b 37cd b13d
000002f0: e72b 6f3d e383 0d3e 073c ed3b b46f 0a3d
00000300: 5bdf 043e 4244 35be fd2b e53d 373f bcbd
00000310: 0f34 993c a4bc 2bbc d459 debd bdda 723b
00000320: 84cf 833d c3ce a2bc f6b1 0abd 1abc 9f3e
00000330: 2f4c 4cbe b3e7 b6bd 208e 2ebe 4954 e53c
00000340: cdae 0f3e e147 903d cd7c ee3c 4acb 3dbd
00000350: f904 0a3d 3c34 e13d a15c 81bd 07b7 63bd
00000360: 4dbb 3dbd c96d a13d 3865 d1bd 3575 21be
00000370: 6d53 2ebd 7b81 fa3c 1b50 e73d 2ada 3d3e
00000380: 6fdc c1bd 8f19 ebbd 7cba 5cbc cb8b 8fbc
00000390: 2474 42be cdd9 af3d f8d4 573d 1bfb 8f3d
000003a0: 8b8f c43c 1721 8ebd c970 033e a8e7 4cbd
000003b0: d252 6ebd 04c3 12bd 5b73 963d e251 983d
000003c0: 3856 9bbd 0153 113c 108d 29be b908 073d
000003d0: 03b7 96bc d838 72bd eeb2 cd3d afee ccbc
000003e0: 82f8 3a3e de25 e1bd fb33 fb3d ee3e 213d
000003f0: e7f6 f7bd 633f 063e 6845 323d b234 3b3d

rnn.bias_ih_l1 f4 [192]
-0.06042424 -0.00551059 0.071616605 -0.07736191 0.0036678407 0.051129594 -0.024314947 0.12867662
0.016604247 0.12034271 0.056987874 -0.10496118 0.05674265 0.02711826 0.024910456 -0.025271984
0.0014488529 0.017873866 0.046606302 0.05260294 0.08825014 -0.010339696 -0.01594997 0.18845311
0.02578556 0.1144556 -0.064213336 0.083226606 -0.109112024 0.07039439 0.18244779 -0.04019439
0.10178349 0.0052203205 -0.094564915 -0.04287262 0.004747572 0.029819712 -0.0036500723 -0.06282594
-0.08658089 0.08697312 -0.09019799 -0.07412613 0.045787554 0.053371627 -0.011017886 0.1588865
0.104893565 -0.061044186 0.09465608 0.09862613 -0.042099968 0.06471942 0.17300187 0.07581724
0.048065253 0.06043185 0.12817608 -0.12853074 0.011514903 -0.017220441 0.07634475 -0.047467183
-0.59250534 -0.1299075 0.17239387 0.0065103397 -0.040367037 -0.13802263 -0.089442275 -0.049929902
-0.09976122 -0.30746445 -0.28179887 0.24818233 0.20246938 0.2567426 0.11682783 -0.1384716
-0.1682682 -0.5389194 -0.17427209 -0.3977249 0.1851134 -0.11702128 0.10640781 0.049310002
-0.33492988 -0.021917894 0.06796297 -0.07663318 -0.15273485 -0.07253056 -0.5170765 0.11554388
-0.07222289 -0.08194728 -0.14696033 -0.15218782 0.11042168 0.2797026 -0.05075804 -0.05041189
-0.03518346 -0.05755617 -0.33636612 0.076375455 -0.5087949 -0.19413076 -0.29572448 -0.006179244
-0.500077 -0.10604509 -0.13225478 0.0012798274 0.20228104 0.13238847 -0.6787656 -0.2678201
-0.15753734 -0.230377 -0.5323195 -0.4116845 0.09065097 -0.003212724 -0.04092148 -0.12689066
0.13353817 -0.08430997 0.12736219 -0.08431587 -0.020480465 0.08734111 0.021867407 -0.112121105
-0.024214476 -0.012721202 -0.010670492 0.031166155 0.0059145903 0.049702246 0.10228436 -0.11579809
0.060582727 0.06938116 -0.12836578 -0.015269532 0.121231936 -0.08645957 0.053261187 0.0022751943
0.12358064 -0.08198076 0.053583805 -0.031101782 -0.02486036 0.08625344 0.18666293 0.04818821
-0.0069975355 0.044705644 -0.07029941 -0.07708981 -0.09574906 -0.031023014 0.06404399 -0.052872915
0.062971994 -0.023064598 -0.046507444 0.0041099074 0.070712686 0.08154836 0.117498755 -0.07475114
0.0448706 -0.045726653 -0.13565065 0.03087652 -0.07489543 0.084240936 0.21792033 -0.064478956
-0.045589272 -0.005672259 0.13510023 -0.10833044 -0.02396062 0.09285776 -0.05294826 -0.085137054
00000000: 687f 77bd 2e92 b4bb baab 923d ec6f 9ebd
00000010: 2860 703b 446d 513d 2430 c7bc cec3 033e
00000020: a105 883c 3d76 f63d 1e6c 693d e3f5 d6bd
00000030: fb6a 683d 1d27 de3c 0311 cc3c 3107 cfbc
00000040: 70e7 bd3a 376c 923c 40e6 3e3d 2e76 573d
00000050: 7dbc b43d d467 29bc 83a9 82bc daf9 403e
00000060: 3d3c d33c b367 ea3d 4882 83bd b672 aa3d
00000070: 2076 dfbd ef2a 903d 98d3 3a3e dfa2 24bd
00000080: dd73 d03d 390f ab3b 40ab c1bd 339b 2fbd
00000090: 8591 9b3b 7848 f43c 0d36 6fbb e3aa 80bd
000000a0: 5251 b1bd f71e b23d b9b9 b8bd 71cf 97bd
000000b0: bb8b 3b3d 359c 5a3d 5d84 34bc 25b3 223e
000000c0: 70d2 d63d 7809 7abd 0cdb c13d 7ffc c93d
000000d0: 0471 2cbd 9e8b 843d 6727 313e 1246 9b3d
000000e0: 12e0 443d 6387 773d 9740 033e 909d 03be
000000f0: 01a9 3c3c e211 8dbc a35a 9c3d f36c 42bd
00000100: 6eae 17bf 7906 05be 0588 303e b054 d53b
00000110: e857 25bd ce55 0dbe 832d b7bd 4c83 4cbd
00000120: 9c4f ccbd fb6b 9dbe f147 90be 8223 7e3e
00000130: 2254 4f3e c473 833e 6e43 ef3d 80cb 0dbe
00000140: 804e 2cbe 9ff6 09bf 6274 32be 99a2 cbbe
00000150: 5e8e 3d3e daa8 efbd 56ec d93d 49f9 493d
00000160: ee7b abbe 288d b3bc 2b30 8b3d dbf1 9cbd
00000170: 8666 1cbe e78a 94bd 205f 04bf 45a2 ec3d
00000180: 98e9 93bd fad3 a7bd c57c 16be 20d7 1bbe
00000190: c324 e23d 2e35 8f3e aae7 4fbd b37c 4ebd
000001a0: 881c 10bd 05c0 6bbd 2e38 acbe bc6a 9c3d
000001b0: 6240 02bf 37ca 46be 3369 97be 417b cabb
000001c0: 0c05 00bf 2b2e d9bd cc6d 07be e2bf a73a
000001d0: c322 4f3e d890 073e 95c3 2dbf b71f 89be
000001e0: 7851 21be f3e7 6bbe 1746 08bf 50c8 d2be
000001f0: 37a7 b93d 918c 52bb 489d 27bd a0ef 01be
00000200: 3bbe 083e b5aa acbd 3c6b 023e cdad acbd
00000210: a6c6 a7bc e5df b23d 4723 b33c c09f e5bd
00000220: 705d c6bc 976c 50bc 4ad3 2ebc 2a50 ff3c
00000230: 2ecf c13b 9594 4b3d 767a d13d 8d27 edbd
00000240: 9825 783d b617 8e3d 5272 03be 0f2d 7abc
00000250: 7348 f83d b711 b1bd 6728 5a3d 6d1b 153b
00000260: d917 fd3d 87e5 a7bd b17a 5b3d 2ac9 febc
00000270: f4a7 cbbc a5a5 b03d 9124 3f3e 0061 453d
00000280: 954b e5bb 441d 373d 23f9 8fbd 43e1 9dbd
00000290: 1518 c4bd fa23 febc 7f29 833d 4591 58bd
000002a0: 76f7 803d f8f1 bcbc 977e 3ebd 67ac 863b
000002b0: d0d1 903d d402 a73d 30a3 f03d 2017 99bd
000002c0: 3cca 373d df4b 3bbd 01e8 0abe c1f0 fc3c
000002d0: c662 99bd 8386 ac3d 8226 5f3e 8b0d 84bd
000002e0: d1bb 3abd 5bde b9bb b757 0a3e 5adc ddbd
000002f0: 1049 c4bc 362c be3d 46e0 58bd 565c aebd

rnn.bias_hh_l1 f4 [192]
-0.061015483 0.10957184 0.030612651 0.031323336 0.14009193 -0.0023261649 0.019666472 0.15392362
-0.1240646 -0.05452609 -0.11553909 0.051847424 -0.02044375 -0.048828688 0.106627785 -0.06275792
0.06583672 0.056158703 -0.024990182 0.079424605 0.0055415174 -0.059292696 -0.04371784 0.13234214
0.060735833 -0.11407777 -0.08040183 -0.09590101 -0.09929755 0.024700737 0.013313628 -0.0053566755
-0.04885178 0.093759656 -0.086674854 0.09424535 0.02945882 -0.15957904 -0.0495449 0.08040154
0.11715607 0.11905911 0.0716114 -0.03738469 -0.09106558 0.06811082 -0.007625925 0.15195587
0.022989249 -0.12338256 -0.057662833 0.09103846 0.052640334 0.046441097 0.09257211 -0.019298004
0.09562474 0.030879265 0.003601157 -0.09221112 0.020723749 0.04489598 0.045625873 -0.12182663
-0.5317598 -0.11299754 0.078874215 0.13427094 -0.08466172 -0.019543564 0.0021165845 -0.15832129
0.09585369 -0.109890126 -0.21780312 0.044697832 0.18349661 0.16258496 0.19964261 0.071731456
-0.29658377 -0.45110068 -0.2274051 -0.5296762 0.23903377 0.032609716 0.12077038 0.089930214
-0.25302094 -0.07055021 0.05215183 -0.008327375 -0.14020008 -0.02647533 -0.45028463 0.08859308
-0.17775227 -0.0211048 -0.052559223 -0.0018964027 0.13819563 0.11379816 -0.12705481 -0.16936484
0.014713201 -0.123560764 -0.29402485 -0.020742714 -0.5070968 -0.10825464 -0.20276225 -0.059977613
-0.26872385 -0.0068383296 -0.0165389 -0.06358145 0.17665885 0.16271311 -0.49060753 -0.07571643
-0.19450511 -0.14300679 -0.50755477 -0.23152196 0.10050539 -0.1408654 -0.09533193 -0.032538906
0.35471594 -0.082007244 0.06797673 -0.07055465 -0.09567133 0.050368216 -0.043157082 -0.007821348
-0.04401556 -0.03601143 0.050891753 -0.07179234 0.09312512 -0.077982396 -0.035196204 -0.03497728
0.12090703 0.24214166 0.08501162 -0.017819185 -0.070489 -0.040891744 0.018564194 0.03241444
-0.14201917 -0.022649549 -0.023219548 0.024659202 0.013117591 -0.13907567 0.28410512 0.05358806
0.055678017 -0.02952694 0.0011637677 0.01631203 -0.06431951 0.045855943 0.0994052 -0.011481736
-0.13153757 -0.16027744 0.004554192 0.11027871 0.068758294 -0.08218227 -0.058590945 0.009032819
0.016598344 0.021280052 0.021068469 -0.015757564 -0.14184591 0.06393544 0.088976875 -0.066569105
-0.083028525 0.036181174 0.13140368 0.017325923 -0.13602287 -0.09434369 0.047062192 0.04079959
00000000: 5feb 79bd 3367 e03d 62c7 fa3c e64c 003d
00000010: 4274 0f3e 9272 18bb 951b a13c 279e 1d3e
00000020: 9515 febd c056 5fbd c29f ecbd f75d 543d
00000030: a779 a7bc 9700 48bd ab5f da3d 3987 80bd
00000040: 67d5 863d ab06 663d 36b8 ccbc 5ea9 a23d
00000050: 9e95 b53b e6dc 72bd 7a11 33bd b384 073e
00000060: 23c6 783d 9ba1 e9bd b7a9 a4bd c067 c4bd
00000070: 845c cbbd 3359 ca3c 6721 5a3c 0d87 afbb
00000080: ce18 48bd 1005 c03d 9682 b1bd b503 c13d
00000090: a053 f13c b068 23be 98ef 4abd 90a9 a43d
000000a0: 86ef ef3d 43d5 f33d ffa8 923d b020 19bd
000000b0: 9780 babd b07d 8b3d e5e2 f9bb 529a 1b3e
000000c0: f353 bc3c ffaf fcbd dd2f 6cbd 5f72 ba3d
000000d0: 649d 573d 0539 3e3d 7296 bd3d d916 9ebc
000000e0: e7d6 c33d 83f6 fc3c 6401 6c3b 2fd9 bcbd
000000f0: dac4 a93c d9e4 373d 32e2 3a3d 3d80 f9bd
00000100: 6921 08bf 416b e7bd ce88 a13d 527e 093e
00000110: 2063 adbd d319 a0bc 65b6 0a3b fa1e 22be
00000120: f04e c43d 130e e1bd c807 5fbe 1315 373d
00000130: 89e6 3b3e ac7c 263e 1d6f 4c3e f1e7 923d
00000140: d4d9 97be abf6 e6be e2dc 68be dc98 07bf
00000150: 45c5 743e c491 053d 7656 f73d 552d b83d
00000160: f68b 81be a17c 90bd 289d 553d 8b6f 08bc
00000170: 9c90 0fbe cbe2 d8bc b58b e6be 4a70 b53d
00000180: b104 36be f9e3 acbc 5748 57bd b790 f8ba
00000190: 2883 0d3e 020f e93d a81a 02be fa6d 2dbe
000001a0: a30f 713c 6d0d fdbd 6d8a 96be a0ec a9bc
000001b0: 19d1 01bf 9cb4 ddbd e8a0 4fbe 16ab 75bd
000001c0: 2c96 89be 1114 e0bb 967c 87bc fe36 82bd
000001d0: 0fe6 343e 449e 263e e930 fbbe 3711 9bbd
000001e0: 592c 47be 5f70 12be 1cef 01bf 1814 6dbe
000001f0: c5d5 cd3d 053f 10be 633d c3bd 8447 05bd
00000200: 549d b53e 6af3 a7bd 6237 8b3d f57e 90bd
00000210: 55ef c3bd e74e 4e3d 7bc5 30bd 1c25 00bc
00000220: a949 34bd b980 13bd df73 503d dd07 93bd
00000230: 62b8 be3d 3cb5 9fbd e529 10bd 5644 0fbd
00000240: 1b9e f73d fcf3 773e 921a ae3d 8af9 91bc
00000250: 895c 90bd 1a7e 27bd f013 983c 01c5 043d
00000260: 796d 11be 8c8b b9bc ec36 bebc 1802 ca3c
00000270: 2aeb 563c da69 0ebe 3a76 913e 277f 5b3d
00000280: a20e 643d 7be2 f1bc 9089 983a cea0 853c
00000290: f2b9 83bd 71d3 3b3d f494 cb3d e41d 3cbc
000002a0: c9b1 06be c51f 24be 553b 953b ced9 e13d
000002b0: 26d1 8c3d 2e4f a8bd 0ffd 6fbd 64fe 133c
000002c0: 40f9 873c 8153 ae3c c897 ac3c 0216 81bc
000002d0: 0e40 11be 95f0 823d 8239 b63d 6255 88bd
000002e0: dc0a aabd b632 143d b08e 063e 18ef 8d3c
000002f0: 9449 0bbe 4437 c1bd 49c4 403d 791d 273d

gaussian_layer.mu_layer.weight f4 [1, 64]
-0.029893197 -0.11177222 0.13567892 0.124306105 0.01257663 -0.13370039 -0.025810443 -0.041736625
-0.13478743 -0.14719905 -0.10455299 0.12763706 0.022395076 -0.056098472 0.22459172 0.10639611
0.08597693 -0.030139895 0.06975766 0.024436897 -0.4705982 -0.13149813 0.109986834 0.0014067735
0.03853498 0.0930421 0.089723304 -0.012976421 0.041930627 0.07454176 -0.006319869 -0.08748867
0.037715334 0.06419916 0.14979017 0.18150698 0.076249495 -0.036363907 0.07691748 0.062588245
-0.15617804 0.11147387 -0.03751524 -0.106967345 -0.036771975 0.06199515 0.07676801 -0.99283147
-0.1293678 0.102366306 0.021684032 0.13831465 0.012187406 0.12013618 -0.048772298 0.09440658
0.18411723 0.09257526 0.013791989 -0.16020691 0.13803855 0.1063253 0.07242316 0.1316256
00000000: 94e2 f4bc d5e8 e4bd 6aef 0a3e 3394 fe3d
00000010: 360e 4e3c c1e8 08be 6c70 d3bc 06f4 2abd
00000020: b705 0abe 59bb 16be e11f d6bd 4ab3 023e
00000030: e175 b73c 83c7 65bd 5ffb 653e 34e6 d93d
00000040: ac14 b03d f1e7 f6bc 1bdd 8e3d e32f c83c
00000050: 3ff2 f0be 72a7 06be c740 e13d 7c63 b83a
00000060: dbd6 1d3d db8c be3d dac0 b73d 0e9b 54bc
00000070: 73bf 2b3d 5aa9 983d e716 cfbb 432d b3bd
00000080: 657b 1a3d d97a 833d 9862 193e f7dc 393e
00000090: b228 9c3d 52f2 14bd e986 9d3d 442e 803d
000000a0: 23ed 1fbe 6a4c e43d 95a9 19bd b211 dbbd
000000b0: 369e 16bd a0ee 7d3d 8c38 9d3d 342a 7ebf
000000c0: fe78 04be 6da5 d13d b6a2 b13c 5ba2 0d3e
000000d0: b0ad 473c f509 f63d 76c5 47bd 3d58 c13d
000000e0: 3a89 3c3e 1998 bd3d cbf7 613c 480d 24be
000000f0: fa59 0d3e 14c1 d93d 9852 943d dcc8 063e

gaussian_layer.sigma_layer.weight f4 [1, 64]
-0.30676362 -0.3128093 -0.13512386 0.32946432 0.08791961 -0.15610701 0.036729768 0.09505289
-0.2337703 -0.4198318 0.16747648 -0.01117551 -0.4932852 0.0018791824 0.0776099 -0.1175296
-0.2357663 -0.2724374 0.287755 -0.24682255 -0.30693677 -0.44834882 -0.056326255 0.8772168
-0.6928468 0.005411459 0.008886769 0.022742176 0.3007584 -0.3233161 -0.23071225 0.23011406
-0.3077171 -0.23577951 0.05567225 -0.018711057 0.029775893 -0.022939939 -0.12022221 -0.27670884
-0.13980868 -0.1332405 -0.36643386 -0.07963802 -0.26478603 -0.07971536 -0.24939375 0.19254915
-0.105698295 -0.081349134 1.1080754 0.1364956 0.047518373 0.0690963 -0.25647664 0.3174444
-0.06349246 -0.36538067 -0.21181603 -0.6668607 -0.45010653 -0.17876841 -0.022298064 1.054369
00000000: 1f10 9dbe 8a28 a0be e95d 0abe 8caf a83e
00000010: 320f b43d 84da 1fbe f471 163d 17ab c23d
00000020: 7b61 6fbe 32f4 d6be f47e 2b3e 7c19 37bc
00000030: e18f fcbe e64e f63a f0f1 9e3d 5cb3 f0bd
00000040: b96c 71be ea7c 8bbe a054 933e 0dbf 7cbe
00000050: d126 9dbe fa8d e5be 5cb6 66bd 4891 603f
00000060: 685e 31bf 9c52 b13b d099 113c cd4d ba3c
00000070: 01fd 993e b089 a5be d53f 6cbe 05a3 6b3e
00000080: 198d 9dbe 2f70 71be 9608 643d ee47 99bc
00000090: 93ec f33c 8aec bbbc 1037 f6bd c8ac 8dbe
000000a0: 022a 0fbe 3370 08be 389d bbbe 4219 a3bd
000000b0: 0992 87be cf41 a3bd 1361 7fbe 9b2b 453e
000000c0: 5978 d8bd 609a a6bd 6ad5 8d3f 81c5 0b3e
000000d0: a0a2 423d 5c82 8d3d e850 83be 1388 a23e
000000e0: 5608 82bd 2d13 bbbe 4de6 58be 62b7 2abf
000000f0: 5d74 e6be 110f 37be 6eaa b6bc 90f5 863f
