1223-code-DL/model/GRU_state_dict.pt (torch, 668484 bytes, 17 tensors)

gru.weight_ih_l0 f4 [384, 16]
-0.06692018 -0.06000771 0.2953807 -0.08921139 -0.2912284 -0.6586999 -0.009335157 -0.25289094
0.12058346 -0.23947334 -0.120056346 0.103191264 0.10261934 0.034118623 -0.52856773 0.027619002
-0.30822647 -0.24907686 -0.024598794 -0.14870627 -0.2291349 -0.07860946 -0.0856149 -0.08737409
-0.05183351 -0.2511408 -0.058193907 -0.2163005 -0.20615093 -0.2904482 -0.23842938 0.1695354
0.0731424 -0.03989324 0.121637076 -0.35335106 0.21626943 -0.07955183 -0.03572548 -0.65035844
-0.02403979 0.09372237 0.14078186 -0.023918495 -0.17834146 -0.10028137 0.09472456 0.22234417
0.06802847 -0.22186436 -0.29132593 0.10457515 -0.10311017 0.0017852731 -0.4147148 0.4345387
0.08840617 0.05705228 -0.5119188 0.102175675 0.10845597 0.26490715 -0.039615437 0.3130833
-0.1145503 -0.09566201 -0.4474019 -0.22536807 -0.16105327 -0.12311272 -0.032474153 -0.12817731
-0.18882205 -0.1677753 -0.3030264 -0.11461261 -0.13337961 -0.22497429 -0.08284421 -0.3773322
-0.05137406 -0.1618541 0.062314656 -0.027505746 -0.005471827 -0.11344464 -0.07860768 5.072911e-05
-0.09984093 -0.1512962 0.13924366 -0.063352145 0.017073445 0.0021857328 0.0049387296 -0.17114201
-0.0019370613 0.18812332 0.0024733343 0.16345443 0.12120151 0.08688967 0.23641187 0.06771361
0.20525017 0.14913373 0.2268621 0.18131691 0.06368179 0.11008483 0.19819325 0.12686338
-0.019488312 -0.0707728 -0.24233736 0.0321529 -0.0028053895 -0.080415405 0.0069393087 -0.027508195
-0.075622745 0.049778104 -0.43337652 -0.10784247 -0.05539366 -0.016899344 0.06830127 -0.39130983
0.07371782 -0.09877177 -0.03631485 0.06071665 -0.14497723 -0.06308645 -0.120868 -0.04721652
0.01308831 -0.017407468 0.13602187 0.04704434 0.055613015 -0.0055836225 0.08215803 -0.4180523
0.03820939 -0.12381936 0.04406634 -0.10284284 -0.113938406 -0.008453322 -0.16088387 -0.09955769
0.029978402 -0.036312614 0.0016614929 0.014145106 -0.062480222 0.0018302215 -0.03514156 -0.3607732
0.082439475 -0.08527228 0.035363063 -0.029348472 0.03206062 -0.036961276 -0.017762436 0.10099373
-0.02861529 0.06936667 0.027699519 0.022777805 0.04701462 -0.03931215 0.055536937 -0.009855336
0.03396494 0.08169022 -0.05363342 0.018705897 -0.0069139986 -0.026433695 -0.0077764387 -0.0022688024
-0.016588857 -0.012633702 0.035804223 -0.0030558198 0.025969569 0.06922593 0.04915356 -0.00045156156
-0.18991056 -0.27234867 -0.1010046 -0.091663234 -0.10108021 -0.16075188 -0.16964722 -0.06244906
-0.051286638 -0.10492047 -0.1913211 -0.10047978 -0.053193755 -0.15425608 -0.09021749 -0.3690293
-0.022681702 -0.106617115 0.045733426 0.029133705 0.10327452 -0.009892435 -0.013882912 -0.0666767
0.061620206 0.11867418 0.23813891 0.1243508 0.08032172 0.050611634 0.06319886 -0.25401628
-0.013289173 0.01436611 0.27888808 -0.012800894 -0.042805605 -0.097546704 -0.04933529 -0.06385221
-0.14185384 -0.026112631 -0.3236375 -0.100277424 -0.12801622 -0.095210284 -0.07734153 -0.052306443
0.12763444 0.07531058 0.012742286 0.21896563 0.15416113 0.21223444 0.17719494 0.17343023
0.20041521 0.22676805 0.096726544 0.19307148 0.19030565 0.10405504 0.22361371 0.15222724
00000000: 730d 89bd a5ca 75bd 243c 973e 76b4 b6bd
00000010: e41b 95be 8fa0 28bf 7df2 18bc ec7a 81be
00000020: 76f4 f63d 8038 75be 1ae0 f5bd f155 d33d
00000030: 172a d23d f8bf 0b3d 3750 07bf 3f41 e23c
00000040: dccf 9dbe 010e 7fbe 6983 c9bc 7546 18be
00000050: 57a2 6abe fffd a0bd dd56 afbd 30f1 b2bd
00000060: 604f 54bd 8795 80be bc5c 6ebd e17d 5dbe
00000070: 3b19 53be a0b5 94be d526 74be b09a 2d3e
00000080: afcb 953d 1867 23bd dc1c f93d 6eea b4be
00000090: bc75 5d3e 12ec a2bd e254 12bd e47d 26bf
000000a0: 18ef c4bc 84f1 bf3d 1f29 103e b8f0 c3bc
000000b0: 259f 36be 5260 cdbd f3fe c13d 31ae 633e
000000c0: 8352 8b3d 6930 63be ac28 95be 7f2b d63d
000000d0: 6d2b d3bd d3ff e93a 8055 d4be db7b de3e
000000e0: 4b0e b53d a7af 693d 1c0d 03bf 7b41 d13d
000000f0: 2a1e de3d e9a1 873e cc43 22bd 744c a03e
00000100: 5999 eabd 72ea c3bd dd11 e5be e3c6 66be
00000110: 26eb 24be 8622 fcbd 9e03 05bd ea40 03be
00000120: 915a 41be 4acd 2bbe 4726 9bbe 04ba eabd
00000130: aa94 08be a95f 66be 3aaa a9bd b031 c1be
00000140: 9b6d 52bd 15bd 25be a73d 7f3d bb53 e1bc
00000150: 034d b3bb aa55 e8bd 10fd a0bd f8c5 5438
00000160: 6779 ccbd 64ed 1abe e495 0e3e c5be 81bd
00000170: 9cdd 8b3c 833e 0f3b 11d5 a13b da3f 2fbe
00000180: fee4 fdba 66a3 403e aa17 223b 9960 273e
00000190: 7f38 f83d 36f3 b13d f415 723e 6fad 8a3d
000001a0: 1a2d 523e 83b6 183e 8a4e 683e 24ab 393e
000001b0: 996b 823d 2874 e13d 2cf3 4a3e 79e8 013e
000001c0: f4a5 9fbc 54f1 90bd 4927 78be c2b2 033d
000001d0: a0da 37bb d5b0 a4bd 2463 e33b de58 e1bc
000001e0: 19e0 9abd 20e4 4b3d 87e3 ddbe 83dc dcbd
000001f0: 76e4 62bd 7e70 8abc 89e1 8b3d c359 c8be
00000200: 5ef9 963d db48 cabd e1be 14bd 06b2 783d
00000210: e974 14be 7833 81bd a489 f7bd 1c66 41bd
00000220: 5a70 563c 1b9a 8ebc 5149 0b3e 91b1 403d
00000230: 79ca 633d d2f6 b6bb 7842 a83d f30a d6be
00000240: 7381 1c3d 0195 fdbd e87e 343d 449f d2bd
00000250: 8a58 e9bd cd7f 0abc bebe 24be e7e4 cbbd
00000260: 4495 f53c 89bc 14bd 73c6 d93a e0c0 673c
00000270: 43eb 7fbd 0be4 ef3a 99f0 0fbd 44b7 b8be
00000280: 07d6 a83d 3ca3 aebd dcd8 103d 356c f0bc
00000290: ff51 033d b564 17bd 8782 91bc cdd5 ce3d
000002a0: 9d6a eabc 1d10 8e3d 1aea e23c 8598 ba3c
000002b0: 6792 403d c705 21bd b37a 633d 4678 21bc
000002c0: d21e 0b3d 344d a73d b8ae 5bbd 1c3d 993c
000002d0: d38e e2bb 7a8b d8bc 7fd1 febb 30b0 14bb
000002e0: 5be5 87bc 96fd 4ebc 73a7 123d 2644 48bb
000002f0: 22be d43c 53c6 8d3d 3e55 493d 91bf ecb9
00000300: ea77 42be 4971 8bbe 80db cebd efb9 bbbd
00000310: 2403 cfbd 249c 24be 00b8 2dbe 96ca 7fbd
00000320: f011 52bd 8be0 d6bd aee9 43be 58c8 cdbd
00000330: b2e1 59bd 4ef5 1dbe f3c3 b8bd 69f1 bcbe
00000340: face b9bc 135a dabd f952 3b3d cfa9 ee3c
00000350: 9781 d33d e113 22bc 2775 63bc cb8d 88bd
00000360: 7865 7c3d 730b f33d b0da 733e a2ab fe3d
00000370: b77f a43d 254e 4f3d 676e 813d 6c0e 82be
00000380: d5ba 59bc d55f 6b3c 6bca 8e3e d7ba 51bc
00000390: ee54 2fbd 91c6 c7bd cd13 4abd f3c4 82bd
000003a0: 2242 11be 28ea d5bc d0b3 a5be 405e cdbd
000003b0: af16 03be 9cfd c2bd 3c65 9ebd 483f 56bd
000003c0: 9ab2 023e 6f3c 9a3d 05c5 503c 8738 603e
000003d0: 6adc 1d3e fc53 593e 9772 353e b297 313e
000003e0: a539 4d3e e235 683e 9118 c63d 88b4 453e
000003f0: 7cdf 423e cf1a d53d fefa 643e 75e1 1b3e

gru.weight_hh_l0 f4 [384, 128]
-0.14124191 0.29399654 -0.24035396 0.463201 -0.62110054 0.026596934 -0.0018680317 0.24412829
0.0006820015 -0.06446586 -0.114481926 -0.0182346 0.040195506 0.09073031 -0.0017994801 0.01533082
0.04948056 0.28676897 0.589505 -0.148065 -0.12538202 0.049844082 0.026756637 -0.05742482
-0.015138398 -0.28987357 -0.104837 -0.04409953 -0.094537474 -0.12884288 0.02523318 -0.15256657
-0.27553704 -0.1166137 -0.550827 0.22093226 -0.07035945 -0.25865266 0.74205595 0.24980831
0.013441497 -0.04212656 -0.02985026 -0.13358901 0.11327527 -0.041592736 -0.07997803 -0.09328933
0.12029949 -0.018642459 0.028388122 -0.09862815 -0.03360388 0.03916049 0.3758509 -0.089940466
-0.23691073 -0.06717887 -0.013701244 0.15642862 -0.09795543 0.16849208 0.29584774 -0.18693067
0.13428882 0.20083159 -0.24540481 0.13008696 0.04354364 -0.116886735 -0.13925079 -0.006383722
-0.11800025 -0.07592765 -0.12831476 -0.3358088 0.3073219 0.06776776 -0.03617656 -0.28585324
-0.0183487 0.09883186 0.03652301 -0.2599023 -0.27283907 -0.017175024 0.078873165 -0.020549875
-0.111166745 0.13636868 0.12531665 -0.033802554 0.08967552 0.14278355 -0.2373314 -0.040916275
-0.30676615 -0.026184453 -0.18081422 0.13131641 -0.120095074 0.16545762 -0.11295096 -0.09455989
-0.06408744 0.09714883 -0.004013303 0.012729525 -0.23266657 -0.14321885 -0.0033695076 0.07770195
0.14471321 -0.27127185 -0.02845292 -0.20882457 0.13508025 0.011749093 0.07715727 0.41304693
-0.22061503 -0.17969118 0.11795676 -0.03467454 -0.015686521 -0.19127198 0.26079237 0.08349152
-0.2778361 0.257979 -0.028040584 -0.058648314 0.12375423 0.13172811 0.2448322 -0.051292043
-0.2806852 0.07721278 -0.24665982 -0.104670085 -0.06377043 0.32610038 0.11828279 -0.18617113
-0.25174448 -0.36057624 0.055211097 0.004990833 -0.1893587 -0.2739103 -0.018387726 -0.026077393
-0.108940825 -0.23078394 -0.014883715 -0.032653123 0.12859894 -0.085055 0.09328412 -0.23209062
0.10295227 -0.11646262 -0.30281743 0.25793368 -0.0006138915 -0.2600433 -0.21483353 0.25920612
-0.07833882 -0.07927413 0.07390433 -0.31652611 -0.3184703 -0.23908557 0.1722553 -0.025639985
-0.25363106 0.081185766 -0.2577058 -0.28871748 0.30927098 0.2181583 0.29299533 -0.07197237
-0.1610122 0.2825105 -0.19464596 0.37784225 0.008445848 0.115293965 0.03161212 -0.1942884
0.1545559 0.08081753 -0.18630296 0.09004331 -0.17605452 -0.22569022 0.16143547 0.2236407
0.057264682 -0.23200749 0.056049716 0.23327883 0.10362391 0.23049891 -0.07159736 -0.031998307
0.17824937 -0.071356446 -0.10376331 0.23714003 0.015879663 -0.04542936 0.12680851 -0.33062455
0.10502368 0.19116579 0.1606341 0.008376261 -0.04832684 0.14040153 -0.28496274 0.12408286
-0.0098644 -0.15871865 0.05675947 -0.18345952 0.23669903 0.21865913 0.23545311 0.053153295
-0.0871475 -0.1554532 -0.27488887 0.16279837 -0.3775312 -0.109068036 0.18421376 0.13506538
0.20322868 0.07156789 -0.035614938 -0.018291226 0.18662316 -0.14732692 0.21385635 0.2998298
-0.32657877 -0.14850874 0.22978547 -0.10667866 -0.021021945 -0.1659064 0.15565592 0.044618938
00000000: b8a1 10be b786 963e 591f 76be ae28 ed3e
00000010: 7200 1fbf d0e1 d93c bed8 f4ba c4fc 793e
00000020: 59c8 323a ad06 84bd 8075 eabd ba60 95bc
00000030: 0ba4 243d d0d0 b93d 88dc ebba 1f2e 7b3c
00000040: 21ac 4a3d 62d3 923e cde9 163f 5a9e 17be
00000050: 2564 00be 4f29 4c3d bc30 db3c 4a36 6bbd
00000060: 0b07 78bc 4f6a 94be c8b4 d6bd b5a1 34bd
00000070: dd9c c1bd 63ef 03be d0b5 ce3c 693a 1cbe
00000080: 3113 8dbe 2ad3 eebd 0003 0dbf 113c 623e
00000090: 9e18 90bd 1f6e 84be 61f7 3d3f c0cd 7f3e
000000a0: ba39 5c3c e68c 2cbd 8888 f4bc 8fcb 08be
000000b0: ddfc e73d 255d 2abd 85cb a3bd 7a0e bfbd
000000c0: 945f f63d 12b8 98bc 358e e83c 8efd c9bd
000000d0: 39a4 09bd c066 203d 876f c03e b532 b8bd
000000e0: ba98 72be 1395 89bd 2f7b 60bc d32e 203e
000000f0: db9c c8bd 3089 2c3e 5b79 973e c16a 3fbe
00000100: 0283 093e cca6 4d3e 664b 7bbe 8435 053e
00000110: d15a 323d 5062 efbd c297 0ebe 8b2e d1bb
00000120: 1daa f1bd f57f 9bbd f264 03be 22ef abbe
00000130: 4c59 9d3e d3c9 8a3d df2d 14bd 5b5b 92be
00000140: 0350 96bc 5c68 ca3d 2799 153d ea11 85be
00000150: 90b1 8bbe a3b2 8cbc 4188 a13d 3658 a8bc
00000160: 64ab e3bd 3ba4 0b3e 0253 003e 8c74 0abd
00000170: cda7 b73d da35 123e 0107 73be d397 27bd
00000180: 7410 9dbe c780 d6bc 5d27 39be cf77 063e
00000190: 68f4 f5bd b96d 293e d552 e7bd 9ea8 c1bd
000001a0: 4740 83bd f7f5 c63d 0782 83bb 7f8f 503c
000001b0: 2540 6ebe f6a7 12be f5d2 5cbb 3322 9f3d
000001c0: b32f 143e 25e4 8abe 1916 e9bc 1cd6 55be
000001d0: 7a52 0a3e 457f 403c a104 9e3d e37a d33e
000001e0: e8e8 61be f700 38be 5093 f13d e406 0ebd
000001f0: 0581 80bc cddc 43be 9486 853e 9afd aa3d
00000200: 8940 8ebe d315 843e 5eb5 e5bc 3739 70bd
00000210: dc72 fd3d bce3 063e 4bb5 7a3e 9b17 52bd
00000220: f8b5 8fbe bc21 9e3d 6494 7cbe 455d d6bd
00000230: 129a 82bd a1f6 a63e 3f3e f23d a5a3 3ebe
00000240: a7e4 80be 739d b8be 0825 623d 248a a33b
00000250: 3fe7 41be f93d 8cbe dba1 96bc 42a0 d5bc
00000260: 5e1c dfbd a052 6cbe d3da 73bc 48bf 05bd
00000270: 71af 033e 5131 aebd bf0b bf3d 2aa9 6dbe
00000280: a4d8 d23d f483 eebd e30a 9bbe e20f 843e
00000290: 90ed 20ba 6524 85be 52fd 5bbe aab6 843e
000002a0: 1a70 a0bd 7a5a a2bd 275b 973d b60f a2be
000002b0: 8a0e a3be d9d2 74be b263 303e f20a d2bc
000002c0: eedb 81be b944 a63d 04f2 83be c7d2 93be
000002d0: c458 9e3e e464 5f3e 7c03 963e 4066 93bd
000002e0: 62e0 24be 37a5 903e 4551 47be 8a74 c13e
000002f0: 7460 0a3c 3e1f ec3d b67b 013d 8af3 46be
00000300: e743 1e3e a983 a53d 34c6 3ebe a068 b83d
00000310: a347 34be 561b 67be 574f 253e 1102 653e
00000320: 5f8e 6a3d 5f93 6dbe 6394 653d a5e0 6e3e
00000330: c638 d43d e807 6c3e a3a1 92bd a810 03bd
00000340: 0187 363e 5423 92bd dc81 d4bd d6d4 723e
00000350: 1116 823c 2314 3abd 17da 013e 9f47 a9be
00000360: a816 d73d f7c0 433e 447d 243e 963c 093c
00000370: 5df2 45bd 6bc5 0f3e a3e6 91be 281f fe3d
00000380: 4b9e 21bc 2487 22be 9e7c 683d d0dc 3bbe
00000390: 3b61 723e 2ee8 5f3e 9f1a 713e 45b7 593d
000003a0: 637a b2bd 202f 1fbe 3cbe 8cbe 9eb4 263e
000003b0: c54b c1be 105f dfbd 88a2 3c3e 944e 0a3e
000003c0: 2e1b 503e 3092 923d f8e0 11bd 7bd7 95bc
000003d0: 241a 3f3e dedc 16be 29fd 5a3e 4b83 993e
000003e0: 5535 a7be ad12 18be e24c 6b3e 577a dabd
000003f0: 3736 acbc 5ee3 29be 4464 1f3e 59c2 363d

gru.bias_ih_l0 f4 [384]
0.0088648815 -0.112257816 -0.0578963 0.21490046 -0.05997278 0.04059175 0.19263561 0.25560004
0.09445471 0.021285046 0.012281496 0.090604626 -0.02323685 0.06328025 -0.042289775 0.11679341
-0.05433469 -0.08138143 -0.122296564 -0.05770579 -0.013336763 0.0032399206 0.016187636 0.069422565
0.058973018 0.11238125 0.19903615 0.39187583 0.01774916 -0.14280656 -0.07350808 -0.003801432
0.122920945 0.10489848 -0.103646375 0.023000382 0.06639567 -0.010487598 -0.05612903 -0.20637459
-0.044764195 0.021970436 0.0005597591 -0.07876395 0.036169834 -0.04989685 0.06727777 0.0037923201
0.030599441 0.017407726 -0.05968526 -0.029265795 0.277486 0.2628234 -0.16489364 -0.15738222
0.055534143 0.14602198 0.15685268 0.09911452 -0.12720856 0.08102363 -0.00024684137 0.017828269
-0.073059775 -0.0319095 0.09892541 -0.009959556 0.04604845 0.12947638 -0.036755238 0.0524977
-0.054905754 -0.0004882216 -0.11347563 0.2501063 0.1335761 -0.059506442 -0.04175378 -0.051554143
0.0009899406 0.055303037 0.004165292 0.14366393 -0.008227778 0.098600484 0.05591203 0.06220153
0.114173815 -0.023243384 -0.013828255 -0.18911484 0.013763631 -0.013688677 -0.007076921 -0.06393524
-0.014442019 0.07849342 -0.0459286 -0.13329457 0.15050238 0.027057372 -0.000121401135 -0.03523817
0.02404333 -0.048764933 0.18409495 -0.104915835 -0.090442255 -0.15904002 0.12600566 -0.020111678
-0.011692983 -0.0130413165 -0.068733476 0.3335283 0.06563207 0.0017191977 -0.120262615 -0.16149962
-0.056366343 -0.019775655 -0.12274603 0.025485985 0.038310904 0.008234412 -0.09822016 -0.08507554
0.0112882275 -0.0416077 -0.08410671 -0.39638495 -0.47324848 0.23266494 0.040862735 -0.6372304
-0.6123804 -0.00095854775 0.07739892 -0.014975494 -0.08412078 0.06992407 0.021103607 -0.0024829833
0.22834654 -0.059267435 0.4021617 -0.19442116 0.07618305 -0.051905196 -0.1071002 -0.11416643
0.13568564 -0.20931804 -0.1528497 -0.48133397 0.009025057 0.13443762 0.22215942 -0.023835007
0.24061517 0.04631623 -0.2164877 -0.023741756 0.057233784 0.032348942 0.35421914 -0.033119153
-0.06773884 0.03440072 0.043196242 0.23542517 0.5005749 -0.08690936 -0.48066106 0.495018
-0.05986639 -0.090585805 0.14701207 0.07804639 -0.16317603 -0.1381952 0.17223516 -0.13031204
-0.04591203 -0.069331676 0.115454465 -0.120812915 -0.039331898 0.016437178 -0.67681676 -0.042954545
-0.09972359 0.05215115 0.0028191719 -0.21389326 0.16596226 0.020966932 -0.45764014 0.122648
-0.057916116 0.034076754 0.07838982 -0.5688429 -0.00996493 0.09297036 -0.0018367015 -0.061803516
-0.014789359 -0.06489951 0.07643793 -0.26263195 -0.05092701 -0.101419985 0.08484676 -0.24861561
0.034010846 0.032106686 0.105747126 0.70484674 0.07083442 0.015318381 -0.08982032 -0.034896236
0.004947551 -0.006799977 -0.5715432 0.16278327 -0.97472584 0.05273284 -0.050042033 -0.6357676
0.05950777 -0.13647954 -0.18181325 -0.07108213 -0.16154441 -0.050165456 -0.26004326 0.110258326
-0.03548279 0.025186207 0.012372933 -0.47825477 -0.05963877 -0.015988052 -0.014986373 -0.017714985
-0.12179146 0.018549133 0.62397933 -0.058808338 -0.17011867 -0.16137761 0.09808995 -0.0033543773
00000000: 023e 113c 6de7 e5bd ac24 6dbd de0e 5c3e
00000010: 05a6 75bd 8943 263d 4542 453e 02de 823e
00000020: 7971 c13d fa5d ae3c 5438 493c eb8e b93d
00000030: 355b bebc 1399 813d 0b38 2dbd 6231 ef3d
00000040: 0d8e 5ebd 4fab a6bd 9f76 fabd e85c 6cbd
00000050: 7082 5abc d954 543b ef9b 843c 6b2d 8e3d
00000060: b18d 713d 2428 e63d 22d0 4b3e f3a3 c83e
00000070: b066 913c e23b 12be 678b 96bd 7221 79bb
00000080: fabd fb3d 04d5 d63d 8d44 d4bd 4c6b bc3c
00000090: 74fa 873d 2dd4 2bbc 8ee7 65bd dc53 53be
000000a0: a95a 37bd 58fb b33c ccbc 123a fe4e a1bd
000000b0: d226 143d a460 4cbd edc8 893d 9388 783b
000000c0: aeab fa3c a69a 8e3c 8878 74bd d2be efbc
000000d0: a512 8e3e ca90 863e e1d9 28be ce28 21be
000000e0: c577 633d c986 153e fd9d 203e 8efc ca3d
000000f0: f642 02be b8ef a53d 7d6a 81b9 970c 923c
00000100: 5da0 95bd 89b3 02bd 6899 ca3d 682d 23bc
00000110: 4d9d 3c3d 7595 043e a98c 16bd d407 573d
00000120: dbe4 60bd fef7 ffb9 e965 e8bd ef0d 803e
00000130: 2cc8 083e 07bd 73bd 0306 2bbd 702a 53bd
00000140: e5c0 813a 7085 623d 007d 883b a31c 133e
00000150: cdcd 06bc 0def c93d 0304 653d 08c7 7e3d
00000160: f6d3 e93d e968 bebc e88f 62bc 52a7 41be
00000170: da80 613c 7946 60bc 84e5 e7bb 7bf0 82bd
00000180: 389e 6cbc 28c1 a03d a11f 3cbd 5f7e 08be
00000190: 4c1d 1a3e 6ca7 dd3c bd98 feb8 e655 10bd
000001a0: 85f6 c43c bdbd 47bd 6383 3c3e 1dde d6bd
000001b0: ca39 b9bd 63db 22be a107 013e 3fc1 a4bc
000001c0: ed93 3fbc 3fab 55bc 23c4 8cbd 39c4 aa3e
000001d0: 1b6a 863d b456 e13a 3f4c f6bd 2860 25be
000001e0: 65e0 66bd 8e00 a2bc 4562 fbbd fcc7 d03c
000001f0: e5eb 1c3d a1e9 063c a727 c9bd 163c aebd
00000200: 42f2 383c d66c 2abd 2440 acbd f8f2 cabe
00000210: a04d f2be b83f 6e3e af5f 273d 8821 23bf
00000220: f6c4 1cbf 0d47 7bba 5383 9e3d c65b 75bc
00000230: 8447 acbd 5a34 8f3d 79e1 ac3c 8cb9 22bb
00000240: add3 693e 69c2 72bd 23e8 cd3e 5716 47be
00000250: dc05 9c3d 8b9a 54bd 5a57 dbbd 17d0 e9bd
00000260: 2df1 0a3e 7857 56be a284 1cbe 6871 f6be
00000270: d5dd 133c 04aa 093e c27d 633e a241 c3bc
00000280: d363 763e 16b6 3d3d f4ae 5dbe 127e c2bc
00000290: f96d 6a3d 5380 043d 365c b53e f3a7 07bd
000002a0: a9ba 8abd c5e7 0c3d 8bee 303d 4c13 713e
000002b0: ad25 003f 89fd b1bd 3519 f6be 0073 fd3e
000002c0: 7636 75bd 0d85 b9bd 558a 163e c9d6 9f3d
000002d0: 9e17 27be 0b83 0dbe 6a5e 303e 8570 05be
000002e0: 410e 3cbd c4fd 8dbd 6473 ec3d c36c f7bd
000002f0: 7c1a 21bd 43a7 863c dd43 2dbf 1bf1 2fbd
00000300: e23b ccbd 729c 553d dbc1 383b d606 5bbe
00000310: 03f2 293e d8c2 ab3c cf4f eabe e02e fb3d
00000320: 7339 6dbd 1194 0b3d d88a a03d b09f 11bf
00000330: f243 23bc 3e67 be3d 7abd f0ba af25 7dbd
00000340: 114f 72bc 09ea 84bd 7d8b 9c3d b277 86be
00000350: d798 50bd 48b5 cfbd 23c4 ad3d 1795 7ebe
00000360: f54e 0b3d 4d82 033d f391 d83d d670 343f
00000370: a311 913d f2f9 7a3c b7f3 b7bd 5bef 0ebd
00000380: 111f a23b 57d2 debb a850 12bf a8b0 263e
00000390: a287 79bf 64fe 573d e0f8 4cbd aac1 22bf
000003a0: 6bbe 733d 4bc1 0bbe 412d 3abe 8293 91bd
000003b0: e66b 25be 4b7a 4dbd 6424 85be 1ecf e13d
000003c0: 6756 11bd 4e53 ce3c d8b7 4a3c cfdd f4be
000003d0: c847 74bd 60f9 82bc 6789 75bc 041f 91bc
000003e0: cd6d f9bd 5af4 973c 1cbd 1f3f 03e1 70bd
000003f0: 9733 2ebe 2c40 25be 62e3 c83d 1dd5 5bbb

gru.bias_hh_l0 f4 [384]
0.023361634 -0.22712804 -0.07457502 0.2523604 -0.0654908 -0.009416368 0.1828247 0.10962598
0.09493555 0.009454647 -0.018445877 0.13718209 -0.10747159 0.08622636 -0.08184301 0.1930426
0.06437434 0.026304573 -0.107125185 0.07694643 -0.121216044 -0.07278048 0.0945077 0.010976145
0.13818131 0.119171694 0.06600921 0.47687727 -0.009547764 -0.15299171 -0.08081859 -0.1431505
-0.0019921206 0.13904087 0.03862547 0.08215568 -0.021572271 -0.03373611 0.0033024729 -0.29559553
-0.14681971 -0.10624783 0.11088683 0.04107256 -0.08810829 0.012155949 -0.014844507 -0.068407826
0.011758311 0.07112832 -0.10066525 0.11520122 0.3461011 0.24178718 -0.09916453 -0.1832988
0.029520618 0.079174034 0.14794186 -0.027692612 -0.056760482 0.12385039 -0.107961364 0.11013479
-0.09422482 0.07242715 -0.05194303 -0.09146282 0.14025578 -0.014252154 -0.059300546 0.034156643
-0.045315437 -0.106802 -0.196269 0.29474425 0.11571909 -0.09190272 0.10331459 -0.06342069
-0.010339981 0.033555023 -0.12765175 0.14688948 0.023391636 0.09170347 0.05226544 0.07282991
0.051469848 0.03383127 -0.043700915 -0.2822961 0.033597417 -0.04318204 0.004252959 0.08382357
0.02923026 0.11672878 -0.013181236 -0.006520004 0.20636153 0.014124347 0.14266455 0.08401474
-0.027246358 -0.065323874 0.16397776 -0.09608929 -0.07224707 -0.041724008 0.23292832 0.1266047
-0.046808556 -0.15964429 -0.015269985 0.26905856 0.1512342 -0.09318227 -0.06404672 -0.10746483
-0.1645718 -0.030498285 -0.19001177 0.09046315 0.1695113 0.052981135 -0.1735778 -0.02616707
0.03474553 0.04902783 -0.0786398 -0.26591447 -0.5390089 0.13701771 -0.027867123 -0.78939867
-0.63380474 -0.13848518 0.018975396 -0.020055138 -0.1088144 0.009772414 -0.079741515 -0.05864215
0.18167807 -0.058007054 0.5013767 -0.23186883 -0.093283646 0.06467929 -0.14500646 -0.04029446
0.03724056 -0.17569645 -0.13821547 -0.39916107 -0.0035128577 0.12981907 0.1519536 0.08144929
0.25127396 -0.052822698 -0.19585468 0.049518924 0.055722516 0.027276294 0.30600527 0.032376222
-0.06458843 -0.025225183 0.059385758 0.18545556 0.6104132 -0.06299727 -0.48109794 0.40645835
-0.105937265 -0.026054839 0.03138322 0.0034438309 -0.22027576 -0.10544881 0.23011583 -0.07757178
-0.14114878 0.008795711 0.1703572 -0.11230925 -0.06071252 -0.037368152 -0.81432915 -0.09163297
-0.110796496 0.1384479 0.013051721 -0.11459167 0.18408431 0.019301843 -0.44073933 0.17877896
-0.07677542 -0.059339624 -0.061280463 -0.53296983 0.053814888 0.0043848297 -0.006036947 -0.012511616
0.05075224 0.03910425 -0.012801788 -0.17105325 -0.066363454 -0.046667375 -0.06729651 -0.18739113
0.1083556 0.17276278 0.059354886 0.76346046 -0.08655131 0.056625675 -0.16385089 0.011418135
-0.040981065 -0.0013439973 -0.64070493 0.0938507 -0.85730445 0.124216855 -0.012062505 -0.7444485
-0.013256324 -0.16672136 -0.16105846 0.016333364 -0.103703305 0.057386443 -0.28579754 -0.039345313
-0.068411805 -0.11665668 0.1543336 -0.39010057 -0.010613963 0.025968786 -0.027884863 0.09375057
-0.14259025 -0.10946387 0.7008739 0.011583929 -0.12368702 -0.075869374 0.10324538 -0.060745183
00000000: e660 bf3c 4194 68be caba 98bd 6235 813e
00000010: 0a20 86bd 1c47 1abc 6636 3b3e 9683 e03d
00000020: 926d c23d aae7 1a3c cf1b 97bc 7679 0c3e
00000030: 111a dcbd 7297 b03d 4f9d a7bd f6ac 453e
00000040: b2d6 833d b07c d73c 7364 dbbd 1796 9d3d
00000050: 1e40 f8bd ef0d 95bd 418d c13d 4ad5 333c
00000060: 677f 0d3e 4a10 f43d d62f 873d 4229 f43e
00000070: 3a6e 1cbc dca9 1cbe 3884 a5bd 0b96 12be
00000080: 3d8e 02bb bb60 0e3e be35 1e3d 3d41 a83d
00000090: 55b8 b0bc e02e 0abd 4d6e 583b 4c58 97be
000000a0: e857 16be 7698 d9bd a218 e33d b33b 283d
000000b0: 1f72 b4bd bf29 473c 6036 73bc 6719 8cbd
000000c0: eea5 403c baab 913d 9529 cebd 9eee eb3d
000000d0: 2a34 b13e 0f97 773e c616 cbbd aeb2 3bbe
000000e0: 39d5 f13c ff25 a23d 127e 173e 9edb e2bc
000000f0: ae7d 68bd 46a5 fd3d d91a ddbd 598e e13d
00000100: f1f8 c0bd b054 943d 37c2 54bd dc50 bbbd
00000110: 369f 0f3e de81 69bc 21e5 72bd d6e7 0b3d
00000120: ae9c 39bd 02bb dabd befa 48be b8e8 963e
00000130: 21fe ec3d 7e37 bcbd 9a96 d33d b5e2 81bd
00000140: 0669 29bc fe70 093d 24b7 02be 326a 163e
00000150: d19f bf3c 07cf bb3d 4914 563d d927 953d
00000160: 0cd2 523d a892 0a3d bbff 32bd 1d89 90be
00000170: 729d 093d a7df 30bd 685c 8b3b b1ab ab3d
00000180: 4c74 ef3c 800f ef3d 1cf6 57bc c2a5 d5bb
00000190: 7050 533e ce69 673c a816 123e ec0f ac3d
000001a0: c133 dfbc 86c8 85bd c9e9 273e 76ca c4bd
000001b0: 46f6 93bd cbe6 2abd c384 6e3e aaa4 013e
000001c0: 54ba 3fbd cb79 23be f62e 7abc 0bc2 893e
000001d0: 23dd 1a3e 59d6 bebd ed2a 83bd 8516 dcbd
000001e0: 8385 28be 8ad7 f9bc 7292 42be be44 b93d
000001f0: 5f94 2d3e bf02 593d 61be 31be 535c d6bc
00000200: 5451 0e3d 68d1 483d e70d a1bd f125 88be
00000210: 7dfc 09bf 5f4e 0c3e 9849 e4bc 0816 4abf
00000220: 0741 22bf 0fcf 0dbe 4a72 9b3c ac4a a4bc
00000230: 16da debd 7a1c 203c 854f a3bd c032 70bd
00000240: d109 3a3e ce98 6dbd 395a 003f 066f 6dbe
00000250: 7f0b bfbd 9376 843d 937c 14be ce0b 25bd
00000260: 8f89 183d c5e9 33be 5b88 0dbe d75e ccbe
00000270: f937 66bb 4aef 043e b999 1b3e e3ce a63d
00000280: fba6 803e 9d5c 58bd 218e 48be 5bd4 4a3d
00000290: 4b3d 643d 8972 df3c b9ac 9c3e ee9c 043d
000002a0: f046 84bd 0ba5 cebc 7b3e 733d 10e8 3d3e
000002b0: 0a44 1c3f b604 81bd 7852 f6be 4f1b d03e
000002c0: a3f5 d8bd f570 d5bc b18b 003d e5b1 613b
000002d0: f88f 61be 8cf5 d7bd 7ca3 6b3e f4dd 9ebd
000002e0: 4e89 10be e31b 103c 1e72 2e3e 6402 e6bd
000002f0: b1ad 78bd 590f 19bd e077 50bf 11aa bbbd
00000300: 46e9 e2bd 49c5 0d3e e3d6 553c 0aaf eabd
00000310: 9980 3c3e e61e 9e3c 96a8 e1be d511 373e
00000320: 6e3c 9dbd 1b0e 73bd 3901 7bbd b670 08bf
00000330: 006d 5c3d 9eae 8f3b 95d1 c5bb 85fd 4cbc
00000340: 95e1 4f3d c72b 203d 97be 51bc 9528 2fbe
00000350: 90e9 87bd 4a26 3fbd c1d2 89bd 76e3 3fbe
00000360: 8ae9 dd3d bae8 303e 1c1e 733d 2572 433f
00000370: d041 b1bd 53f0 673d 87c8 27be 2113 3b3c
00000380: c3db 27bd 1129 b0ba 3d05 24bf cc34 c03d
00000390: 4e78 5bbf 6865 fe3d d0a1 45bc 2d94 3ebf
000003a0: 0e31 59bc 01b9 2abe 82ec 24be 8ccd 853c
000003b0: 6662 d4bd 0c0e 6b3d 0e54 92be 8d28 21bd
000003c0: 7d1b 8cbd b3e9 eebd a109 1e3e 43bb c7be
000003d0: 30e6 2dbc 7ebc d43c cc6e e4bc 4d00 c03d
000003e0: 2e03 12be 982e e0bd 796c 333f 85ca 3d3c
000003f0: 9f4f fdbd 6761 9bbd 5072 d33d f1cf 78bd

gru.weight_ih_l1 f4 [384, 128]
0.12919538 -0.029694393 0.024116153 -0.01554686 0.16070692 -0.03451321 -0.019500975 0.061943177
-0.0443189 0.0031488359 0.068190046 0.12230678 0.12584206 0.033543218 -0.07853923 0.023596238
-0.06330034 -0.03739233 -0.13580213 -0.012094782 0.11977719 0.06728796 -0.07049213 -0.08350763
0.010022429 0.11473854 -0.029964805 0.12042608 -0.12647004 -0.077116355 -0.08768777 0.034614928
-0.096574135 -0.0033034848 0.07757304 0.036472406 0.10074486 -0.028310532 -0.0988325 -0.13363554
-0.02425321 -0.0053258934 0.11573834 0.08429232 0.098365664 -0.03495326 0.07313405 0.0031479513
-0.049554322 -0.0456913 0.06235568 -0.014136688 -0.12048949 0.03281699 0.05384069 0.05645242
0.028786426 -0.07283066 -0.017461076 0.011322469 0.08069575 -0.039460722 -0.04092598 0.12905352
-0.053231232 -0.016402515 0.02391084 -0.11017119 0.07387851 -0.04072256 0.04663222 -0.020343613
-0.042015117 0.0906366 -0.010234646 0.00070858805 -0.06506787 -0.03696861 -0.0036085371 0.021664381
0.0028220757 0.06285823 0.05783226 0.13313903 -0.010465454 0.10006998 -0.021770127 0.027020907
-0.12742795 -0.04171942 -0.059336733 -0.02679866 0.06388811 -0.100985 -0.00032888976 -0.0057265745
-0.019532837 0.12825057 0.027703037 0.08822386 -0.012341531 -0.10244651 -0.055539086 -0.07107523
0.10713534 0.039801057 0.013538865 0.010484901 -0.0168005 0.07791629 -0.046632648 0.057389893
-0.0070193773 -0.029416049 0.095496826 -0.1079983 0.012858037 0.04851756 -0.028091598 -0.12063926
0.07407403 0.010502376 -0.07766882 -0.03855763 -0.028768206 0.05813204 -0.13281637 -0.09735157
0.05672952 -0.17802419 -0.064560175 -0.0055497405 0.11957854 0.020355323 -0.046901993 -0.1209968
-0.011218768 0.039982297 0.084875114 0.10161225 0.11151616 -0.15495957 0.07919749 0.0592664
0.15912172 0.012309345 -0.007037925 0.13824731 0.068639025 -0.00480889 -0.08475326 0.059962273
0.150419 -0.04164298 0.15576844 -0.0032031485 -0.06136071 -0.036165934 0.12871525 0.071565785
-0.092560336 0.004439795 0.05550103 -0.07541621 -0.01944742 0.11697148 -0.10910164 -0.1404594
-0.03629287 0.015673729 0.120810404 0.04271801 0.06108714 0.093654916 -0.004351389 -0.07892816
0.042804435 -0.10769196 0.060091548 0.014105196 -0.18627533 -0.14274254 -0.030820493 0.12311776
0.019104814 0.011981664 0.08374855 -0.02659844 0.046867445 -0.013941763 -0.12259181 0.12772048
-0.0039981934 -0.12752178 0.15079081 -0.05302054 0.09985202 0.10527747 -0.055576466 0.020932473
0.034550052 0.08988012 -0.15122719 -0.011020509 -0.14298387 -0.14191034 -0.13587831 0.005195575
0.029206418 0.105383486 0.10531222 -0.055148736 0.11620987 0.06037655 -0.055277 -0.050541274
-0.08750785 0.010142405 -0.0051615634 -0.096659385 0.038768068 0.0036011175 -0.009131853 -0.05914099
0.0377992 0.035755944 -0.019736592 -0.010869839 -0.057697453 -0.09460524 -0.08130376 0.007970206
0.09673011 0.09544842 0.06935051 -0.072648905 -0.10108116 0.011546017 -0.05969993 -0.06254819
-0.053351883 0.015494772 -0.042006284 -0.11353592 -0.026768608 0.092425145 -0.10982517 -0.09568703
0.08500052 0.037995316 0.082312554 -0.041263532 -0.04613076 0.03516321 -0.14397132 -0.04230849
00000000: cb4b 043e a841 f3bc 3d8f c53c 42b8 7ebc
00000010: 5b90 243e b95d 0dbd 82c0 9fbc 21b8 7d3d
00000020: bc87 35bd b35c 4e3b 39a7 8b3d fa7b fa3d
00000030: bedc 003e 9d64 093d 2dd9 a0bd e64c c13c
00000040: 9ca3 81bd b328 19bd b70f 0bbe 3129 46bc
00000050: be4d f53d 45ce 893d 2e5e 90bd 0c06 abbd
00000060: 1d35 243c 0afc ea3d c078 f5bc f3a1 f63d
00000070: 5d81 01be 2eef 9dbd a595 b3bd 62c8 0d3d
00000080: a9c8 c5bd 477f 58bb 9dde 9e3d 1764 153d
00000090: 5253 ce3d 7deb e7bc b268 cabd c1d7 08be
000000a0: abae c6bc d584 aebb 3908 ed3d 74a1 ac3d
000000b0: f073 c93d 262b 0fbd 4ec7 953d dc4d 4e3b
000000c0: 79f9 4abd cd26 3bbd ab68 7f3d 919d 67bc
000000d0: 32c3 f6bd 1c6b 063d 0e88 5c3d a73a 673d
000000e0: 83d1 eb3c 3e28 95bd 880a 8fbc e181 393c
000000f0: d043 a53d 91a1 21bd 00a2 27bd 9b26 043e
00000100: fe08 5abd 915e 86bc aae0 c33c 6fa1 e1bd
00000110: 9e4d 973d b3cc 26bd 6d01 3f3d a6a7 a6bc
00000120: 0b18 2cbd af9f b93d 37af 27bc 8ac0 393a
00000130: 4e42 85bd 666c 17bd 357d 6cbb 8079 b13c
00000140: 93f2 383b d1bb 803d 85e1 6c3d 9955 083e
00000150: 4c77 2bbc 7df1 cc3d 4457 b2bc f35a dd3c
00000160: 797c 02be fce1 2abd 130b 73bd dd88 dbbc
00000170: c5d7 823d 39d1 cebd d66e acb9 fda5 bbbb
00000180: 5403 a0bc 1e54 033e 7bf1 e23c b6ae b43d
00000190: 2234 4abc 7acf d1bd f47c 63bd e48f 91bd
000001a0: c669 db3d 6f06 233d 1ed2 5d3c ddc8 2b3c
000001b0: 34a1 89bc 9392 9f3d e001 3fbd aa11 6b3d
000001c0: ce02 e6bb edf9 f0bc d793 c33d 362e ddbd
000001d0: 84aa 523c 59ba 463d 5a20 e6bc b711 f7bd
000001e0: 20b4 973d 2812 2c3c d510 9fbd 9bee 1dbd
000001f0: 4dab ebbc dd1b 6e3d 0401 08be 4360 c7bd
00000200: 375d 683d f94b 36be 2038 84bd 99da b5bb
00000210: 98e5 f43d 35c0 a63c 4e1c 40bd 2ccd f7bd
00000220: ecce 37bc 7ac4 233d 01d3 ad3d 151a d03d
00000230: 9662 e43d b9ad 1ebe 4b32 a23d 53c1 723d
00000240: cef0 223e 23ad 493c 659e e6bb b490 0d3e
00000250: 9e92 8c3d e593 9dbb 1e93 adbd 009b 753d
00000260: 7007 1a3e d491 2abd c381 1f3e eaeb 51bb
00000270: 5e55 7bbd bb22 14bd eecd 033e 1591 923d
00000280: 4690 bdbd b37b 913b 0c55 633d d073 9abd
00000290: 3250 9fbc be8e ef3d ae70 dfbd 97d4 0fbe
000002a0: d5a7 14bd 3166 803c 726b f73d 14f9 2e3d
000002b0: 8236 7a3d 26ce bf3d 1996 8ebb 16a5 a1bd
000002c0: b453 2f3d 9a8d dcbd 8e22 763d 7b19 673c
000002d0: f6be 3ebe 1a2b 12be 427b fcbc 2a25 fc3d
000002e0: b381 9c3c be4e 443c 5c84 ab3d f9e4 d9bc
000002f0: 14f8 3f3d fe6b 64bc 6a11 fbbd 28c9 023e
00000300: 4703 83bb 1295 02be e868 1a3e 112c 59bd
00000310: 377f cc3d b79b d73d 26a4 63bd 947a ab3c
00000320: 5b84 0d3d 1113 b83d 4ddb 1abe 5d8f 34bc
00000330: 5d6a 12be f250 11be af23 0bbe a43f aa3b
00000340: 4c42 ef3c 4cd3 d73d efad d73d a4e3 61bd
00000350: 71ff ed3d 674d 773d 236a 62bd 5e04 4fbd
00000360: 5137 b3bd 542c 263c 5522 a9bb 5bf5 c5bd
00000370: 44cb 1e3d ba00 6c3b c49d 15bc d33d 72bd
00000380: 55d3 1a3d d374 123d a2ae a1bc 6917 32bc
00000390: 2a54 6cbd 64c0 c1bd 9682 a6bd 7895 023c
000003a0: 701a c63d 767a c33d a407 8e3d f3c8 94bd
000003b0: a403 cfbd 812b 3d3c ea87 74bd 4419 80bd
000003c0: 8187 5abd c9dd 7d3c c80e 2cbd 8585 e8bd
000003d0: d749 dbbc 6549 bd3d 05ec e0bd 90f7 c3bd
000003e0: c114 ae3d faa0 1b3d 7c93 a83d f303 29bd
000003f0: 9cf3 3cbd 4c07 103d 386d 13be ab4b 2dbd

gru.weight_hh_l1 f4 [384, 128]
0.07508293 0.08879618 0.05553858 0.108298786 0.019228116 0.023614198 -0.04021581 -0.0036472958
-0.08657206 -0.11612476 0.08964674 0.11464762 -0.086693384 -0.013370819 -0.12800543 0.063879885
-0.040119015 -0.05898581 0.02924489 -0.02858643 0.031566035 -0.01062488 -0.13111101 -0.043865927
0.06227257 0.04498101 -0.0096408 -0.034167197 0.060004763 0.022174256 -0.071515344 -0.03752263
0.086752854 -0.0654648 -0.08686712 -0.044603813 0.1191266 0.019682331 0.064247265 0.03551089
-0.06939636 0.068205364 0.11953082 -0.01533363 -0.03285702 0.03354922 0.020154037 0.007893182
0.024448348 0.040185645 -0.069734216 -0.09254487 0.029663227 -0.024853291 0.046541333 0.0030469217
-0.097192355 0.024162566 -0.029149462 -0.035800803 0.09589545 0.035136826 -0.010721693 0.00024440925
0.03478638 -0.006051651 -0.06968768 0.020801628 -0.05455391 -0.111343965 0.038196653 0.069388695
0.07296317 -0.014643066 -0.029785344 0.040374897 -0.06974879 0.0277567 -0.09179012 -0.004233169
0.13231906 -0.056997824 -0.07087219 -0.0899671 -0.13497639 0.0047556935 0.024814801 -0.10632501
-0.04953087 -0.012467858 -0.0003171324 -0.1245908 0.0004954366 -0.1124701 0.040494617 -0.092697926
-0.122714065 0.09642241 -0.087876916 -0.049044285 -0.047747996 -0.049835835 0.09210575 0.0837274
-0.13499804 0.091033995 0.11585591 -0.057996694 0.015618647 0.010183295 0.13041145 0.07756069
0.08324142 -0.041867185 0.022651218 -0.037019428 -0.06519329 0.038531654 0.012849653 0.00734632
-0.034224562 0.11058453 -0.04072076 0.0028400936 0.06677123 -0.08565406 -0.070452645 0.026391663
-0.053925917 0.044406075 -0.11456802 -0.081231415 0.03499279 0.006489364 -0.0088861855 0.015649576
-0.10076794 -0.12444041 -0.013640486 0.02107594 -0.115884244 -0.13419345 -0.030219179 -0.020703122
0.07799164 0.10449488 -0.0788253 -0.045996483 -0.026022652 -0.030762533 0.010072123 -0.04305323
0.040914156 0.010788427 0.13218886 -0.05813583 -0.004580298 -0.1255941 -0.10829284 -0.040822912
0.055611063 -0.027628375 -0.054534525 -0.16867693 0.008088532 -0.020826388 -0.076679215 -0.016499048
0.02885606 0.02970523 0.150216 -0.14582178 0.10117856 0.050986513 0.015465791 -0.0007604179
0.02776866 0.031351443 -0.08690158 -0.14346856 0.060081095 -0.04708116 -0.008903559 0.10271748
0.002673837 0.10876833 0.08081643 -0.0027970346 0.050949622 -0.0304959 -0.055379327 -0.06545066
0.15797867 0.08226156 -0.035789892 -0.08647607 0.025184741 -0.037115175 -0.08067877 0.06335782
0.12802446 0.049538504 0.097822584 -0.06846367 -0.074574955 0.16517071 -0.10836043 0.033581473
0.004983329 -0.08852076 0.036009915 -0.0019358251 -0.039044466 0.083417065 -0.051711056 -0.0028650668
-0.02758622 0.026964065 0.09027129 -0.040380172 0.05919644 0.09304855 0.0013555454 -0.005129205
-0.11753519 0.0028917876 -0.13896282 -0.028554125 -0.005384217 -0.067660935 -0.0016986143 0.036452126
0.057642117 0.0033408182 0.07307098 0.09584283 0.15899251 -0.054532718 0.07837094 0.018141845
0.0016132494 0.10744762 -0.027120076 -0.018344322 -0.026789492 -0.07571248 -0.051062405 0.060235225
0.024408748 0.1320418 -0.07538617 0.10078019 0.0101159075 -0.07850125 -0.14961708 0.06921723
00000000: 14c5 993d c6da b53d 6c7c 633d c1cb dd3d
00000010: 4884 9d3c 9072 c13c 55b9 24bd 7807 6fbb
00000020: b14c b1bd d1d2 edbd b698 b73d 5fcc ea3d
00000030: 4d8c b1bd 4811 5bbc db13 03be 75d3 823d
00000040: d653 24bd 1b9b 71bd fb92 ef3c 172e eabc
00000050: 634b 013d fa13 2ebc f741 06be c2ac 33bd
00000060: 8611 7f3d 023e 383d 72f4 1dbc e7f2 0bbd
00000070: 8ec7 753d c9a6 b53c a376 92bd 54b1 19bd
00000080: 7bab b13d 6912 86bd 63e7 b1bd 7db2 36bd
00000090: a6f8 f33d d73c a13c 1294 833d de73 113d
000000a0: ae1f 8ebd 41af 8b3d 93cc f43d e839 7bbc
000000b0: 1595 06bd e86a 093d 141a a53c 6852 013c
000000c0: e747 c83c b499 243d d0d0 8ebd 2a88 bdbd
000000d0: 4c00 f33c 2199 cbbc 20a2 3e3d ddae 473b
000000e0: c90c c7bd 93f0 c53c daca eebc dda3 12bd
000000f0: d564 c43d a2eb 0f3d 0aaa 2fbc 0e24 8039
00000100: 2a7c 0e3d ee4c c6bb 6ab8 8ebd 2d68 aa3c
00000110: ec73 5fbd 4e08 e4bd 1874 1c3d a91b 8e3d
00000120: b76d 953d 78e9 6fbc 6500 f4bc 2660 253d
00000130: 74d8 8ebd 0562 e33c 75fc bbbd 65b6 8abb
00000140: a67e 073e 8d76 69bd 7025 91bd ac40 b8bd
00000150: 4037 0abe a6d5 9b3b 6948 cb3c edc0 d9bd
00000160: e2e0 4abd fd45 4cbc ca44 a6b9 7629 ffbd
00000170: 30e0 013a b956 e6bd afdd 253d 69d8 bdbd
00000180: 8351 fbbd 1d79 c53d d0f8 b3bd a9e2 48bd
00000190: 6793 43bd a920 4cbd f1a1 bc3d 4579 ab3d
000001a0: ed3c 0abe 0870 ba3d dd45 ed3d f18d 6dbd
000001b0: 5be5 7f3c d6d7 263c 948a 053e 24d8 9e3d
000001c0: 7a7a aa3d ed7c 2bbd 0c8f b93c afa1 17bd
000001d0: 0f84 85bd 5ed3 1d3d 5a87 523c 66b9 f03b
000001e0: 0e2f 0cbd 247a e23d d0ca 26bd dd20 3a3b
000001f0: 5bbf 883d 656b afbd 7a49 90bd 5433 d83c
00000200: 6ce1 5cbd 25e3 353d a3a2 eabd a85c a6bd
00000210: 9a54 0f3d bba4 d43b 5d97 11bc 8a33 803c
00000220: 6c5f cebd 9dda febd 587c 5fbc 73a7 ac3c
00000230: b854 edbd 026a 09be 368e f7bc 9899 a9bc
00000240: 15ba 9f3d 6901 d63d 296f a1bd cf66 3cbd
00000250: 752d d5bc b501 fcbc 8c05 253c 9558 30bd
00000260: 9a95 273d f1c1 303c 845c 073e d61f 6ebd
00000270: 5316 96bb bd9b 00be a3c8 ddbd ed35 27bd
00000280: 6dc8 633d e754 e2bc 985f 5fbd a5b9 2cbe
00000290: c385 043c 1a9c aabc fe09 9dbd 0329 87bc
000002a0: 8b63 ec3c 6258 f33c 39d2 193e 4e52 15be
000002b0: b436 cf3d 3cd7 503d 3b64 7d3c c856 47ba
000002c0: 1a7b e33c 5f6a 003d 75f9 b1bd 6ce9 12be
000002d0: 9817 763d 2dd8 40bd 3ce0 11bc 8b5d d23d
000002e0: 8a3b 2f3b eec1 de3d 1683 a53d 744e 37bb
000002f0: 8db0 503d 8ad2 f9bc 6fd5 62bd ff0a 86bd
00000300: 29c5 213e c078 a83d 6c98 12bd 5e1a b1bd
00000310: 3b50 ce3c 1506 18bd e93a a5bd bfc1 813d
00000320: d818 033e e3e8 4a3d 3557 c83d ae36 8cbd
00000330: c1ba 98bd 8322 293e 13ec ddbd ba8c 093d
00000340: 324b a33b 5f4a b5bd 227f 133d 83bb fdba
00000350: 17ed 1fbd 91d6 aa3d f9ce 53bd d8c3 3bbb
00000360: 7ffc e1bc bee3 dc3c 27e0 b83d ae65 25bd
00000370: f777 723d 3d90 be3d 8eac b13a e412 a8bb
00000380: 4ab6 f0bd 2584 3d3b 454c 0ebe 57ea e9bc
00000390: 166e b0bb d191 8abd 0aa4 deba d34e 153d
000003a0: 241a 6c3d a1f1 5a3b 3da6 953d 3f49 c43d
000003b0: efce 223e b35d 5fbd f280 a03d 359e 943c
000003c0: ab73 d33a 7f0d dc3d ec2a debc d546 96bc
000003d0: a375 dbbc 250f 9bbd d026 51bd 36b9 763d
000003e0: dbf4 c73c f735 073e 1064 9abd d865 ce3d
000003f0: 31bd 253c 43c5 a0bd 3835 19be c3c1 8d3d

gru.bias_ih_l1 f4 [384]
0.05091628 0.06104329 0.07535731 -0.05202762 0.0170047 -0.08216514 0.0713511 -0.33985835
-0.05258851 0.0061047906 -0.05585058 -0.07887673 -0.11478503 -0.1244907 0.0885459 -0.05583189
0.13433066 -0.00021499666 0.0065896683 -0.14243604 0.031156288 -0.1616116 -0.25167733 0.10058821
0.062910065 -0.15365763 0.094657026 0.14766566 0.042489924 0.0889262 -0.053364657 0.08993781
0.23324884 -0.005998239 0.07131023 0.026689617 -0.2368847 -0.020381803 0.00069445185 -0.033682685
0.01924946 0.042047784 -0.04731658 0.029108636 -0.044870704 -0.009045843 -0.095101446 -0.14375894
-0.08467786 -0.018297771 0.08759826 -0.0126476595 0.13485071 -0.15996347 0.02391052 -0.0173779
-0.041335188 0.080075175 0.06861209 0.16924784 0.06239478 -0.10940662 -0.07399316 -0.031715963
0.038997762 0.12979198 0.0146775395 -0.052875016 0.032365557 0.15038505 -0.03016074 0.06496387
0.14913425 -0.04748889 -0.10852617 0.14935902 -0.011300875 -0.012922264 -0.005114188 0.05259911
0.08034711 -0.04250864 0.014857298 0.043199144 -0.02042683 -0.0013189681 -0.107975006 -0.07798773
-0.002615031 -0.11647097 -0.15516081 0.065267615 0.034810465 -0.008957154 -0.022728253 -0.041356083
0.15193342 -0.12697478 -0.049134973 0.1266434 0.014614903 0.11325123 0.030913327 -0.032540202
-0.0062077544 0.1080291 0.052573893 0.07632277 0.11485173 -0.01270038 0.11265228 -0.043064803
0.13514666 -0.02504433 0.047144685 0.13326511 -0.122030646 -0.10114763 -0.16852197 0.018021006
0.05926071 -0.046936285 -0.09193978 0.282153 -0.0679897 -0.010168242 0.022760833 -0.16304901
0.06946083 0.08084195 0.009682756 -0.24279842 0.20456903 0.14917451 0.13104707 -0.06863209
0.21473145 0.07171808 0.32171547 -0.049374152 -0.009848019 -0.13609786 0.044861898 0.30285266
0.061374966 0.18437131 0.055264905 0.25746265 -0.083142936 0.20200264 -0.01748705 0.07103354
-0.011382137 0.25769603 -0.17354645 -0.07208683 -0.02699821 0.20179729 0.13537502 0.17249675
0.09090236 -0.18766838 0.1821779 -0.028353611 -0.027109079 -0.25834757 0.008555319 0.20944102
0.093809895 0.050833687 -0.15028055 0.24951102 0.17719933 0.19985716 0.060265917 0.08681238
0.022744156 0.097889505 -0.010818537 0.16820857 0.089563675 -0.08807102 0.082187295 0.08713614
0.35452855 -0.119606905 -0.3263971 0.077301666 0.07962004 -0.11155653 0.48142716 0.16591696
0.026606139 -0.11384406 -0.71214193 0.16090743 0.31617007 0.2097891 0.107026026 -0.0019325418
0.030472726 0.12568024 0.09164655 0.21013996 -0.17362876 0.00698874 0.15841337 -0.06658059
-0.072975904 0.14294818 0.13931683 0.15985136 0.11542273 0.0037340005 0.02598234 0.03951706
0.037021756 -0.056732975 0.07221005 -0.05258751 0.117278844 0.09651577 0.12547001 0.055156354
0.059165627 0.23519795 0.040660392 0.026019624 -0.056472056 -0.15426177 0.091130875 0.09277264
-0.1709547 -0.083902255 0.0058111073 -0.004800097 0.117852606 0.20855439 -0.09769568 -0.023538167
0.0038520086 -0.015753191 0.00973675 -0.22594441 -0.13566746 -0.039903082 0.19869499 0.07650001
-0.0050067883 0.21401536 -0.008105728 0.21210206 -0.038776413 -0.1855641 0.13730223 0.18284905
00000000: 978d 503d 8708 7a3d ef54 9a3d ea1a 55bd
00000010: 714d 8b3c 3246 a8bd 8720 923d ea01 aebe
00000020: 0d67 57bd b20a c83b 94c3 64bd 1f8a a1bd
00000030: 6a14 ebbd fbf4 febd 8e57 b53d fbaf 64bd
00000040: fa8d 093e ba70 61b9 25ee d73b c1da 11be
00000050: 793b ff3c 837d 25be dadb 80be 3101 ce3d
00000060: fed6 803d 6d58 1dbe 8bdb c13d ab35 173e
00000070: ea09 2e3d f11e b63d e694 5abd 5131 b83d
00000080: c9d8 6e3e e08c c4bb 190b 923d 2fa4 da3c
00000090: e791 72be bdf7 a6bc e00b 363a dbf6 09bd
000000a0: 0bb1 9d3c 4c3a 2c3d 08cf 41bd 3c75 ee3c
000000b0: 58ca 37bd 0435 14bc 8cc4 c2bd 8b35 13be
000000c0: 966b adbd 35e5 95bc b766 b33d 2138 4fbc
000000d0: 4e16 0a3e 77cd 23be ffdf c33c 195c 8ebc
000000e0: 164f 29bd 74fe a33d 7f84 8c3d 4e4f 2d3e
000000f0: ab91 7f3d 9410 e0bd ba89 97bd 99e8 01bd
00000100: 1ebc 1f3d 30e8 043e 107a 703c 7993 58bd
00000110: bf91 043d 8afe 193e a813 f7bc c70b 853d
00000120: a6b6 183e b683 42bd f842 debd 92f1 183e
00000130: 4e27 39bc e7b7 53bc eb94 a7bb 2a72 573d
00000140: 078d a43d 8a1d 2ebd 066c 733c 96f1 303d
00000150: 2b56 a7bc 3ae1 acba 0022 ddbd 08b8 9fbd
00000160: f160 2bbb 5588 eebd 7ae2 1ebe 07ab 853d
00000170: 6b95 0e3d 07c1 12bc 9a30 babc ff64 29bd
00000180: 6f94 1b3e ad05 02be c141 49bd cfae 013e
00000190: 5973 6f3c 43f0 e73d f23d fd3c e048 05bd
000001a0: 6b6a cbbb 5c3e dd3d b957 573d 1d4f 9c3d
000001b0: 6237 eb3d 4115 50bc 3db6 e63d b864 30bd
000001c0: e363 0a3e c429 cdbc c91a 413d a676 083e
000001d0: 34eb f9bd 7d26 cfbd 0691 2cbe caa0 933c
000001e0: 5cbb 723d 4340 40bd ec4a bcbd 5c76 903e
000001f0: 2f3e 8bbd b398 26bc ed74 ba3c 52f6 26be
00000200: 7b41 8e3d 7790 a53d 6ca4 1e3c 26a0 78be
00000210: 8b7a 513e 34c1 183e 3431 063e fb8e 8cbd
00000220: 90e2 5b3e eee0 923d e4b7 a43e 8d3c 4abd
00000230: 9659 21bc 3d5d 0bbe 1cc1 373d 810f 9b3e
00000240: 5164 7b3d d5cb 3c3e 745d 623d 25d2 833e
00000250: d846 aabd c8d9 4e3e 0041 8fbc 087a 913d
00000260: 257c 3abc bcf0 833e 29b6 31be 43a2 93bd
00000270: 5a2b ddbc f3a3 4e3e c09f 0a3e fda2 303e
00000280: 042b ba3d 242c 40be d88c 3a3e d545 e8bc
00000290: dc13 debc 2246 84be 9c2b 0c3c b577 563e
000002a0: 671f c03d fc36 503d 25e3 19be d17f 7f3e
000002b0: be73 353e 5ba7 4c3e 65d9 763d b0ca b13d
000002c0: f451 ba3c 4b7a c83d 3c40 31bc de3e 2c3e
000002d0: 296d b73d 945e b4bd d051 a83d 6f74 b23d
000002e0: c484 b53e 77f4 f4bd 851d a7be 5650 9e3d
000002f0: d50f a33d c077 e4bd 9f7d f63e 23e6 293e
00000300: 1ef5 d93c 1327 e9bd ef4e 36bf ebc4 243e
00000310: 0be1 a13e f4d2 563e 7630 db3d 584d fdba
00000320: f0a1 f93c 52b2 003e 30b1 bb3d ee2e 573e
00000330: bdcb 31be cd01 e53b 1d37 223e 685b 88bd
00000340: 6474 95bd 0261 123e 12a9 0e3e 13b0 233e
00000350: c162 ec3d 22b6 743b ebd8 d43c a4dc 213d
00000360: 20a4 173d d660 68bd dde2 933d 0066 57bd
00000370: e42f f03d 0faa c53d 367b 003e a1eb 613d
00000380: a857 723d bbd7 703e 838b 263d 1b27 d53c
00000390: 3e4f 67bd ccf6 1dbe d3a2 ba3d 95ff bd3d
000003a0: c00e 2fbe f2d4 abbd 1a6b be3b 224a 9dbb
000003b0: b55c f13d 488f 553e ac14 c8bd 1dd3 c0bc
000003c0: fb71 7c3b d60c 81bc e486 1f3c f95d 67be
000003d0: 69ec 0abe 6a71 23bd b376 4b3e 0aac 9c3d
000003e0: fc0f a4bb d826 5b3e e3cd 04bc 4831 593e
000003f0: 04d4 1ebd 8404 3ebe f598 0c3e c83c 3b3e

gru.bias_hh_l1 f4 [384]
-0.046477005 0.04530327 0.010697734 0.026227145 -0.058410507 -0.10492983 0.06907645 -0.38987222
-0.15345117 0.036166653 -0.049012747 -0.08414877 -0.05380916 -0.16954724 0.067560926 -0.1396461
0.082582004 0.022068739 0.026932918 -0.030621776 0.022883859 -0.16236308 -0.32806346 0.123433135
0.054410208 -0.06570806 0.0913818 0.18279982 0.14278232 -0.004126179 -0.16363837 0.13302514
0.15418695 0.0027638935 0.08582849 0.04377392 -0.27661133 -0.023834404 -0.08714031 0.068145916
-0.054183822 0.1353533 -0.19847085 0.08351321 -0.03359021 0.059190694 -0.13395067 -0.09257187
-0.08753699 -0.07158643 0.1569975 0.06701484 0.018187022 -0.19397566 0.021786671 -0.0005674886
-0.00039809832 0.035382498 0.10400223 0.054113194 0.104497336 -0.09132937 -0.11392241 -0.18883982
0.12826476 0.06534201 0.0008117921 0.030198079 -0.005310804 0.07179003 -0.078199595 0.02120016
0.11027836 0.009445451 -0.13354075 0.14830579 0.017041152 -0.006639209 -0.04789347 -0.012047886
0.06281475 -0.007987235 0.0010971613 -0.014195855 -0.070479065 0.0075058504 -0.031882945 -0.08543606
0.11590136 -0.05092645 -0.19521664 0.08015323 -0.04977956 0.07729523 0.1084848 -0.14883794
0.04599573 -0.031675383 -0.05884012 0.08983428 0.004846416 0.11928021 -0.009914357 0.10038934
-0.03223569 0.14113082 -0.012115506 0.01664844 0.09400601 0.047461305 0.12652124 -0.07735718
0.12911983 0.02573031 0.019952271 0.0013779774 -0.014710474 0.022049146 -0.1938738 -0.0030703777
0.094282836 -0.14106423 -0.08934785 0.24369697 -0.15544765 -0.10747509 0.06508159 -0.056971036
0.104527056 0.003148793 -0.080761366 -0.13955651 0.1523599 0.18147452 0.14979358 -0.060640823
0.2440092 0.08307038 0.19969122 0.009404065 0.014231735 -0.061987508 0.13091367 0.30535877
0.095940426 0.092436604 0.11520339 0.18644157 -0.007220318 0.12404608 -0.013630884 0.068235375
0.028937882 0.29127663 -0.032253794 -0.026894059 -0.055339746 0.18875508 0.0992691 0.14517716
0.20077927 -0.23162092 0.080631725 -0.14910132 0.05235852 -0.1655371 0.06359652 0.14348824
0.06575394 0.00398306 -0.02758365 0.16435175 0.053211316 0.18255457 0.10166709 0.008536649
0.03862654 0.19165292 0.085690066 0.16374247 0.060490273 -0.02873029 -0.057403862 0.062810466
0.33662575 -0.05613632 -0.22642371 0.15492183 0.06235286 -0.07554366 0.4137016 0.19221364
0.10926641 0.024218861 -0.772151 0.09747417 0.22401044 0.10808431 0.076813176 -0.04804806
0.016888514 0.09165402 0.0868447 0.06598937 -0.29553452 0.13698296 0.0679215 -0.0723421
-0.15797813 0.119335644 0.17333631 0.09163732 0.13574526 0.12933367 0.085677184 0.010635205
0.06369076 -0.041109137 0.016896123 -0.108965315 0.10529987 0.09340839 0.014422676 0.048073307
0.07147313 0.14038134 -0.01661493 0.09727894 0.040941186 -0.09382199 0.10119841 0.009084959
-0.14093408 -0.12990497 0.06536876 0.04437844 0.08513835 0.22840934 -0.017298574 0.017220356
0.028420724 -0.06182995 -0.024484405 -0.06179818 -0.12733653 0.020558678 0.16865183 0.062383145
0.021061925 0.29412642 0.080954246 0.30358073 -0.119691424 -0.12636656 0.010689447 0.07415367
00000000: ac5e 3ebd ec8f 393d 8c45 2f3c 4fda d63c
00000010: db3f 6fbd 73e5 d6bd f477 8d3d 559d c7be
00000020: 4e22 1dbe 7c23 143d 97c1 48bd 3156 acbd
00000030: fe66 5cbd cb9d 2dbe 625d 8a3d 63ff 0ebe
00000040: c120 a93d 80c9 b43c 6ca2 dc3c 85da fabc
00000050: ee76 bb3c 8242 26be eff7 a7be 83ca fc3d
00000060: 3ddd 5e3d f391 86bd 6226 bb3d e02f 3b3e
00000070: 8735 123e e634 87bb d190 27be be37 083e
00000080: 2fe3 1d3e 7022 353b d9c6 af3d 484c 333d
00000090: 00a0 8dbe 5e40 c3bc 9e76 b2bd 1690 8b3d
000000a0: dbef 5dbd 0e9a 0a3e f13b 4bbe f908 ab3d
000000b0: e395 09bd f171 723d 5d2a 09be 5296 bdbd
000000c0: 9846 b3bd e89b 92bd f4c3 203e 143f 893d
000000d0: f3fc 943c 8ea1 46be f679 b23c 84c3 14ba
000000e0: dab7 d0b9 3ded 103d 1fff d43d cca5 5d3d
000000f0: b302 d63d e50a bbbd 2750 e9bd 3a5f 41be
00000100: d657 033e 08d2 853d 72ce 543a f661 f73c
00000110: 4106 aebb a706 933d 1c27 a0bd f5ab ad3c
00000120: 9fd9 e13d 18c1 1a3c e8be 08be 79dd 173e
00000130: e399 8b3c b98d d9bb f12b 44bd 7f64 45bc
00000140: 05a5 803d e4dc 02bc a0ce 8f3a bb95 68bc
00000150: 5457 90bd a3f3 f53b b197 02bd 1af9 aebd
00000160: b15d ed3d 4198 50bd dfe6 47be 6027 a43d
00000170: a7e5 4bbd f64c 9e3d 472d de3d f968 18be
00000180: 0566 3c3d 0cbe 01bd 5602 71bd 09fb b73d
00000190: afce 9e3b 2f49 f43d d46f 22bc ed98 cd3d
000001a0: 9209 04bd 9984 103e 1e80 46bc 4f62 883c
000001b0: 3986 c03d c966 423d c98e 013e 716d 9ebd
000001c0: fd37 043e 5fc8 d23c f272 a33c 409d b43a
000001d0: 3304 71bc 69a0 b43c da86 46be 6438 49bb
000001e0: 5c17 c13d 2473 10be 01fc b6bd b38b 793e
000001f0: ab2d 1fbe e61b dcbd 7f49 853d 765a 69bd
00000200: 4812 d63d fb5b 4e3b 3766 a5bd e7e7 0ebe
00000210: 3c04 1c3e 75d4 393e 7d63 193e 8362 78bd
00000220: 8cdd 793e ce20 aa3d db7b 4c3e 8213 1a3c
00000230: 392c 693c 9de6 7dbd 3c0e 063e fc57 9c3e
00000240: 6a7c c43d 674f bd3d c1ef eb3d 8aea 3e3e
00000250: 6b98 ecbb df0b fe3d 1254 5fbc fdbe 8b3d
00000260: 230f ed3c 3622 953e 8e1c 04bd ee50 dcbc
00000270: eeab 62bd 0349 413e 994d cb3d 52a9 143e
00000280: 1599 4d3e 092e 6dbe 3f22 a53d 04ae 18be
00000290: e375 563d 8f82 29be e43e 823d 95ee 123e
000002a0: 00aa 863d 5484 823b 1bf7 e1bc d34b 283e
000002b0: 1cf4 593d 96ef 3a3e d636 d03d 4ddd 0b3c
000002c0: dd36 1e3d aa40 443e 467e af3d 1bac 273e
000002d0: a6c4 773d c95b ebbc 5020 6bbd c6a2 803d
000002e0: 365a ac3e 33ef 65bd 9edb 67be d4a3 1e3e
000002f0: b665 7f3d a2b6 9abd b2d0 d33e a7d3 443e
00000300: 11c7 df3d a266 c63c b0ab 45bf 8aa0 c73d
00000310: fe62 653e 4f5b dd3d 3a50 9d3d 0bce 44bd
00000320: c859 8a3c 1ab5 bb3d a2db b13d 6f25 873d
00000330: 4d50 97be 4345 0c3e 6d1a 8b3d 1828 94bd
00000340: 05c5 21be 3f66 f43d 137f 313e 59ac bb3d
00000350: ce00 0b3e 0c70 043e 8577 af3d 483f 2e3c
00000360: 4d70 823d 0e62 28bd bd69 8a3c 3529 dfbd
00000370: 75a7 d73d e64c bf3d 164d 6c3c 84e8 443d
00000380: 8160 923d 20c0 0f3e 091c 88bc 2e3a c73d
00000390: f2b1 273d be25 c0bd 1d41 cf3d 14d9 143c
000003a0: 0651 10be cf05 05be 0ee0 853d 2bc6 353d
000003b0: 045d ae3d 23e4 693e bdb5 8dbc b411 8d3c
000003c0: 94d2 e83c 6741 7dbd 8593 c8bc 1720 7dbd
000003d0: 8264 02be ac6a a83c 11b3 2c3e 7885 7f3d
000003e0: 0f8a ac3c bd97 963e 57cb a53d ef6e 9b3e
000003f0: c720 f5bd 3c66 01be ca22 2f3c e1dd 973d
