1223-code-DL/model/GRU_state_dict.pt (torch, 668484 bytes, 17 tensors)

gru.weight_ih_l0 f4 [384, 16]
000000 3f 0a 35 be cf 97 f9 bd ff 3c 4c bd 37 85 47 be
       -0.1767969 -0.12187158 -0.049862858 -0.19484411
000010 fb 15 4e bd a0 3f 80 be c0 0b de bd 54 5b af bd
       -0.05031393 -0.25048542 -0.10842085 -0.08562341
000020 08 8f 22 be 40 45 41 be 4d ed 4b be 1e 3d 1b be
       -0.15874875 -0.18874073 -0.19914742 -0.15160033
000030 7e e3 28 be 28 9b 45 be e6 a6 6f bd 23 5b f5 3c
       -0.16493031 -0.19297469 -0.058508776 0.029950684
000040 aa 7e 42 be c6 85 1d be 5a a2 6a bd 6e 17 e1 bd
       -0.18993631 -0.15383062 -0.057283737 -0.10990797
000050 94 f5 10 be 6d 81 1c bd 89 3a a4 bc 06 86 f2 bd
       -0.1415618 -0.038209368 -0.020047443 -0.11841969
000060 8e 9b 9d bd 2c b9 2b be ea 00 e0 bc 1a 24 70 be
       -0.07695685 -0.16769856 -0.027344186 -0.23451272
000070 e7 1a 75 be 23 87 25 be 18 e6 3e be 8c 55 fd bd
       -0.23936044 -0.16164832 -0.18642461 -0.123698324
000080 95 ca 9e bc 48 c3 57 bd ab 13 84 bd 4c e7 c2 3d
       -0.019383708 -0.05267647 -0.06449064 0.09516773
000090 c2 4d 05 bd ab b2 39 3e a1 0e b8 bd da 29 ff 3c
       -0.03254486 0.18134563 -0.08987165 0.031147886
0000a0 b4 7d 82 3d 57 f3 99 bd 52 15 3a 3e 23 28 2c 3d
       0.06371632 -0.075171165 0.18172196 0.042030465
0000b0 c3 72 ca bd 5e 17 2e be b4 6d af 3e a3 3f 39 be
       -0.0988517 -0.17001101 0.34263384 -0.18090682
0000c0 b8 9f 5d bd 18 6f c6 bd 45 83 11 bd 09 b4 8e bd
       -0.054107398 -0.09689158 -0.03552558 -0.06967933
0000d0 7e 07 78 bd 6c ac 08 be 11 1f 0a be 85 35 a6 3d
       -0.06055402 -0.13347024 -0.13488413 0.08115677
0000e0 a7 26 36 3d 02 38 10 3c 74 33 56 bd 96 c3 41 3d
       0.044470455 0.008802416 -0.052295163 0.047305666
0000f0 7f 28 4a 3d 29 84 90 38 38 c8 fb bc 92 79 2e be
       0.049355026 6.891072e-05 -0.03073512 -0.17038563
000100 55 d9 d7 bd 4e 15 98 bd c8 f2 19 be 8b 55 35 be
       -0.105395 -0.074259385 -0.1503402 -0.17708413
000110 a3 b2 e2 bd 52 f3 2a bd 1d e0 67 bd 99 8d 4f be
       -0.110692285 -0.041735955 -0.056610215 -0.20268859
000120 93 e9 36 be 57 1c 29 be 2e 89 09 be 4f 34 d5 bd
       -0.17862539 -0.16514717 -0.13431236 -0.10410368
000130 a9 b6 15 be eb cc 38 be 37 6e 9d bd f5 6e a5 bd
       -0.1462046 -0.1804692 -0.076870374 -0.08077804
000140 fd 90 17 be ef a1 e6 bd 18 e6 9a bc f0 52 18 be
       -0.14801402 -0.11261355 -0.018908545 -0.14875388
000150 67 92 b5 bd 27 df 71 be a2 eb 85 bd 90 e0 92 3c
       -0.08865815 -0.23620282 -0.06539084 0.017929345
000160 58 6c 43 be 93 4e 1e be c5 72 97 bd 67 87 17 be
       -0.19084299 -0.15459661 -0.073949374 -0.14797746
000170 07 78 94 bd 04 4c 3a be 44 23 cc bd 06 74 c6 be
       -0.07249456 -0.1819306 -0.09967664 -0.38760394
000180 bd 19 5c 3d 78 8f 0b 3e 4f 75 cc 3d 9a d9 27 3e
       0.053735483 0.13628948 0.09983312 0.16391602
000190 3f 4b ad 3d 22 df 34 3e 3e 70 36 3e e0 9c 60 3d
       0.08461618 0.17663243 0.17816254 0.054837108
0001a0 cf 47 5b 3e 85 88 df 3d 37 a0 44 3e 3a 06 3f 3e
       0.21414112 0.10914711 0.19201742 0.18654719
0001b0 98 77 82 3d a9 be e3 3d 79 09 fd 3d 3c 49 d8 3d
       0.06370467 0.1112035 0.123553224 0.10560843
0001c0 9a a3 43 be 17 db 6b be 17 b0 05 be a2 23 a6 bd
       -0.19105378 -0.23032795 -0.13055454 -0.08112265
0001d0 8b 12 ea bd 1a de bd bd 09 df 48 be 68 98 18 be
       -0.11429318 -0.09270878 -0.19616331 -0.14901888
0001e0 45 3b 5c be f4 8e 26 3b f9 b4 44 be 72 e9 74 be
       -0.21506985 0.0025414797 -0.1920966 -0.23917177
0001f0 9a 6d 56 be d3 f4 ee bd 4c 3b 0b be b6 4d 53 be
       -0.20940247 -0.1166779 -0.13596839 -0.20635113
000200 29 9b 06 3e 63 b2 d6 3c ea 8e 3a 3e d7 60 0d 3e
       0.13145126 0.026208108 0.1821858 0.13806473
000210 7b be a7 bc 19 28 f5 bc 3c 62 82 bc 79 09 2a 3d
       -0.02047657 -0.029926347 -0.015915982 0.04151294
000220 5e 48 ee 3d c9 a9 11 3e 03 43 74 3d c4 ec 1f 3e
       0.11634897 0.14224924 0.05963422 0.15617663
000230 03 93 13 3e 8f 59 9f 3d 53 a0 d3 3d 59 2c 71 be
       0.1441155 0.07780754 0.10333314 -0.23552074
000240 64 33 a3 3c 10 df 09 bd 00 94 1d 3e cd bf 76 bc
       0.019921966 -0.033659995 0.15388489 -0.015060377
000250 9f af 9c 3d 24 f3 2f 3d f1 a9 0f bd 19 34 09 be
       0.076506846 0.042956486 -0.035074178 -0.1339878
000260 0a 99 2c 3e f2 08 02 3e 85 0c 67 3c de 70 1a 3e
       0.16855255 0.12698725 0.014102106 0.15082118
000270 4f fd 9a 3d f0 e7 28 3d ac ea 5f 3d 72 2d 37 be
       0.07567846 0.041236818 0.05466716 -0.1788843
000280 ed 92 7c 3c ea fd 08 be 5d ea c6 bd 2d 27 b8 bd
       0.015415889 -0.1337811 -0.0971267 -0.08991847
000290 b5 14 d8 bc 5e 25 20 bd be ee 8c bd a2 1c a8 3c
       -0.026377061 -0.039098136 -0.06881474 0.020521466
0002a0 1e 34 7b bd 5d e1 89 bc af fa e0 bd 45 70 53 bc
       -0.061329 -0.016831094 -0.10985314 -0.012905185
0002b0 7b 28 1f 3c 09 3b b4 bd 0f e8 ac bd 1b 67 b5 3e
       0.009714241 -0.088003226 -0.08442699 0.35430226
0002c0 be 60 b0 bc 60 43 f5 3c a0 86 a6 bd 54 ae 70 bd
       -0.021530505 0.029939353 -0.081311464 -0.058760002
0002d0 c6 c7 e4 bc 2f 84 da bd 63 dc 7a bd db 1a d7 bd
       -0.02792729 -0.10669743 -0.061245333 -0.10503169
0002e0 f2 f6 ac bd 3f 51 c7 bc 23 db 28 3b 52 03 88 bd
       -0.084455386 -0.024330733 0.0025765381 -0.06641258
0002f0 4b e3 2a bd 50 b3 b1 3d f6 8a 75 bc fd cc 01 3c
       -0.04172067 0.08676779 -0.014986744 0.007922408
000300 f9 43 52 be c9 bf 36 be 96 dd b1 bd 52 42 b9 bd
       -0.20533742 -0.17846598 -0.08684842 -0.09045853
000310 73 7a 8c bd 21 85 50 be 72 18 c8 bd 97 71 9f bd
       -0.06859293 -0.20363285 -0.097702876 -0.077853374
000320 f7 9b 85 bd 29 51 99 bd 34 c0 cd bd c4 94 e0 bd
       -0.065238886 -0.07486183 -0.100464255 -0.10965875
000330 f8 f4 a2 bd e3 37 06 be d7 80 26 be b9 30 5f bd
       -0.0795688 -0.13107257 -0.16260086 -0.054489825
000340 3e bb fb bd 97 a7 39 be 91 c5 73 bd 6c 9f d9 bd
       -0.12291573 -0.18130337 -0.059514586 -0.106261104
000350 31 ce 84 bd c8 71 f2 bd d6 b4 d3 bd 8e 94 8f bd
       -0.064846404 -0.11838108 -0.10337226 -0.070107564
000360 93 de ee bd 6a b9 04 3c e9 2c c3 3c e3 e3 39 bd
       -0.116635464 0.008100847 0.023825126 -0.045383345
000370 6a 76 19 be f6 08 98 bd cf 54 73 bc 13 da 8e 3e
       -0.14986578 -0.07423584 -0.014851763 0.27900752
000380 55 09 e1 bd d4 a3 44 bd 66 fc a4 bd a3 b6 0d be
       -0.10988108 -0.0480078 -0.08055954 -0.13839202
000390 c9 6e 14 be 4e c3 f6 bc 3b 4c d3 bd 50 7d 07 be
       -0.14495386 -0.030122425 -0.10317274 -0.13231397
0003a0 b6 b7 3a be f6 9e 4d bd 06 b0 13 be 5d d5 10 be
       -0.18234143 -0.050200425 -0.14422616 -0.14143892
0003b0 63 a5 39 be 5d 42 a6 bd 87 23 b4 bd 92 94 81 be
       -0.18129496 -0.081181265 -0.08795839 -0.25308663
0003c0 83 9a fa 3d b0 60 6b 3d b8 6c b5 3d 71 38 59 3e
       0.12236502 0.057465255 0.08858627 0.21212937
0003d0 a0 93 44 3e 30 e1 31 3e d0 fd 13 3e 4b 90 13 3e
       0.1919694 0.17371058 0.1445229 0.14410512
0003e0 6a 12 2c 3e 3c 19 05 3e bf 59 e5 3d 98 19 1e 3e
       0.168039 0.12997907 0.11198758 0.1543945
0003f0 c3 2f 10 3e 7f e0 09 3e e0 dd 2b 3e a3 7d 02 3e
       0.1408072 0.13464545 0.16783857 0.12743239

gru.weight_hh_l0 f4 [384, 128]
000000 90 7e 38 bd c5 c6 d4 3d bc 27 db bd a6 87 05 bd
       -0.045042574 0.10389475 -0.10700938 -0.032600068
000010 97 7b f9 bd 20 40 09 be 0d 5c 16 3e 79 0a 4d 3d
       -0.12181776 -0.13403368 0.14683552 0.050058816
000020 47 b7 6d be 51 87 20 3e 5f de 1a be e5 73 da bd
       -0.23214446 0.15676619 -0.1512389 -0.106666364
000030 b6 5b bf bd 37 64 53 3e 59 1d 21 3e fa 5a 00 be
       -0.09343664 0.20643698 0.15733851 -0.12534705
000040 f1 9c 2d be 74 ea 72 bd 57 81 e7 3d 49 30 bb bd
       -0.169544 -0.059305623 0.113039665 -0.09140069
000050 5a 48 5c be b1 bd 2c be 6c 72 e6 3c 97 3a bc 3d
       -0.21511975 -0.16869237 0.028130732 0.091908626
000060 97 68 da bd 04 5f 66 be a3 74 54 be a7 cb 33 be
       -0.1066448 -0.22497183 -0.20747618 -0.17558156
000070 28 a1 84 3d 01 e0 e4 3d 69 4a f2 bd d0 60 45 be
       0.064760506 0.11175538 -0.11830599 -0.19275212
000080 36 21 d0 bd 40 64 27 be ef 5a e5 3d 5b 2b 45 bc
       -0.101625845 -0.16346836 0.11198985 -0.0120342625
000090 e8 5f 26 be 8e 76 d2 3b 0f a2 db bb 44 2a 69 3e
       -0.16247523 0.006422824 -0.0067026685 0.2277003
0000a0 ba fc 0a 3e 61 34 4c 3d 6c 77 6e bd d6 e7 22 be
       0.1357297 0.04985464 -0.05821936 -0.15908751
0000b0 e6 4f df bd 6d 39 a0 bd 5a a7 d9 3c ba 4e 01 be
       -0.10903911 -0.07823453 0.026569057 -0.12627688
0000c0 e4 0f 58 bd da 7c c4 3c 03 b6 30 bd b0 3f 3b be
       -0.05274953 0.023985315 -0.04314233 -0.18286014
0000d0 eb cb 1e 3e 7a 29 2c 3e ea 6c 85 bd 39 cb 36 bd
       0.15507476 0.16812697 -0.06514914 -0.044627402
0000e0 50 7c 5b be 81 a7 ad 3d c5 a9 9a bd 0f b7 4b 3e
       -0.2143414 0.084792145 -0.07551912 0.1989405
0000f0 fd f3 dc bd 11 bd ce 3d 97 af 29 be 0b a8 6e bd
       -0.107887246 0.10094655 -0.16570888 -0.058265727
000100 03 d0 3f bd ae 6c ba 3d 14 35 6a be 17 dd 8a 3e
       -0.046829235 0.0910276 -0.2287181 0.27121803
000110 76 51 7f bd 35 19 01 be 9b 3a 0e be 95 75 45 3e
       -0.062333547 -0.12607272 -0.13889544 0.19283135
000120 54 6c 3d 3e 28 d4 44 3c da 81 d6 3c c5 06 11 3e
       0.18498355 0.012013473 0.026184965 0.14162739
000130 56 ae 47 3e 40 ac 4c 3c 08 47 72 bc ec 9a 60 be
       0.19500098 0.0124922395 -0.014787443 -0.21934098
000140 e0 2a ac 3d f2 22 41 bd e0 dc c4 bd 7e 00 f6 bd
       0.08406615 -0.047152467 -0.09612441 -0.120118126
000150 6a 1a 35 3e 10 0b b8 bd f7 78 69 3e 66 45 15 be
       0.17685857 -0.08986485 0.2280005 -0.14577255
000160 a0 ce 1a bd 59 24 59 3e 58 e4 a5 3d 82 fd 8b bd
       -0.03779471 0.21205272 0.08100194 -0.06835462
000170 1f 7c 9f bd 2c 1b 67 3d 88 d8 f4 bd cd 4e 69 3c
       -0.07787346 0.056422397 -0.119553626 0.014239979
000180 9c bf 21 3e e1 55 6b be 60 b7 05 be a3 d5 48 bd
       0.1579575 -0.22981979 -0.13058233 -0.049031865
000190 9e ec ae 3d ff 38 59 3e d1 67 7e bd 89 ff 0d 3e
       0.08541225 0.21213149 -0.062110726 0.1386701
0001a0 5e 16 02 bd dd f0 11 3d e1 78 b7 bd ef 81 42 3e
       -0.031759612 0.035630096 -0.08958603 0.18994878
0001b0 69 b8 4a bd 4e 91 f9 bd f4 61 ee 3d 24 a5 10 3e
       -0.049492273 -0.12185918 0.11639777 0.14125496
0001c0 bf 2f 21 3e f4 02 22 bd 62 1c 08 be ad e4 62 3d
       0.1574087 -0.039553598 -0.13292077 0.055393863
0001d0 e0 ae 44 3e 56 61 85 bd d8 4c d3 3d 36 c2 40 3e
       0.19207335 -0.06512706 0.10317391 0.18824086
0001e0 4a 0f 44 3d 39 81 80 3c 73 f1 f1 bd 83 95 c8 bd
       0.047866143 0.015686618 -0.11813631 -0.09794142
0001f0 26 58 4d bd b6 04 88 be 23 d3 52 3d 32 25 0c 3e
       -0.050132893 -0.26566094 0.051470887 0.13686064
000200 11 a2 48 be 9a 1b b2 3c 2f 87 5b 3c 63 67 97 bd
       -0.19593073 0.021741677 0.0133989295 -0.07392766
000210 33 a9 20 3c ee 0a 67 bc 66 55 26 3e 8d c9 19 3d
       0.009805965 -0.014101727 0.16243514 0.03754573
000220 07 2a 51 be 52 90 91 3d 6b 57 61 be 2e e0 96 bd
       -0.20426188 0.07107605 -0.22006004 -0.07366978
000230 0e 87 19 3d e3 a5 4c 3e dc e4 ac 3b 4a ac c5 bd
       0.037482314 0.19985156 0.0052763056 -0.09652002
000240 fb e7 84 bd ad 3a 42 be a2 c1 64 3d 69 42 bb bb
       -0.06489559 -0.18967696 0.055848725 -0.005714704
000250 fc 36 35 be eb f5 65 be 0e 99 76 3d 02 8c 53 3d
       -0.17696756 -0.22457092 0.060204558 0.051647194
000260 1f ac b2 bd 16 6f 31 be 99 3a 4b bd 6d 5e 34 be
       -0.08724236 -0.17327532 -0.04961643 -0.17614146
000270 47 dc 01 3e 7a 2b be 3d ac a7 8a 3d 00 3f 6a be
       0.12681685 0.09285636 0.06770262 -0.22875595
000280 a7 fd 08 3e e9 b6 3b be 9b ac 25 bd cc 57 3c 3d
       0.1337801 -0.18331493 -0.040447813 0.045982167
000290 7b 45 77 be be 53 89 bb b9 24 9f 3c 84 70 49 3e
       -0.24147598 -0.004190891 0.01942669 0.19671828
0002a0 27 de 56 3d 7b 35 fb bd af fe a4 bd c1 15 56 be
       0.052457955 -0.1226606 -0.080563895 -0.20906736
0002b0 38 66 4c be ef a4 4c be 3e 54 f7 3d b1 59 0b be
       -0.19960868 -0.19984792 0.12076615 -0.13608433
0002c0 59 c8 0f be b8 36 08 bd 4a 60 83 be 4a 3c 02 be
       -0.1404127 -0.03325531 -0.256594 -0.12718311
0002d0 3c 0b 14 3e d7 e3 07 3e ca 54 f1 bd 02 78 6b 3d
       0.1445741 0.13270508 -0.1178375 0.057487495
0002e0 af b1 99 bd a3 6a 35 3e e7 3f 1e be 72 7a 52 3e
       -0.075045936 0.1771646 -0.15454064 0.20554522
0002f0 af 9c 0f bd d2 45 d6 3d 69 19 19 be a7 8e 1a be
       -0.035061534 0.10462536 -0.149511 -0.1509348
000300 de 35 94 3d a4 57 ad 3d eb ce de bd d7 93 d4 3d
       0.07236837 0.08463982 -0.1087931 0.10379761
000310 0b c0 d9 bd 8c cf 41 be 0e 89 0f bd 50 7a b0 3c
       -0.106323324 -0.18926829 -0.035042815 0.021542698
000320 ba b4 35 3d 09 94 f2 bd 88 51 32 3d 46 8f 38 3e
       0.044361807 -0.11844642 0.043534786 0.18023404
000330 65 3a 59 3e 2d 03 f1 3d 98 d2 e9 3b 15 f4 c8 bc
       0.21213682 0.11768184 0.0071357004 -0.02453045
000340 7b e7 d6 3c 93 32 df bd 6d 36 8b bc 1e 05 6c bd
       0.026233425 -0.10898318 -0.016993726 -0.057622068
000350 65 3c bb 3c 2b 1b 2d bd f6 4c f2 3c 14 13 5d be
       0.022855947 -0.042262238 0.029577713 -0.21589309
000360 67 d6 49 3d 33 26 86 3d 65 0a 44 3e 2e 91 20 3a
       0.049276736 0.06550255 0.1914459 0.0006125149
000370 c1 50 59 bd 3a 01 03 3b b1 95 10 bd 02 eb 4d 3e
       -0.05305553 0.0019989745 -0.035299007 0.2010918
000380 29 e4 8b 3d 3b cd 7d bd 22 fa 0a bd 24 cc 6c bd
       0.068306275 -0.0619633 -0.03392995 -0.05781187
000390 84 75 8f 3d 12 14 d9 3d 06 dd 77 3c e1 89 06 3e
       0.07004836 0.10599531 0.01512838 0.13138534
0003a0 1a 45 92 bd 81 a7 d8 bb ac 87 51 be 52 e6 34 3e
       -0.07142086 -0.006611765 -0.20461911 0.17665985
0003b0 ff ae d4 bc 98 34 87 bd 79 36 10 3e de 51 88 3d
       -0.02596235 -0.06601828 0.1408328 0.0665624
0003c0 84 54 52 3e 2a 56 ef bb 30 35 47 be 6c 50 e2 3d
       0.20540053 -0.0073039727 -0.19453883 0.110504955
0003d0 73 f1 49 3e 63 60 23 be 2e ac 02 3e a9 3a 2e 3e
       0.19721012 -0.15954737 0.12760994 0.17014565
0003e0 12 8e 19 be ad 20 62 bd 72 bb 0f be 95 d4 2a be
       -0.14995602 -0.055206943 -0.14036348 -0.16682656
0003f0 5b 30 d6 bd d7 bd 12 be 40 84 36 bd e3 64 9c bd
       -0.10458442 -0.1433023 -0.044559717 -0.0763643

gru.bias_ih_l0 f4 [384]
000000 0f 71 98 bd f9 50 98 bd 8a f6 6e 3d 2a 71 54 ba
       -0.07443439 -0.07437319 0.058340587 -0.0008104021
000010 21 6c 1f be 62 e3 b1 bd 84 64 5a 3e c4 45 be bd
       -0.15568592 -0.08685948 0.21327406 -0.092906505
000020 de 08 c1 3d b5 1b 97 3d e2 ca 82 bd 02 2e f2 3a
       0.094255194 0.073783316 -0.06386353 0.0018476846
000030 47 e7 87 bd a1 c0 54 bd 2b 60 1e be dd 01 60 3d
       -0.066359095 -0.051941518 -0.15466373 0.054689277
000040 ed 5d 9b bd 8f 55 38 be 8f 56 3d be ad 49 21 be
       -0.07586274 -0.18001388 -0.1849005 -0.15750761
000050 ed e0 3d bd ce ca e7 bc 94 df 87 bd d3 f5 e9 bb
       -0.046357084 -0.028294947 -0.06634441 -0.0071399002
000060 13 0f e4 3d b6 08 19 bc e6 1c fe 3b 7d 48 8b bd
       0.11135688 -0.009340456 0.00775491 -0.068009354
000070 96 92 7b bd 27 d5 ba bd 49 37 97 bd f5 31 01 bc
       -0.061419092 -0.09122687 -0.07383592 -0.007885446
000080 3a 6c 6d 3c f2 7c ba bc c4 71 4f be b6 f8 6a bd
       0.014491135 -0.022764657 -0.20258242 -0.057366095
000090 e1 69 25 3d 7d be d3 3c 22 93 93 bd 1a 77 39 be
       0.040384177 0.025847668 -0.07205798 -0.1811184
0000a0 dc c4 8c bd 53 ec 25 3d df 30 e3 bd 79 0f 59 bd
       -0.068734854 0.04050858 -0.11093306 -0.05299327
0000b0 81 23 83 3d 7f 31 01 be c5 dc 3c bd 4e 0e 3d be
       0.06403256 -0.12616538 -0.04610898 -0.18462488
0000c0 22 54 dd bd 71 70 30 bd 93 c3 f8 bd fa 43 31 3c
       -0.10807063 -0.043075982 -0.12146678 0.0108194295
0000d0 b5 98 e7 bd 98 e5 02 3e 69 6f 21 be bf 75 52 be
       -0.113084234 0.12782896 -0.15765156 -0.20552729
0000e0 15 32 df bb 28 fb 71 3d 79 8f 08 3d a3 a5 d5 bc
       -0.00681139 0.059077412 0.03333995 -0.026079958
0000f0 08 60 36 be ee 86 1c bc fe c9 7e bd c6 eb ac bc
       -0.1781007 -0.009553654 -0.062204354 -0.02110852
000100 95 e4 ea bd 8d e4 fe bd a2 7b c6 bc 41 55 01 be
       -0.1146938 -0.12445936 -0.024228875 -0.12630178
000110 1b 3f 29 3d a8 f8 02 3c cb 0a e9 bd 04 f0 a0 3d
       0.041319948 0.007993855 -0.11379012 0.07858279
000120 b7 22 f7 bd 36 83 13 3d 46 e2 0f be 90 8c 0b be
       -0.12067168 0.036013804 -0.1405116 -0.13627839
000130 29 d6 cb 3b 4a 0b f0 bc 7b c9 d4 bd 79 d9 01 be
       0.0062205982 -0.029302258 -0.10389992 -0.12680615
000140 28 6c 82 bd 0f 8b 03 be d7 25 7c bd 89 c8 b4 bd
       -0.063682854 -0.12846015 -0.061559524 -0.088273115
000150 a7 51 6e bd cf 58 11 bd 28 66 fa 3c 21 a2 5b bc
       -0.05818334 -0.035485085 0.03056629 -0.013405354
000160 93 4d 90 3c d6 fc 77 bd 69 17 48 be 61 d3 02 be
       0.017615115 -0.060543858 -0.1954018 -0.12775947
000170 56 15 30 3d 1d b9 de bc c8 a4 97 bd b4 88 38 be
       0.042989098 -0.027187878 -0.074044764 -0.18020898
000180 d2 91 88 bd 22 b2 f2 3d b4 21 4b bd a8 85 1e be
       -0.06668438 0.118503824 -0.04959269 -0.15480673
000190 a1 4c 18 bd 83 b2 74 3d 70 0a 51 be 35 38 1b be
       -0.037182454 0.059740555 -0.20414138 -0.1515816
0001a0 84 79 a0 3c 21 55 21 be a2 20 f8 3d a3 f8 2d be
       0.019589193 -0.1575513 0.12115599 -0.16989379
0001b0 d2 49 30 bd 8c 95 14 be 7d 51 0b be 18 5d 39 be
       -0.04303915 -0.14510173 -0.13605304 -0.18101919
0001c0 2c e1 ab bd b6 c1 d8 bc 2c 75 c0 bd 33 bb 6c 3c
       -0.083925575 -0.026459556 -0.09397349 0.014448929
0001d0 83 a2 b4 bb 8d 6d 76 bd df 93 41 be 74 f4 2d be
       -0.005512537 -0.06016307 -0.18904065 -0.16987783
0001e0 6a de b1 bc 47 c4 91 bc 5a 24 d3 bd 51 56 04 be
       -0.0217125 -0.017793788 -0.10309668 -0.12923552
0001f0 2f 63 d5 bd 6f 68 31 be 35 fd 53 bd 48 c3 15 be
       -0.104193084 -0.17324995 -0.05175515 -0.14625275
000200 b5 73 e0 3d 13 f3 fd bd 10 4f 1c 3d 01 81 4d 3d
       0.10959569 -0.12399878 0.038161337 0.050171856
000210 1f f5 51 3b 51 64 ae bc ec 1a 4d bb 6e 38 54 bd
       0.0032036973 -0.021288069 -0.0031296564 -0.051811628
000220 17 08 7a bd 40 ab 17 3e 0d 8e 28 3d d8 6e 40 3d
       -0.06104287 0.1481142 0.041151095 0.04698071
000230 95 ee 2e be 88 e8 84 bc 8c 56 b7 bd 9c 28 25 3e
       -0.170832 -0.01622416 -0.089520544 0.16128772
000240 f3 a0 b6 bb 56 67 07 be bb 01 0e 3e 16 33 0a 3e
       -0.005573386 -0.13223013 0.13867848 0.1349605
000250 dc b2 51 3b ee 64 43 be 10 e3 93 3d 40 fc 9e bd
       0.0031997478 -0.1908147 0.07221043 -0.077629566
000260 15 82 34 3e 49 58 07 be f9 0a 0e 3e 75 0c c4 3d
       0.17627747 -0.13217272 0.13871373 0.095726885
000270 0f b7 b7 bd 1c 8a a0 3e 97 6f 34 3e 74 c2 ae 3d
       -0.089704625 0.3135537 0.17620693 0.08533183
000280 88 63 98 be 39 ee 03 3e 9a 9b 10 be 43 e5 0b bd
       -0.29763436 0.12883843 -0.14121857 -0.034154188
000290 52 e4 ab 3e ef 7b ed bd 99 2d 45 bd 6b 81 a5 bd
       0.33572632 -0.11595904 -0.04813919 -0.08081325
0002a0 5e 00 af bd 20 7e 14 bd fd a5 5a 3d dd 78 b6 3d
       -0.08544992 -0.036253095 0.053380955 0.089097716
0002b0 9e a4 1f 3d 6a ed cc bd 60 32 a6 bd c7 82 4b be
       0.03897535 -0.10006221 -0.08115077 -0.19874106
0002c0 7c d8 fc 3d 68 5a cd 3d 9e 7d 6b 3e e4 5c cc bc
       0.123459786 0.10027009 0.22997138 -0.024946637
0002d0 e3 1f ef 3c 34 4e fd 3d 95 f2 81 3d e9 69 69 bd
       0.02919001 0.12368432 0.06345097 -0.05698577
0002e0 c2 5d 49 3e ee 6f 84 bd 6b 4e 2b 3e d1 b5 74 be
       0.19664672 -0.064666614 0.16729133 -0.23897482
0002f0 f1 4b 9d bd 6d 9e 4d 3e e4 3e 50 3d 35 97 4f be
       -0.076805 0.20079966 0.050841227 -0.20272525
000300 10 9e 4d be 35 4e 02 bc d6 72 e6 3a 05 e8 6d be
       -0.20079827 -0.007953216 0.0017581831 -0.2323304
000310 f0 df 59 bd f2 41 1e 3d 8b 2c 6c be d3 1a 02 3d
       -0.05319208 0.03863711 -0.23063867 0.031763863
000320 d3 17 db 3b d7 82 2c be ad 3b 24 3d 2c 28 ae 3c
       0.0066861897 -0.16846786 0.040095974 0.02125939
000330 b7 9e 12 be 40 46 7a bd c0 58 98 bd b7 b0 fa bd
       -0.14318357 -0.061102152 -0.07438803 -0.12240737
000340 12 9e 09 3e 67 31 04 be 2c a4 a2 3d de 3b 37 be
       0.13439205 -0.1290947 0.079414696 -0.17893931
000350 aa c3 91 bd ab 45 16 be bf 09 56 3e 94 90 84 bc
       -0.07117398 -0.14675014 0.20902155 -0.016182221
000360 d7 3d 29 be f5 d7 ec bc ad e7 8d be 88 3b 4a 3c
       -0.16527496 -0.02891157 -0.27715817 0.012343295
000370 d2 f4 47 3d d3 71 58 bd bf d4 4b 3c c2 d9 6d bd
       0.048817463 -0.052842926 0.012440859 -0.058069
000380 bc 86 4c 3d e4 3c 4f bd 69 32 23 3a f4 b2 ca 3d
       0.04993318 -0.05059518 0.0006225468 0.09897414
000390 c0 d8 8d bb e7 fc 73 bd a8 ad 29 be 00 b7 35 bd
       -0.004328817 -0.05956736 -0.16570151 -0.044363976
0003a0 5a 77 bb ba 42 76 01 3e b3 25 3f 3e 98 36 5a be
       -0.0014302537 0.12642768 0.18666725 -0.21309888
0003b0 57 16 81 3d d3 26 e5 bd 2e 2d f9 3d be f4 27 bd
       0.06303089 -0.11189046 0.121668205 -0.04100489
0003c0 74 84 09 be 79 84 17 be 18 a3 0e 3e 2f 0e 4d bd
       -0.13429433 -0.14796628 0.13929403 -0.050062355
0003d0 3e cb 65 3e 6b 9a aa 3c 4f f0 b5 bd 08 fc 6c 3b
       0.22440812 0.020825585 -0.08883726 0.0036160965
0003e0 7b 3f ff bd 34 66 b9 bd 5a e6 9d 3d f3 ca b1 bc
       -0.1246328 -0.09052697 0.07709952 -0.021703219
0003f0 e3 32 5c bd 6d a8 e1 bc 34 e4 22 bc 16 5e ae bd
       -0.053759467 -0.027546132 -0.009942103 -0.08514039

gru.bias_hh_l0 f4 [384]
000000 37 81 75 bd 26 c9 41 be 8c a5 2a 3d da 1d 16 3d
       -0.059937682 -0.18924388 0.041661784 0.036649562
000010 b5 12 25 be 0d 27 0c be a3 58 50 3e f4 9c 74 be
       -0.16120417 -0.13686772 0.20346312 -0.23887998
000020 f7 04 c2 3d 5a c2 7d 3d e9 b8 c1 bd a5 59 46 3d
       0.09473603 0.061952926 -0.09459097 0.048425335
000030 44 35 1a be f7 87 ed bc d4 e0 46 be af 14 06 3e
       -0.15059382 -0.028995497 -0.19421703 0.13093828
000040 93 7f 2f 3d 85 20 94 bd 79 cd 2d be f0 3b bb bc
       0.042846274 -0.07232765 -0.16972913 -0.022855729
000050 28 f0 1d be 57 a3 d5 bd e8 33 44 3c 10 52 86 bd
       -0.15423644 -0.10431545 0.011975266 -0.06558621
000060 5d 23 43 3e a3 1c 27 bb 4b 47 00 be 40 33 8b 3c
       0.19056459 -0.0025499247 -0.12527196 0.016992211
000070 d0 b0 b5 bd 1b b1 cf bd 18 30 a6 bd 95 c4 16 be
       -0.08871615 -0.10141202 -0.08114642 -0.14723428
000080 14 25 e2 bd f7 6a 3a 3c 8c 08 77 bd 32 88 ea 3a
       -0.11042228 0.0113780415 -0.060310885 0.0017893373
000090 1e e7 42 bd 1b 56 2a 3b 1d df 4e bc e1 69 8a be
       -0.04758369 0.0025991264 -0.012626437 -0.27033904
0000a0 bb e3 2e be 23 a1 b3 bd 01 db 1e ba 0d e5 88 3d
       -0.1707906 -0.08770969 -0.0006059856 0.06684313
0000b0 34 c4 76 bd 7f 4d 83 bd 08 4f 03 be 8b 7e 83 be
       -0.060245708 -0.064112656 -0.12823117 -0.25682482
0000c0 20 f5 01 be a2 66 2e 3c 6b 58 26 be 7b 03 1f 3e
       -0.12691164 0.010644587 -0.16244666 0.15528671
0000d0 5b 25 36 bd 1b b6 da 3d db 41 bc bd 9d ff 6c be
       -0.04446922 0.10679265 -0.091922484 -0.23144384
0000e0 6c 73 06 bd ea 9d fe bb 68 1f c8 3c 69 8e 1c be
       -0.03282492 -0.0077702897 0.024429038 -0.152887
0000f0 ad 78 dc bd 6d 49 08 3d 46 ff 2d be 54 d0 91 3d
       -0.107652046 0.03327315 -0.1699191 0.071198136
000100 9d 1e 0b be 54 d8 a4 bc cd 4c 33 be dc ca 54 be
       -0.13585897 -0.020122685 -0.17509766 -0.2078051
000110 be c7 0a 3e f7 fd 0a be 9b 9b 0b be 27 c0 76 3d
       0.13552758 -0.13573442 -0.13633578 0.060241845
000120 a1 7e e3 bd 53 f9 8f bd 1e aa 64 be 18 ae bb bd
       -0.11108137 -0.07029977 -0.2233052 -0.09164065
000130 da a7 3e bc 96 b7 7c bd 59 a0 28 3d 42 00 0e be
       -0.011636699 -0.06169852 0.041168544 -0.13867286
000140 4d a0 99 bd 23 d0 19 be 4e 04 46 be 6a 2d ae bd
       -0.07501278 -0.15020804 -0.1933758 -0.08504756
000150 98 9c d9 bc dc 98 2d bd d9 86 dc 3c 2b fe 35 bb
       -0.026563928 -0.042382106 0.02691977 -0.0027769904
000160 02 af 38 bd 65 5c 63 bb 5b ae 66 be 54 3e 62 be
       -0.045088775 -0.0034692523 -0.22527449 -0.22094089
000170 48 a9 80 3d b8 2a 68 bd a4 70 80 bd 54 ea 04 bd
       0.06282288 -0.056681365 -0.062714845 -0.032450035
000180 d2 83 bc bc 3e 80 20 3e 07 ff 89 bc 75 a4 e5 bc
       -0.023012076 0.1567392 -0.01684524 -0.02803252
000190 af ff 98 3c 48 b9 3f 3d df 4f 7b bd f0 6a 04 bd
       0.018676607 0.046807557 -0.061355468 -0.032328546
0001a0 68 d8 01 bd f0 49 32 be 66 ed ce 3d d9 ee 24 be
       -0.03170052 -0.17411017 0.10103874 -0.16106738
0001b0 96 85 cb bc 8f 9e e3 bc ad a2 ee bc ae 80 0c bd
       -0.024843972 -0.027785568 -0.029130304 -0.034302406
0001c0 dd cb f3 bd 40 37 31 be df ed 25 bd 44 e3 4c bd
       -0.11904118 -0.17306232 -0.040510055 -0.050021425
0001d0 2d 06 a4 3d 3d c9 1e be 39 03 08 be 10 3f ed bd
       0.080089904 -0.15506454 -0.1328248 -0.11584294
0001e0 14 09 05 be 47 9b e9 bc 70 73 2e be d6 99 83 bd
       -0.12991744 -0.028516425 -0.17036223 -0.06425826
0001f0 8e 3e dd 3c 4b 96 03 be e5 29 02 be 68 e1 b2 bd
       0.027007367 -0.12850301 -0.12711294 -0.08734399
000200 0c 3f 08 3e e1 a7 08 bd 9e b3 32 3d 5b fa 38 3e
       0.133053 -0.033363227 0.043628328 0.18064253
000210 69 1d 80 bd 73 7b ef bd 2a 2b 93 bd 1c e0 50 be
       -0.062556095 -0.11693468 -0.07185967 -0.20397991
000220 8d e4 a8 bd 00 78 2d 3c 43 7f 8d bc 8f a0 2b 3d
       -0.082467176 0.010587692 -0.017272597 0.041901167
000230 e5 37 48 be 0a 6b 9c bd 47 ef 42 be c7 4d d7 3d
       -0.19552572 -0.076376036 -0.1903659 0.10512882
000240 85 fb 55 bd f0 1c 06 be 6c 9a 73 3e c4 b4 c7 3d
       -0.05224182 -0.13096976 0.23789376 0.09751275
000250 dd 41 2a be fc 05 98 bd 61 82 0c 3d 2d 42 76 bb
       -0.16626687 -0.074230164 0.034304027 -0.0037576065
000260 b5 66 9f 3d 3a d5 c9 bd 59 07 1d 3e 58 2b 36 3e
       0.07783262 -0.09855123 0.15334834 0.17789972
000270 84 64 d1 bd c4 2c 9e 3e fd 16 d9 3d e4 30 43 3e
       -0.1022425 0.30893528 0.10600088 0.19061619
000280 6f ee 92 be 1a 4c f3 3c 7d f5 f6 bd f9 2d 20 3d
       -0.28697535 0.029699374 -0.12058542 0.039106343
000290 3b 1e ab 3e 77 df f7 bd cb 54 c5 bd df f7 7a bc
       0.33421502 -0.121031694 -0.096353136 -0.015317886
0002a0 a6 8c a8 bd 3a 5c c4 bd 11 7b 8e 3d d1 44 20 3d
       -0.082299516 -0.09587903 0.06957067 0.03912813
0002b0 4c 62 18 3e c6 f4 9b bd 69 17 a7 bd 07 19 93 be
       0.14881247 -0.07615046 -0.08158762 -0.28730032
0002c0 ff 7d 9e 3d 9b c1 28 3e 93 2c ea 3d 61 e0 cb bd
       0.077388756 0.16480105 0.11434283 -0.09954906
0002d0 9f a2 e4 bc 5b 2f 20 3e 74 7c f8 3d 2f 22 8b bb
       -0.027909575 0.15643065 0.121331125 -0.0042460184
0002e0 cf af cf 3d 46 89 5c 3c e6 86 63 3e 9e 00 6c be
       0.10140955 0.013460463 0.22219428 -0.2304711
0002f0 80 15 c9 bd bc 85 16 3e 96 80 b1 bd fd b7 80 be
       -0.09818554 0.14699453 -0.08667104 -0.25140372
000300 c1 f4 58 be 9b 72 a0 3d 98 74 44 3c 9a 38 08 be
       -0.21187116 0.07834359 0.011990689 -0.13302842
000310 90 a5 0f bd fd 6f 17 3d 19 de 5a be 4a 02 b4 3d
       -0.035070002 0.036972035 -0.21373786 0.08789499
000320 a7 71 47 bc ba 15 86 be 84 ed cb bd b7 03 6a 3d
       -0.012173093 -0.2618845 -0.09957412 0.05713245
000330 7f 9e a2 bd b9 47 19 be e5 f2 a0 bd a4 bd 95 bd
       -0.07940387 -0.14968766 -0.078588285 -0.07311562
000340 59 bb 4c 3e 36 8b cd bc 16 fa 20 bc b5 ea b2 bd
       0.19993342 -0.025090795 -0.00982525 -0.08736173
000350 b3 60 b1 bd 3a 69 bc bd 93 f9 68 3d ca 7d 38 3d
       -0.08661022 -0.09199758 0.056878638 0.045041837
000360 a1 39 ba bd 40 da e4 3d 6b a8 a5 be 19 52 91 3d
       -0.09093023 0.111744404 -0.32355055 0.07095737
000370 20 59 de bd dc ff 3c bc 4d 45 7c bd 43 96 40 bc
       -0.10856843 -0.011535611 -0.061589528 -0.011754575
000380 a3 38 83 3b cf e3 38 bd 59 5e 8c bd 85 1a f6 3c
       0.0040045544 -0.04513913 -0.06853933 0.030041942
000390 0b 9d e7 3d 0b 3f 43 3c 87 c9 02 be 19 b8 1c be
       0.113092504 0.011916886 -0.12772189 -0.15304603
0003a0 20 f3 97 bd 27 fd c4 3d 72 66 54 3e 1c b3 00 be
       -0.07419419 0.096185975 0.20742205 -0.12568325
0003b0 db 8b f7 3d 51 2b 8e bb 76 6e c4 3d d2 2e 43 be
       0.12087222 -0.00433866 0.09591381 -0.1906083
0003c0 85 3c 2b be d7 61 94 be a9 00 90 3e 3f 06 1c 3d
       -0.16722305 -0.28980896 0.28125504 0.038091894
0003d0 64 ff 8b 3e 0f 94 80 3d df 5a d0 bd eb af eb 3d
       0.27343285 0.0627824 -0.10173582 0.11508163
0003e0 16 ec 14 be eb c8 5f be 9f b0 1d 3e 3d 6e 47 3d
       -0.14543185 -0.21853988 0.15399407 0.048689116
0003f0 0a 21 f0 bb 85 69 6d 3d ab d9 9c bb ad f3 11 be
       -0.0073281573 0.05796196 -0.00478669 -0.14253111

gru.weight_ih_l1 f4 [384, 128]
000000 4a 2d cb 3d 43 a0 b7 3c 08 97 6c bd 41 e8 62 bd
       0.099207476 0.022415286 -0.057761222 -0.055397276
000010 6e 16 b6 3d dc 1b cd 3c 1b fb d6 3c 4e 48 b2 3b
       0.08890997 0.025037698 0.026242783 0.0054407483
000020 49 cb be bd 15 d6 a0 3d 93 be 13 3d f1 3a c2 3d
       -0.09316117 0.07853333 0.036070418 0.094838984
000030 4b 47 b5 3d f6 fa 7d 3d 14 d2 f5 bc 9f e6 57 bc
       0.08851489 0.062006913 -0.0300074 -0.013177543
000040 bd 4e e9 bd 78 03 85 bd c7 89 c4 bd a7 18 42 bd
       -0.11391971 -0.06494802 -0.095965914 -0.04738679
000050 b5 08 b9 3d 5c d9 10 3d af 53 cb bc 2b 7d 52 bd
       0.09034864 0.03536354 -0.024820177 -0.0513889
000060 95 2a ff bc 18 8c a4 3d d6 cd 7f bd 2b 87 b3 3d
       -0.031148234 0.08034533 -0.06245216 0.087660156
000070 5a 53 c4 bd 8f 56 2a bd 08 b2 f6 bb d3 cd 07 3c
       -0.095862105 -0.041586455 -0.007528547 0.008288818
000080 04 47 0c bd a5 c6 1d bd 9c 9d b5 3d af d7 b7 3d
       -0.034247413 -0.03851952 0.08867952 0.08976685
000090 d1 38 87 3d b5 ff 8a bd 25 1d 2d bc e4 fe cf bd
       0.06602634 -0.067870535 -0.010566031 -0.101560384
0000a0 ae a1 83 3c be 24 7e bd e1 84 a9 3d eb 30 06 3d
       0.016068306 -0.06204676 0.08277298 0.032761496
0000b0 22 93 da 3c de f3 94 bd 23 ab f7 3d d6 d7 51 3c
       0.026681487 -0.072730765 0.120931886 0.012807807
0000c0 6c c7 c7 bd 6c 33 0c bb 0f db 0d 3d 4b f8 6a bd
       -0.097548336 -0.0021392955 0.03463274 -0.057365697
0000d0 98 dc c1 bd fc 8b ac 3d c3 02 08 3e 0d 45 68 bb
       -0.09465903 0.084251374 0.13282304 -0.0035441548
0000e0 54 a1 40 bc 1d d3 fe bc 14 dd 56 bd 3a 91 5c 3d
       -0.011757214 -0.031106526 -0.05245693 0.053849436
0000f0 30 3d 40 3d 0a 44 17 3c 29 80 ef 3c 05 b2 cd 3d
       0.046933353 0.00923253 0.029235916 0.1004372
000100 81 a1 3b bc 9d d4 6e 3c 52 35 b5 bc 8d e5 bc bd
       -0.01145208 0.014577058 -0.022120152 -0.09223471
000110 9b d9 1b 3d cf c1 90 bd b3 16 a2 3b 35 79 98 3c
       0.03804932 -0.07068216 0.0049465536 0.018612484
000120 8a f0 6b bb 9c d9 76 3d 4f 55 f0 3c 1e 04 8c 3c
       -0.0036001527 0.060266122 0.029337553 0.017091807
000130 a8 05 f9 bc c6 22 79 3a fb 4a 03 3d c5 98 22 bc
       -0.030398205 0.0009503778 0.03205393 -0.009924118
000140 68 f0 1c 3d 96 82 00 3d 63 e7 23 3d e9 8a bb 3d
       0.038315207 0.031374536 0.04001559 0.091573544
000150 4e b9 33 bd d1 4c 85 3d da 39 e9 3c c5 9a 96 bc
       -0.043877892 0.06508792 0.028469969 -0.018384347
000160 ca b5 ba bd b7 29 32 3d 82 64 f2 3b 06 17 47 3b
       -0.09116705 0.043496814 0.0073972354 0.0030378713
000170 75 0f c0 3c ff c0 7c bd 17 69 2d bd 58 1e d8 3c
       0.02344487 -0.061707493 -0.04233655 0.026381657
000180 d5 71 82 39 be 57 b1 3d e5 63 60 bd c7 23 3c 3d
       0.00024880344 0.086593136 -0.054782767 0.045932557
000190 76 4c 39 3b 3f 0b 89 bd a2 75 18 be dd 66 5f bd
       0.0028274334 -0.06691598 -0.14888623 -0.054541457
0001a0 22 4c 92 3d bb cd 3b 3d b2 75 a0 bc a4 33 21 3d
       0.071434274 0.045850497 -0.019587371 0.03935589
0001b0 0a ee 36 3d 79 a5 2b 3d 98 d6 07 3c 8b 16 da 3d
       0.044660605 0.041905854 0.008290909 0.10648831
0001c0 b5 dd d6 3c 1a 55 a2 bd b7 2a 47 3d 77 8e 6c bd
       0.026228765 -0.07926388 0.04862472 -0.057753053
0001d0 9c f3 6a 3d ad 8c ba 3c 9b b8 02 3c d7 b5 af bd
       0.05736123 0.022772158 0.007978584 -0.08579605
0001e0 80 cd 68 3d f2 2b 0f bd 79 7a e2 bd bf d8 94 bd
       0.056836605 -0.03495402 -0.11058516 -0.072679035
0001f0 9b 9a 6a bd 23 57 e8 3c db f1 bd bd 7d 57 81 bd
       -0.05727635 0.028361863 -0.09274646 -0.06315515
000200 67 c6 04 3d b9 b6 5e be 00 d3 33 be e9 6a 62 bc
       0.032415774 -0.2174939 -0.17560959 -0.013819435
000210 57 3c fc 3d 30 23 9b bc df 82 85 3d f4 bf 71 bc
       0.123161964 -0.018937677 0.06519102 -0.014755238
000220 e4 83 ab bd a8 e6 79 3c a6 84 45 3d 87 ce 8f 3d
       -0.083747655 0.015252747 0.048222207 0.07021814
000230 20 0e 15 3e 8b 5f 02 be 6c 6a 11 3e 1e fe fd bc
       0.1455617 -0.12731759 0.14200753 -0.031004962
000240 bc 93 82 3d 8c 5b af bd 19 2e 4f bd 06 f5 14 3e
       0.06375834 -0.08562383 -0.05058107 0.14546594
000250 b3 1e 87 3d 8d 71 db bc 97 d9 ce bd cc 4a 6d 3d
       0.06597652 -0.026787544 -0.10100096 0.05793266
000260 19 25 8b 3d a6 0b 80 bd 69 e4 fc 3d 34 1d 42 bd
       0.06794185 -0.06252222 0.12348253 -0.04739113
000270 9a 18 bd bc 23 e1 7d 3c 40 dc ff 3d bd 00 ea 3c
       -0.02308302 0.015495571 0.12493181 0.028564805
000280 92 88 25 be e6 b3 52 bc 37 10 9c 3d 89 8a 78 bd
       -0.16165379 -0.012860274 0.0762028 -0.060678992
000290 cd 27 d0 bc 40 f7 19 3e 30 ba d8 bd 41 73 ad bd
       -0.025409603 0.15035725 -0.105823874 -0.084692486
0002a0 6e 68 97 bc df c2 69 3d b1 c0 dc 3d 50 bf 22 bd
       -0.018482413 0.05707061 0.107789405 -0.03973323
0002b0 e6 47 02 3c e5 f9 84 3d e0 4c f0 3c 2f ba ec bd
       0.007951712 0.06492976 0.029333532 -0.11558949
0002c0 52 ba ca bd 9c 86 c9 bd 6c c1 08 3d fd f4 db bd
       -0.09898819 -0.09840128 0.033387586 -0.10740087
0002d0 62 46 d2 3c 51 87 99 bd 37 ed 9a bd bb aa 29 3e
       0.025668327 -0.07496513 -0.075647764 0.16569035
0002e0 8e b4 2d bc de 2f 13 3e 52 7f 66 3d b1 7b 9d 3d
       -0.01060213 0.14373729 0.056273766 0.07689608
0002f0 d2 8d 91 bb 6e 48 18 3d 18 c0 c2 bd a4 39 3a 3e
       -0.004441955 0.03717845 -0.09509295 0.1818605
000300 2c 9f 45 bd 03 ba f3 bd 45 b6 5b 3d fd da 25 3d
       -0.0482475 -0.11900713 0.053640623 0.040492047
000310 86 de 22 3d 42 b7 a1 3d cf 76 9e bd 06 76 13 3d
       0.039762996 0.07896282 -0.07737505 0.036001228
000320 44 0c c7 3d 4f cd 0d 3e 10 c6 10 be 41 99 05 3d
       0.09719136 0.1384785 -0.14138055 0.032616857
000330 d1 fe 00 be f5 9f 41 be e3 48 2a be 85 e4 de bc
       -0.12597205 -0.18908675 -0.16629367 -0.027208576
000340 8d f8 c4 b9 9f 17 be 3d 24 f3 05 3e 65 6f e2 3d
       -0.00037569218 0.09281849 0.13081032 0.11056403
000350 05 22 18 3e 8e 76 31 3d 06 e4 15 bc d2 94 26 be
       0.14856727 0.043325953 -0.009148603 -0.16267708
000360 ec b0 08 be 76 c9 fe 3d bf b6 f2 3d bd 5a 04 be
       -0.1334874 0.124407694 0.11851262 -0.12925239
000370 96 ac e7 3b 64 23 38 bd 96 22 f8 bd 80 7e 73 bd
       0.0070701344 -0.044955626 -0.12115972 -0.05944681
000380 d0 d9 bd 3d 6f dc d4 bc f4 15 af 3c 3a 1c 25 be
       0.0927006 -0.025984017 0.021372773 -0.16124049
000390 d3 19 88 bc d5 b3 61 bd 4c d4 f4 bd 74 4c 79 3d
       -0.016613876 -0.05510314 -0.11954555 0.060863927
0003a0 7a 16 a4 3d c0 f3 66 3d 43 24 04 3d 28 df 53 bd
       0.080120996 0.056384802 0.032261144 -0.05172649
0003b0 dd 6b eb bd 89 4f b5 ba c0 72 c2 bb 92 ef 26 3e
       -0.11495183 -0.0013832907 -0.0059340894 0.16302326
0003c0 f9 2e 3e bd e1 73 9d 3d 1b 11 22 bd 35 bd b9 bd
       -0.046431515 0.07688118 -0.039567094 -0.090692915
0003d0 3c 4d 13 3d 9d 65 83 3d 54 20 83 bd ca 73 f5 bc
       0.03596233 0.064158656 -0.064026505 -0.02996244
0003e0 66 83 00 3e 6a fc 9a 3d 18 78 0c 3d f1 97 ec bc
       0.12550125 0.075676754 0.034294218 -0.028881045
0003f0 79 54 01 bd cc cb 70 ba 72 5a 1e be b1 19 39 bd
       -0.0315747 -0.00091856415 -0.1546419 -0.045190517

gru.weight_hh_l1 f4 [384, 128]
000000 e6 1a 80 3d 74 b6 4c 3d 66 95 e1 3d 80 c4 56 3d
       0.062551305 0.04997869 0.110148236 0.05243349
000010 ff 10 16 bc 1d 1c 82 3d 28 c4 a6 bd bf f1 ab bc
       -0.009159326 0.063530184 -0.081428826 -0.020989297
000020 49 f3 96 bd 3d 63 97 bd 71 d8 54 3d 80 45 a4 3d
       -0.07370622 -0.07391975 0.051964227 0.080210686
000030 af 01 e5 bc 35 ca 4b 3c 94 ee af bd 51 9c ab 3c
       -0.027954904 0.012438347 -0.08590427 0.02094856
000040 da a1 b2 bd 2c cd 11 be 22 af 90 3d f7 c5 4b 3d
       -0.08722277 -0.14238423 0.07064654 0.04974934
000050 58 5d d8 bc 8a 04 12 bd ed eb 23 be d6 23 e1 bd
       -0.026411697 -0.03564886 -0.16007967 -0.10993163
000060 7f e4 cc 3d 3d de 26 3d 4c 7b 02 3d 68 82 44 3c
       0.1000452 0.040739287 0.031855866 0.011993982
000070 31 26 c6 3c 05 67 7c 3d b9 43 be bb 95 c1 1a 3c
       0.024188133 0.061621685 -0.005806413 0.009445568
000080 5e bf 39 3d e3 0d 96 bc ec 6d 54 bd 9e 99 73 bb
       0.045348518 -0.018317169 -0.051862642 -0.003717042
000090 c2 d8 b7 3d 1d 7c 09 bd 66 90 48 bd 68 80 a5 3d
       0.0897689 -0.03356563 -0.048965834 0.08081132
0000a0 01 55 8c bc c0 55 7f 3c e9 0f a9 3d c9 2a 3f 3d
       -0.017130377 0.015584409 0.08254988 0.046671662
0000b0 7d 16 2c bd 89 20 8f 3d 9c 33 c7 bc a0 a2 63 3d
       -0.042013634 0.069886275 -0.024316601 0.055575013
0000c0 a5 df 94 3b 5e 6f 30 3c 17 0f f0 bc 68 9a 4d bd
       0.004543262 0.0107687395 -0.02930407 -0.05019608
0000d0 f1 94 62 bc f8 2b 1d 3c 89 6b 12 3c b9 0b 44 3d
       -0.013829456 0.0095930025 0.008936771 0.047862742
0000e0 65 59 85 bd ba 0e 62 3d 17 7d 6b bc 6d aa 86 39
       -0.06511191 0.055189826 -0.014373085 0.0002568545
0000f0 74 4f 5a 3d 16 2d af 3d 01 27 4a 3c d6 c4 42 3d
       0.05329843 0.08553521 0.012338401 0.047551
000100 b2 a5 25 bc 29 b7 0f bd 5a 58 fb 3c 10 64 98 3d
       -0.010110306 -0.035086785 0.030681778 0.074409604
000110 9c 8d cc bc 1d a8 9b bd d6 f4 a6 3d e9 9a 48 3d
       -0.024969868 -0.076004244 0.081521675 0.04897586
000120 f0 4b 20 3d a3 88 1e 3d 9a 2d 89 bd d5 f5 a7 3d
       0.03913492 0.038704526 -0.06698151 0.082011856
000130 f1 a3 a7 bc 72 d3 88 bc a7 19 2c bd 94 84 38 bd
       -0.020463916 -0.016702387 -0.04201665 -0.04504831
000140 21 a7 a1 3d a9 cc 0f bc 69 3f a8 bc 11 1f 33 bd
       0.078932054 -0.008776822 -0.020538049 -0.0437308
000150 69 cb 62 bd e5 03 2b bd 97 e8 17 3d ce ba 82 bd
       -0.05536977 -0.04175176 0.03708705 -0.063832864
000160 fd 78 a5 bd 01 8e 3a 3c b5 67 39 bd c3 8d 91 bd
       -0.08079717 0.011386395 -0.04526492 -0.07107117
000170 f5 36 bd bb 96 74 7b bd 07 7f f9 bb 0d d9 83 bd
       -0.0057743737 -0.061390482 -0.00761402 -0.064378835
000180 8e ba a5 bd 4a 67 7f 3d ba f5 0b bd 95 bf 97 bb
       -0.08092223 0.062354364 -0.03416989 -0.0046309927
000190 4a 11 d1 bb 9d 27 c7 3c 76 67 57 3d a9 7b 89 3d
       -0.006380235 0.024310881 0.052588902 0.067130394
0001a0 1d c8 ab bd 6d cd d2 3c e7 c1 95 3d d5 e5 a8 bc
       -0.08387778 0.02573272 0.073123746 -0.020617405
0001b0 a5 01 e4 bc 1a 0b 60 3d f3 1a be 3d f2 09 d9 3d
       -0.027832815 0.054698087 0.09282484 0.105976
0001c0 73 ff 23 3d e0 b4 2f 3c 39 31 87 3d 58 ac 7c 3d
       0.040038537 0.010724276 0.06601185 0.061687797
0001d0 03 2a 57 bd f2 df 2a bc 1c 85 d0 bc 5a 3c 58 3d
       -0.0525303 -0.010429369 -0.025454096 0.05279193
0001e0 40 7b a4 bd e8 f9 bf 3d 95 b6 1a 3c b4 6d b4 3d
       -0.080313206 0.09373838 0.009442945 0.08809987
0001f0 c3 ec 3a 3d 1d bd d5 bd e8 d5 e0 bc 3a 0f cf 3d
       0.04563595 -0.10436461 -0.027445748 0.10110326
000200 81 12 7a 3b ad bd 5a 3c b3 d4 f6 bd c1 1a 0b be
       0.0038158002 0.013350886 -0.12052288 -0.13584425
000210 e3 4f df 3d 05 f4 28 3d c5 e6 ca bc 78 23 8a 3d
       0.10903909 0.04124834 -0.024768243 0.067450464
000220 5b 84 08 be 02 28 a6 bd 72 45 6d bd b0 50 90 3d
       -0.1333174 -0.081131 -0.057927556 0.0704664
000230 67 44 21 be b1 de 4c be 88 ff 5a bc 17 cd 18 bd
       -0.1574875 -0.20006825 -0.013366587 -0.037304964
000240 1a 79 af 3d 04 1f 83 3d 8f 56 92 bd 41 40 c4 ba
       0.0856802 0.064024 -0.07145416 -0.0014972762
000250 ce 07 24 bd 55 70 c0 bc 1b 4f be bc b7 64 cd bd
       -0.040046506 -0.023491064 -0.02323108 -0.100289755
000260 45 ad 2e 3e 67 a1 38 3d 1e 79 50 3e b0 91 93 3d
       0.17058285 0.0450758 0.20358703 0.07205522
000270 50 40 34 bc 30 31 d6 bd 60 c9 02 be 92 4c c4 bb
       -0.011001661 -0.104586005 -0.12772131 -0.005990573
000280 88 e4 b3 3d f4 f5 8c 3c 5d cb 27 bd 67 d0 1c be
       0.08783823 0.017207123 -0.040965427 -0.15313874
000290 b2 25 26 3d 5c 28 d4 bd b1 76 e7 bd 68 33 a5 bc
       0.040563293 -0.103592604 -0.113019355 -0.020166114
0002a0 5c e8 fb bb 36 10 bd 3d 40 45 5c 3e 5e 16 2f be
       -0.0076876115 0.092316076 0.21510792 -0.17098376
0002b0 91 a9 1a 3e 90 72 80 3d b9 fe c1 3c 22 48 09 bc
       0.15103747 0.06271851 0.023681032 -0.008379014
0002c0 b0 ad 71 bd bc 3c 15 3e e7 20 89 bd 3e 00 07 be
       -0.059003532 0.1457395 -0.06695729 -0.13183686
0002d0 4b f3 5e 3d 0b ed ed 3b 4f 50 62 bd 30 8f 21 3e
       0.05443124 0.0072609237 -0.05525237 0.15777278
0002e0 b2 64 70 3d 9b 7e 3e 3e 78 29 17 3e 36 3c 10 3d
       0.05868978 0.18602984 0.14761913 0.03521367
0002f0 89 b6 5f 3d 28 f8 aa bd 33 13 00 be be 2c af bd
       0.05461744 -0.08348113 -0.12507324 -0.08553456
000300 f9 a3 1c 3e e2 65 cb 3d 05 05 28 bd 03 5c e8 bd
       0.15296926 0.09931542 -0.041020412 -0.11345675
000310 13 68 b2 3d b9 6b 8c bb 98 bf 95 bd 4e 21 c1 3d
       0.08711257 -0.0042853025 -0.07311934 0.094301805
000320 95 56 cf 3d d3 26 60 3d 98 9d 48 3e 90 78 45 bd
       0.10123936 0.054724526 0.19591367 -0.04821068
000330 31 6f 8b 3c 97 4f 25 3e 3d cc 31 be 7b 44 47 3c
       0.017020794 0.16143642 -0.17363067 0.012162323
000340 15 a6 b3 bd 8e e2 c9 bd 62 27 48 3d b9 5d 3e 3c
       -0.08771912 -0.09857665 0.048865683 0.011619025
000350 46 fa 81 bd 4c 7a d3 3d 9c 48 9e bd 2a d7 89 bb
       -0.06346564 0.10326061 -0.07728693 -0.0042065578
000360 e0 31 2d bc 33 de 2e bd a9 79 b0 3d 66 6b 81 3d
       -0.010570973 -0.042692374 0.08616955 0.06319313
000370 e0 58 86 3d 48 b9 c4 bc 75 2e 78 bd a5 3a 04 bd
       0.0655992 -0.02401413 -0.06059118 -0.03228249
000380 b5 55 cd bd 55 08 59 bc 1e e2 05 be b8 8d 0e bc
       -0.10026113 -0.013246615 -0.13074538 -0.008700781
000390 98 90 a5 3c a1 92 1c 3c 21 a5 bd bc f3 fb 8d 3d
       0.02021055 0.009556443 -0.023150029 0.06932821
0003a0 f0 1c 06 3e 04 1f fb 3d 66 89 67 3d f5 b7 37 3e
       0.13096976 0.12261775 0.056527518 0.17941268
0003b0 8d 01 13 3e 08 6f 91 bd 0d 5f 77 3d 36 d1 a2 3d
       0.1435606 -0.07101256 0.060393382 0.0795006
0003c0 ae 99 40 bc 67 ed 01 3e 26 51 98 bc f9 b0 0f be
       -0.01175539 0.12688218 -0.018593382 -0.14032353
0003d0 77 55 a4 bd c8 b0 be bd 3f c6 85 3c ac d7 7f 3d
       -0.080241136 -0.09311062 0.016329883 0.06246154
0003e0 7e fc 06 3d 7f ef 4f 3e d0 aa bd bd 0e a9 7b 3d
       0.03295564 0.20306204 -0.092610955 0.06144052
0003f0 fc ff 7f 3d 87 34 35 be 7b 6a 0b be fe c0 11 3e
       0.062499985 -0.17695819 -0.13614838 0.14233777

gru.bias_ih_l1 f4 [384]
000000 8d e7 b2 3c ca 1f e9 3c e3 05 4a 3d 76 dc a3 bd
       0.021838928 0.028457541 0.04932202 -0.08001034
000010 66 54 e8 bd 9d 94 8f bb 12 be 62 3d 2f f3 6e bd
       -0.11344223 -0.0043817298 0.055357046 -0.058337387
000020 22 57 59 3d 93 68 81 ba b7 98 89 bd bd 27 4b bd
       0.053061612 -0.0009873084 -0.06718581 -0.049598444
000030 60 c1 09 be b3 21 b0 bd dd fe 20 3d b8 91 23 bc
       -0.13452673 -0.086001776 0.039305557 -0.0099834725
000040 61 be f3 3d 12 f0 53 bd a3 b0 23 bd 41 f3 0f be
       0.11901546 -0.05174262 -0.039963376 -0.14057638
000050 c3 31 6f 3d 31 65 08 be 4e 78 7f bd 61 38 39 3d
       0.058397066 -0.13319851 -0.06237059 0.045219783
000060 62 ec 22 3d da 08 93 3c 14 30 b8 3d 86 df 88 3a
       0.039776213 0.017948557 0.08993545 0.0010442592
000070 ac 48 da bb 13 5e 9e 3d cc bd 2a bd 92 da d8 bb
       -0.006661495 0.07732787 -0.04168491 -0.0066178525
000080 c4 30 7a 3d de 5f 47 bd a4 63 91 3d f8 74 fe bc
       0.061081663 -0.04867541 0.07099083 -0.031061634
000090 aa 1a e7 bd 50 3a 90 3b f5 2e 59 3d 0b 6f 12 bc
       -0.11284383 0.0044014826 0.053023297 -0.0089376075
0000a0 41 cd 2a bb cc 41 84 bb bf 8c 23 bd b1 7b 65 3d
       -0.0026062282 -0.004036164 -0.039929148 0.056026164
0000b0 a8 b6 a1 bd e2 a9 3f 3d 68 57 db bc 80 41 f5 bd
       -0.07896167 0.046792872 -0.026775077 -0.11975384
0000c0 a9 72 61 3d b3 a3 0b bc 1f 15 65 3d 2b e9 5f bd
       0.05504099 -0.008522916 0.055928346 -0.054665726
0000d0 db 51 90 3d 6c f6 b7 bd d5 26 de 3a 2e d5 21 3c
       0.07046863 -0.08982548 0.0016948829 0.009877486
0000e0 01 3b 46 bc 25 89 85 3d 1a 6d 7d bd 1e ec 01 3e
       -0.012099029 0.06520299 -0.061871625 0.12687728
0000f0 83 58 92 3d d0 dc a5 bd 31 92 48 bd 55 02 5e bb
       0.071457885 -0.08098757 -0.048967544 -0.0033875902
000100 b3 99 df bc 82 6b 9b bc 52 be 3c bd b0 f1 48 bc
       -0.02729497 -0.018972162 -0.04607994 -0.012264654
000110 2a d9 15 3c b7 2f 1f 3d 28 21 c6 bc 59 f8 5d 3d
       0.009146014 0.038863864 -0.024185732 0.05419192
000120 88 e7 fe 3d fd 4a 0d bd 2b b3 9e bd c4 64 d4 3d
       0.12446505 -0.034495343 -0.07749017 0.10370782
000130 4b 2d 89 bd af 31 b9 39 12 27 88 3c 80 72 51 3d
       -0.06698092 0.00035322967 0.016620193 0.051134586
000140 c8 4a b9 3d e6 f9 1b bb b4 90 d8 3d 4c a2 77 3d
       0.090474665 -0.0023800074 0.10574475 0.060457513
000150 e2 30 40 bc 28 72 66 3d 9d ba f2 bd 02 0d 05 bd
       -0.011730405 0.05626121 -0.11852 -0.03248311
000160 f0 97 1a be 56 e1 c3 bd cd 09 b6 bd a2 a8 8c bd
       -0.15097022 -0.09564464 -0.08888588 -0.06868102
000170 11 5d 0f bd b8 92 b5 bd f2 f1 04 bd ee 5b 0e bd
       -0.035000864 -0.08865875 -0.0324573 -0.03475564
000180 13 5a ef 3d 27 0d 25 3d b9 ec 88 bd 53 e0 11 3e
       0.11687102 0.040295746 -0.06685776 0.14245729
000190 a0 97 34 bc a6 8e c1 bd 54 f7 06 3d 90 e2 94 bd
       -0.011022478 -0.09451036 0.032950714 -0.07269776
0001a0 51 58 14 bd ae d4 9e bd 46 e8 e5 bb 3a 04 8b 3d
       -0.036217038 -0.07755409 -0.0070162145 0.067879155
0001b0 57 50 98 3d ed ce 4b bd b2 7c 02 3e ec 47 27 bd
       0.074371986 -0.049757887 0.1274288 -0.040840074
0001c0 83 cc b3 3d 13 69 4e bd 80 72 94 3c aa b8 5a 3e
       0.08779242 -0.050393175 0.018121004 0.21359506
0001d0 3e 84 07 be f3 bd fd bd 87 bb 6c bd 4e 29 6f 3d
       -0.1323404 -0.123897456 -0.057796028 0.058389
0001e0 6a c8 b4 3c c9 29 a6 bd 6b af 1d bd af 8c 67 3e
       0.022068221 -0.08113439 -0.03849737 0.2261226
0001f0 a9 5b d9 bd 91 8f 63 3d 1b 24 91 bd c1 14 2e be
       -0.10613186 0.055556837 -0.07086965 -0.17000104
000200 56 2b 32 be a2 0b 3c 3d 38 5f 11 be df cb ce bd
       -0.17399344 0.04590953 -0.1419648 -0.10097479
000210 7b 8d 78 bd 1f 92 15 3d a1 81 8a 3c 28 58 04 be
       -0.0606818 0.036516305 0.016907515 -0.12924254
000220 24 cc f8 bd 34 4d bb bc c7 1e 6d 3e 4b 73 37 bd
       -0.12148312 -0.022863962 0.23156272 -0.044787686
000230 76 f9 ec bd a1 1a 14 be e3 40 bf bd a6 30 23 bc
       -0.115710184 -0.14463283 -0.09338548 -0.009960329
000240 6d 41 ed bd 23 f3 11 3d f5 0f 46 3b 08 3d a4 3d
       -0.115847446 0.035632264 0.0030221913 0.08019453
000250 f4 13 89 bd 9d aa 5b 3c d9 e9 1f be 15 3f a2 bd
       -0.06693259 0.013407377 -0.1561655 -0.07922188
000260 9b f0 a9 bd b2 75 30 ba c9 78 0f be 4f 1c fd 3c
       -0.08297845 -0.0006731405 -0.1401092 0.030897288
000270 31 83 16 3e 6d 14 61 3d 99 25 86 3d 84 85 f9 3b
       0.14698483 0.05495112 0.0655014 0.0076147933
000280 0c 4d 51 3e d8 ed 11 be 1a 16 cc 3d 3c e9 db 3d
       0.20439547 -0.14250886 0.09965153 0.10737845
000290 d9 4d ce bd 25 e9 28 be bb 37 c4 3d 0e 63 98 3d
       -0.10073442 -0.16495188 0.09580942 0.07440768
0002a0 dd 83 5c bd ea 9f 4a be bc fa 03 be b0 c7 ed 3d
       -0.053836692 -0.19787565 -0.12888616 0.11610353
0002b0 83 c5 b8 3c 09 7d 37 3c 3a 47 36 be 6e 8f 21 3d
       0.022555118 0.011199244 -0.17800608 0.039443426
0002c0 78 3b b0 bd ee 79 c3 bd bc c8 8b bd b5 77 31 3d
       -0.08605093 -0.095447406 -0.068253964 0.043327052
0002d0 4c 8d 00 bd d0 d5 2b 3d 8f 8a 62 3e 8a dd 03 3e
       -0.03138475 0.041951954 0.22123168 0.12877479
0002e0 25 a8 f7 3c c5 2a ef bd 88 28 aa bd 15 e6 fa bc
       0.030231545 -0.116780795 -0.08308512 -0.03062729
0002f0 12 be 54 3d cc b1 22 bd e9 b3 cf bd bf 55 3b bd
       0.051939078 -0.03972034 -0.10141737 -0.04573607
000300 d3 e4 4a bd 64 47 ee bb 46 14 f8 3d 3c e8 1d bd
       -0.04953463 -0.007271694 0.12113242 -0.038551554
000310 c8 05 0d 3d 0f 80 5b 3e b9 20 6b 3d 3a b4 9f bd
       0.03442934 0.21435569 0.057404254 -0.07798047
000320 f9 7c d7 ba a6 62 f6 3d 3d 15 8b bd fd 69 db 3d
       -0.0016440443 0.120305344 -0.0679116 0.10713575
000330 49 24 dc 3c 07 ff 86 bd dc 85 00 bd ed 3e 96 bd
       0.02687277 -0.06591611 -0.03137766 -0.07336221
000340 4b 31 a5 3d e5 04 14 3d b0 f4 13 bd 45 61 a0 3d
       0.080660425 0.03613748 -0.036122024 0.07831053
000350 3c 5b fc bd 15 a2 5f be 98 0b db bd 8c ab bf 3d
       -0.12322089 -0.21839173 -0.10695571 0.09358892
000360 d0 a3 91 3d 2b 61 cf bd e3 e5 33 3c 6b eb bb bd
       0.07111323 -0.10125955 0.010980102 -0.09175762
000370 f8 8b 02 3e 3a 7b ba bd ee 19 76 bc fe fa 21 3d
       0.12748706 -0.09105535 -0.015020831 0.039546005
000380 36 df b2 3c 3e 77 2e 3c 5f 16 be 3c ef ca de bc
       0.02183495 0.010648547 0.023204027 -0.027196376
000390 fa 2e bf bd 37 52 3a 3d 73 72 79 3c eb ef d5 bd
       -0.09335132 0.045488562 0.015225041 -0.10446151
0003a0 7f aa a1 3a 6c 5f a2 3d 7b 2c 9c 3d 1a 66 c8 bd
       0.0012334137 0.079283565 0.076256715 -0.09785099
0003b0 24 3d 20 bc 6e f2 3f be 28 6d d4 bd 6f 67 97 bd
       -0.009780202 -0.18744823 -0.103723824 -0.07392775
0003c0 74 c8 a3 bd 0f e2 f2 bd 61 0c 84 bd 7b e1 50 be
       -0.07997218 -0.118595235 -0.064476736 -0.20398514
0003d0 07 e3 e0 bd 80 da 23 be 06 2e d8 3d 14 c0 c3 bc
       -0.10980802 -0.1600132 0.10555653 -0.0238953
0003e0 92 9d b3 bd 58 24 01 bd a1 64 a0 3d 49 53 ec 3c
       -0.087702885 -0.0315288 0.078316934 0.028848307
0003f0 2a af 1a bd 33 6a 24 be 15 cc 1e 3d cb 94 59 3d
       -0.037764706 -0.16056137 0.038768847 0.053120416
