1223-code-DL/model/GRU_state_dict.pt (torch, 668737 bytes, 17 tensors)

gru.weight_ih_l0 f4 [384, 16]
000000 0f 86 ba bd f4 10 9a bc 45 16 38 3c ee 02 c0 bd
       -0.09107601 -0.018806912 0.011235778 -0.09375559
000010 7d 4e 70 3c 76 57 18 be 81 81 36 bc 01 ba 01 bd
       0.014667151 -0.14877114 -0.011139275 -0.031671528
000020 6a 68 39 bd 62 47 8c bd eb 07 f6 bd f3 c2 1a bd
       -0.045265593 -0.06849553 -0.12013229 -0.037783574
000030 8f d1 5d bd 3a 88 3d bc 70 1e 2c 3c fd 74 7f bd
       -0.05415493 -0.0115681235 0.010505304 -0.062367428
000040 2f 16 6e be 89 07 3b be 5b c1 42 3e 5f 1e 0d be
       -0.2325065 -0.18264593 0.19019072 -0.13781117
000050 45 73 b4 3d 06 4b 17 be 63 bc f9 bc 15 61 38 be
       0.088110484 -0.14774713 -0.030485338 -0.18005784
000060 4b ee 22 3d fa e7 aa bd 54 a5 d5 be 69 7a fc bd
       0.039778035 -0.08345027 -0.41727698 -0.123280354
000070 3f 8e fa bd b1 2b bd be ee 48 85 be 91 da bf be
       -0.122341625 -0.36947396 -0.26032203 -0.3747144
000080 fa 5b ad bd 71 e6 5f bb 64 1c 7d 3e 7a 85 27 3d
       -0.08464809 -0.0034164453 0.24717861 0.040898778
000090 d4 9d 30 bd 39 fb ae bc 3f 52 f0 bc 9f ae cf bd
       -0.043119267 -0.021360027 -0.029336093 -0.10140728
0000a0 00 96 63 3d 59 0d f3 bc 49 84 16 be 63 31 17 3d
       0.055562973 -0.02966945 -0.146989 0.036912333
0000b0 b5 5c d2 bd 10 56 87 be da e6 de bd c7 14 50 3c
       -0.10271589 -0.26432848 -0.10883875 0.012700266
0000c0 44 08 b9 bd 86 b0 0d be 8f 50 35 be a0 8d 2d be
       -0.0903478 -0.1383687 -0.17706512 -0.16948557
0000d0 b0 a1 be bd ab f8 3f be 92 96 2b be 2d c6 9e bd
       -0.09308183 -0.18747203 -0.16756657 -0.07752643
0000e0 0c 11 fd bd 2d 08 12 bc df e9 ed bd 19 70 dd bd
       -0.12356767 -0.008913082 -0.11616873 -0.108123966
0000f0 39 34 dc bd 3d 45 d2 bc 4d 07 98 bd 09 9e f2 bc
       -0.10752148 -0.025667781 -0.074232675 -0.029616373
000100 d8 24 41 bc f5 3d 71 3d d1 29 09 be 8d c1 32 be
       -0.011788569 0.058896977 -0.13394858 -0.17456646
000110 4f 96 00 be 86 bb 98 3c dd eb bb 3d 8a 40 23 be
       -0.12557338 0.018644106 0.09175847 -0.15942588
000120 37 cd 9b bd b6 0a 02 3c d2 36 ce bc 6d d0 bc 3b
       -0.07607501 0.007937124 -0.025172625 0.005762151
000130 a6 ea 1b bd f7 2d b9 3d 5e 17 df 3d 64 b5 8f 3e
       -0.038065575 0.0904197 0.10893129 0.28068078
000140 fd 29 43 3d 8b 2f 2f 3e 09 92 9a 3e 96 44 23 3d
       0.047647465 0.1710798 0.3018954 0.03986033
000150 9c a3 2e 3d c8 10 d1 bd 4a fe 59 3e f3 d5 d9 3c
       0.0426365 -0.10208279 0.2128841 0.026591277
000160 6c 4f a4 3d 79 b4 bc bc 0c f6 a4 bd 95 bd e4 3d
       0.08022961 -0.023035275 -0.08054742 0.111689724
000170 2a 3a 3e 3e 83 ee d3 3d aa 5e 7d 3c 98 f8 c3 3d
       0.18576875 0.10348227 0.015464464 0.095689
000180 ad 70 02 be 2b a9 a3 3c 88 87 2a bb 1e 6b 01 3d
       -0.12738295 0.019978127 -0.0026020724 0.031596296
000190 2b f5 ab 3d 7e 52 db 3d 82 4d a6 3d 5d 10 a5 3d
       0.083963715 0.107090935 0.08120252 0.08059762
0001a0 d2 e6 d3 3d 8d 38 10 3d f2 03 19 3d 13 2e 9f 3d
       0.1034676 0.03521018 0.03735728 0.0777246
0001b0 c6 fb 15 bd 06 ce ca be 6b d3 a6 3c 1d bf 01 bc
       -0.036617063 -0.39610308 0.020364484 -0.0079191
0001c0 3a d1 37 be 1d b7 b3 bd 46 c2 16 3e 0c f6 16 be
       -0.17950907 -0.087751605 0.14722547 -0.14742297
0001d0 b2 de 4f be 42 1d df be 1f 0a 23 bd d6 83 03 be
       -0.20299795 -0.4357701 -0.039804574 -0.1284326
0001e0 af ac 4c be 6e 0d 1b bc d5 3a f8 be 8f b8 69 be
       -0.19987749 -0.009463651 -0.48482385 -0.2282431
0001f0 bd 4c 53 be 63 f9 b3 3d e9 26 1e bf 11 ff 28 3f
       -0.20634742 0.08787801 -0.6177812 0.660142
000200 72 b9 1f 3e 16 4c 39 3d 45 02 f5 3d 2a 2f 21 3e
       0.15598086 0.045238577 0.119633235 0.15740648
000210 dc 5c 80 bc 56 69 ef 3c 61 5c dc 3a f6 0c a1 3d
       -0.015669279 0.029225033 0.0016812199 0.078638
000220 8a ef 0a 3e cb 53 f4 3d 88 cd cc 3d 61 59 30 3e
       0.1356794 0.11930045 0.100001395 0.17221595
000230 0c b6 23 3e 10 b8 e7 3d 9b 56 2f 3e de 19 35 3c
       0.15987414 0.11314404 0.17122881 0.0110535305
000240 1a 85 a2 3d 5e 0b 1b 3d 81 de 50 3e 6f 6f 59 bb
       0.07935543 0.037852637 0.20397379 -0.0033177992
000250 bf 35 c0 3d f1 87 25 bd 55 58 19 3d 6f 12 db 3d
       0.09385251 -0.040412847 0.037437756 0.10696875
000260 ec 9a ed 3d d4 cb b6 bd f1 0d 2f be 61 ba af 3d
       0.11601815 -0.08925596 -0.17095162 0.08580471
000270 5b d9 b6 3b 3e 10 83 3e fc 79 72 3d 02 bc af 3d
       0.00558011 0.2559833 0.059198365 0.085807815
000280 48 35 aa 3c 9f 7c c3 bd 1e 60 68 bd b5 00 9e bd
       0.02077736 -0.09545254 -0.05673229 -0.077149786
000290 10 a3 d3 bc 8f 88 cb bc 18 1a 10 bd 2e 09 16 bc
       -0.02583459 -0.02484539 -0.035181135 -0.009157462
0002a0 6f b2 84 bc 0b 77 9c 3b cc a0 de bd 2f cb ee 3c
       -0.016198365 0.004774933 -0.10870513 0.02914962
0002b0 a0 55 57 3d ec b9 be bd 8b 5c e8 bd 4c b0 0c 3d
       0.052571893 -0.093128055 -0.11345776 0.034347817
0002c0 ea 0f 29 bd 6f 73 28 3c f9 36 b7 bd e7 0d 61 bd
       -0.041274942 0.010281428 -0.08946032 -0.0549449
0002d0 5e b5 83 bd 3b 8c d8 bd 44 b0 af bd 86 82 ab bd
       -0.064310774 -0.10573622 -0.08578542 -0.08374505
0002e0 70 89 ce bd 0f 34 5e bd 96 03 98 bd 81 69 ab bd
       -0.10084808 -0.054248866 -0.07422559 -0.08369733
0002f0 a5 24 6e bd 0e d5 ff 3c 97 23 82 bd dd 9c 37 bd
       -0.058140416 0.031229522 -0.063544445 -0.04482733
000300 0f eb d7 bd 6b ec 31 bb ec e7 31 3d 19 38 43 3d
       -0.10542881 -0.0027148973 0.04343407 0.04766092
000310 47 b0 91 bc 4d 0e 00 be da 99 aa 3d 08 fb 64 3c
       -0.01778425 -0.12505455 0.08330126 0.013975866
000320 cd cc 11 3d 45 7a ec 3d ba fd 6b 3d e5 4e f3 ba
       0.035595704 0.115467586 0.05761502 -0.0018562941
000330 4c f9 f6 3c 01 b3 e9 bd 5a cb 82 bc 01 d7 87 bd
       0.03014817 -0.114110954 -0.015966106 -0.066328056
000340 7f d2 f6 bd 80 ab dc bd 70 af 6d 3b ab 70 cc bd
       -0.12051868 -0.107748985 0.00362679 -0.09982427
000350 ab 8d 2d bd 1f 77 a8 bd 1d 75 12 bd ec b8 06 be
       -0.042371433 -0.082258455 -0.03575622 -0.1315648
000360 57 29 86 bd f8 3a 3a 3d 3d 60 b0 bc f7 0c 4e 3b
       -0.06550854 0.045466393 -0.021530265 0.0031440833
000370 79 a0 d1 bd 82 bf 87 ba 5f c4 86 bc da 24 e5 bd
       -0.10235686 -0.0010356756 -0.016451059 -0.111886695
000380 07 e4 0b be 5f 29 09 bd 22 a6 9b bd d7 89 67 be
       -0.13661204 -0.03348672 -0.07600047 -0.22611175
000390 a2 1d 88 3c f7 4b ec bd 18 4d a2 bd c7 1d 38 bd
       0.016615693 -0.11537927 -0.07924861 -0.044950273
0003a0 c7 10 c3 bd 17 42 a4 bd dc d1 dc be 21 fa 88 bd
       -0.095246844 -0.08020418 -0.4312886 -0.06688333
0003b0 8f a1 e8 bd 43 49 89 3d c1 2b be 3c 88 f9 b6 be
       -0.1135894 0.06703427 0.023214223 -0.35737252
0003c0 7d 72 b5 3d 22 17 88 3d 9e 3c 22 3e f6 87 92 3e
       0.088597275 0.06645037 0.15843436 0.28619355
0003d0 99 e0 30 3e 05 5c 3d 3e 62 ad 1d 3e 07 d2 29 3e
       0.17273177 0.18492134 0.15398172 0.16584025
0003e0 9f 86 68 3e 42 06 8e bc 2b 48 f5 3d df d3 4b 3e
       0.22707604 -0.017336968 0.119766556 0.19905041
0003f0 25 87 3e 3e 04 7e ca 3d 38 12 78 3e 8b d6 a3 3e
       0.18606241 0.09887317 0.242257 0.3199962

gru.weight_hh_l0 f4 [384, 128]
000000 06 4c 52 bb 28 04 41 3d d0 de 99 3d 57 16 17 3d
       -0.003208877 0.047123104 0.07513201 0.03688654
000010 7e a8 40 be 88 b4 f7 3c d4 5c 6d 3d 71 a3 df bd
       -0.18814275 0.030237451 0.057949856 -0.10919846
000020 05 44 b4 bd 39 ae f6 bc 68 fc a5 bd 2f 80 03 bd
       -0.08802036 -0.030112373 -0.08104783 -0.032104667
000030 02 4c dc bd 16 b5 01 3e 2d 6f 8d 3c ae 81 6e bc
       -0.10756685 0.12666735 0.017264927 -0.014557285
000040 a0 d3 53 bd 7e 1b 0a 3d e1 24 81 3d 86 4c ad bd
       -0.051715493 0.033717625 0.06305862 -0.08461861
000050 cb 60 19 be fc fb 9e bd 42 f6 0a bc 1a 93 ee 3c
       -0.1497833 -0.07762906 -0.008481564 0.029122878
000060 ea e4 29 bc e6 cc 2d be 7a 9a 0c be dd 19 b3 bd
       -0.010369519 -0.16972694 -0.13730803 -0.087451674
000070 ff 45 21 bc dc d7 cb bd a5 64 0d bd ae a7 f1 bd
       -0.0098433485 -0.09953281 -0.03451981 -0.117995605
000080 a3 71 53 3d 37 ef d1 bd 15 4b 9e bd 84 0c 91 3d
       0.051622044 -0.10250705 -0.077291645 0.07082465
000090 ef 99 f2 bd 36 68 a5 bd e2 e4 97 bb 6b 48 2c 3e
       -0.11845767 -0.08076517 -0.0046354393 0.168245
0000a0 f2 9f f6 3d 9c d6 35 bc 50 38 8c 3b 80 4e 12 bd
       0.12042226 -0.01109853 0.004279174 -0.035719395
0000b0 4a 0a 1d ba bd 2f 85 bb 52 31 b4 bd f9 31 7a 3d
       -0.0005990608 -0.0040645287 -0.087984696 0.061082814
0000c0 54 70 24 3d 99 87 b2 3c 0d c8 54 3a f4 d9 85 bd
       0.040146187 0.021793174 0.0008116968 -0.06535712
0000d0 04 b4 52 3d 1d 92 e2 3d 7e 7b 24 3d e3 41 7f bd
       0.051441208 0.11063025 0.040156834 -0.062318694
0000e0 8f b2 a3 bd ca 50 19 bd 60 a3 83 bc 03 ff 8d 3d
       -0.07993042 -0.037430562 -0.016069114 0.06933405
0000f0 27 42 66 bd 05 66 52 3c 4d 32 bb 3b d5 8e c0 bd
       -0.05621543 0.012841706 0.0057127834 -0.09402243
000100 d1 ed 4a 3c 7c a0 24 3d a7 16 09 be d4 ac 9c 3d
       0.012385801 0.040192112 -0.13387547 0.07650152
000110 89 30 ab 3b 97 26 68 bd ce d0 60 3d 0e 5b e9 3d
       0.0052242917 -0.056677427 0.05488663 0.113943204
000120 cb 5a 65 3d 62 64 a9 bc 46 c0 bc 3b eb 20 2e bd
       0.05599479 -0.020677749 0.0057602255 -0.04251186
000130 d7 1d 10 3e 80 48 80 3d f9 50 dd bb 90 cd 1a be
       0.14073883 0.06263828 -0.0067540375 -0.15117478
000140 9e 9a d6 3d ec 31 d1 3c 81 1b 09 be f4 63 47 3d
       0.1047871 0.0255365 -0.13389398 0.048679307
000150 c6 1b f9 bc 9c f6 cd bc ae 77 02 3e 3d 8b 8e bd
       -0.030408751 -0.025142007 0.12740967 -0.06960151
000160 61 6d 99 bc ba 88 de 3d 92 d9 1c bc 8d b1 4a 3d
       -0.018728914 0.10865922 -0.009573357 0.049485732
000170 0a be 4a 3c c7 15 c5 3d 6a f4 23 3d 2b 43 4d bc
       0.01237441 0.09623294 0.040028013 -0.012528221
000180 c6 43 ab bd 5b 74 09 be 10 7f 11 3d b4 18 3f 3e
       -0.08362536 -0.13423292 0.035521567 0.18661767
000190 88 32 2f 3d b2 7a 06 3e c7 6b d5 3d 81 91 4c 3c
       0.0427728 0.13132742 0.104209475 0.012485863
0001a0 3f 9b e3 bb ee 7e aa 3b dc 3b b4 bc b6 ce 27 3e
       -0.006945997 0.0052031195 -0.0220012 0.16387448
0001b0 6e ee 95 3c 50 1d c6 bd 5e 8e 32 3c 1c d3 69 bc
       0.018302169 -0.0967356 0.010898201 -0.014271524
0001c0 61 73 08 3e 92 91 c6 bd f2 06 ae bd 2b a6 c2 bc
       0.13325264 -0.09695734 -0.084974185 -0.023760876
0001d0 63 58 06 3e 7f 00 60 3b eb 3a 02 3d 4c e8 0f 3e
       0.13119654 0.0034179983 0.03179447 0.14053458
0001e0 37 e7 0f bc 34 11 9e bd a8 c2 05 be f7 da 31 bd
       -0.008783153 -0.07718125 -0.13062537 -0.04342171
0001f0 e5 56 8f 3c 98 48 a5 bc 23 a4 8b 3d 74 fb 0f 3e
       0.01749749 -0.020176217 0.06818416 0.14060766
000200 ac 26 c4 bd 7c 52 a4 3d c5 bb 23 be 1f df 8c 3c
       -0.095776886 0.08023545 -0.15989597 0.017196236
000210 41 72 ad bc 9e 5c c0 3c 8f dc 43 3e 8d af cf 3e
       -0.021172645 0.023481663 0.19127105 0.40563622
000220 15 30 f2 bd c5 19 1f 3e b1 d2 05 be bf 8c 37 3d
       -0.11825577 0.15537174 -0.13068654 0.04481196
000230 dc 64 1b 3d 45 82 bd 3d 0d 72 4f bd 06 49 68 bd
       0.037937984 0.092533626 -0.050645877 -0.056710266
000240 07 f5 f4 bd 71 ef ab bd a7 23 a4 bd bc a5 d1 bd
       -0.11960798 -0.08395279 -0.08014613 -0.102366894
000250 ed 22 9f bd ec b7 35 be 14 7c aa bc 57 c2 b3 bd
       -0.077703334 -0.17745942 -0.020811118 -0.08777302
000260 dc 2f 02 be d6 f5 e7 bd aa e8 92 3c 00 05 63 3e
       -0.1271357 -0.11326186 0.017933208 0.22169876
000270 98 d1 2c 3d 26 c5 68 be 63 6c b1 3e a5 bf 33 be
       0.04219207 -0.22731456 0.34653005 -0.17553575
000280 a1 9d 14 bc f3 b5 f8 bd 2d fe 00 be f1 2f 1d 3e
       -0.009070785 -0.12144079 -0.1259696 0.1535032
000290 b2 25 b9 bd ec e9 3a 3d af 96 02 be 84 8f 94 3d
       -0.09040393 0.04563324 -0.12752794 0.07253936
0002a0 9a 69 4d bc 14 a4 fa bd 9b 0c 6a bd 4d 86 44 be
       -0.012537384 -0.12238327 -0.057140928 -0.19191857
0002b0 36 ce 8d be f1 85 25 be d3 68 d2 3d 85 1e d1 3c
       -0.2769639 -0.16164376 0.102739 0.025527248
0002c0 64 0c bb bd 89 90 75 3a 6e 20 bc bd cb 73 f2 bd
       -0.09133223 0.0009367546 -0.09185873 -0.11838492
0002d0 a4 43 41 3d f7 1a 0e 3d af 4c 1c 3e 35 7d de 3d
       0.047183648 0.034693684 0.15263627 0.10863725
0002e0 6d 66 17 3e 77 ae 11 3e 9e 30 9b bd 92 91 00 3e
       0.14785166 0.1422671 -0.07577632 0.1255553
0002f0 3f aa 56 3d 5f 19 bb 3d e3 12 6d 3c 14 1f fa bd
       0.052408453 0.091356985 0.014469835 -0.12212959
000300 97 b5 f1 3d 0a 66 f4 3d dc d3 4b bd 90 03 69 be
       0.11802214 0.11933525 -0.04976259 -0.22755265
000310 e9 cd bd bd 81 f6 fe bd 39 fc 1f be bd 68 19 bd
       -0.0926779 -0.12449361 -0.15623559 -0.0374534
000320 f8 e2 d1 3d 39 6c 14 be 18 f8 3b 3d 67 97 94 3d
       0.10248369 -0.14494409 0.045890898 0.0725544
000330 fa 41 03 3e 42 1f 0e 3e e7 4f a6 3c 91 34 12 3d
       0.12818137 0.13879111 0.020301772 0.035694662
000340 c8 8d cd 3d 17 b5 71 bd 04 d0 95 3e 45 f1 22 bd
       0.10036808 -0.05901059 0.29260266 -0.039780874
000350 1e 03 ab bd 7d bd b7 3c db 82 f3 bb ae 47 3d be
       -0.08350204 0.022429222 -0.0074313707 -0.18484375
000360 61 de 14 3e a9 02 ad 3d ff c5 21 3e 59 7f 97 3d
       0.14537956 0.08447773 0.15798186 0.073973365
000370 a6 3f 31 3c 38 23 a3 3d f3 01 10 3c 59 c7 e3 3d
       0.010818398 0.07965702 0.008789527 0.11122007
000380 0f 0d 86 3d 28 f4 09 bd 64 7d 49 bd 00 0f df 3d
       0.065454595 -0.03368011 -0.049191847 0.10891533
000390 70 7d f4 bc 74 9a dc 3d c5 93 fa 3c 83 28 44 3c
       -0.02984497 0.10771647 0.03058804 0.011972549
0003a0 63 0d e8 bc 97 24 f4 3b 94 0c 14 be d1 46 28 bd
       -0.028326696 0.007450651 -0.14457923 -0.04108316
0003b0 77 44 54 3d cf bc b2 bc 1e e4 ca 3d 99 c2 42 bc
       0.051823106 -0.021818547 0.09906791 -0.011887216
0003c0 05 73 d5 3d c0 65 52 3d bc 79 fa bd 6f f1 fe bc
       0.10422329 0.051366568 -0.1223025 -0.031120984
0003d0 b8 1d b4 3d ed 1b 31 bd 0c 51 e8 3d 37 70 d0 3e
       0.08794731 -0.043239523 0.113435835 0.40710613
0003e0 4e 14 e0 bc f9 80 bf bd 37 5d 2b 3d 95 8e 81 bd
       -0.027353432 -0.093507715 0.041836943 -0.063260235
0003f0 21 3f f8 3c f1 c4 29 3e fd 8e 20 3c 87 20 84 bc
       0.03030354 0.16579033 0.009799716 -0.016128791

gru.bias_ih_l0 f4 [384]
000000 93 57 36 3c 66 ed 39 bc 8a 39 23 bd 9a 52 d5 bd
       0.011129278 -0.011348104 -0.039849795 -0.104161456
000010 09 68 6d bd c5 dc 6e 3d 38 9c 20 3e 51 87 d6 bd
       -0.057960544 0.05831601 0.15684593 -0.10475028
000020 8c 0a e6 3d 1e 5f 8f 3d c4 d8 30 bd 78 69 b6 bb
       0.112324804 0.07000564 -0.043175474 -0.005566772
000030 ec 20 2b 3d 0e fc 0b bd 17 eb 44 be ae 71 62 3d
       0.041779444 -0.034175925 -0.19230305 0.055284195
000040 90 12 53 be a5 3f 96 bd 0e 82 ac bc a2 b2 07 be
       -0.2061255 -0.07336358 -0.021058109 -0.13251737
000050 3e e4 98 3d 98 96 be 3c a3 ff ef bd 3d f1 8e 3c
       0.07465409 0.023265168 -0.11718681 0.017449016
000060 7f 0f ac bd a7 fc 9b bb 3e 35 db 3c b3 47 6e bc
       -0.08401393 -0.004760343 0.026758786 -0.014543462
000070 c1 78 24 bd a8 a1 e3 bd ed f1 2b 3d aa a0 9a 3c
       -0.040154222 -0.11114818 0.041978765 0.018875439
000080 84 dd f3 3c 1f 06 9c 3c 68 ea f8 bd 87 88 61 bd
       0.029768713 0.019045888 -0.121540844 -0.055061843
000090 86 d2 b9 bc e2 0f 39 3d c5 47 07 bc d6 a4 dc bd
       -0.022683393 0.045181163 -0.008256857 -0.107736275
0000a0 6e 26 b2 bd df df 97 3c 4e 7d d9 bd a2 ab 09 be
       -0.08698736 0.018539367 -0.10619603 -0.13444379
0000b0 07 37 cf 3d 35 05 f1 bd 7b 86 e5 3d be d0 c6 bd
       0.101179175 -0.11768571 0.11207291 -0.09707783
0000c0 76 9d 30 be 43 23 5c bd 9f e9 99 bd 83 57 89 3c
       -0.17247567 -0.053744566 -0.07515263 0.016765362
0000d0 d3 8c c4 bd 19 80 f3 bc 1d f6 cb 3b f5 a2 85 bd
       -0.095971726 -0.029724168 0.0062244073 -0.06525222
0000e0 8e f1 b8 3d ef 96 f3 3d b8 75 a6 bd 38 57 f2 3d
       0.09030448 0.11894023 -0.08127922 0.11833042
0000f0 45 68 00 be dc 0c f2 3c c0 79 97 3d b5 97 14 bd
       -0.12539776 0.029547147 0.07396269 -0.03627749
000100 94 db 01 be 4e c1 a9 bd 24 08 65 bc 68 2e 7d 3d
       -0.12681419 -0.08288823 -0.013978992 0.061811835
000110 b9 46 a3 bd ee dc 0e 3d 22 99 06 bd ca 86 59 bd
       -0.07972474 0.034878664 -0.032860883 -0.05310706
000120 49 6b 82 bd 68 1e 35 bb 79 9f 45 be b1 a4 62 bd
       -0.06368119 -0.0027636532 -0.19299115 -0.055332843
000130 c6 1b 0b 3d bf e5 8d bd d8 ee ce bd 75 7e 8d bd
       0.033962034 -0.06928586 -0.101041496 -0.069088854
000140 b0 0d 33 bd 28 7c b9 bd 13 a4 7d 3c f0 8c 90 bd
       -0.043714225 -0.09056884 0.015481013 -0.07058132
000150 8d 0d 3c bc e6 a0 9e bc 55 14 83 3b 18 46 c9 bb
       -0.01147784 -0.019363832 0.0040002265 -0.006142389
000160 0a 71 9f bc cb 86 14 3d f9 68 9f bb 2f fe ab bd
       -0.01946308 0.03626136 -0.0048648086 -0.08398091
000170 fa 8d 7f bd fe 43 d1 bc c2 37 80 bd 1d d2 fa bd
       -0.06239126 -0.025545117 -0.06260635 -0.12247107
000180 f9 37 81 bd 3c 5f 43 bd bb 55 ea bc e5 9d 1d be
       -0.06309504 -0.047698244 -0.028605333 -0.15392263
000190 5f 74 53 bc 34 e3 37 bd c0 de 0d be eb 27 f7 bc
       -0.012906163 -0.044894412 -0.13854504 -0.030170402
0001a0 06 71 cc 3c 7a bb d6 bd 4e 72 3d 3e d4 52 e3 bd
       0.024956238 -0.10484977 0.18500635 -0.110997826
0001b0 b6 bc aa 3d a0 a6 22 be d3 7a 02 3d 4b ea 23 bb
       0.08336775 -0.15883875 0.031855416 -0.0025011476
0001c0 96 76 80 bd a0 d1 2e bc af 4e 08 be 6e 12 20 bd
       -0.062726185 -0.010670096 -0.13311265 -0.039080076
0001d0 95 82 01 be 63 ce 7c 3c 80 4c 03 be bb 3a d4 bd
       -0.1264747 0.015430066 -0.12822151 -0.103627644
0001e0 49 bc d0 3d 2e 7b 3c bd 99 7a 0f 3d 5d 0d fa bd
       0.101921625 -0.04601591 0.035029028 -0.1220958
0001f0 14 dc e5 bd d0 11 ba bd f3 1a 8a bd 8f 2a f4 bd
       -0.11223617 -0.09085429 -0.067434214 -0.1192218
000200 c1 1f 75 3e 98 f0 56 be c8 77 44 3e ae e3 aa be
       0.23937894 -0.20990217 0.19186318 -0.3337683
000210 0c 6e a0 3d e2 d5 66 3d 59 73 81 3d ac a7 c2 3e
       0.0783349 0.05635632 0.06320829 0.38018548
000220 34 20 8b bc 49 f9 73 3d 6f 8c 10 3e 1a 6b 35 3e
       -0.01698313 0.05956391 0.14116071 0.17716637
000230 fb 79 3c 3d 34 2d 72 3d ec 6a 9d 3d 2b 72 14 3e
       0.046014767 0.05912514 0.07686409 0.14496677
000240 73 68 1f be 7d 37 46 3e d0 33 0a bd d8 24 3c 3e
       -0.15567188 0.19357105 -0.03374082 0.1837343
000250 98 37 35 bd 1a 87 74 bb ba 63 79 3d c4 3e 39 be
       -0.04424247 -0.0037311972 0.060886122 -0.1809035
000260 ef ef 89 3e b4 ee 64 3e 0c a6 2e 3e 02 4b e5 3d
       0.26940867 0.22356683 0.1705553 0.11195947
000270 b9 e4 28 be 58 92 4f 3e 37 bf a3 3e d7 59 3b 3c
       -0.16493501 0.2027067 0.31981823 0.011434994
000280 ec 53 39 be 84 1a 86 3e 23 1a 09 3e 67 ee 7a bd
       -0.1809842 0.26192105 0.13388877 -0.061262514
000290 a0 61 a9 3e 1a 9a 16 3e 2a 65 b6 3d d9 b1 51 3e
       0.33082294 0.14707223 0.08906014 0.20478
0002a0 98 02 3c 3d 1d dd a4 3e 44 7d d0 3d ad 20 84 bd
       0.04590091 0.32199946 0.101801425 -0.06451545
0002b0 b2 c9 02 bd a9 26 ec bc 28 6e f0 3d 4e d0 9a 3c
       -0.031930633 -0.028827028 0.11739761 0.018898156
0002c0 07 f0 90 be 89 6d 99 3e 00 09 c7 3e 8d bc 0c 3e
       -0.28308126 0.2996638 0.38874054 0.13743801
0002d0 68 6a e1 3e ed 1f 91 3d 59 fb 70 3e 7a 4d b1 bd
       0.44026494 0.070861675 0.23533382 -0.086573556
0002e0 f7 98 90 3e 3f 92 31 bc 42 ae 44 3e 78 78 92 bd
       0.28241703 -0.01083809 0.19207099 -0.07151884
0002f0 dc c8 8c 3e bc af 36 3d 36 9f e4 3d 29 50 72 bd
       0.27496994 0.044601187 0.111631796 -0.059158478
000300 ba eb ed bd e0 4d b1 bd 41 12 a2 be 28 62 fa bd
       -0.11617227 -0.086574316 -0.31654552 -0.12225753
000310 1e f3 25 3e 95 94 98 3e d0 4d 03 be ec c7 90 3e
       0.16206023 0.2980086 -0.12822652 0.28277528
000320 76 e7 35 3e 37 16 75 3d 77 73 c5 3d 51 01 ab 3d
       0.17764077 0.05983564 0.09641164 0.083498605
000330 1e c3 81 be 23 0e 8c 3d 81 4e 00 3e 0c 10 c1 3c
       -0.25344175 0.06838634 0.12529947 0.023567222
000340 9c 59 10 3c 9c a0 31 be 6e e7 68 3e 8a 04 d0 be
       0.008810427 -0.17346424 0.22744533 -0.40628463
000350 38 82 e2 3d 72 4c c3 bd 7e 47 7e 3e ff 38 4f 3e
       0.110599935 -0.09536065 0.2483196 0.20236586
000360 3c 91 03 be 77 39 4a 3d f0 71 c5 3d 40 a7 7b be
       -0.12848371 0.04937121 0.096408725 -0.2457552
000370 45 30 43 3e 57 14 61 3d 75 f7 48 3e da e4 0a 3e
       0.19061382 0.05495104 0.19625647 0.13563862
000380 3e 22 32 be 31 16 ee bd ce e6 c9 bd 96 07 f1 3d
       -0.17395875 -0.116253264 -0.098584756 0.11769025
000390 03 2e 38 3d 41 67 b8 bd e5 a2 e2 3d f9 fb 8a 3e
       0.044965755 -0.09004069 0.11066226 0.27145365
0003a0 e5 61 44 3e 8b bc 54 3e 1c ec 25 be 99 33 02 3e
       0.19177969 0.20775048 -0.1620335 0.12714995
0003b0 96 6b 09 3e 26 4f dd bd 26 ab 88 3c 0c 54 1d 3e
       0.13419947 -0.10806112 0.016683172 0.15364093
0003c0 0d 3c 1a 3e fa d4 a3 3e d6 5f 8b be f2 86 45 3d
       0.1506197 0.31998426 -0.27221555 0.048224397
0003d0 4c 2d 9f 3e 67 0d b6 3e 94 94 a2 bd 34 ce f6 3d
       0.31089246 0.355571 -0.07938495 0.12051049
0003e0 5e 44 1d 3e 5e be 36 be 0b 41 8a 3e a4 f0 33 3e
       0.15358111 -0.17846057 0.2700275 0.17572266
0003f0 9b 8d 82 3e b0 a7 1f bd 61 5b 6e 3e da 9b 56 3e
       0.2549866 -0.03897828 0.23277046 0.2095789

gru.bias_hh_l0 f4 [384]
000000 a2 ed d1 3c 91 3f 01 be 86 8a 67 bd c7 9a 88 bd
       0.025626007 -0.12621905 -0.05652859 -0.066701464
000010 29 01 82 bd 12 1e 08 3c 5a 90 16 3e e2 5e 80 be
       -0.063478775 0.008307951 0.14703503 -0.2507239
000020 a4 06 e7 3d 2e 49 6e 3d 63 5a 97 bd f9 fa 27 3d
       0.112805635 0.05817526 -0.07390287 0.04101083
000030 80 e5 2d bd a8 fd 37 bc b9 6b 6d be ae b0 06 3e
       -0.042455196 -0.01122991 -0.23185624 0.13153335
000040 76 07 b3 bd d3 95 0c 3d a6 e5 c0 bb b8 e3 0b 3b
       -0.087416574 0.03432257 -0.005886751 0.0021345448
000050 03 17 08 bd e8 15 58 bd 2b 33 1f bd d0 ec 27 bd
       -0.03322507 -0.052755266 -0.038867157 -0.040997326
000060 f1 7b 9d bb c8 0c 05 3b 18 a3 d9 bd 5b 4c 90 3d
       -0.0048060347 0.0020301808 -0.10626811 0.07045814
000070 df 23 8a bd a0 7d f8 bd 4d 00 0e 3d b6 ba f6 bd
       -0.06745123 -0.12133336 0.034668256 -0.12047331
000080 30 db c2 bd 45 dc 59 3d b3 d3 a9 3c bb 23 86 3b
       -0.09514463 0.05318858 0.020730829 0.004093615
000090 1f 9d e2 bd 0b ac b3 3c 89 9c 51 3d 23 af 49 be
       -0.11065125 0.021932622 0.051174674 -0.19695716
0000a0 89 94 41 be 5f 9f e0 bd 91 5d 87 3b b3 53 6f bc
       -0.18904318 -0.109678976 0.004131027 -0.014607358
0000b0 5c 3a bd bc 64 df 63 bd 1a 5b f5 3c 32 57 2d be
       -0.023099117 -0.055632964 0.029950667 -0.16927794
0000c0 87 e8 43 be 06 69 c9 b7 f2 d6 ed bd 1f 1a 25 3e
       -0.19131671 -2.4009973e-05 -0.11613263 0.16123246
0000d0 04 1b e0 bc 2d ea 4f bd 53 5c 93 3d a8 b6 ba bd
       -0.027356632 -0.050760437 0.07195344 -0.0911687
0000e0 f9 aa 83 3d fa 5e 55 3d 96 b5 b8 bd a8 e0 0a bc
       0.06429095 0.05209253 -0.0901901 -0.008476414
0000f0 5a 12 61 bd cf 38 94 3d 7c 3f 0a bd e5 7e 65 3d
       -0.054949142 0.07237398 -0.03375195 0.05602922
000100 e6 87 17 be a1 b4 af 3c da cd 28 be 34 50 a1 bc
       -0.14797935 0.021448435 -0.16484776 -0.019691564
000110 6a 49 6d 3c 8c ec de bd a8 f1 62 bd 58 53 92 bd
       0.014482835 -0.108849615 -0.055406243 -0.07144803
000120 65 8e 5d bd e5 63 df bd a1 33 8d be c1 39 2f bc
       -0.054090876 -0.10907725 -0.27578452 -0.010694922
000130 0f ee 83 3c bd 3e d0 bd 71 55 34 3d fb cb a5 bd
       0.016104726 -0.101682164 0.044026796 -0.08095547
000140 f5 75 61 bd 5a 06 e6 bd 37 41 ee bd cf f1 89 bd
       -0.055044133 -0.1123168 -0.116335325 -0.067355745
000150 dd ff a4 3c fb 20 d7 bc 5c 71 b9 39 51 ff 92 3b
       0.020141536 -0.026260844 0.0003537041 0.0044860025
000160 23 47 a8 bd f0 26 bf 3d e4 48 0e bd fe 69 35 be
       -0.08216693 0.093335986 -0.034737483 -0.17716214
000170 ba 50 2e bd 1d 70 61 bd 48 07 52 bd 37 28 cf 3c
       -0.042557456 -0.05503856 -0.051276475 0.02528773
000180 6f 1c 9f bc 43 0a 1b bc b5 ba 87 3b 5d 66 de bc
       -0.019422738 -0.009462896 0.0041421303 -0.02714842
000190 6c ef 2f 3d 72 dc 6c bd 34 f7 8a 3b e0 70 b6 3d
       0.04295294 -0.05782742 0.0042408947 0.08908248
0001a0 54 b9 d7 bc 16 a5 f8 bd b0 d8 28 3e 3e 3f d1 bd
       -0.026333489 -0.12140863 0.1648891 -0.102171406
0001b0 3c 00 d0 3d a8 13 2a bd de 1b 0e 3e 41 ad 13 3e
       0.10156295 -0.041522652 0.13877818 0.1442156
0001c0 49 61 c8 bd 22 0c 21 be 2b 1f a3 bd 35 12 d4 bd
       -0.09784181 -0.15727285 -0.07964929 -0.10355035
0001d0 d7 69 27 bd d5 c1 a2 bd a3 77 93 bd d4 21 4b bd
       -0.04087242 -0.07947127 -0.07200553 -0.049592808
0001e0 64 e5 cd bb ac 66 68 bd 43 0a 04 bd 2a f5 69 bd
       -0.006283449 -0.05673854 -0.03223635 -0.057118572
0001f0 be 5a 9b 3c 18 db 3c bd 17 38 12 be da 0a 77 bd
       0.018964168 -0.04610738 -0.14279209 -0.060313083
000200 79 92 86 3e 07 42 f4 bd eb 10 4a 3e 32 2d 50 be
       0.26283625 -0.11926656 0.19733016 -0.2032974
000210 a6 07 4e 3c db ee 20 bd 7d ef b4 bb 67 7d 69 3e
       0.012575066 -0.03929029 -0.0055217133 0.22801743
000220 1b 51 1d bd d9 aa 9f bd 14 72 a9 3d 89 37 30 3e
       -0.038407426 -0.077962585 0.08273712 0.17208685
000230 69 a9 ae 3c 13 95 86 ba 47 74 c4 bc c4 e0 b5 3d
       0.021321015 -0.0010267816 -0.023981227 0.08880761
000240 4f 32 4f be e5 81 47 3e 6f 17 86 3d 28 cc 15 3e
       -0.20234035 0.19483145 0.06547438 0.1462866
000250 95 d6 5a be a6 1f e7 3d 14 40 bc 3c 41 33 db bd
       -0.21370919 0.11285333 0.022979774 -0.10703135
000260 22 11 2f 3e 2f ae 83 3e 6e a2 3d 3e 95 ca 46 3e
       0.1709638 0.2571883 0.18518993 0.19413216
000270 72 bb 35 be a9 d7 4a 3e 4c 9a 7f 3e 85 0a ef 3d
       -0.17747286 0.1980883 0.24961203 0.11671928
000280 bf 69 2e be 4d b0 26 3e f8 3a 1e 3e cd 93 44 3c
       -0.17032526 0.16278191 0.15452182 0.011998129
000290 89 9b a8 3e 57 68 11 3e 5b 4e 27 3d 86 61 8a 3e
       0.32931164 0.14199959 0.04084621 0.2702753
0002a0 09 ea 48 3d d5 55 86 3e 58 a5 f1 3d 19 77 ea bd
       0.04905132 0.2623736 0.11799115 -0.11448497
0002b0 5c 8d 9f 3d eb 10 a1 bb 20 89 ef 3d 88 aa 8e bd
       0.07790634 -0.004915347 0.116960764 -0.0696612
0002c0 a5 86 a8 be bd 77 ba 3e 56 d5 8b 3e ed af 80 3d
       -0.32915226 0.36419478 0.273112 0.06283555
0002d0 3d 2e c4 3e 74 30 d4 3d 25 20 96 3e 4e 95 0a bd
       0.38316527 0.10360804 0.293214 -0.033833794
0002e0 1e ac 3f 3e d9 ce 89 3d bd e6 7c 3e 12 0e 81 bd
       0.18718001 0.06728906 0.24697395 -0.06301512
0002f0 78 d6 81 3e 2b cc 16 bc 8c 03 d4 bc a4 d9 dc bd
       0.2535894 -0.009203951 -0.025880598 -0.10783699
000300 8e 4c 02 be 70 87 91 b9 0f d5 9c be 78 0d bc bc
       -0.12724516 -0.00027757464 -0.306313 -0.022955641
000310 b6 81 38 3e 57 ba 97 3e b7 fe e3 bd 24 85 ad 3e
       0.18018231 0.29634354 -0.111325674 0.3389064
000320 9b 97 22 3e 20 8c 09 bd e2 2f 31 bd 18 79 f4 3d
       0.15878145 -0.0335809 -0.043258555 0.11937159
000330 bc 36 42 be ea 78 a5 bc df 02 f8 3d 40 37 95 3d
       -0.18966192 -0.020199258 0.121099226 0.07285929
000340 cf 45 98 3d 2f 41 8e bd b3 85 0d 3e 51 21 a1 be
       0.0743519 -0.069460265 0.13820533 -0.3147073
000350 2f e5 c2 3d a9 54 26 bd 13 f8 c4 3d 45 f5 86 3e
       0.095163696 -0.040608082 0.09617629 0.26359
000360 d4 c0 5d bd 7c 96 42 3e 1f de 4c 3d e8 a1 3f be
       -0.054138973 0.19002718 0.05001652 -0.18714106
000370 44 1a 08 3d 13 23 c5 3d bc 51 fa 3d e4 51 3a 3e
       0.033228174 0.096258305 0.12222621 0.18195301
000380 27 2a 61 be a7 e9 e2 bd c6 c5 2b be 79 b6 47 3d
       -0.21988736 -0.11079722 -0.16774663 0.048758004
000390 d0 48 26 3e 0b 04 98 bc 8e 35 18 3e 92 ad 26 3e
       0.16238713 -0.018556615 0.1486418 0.1627715
0003a0 6b be f3 3d e0 c4 35 3e 5f ab 10 be 1b b7 5b 3e
       0.11901554 0.17750883 -0.14127873 0.21456568
0003b0 50 a6 44 3e ea 81 05 ba ab 9f 14 bc d0 4c 84 3b
       0.19204068 -0.0005092906 -0.009071271 0.004037477
0003c0 f9 07 f1 3d aa 6a 36 3e 85 61 05 be d3 a6 0b 3e
       0.11769099 0.17814127 -0.13025482 0.13637857
0003d0 13 47 b8 3e c7 88 cb 3e 1e ff bc bd 20 8b 6d 3e
       0.35991725 0.3975279 -0.09228347 0.23197603
0003e0 0e f8 07 3e 1d ea 9c be c9 9f b1 3e 95 05 7c 3e
       0.13278219 -0.30647364 0.3469222 0.24611504
0003f0 77 53 9a 3e 2b 96 3e 3d d7 a2 73 3e 30 d7 1b 3e
       0.30141804 0.04652993 0.23792587 0.15218806

gru.weight_ih_l1 f4 [384, 128]
000000 09 7f 42 3d 26 bc 55 bd 8f f6 37 bd f1 48 d8 bd
       0.04748443 -0.052181385 -0.04491287 -0.105607875
000010 2f 3b a0 3d fd 52 34 3d 77 d6 89 3d e6 8b 56 3e
       0.078237884 0.044024456 0.06730359 0.20951805
000020 64 08 21 be 83 2a b9 3d 60 55 2a bc fa 3a 33 3d
       -0.15725857 0.090413116 -0.010396332 0.043757416
000030 5a 19 21 3d 0b 61 df 3d f6 54 ba 3c ec c2 7f bd
       0.039330818 0.10907181 0.02274559 -0.06244175
000040 55 a5 09 be 7b 2f e0 bd cf 0e 9e bd 84 ab dc bd
       -0.13441975 -0.10946556 -0.07717668 -0.107749015
000050 e3 8d 9d ba 8b aa 7a bc fd ed 9a 3c 01 c9 e2 3a
       -0.0012020435 -0.01529945 0.01891231 0.0017302335
000060 a3 b5 92 bd 90 10 e4 bc 70 ec e3 bd 85 4e 46 3e
       -0.07163551 -0.027839929 -0.11129081 0.1936589
000070 b4 ac 3e bd a9 1c 0f be fc 05 7b bc 22 b3 47 bd
       -0.04655142 -0.13975777 -0.015321251 -0.04875482
000080 ee 2c 93 3c 2b 51 a9 bd 59 24 84 3c 87 e4 c0 3d
       0.01796576 -0.08267435 0.016130613 0.09418588
000090 58 d3 94 3c c7 5a 0c be e5 bb 84 bd 79 3d 64 bd
       0.018167183 -0.13706504 -0.064811505 -0.055722687
0000a0 2c c3 dc 3d e9 13 ae bd ee b5 16 3d ec 09 c4 bb
       0.107794136 -0.08499891 0.036794595 -0.005982628
0000b0 2a e7 a7 3c 85 55 fb bd 35 b0 12 3e 09 3f e5 3c
       0.02049597 -0.12272171 0.1432503 0.027984159
0000c0 19 e9 19 be c0 85 17 3d 3d 4a 90 bc 5c 0e db bd
       -0.15030326 0.03699279 -0.017613525 -0.10696098
0000d0 97 5d c0 bc 0c 43 ea 3d f5 54 f6 3d 26 dd fb 3c
       -0.023482127 0.114385694 0.12027923 0.0307451
0000e0 ab 8f 41 3c 50 bf 16 3c ff d0 c8 bd 0e ef bc 3d
       0.011814038 0.009200886 -0.09805488 0.092252836
0000f0 be 3b 11 bc 1a 07 2f 3d 8a 78 d2 3b 3e 77 44 3d
       -0.008864341 0.042731382 0.006423061 0.04796528
000100 e5 5b 01 3d b3 5b 86 3d ae f1 39 bd f2 a0 e0 bd
       0.031581778 0.06560459 -0.0453965 -0.10968198
000110 04 fb 85 bc f8 6a f8 bd 49 6e 87 3d df c3 76 3d
       -0.016355045 -0.12129778 0.06612832 0.06024539
000120 b8 11 18 3d e6 99 cc 3b 24 da 7e 3d 30 7f dc 3c
       0.037126273 0.006243932 0.062219754 0.026916116
000130 ab cb 8f 3c b6 b4 46 3d e8 64 a3 3d d2 6f 8e bd
       0.017553171 0.048512183 0.07978231 -0.06954922
000140 88 37 a1 3d 33 04 66 bc 05 ba 6a bb 0f b1 61 3e
       0.0787192 -0.014039087 -0.0035816443 0.22040199
000150 85 f6 db bd ea d1 6e 3c 96 ff 6a 3d ca 2e bc bd
       -0.10740379 0.014576415 0.057372652 -0.09188612
000160 cb ff 34 bd ba d8 5a 3d 3b 62 c3 3c e3 72 2d 3d
       -0.044189256 0.053429343 0.02385055 0.042345893
000170 6b 94 2e bd 96 b3 8c bc e3 34 12 be c7 01 9b 3d
       -0.04262201 -0.017175477 -0.14277987 0.075686984
000180 54 1c e5 bc 8d f7 44 3d de 48 46 3d b0 13 d5 3d
       -0.02796761 0.048087645 0.048409335 0.10404146
000190 f6 7a 8e 3d 87 83 d3 bc 70 36 be bd bf ef 98 3b
       0.06957047 -0.025819553 -0.09287727 0.004667252
0001a0 60 e6 cf 3c c3 9a ce bc c3 c8 8e bd aa 5b b5 3d
       0.025378406 -0.02522028 -0.06971886 0.08855374
0001b0 8a 09 42 3d 30 88 b1 bb 3a 1e 24 3d 88 49 12 3e
       0.04737238 -0.005417846 0.04006789 0.14285862
0001c0 e0 72 9a 3d c7 22 ef bd 7a e7 18 3c 20 26 e9 bc
       0.07541442 -0.11676555 0.009332532 -0.028460562
0001d0 b3 ef d2 3d 37 29 14 bd ef ba 6d 3d b2 8c 61 3d
       0.10299625 -0.036172118 0.058039602 0.055065818
0001e0 1d 27 fd 3b ed 3d 98 bd 26 0e 19 bd 65 d4 f3 bd
       0.00772561 -0.074336864 -0.03736701 -0.119057454
0001f0 f7 a0 e5 bd 57 45 79 3d 6b 1e 53 bd 0c 75 ab bc
       -0.11212342 0.060857143 -0.05154268 -0.020929836
000200 74 0f 15 bd 3d 95 0e be 18 43 48 be 0c e4 a5 bd
       -0.03639169 -0.13924117 -0.19556844 -0.08100137
000210 e2 a4 11 3e 86 f1 dd 3d 45 bf 91 3d 3d 57 05 3d
       0.14223054 0.108370826 0.0711656 0.0325539
000220 8b 52 24 bc d6 b0 33 3d f0 41 94 bc 99 51 8a 3b
       -0.010029445 0.043869816 -0.018097848 0.004221153
000230 db 7e 35 3c c4 a5 84 bd fe b3 91 3d bf 50 99 bd
       0.011077608 -0.0647693 0.07114409 -0.07486104
000240 a2 15 02 3d eb 33 e3 bd 17 cf 97 bd f7 ea b9 3c
       0.031758912 -0.11093887 -0.07412546 0.022695048
000250 92 5f a1 bc 81 f6 9a bd b1 3c 60 bc 7f 2a e3 3d
       -0.019698892 -0.07566548 -0.013686345 0.1109209
000260 a5 da 29 3c e5 09 f4 bc 9f 69 65 3d 35 99 9b 3b
       0.01036707 -0.029789874 0.05600893 0.0047484883
000270 e3 41 24 3d 12 27 d9 bd 2c 45 0c 3e 81 c9 46 bd
       0.040101897 -0.10603155 0.13698262 -0.048532013
000280 de ac f8 b9 3e 15 b6 bd fb c4 b8 bc ef 50 95 3c
       -0.00047431042 -0.088907704 -0.022554865 0.018227069
000290 d9 14 e6 bd 19 c1 29 bb f8 1f d2 bd ae da a8 bc
       -0.11234445 -0.0025902449 -0.10260004 -0.020612087
0002a0 1e ef 64 bd eb 3f ad bd 71 43 15 3d 74 08 7b bd
       -0.055892102 -0.08459457 0.03644127 -0.06128736
0002b0 db 04 12 3c d5 59 47 ba 24 db b3 3d 43 3b ae 3c
       0.00891229 -0.00076046336 0.08782032 0.021268493
0002c0 e0 31 ca bd 31 c3 4a 3c aa b1 1a bd 28 40 0c be
       -0.09872794 0.012375639 -0.03776709 -0.13696349
0002d0 dc bd 54 bd fd be 3d bd 09 a7 c7 3d 72 42 01 3e
       -0.051938877 -0.04632472 0.09748656 0.12623003
0002e0 68 fd 7d 3d 2f ab 1d 3e 75 a2 80 bc 6e 8a 92 3d
       0.062009245 0.15397333 -0.015702466 0.071553096
0002f0 9d 59 63 bd 8a 6f d5 3d 1a e7 a1 bd 08 a2 f9 3c
       -0.055505384 0.10421665 -0.07905407 0.03047277
000300 ea 1f d0 3d 66 a3 d7 bc 2d d9 d0 3c a7 02 f0 bd
       0.10162337 -0.026323032 0.025494182 -0.11719256
000310 07 b5 62 bb 35 fb 49 3b 5b 5d 9a 3c a9 81 b7 3d
       -0.0034592764 0.0030819897 0.018843343 0.089602776
000320 d2 a4 17 3e 02 5a 23 bc cf 3a 77 bd 6b fa ab bd
       0.14808968 -0.00997019 -0.06035882 -0.08397373
000330 86 61 2b bd 83 0e 24 bd f4 48 17 bd cb 71 c6 bd
       -0.041841052 -0.040052902 -0.036934808 -0.09689673
000340 e6 14 e8 3d 06 be a1 3c 84 e5 5b 3d 1b ad 57 3d
       0.11332111 0.01974393 0.05368568 0.05265532
000350 0d 86 5e 3c 8a 82 c7 bc ce bf da 3c 57 4a ad bd
       0.013581765 -0.024354238 0.026702788 -0.08461445
000360 a3 0c ba ba 0a 47 33 3d e9 3a d2 3d 14 a3 3a bd
       -0.001419444 0.04376892 0.102651425 -0.04556568
000370 d2 7c 49 bd ac 98 c8 3d ee 08 8c bd fb 39 02 3d
       -0.049191304 0.09794745 -0.06837641 0.031793576
000380 f7 d5 ca bc 34 a3 9d bd ad 31 39 3c 44 00 8b 3c
       -0.02476023 -0.07697144 0.011303348 0.0169679
000390 c2 27 19 3d 2e e7 78 3c cf 5d eb bd 25 3a aa 3d
       0.03739143 0.015191836 -0.11492502 0.083118714
0003a0 f7 57 3a bc 12 e2 a2 3c 06 16 81 bd 02 21 a5 3c
       -0.0113735115 0.01988319 -0.06303029 0.02015734
0003b0 f5 7d 09 bc 48 88 c0 bd 74 a4 c4 3c 65 df a7 3d
       -0.008391847 -0.094009936 0.024004199 0.08196906
0003c0 db 15 28 3d 71 56 85 bd c2 30 df bd f7 b0 bb bc
       0.041036468 -0.06510628 -0.10897972 -0.022911532
0003d0 e3 01 c2 3d 28 44 a9 3b 5c a1 55 3b 5b 85 17 bc
       0.09473016 0.0051655956 0.0032597398 -0.009248103
0003e0 56 8f 3a 3d a5 50 87 bd 98 ec 41 3c d8 89 cc bd
       0.045546852 -0.066071786 0.0118361935 -0.09987229
0003f0 0e 37 9d bd 4c 5f d1 3d e8 5d 28 bd 97 0e 69 3d
       -0.076765165 0.102232546 -0.04110518 0.05689868

gru.weight_hh_l1 f4 [384, 128]
000000 65 82 60 bd e7 c9 08 3c e1 ea 1b 3e 76 5d 1c 3e
       -0.054811854 0.0083489185 0.15226318 0.15270028
000010 12 97 a6 bd 50 2c e7 3d b4 62 eb bd 6c 4f ce bd
       -0.08134283 0.11287749 -0.114934355 -0.10073742
000020 39 72 f6 3a 84 84 f9 bc 8e e3 cb 3d 59 7c da 3c
       0.0018802352 -0.030458696 0.09955512 0.026670622
000030 3f 3d 8b 3b a5 a8 bc 3d 78 06 4c bd 21 b7 a0 bb
       0.0042492445 0.09211854 -0.049810857 -0.004904643
000040 da 84 fc bd ad 4a 07 be 03 43 0d 3e 8e 3d 6a bd
       -0.12330027 -0.1321208 0.13795094 -0.05718761
000050 f4 cb ef 3d b2 67 99 bd e5 4c 48 bd e9 ec 09 be
       0.11708823 -0.074904814 -0.048901457 -0.1346928
000060 bc 5c db 3d f2 19 4e bd a7 c9 15 bc 6a 03 9c 3d
       0.10711047 -0.050317712 -0.009142316 0.07617839
000070 37 6d d5 bc 7f f2 cd 3d 55 09 1c 3c c9 0d 83 3d
       -0.026053054 0.10056018 0.009523709 0.06399114
000080 23 8a 84 3b e0 22 d2 bd a5 01 a3 bc 3e 06 1b 3d
       0.0040447875 -0.10260558 -0.019898245 0.03784775
000090 00 4c d2 3c 34 57 a8 3c 15 89 af bd 88 1d 03 3e
       0.025671005 0.020549394 -0.08571068 0.12804234
0000a0 d8 0a 90 3c 4e 16 8e bc a8 f8 ff 3d 79 fa b1 3d
       0.017583296 -0.01734462 0.12498599 0.08690352
0000b0 91 cf e0 bd 40 df 01 3e 49 d0 a2 bd 9e 39 d3 3d
       -0.1097709 0.1268282 -0.079498835 0.10313724
0000c0 a3 f7 f8 3d a7 be 6b bd 34 4b dc 3b fb 58 cf ba
       0.12156608 -0.057554867 0.006722832 -0.0015819365
0000d0 e6 1a 3d bd e9 38 b8 3d de d6 b2 bd c5 b4 bf bc
       -0.04616823 0.0899523 -0.08732389 -0.023401627
0000e0 7a 9f 37 3d 5c 0b 48 3c b2 4d 06 be bf 6c 22 3d
       0.044829823 0.01220974 -0.13115576 0.03965449
0000f0 9e e9 bf 3c 58 bf 01 3e 92 4c af 3d 61 f6 b2 3d
       0.023426827 0.12670648 0.085595265 0.08738399
000100 e8 a8 43 bd 40 16 5c 3c 99 05 c3 bd 7a 5b f4 3d
       -0.047768503 0.013433039 -0.09522552 0.1193151
000110 f5 00 ca bd c4 18 ef bc d5 71 f2 3d ad 38 2a bc
       -0.09863464 -0.029186614 0.11838118 -0.010389489
000120 c0 48 fe bb 12 48 f5 3d b7 9c 00 be 09 91 f2 3d
       -0.0077601373 0.11976637 -0.12559782 0.118440695
000130 34 18 9b bc 3b d1 4a bd 47 2f 78 ba 61 5c b1 bd
       -0.01893244 -0.049515944 -0.0009467494 -0.08660198
000140 6e 9d 25 3e fe 0d 09 3d be 3c 71 3c e2 5f f9 bb
       0.16173336 0.03346061 0.014723955 -0.007610307
000150 c9 db 10 be d1 08 ae bd 0a 16 02 3e c4 f7 bb bc
       -0.14146341 -0.08497775 0.1270372 -0.022945292
000160 4f c0 0c be 82 3d 9f 3d 31 4d cd bd 8c 92 06 be
       -0.13745235 0.077754036 -0.10024489 -0.1314184
000170 f5 b5 d3 3a 61 75 f0 3c aa c5 da bc 78 71 99 3c
       0.001615225 0.029352846 -0.026705582 0.018730864
000180 6f 09 37 bd 2c d0 48 bc 71 b2 8a bc 46 d9 07 3d
       -0.04468673 -0.012256663 -0.01693079 0.033166192
000190 7a e5 20 3d 3a 85 1d 3d c1 82 1a 3c 16 ba b0 bb
       0.039281346 0.038457133 0.009430588 -0.005393277
0001a0 1e d2 ff bd 40 5e 0d bd 8e d8 0e 3d 55 9c aa 3c
       -0.124912485 -0.034513712 0.03487449 0.020826498
0001b0 2e 5a a4 bd 1e 17 ca 3d 32 33 2b 3d 41 b3 c1 3d
       -0.08025013 0.098676905 0.04179687 0.09458018
0001c0 4f 47 92 bb 41 91 26 bd a4 75 c7 3d cc 29 d6 3d
       -0.004464067 -0.04066587 0.09739235 0.10457191
0001d0 ee 9b 9d 3c 9a 3d a4 bd e5 00 99 bd 29 13 c9 3d
       0.019239392 -0.08019562 -0.07470874 0.09818108
0001e0 7e db f2 bd f9 4f 7d 3c ca 5d 25 3d 31 05 9a 3d
       -0.11858271 0.0154609615 0.040372647 0.075205214
0001f0 c9 c7 a8 bc 6f a8 c4 3c 9d a2 be 3b d6 4e 61 ba
       -0.020603077 0.024006097 0.005817725 -0.00085948163
000200 69 cd e3 bd 6a 89 81 bd ce eb 2a bc 60 cd 29 bb
       -0.11123163 -0.06325038 -0.010432197 -0.0025909767
000210 e2 ba 03 bd bd b6 d8 3d 81 a0 e7 bd 56 b4 a1 bd
       -0.032160647 0.105817296 -0.113099106 -0.078957245
000220 65 76 bb ba a0 b8 8d bc e8 22 cf 3a 7c be 8d bd
       -0.0014302252 -0.01729995 0.001580325 -0.06921098
000230 30 4d 74 bc 9a 02 1f bd f4 24 9e 3d 13 7f cb 3d
       -0.014910981 -0.03882084 0.07721892 0.09936347
000240 cf 24 12 bd 9c 94 d3 3c 12 d8 28 3d 8d 23 0b be
       -0.035679635 0.025827698 0.041221686 -0.1358778
000250 62 b0 38 3c 1b f2 06 be cf f4 cc 3d 63 52 06 be
       0.011272522 -0.13178293 0.10007631 -0.13117366
000260 7e a7 19 3e 4d 69 be bd 62 20 74 3d b3 e2 ff 3c
       0.150053 -0.09297428 0.059601195 0.031236028
000270 8a a6 dc bd ec 49 ab bc cc ff ed bb 8c b6 4b 3d
       -0.10773952 -0.020909272 -0.0072631594 0.049734637
000280 54 45 10 bd b0 dd dd bd a6 85 ac 3d 17 01 77 bd
       -0.035222366 -0.10833299 0.08423929 -0.060303774
000290 ce 8c ec bd db ac 32 3d 56 37 a9 bd bd ed 83 3d
       -0.11550294 0.04362188 -0.082625076 0.06441829
0002a0 86 48 fc 3d 75 78 19 bd 3b 03 24 3e 97 8c 66 bd
       0.1231852 -0.037468392 0.16016857 -0.05628642
0002b0 6f b3 6e 3c 69 38 1b 3e 6f 5d 0b bd 41 db bd 3d
       0.0145691475 0.15158238 -0.034024652 0.09270335
0002c0 98 bb b1 3d 97 62 73 3b 69 b9 aa 3c e7 4a e4 bc
       0.08678359 0.0037137622 0.020840364 -0.027867747
0002d0 c8 08 41 bd 15 b4 0f bd d1 fa 8a bd 8e 21 18 3d
       -0.047127515 -0.03508385 -0.06786121 0.037141375
0002e0 d4 57 36 bc 9f 8e 0a 3d 0f 68 80 3c ed 89 d1 3d
       -0.011129338 0.03382742 0.015674619 0.102313854
0002f0 5c c2 2e bd f6 f0 11 3d 21 3f 95 3c 58 53 20 3d
       -0.042665824 0.03563019 0.018218579 0.039141983
000300 8f dc 59 3d 1c a6 a1 3d 4e e2 ed bd bd c8 10 bb
       0.053188857 0.07893011 -0.1161543 -0.0022092306
000310 22 7f 82 bd a9 be af 3d 4f 8b 92 3c 1b 12 41 bd
       -0.06371905 0.085812874 0.017888693 -0.047136407
000320 3d 75 39 3d e5 6e b1 3d fa 2e 43 3d 5a ca 24 3d
       0.045277823 0.086637296 0.047652222 0.04023204
000330 57 32 09 be 61 07 6d 3d a5 19 56 bd ae 9e 8e bd
       -0.1339811 0.057868365 -0.05227055 -0.069638595
000340 99 88 6a 3d a6 fc 06 3c 83 18 12 3e 28 4d e5 3d
       0.057259176 0.008238947 0.14267163 0.11196357
000350 04 75 f2 bd 46 78 7b 3b e4 56 ef 3b 65 ed 95 3d
       -0.11838725 0.003837125 0.0073040593 0.0732067
000360 7d 22 0a be 4f b3 c9 3d 8d 20 23 3c 51 e4 bc bd
       -0.13489719 0.098486535 0.009956491 -0.092232354
000370 64 ed bd bc a1 95 e2 3d 75 df ff bd d8 be a8 3d
       -0.023184486 0.11063696 -0.12493793 0.082395256
000380 6c 55 e0 bb 99 c6 33 bd d7 86 65 bc 59 fb 97 3d
       -0.0068461206 -0.04389057 -0.014009199 0.07420988
000390 f1 ac d8 3d 76 ec 51 3d 31 fb e0 bd 02 18 9c bd
       0.10579861 0.051250897 -0.10985411 -0.076217666
0003a0 f8 e4 50 3c fd 66 d0 bc 2b 7f 0c bd 4c 57 0d 3e
       0.012749903 -0.025439734 -0.034300964 0.13802832
0003b0 d9 6a 18 3d 5a 08 43 3d 3b 52 d9 bc de c5 f4 3d
       0.037211273 0.047615387 -0.026528468 0.11951803
0003c0 95 41 db bd a9 c4 28 3d 78 a2 a5 3d ab 5b b1 3c
       -0.10705868 0.041203175 0.08087629 0.021650156
0003d0 5f ca b0 3d e7 32 a3 3b 6b 8c 45 bd f8 5d 03 3e
       0.08632349 0.0049804333 -0.048229616 0.12828815
0003e0 ba 9b 93 bd ab 78 64 3d ce 03 40 3d 99 bf 02 3e
       -0.07207437 0.05577914 0.04687863 0.12768401
0003f0 22 86 b5 bd e7 23 d5 bc b9 86 18 bd 48 e3 7d bc
       -0.088634744 -0.026018096 -0.037237857 -0.015496083

gru.bias_ih_l1 f4 [384]
000000 4d b1 93 bc 1c 32 24 bd 68 9b c7 bc 08 18 bc bd
       -0.01802888 -0.04008685 -0.024366096 -0.09184271
000010 ca 4f 43 3d 7d 83 61 bd 0f 56 af 3d ae 4d 9f bb
       0.047683515 -0.055057038 0.08561336 -0.004861555
000020 a9 a5 ed 3c 00 f1 5d bd 8b ac 4a bd 1f a6 bb bd
       0.029009657 -0.054184914 -0.049480956 -0.091625445
000030 4f 11 fe bd 53 73 24 bd 42 3c 91 bb 26 13 8a ba
       -0.12405645 -0.040149044 -0.004432232 -0.0010534271
000040 93 cb 5f bc d0 04 ba 3c 1f 5c c7 bd 38 99 d4 bd
       -0.013659376 0.022707373 -0.097343676 -0.10380787
000050 cd 03 2d 3c 35 9f 90 bc 04 19 aa bd 9f e4 03 3e
       0.010559988 -0.01765404 -0.083055526 0.12880181
000060 8c df ae 3d f7 cf 9e bd e6 ce 0b bd 97 04 b7 3b
       0.08538732 -0.0775451 -0.03413286 0.005585264
000070 05 7c 92 bd d7 6a af 3c 52 eb c5 3d 91 f3 92 bd
       -0.07152561 0.02141325 0.096640244 -0.07175363
000080 4c f8 8a bc d8 4e 92 bd 02 bf d0 3c fb be a0 bd
       -0.0169641 -0.071439445 0.025481705 -0.07848927
000090 62 1b 45 bd 44 3c 00 be f7 3c 51 bd 14 d3 78 bd
       -0.048121817 -0.1252299 -0.05108353 -0.060748175
0000a0 d3 84 58 3c dc 81 41 bd 3e d5 f0 3d 4a 14 9a bc
       0.0132152615 -0.047242984 0.11759423 -0.018808503
0000b0 d6 e9 e0 3c b7 8a b4 bd 62 bd e6 bd dc be 07 be
       0.027455252 -0.0881552 -0.11266591 -0.13256401
0000c0 b6 f9 46 bd c2 73 f0 ba 38 04 16 bd ab 60 d6 bd
       -0.048577987 -0.0018345045 -0.036625117 -0.10467657
0000d0 9b fd c1 bc 09 f1 75 bd 3b 70 46 bd 3c 04 ab bd
       -0.023680499 -0.060044322 -0.048446875 -0.08350417
0000e0 2d f9 e9 bc 85 3e 90 bc 50 a8 f0 bd 3c 06 59 3d
       -0.0285612 -0.017607937 -0.11750853 0.05298446
0000f0 54 34 4e bd 85 18 e4 bd d7 bd ac bd 6a 3c 13 bc
       -0.050342873 -0.11137489 -0.084346466 -0.008986572
000100 ca 10 bc bd ae 48 ab 3c d6 ed a2 3d 2f 6e 65 bd
       -0.0918289 0.02090868 0.0795552 -0.056013282
000110 dc a6 c2 3d 34 26 2e 3c 0a 3e 4f 3c 69 ba 80 3c
       0.09504482 0.0106292255 0.012649069 0.015713887
000120 fe 8b e2 3d af d7 07 be 6d 90 79 bd fc 01 69 3d
       0.11061858 -0.1326587 -0.06092875 0.056886658
000130 35 e2 d9 bd e0 32 42 bc 18 0c ab 3c 37 e8 fb 3c
       -0.10638849 -0.01185295 0.02087979 0.030750377
000140 f3 58 23 3c 75 77 92 bd 58 ef 2c 3d 70 a2 0d 3d
       0.009969938 -0.07151691 0.042220443 0.03457874
000150 4a a9 17 bd be 04 02 bd 49 aa ed bd 20 e6 9c bd
       -0.03702668 -0.031742804 -0.11604745 -0.0766108
000160 33 f1 8f 3d ce 9a b1 bd aa 85 ea bd 35 1f 3c 3b
       0.07028427 -0.08672105 -0.11451276 0.0028705124
000170 e9 36 8b bd f6 10 12 be 04 d6 ff bd 44 3e 0b 3a
       -0.06797583 -0.14264283 -0.12491992 0.00053117075
000180 c3 f5 bf 3c de 9e a8 3c 14 11 9a bc ab a8 d4 3d
       0.023432618 0.020583566 -0.018806972 0.10383733
000190 8e e7 99 bd ca 82 28 3d f3 9d 40 bd 34 38 c3 bd
       -0.07514869 0.041140355 -0.047025632 -0.09532204
0001a0 36 a5 bb bd 8e 36 12 3c 06 c6 9b bc 99 ab 89 3d
       -0.09162371 0.00892414 -0.019015323 0.06722183
0001b0 01 34 ab 3b 56 3d 05 be da 89 5c 3d f0 5a 80 bb
       0.005224705 -0.13011679 0.053842403 -0.0039170906
0001c0 57 c9 a4 3c d7 1b 13 be 83 22 57 bd 80 02 11 3d
       0.020115538 -0.14366089 -0.052523147 0.035402775
0001d0 e8 e7 eb bd 28 b8 13 be 18 2a e7 bd b2 2a 9e 3d
       -0.11518842 -0.14425719 -0.112873256 0.07722987
0001e0 1b f8 0e 3c 63 4c 29 bc 69 fe 05 bd 34 d3 7f 3d
       0.008726145 -0.010333153 -0.032713328 0.06245728
0001f0 a1 67 8c bd 7d 73 97 3d 52 97 c6 bd 50 42 ff bd
       -0.06855703 0.073950745 -0.09696831 -0.1246382
000200 1d a8 b3 bb 5d 77 86 3d 2e f9 45 3d 6f 82 8f 3d
       -0.005482687 0.065657355 0.04833334 0.070073
000210 8a 24 4c 3e 80 48 96 3e 34 ab 14 bd ab 23 06 3c
       0.19935814 0.29352188 -0.036296085 0.008187215
000220 e4 1b 99 3e 82 9f 55 3d 3f 6f 32 3e e0 63 3b 3e
       0.2990409 0.05215407 0.1742525 0.18299818
000230 41 dc 91 bd d6 b1 85 3d 18 13 ab 3c 01 c3 68 3e
       -0.07122088 0.0652806 0.020883128 0.22730638
000240 e3 61 ac 3d 21 ff 84 3e 44 3a 54 bc ac 9f 1d 3e
       0.08417108 0.25975898 -0.012953345 0.15392941
000250 9a f5 09 3e 18 3c 6c 3e 35 54 1c 3d 65 72 27 3d
       0.13472596 0.23069799 0.038166244 0.04088058
000260 c9 a3 3a 3e 2d d1 21 3e a2 c1 37 3e 95 18 f5 3d
       0.18226542 0.1580245 0.17944959 0.11967579
000270 89 b7 53 bd 61 19 4b 3e 90 a3 59 3c 3e 96 0b bd
       -0.051688705 0.198339 0.013283625 -0.03407883
000280 6d 87 fd 3d 04 2c 12 3e 31 e6 5f 3e 13 9f 09 3e
       0.12379346 0.14274603 0.21865155 0.13439588
000290 88 d3 10 be fe 2e 00 bc e1 89 27 3e 06 b6 4a 3e
       -0.14143193 -0.007823704 0.1636119 0.19795999
0002a0 0a bf 5d bb d9 63 78 3e f3 62 17 be c0 f1 ef 3d
       -0.0033835792 0.24256839 -0.1478384 0.11716032
0002b0 f0 6f 81 3e 01 bc 39 bd 53 ee a5 bd 62 6f f4 3b
       0.25280714 -0.04534531 -0.08102097 0.007459567
0002c0 fe 58 8f 3d 40 f0 1b 3e 25 fb 38 3d 6c fc 08 3e
       0.06999396 0.15228367 0.045161385 0.13377541
0002d0 6f ab 04 3e c2 4f 25 3e fa 15 13 3d 7e 96 83 3c
       0.12956022 0.16143706 0.03590963 0.016062971
0002e0 14 23 64 3e f3 1d 5c 3e 9d 45 52 bd 83 48 13 be
       0.22279006 0.214958 -0.05133592 -0.1438313
0002f0 51 43 54 3e e0 86 70 3d 8b 8e c0 3d e7 5c ae 3d
       0.20728804 0.058722377 0.09402188 0.085138135
000300 3e 9d d3 3d b2 3f b8 3c bc 78 16 3e 4e e4 02 3d
       0.10332726 0.02249131 0.14694494 0.03195601
000310 ce a3 17 3d be c6 fd 3d ff d9 fa b9 8f 35 d0 3d
       0.03702145 0.12391423 -0.00047846136 0.101664655
000320 c4 50 c5 bd 8e e8 45 3e 88 8a fa 3d 64 b4 79 3e
       -0.096345454 0.19326994 0.12233454 0.2438522
000330 c7 b2 38 3e 68 df ae 3c 0c 35 ab 3d 5b eb 7a bd
       0.18036948 0.021346763 0.08359727 -0.06125961
000340 f0 6b 28 3e f7 34 6e 3d 4a 6e 5d 3e 5a 0a 10 3e
       0.16447425 0.05815598 0.21624103 0.14066449
000350 ce 14 00 bc 21 33 2c 3d b0 55 98 bd 27 de 2f 3d
       -0.00781746 0.042040948 -0.074382186 0.04293647
000360 e6 4a 7e 3e af d0 95 3d 26 b6 0f 3e ef 45 87 3e
       0.24833259 0.07315194 0.14034328 0.26420543
000370 59 8e 1c 3e b0 03 6f 3d 2e 7f 91 3e 3d 24 36 3e
       0.15288676 0.058353126 0.28417343 0.17787261
000380 2b ea de bc a3 85 6c bc f6 a1 7e 3e 29 47 d2 3b
       -0.02721127 -0.014436158 0.2486647 0.0064171744
000390 f3 94 49 3c 61 e3 03 3e fb 09 43 3d ec e8 ee 3d
       0.012303579 0.12879707 0.04761694 0.1166552
0003a0 9a 67 d2 3d 34 b6 cf 3d 4e 8c 2e bc 84 97 b1 3d
       0.10273667 0.10142174 -0.010653568 0.086714774
0003b0 ce d5 1f be 8a 8f 35 bc a8 c8 aa 3c 6d 71 b8 3e
       -0.15608904 -0.011081586 0.020847633 0.36024037
0003c0 b3 ef bc 3c a8 48 35 3e c3 83 3b 3d ee 77 8f 3c
       0.023063516 0.17703497 0.045779955 0.017513242
0003d0 31 13 4f 3d c7 c4 e5 bc ac ad 47 3d fc 9b 74 3d
       0.05055541 -0.028047932 0.04874961 0.05971907
0003e0 c6 1f ce 3d d7 a9 fd 3d 65 5e 23 3e c0 06 1f 3e
       0.10064654 0.1238591 0.15953977 0.15529919
0003f0 7e 6a 2e 3d 27 dd 34 3d b5 95 90 3d 2c 3c a0 bb
       0.042582028 0.04415622 0.07059804 -0.0048899855
