1223-code-DL/model/LSTM_state_dict.pt (torch, 875332 bytes, 17 tensors)

lstm.weight_ih_l0 f4 [512, 16]
00000000: 230c 3abe 4f3d 99be 9f95 d7be 8d64 86be
00000010: 8d14 a1be ad86 6ebe bb10 aabe e1b0 cabd
00000020: 9540 81be 36fd 87be b0c7 94bd 658d 86be
00000030: 68ec a6be 3476 a1be f37b 3dbe 61a3 8a3e
00000040: 09bf 663e 142c 793e 63fb 1f3e 8a0a 073e
00000050: d443 323e 8cdc 863e 8f21 323e a5f9 883e
00000060: cdff 473e 273b 543e 315b 883e 83ff 023e
00000070: 05b5 1e3e 0890 113e 682f 2f3e 3c4c a43e
00000080: 7977 32be 0309 e7bd d25f 08be e6ff 24be
00000090: 950e 9dbd e48b 0fbc d57e 30bd 0a2f a9bd
000000a0: 028b dbbd 0060 0fbe 9260 63be b9c8 46be
000000b0: ca76 36be 74d5 77bd a2fa b6bd 2f84 d7be
000000c0: f9db 09be 9759 ccbd 8c4d c5bd 2416 abba
000000d0: de92 8ebc b776 3bbd 43dc 38bd b70d c6bd
000000e0: 377e ebbd 895f 22be 22c2 b5bd 9b04 32be
000000f0: 20b5 b8bd 6397 053a 2481 05be 68c1 3bbe
00000100: 682c 3a3e a313 1f3d ff85 253c 6e04 11bc
00000110: 79f4 773d f509 0d3e 9421 2abc 4cbd 9b3e
00000120: f5ef 94bd 935f 0fbe b1e6 703d 85c2 28bd
00000130: 24db dcbd bdcb 683e 6465 e83c 140b f53d
00000140: da1b 27be f3a2 793c 51cb c6bd 9177 2dbe
00000150: 7dec e8bd c3c8 83bd 8cc6 cfbd 8973 d8bd
00000160: c5aa f8bd 4fcb 20be b6b4 d83d 5fa8 dfbd
00000170: 290f b9bd f4d1 94bd 3a83 a9bd 115e 24bf
00000180: ba7e c0bd 457d e6bd f583 3dbe b32b 17be
00000190: 144b eb3c 2f7e afbd 08a6 34be 3498 22be
000001a0: 4799 6cbe bc0d 0ebe fc41 adbe e451 5cbe
000001b0: 3c28 1dbe 3419 3ebd 6879 54be 5a94 cbbe
000001c0: 3830 3cbe 7be2 04bc fe0b 953c 796d 1bbe
000001d0: 029f 7dbd 3a98 03be c3b1 a8bd 2cee 97bd
000001e0: 15b1 c5bd cc4c b1bd 8068 9cbe 946c b3bd
000001f0: 3f26 5dbe 6926 e7bd 507e 53be 411f 23bf
00000200: 6ce7 bbbd f655 74be 1156 64be 2800 9dbd
00000210: cfc1 4fbe 7b68 33be ed81 e3bd abc1 07bc
00000220: 44b7 adbd 2da1 07be 195c fe3d 1e9a 0fbd
00000230: 8edd c6bb 7336 18be 906d 36bc fbe1 3cbf
00000240: 3115 cd3d 281e c13c f9a9 e93d 275b 2c3e
00000250: c4cb 373d 0f97 033d 7b86 32bb 8628 a53d
00000260: c45c 163e 09b5 343e e315 b43e efa3 9f3d
00000270: 198f 613e 0740 db3c ad23 403e 2f1d e33e
00000280: df4a a23d 8763 a3be 2ccf c63e f63d 37be
00000290: afa4 87be 02ae 59be f822 8fbe 9405 a13e
000002a0: 37e9 02bd 8561 bebe d672 453e e734 c6bc
000002b0: 9189 883d af03 7e3e 27fa 233e 8a52 86bf
000002c0: 22a9 a53b 94d4 e6bc 0589 813d 7452 87bd
000002d0: 8741 2c39 9f22 273c 68a3 913d 6394 983d
000002e0: 356d 573d a806 903a b082 1e3d 4262 3dbc
000002f0: 03bf 89bd 0a23 cd3d 9691 363e d039 973d
00000300: ddbc 753d df74 0e3d 7770 75bc 01b5 b13c
00000310: 237c c93c 73fd ce3d 8bd1 c5bb 3e5c a43d
00000320: 3d05 0d3e ad85 233e 6158 733e 9d92 973d
00000330: 84ee b33d 23bc 11be 77d0 283e d1b9 183f
00000340: 7597 dd3d ab04 63bd e4cd fabd 1bd7 e23b
00000350: 806c 5dba 3d1b 4bbd 6ab4 81bd 414f 163e
00000360: aa0d 53bc 6625 70bd 1794 983e 95cd a5bc
00000370: 9e8e 233d 56f6 323b 79d0 303e 338c 823e
00000380: d623 8dbd 2448 8cbd 3162 d33c 422c 3fbd
00000390: b064 1dbc 20ac 41be ae0e 32bd 523a 873e
000003a0: 892a 053d ed50 bc3c 7d14 933e 033b 15bd
000003b0: 304f 883d 06c0 1cbe dfce 84be 72fd a83f
000003c0: e287 b2bd 5577 4fbd 7548 00be ff3d 13be
000003d0: 318a 16be 992c 25be 0636 72bd 610b acbd
000003e0: f9bb 1cbe 5c64 bfbd e802 7cbd 59fe 0cbe
000003f0: ad77 9cbd bcbc 91be 4036 cebd 2a2c 81be
-0.18168692 -0.29929587 -0.4210634 -0.2624859 -0.31460992 -0.23293562 -0.3321589 -0.09897018
-0.25244585 -0.26560372 -0.0726465 -0.2627975 -0.3260224 -0.31535494 -0.18504314 0.27077773
0.22533812 0.2433322 0.1562324 0.13187614 0.17408687 0.2634014 0.17395614 0.26752964
0.19531174 0.2072569 0.26632074 0.12792782 0.15498741 0.142151 0.17107928 0.32089412
-0.17428388 -0.11281016 -0.13317803 -0.16113243 -0.07668797 -0.00876138 -0.043089706 -0.08260925
-0.10719873 -0.14001465 -0.22204807 -0.19412507 -0.17818752 -0.0605063 -0.08934523 -0.42093036
-0.13462819 -0.099780254 -0.096339315 -0.0013052863 -0.017404016 -0.045767512 -0.045131933 -0.09670585
-0.11498683 -0.15856756 -0.088749185 -0.1738457 -0.09018922 0.0005096106 -0.13037544 -0.18335497
0.18181002 0.038837086 0.010102748 -0.008851154 0.06053588 0.1377333 -0.010383982 0.3041786
-0.07272331 -0.14001302 0.058813754 -0.041201133 -0.10783985 0.2273397 0.02836866 0.119650036
-0.16319218 0.015236604 -0.09706748 -0.16940142 -0.113732316 -0.06434777 -0.10145292 -0.105689116
-0.12141947 -0.15702556 0.10581343 -0.10920786 -0.09036095 -0.07266608 -0.082769826 -0.64206034
-0.09399171 -0.11254362 -0.18507369 -0.14762764 0.028722323 -0.085689895 -0.17641461 -0.15878373
-0.23105346 -0.13872427 -0.33839405 -0.21515614 -0.1534738 -0.046410754 -0.20749438 -0.3976162
-0.18377769 -0.008110638 0.018194195 -0.15178479 -0.06191922 -0.12851039 -0.0823703 -0.074184746
-0.09652916 -0.08657226 -0.30548477 -0.08760944 -0.21596621 -0.11286623 -0.20653653 -0.63719565
-0.091749996 -0.23860916 -0.22298457 -0.076660454 -0.20288776 -0.17520325 -0.11108766 -0.00828592
-0.08482221 -0.13245077 0.1241991 -0.035059087 -0.006068892 -0.1486452 -0.01113452 -0.7378232
0.100138076 0.02357395 0.11409373 0.16831647 0.04487206 0.032126483 -0.00272408 0.0806437
0.14683825 0.17647184 0.35172948 0.0779494 0.22027244 0.026763929 0.18763609 0.44358203
0.07924437 -0.3191187 0.38829935 -0.1789473 -0.2649283 -0.21257785 -0.27956367 0.31449568
-0.031960692 -0.37183776 0.19282088 -0.024195148 0.06666864 0.24806093 0.16013394 -1.0493939
0.0050555626 -0.028177537 0.063249625 -0.066075236 0.00016427609 0.010201125 0.071112454 0.074501775
0.052594382 0.0010988312 0.038698852 -0.011559071 -0.06725886 0.10016449 0.17828974 0.07384074
0.059994567 0.034779426 -0.014980427 0.021692755 0.024595326 0.10106935 -0.0060369424 0.08025406
0.1377153 0.15968962 0.23764183 0.07401011 0.087857276 -0.14231925 0.16485773 0.59658533
0.10819904 -0.055424374 -0.12246302 0.006922615 -0.0008446649 -0.049586523 -0.063332394 0.1467867
-0.012881676 -0.058629416 0.29800484 -0.02023963 0.039930932 0.0027307472 0.17267026 0.2549759
-0.06891601 -0.06849697 0.025803657 -0.046673067 -0.009606525 -0.18913317 -0.04347103 0.26411682
0.032511268 0.022987807 0.2872657 -0.03643323 0.06655729 -0.15307626 -0.2593908 1.3202345
-0.08717324 -0.050650913 -0.1252764 -0.14379118 -0.14701153 -0.16130294 -0.059133552 -0.08400608
-0.15306081 -0.09345314 -0.06152621 -0.13768901 -0.07640014 -0.28464305 -0.10068941 -0.25229007

lstm.weight_hh_l0 f4 [512, 128]
00000000: c794 1b3e 104d b8bd 595d edbd cf37 7fbe
00000010: d103 32be 60c6 8fbe c3c2 2c3e 7512 6d3e
00000020: f7d1 51bc 0d42 27be a1a1 fcbc 9721 7d3e
00000030: d954 94be 015e 45be a305 e8bd d052 783e
00000040: fa7c 333e 15af 043e 441a 413e ba12 953e
00000050: dfb8 903e 9304 1dbe 615a 113d 34d9 b0bd
00000060: a58c ea3d f576 20be be51 00be fab0 393e
00000070: ccda ec3d 8b2a 68be e6fc 943e 6641 fcbd
00000080: a1b7 0bbe 6aff e4bd 76a5 08be 432a d33d
00000090: 3a72 553e dc72 2d3e 071c 113e 7bd7 863e
000000a0: 9bf4 c6bd 02c4 69be 1790 07bd 9292 61be
000000b0: c39a 4ebe e408 593e 90df 93bd 1da5 5abe
000000c0: 715d 7fbe f1cf bbbd 5b2c ecbc bcd0 0e3e
000000d0: 8d92 14be f036 7dbe 0ddc 2d3e 1659 30be
000000e0: a2c0 153e b52f 6fbe 7618 d63d ca5b 673d
000000f0: 4be4 7fbe 97ed 433e acb7 0cbe 2a2f 00be
00000100: 0644 93be 58f3 5abe be44 28be 596a e3bd
00000110: b27f 11be cd38 3ebe d7bd 8a3e e7f2 22be
00000120: c44c 7c3d c784 fcbd 899a a5bd d534 cbbc
00000130: e6d3 713e de98 0e3d c873 5b3e a51f 4c3e
00000140: 316e 92be 1845 623e f31c 25be 2714 ee3d
00000150: f890 f93d 3ec7 9c3e d94b 163e 98bf 5fbe
00000160: b002 21be 9f26 2f3e 4cc1 41be 2b0d 923e
00000170: 970b c0bd cbcb a2bc 43f1 093e 527d ddbd
00000180: 2436 20be 572a ba3c 3d4d 7b3e 87a8 8cbe
00000190: 0ca9 8fbd b799 543e 147f f4bd cc80 adbe
000001a0: f05e 3dbe 5d0c 7e3e 77fd e33c 2a34 053e
000001b0: 4868 633e 41fd 2fbe e9c8 9fbe 7fa1 393e
000001c0: 24a8 c2bd 25d6 843e f441 0dbe 6bbb 44be
000001d0: 02ab 2dbe 75bc 3f3d 739f 2e3e 3e8e 133e
000001e0: d432 42be f37e 12be 7785 68be abbd 733e
000001f0: 5633 1a3e 9c55 49be 4351 8f3e f6f1 2a3e
00000200: 04b5 b93c dcc6 f73d 4e93 b33d 1cb8 a93d
00000210: 2c5d 2b3d c16e d23d a9b0 2d3c c971 d1bd
00000220: 5296 56bc 0e4f f93d 1a88 c93d cba6 40bd
00000230: edbf 383e ffc8 de3d b2a6 4c3e cd2d 13be
00000240: c826 2a3d 10b0 eabd 9120 a2bc 774e 7dbd
00000250: dba6 abbc d54b 643c fc01 2f3d fa7d 2abe
00000260: cb9a dcbd 7ed9 4f3e 6a95 353e eed8 023d
00000270: 21b4 0ebc 183c 6c3d a373 803c f496 a43d
00000280: 2d55 ea3d d704 a8bd 5f22 e8bb a694 c83d
00000290: 41dd c7bc 1596 c43b d54f f23d 8624 e5bd
000002a0: 75e6 0d3e 0c2c 0a3e 6e60 dfbd 60f0 413d
000002b0: cde5 bbbd 43ba 94bd 8a92 a8bc 1da1 fcbc
000002c0: 08cc 243e a241 863e a388 3a3c 1946 dbbd
000002d0: 9c9d 01bd 5623 b03d 74f5 36be b9b3 333e
000002e0: 5ade 7a3a 9009 a0bd de25 abbc 1e68 fabb
000002f0: 1685 f73d e021 14bd 8f70 263c f1fe bb3d
00000300: 8b45 103e 47ba e43d 13f2 013e c220 a9bd
00000310: d0b7 4d3d 0705 923a 7526 83bd 64f0 80bb
00000320: 6719 85bd 906c 2d3e 54e0 613e 9a31 aa3d
00000330: 3486 9cbb 2528 bcbc db0a 113d b394 113d
00000340: 2835 783b 6da7 92bc a64a 413c a08c d5bd
00000350: 3ada fa3c 5715 95bd 79d6 d2bd cbb3 383d
00000360: 63b9 ed3d 57b8 03bd 711a f4bd 46e7 b8bd
00000370: 19f9 213d 8b06 843d 166a 01bd 97c4 4cbd
00000380: ec2d a73d 8bee 43ba 8111 93bc 1d68 fdbb
00000390: 7641 79bd 0316 2dbe add4 de3c a2e0 113d
000003a0: edc9 f83d 18d4 52bd 2b77 3c3d 6b04 22be
000003b0: 3acf 40bd ef74 f13d 7ea9 e23d 6c50 89bc
000003c0: 039f b83c f2d5 adbd 1a87 9bbd bffb e5bb
000003d0: cc38 713e 94df f3bc b1a0 48bc 8e15 83bd
000003e0: 4420 263e 383a 203d 9dbb 7ebd cac3 cfbd
000003f0: 5a5d 36bd 89d0 5d3e 6bac 3ebe e1a5 55be
0.15193473 -0.089990735 -0.1159007 -0.24923633 -0.17384268 -0.28081036 0.1687117 0.23151572
-0.012806407 -0.1633379 -0.03083879 0.24719845 -0.28970984 -0.19274141 -0.113292 0.2425034
0.17528144 0.12957413 0.18857676 0.2911585 0.28266045 -0.15333776 0.035486583 -0.08635178
0.11452607 -0.15670379 -0.12531182 0.18133917 0.1156517 -0.22672479 0.29099196 -0.12317161
-0.13644268 -0.11181529 -0.13344368 0.10310795 0.20844355 0.16938347 0.14170848 0.26336274
-0.097146235 -0.22828677 -0.0330964 -0.22028568 -0.20176224 0.21194798 -0.072203755 -0.21352048
-0.24937989 -0.09170521 -0.028829744 0.13946813 -0.1450903 -0.24727988 0.16978474 -0.17221484
0.14624265 -0.23358043 0.10453884 0.05648402 -0.2498943 0.19133602 -0.1374194 -0.12517992
-0.28762835 -0.21381891 -0.16432473 -0.111042686 -0.14208868 -0.18576355 0.2709796 -0.15912972
0.061596647 -0.12330013 -0.08086116 -0.024805466 0.23615989 0.034813754 0.21430886 0.19933946
-0.28599694 0.2209667 -0.16124325 0.116249375 0.12185854 0.3062076 0.14677371 -0.21850431
-0.15723681 0.17104577 -0.18921393 0.2852567 -0.093772106 -0.019872567 0.1347094 -0.108149186
-0.15645653 0.022725267 0.24541183 -0.27472326 -0.07014665 0.20761763 -0.11938301 -0.33887327
-0.18493247 0.24809404 0.027830822 0.1300818 0.22207749 -0.17186452 -0.3120797 0.18128012
-0.095047265 0.2594463 -0.1379469 -0.1921212 -0.16959766 0.046810586 0.17053013 0.1440973
-0.18964702 -0.1430624 -0.22707163 0.23802821 0.15058646 -0.19661564 0.27991685 0.16693863
0.022669323 0.12098476 0.087683305 0.08287069 0.041836902 0.10275031 0.010601201 -0.10226781
-0.013097363 0.121732816 0.098404124 -0.047034066 0.18041964 0.10878181 0.19985464 -0.1437294
0.04154089 -0.114593625 -0.01979092 -0.061842408 -0.020953586 0.013934095 0.0427265 -0.16649619
-0.10771712 0.2029781 0.17732778 0.03194516 -0.008709938 0.057674497 0.01568014 0.080366045
0.11442027 -0.08204048 -0.0070841755 0.097939774 -0.024397494 0.0059993365 0.11831633 -0.11188607
0.13857444 0.13493365 -0.109070644 0.04734838 -0.091746904 -0.07262089 -0.020577688 -0.030838544
0.16093457 0.2622195 0.011385116 -0.107067294 -0.03164445 0.0860049 -0.1786707 0.17549028
0.0009569876 -0.07814324 -0.02089208 -0.0076418063 0.12085931 -0.03616512 0.010158672 0.091794856
0.14089029 0.11168342 0.1269 -0.08258201 0.050224125 0.0011140414 -0.064038195 -0.003934907
-0.06498986 0.16935945 0.2205823 0.08310242 -0.0047767404 -0.022968361 0.035410743 0.0355422
0.003787348 -0.0179021 0.011797583 -0.10427213 0.030621637 -0.07279461 -0.10294814 0.04509334
0.11607625 -0.032158222 -0.11919106 -0.09028487 0.0395442 0.064465605 -0.031595312 -0.04999217
0.08163056 -0.00074742053 -0.017952682 -0.0077333585 -0.060853444 -0.16902928 0.027201021 0.035614617
0.12147889 -0.0514718 0.046012085 -0.15821998 -0.047072627 0.117898814 0.11067484 -0.016761981
0.02253676 -0.084880725 -0.07594128 -0.007018536 0.23556823 -0.029769696 -0.012245343 -0.064005956
0.16223246 0.03911802 -0.06219064 -0.10144766 -0.04452262 0.21661581 -0.1862046 -0.20864059

lstm.bias_ih_l0 f4 [512]
00000000: b4f5 13be cc16 063e 1b63 2ebe 88a9 dcbc
00000010: 6f46 22ba 4aca 24be c90c 24be 7a1e 15be
00000020: 8c53 35bd 222e 623e b937 f73c e695 bd3d
00000030: ff9a d53c 6f51 50bd d700 22bd 593e 40be
00000040: 53d6 e4bd e34a fc3d c0b5 d4bd e5a1 513e
00000050: 0be2 f93d 6a9d f2bd 8180 dabd 170b 34be
00000060: 9a60 4abe 275e c3bd 3b16 9d3c e985 0cbe
00000070: 9f24 a3bd 41f1 4abe 9b45 453d e971 95bd
00000080: 2218 1f3d 8da1 30be 4beb b6bd ac10 00be
00000090: 759f ebbd 30eb 12be 5c68 65bd 3d95 b6bc
000000a0: acee d2bd b052 8bbd ec9b 2abe 0831 8f3e
000000b0: 6af5 33be 1947 4fbe 239a 23be 6b0d 11bd
000000c0: 9999 48be fe40 c7bd 26c3 42be a602 3bbd
000000d0: 6286 44be bae2 01be c463 1ebe 2bea 4cbd
000000e0: 39d4 323c 475e 24bc 53d7 0cbe 534e 71be
000000f0: 7413 abbd 92ac 5d3d 48f5 6cbe 5dae bdbd
00000100: 728d 4cbe e9cf ccbd ce98 c5bd 30f5 a63b
00000110: 8aa7 64be d69a 05be 3f04 0ebe c6e8 b0be
00000120: b392 abbd 350e 903d 197b 843e dcd1 14be
00000130: 7295 6c3d 3e4e 7ebc 9737 9dbd 497c 1ebe
00000140: 13ad 0bbe 4e9e 89bd eaa1 4abd 2791 1bbe
00000150: b8d9 66be 4f74 ecbd 463b 15be b6d6 07be
00000160: 2b6d 38be 8ecf 23be 69ac 3abe d446 053e
00000170: 7673 59be edd7 2c3d 80c1 efbd a71a 44be
00000180: 0805 bebd 249f 7ebd 729f 96bd 273e b4bd
00000190: 51a7 75be 729a 19be 28c7 823b 07b7 67bb
000001a0: 3fe9 9b3a d96f fbbd fd5d 0bbe c47b e3bd
000001b0: 89fb b8bd dc13 90bc b324 46be b26f 6fbe
000001c0: a436 aabd 5c9e a8bd 79a0 84bd f273 f2bd
000001d0: 63d4 cdbd 363c 60be da00 ccbd 5554 f5bd
000001e0: 7ff7 38bd dd61 123e 2dad 6bbe 0aa5 eebd
000001f0: 6e18 e9bd c1b4 133e 1dc6 633e 0e1c 563d
00000200: f7c7 5dbe 3c81 303e af23 14be e664 57bd
00000210: e09e e73d c8c1 bcbc 6a1a 46bd 91da 39bd
00000220: 4af8 24be f426 803d 84a1 193e 7881 3d3e
00000230: 5cb3 f43d 18bd cbbd 05d0 a7bd ca0f 15be
00000240: 599d 66be 7b36 253e 8111 b2bd 6c85 903d
00000250: b0f9 b43d 03d0 d43d 2396 1a3d c75e 1ebe
00000260: 9229 65b8 f340 52be aad6 053d 711a d8bd
00000270: 1a0a 05be f372 b8bd 533f 21be 8793 90bc
00000280: ca97 0b3e a989 3fbe aadc 93bd 97b2 87bd
00000290: 1c3f 9fbd 1d1b ccbd a5ce 01bc 0e31 95bc
000002a0: d62b c9bb 2448 b3bd ac19 39bd c380 a13e
000002b0: a904 58be e274 e0bc 62e6 ccbd 47cc 783d
000002c0: f192 14bc d063 82bd b42b 96bd 496d 34be
000002d0: ecea 2dbe 683c 29be 8c24 34be 544c 49bd
000002e0: b735 77bd ca70 bebd 6221 acbd 8907 65be
000002f0: 4a3d e2bd 2bbf 0ebc 5ef3 27be 7aa3 8ebd
00000300: 8ca4 f53a 22ad 383a 8f24 a3bd adf0 4cbe
00000310: feae 00be 6640 00bd e6bf d8bd 7e92 3cbe
00000320: 07ce 9ebd 5164 3339 d39a 9b3e 8bff a2bd
00000330: fe0f c63c c23d 04be 6f6b df3c a922 03be
00000340: dac2 15be 08c6 03be 581c 39bd 0d03 23be
00000350: c343 31be 98e6 bdbb 244b 91bd 52dc 25bd
00000360: fa2d 03be 24d1 28be 9e65 07be 92bc c03d
00000370: 0978 34be d8eb 3bbe a00b 88be eac3 b7bd
00000380: 75cf 66bd 0ae2 eebd ebe9 f2bd 30ba d6bd
00000390: 5d87 e0bd f8a2 74be a95f e7bd 3bb8 cabc
000003a0: 227f 12be 1c14 1bbe 2d63 39be ea8a 9dbd
000003b0: fedc d8bd 3e3c 1b3a 83d5 4ebd 5d05 16be
000003c0: e9b7 87bd ccf3 28bd 06f7 d73c 86b8 86bd
000003d0: 3d87 a1bd 5eb6 663d f220 1abe 1ec8 3bbe
000003e0: 5614 14bd 4f6f 6e3d f2d3 12be 9581 06be
000003f0: 60a2 21be 5a5b 883d 732b 473e dbba 20be
-0.14449197 0.13094634 -0.17029993 -0.026936308 -0.0006190305 -0.16092792 -0.16020502 -0.14562407
-0.04426913 0.22087911 0.030177938 0.092571065 0.026074884 -0.05085891 -0.039551582 -0.18773784
-0.111736916 0.12318971 -0.103862286 0.20471914 0.122013174 -0.118464306 -0.106690414 -0.17582355
-0.19763413 -0.095394425 0.01917564 -0.13722958 -0.07965969 -0.19818594 0.048162084 -0.07297117
0.038841374 -0.17249127 -0.08931597 -0.1250636 -0.115050234 -0.1434753 -0.056007728 -0.02228796
-0.10299429 -0.06802881 -0.16661042 0.27967095 -0.17574087 -0.20241965 -0.15976767 -0.035413187
-0.19589843 -0.09729193 -0.19019756 -0.045656823 -0.19191888 -0.12684146 -0.15467745 -0.050028007
0.010914856 -0.010032243 -0.13754015 -0.23565035 -0.0835332 0.054119654 -0.23140442 -0.09261773
-0.19975832 -0.10000593 -0.09648286 0.0050951466 -0.22329536 -0.13047346 -0.13868807 -0.34552592
-0.0837759 0.0703396 0.25875166 -0.1453318 0.05775971 -0.015521584 -0.076766185 -0.15477099
-0.13640241 -0.06719647 -0.04947082 -0.1519209 -0.2254399 -0.115456216 -0.14573392 -0.132655
-0.18010394 -0.15997145 -0.18229832 0.130153 -0.21235451 0.04219811 -0.11706829 -0.19150792
-0.092783034 -0.062163487 -0.073546305 -0.08800917 -0.23989607 -0.15000322 0.0039910264 -0.0035356896
0.0011895074 -0.122771926 -0.13610072 -0.11107591 -0.090323515 -0.017587595 -0.19349937 -0.23382452
-0.08311203 -0.0823333 -0.0647592 -0.11838521 -0.10050275 -0.21897969 -0.099611 -0.11978976
-0.045157906 0.14295144 -0.2301528 -0.116525725 -0.11381613 0.14424421 0.22243543 0.05227285
-0.21658312 0.17236799 -0.14466737 -0.05258646 0.113096 -0.02304162 -0.048365034 -0.045374457
-0.1611034 0.0625743 0.1500302 0.1850642 0.119482726 -0.09948176 -0.081939735 -0.14556804
-0.22520961 0.16134064 -0.08694745 0.07056698 0.088366866 0.103912376 0.037740838 -0.15465842
-5.463657e-05 -0.20532589 0.032675423 -0.10551918 -0.12992135 -0.090063 -0.15746813 -0.017648472
0.13632122 -0.18704857 -0.07219823 -0.0662586 -0.07775709 -0.09966109 -0.007922803 -0.018211868
-0.006139259 -0.08753994 -0.0451905 0.3154355 -0.21095528 -0.027399484 -0.100048795 0.06074169
-0.009068237 -0.06366694 -0.073325545 -0.17619814 -0.16984147 -0.1652695 -0.17592067 -0.049145058
-0.06035396 -0.092988566 -0.08404805 -0.22366156 -0.11046846 -0.00871257 -0.16401431 -0.069647744
0.0018741055 0.0007044842 -0.079659574 -0.20013686 -0.12566754 -0.031311415 -0.10583477 -0.18415257
-0.0775414 0.00017108141 0.3039156 -0.07958897 0.024177548 -0.12914184 0.027272908 -0.1280619
-0.14625111 -0.12868512 -0.045193046 -0.15919133 -0.17311005 -0.005795311 -0.0709441 -0.040493317
-0.12810507 -0.16486031 -0.13222358 0.09410967 -0.17623915 -0.18351686 -0.2657137 -0.089729145
-0.05635019 -0.11664207 -0.118610226 -0.10484731 -0.109633185 -0.23890293 -0.112975426 -0.024746051
-0.1430631 -0.1514439 -0.18104239 -0.076925114 -0.10589026 0.00059217575 -0.05049659 -0.14650483
-0.06626875 -0.041248128 0.026362907 -0.06578164 -0.07887123 0.056326263 -0.1505163 -0.18338057
-0.036152206 0.05821162 -0.14338663 -0.13135369 -0.15784597 0.06658049 0.19450168 -0.1569628

lstm.bias_hh_l0 f4 [512]
00000000: f7a1 29be 2ee9 443e 5e6b 57bd 045d 41bd
00000010: 1b4b 183c aff3 35bd 731a 08be 4cc3 16be
00000020: ef27 3fbe b2f9 373e 9b9e 5abd 4c0c 253d
00000030: d024 203e d87e 7e3b 123b bfbd f56c 0abe
00000040: e29f 68be 1cd2 3e3e 8ac7 27be a413 293d
00000050: f0ee 1d3e ba79 9b3b 05e0 cfbd 9327 0dbe
00000060: 172c 67be 64e0 66be 12a0 bebc e694 0abe
00000070: ea19 5cbd bd6e 2bbe 32bd 0a3d 0f70 55be
00000080: 8e5b e93d 4696 fdbd a44c 52bc e77a 67be
00000090: 98b3 28be 9e3c 85be 5fc4 7dbd 4c39 db3c
000000a0: 6252 b2bd 2f67 4dbb 9382 08bd f353 c23e
000000b0: 9956 8abe 4489 11be e9a4 babd 9492 4a3b
000000c0: dd34 5abd 5c99 44be 8567 25be 1955 d3bd
000000d0: dfc3 61be 6fdd 2cbe fce6 c5bd 1581 05be
000000e0: ce4f b5bd ee01 73bd f265 17be df0a debd
000000f0: 5d87 1cbe 7aaf 69bc 556c ffbd 97d3 2fbd
00000100: 1225 20be 48aa 3ebe 9131 f4bc c6cc ecbd
00000110: e513 bebd 3253 a5bb 6587 91bc 0032 56be
00000120: 06ff 25be 57e7 f83c 61ec 213e 9b8f d0bd
00000130: 08b2 663c b089 15be 2517 98bc 2720 35be
00000140: d5ea b6bd 95aa 17be ed6f 5cbd 26cb 65bd
00000150: a19a 33be 7a07 1bbe e337 38be 3e07 39be
00000160: 21be dbbd 6528 8bbe 4401 59be 4ab8 193e
00000170: c2d6 d7bd 4bea 00bd 2e04 2dbd 264c bcbd
00000180: 5ad1 793d 1190 423d 7cb9 23be 2a27 04be
00000190: df2e 47be 236f d3bd 6bdd f0bc 8014 d4bd
000001a0: b329 7a3c 835e 0ebe e972 97be 817f 6dbe
000001b0: 7046 42bd 5eed 093e 6c60 1fbe 1a31 82be
000001c0: c745 b1bd 779a d3ba f6dd e8bd 7913 a6bc
000001d0: e342 b3bd c539 a0bd f013 c8bd 21e7 47be
000001e0: 3e3d 33be b9f0 4f3e 1f19 66be f1f0 4bbe
000001f0: 9341 0fbe 1005 893d 2f47 303e 9083 10bc
00000200: 7479 96be 16a6 503e 1814 54bd 21a1 49bd
00000210: 133c 143e 7f27 a8bd cecb edbd 73c1 20be
00000220: 80fc e3bc 084d 3e3e f85b b13d 82db 953d
00000230: 4a81 ce3d 9dd4 f4bd 4609 f1bd 401f a8bd
00000240: 9de6 48be 9acf 0f3e a40d 25be a3a3 063e
00000250: 52d6 e33d 6e90 d03d 8dcf d0bc 2202 8fbc
00000260: 9798 80bc e181 06be fe06 5ebd cb82 67be
00000270: e085 44bd 0484 16be f76e 16be 93ba 31be
00000280: 251c cf3d 4af0 25be 4263 92ba f8e4 4bbe
00000290: 2445 9cbc 4aef 4bbe 37db 163c b990 e63c
000002a0: 4720 64bd 1618 4ebd 042d eabd df1e ee3e
000002b0: ee86 65be 18f6 39be 6271 973b 41c1 34bd
000002c0: 8d90 dbbd 5baa 49be 47e6 1cbe 915a 2abe
000002d0: 7725 0ebe 6ae9 29be 1d7d dabd e3c4 d0bd
000002e0: d5ff d0bd 4bed 07be 766d 4dbe 46ff 6bbe
000002f0: aa3b 55be 65a3 d4bb 39d7 edbc 9889 05bd
00000300: e442 393c 8f2d 963d 68d9 92bd 665e 30bd
00000310: 0f96 f4bd 2ee4 22be 7adc 1d3d 346f 2abe
00000320: b33d 34be 894f 803d 23d4 8e3e 31ae 34bd
00000330: 907f 293e 987f c9bd 51f2 c73b 6f2c 6fbc
00000340: 3fd5 42bd 8714 27be 814c 01be d0a4 05be
00000350: 499d ecbd a354 03be 9f97 8abd 8956 86bd
00000360: 3aca a2bd 5604 27be af02 8cbd 9b18 c73d
00000370: 6f3f 90bc 5139 6ebd b371 42be 2c80 a0bd
00000380: 10f9 85bb dca9 dcbd 9a13 05be f872 61bd
00000390: c197 c5bd 273d 37be f492 e9bc fee9 54bc
000003a0: 936f 91bd 7e29 1bbe 6969 d5bd 9c26 0bbe
000003b0: 6b30 47bc 384d b3bd 785e 24bd 6054 1bbd
000003c0: 673f 6dbc 9d1a 73bd db0f f3bd 70f6 babd
000003d0: 6f3e e7bb 756d a23d edb0 0cbe 588f 89bd
000003e0: a919 03bd 4a47 3e3c c89a bfbd 1a0d a0bd
000003f0: 820e 28be 7fc8 8c3d b2c0 fe3d 3a0a d3bd
-0.16565691 0.19229576 -0.052592628 -0.047207847 0.00929525 -0.044421848 -0.1329134 -0.14722937
-0.18667577 0.17966345 -0.053373914 0.04029493 0.15639043 0.003883293 -0.09337439 -0.13518126
-0.2271724 0.18634838 -0.16384712 0.041278496 0.15423179 0.0047447355 -0.1015015 -0.13784628
-0.22575413 -0.22546536 -0.023269687 -0.13533363 -0.05373565 -0.16741462 0.033871837 -0.20843528
0.11394416 -0.12382178 -0.012835655 -0.22605477 -0.1647476 -0.2602281 -0.061954852 0.02676072
-0.087071195 -0.003134202 -0.03332765 0.37954673 -0.27019194 -0.14212519 -0.09113485 0.0030910121
-0.05327307 -0.19199127 -0.16152771 -0.103189655 -0.22047375 -0.16881345 -0.096631974 -0.13037522
-0.08853112 -0.059328012 -0.14784983 -0.10841917 -0.15286012 -0.014263028 -0.124718346 -0.042926397
-0.15639141 -0.18619645 -0.029808791 -0.11562495 -0.09281138 -0.005045318 -0.017764756 -0.20917511
-0.16210565 0.030383749 0.15812828 -0.101836406 0.014080532 -0.14603305 -0.018565724 -0.17688046
-0.089315094 -0.14811166 -0.05381768 -0.05610194 -0.17539455 -0.15139571 -0.17990069 -0.18069169
-0.107296236 -0.27179256 -0.21191889 0.15011707 -0.10539009 -0.03147344 -0.042240314 -0.09194212
0.06099067 0.047500674 -0.15988725 -0.12905565 -0.19451474 -0.10323932 -0.029402455 -0.103554726
0.015268731 -0.13903241 -0.29579857 -0.2319317 -0.047430456 0.13469455 -0.15564126 -0.25428087
-0.08655887 -0.0016144057 -0.11370461 -0.020272957 -0.08752992 -0.07823519 -0.09769428 -0.19521762
-0.17503831 0.20306672 -0.2247052 -0.1991613 -0.13989858 0.06690419 0.17214654 -0.008820429
-0.29389536 0.20375857 -0.051776975 -0.04922593 0.14476041 -0.08210658 -0.11611138 -0.15698795
-0.027830362 0.18584073 0.0866012 0.073172584 0.10083254 -0.11954615 -0.11769347 -0.082090855
-0.19619222 0.14044037 -0.16118485 0.1314836 0.11124863 0.10183798 -0.025489593 -0.017457072
-0.01569776 -0.13135482 -0.054205887 -0.22608487 -0.047979236 -0.14698797 -0.14690767 -0.17356329
0.1011279 -0.16204944 -0.0011168497 -0.19911563 -0.019075938 -0.199155 0.009207538 0.028145181
-0.055694845 -0.05031594 -0.11434367 0.46507928 -0.22414753 -0.18160284 0.0046216706 -0.044129614
-0.1072093 -0.19693892 -0.15322219 -0.16636111 -0.13881479 -0.16592947 -0.10668395 -0.10193803
-0.10205046 -0.13274114 -0.20061287 -0.23046598 -0.20823541 -0.0064892047 -0.02903329 -0.032601923
0.011307452 0.07332908 -0.07170373 -0.043058775 -0.11942684 -0.15907356 0.03854034 -0.16643983
-0.17601661 0.0626517 0.27896222 -0.044111434 0.16552567 -0.0983879 0.0061018844 -0.014597996
-0.04756665 -0.16316424 -0.1262684 -0.13051152 -0.11553437 -0.12825255 -0.06767201 -0.06559474
-0.07948728 -0.16310248 -0.06836449 0.0972149 -0.017608372 -0.05816013 -0.18988685 -0.07836947
-0.0040885285 -0.107745856 -0.12995759 -0.055041283 -0.096480854 -0.17894422 -0.028512456 -0.012995241
-0.07101359 -0.15152547 -0.10420496 -0.13588947 -0.01215754 -0.08754963 -0.040129155 -0.037922263
-0.014480448 -0.059351552 -0.118682586 -0.091290355 -0.007057003 0.079310335 -0.13739367 -0.06716794
-0.032006893 0.011613676 -0.09355694 -0.07814999 -0.16411784 0.06874179 0.124390975 -0.10304685

lstm.weight_ih_l1 f4 [512, 128]
00000000: 3620 7bbd ff2e 7e3b 796f 45bd 2fdc 0c3e
00000010: f710 d83c 5566 c93c b3c3 943d 8941 d73d
00000020: 77a0 a8bd 5ca5 9f3d 7de6 b43c 8d9c 37bd
00000030: 717d 233e 3ad6 063e 731b c53d 4228 66bc
00000040: 982e 5f3d b97e acbd cbd4 a2bd e492 86bd
00000050: 2397 a7bd 14e3 a7bd e271 bc3c 9a5b 38bc
00000060: 9563 09be 1450 a73d 3bf1 933d 87ec 103e
00000070: d64a b13d 6708 fd3d 7081 ab3d 8faf ea3b
00000080: 0002 363d ce4a 0a3d 79d8 90bd 2558 ac3d
00000090: 6ee0 4ebd 571c 2f3c 83f4 613d 228e ddbd
000000a0: bef6 713d 674d 093e 0d80 cbbd 3c5a 8dbd
000000b0: 5554 04bd b5b4 2bbe abbb d9bd 6a30 05bd
000000c0: 5589 043e 5c32 3c3d 758d 8e3b ee33 babd
000000d0: 8a9d dcbc e00f 193d 16a4 20bc 5844 583d
000000e0: 2855 143e a99f 9f3c f116 adbb a9f1 8f3d
000000f0: 9005 573d 2b70 3ebe 75d6 223d ea42 5f3c
00000100: 30e8 4b3d 4b16 153e ff61 273e f335 cfbd
00000110: f0a9 21be f38d bfbc 076d 16bd 8fcf 3a3c
00000120: 75e3 acbb f92a f63b a13b 033d eded 853d
00000130: dac1 9ebd 7b01 22be ff7b 043e 697a 593c
00000140: 5ea1 ee3d f1fe cb3d 1594 32bc 9cdc 9dbd
00000150: 1cab ed3c f6c5 efbd c3d5 cdbd 10b5 aa3c
00000160: 021e 7a39 ccd0 c83d e2b7 0dbe 5cb2 20be
00000170: ae6c 6b3c ed38 db3c cb74 c1bd 23b3 0abe
00000180: cc2e d9bc e297 f03d fc47 dd3d 420a e3bc
00000190: 7692 62ba 2e82 1cbe 7652 de3c 8dd1 b93d
000001a0: 7c37 183e b675 60bd cd25 573b b242 9fbd
000001b0: 21c9 fcbc dbba ef3d 8adf 453d 53c8 a83c
000001c0: 5a97 c1bb b0fb cabd e20f 123c 9f4b 2bbc
000001d0: bd91 f03d b3d0 3bbc 6e27 153e 4da8 803c
000001e0: f132 213e fbab af3d 9985 babd 696c aebd
000001f0: 6512 4f3d 4037 cc3c 3613 10be 87e3 a5bd
00000200: 69fc 6dbd dad1 123d f7c0 a6bd 90e7 143d
00000210: 8250 e53d d420 0f3d 9157 a1bd d7f5 90bd
00000220: b18c 963c 3709 883c caec 393d a903 abbd
00000230: 4b1f 6f39 7c67 e93b 478b f23d 5e00 86bd
00000240: 82d5 b53d 82a8 04bd 8bb0 b1bd 8405 01bd
00000250: 15c2 a4bd c7cf d33a 7638 e3bc b636 e8bc
00000260: c1e7 e5bd 14bb ff3d 5cdf e5b9 bed0 d53c
00000270: 6b96 c3bd b859 30bb eba9 383d bfa1 913d
00000280: c59a 09bd bdc5 ee3d f313 5e3c ac72 cebc
00000290: cc3e 10be 5257 553d c2df 483d e64b fcbc
000002a0: 2206 cabc 14c5 103d 1433 2bbd 4164 e9bd
000002b0: 1c8f 51bc 3f1b ddbc 0b61 c63c 4474 13be
000002c0: 09a0 c63b cdfb cc3d 8997 1a3d ad1f 753a
000002d0: e872 edbd c326 a33c b877 9ebd e3af 96bb
000002e0: b0e0 8c3d 6df7 08bd 96dc c93c e8f2 1dbd
000002f0: b08b f9ba 1042 7f3b 7ae5 48bc 25e6 b23d
00000300: 5cfe ad3d 795b 083e a928 c13d 690a e3bd
00000310: ad2b 333d 4197 d73c 0941 cfbd 96e8 afbd
00000320: bcd5 393c 073a 063d cc37 873d 6fbe fbbc
00000330: 2631 893c 91aa 83bd 7f34 10bb d5ef 903d
00000340: d4dc 843b 1c39 d63d cb64 043c 295a 9fbd
00000350: 5fe4 663c bfc8 a53d 29ad a5bd 8868 ad3c
00000360: 3ae3 263c 7adb 3f3d f763 b2bd 593c 14be
00000370: 1266 35bd acea 8c3d ec21 00be 6e18 babd
00000380: b10d d4bd b9d4 2d3e c046 c73d 713f 8b3d
00000390: 0194 2fbd a3ec acbd ec41 443d c4b8 ed3c
000003a0: 252a c43c 35b5 77bc cfa9 223d ed3b 2dbd
000003b0: 4a0f f1bd 89c1 0c3e be45 0d3e cc38 45bd
000003c0: a29c ddbc 1471 21be 96e6 393d 05e6 c83d
000003d0: 737d 273d 1d21 743d 9f4a d8bc 6f72 9dbd
000003e0: 6c4e 4f3d c96d 853b 98a6 f93b 7d20 9abd
000003f0: 3320 933d b1f9 113e f0b5 56bc f048 1abd
-0.061310016 0.0038785336 -0.04820201 0.13755868 0.026375277 0.024584929 0.07263889 0.10510547
-0.08233731 0.07795212 0.022082562 -0.044827033 0.15965821 0.13167658 0.09624376 -0.014047684
0.054487795 -0.08422608 -0.07950743 -0.06570986 -0.08183124 -0.081976086 0.023003522 -0.011252308
-0.13416894 0.081695706 0.072237454 0.14152728 0.08656852 0.12355118 0.083742976 0.0071620415
0.0444355 0.033762746 -0.07072539 0.0841525 -0.050507 0.010687909 0.055164825 -0.10818125
0.059073202 0.13408433 -0.09936533 -0.069019765 -0.032306988 -0.16768153 -0.10631498 -0.032516874
0.12943013 0.045946464 0.004350359 -0.09091936 -0.02693059 0.037368655 -0.009804746 0.052799553
0.1448561 0.019485312 -0.005282276 0.07028515 0.05249554 -0.18597476 0.039755303 0.013626793
0.049781978 0.14559285 0.16345976 -0.10117712 -0.15787482 -0.023383116 -0.03672507 0.011402025
-0.0052761384 0.007512447 0.03203929 0.06539521 -0.07751818 -0.15820877 0.12937926 0.013273814
0.11651872 0.099607356 -0.010899563 -0.077080935 0.029012255 -0.1170768 -0.100505374 0.02083829
0.00023853037 0.0980545 -0.13839677 -0.15693039 0.014369173 0.026760543 -0.094461046 -0.13544898
-0.026511572 0.11747719 0.108047456 -0.027714852 -0.000864304 -0.15284035 0.02713893 0.09073172
0.14864916 -0.054799758 0.0032828928 -0.07776393 -0.030857624 0.11705562 0.048308887 0.020603335
-0.005907935 -0.09911287 0.00891492 -0.010455041 0.11746547 -0.011463332 0.14565822 0.015705252
0.15742089 0.085777245 -0.09107513 -0.08516771 0.05055465 0.024928689 -0.14069828 -0.08100038
-0.058102045 0.03584466 -0.08142274 0.036353648 0.11196996 0.034943417 -0.0787803 -0.0707814
0.018377634 0.016605956 0.045391835 -0.083503075 0.00022804474 0.007122932 0.11842971 -0.06543039
0.08878614 -0.032387264 -0.08676251 -0.0314994 -0.08044831 0.0016159945 -0.027736884 -0.0283464
-0.11225844 0.12486854 -0.000438447 0.026100513 -0.09550174 -0.0026908945 0.04508392 0.07110929
-0.033594865 0.11658809 0.013554561 -0.025201164 -0.14086455 0.05208523 0.049041517 -0.03079791
-0.024661127 0.0353442 -0.04179676 -0.11396075 -0.012790468 -0.026990531 0.024216196 -0.1439982
0.006061558 0.10008965 0.03774217 0.00093507284 -0.11594182 0.019915944 -0.07737678 -0.004598604
0.06878793 -0.03343909 0.024641316 -0.03856173 -0.0019038823 0.0038949288 -0.012261743 0.08735303
0.08495781 0.13316144 0.094315834 -0.1108597 0.043742824 0.02631724 -0.10119826 -0.08589284
0.011342462 0.032770183 0.06602439 -0.030730454 0.016747069 -0.06429017 -0.0022003946 0.07076994
0.004054645 0.104601115 0.008080672 -0.077808686 0.014092534 0.0809493 -0.08089668 0.021168008
0.010186011 0.04684017 -0.08710473 -0.14476146 -0.044286795 0.068806976 -0.1251294 -0.09086691
-0.10354174 0.16975679 0.09730291 0.0679921 -0.042865757 -0.08443572 0.04791443 0.029018767
0.023945877 -0.015118887 0.039712723 -0.042293478 -0.11770494 0.13745703 0.13796136 -0.04814987
-0.027052227 -0.15765792 0.04538592 0.09809498 0.040891122 0.05960189 -0.02640277 -0.07687842
0.0506119 0.0040719253 0.0076187365 -0.07525728 0.07183876 0.14255406 -0.013104901 -0.037667215

lstm.weight_hh_l1 f4 [512, 128]
00000000: 4104 eb3d 2e85 31be 6826 6abd 0321 dc3d
00000010: bf5a 1abe f119 1bbe 9aa2 343d 0194 843d
00000020: 62aa 12bd 68fc be3d 4cee 78bc 9067 cbbd
00000030: f952 ca3d aa08 05be dbfc 04be 82ed 943c
00000040: 3e66 293d 3c18 31bc 4d91 c23d 329a 33be
00000050: 57b5 11be f988 acbc 2ed4 12bd 76f7 04bd
00000060: 6291 823d b5c8 eebc 1fcc cfbd 1bf5 b13d
00000070: 94b7 c53d 84a5 26be fa36 983d 4ff3 49bb
00000080: e06c 23bc d7f1 03bd b4d1 bebd d04b 843d
00000090: 7e7c edbc 3db1 f1bc 2202 14bd 7652 1b3e
000000a0: 04ea 073e 5fe4 2ebd 2e6e 1bbe ddca efbd
000000b0: f398 253d 91de dd3d a719 293d 57e1 cf3d
000000c0: 0044 6ebd 6899 f2bd fb03 043e f03f 3c3d
000000d0: 8cc2 253e 1ee5 18be ed15 023e 6817 0c3e
000000e0: 74c0 933b e7dd f0bd 8920 16be 4fc2 42bd
000000f0: 1ae8 bf3d 7d42 073e f843 3a3d d014 22bd
00000100: 53a4 073d a47e 793d 21a8 113e a260 2dbc
00000110: bd00 c83b 0ff9 c7bd 1511 333e d078 7abd
00000120: 55fc 163d 7f8e e0bc 5f29 f83d 923e ff3c
00000130: 7931 00bd aa6e 753d 9326 5fbd fe4e 1c3e
00000140: 4698 f2bd 7102 053e 4c3f 0e3e 6f59 5b3d
00000150: 50e6 cdbd 52fd 4cbd 895b 27be 269d 43bc
00000160: be39 f1bd 4b23 eabd a183 fdbd 771f 3cbd
00000170: 1e57 a8bd 6f08 113e 7fc8 273c 559c cf3d
00000180: 4e30 f2bc 0261 56bd 39ed 40bd 0431 f13d
00000190: 8e63 7a3d a2fa b93c 3b1d dabd f920 a23d
000001a0: 5162 1abe 6017 d23d eb0a cc3b 4e46 a4bd
000001b0: 4510 743d 363b ebbd f075 29bd c261 94bd
000001c0: 42e7 b93d a704 25be c849 fd3d ec3a 833d
000001d0: ee78 5e3d 2fce e7bb 48cb 503d db5c 08be
000001e0: 91cc e93b 4e36 813c acc8 853d 9dc6 933d
000001f0: 9f2c 44bd a164 813d 8add cf3d 6bf9 aebd
00000200: 3b23 eb3d 614c babd 498a b73c 636b 3b3c
00000210: 10d0 2cbc 363b 2ebd 5a21 893d c04f 083d
00000220: 38c8 f2bc 0399 983d 0330 ea3d fdaa 77bd
00000230: b96d b93d fee1 eabd 1e09 c6bd f7b4 dc3d
00000240: df70 f1bc 6178 c9bd 07e9 c4bc 4d92 4bbd
00000250: 6cc7 943c 37de 1abd 942d 96bd c6e0 ffbd
00000260: c093 f73d 401e b4bc 932f c8bd f254 a63d
00000270: 79bc d53c 2f7f 22bd 6125 683d e8b9 b8bd
00000280: 38cc b5bd 5d43 a2bc 3015 b6bc 7990 9ebc
00000290: 88d3 05bb 50ac e93c 3b8e dc3d 56b1 49bc
000002a0: 5038 033d 7f66 6d3c 29ba 04be c17c c8bc
000002b0: 8eeb 063e 4044 1c3e e251 e63c b9bf 6bbc
000002c0: 7545 3fbd c1f4 3fbd 79cb d33d a8b4 1d3e
000002d0: 0d93 d83d fb9d 12bd e3c9 e1bb e259 243d
000002e0: 440d 19bd f32e cdbd 1cc3 6ebd 6bcb c23b
000002f0: 2ca5 dfbb 98df 0a3e 4801 ab3d fd70 483c
00000300: 865c fd3d 6a84 583d b00e 0e3d 14f1 fdbd
00000310: 57b2 363d a491 593c 5956 183e 383e 9ebd
00000320: 8a92 c1bd 9def ebbc 89b7 24bd 5bef 5ebc
00000330: 0fe1 07bd 30ad b0bb c6e9 dabd d26b e73d
00000340: 0efd 36bd 677f 373d eae5 853d 7d86 403c
00000350: 8ed8 5dbd c98c 83bd c70f 4ebd 0408 75bd
00000360: db82 02be 7d90 063a b8fb 8e3b fb71 84bd
00000370: 20ba 503d 4762 183c f5e9 023e 37ed 393d
00000380: ef95 e4bd 7658 9e3c e7f6 04be 98b4 453d
00000390: 6ddf 51bc 71cb c1bc 38c0 92bd ba09 0b3e
000003a0: a901 c8bd 03fb aa3a 42f1 15bd 7d67 cbbd
000003b0: e2d7 db3d 7514 f2bd 1cba adbd 566a 773d
000003c0: 7079 e33d 2f45 aa3c 1d40 093d b74b efba
000003d0: 2781 24bb ef70 2f3e 8c89 f03c cbe2 04bd
000003e0: 3e5b 0c3e 828c ce3c 0832 1d3e 0860 18bd
000003f0: 1c2f e03d 0bec 133e b92e 183e 57ab a0bd
0.11475421 -0.1733596 -0.057165533 0.10748484 -0.1507368 -0.15146615 0.04410038 0.06473542
-0.03580702 0.093254864 -0.015193533 -0.09931862 0.09879107 -0.12991586 -0.12987082 0.018179659
0.04135727 -0.010809001 0.0950037 -0.1753929 -0.14229332 -0.021061407 -0.03584688 -0.03246256
0.06375386 -0.029148439 -0.10146355 0.08689328 0.096541554 -0.16274077 0.07432361 -0.003081519
-0.009974688 -0.03221306 -0.093173414 0.064597726 -0.028990027 -0.02950346 -0.036134847 0.15168175
0.13272864 -0.04269826 -0.15178749 -0.11708615 0.040429067 0.10833467 0.04128423 0.10150402
-0.05817032 -0.11845666 0.12892143 0.045959413 0.16187495 -0.14931151 0.12703677 0.13680804
0.004509026 -0.117610745 -0.14660849 -0.04754859 0.09370442 0.13208957 0.045474976 -0.03957063
0.033115696 0.06091179 0.14224292 -0.010582121 0.0061036036 -0.09764301 0.17486985 -0.061150372
0.036861736 -0.027411697 0.12117266 0.031157766 -0.03129718 0.05991999 -0.054480147 0.15264508
-0.1184545 0.12989213 0.13891333 0.053552087 -0.10053694 -0.050046273 -0.16343512 -0.011939323
-0.117785916 -0.11432513 -0.12378622 -0.045928445 -0.08219741 0.14163373 0.010240673 0.1013724
-0.02956405 -0.052338608 -0.047101233 0.11776927 0.0611301 0.022702519 -0.106501065 0.07916445
-0.15076567 0.10258365 0.0062268875 -0.08021222 0.05958583 -0.11485903 -0.04137224 -0.07245208
0.09077312 -0.16115056 0.12367588 0.06407723 0.054314546 -0.0070741395 0.050975114 -0.13316672
0.007134982 0.015772965 0.06532416 0.07215617 -0.047894116 0.063180216 0.10149677 -0.085436665
0.11481329 -0.09096599 0.022404807 0.011439177 -0.010547653 -0.042536937 0.066958144 0.03327918
-0.029636487 0.0745106 0.11434939 -0.0604658 0.09054131 -0.11468886 -0.09669708 0.10776704
-0.029472766 -0.098374136 -0.024036897 -0.04970007 0.018161498 -0.037809577 -0.07332912 -0.12494044
0.12088728 -0.02198708 -0.09774699 0.08121671 0.026090847 -0.039672073 0.056676272 -0.09019834
-0.08876842 -0.019807512 -0.0222269 -0.019356 -0.0020420272 0.028524548 0.10769316 -0.012310347
0.032036126 0.014489769 -0.1296164 -0.02447355 0.13175794 0.1526041 0.028115217 -0.014388972
-0.0466971 -0.046864275 0.10341544 0.15400946 0.10574923 -0.035795193 -0.006890522 0.04012478
-0.037366167 -0.100187205 -0.05829154 0.0059446595 -0.00682511 0.13561857 0.08349854 0.01223397
0.12371163 0.052860655 0.034681976 -0.12399498 0.044603672 0.013279352 0.14876689 -0.07726711
-0.09451778 -0.02880078 -0.040214095 -0.0136068715 -0.033173617 -0.0053917393 -0.1068912 0.11299862
-0.044674926 0.044799235 0.06537993 0.0117508145 -0.0541616 -0.06423337 -0.050308015 -0.059822097
-0.1274523 0.0005133225 0.0043635033 -0.064670525 0.050958753 0.009300775 0.1278456 0.04539224
-0.1116141 0.01932929 -0.12984811 0.04826793 -0.0128096165 -0.023656579 -0.07165569 0.13577929
-0.09765942 0.0013044778 -0.036607035 -0.09931848 0.10734536 -0.11820308 -0.08482763 0.060404144
0.11107147 0.020784942 0.03350841 -0.0018256818 -0.0025101395 0.17132924 0.029362462 -0.03244285
0.13706681 0.025213484 0.15351117 -0.037200958 0.109464854 0.14445512 0.14861573 -0.078451805

lstm.bias_ih_l1 f4 [512]
00000000: ca4e c53d 01f1 123d 5f56 58bd b0e2 c0bd
00000010: f69b 00be 1b16 d3bd c80b c2bd 91fc 13be
00000020: 010c dcbd cfd7 c13d a2bc 5fbd ddea 0b3e
00000030: b3fa 92bd cfda 1b3e a3bb b8bd 962f 9e3d
00000040: c0ff 40be 93e4 203d 901f 0ebe 4c34 a9bc
00000050: 094e babc a316 973c b19b c5bd 2f9a 81bd
00000060: 6699 4bbe 863d 393c 8a24 1d3c 1bd4 8cbd
00000070: 7703 71be 3aaf 8f3b 310d d4bb b7da 8abd
00000080: 6f26 c3bd 794f 833d c3b9 b3bd 3a10 cdbd
00000090: 696d f33d 7783 273d edcc 20be 17ad 40bd
000000a0: a2ce 343e dbe3 d83d 1606 5e3d b37b 153c
000000b0: f908 ec3d 90bc 55bb 98b3 45be 4051 abbd
000000c0: e772 903d 36f7 e13c dc3b df3d 2f30 fb3d
000000d0: 2164 fe3c 6903 c83d 7086 0d3e cd17 7d3d
000000e0: a089 97bd ff65 693d c215 9c3d 33a2 b5bc
000000f0: 0319 0f3e 377b 97bd 31c0 d6bd 86a4 85bd
00000100: b491 22bd 8fe7 243d f727 dbbd e16c ad3d
00000110: fc7f 2a3e b71c 973d e015 043e 0032 e8ba
00000120: 54bd 08be a3ba 3ebd c5ff 24bc 9b46 3fbe
00000130: 4c2f 9a3c 6b2c 593d 9d04 dbbd f1fc e1bd
00000140: 9ec1 123e 0d4e 053e f5c6 dd3d 1125 12bd
00000150: c044 6cbc 2560 b33d 1896 88bb 5b3e 0e3e
00000160: d160 a83d 8f5c f5ba 26fa dd3d adb4 5b3b
00000170: 8e3d 0e3d d940 24bc 446b 803c f009 3d3c
00000180: b730 1cbb 5f86 8f3d 03d2 033d 723d 44bd
00000190: 0f27 093e 60c1 023d c0f7 863d 2aa8 233e
000001a0: aa4a ed3d b7e3 a4bc 14c9 203c 4f32 f2bc
000001b0: a678 093e 3efe 15be 4a7b 47bd 67c1 30be
000001c0: b349 84bd 98a5 fb3d e8af cb3c f161 35be
000001d0: 4544 953d e830 74bd df70 d23d eb30 03be
000001e0: cc3a 25be b298 ca3d d4c4 edbd 6fe6 53bd
000001f0: 759a 9fbd fd4e ff3d 3ed3 8d3d 0e55 bcbb
00000200: 0a9c 5f3d 911c 9e3c 0dfd 16bd 4c91 9dbd
00000210: c7b8 e4bd 910d e1bd 9347 b6bc c012 12bd
00000220: 3640 93bc 6798 703d 0c54 3abe 3888 103e
00000230: 4155 36bd 68f1 2d3e 3209 a2bd 422a 9c3d
00000240: 9bb5 1dbe dfe5 5f3d aa80 66bd 7e2e 6fbd
00000250: 3340 15bd 811c 0e3c 0a92 7ebd 41a8 cebc
00000260: a524 77bc 989f 2abc 9f89 e0bd 9475 1bbe
00000270: cb0c 53be e62d 55bd 3644 05bd 7f2a 403d
00000280: 6945 0ebe a19e 583c a5db 93bd feec 2ebe
00000290: 11a2 153e 004e e6bd f565 4fbd b008 43be
000002a0: 0a32 1c3e 1b29 82bd 07d2 0e3e ac9e 89bd
000002b0: 1299 2e3e 0a48 ad3d b3b1 d83d c367 30be
000002c0: efda 7ebd 3e30 ef3d 36bc bf3d 56c6 053e
000002d0: 842e ba3d 5bfe a03d 4ddd 623d 1652 ddbd
000002e0: 868b fcbd 7db2 e8bd 5189 813d 49cf 9f3c
000002f0: 624d 7d3d 5303 34bc 1f99 b5bd a6b2 573a
00000300: 2430 bebd d891 b33d ea23 bdbc ffdf f63d
00000310: 608e 4d3d dab3 14bc be3c d03d 23cb adbd
00000320: d109 15bd 26e6 79bc 1f55 ebbc 2d3b 26be
00000330: 0948 d73c 27a9 9abc bab9 61bd e497 edbd
00000340: 4f4e 293e 5128 d53d 1d53 283e 4f2d 9f3a
00000350: 4ed6 073e a77a a53d c5bc 103e ae63 1b3e
00000360: 51be 173d 2ea4 3b3d 340d 363e ed6f cdbd
00000370: 4ac2 d2bd becf d6bd 1931 af3d af8e b63c
00000380: 532b 143e f58f 4ebe 5b54 843d 13d3 dd3c
00000390: e277 093e b3fa 1d3e 96cb 86bd f15b fb3d
000003a0: 10ec 5a3c 75d5 a9ba 1a05 e1bd 5c49 dbbc
000003b0: 4d45 e03c 9ea6 eebd 673c a73d cc13 05bd
000003c0: b73b d6b8 1f41 91bd 6265 dd3d 2e93 31bd
000003d0: aa39 37be 63d3 2dbc 1757 cb3d 352c 4ebd
000003e0: 5569 87bd b3a3 d2bd 45a2 9a3a b76c 70bc
000003f0: dfd9 51bd 36d8 b83d 2e54 2f3d ddc6 3ebe
0.096341684 0.03587437 -0.052816745 -0.09418237 -0.12559494 -0.10306951 -0.09474903 -0.14451815
-0.10744477 0.0946499 -0.054623254 0.13663812 -0.07176723 0.15220188 -0.09020164 0.0772392
-0.18847561 0.039280485 -0.13879228 -0.02065482 -0.022742288 0.018443411 -0.096488364 -0.06328236
-0.19882736 0.011306172 0.009591231 -0.068763934 -0.23536478 0.0043849023 -0.006471299 -0.06779998
-0.09528815 0.064116426 -0.087756656 -0.100128606 0.11886103 0.04089686 -0.15703173 -0.04704007
0.17656949 0.10590335 0.054205023 0.0091237305 0.11525149 -0.0032613613 -0.19306791 -0.083651066
0.07053166 0.0275837 0.10900089 0.1226505 0.031053605 0.097662754 0.13820815 0.061790276
-0.07399297 0.056982037 0.076213375 -0.02217207 0.13974385 -0.07396548 -0.10485876 -0.06525521
-0.039689735 0.040259894 -0.10700982 0.08468033 0.16650385 0.07378524 0.1289897 -0.0017715096
-0.13353473 -0.04656471 -0.010070746 -0.18679278 0.018821381 0.053020876 -0.10694239 -0.11034573
0.14331672 0.13018055 0.10828964 -0.03567988 -0.014420688 0.087585725 -0.004168283 0.13890974
0.08221591 -0.0018719601 0.10838728 0.003352444 0.034726672 -0.0100252265 0.015676148 0.011538014
-0.0023832747 0.07008051 0.032182705 -0.04791016 0.13393806 0.031922698 0.06590223 0.15982118
0.11586507 -0.020128114 0.009813566 -0.029565005 0.1342493 -0.14647767 -0.048701562 -0.17261277
-0.064593695 0.12287444 0.024864152 -0.17713143 0.07288412 -0.059616953 0.10275435 -0.1281163
-0.1613571 0.098924056 -0.116098076 -0.05173343 -0.07793132 0.12466238 0.06925057 -0.005747444
0.05459217 0.01930073 -0.03686242 -0.07693729 -0.11168056 -0.10988916 -0.022250926 -0.035662413
-0.017974954 0.058739092 -0.18196124 0.14114463 -0.0445149 0.1698662 -0.0791191 0.076252475
-0.15401308 0.05466258 -0.056275047 -0.058393948 -0.03643818 0.008673788 -0.062150992 -0.025226714
-0.01508442 -0.010414027 -0.10963749 -0.15181571 -0.20610349 -0.052045725 -0.032535754 0.046915527
-0.13893665 0.013221414 -0.07219628 -0.17082593 0.14612605 -0.11245346 -0.050634343 -0.19046283
0.15253463 -0.063554965 0.13947307 -0.067197174 0.17050579 0.08461006 0.105807684 -0.17227082
-0.06222051 0.11679123 0.0936207 0.1306394 0.090909034 0.078610145 0.05538683 -0.10806672
-0.123312995 -0.11362169 0.06325019 0.019508021 0.061841376 -0.010987121 -0.08867096 0.000822822
-0.09286526 0.08768052 -0.023088414 0.120544426 0.050184608 -0.009076083 0.10167836 -0.08486011
-0.036386315 -0.015252626 -0.028727112 -0.16233511 0.026279466 -0.018879486 -0.055108763 -0.116012365
0.16533779 0.1040808 0.16437955 0.001214424 0.13265345 0.08080035 0.1413451 0.15174744
0.037046734 0.04581087 0.17778474 -0.10031114 -0.10290964 -0.104888424 0.085542865 0.022284834
0.14469652 -0.20172103 0.06461402 0.027078187 0.13424638 0.15427665 -0.065818 0.12273396
0.013361946 -0.0012957292 -0.10987301 -0.026768379 0.027376795 -0.116528735 0.08165818 -0.032489583
-0.00010215438 -0.07092499 0.10810353 -0.043353252 -0.17893091 -0.010609481 0.099287204 -0.050335128
-0.06611887 -0.102851294 0.0011797628 -0.014674357 -0.05123317 0.09025614 0.04280489 -0.18630548

lstm.bias_hh_l1 f4 [512]
00000000: 0db3 df3d 7e1d d53d 5857 b1bd d491 a7bd
00000010: 1163 9cbb 3d1d 17be 1a75 913c a3d9 99bd
00000020: 54cc eabd 9ce3 dc3d cb7e a3bc 0da6 bf3d
00000030: 0be2 b5bd aff0 ed3d e49a 0cbe 3d83 6a3d
00000040: ae48 05be edeb 3d3e 6569 28be 4a47 2bbd
00000050: 35ee 8dbc 5fbc b63d 08a6 d6bd b6c4 c6bc
00000060: 9174 4cbe 7878 afbd 39d8 113a 5482 99bc
00000070: 2b13 6dbe 4203 0abd 2c81 29be 2844 873b
00000080: 1795 16be e77c c43d fe28 1fbe b13b 7fbc
00000090: fad4 dd3d 247f 093c 4702 62bd d99c edbd
000000a0: e48f bc3d c227 0d3c 9548 063e 7c89 593d
000000b0: 9989 f33d a87a 143d 8692 39be d68f 39be
000000c0: 104c 353d 2ea1 3e3c 2d41 e83d 21fd 123d
000000d0: 2334 c93d e048 153e 77e9 e93d c45d 01bd
000000e0: 594b b9bd 3210 1a3e bbd3 963c 15af 01bd
000000f0: 3492 db3d 864a 24bd 79b2 31be 92a6 51be
00000100: cd07 75bb ed42 293c 0237 d03c eb89 b03d
00000110: 573f 7f3d 83bf 843d bcf8 ae3d eb2f 3f3d
00000120: ca95 84bc 81a1 46bd abed 62bc 1e1c debd
00000130: 80f1 f2bc 5f55 15bc 5b5d f2bd 405c bd3c
00000140: d16e d43d d236 bf3d 5343 0b3e 0bd1 54bd
00000150: 47b5 de3d 904c 423d eb0c c33c 4b8b 563e
00000160: e0ef f53d bb73 9c3d ada8 c63d 8f4c 41bd
00000170: 3b98 07bd 3ced a8bc 5928 ff3c b05c b53b
00000180: ac45 d83d ef6e b03c 8a62 083e e05e 373d
00000190: 158d cf3d 1719 e03d 067b 30bd c35b 003e
000001a0: 68dc ba3d e4bc e5bc d76e 2fbd 9341 4c3d
000001b0: 1cf9 213e 082c 29be c787 81bc 9ebf 02bd
000001c0: 391c 713d 22b6 953c c25f 2d3e 4d1a abbd
000001d0: 527f f63c 25f6 36bd e4d4 fe3d dbe7 ffba
000001e0: 66e1 dfbc e3cd f93d fa68 8bbd 7888 d0bd
000001f0: 6aad 0fbe 201c 223e b192 dd3d 870a b8bd
00000200: 3619 e73d 2dd1 2f3c a3a3 13be 4439 22bc
00000210: d561 1fbe 2e29 39be 5bc3 e6bd ed52 c0bd
00000220: bcde 99bd 7e69 c23d 4e47 34be 6195 6e3e
00000230: 58f1 01be daa6 f73d b4af 4abe fd10 063d
00000240: 9fa6 72bd 1e89 c13d 4671 c7bd 89c9 473d
00000250: dbad 04be 1c81 07bc ea44 1bbe 1bbe 8abd
00000260: 5175 0bbe 3ae8 3bbd 886a 22bd 99c3 32be
00000270: 97f4 e6bd bdcf 7abd 52da 2ebe 8819 103d
00000280: 2652 99bd 5053 1b3d 90f1 1abe 11f4 f5bd
00000290: f25c da3d 2384 1ebd 143a d9bd 32cc ebbd
000002a0: 9b68 833d 6d7c 49be 4579 0d3e 41e2 903c
000002b0: a9e2 d73c dd36 d03d 0c63 983d ecfb 92ba
000002c0: 715a 113d cc1e 1e3e 2243 8e3d 952b 383e
000002d0: 4dd5 bd3d 496b 363e 5b8d e33d 8168 fd3c
000002e0: bb66 2cbd 4f6b 88bb 370f a63c 9ff3 63bd
000002f0: e206 6abb d7cb 79bd c465 11be e9a1 c8bc
00000300: 04de 12bd 5e09 a93d 4190 4cbd e402 fc3c
00000310: e245 f03c e682 a23d f56d 963d c63c 05bc
00000320: 6d5d 61bd 6d39 93bd 330e d2ba caf9 38bd
00000330: b766 adbd 4985 c63c a154 51bd 4a55 99bd
00000340: 2741 343e c132 c43c 2cf3 1b3e 0d66 d4bd
00000350: 1ac4 10bc b6e5 a83d d1a4 383d c31f 243e
00000360: 6db7 8e3c 8a83 74bc ef41 0d3e da7b 27be
00000370: 9655 b8bd d044 ad3b e944 e43d 1088 0bbe
00000380: e184 fd3d e9f9 b8bd cd4f 053e da64 c53d
00000390: 48c5 e13d ccc0 a93d 68d5 15be 476e a03d
000003a0: c74f f43d 6fbc 0cbe 03b9 0ebe 7a30 a9bd
000003b0: b559 a03d cdbe d1bc b2de 76bc 79a0 6fbd
000003c0: f0ff 61bd fcd1 e0bd c165 fe3d f4ff 88bd
000003d0: a720 1abe b1b5 d7bc ae47 a53c 76c4 bbbd
000003e0: ef38 d9bd f533 903b 8486 20be 97f6 4e3c
000003f0: 492c 8dbd d457 153e 6aed c63c 7b65 d3bd
0.10922823 0.10406016 -0.086592376 -0.081821114 -0.004772552 -0.14757247 0.017756034 -0.07512214
-0.11464754 0.107856005 -0.01995792 0.093578435 -0.08881005 0.116181724 -0.13730961 0.057254065
-0.13016006 0.1854703 -0.16446455 -0.041816033 -0.0173255 0.08922648 -0.10480887 -0.024263721
-0.19966342 -0.085678995 0.0005563531 -0.018738903 -0.23151843 -0.033694513 -0.16553181 0.004127998
-0.14705311 0.09594136 -0.15542981 -0.015578196 0.10831638 0.008392129 -0.055177953 -0.11602182
0.092071325 0.008615436 0.13113625 0.05310963 0.11891479 0.036249787 -0.181223 -0.18121275
0.044261992 0.011635108 0.11340556 0.035885934 0.098243974 0.14578581 0.11421483 -0.031583562
-0.090475745 0.1504524 0.018411508 -0.03166111 0.107212454 -0.040110134 -0.17353238 -0.20473698
-0.0037388683 0.010330898 0.025416855 0.08620056 0.062316265 0.064818405 0.08543536 0.046676558
-0.016184706 -0.048493866 -0.01385061 -0.10845207 -0.029656172 -0.009114592 -0.118342124 0.023115277
0.10372699 0.09336628 0.13599901 -0.05195717 0.1087442 0.047436297 0.02380987 0.20951574
0.12008643 0.07639261 0.09700141 -0.047192153 -0.033104163 -0.020620935 0.031147169 0.005534731
0.10560164 0.021537272 0.1331884 0.044768214 0.10134331 0.109422855 -0.043086074 0.12535004
0.091240704 -0.028044172 -0.042830314 0.049867224 0.15817684 -0.16520703 -0.015811814 -0.03192102
0.058864806 0.018275324 0.1693106 -0.08354626 0.030090008 -0.044668335 0.124429494 -0.0019524054
-0.027329158 0.12197473 -0.06807132 -0.10182279 -0.14030996 0.15831041 0.10818995 -0.08986383
0.112841055 0.010731024 -0.14417891 -0.0099013485 -0.15564664 -0.18082115 -0.1126773 -0.09390817
-0.07513186 0.09492777 -0.17605326 0.23299171 -0.12689722 0.12092371 -0.19793588 0.032731045
-0.059240934 0.09449981 -0.09738402 0.048776183 -0.12956946 -0.008270528 -0.15163007 -0.06774541
-0.13618971 -0.045875765 -0.039652377 -0.17457427 -0.112771206 -0.06123327 -0.1707547 0.0351806
-0.07486372 0.03792125 -0.15131211 -0.120094426 0.10662259 -0.038700234 -0.10606781 -0.115135565
0.06416436 -0.19676371 0.13815792 0.017686011 0.026353197 0.10166714 0.07440767 -0.0011213995
0.035486642 0.15441436 0.06946398 0.17985375 0.092691995 0.17814364 0.11110946 0.03093362
-0.04209016 -0.004163183 0.020270927 -0.055652257 -0.003570967 -0.060985412 -0.14198977 -0.024491267
-0.03585626 0.0825374 -0.04994226 0.030763097 0.029330198 0.07935123 0.073451914 -0.008132165
-0.05502074 -0.071886875 -0.001602596 -0.045160092 -0.08466857 0.024233477 -0.0511061 -0.07486971
0.17602979 0.023949983 0.15229481 -0.10371027 -0.008835817 0.08246939 0.045079056 0.16027741
0.017421449 -0.0149239395 0.13794683 -0.1635584 -0.09000699 0.005287744 0.11145956 -0.13626122
0.1237886 -0.090320416 0.13018723 0.096383765 0.110239565 0.08288726 -0.1463219 0.07833534
0.11929279 -0.13743757 -0.13937764 -0.08261199 0.0782961 -0.025603676 -0.015067743 -0.058502648
-0.05517572 -0.10977551 0.12421752 -0.06689444 -0.15051518 -0.026331754 0.020175781 -0.09168331
-0.10606562 0.004400725 -0.15676314 0.012632034 -0.06893212 0.14584285 0.02428313 -0.1032209
