1223-code-DL/model/LSTM_without_features_state_dict.pt (torch, 125523 bytes, 21 tensors)

lstm.weight_ih_l0 f4 [128, 1]
0	0x3e885501	0.26627353
1	0x3ede1532	0.43375546
2	0xbd2816af	-0.041037258
3	0x3e86ac2b	0.2630323
4	0xbda2d4a4	-0.07950714
5	0x3c2c77e0	0.010526627
6	0xbd9f2984	-0.0777159
7	0xbcb1a0f9	-0.021683203
8	0x3d70cb72	0.05878777
9	0xbe27027e	-0.16309544
10	0x3da0cb59	0.078512855
11	0x3e4dd950	0.2010243
12	0xbeabad35	-0.33530584
13	0x3dce9bed	0.10088334
14	0x3ed935e5	0.4242393
15	0xbddcfdb3	-0.10790577
16	0xbd998908	-0.0749684
17	0x3e179dad	0.14806242
18	0x3e1d702a	0.15374818
19	0xbe208b70	-0.15678191
20	0x3ec5819f	0.38575456
21	0x3f03a587	0.5142445
22	0xbdd7886f	-0.105240695
23	0xbca2fc03	-0.01989556
24	0x3e5a8f20	0.2134366
25	0x3dfef26d	0.12448583
26	0x3ec512d9	0.38490942
27	0xbe118a2f	-0.14212869
28	0x3ea86277	0.32887623
29	0x3af1a74c	0.0018436699
30	0xbdf40315	-0.1191465
31	0x3c57ca71	0.013170824
32	0x3dfb9ab7	0.12285369
33	0x3e8347ca	0.25640708
34	0xbd0161f4	-0.031587556
35	0x3e837cee	0.2568125
36	0xbdec6489	-0.11542613
37	0x3d615930	0.055016696
38	0xbd8a7664	-0.067608625
39	0x3a43ca64	0.0007468818
40	0x3d923c12	0.07140364
41	0xbea144dc	-0.31497848
42	0x3db2fe30	0.08739889
43	0x3c85ef8b	0.016349575
44	0xbe9cd551	-0.30631498
45	0x3d1cc3b1	0.038272563
46	0x3f16e762	0.5894681
47	0xbd32ab65	-0.043620486
48	0xbe738e6b	-0.23784797
49	0xbc53146c	-0.012883287
50	0x3ec04e47	0.3755972
51	0x3cf96002	0.030441288
52	0x3ebbe596	0.36698598
53	0x3edce3ed	0.43142644
54	0x3d4f868f	0.050665434
55	0xbe9c34bd	-0.30508986
56	0x3e8e909a	0.27844697
57	0xbd3495ce	-0.044088177
58	0x3dc09dfb	0.094051324
59	0xbe09afcb	-0.13445966
60	0x3efae345	0.49001518
61	0x3db2390d	0.08702288
62	0xbe13ad67	-0.14421616
63	0xbdd5ed89	-0.10445697
64	0x3ebcc066	0.36865538
65	0x3e91f1e9	0.28504875
66	0xbe9c740e	-0.30557293
67	0xbe8ff2ce	-0.28114933
68	0x3d7c78f9	0.061638806
69	0x3ec1d208	0.37855554
70	0xbe991862	-0.29901415
71	0xbca97625	-0.020686219
72	0x3e7f842e	0.24952766
73	0x3e785e39	0.24254693
74	0x3eaecef1	0.3414226
75	0x3ec983b5	0.39358297
76	0x3e387b7b	0.18015854
77	0xbeae9ce4	-0.34104073
78	0x3ee0a89b	0.43878636
79	0xbe8dc4a1	-0.27689078
80	0xbe76e4a6	-0.2411066
81	0x3eafad24	0.34311783
82	0x3ebaa545	0.36454216
83	0xbeb12594	-0.34598982
84	0x3eaee900	0.3416214
85	0xbe8482fb	-0.2588118
86	0xbca6a71d	-0.020343358
87	0xbeb260e1	-0.34839538
88	0x3e9a152c	0.30094278
89	0xbe728770	-0.23684478
90	0x3e8c5ca4	0.2741443
91	0x3e84f567	0.25968477
92	0x3ed467a1	0.41485313
93	0x3e508b00	0.20365524
94	0xbea5e7de	-0.32403463
95	0xbe63bdb2	-0.22240332
96	0x3edbd093	0.42932567
97	0x3edd2fa7	0.43200418
98	0xbd47469a	-0.048651315
99	0x3ecfc701	0.40581515
100	0x3e30391e	0.17209288
101	0x3d9c9d0e	0.07647143
102	0xbe20e74c	-0.15713233
103	0xbe313b10	-0.17307687
104	0xbd5c16ef	-0.05373281
105	0xbe6a9175	-0.2290705
106	0x3d2a7c06	0.041622184
107	0x3e1589c8	0.1460334
108	0xbe3686a6	-0.17824802
109	0x3e8aba2c	0.27095163
110	0x3f0d4315	0.55180484
111	0xbc13e6ba	-0.0090271775
112	0xbe8620a2	-0.26196772
113	0x3e58f88d	0.21188565
114	0x3ee58473	0.44827613
115	0xbe6d18f0	-0.23154044
116	0x3ebb8ce1	0.3663092
117	0x3ef098c6	0.46991557
118	0xbd288f76	-0.04115244
119	0xbdf9af22	-0.12191607
120	0x3ebf8768	0.37407994
121	0x3e1342a7	0.14380895
122	0x3e5a2b09	0.21305479
123	0x3d84b8b3	0.06480541
124	0x3ebe8fdb	0.37219128
125	0xbce4b0d9	-0.027916359
126	0xbdb2481e	-0.087051615
127	0xbe70d9e4	-0.23520619

lstm.weight_hh_l0 f4 [128, 32]
0	0x3dc8b77c	0.09800622
1	0xbd57c6f6	-0.05267998
2	0xbdeed095	-0.116608776
3	0xbda610ea	-0.08108695
4	0xbde61507	-0.112344794
5	0x3e0c79cc	0.13718337
6	0xbd0c041c	-0.034183607
7	0xbd29c44f	-0.04144698
8	0x3c99face	0.01879635
9	0xbcad1b2c	-0.02113112
10	0x3e33b05d	0.17547746
11	0x3e2e8429	0.17042603
12	0x3e2c11fe	0.16803738
13	0x3c5116cf	0.012761786
14	0x3ea8b69d	0.32951823
15	0xbdc3ddc2	-0.09563781
16	0xbe12bab0	-0.14329028
17	0xbc9b2efd	-0.018943304
18	0x3e8092f6	0.25112122
19	0xbdcfa972	-0.10139741
20	0x3d05a3c3	0.03262688
21	0xbe8f5e95	-0.28001848
22	0xbe431ad6	-0.19053206
23	0xbe14e69b	-0.14541094
24	0x3e150f2d	0.1455657
25	0x3e09cbf4	0.13456708
26	0x3e76a547	0.24086486
27	0xbe0020c9	-0.12512507
28	0x3e80a66e	0.25126976
29	0xbd4e4a05	-0.05036356
30	0xbd972421	-0.07379938
31	0xbd180206	-0.037111305
32	0xbc485f19	-0.012229704
33	0xbd7c70b8	-0.061630934
34	0xbdc4cf77	-0.09609883
35	0xbde6174d	-0.11234913
36	0x3cccb041	0.024986388
37	0x3e0e95a2	0.13924268
38	0xbe6a3a23	-0.2287374
39	0x3d6de562	0.058080085
40	0xbda34cfa	-0.079736665
41	0x3d8fe8f5	0.07026855
42	0x3e4e1e0f	0.20128654
43	0x3c8ca292	0.017167363
44	0x3e4918f9	0.19638433
45	0x3db1d8a3	0.08683898
46	0xbe242adf	-0.16031979
47	0x3c909e7c	0.017653696
48	0xbda38578	-0.079844415
49	0xbda48504	-0.08033183
50	0x3e17e526	0.14833507
51	0xbe83ae89	-0.25719097
52	0x3c1a6a15	0.009424706
53	0xbb874f61	-0.0041293357
54	0x3ddcb70b	0.107771
55	0x3c2d3b70	0.010573253
56	0x3e2549b6	0.161414
57	0x3c2f2329	0.010689535
58	0xbd5d84fe	-0.05408191
59	0xbd883599	-0.06650848
60	0xbe1636c0	-0.14669323
61	0x3e135e10	0.14391351
62	0x3e328efe	0.1743736
63	0x3d897726	0.06712179
64	0x3e25c3bb	0.16187946
65	0x3e2bcd99	0.16777648
66	0xbea2c53a	-0.31791097
67	0xbe964b1a	-0.29354173
68	0xbde7d533	-0.113199614
69	0x3eb6b2cb	0.35683283
70	0xbe88020c	-0.26564062
71	0xbacce260	-0.001563143
72	0x3ea5be12	0.32371575
73	0x3d91ea64	0.071247846
74	0x3dcd3247	0.10019355
75	0x3e3d6b3b	0.18497936
76	0xbc442862	-0.011972519
77	0xbe15773d	-0.14596267
78	0x3e5ab639	0.21358575
79	0xbdc79cd6	-0.09746711
80	0x3ded140f	0.115760915
81	0x3e3caff6	0.18426499
82	0x3e18ea31	0.14933087
83	0xbdf6fde1	-0.12060142
84	0x3e545756	0.20736441
85	0xbe9df3b7	-0.30850002
86	0x3b684404	0.003544093
87	0xbde5a52b	-0.11213144
88	0x3da61869	0.081101246
89	0xbe1448d1	-0.14480902
90	0x3e9de46e	0.3083834
91	0xbe4ba0c8	-0.19885552
92	0x3e7e99bf	0.24863337
93	0x3eb0006b	0.3437532
94	0x3dd1fc2e	0.102531776
95	0xbc763877	-0.015028111
96	0x3d685120	0.05671799
97	0x3e45c4fd	0.19313426
98	0xbea82e8f	-0.3284802
99	0xbe7a34c8	-0.24434197
100	0x3c075f11	0.008262412
101	0x3eb420b3	0.35181198
102	0xbe63f918	-0.2226299
103	0x3d596c5b	0.05308185
104	0x3e0267f3	0.12734966
105	0x3e98e89a	0.2986496
106	0x3eb2c4c3	0.34915742
107	0xbd2677c0	-0.040641546
108	0x3e2d0e27	0.1689993
109	0xbea2c3ac	-0.3178991
110	0x3d530673	0.051519822
111	0xbe7cf1fe	-0.24701688
112	0xbc31817d	-0.010834095
113	0x3ecff0ed	0.406135
114	0x3d713f5b	0.05889831
115	0xbea5ed4e	-0.32407612
116	0x3e5f4ad7	0.21805893
117	0xbec7dc62	-0.39035326
118	0x3e23e9c3	0.16007142
119	0xbec78ab4	-0.3897301
120	0x3e54c1f9	0.2077712
121	0xbe234526	-0.15944347
122	0x3ca1d893	0.019756591
123	0xbdee939e	-0.116492495
124	0x3ebe515e	0.37171453
125	0x3df42531	0.11921156
126	0xbcc33248	-0.023827687
127	0xbe0e91af	-0.13922761
128	0xbdaedbf9	-0.0853805
129	0x3bada134	0.005298758
130	0xbc4e0a03	-0.012575629
131	0xbccd7875	-0.025081852
132	0x3db979f7	0.09056466
133	0x3e9d8d69	0.3077195
134	0xbe06fb36	-0.13181767
135	0x3cdc0ff9	0.026863085
136	0xbcfad505	-0.030619154
137	0x3e5aaa94	0.21354133
138	0x3d9161a3	0.07098701
139	0xbcc5f94e	-0.02416673
140	0x3ebe3e49	0.37156895
141	0x3bf1134a	0.0073570358
142	0xbe1dca5e	-0.15409228
143	0xbe794b57	-0.24345146
144	0xbed077ef	-0.40716502
145	0x3de01bd0	0.10942805
146	0xbe28e640	-0.16494083
147	0xbeb1551b	-0.34635243
148	0x3e059d78	0.13048351
149	0xbd571cf0	-0.05251783
150	0xbc731902	-0.014837505
151	0xbd8058c7	-0.06266933
152	0xbc4a36de	-0.012342183
153	0xbe2e972b	-0.17049854
154	0xbe41f839	-0.18942346
155	0x3e1542dd	0.14576288
156	0x3c7d79e6	0.015470957
157	0x3e3a88ad	0.182162
158	0xbd25081c	-0.040290937
159	0xbe67566f	-0.22591566
160	0x3d9be2d3	0.07611623
161	0x3dcd7d7c	0.100337
162	0xbe68a18f	-0.2271788
163	0xbe285a33	-0.16440658
164	0x3b21f494	0.002471243
165	0xbdb25197	-0.08706968
166	0xbd143102	-0.03617955
167	0x3dc1328e	0.09433471
168	0x3e146a67	0.14493714
169	0xbe65a7c3	-0.22427277
170	0x3d62609d	0.05526792
171	0xbe18bf37	-0.14916693
172	0xbe0ae587	-0.1356412
173	0xbd2b875f	-0.041877147
174	0x3e088268	0.13330996
175	0x3dd160aa	0.10223515
176	0x3dc623d1	0.096748
177	0xbab9837f	-0.0014153569
178	0x3e1500ca	0.14551082
179	0x3dff0653	0.12452378
180	0x3e4fce39	0.20293511
181	0xbe895bc4	-0.26827824
182	0xbe8fb211	-0.2806554
183	0x3cd87094	0.026420869
184	0x3e71d2b0	0.23615527
185	0x3d3b48e2	0.045723803
186	0x3e7fb914	0.24972945
187	0x3e84cfa1	0.25939658
188	0x3d8979ae	0.06712662
189	0xbdcd196d	-0.10014615
190	0xba414a15	-0.0007373405
191	0x3dc73593	0.09727015
192	0x3e572d85	0.21013458
193	0x3e1b8bfd	0.1519012
194	0xbeb48d70	-0.35264158
195	0xbeb474d6	-0.3524539
196	0x3d4eb874	0.050468877
197	0x3de33f60	0.11096072
198	0x3e2b02a9	0.16700234
199	0x3e7d7aae	0.2475383
200	0x3e4eee17	0.20208012
201	0xbe676bb0	-0.22599673
202	0xbcfdb810	-0.030971557
203	0xbe6b8e45	-0.2300349
204	0x3e3de6dd	0.18545099
205	0x3b7228ac	0.0036950512
206	0x3e6d3e55	0.23168309
207	0xbb09c719	-0.0021023212
208	0x3e5769a0	0.21036386
209	0x3ecb9943	0.39765367
210	0x3e92aaed	0.2864603
211	0x3e04f21c	0.12982982
212	0x3e06620b	0.13123338
213	0xbec7a784	-0.38994992
214	0x3bf23f16	0.0073927743
215	0x3d4f3dbd	0.050595988
216	0x3dfccc90	0.12343705
217	0x3e574804	0.21023566
218	0x3e903725	0.28167072
219	0x3e46004d	0.19336052
220	0x3e2818d2	0.16415718
221	0xbd50de81	-0.050993446
222	0xbdc062f2	-0.09393872
223	0x3e47ed49	0.19524111
224	0xbe65399a	-0.22385255
225	0xbda00088	-0.07812601
226	0x3e950f10	0.29113054
227	0x3ec7c9a8	0.3902104
228	0x3db692b7	0.089147024
229	0x3c8cfa2a	0.017209131
230	0xbe8ad31b	-0.27114186
231	0xbbd4367b	-0.006476221
232	0x3d90973e	0.07060097
233	0xbe22e0ce	-0.15906069
234	0xbea7e9ae	-0.3279547
235	0x3e3ea96a	0.18619314
236	0x3e56afcf	0.20965503
237	0x3eb9277f	0.36162946
238	0xbe22ba6e	-0.1589143
239	0xbe2780ea	-0.1635777
240	0xbe43fd8b	-0.19139688
241	0xbe3923bb	-0.18080036
242	0xbe852fc5	-0.26013008
243	0x3e9af470	0.30264616
244	0xbe95d998	-0.29267573
245	0x3e4edccc	0.20201415
246	0xbdb73727	-0.08946066
247	0xbda20c31	-0.079124816
248	0x3d18ca27	0.037302162
249	0x3c8763ec	0.016527139
250	0xbce4875c	-0.027896576
251	0xbe35213b	-0.17688458
252	0xbde581ea	-0.1120642
253	0xbcd0575e	-0.025432285
254	0x3e890915	0.26764742
255	0x3cfab63a	0.03060447

lstm.bias_ih_l0 f4 [128]
0	0x3e2559da	0.16147557
1	0x3de40c63	0.11135175
2	0x3e776bda	0.24162236
3	0x3e2da98b	0.16959207
4	0xbe7ac1b6	-0.24487957
5	0x3e0c3ebb	0.13695805
6	0xbd909d30	-0.07061231
7	0xbdaa4422	-0.083137766
8	0x3d5a47cf	0.05329114
9	0x3c644476	0.013932338
10	0xbd9723d8	-0.073798835
11	0xbcd5636b	-0.026048383
12	0xbe59b9de	-0.21262309
13	0x3de1afd4	0.11019865
14	0x3e2908be	0.16507241
15	0xbde9f21e	-0.11423133
16	0xbdff132f	-0.12454831
17	0x3da91e61	0.082577474
18	0x3d7e4d85	0.062085647
19	0x3e5907e3	0.21194415
20	0x3d4125b8	0.047155112
21	0x3d451346	0.048114084
22	0xbe295612	-0.1653674
23	0x3d3b36c2	0.045706518
24	0x3d5f1ac5	0.05446889
25	0x3db56c55	0.08858553
26	0x3d0ef18b	0.034898322
27	0xbd963cbd	-0.07335804
28	0xbd0c30ae	-0.034226112
29	0xbeb07e6e	-0.34471458
30	0xbe08e040	-0.13366795
31	0xbe086241	-0.13318731
32	0x3e2d7ab1	0.16941334
33	0xbd867c32	-0.06566657
34	0xbb2f2528	-0.0026725028
35	0x3cc7528e	0.024331357
36	0xbe935333	-0.28774413
37	0xbde634b3	-0.1124052
38	0xbb70b6d7	-0.0036730075
39	0xbce1b349	-0.02755131
40	0xbe40985c	-0.1880812
41	0xbd8203af	-0.06348359
42	0xbe36ebda	-0.17863408
43	0xbd29c997	-0.041452017
44	0xbcd27045	-0.0256883
45	0xbdbc5348	-0.09195572
46	0xbce07f32	-0.027404401
47	0x3d578b02	0.052622803
48	0xbe08084f	-0.1328442
49	0x3da55d8d	0.08074484
50	0xbe130cb9	-0.14360322
51	0xbdf6a74b	-0.12043627
52	0xbe1a86ca	-0.1509048
53	0xbe800792	-0.25005776
54	0x3cda0fca	0.026618857
55	0xbda6f3f6	-0.081520006
56	0xbde69f21	-0.1126082
57	0xbd5352de	-0.0515927
58	0xbe50cd50	-0.2039082
59	0xbd7776e1	-0.060416106
60	0x3dc177a2	0.09446646
61	0xbe775bed	-0.2415616
62	0xbd619a5d	-0.055078853
63	0xbe0dfbcd	-0.13865586
64	0xbe2e5a38	-0.17026603
65	0xbc331c15	-0.010931988
66	0x3e0b15b5	0.135825
67	0x3d8552b9	0.06509919
68	0x3db232d4	0.08701101
69	0x3a534845	0.000805978
70	0x3d732d40	0.059369326
71	0x3d622001	0.055206303
72	0xbdfe5490	-0.12418473
73	0x3d7f5dac	0.06234519
74	0x3d365a30	0.044519603
75	0x3c9151dd	0.01773923
76	0x3d4b21ca	0.04959277
77	0xbd68448c	-0.056705996
78	0xbe191c0e	-0.14952108
79	0xbc5040ff	-0.012710809
80	0x3d9d38ac	0.07676825
81	0xbdadd7f3	-0.08488455
82	0xbd26f7f3	-0.040763807
83	0x3c867f0a	0.016417999
84	0x3db17124	0.08664158
85	0xbda022c6	-0.078191325
86	0x3c49c068	0.01231394
87	0x3da76a9a	0.081746295
88	0xbdfbc53d	-0.122934796
89	0xbd47c8ad	-0.048775364
90	0x3cb81f34	0.022475816
91	0xbd7436d6	-0.059622608
92	0xbd53b1da	-0.051683284
93	0x3d73fcc9	0.059567247
94	0x3d902db7	0.070399694
95	0x3df750d9	0.12075967
96	0x3dbd4851	0.09242309
97	0x3db0d57c	0.08634469
98	0x3dd4f30f	0.10397922
99	0x3c302468	0.010750867
100	0xbdaa4406	-0.08313756
101	0x3e88ea76	0.2674138
102	0x3e5ae944	0.21378046
103	0xbe7913b7	-0.24323927
104	0xbd9a030d	-0.07520113
105	0xbe508cbe	-0.20366189
106	0x3e49693c	0.1966905
107	0x3e3e9c92	0.18614414
108	0xbe3cde0e	-0.18444082
109	0x3c41fc45	0.011839931
110	0x3e99afa5	0.3001682
111	0x3e0a288f	0.13492034
112	0xbe503e81	-0.20336343
113	0x3e16f846	0.14743146
114	0xbb282b9c	-0.002566076
115	0xbdd6ab54	-0.10481897
116	0x3dc396ec	0.095502704
117	0x3d9dab2a	0.076986626
118	0xbb633503	-0.0034669049
119	0xbdc8e12c	-0.09808573
120	0xbda0abe0	-0.078452826
121	0xbe3a0aa0	-0.18168116
122	0x3db4c4d8	0.088266075
123	0xbdf84cda	-0.12124033
124	0x3e0a3acf	0.13498996
125	0xbe6887f8	-0.22708118
126	0x3c1dd44a	0.009633133
127	0xbdfde72d	-0.12397609

lstm.bias_hh_l0 f4 [128]
0	0xbbbcfba3	-0.005767302
1	0x3ad11ceb	0.0015954053
2	0x3e714368	0.2356087
3	0x3d3e7d04	0.046505943
4	0xbe70c847	-0.235139
5	0x3dd1c43a	0.10242505
6	0xbdf95d6c	-0.12176022
7	0xbe4d45a3	-0.20046096
8	0xbe010781	-0.12600519
9	0xbe3bab03	-0.18326955
10	0x3e74de52	0.23912933
11	0x3dacbd66	0.084345624
12	0x3d966dfd	0.07345197
13	0xbc5a6361	-0.013329358
14	0x3e26d69e	0.16292807
15	0x3d741217	0.059587564
16	0xbdf7093d	-0.12062309
17	0xbd123258	-0.035692543
18	0xbe02c220	-0.12769365
19	0x3e378ca6	0.17924747
20	0x3e56848c	0.20949
21	0xbe3ae743	-0.18252282
22	0xbe2e646f	-0.170305
23	0xbddf6f8c	-0.10909948
24	0xbcc18312	-0.02362207
25	0x3d92100b	0.07131966
26	0x3d62df2b	0.05538861
27	0x3c5ff46f	0.013669117
28	0x3e4b1cba	0.19835177
29	0xbdfd660f	-0.12372982
30	0x3cddc3a1	0.027070822
31	0xbe98a00f	-0.29809615
32	0x3d6c8be9	0.057750616
33	0xbe5ce60e	-0.21572134
34	0xbe409062	-0.18805078
35	0xbe068a82	-0.13138774
36	0xbe2da041	-0.16955663
37	0xbe0830a2	-0.13299802
38	0xbd87b1c3	-0.06625702
39	0xbda75f85	-0.08172516
40	0xbe342588	-0.17592442
41	0xbd0aa3ce	-0.033847623
42	0x3e187ee1	0.1489215
43	0xbd974c77	-0.073876314
44	0xbe27157d	-0.16316791
45	0xbe801d3c	-0.25022304
46	0xbe03826e	-0.12842724
47	0xbdf328b6	-0.11872999
48	0xbe5c1968	-0.21494067
49	0xbdf67844	-0.120346576
50	0x3dd92d5d	0.106043555
51	0x3d1314c6	0.035908483
52	0x3e1fc05d	0.15600725
53	0x3daec274	0.08533183
54	0xbe2c20dc	-0.1680941
55	0xbddb23b7	-0.107001714
56	0x3d4ea032	0.050445743
57	0xbe6a84d5	-0.22902234
58	0x3cd5e40e	0.026109722
59	0xbdcf9b20	-0.101370096
60	0xbe0ce467	-0.13759004
61	0xbeacdfba	-0.3376444
62	0xbe8918b8	-0.2677667
63	0xbe01620c	-0.12635058
64	0x3ddb5670	0.10709846
65	0x3dc12e8f	0.094327085
66	0xbcdb9ebd	-0.02680909
67	0x3b5eada6	0.0033978014
68	0xbc059f46	-0.0081556495
69	0xbe11ed00	-0.14250565
70	0xbab8b152	-0.0014090932
71	0xbe1a02cd	-0.15040131
72	0x3e0ee856	0.13955817
73	0xbe73e015	-0.2381595
74	0xbe11f770	-0.14254546
75	0x3dea95f2	0.11454381
76	0xbdeb1e60	-0.11480403
77	0x3e0331cb	0.12811963
78	0x3d08a68f	0.033361968
79	0x3e2d4a83	0.16922955
80	0x3dfe5966	0.12419395
81	0xbd10ce4a	-0.035352983
82	0x3d29f793	0.04149587
83	0x3d8608b9	0.065446325
84	0xbdc5b5ae	-0.09653793
85	0x3d97cd9c	0.07412264
86	0x3d092a4e	0.03348761
87	0x3da4e429	0.080513306
88	0x3db563ac	0.088569015
89	0x3d26b581	0.04070044
90	0xbd0635c0	-0.032766104
91	0xbe0f35cd	-0.13985367
92	0x3ae620ae	0.0017557347
93	0x3cfae517	0.030626817
94	0x3cc87e61	0.024474325
95	0x3b09f6b2	0.0021051583
96	0x3c236f70	0.009975299
97	0xbdf92dd3	-0.121669434
98	0x3e086f68	0.13323748
99	0x3d885390	0.06656563
100	0xbe04040b	-0.12892167
101	0x3c80f074	0.015739657
102	0x3df7fd7f	0.121088974
103	0x3d9256f7	0.071454935
104	0xbd83adc1	-0.06429625
105	0xbb836311	-0.0040096124
106	0xbd7b7dc1	-0.061399225
107	0x3e284621	0.16433002
108	0x3a905e86	0.0011014498
109	0x3dd047f9	0.10169978
110	0x3e80cc96	0.25156087
111	0xbce94dcc	-0.02847948
112	0xbda6037c	-0.08106133
113	0x3e4c85ab	0.19972865
114	0x3e21e0b8	0.1580838
115	0xbda64548	-0.08118683
116	0x3e4d5c4e	0.20054743
117	0x3e2ea91f	0.17056702
118	0xbdb09c3d	-0.0862355
119	0xbded2d42	-0.11580898
120	0x3dabb98b	0.08384999
121	0xbdc9f2e5	-0.098607816
122	0x3debe5f3	0.11518469
123	0xbe0bdcfc	-0.13658518
124	0x3e3a1454	0.18171817
125	0xbe3575b6	-0.17720684
126	0xbd5bad2f	-0.053631958
127	0xbd17ea6e	-0.037088804

lstm.weight_ih_l1 f4 [128, 32]
0	0x3e4723e1	0.1944728
1	0x3b91a9ee	0.004445306
2	0xbe2d916d	-0.16950007
3	0xbdbb4389	-0.09143741
4	0xbda42736	-0.080152914
5	0x3ea2ca98	0.31795192
6	0xbe44831f	-0.19190644
7	0xbd91f630	-0.07127035
8	0x3e577672	0.21041277
9	0xbdfda0db	-0.12384196
10	0x3eca5a2b	0.39521918
11	0x3e621fee	0.22082493
12	0x3dca8681	0.09888936
13	0xbd802b43	-0.062582515
14	0x3dc1dc98	0.09465903
15	0xbe11ae60	-0.14226675
16	0xbdb3673e	-0.08759926
17	0x3e827edf	0.2548742
18	0x3e95cfd5	0.29260126
19	0xbe93d199	-0.28870848
20	0x3e8663af	0.26247928
21	0xbde15f76	-0.11004536
22	0x3da668da	0.081254676
23	0x3d1725ba	0.036901213
24	0x3ecad407	0.3961489
25	0xbe42381e	-0.1896672
26	0x3eae7d84	0.34080136
27	0x3de02de1	0.10946251
28	0x3e939dfe	0.28831476
29	0x3e154fb4	0.14581186
30	0x3d8cbe52	0.06872238
31	0x3e4465dc	0.19179481
32	0x3e72d7ec	0.2371518
33	0x3bc69d36	0.0060612215
34	0x3d9e5ab4	0.07732144
35	0xbda75b31	-0.0817169
36	0xbd5fcbe2	-0.054637797
37	0x3ec9b4f3	0.39395866
38	0xbed37dc3	-0.41306886
39	0xbd8e75c2	-0.06956054
40	0x3d9b8051	0.07592834
41	0x3d81b402	0.06333162
42	0x3ee0afe9	0.4388421
43	0x3e0568b9	0.1302823
44	0x3e505e2c	0.20348424
45	0xbe2bfa38	-0.1679467
46	0x3df20e5f	0.11819147
47	0xbe1f43c8	-0.155532
48	0xbe87e08a	-0.26538497
49	0x3ec5e6be	0.38652605
50	0x3d5b70d5	0.053574402
51	0xbf007ff2	-0.5019523
52	0x3da17825	0.07884244
53	0xbd6d85a2	-0.05798877
54	0xbc6b6404	-0.014367107
55	0xbe10d8b3	-0.14145164
56	0x3e8623b4	0.26199114
57	0xbd2d63af	-0.042331394
58	0x3de7976d	0.11308179
59	0xbda22532	-0.07917251
60	0x3e2d8018	0.16943395
61	0xbe2d9127	-0.16949902
62	0xbd60c6ad	-0.054876972
63	0x3cb25f51	0.021773966
64	0xbcd2b0e3	-0.025719112
65	0x3e294ec6	0.16533956
66	0xbe8f393c	-0.27973354
67	0xbe19c724	-0.15017372
68	0xbc6533c1	-0.01398939
69	0x3e01e375	0.12684424
70	0x3e483572	0.19551638
71	0x3cb169b5	0.02165685
72	0xbe0936c2	-0.13399795
73	0xbdd5cfaf	-0.10440003
74	0x3dd006dc	0.10157558
75	0xbe0fa292	-0.1402686
76	0xbe126f72	-0.14300326
77	0xbdf83483	-0.12119391
78	0x3dbc791c	0.09202787
79	0xbe85ad89	-0.2610896
80	0xbcb12f92	-0.021629129
81	0x3e3af9db	0.18259375
82	0x3e620417	0.22071873
83	0xbdcd8048	-0.10034233
84	0xbd8e5114	-0.06949058
85	0xbe260a35	-0.16214831
86	0xbcd8d699	-0.026469516
87	0x3d2b0e97	0.04176196
88	0x3c2bb50e	0.0104801785
89	0xbdb5b751	-0.088728555
90	0xbc8a3453	-0.016870653
91	0x3caf4058	0.021392986
92	0x3e3b8a14	0.18314391
93	0xbccfb97d	-0.025357002
94	0x3d8caae7	0.068685345
95	0x3cdbf401	0.026849749
96	0x3eab4239	0.3344896
97	0x3e7dab4a	0.24772373
98	0x3e67c8e8	0.22635233
99	0xbe52d5c2	-0.20589355
100	0xbae2fa23	-0.0017316978
101	0xbdcadb86	-0.09905152
102	0xbe085861	-0.13314964
103	0xbc7069c9	-0.014673659
104	0x3efb62e5	0.49098888
105	0xbefa4617	-0.488816
106	0x3e45f36e	0.19331142
107	0x3f2a6c74	0.66571736
108	0xbe8066e8	-0.2507851
109	0xbe38d189	-0.18048681
110	0x3edf50be	0.4361629
111	0xbe3cfded	-0.1845624
112	0x3e4410d3	0.19147043
113	0x3e138d63	0.14409404
114	0x3eba3a40	0.36372566
115	0x3e46491e	0.1936383
116	0x3ea5f437	0.32412884
117	0xbed404b2	-0.41409832
118	0x3dee9ce3	0.116510175
119	0xbdbac29c	-0.0911915
120	0x3f09a5b7	0.53768486
121	0xbedb0061	-0.42773727
122	0x3eaa13fe	0.33218378
123	0xbea44487	-0.32083532
124	0x3ee98332	0.45607907
125	0x3ee03449	0.4378989
126	0x3e48a166	0.19592819
127	0x3e891df3	0.26780662
128	0x3e05553d	0.13020797
129	0x3e57e4ee	0.21083423
130	0xbd33dc29	-0.043911133
131	0x3e12fc05	0.1435395
132	0x3d51e069	0.051239405
133	0xbe9042b3	-0.28175887
134	0x3d9a6439	0.07538647
135	0x3c61392a	0.013746539
136	0xbcf43dff	-0.029814718
137	0xbe89b31c	-0.26894462
138	0x3d8cd40a	0.06876381
139	0xbd1c1d63	-0.038113963
140	0x3db3b958	0.08775586
141	0x3d9bcc16	0.07607286
142	0xbdcf38cb	-0.10118254
143	0x3da4cb4b	0.080465876
144	0x3e47a510	0.1949656
145	0x3dcf5df5	0.10125343
146	0xbd74c205	-0.059755344
147	0x3e41d68c	0.189295
148	0xbe0149fb	-0.12625878
149	0x3de5a83e	0.1121373
150	0x3db64d9a	0.0890152
151	0x3e15ce80	0.14629555
152	0x3e570a1f	0.20999955
153	0x3df88818	0.12135333
154	0xbcdadf86	-0.026717912
155	0xbe588459	-0.21144237
156	0x3b2e6725	0.0026611772
157	0x3dbe219e	0.09283756
158	0x3dadeceb	0.08492454
159	0x3df25d62	0.118342176
160	0xbf072a20	-0.5279865
161	0xbedbcfad	-0.42931882
162	0x3f9e4da3	1.2367443
163	0x3f30c19a	0.6904541
164	0x3f3cff15	0.73826724
165	0xbf1cbb1c	-0.61223006
166	0x3ef06ace	0.46956486
167	0xbf214ece	-0.6301087
168	0xbe9c47a5	-0.3052341
169	0x3e703786	0.2345868
170	0xbf23ce28	-0.63986444
171	0xbf385401	-0.7200318
172	0xbdafe938	-0.08589405
173	0x3f077f27	0.52928394
174	0xbf803066	-1.001477
175	0x3e85e3a8	0.2615025
176	0xbe8ebc65	-0.2787811
177	0xbf39b859	-0.7254692
178	0xbf24deb6	-0.6440233
179	0x3f550453	0.83209723
180	0xbf407a59	-0.7518669
181	0x3f330b9a	0.6993958
182	0xbe06af12	-0.13152722
183	0x3ece4f80	0.4029503
184	0xbf20535e	-0.6262721
185	0x3df38e32	0.11892356
186	0xbee514a7	-0.4474232
187	0xbe8bc96a	-0.27302104
188	0xbf3518b8	-0.7074084
189	0xbe738e99	-0.23784865
190	0x3e6eeb28	0.23331892
191	0xbc1f7433	-0.009732294
192	0xbdbc19ce	-0.09184609
193	0xbead18f7	-0.3380811
194	0x3d513990	0.051080287
195	0x3e86acca	0.26303703
196	0x3e7aa209	0.24475874
197	0x3c959790	0.018260747
198	0xbe00e17b	-0.12586014
199	0xbda923d6	-0.08258788
200	0x3d116792	0.035499163
201	0x3d9b2ada	0.07576533
202	0xbe1db8f7	-0.1540259
203	0xbe72dd75	-0.23717292
204	0xbcc461bf	-0.02397239
205	0xbb748828	-0.00373126
206	0xbe69af62	-0.2282081
207	0x3df893cc	0.12137565
208	0xbe39d169	-0.1814629
209	0xbd1e089b	-0.038582426
210	0xbe2471ba	-0.16059008
211	0x3d42565a	0.047445633
212	0xbe6ce5f6	-0.23134598
213	0x3e0b0b04	0.13578421
214	0x3e399537	0.18123327
215	0xbe7ea2af	-0.24866746
216	0xbe5e373a	-0.21700755
217	0xbea6cb6d	-0.32577077
218	0xbe83b7fa	-0.257263
219	0xbe5ba62c	-0.21450108
220	0xbcbfef4e	-0.023429539
221	0xbe116fac	-0.14202756
222	0x3e827c18	0.254853
223	0xbd9da1f8	-0.07696909
224	0xbdc78c48	-0.097435534
225	0x3e5da78e	0.21645948
226	0xbc52362e	-0.0128303
227	0xbe4de4ea	-0.20106855
228	0xbdb58667	-0.08863526
229	0x3ce1cd8b	0.02756383
230	0xbe21c5ac	-0.15798062
231	0x3d2f7945	0.04284026
232	0x3dbd8fe4	0.092559606
233	0xbe17d689	-0.14827932
234	0xbc9df189	-0.019280212
235	0xbe4d8dd9	-0.20073642
236	0xbe3dec56	-0.18547186
237	0x3dedb0ed	0.116060115
238	0xbd398b01	-0.04529858
239	0x3cef4ca8	0.029211357
240	0x3e0b45a5	0.13600786
241	0xbd8af545	-0.06785063
242	0x3e1b826b	0.1518647
243	0xbe14a8a3	-0.14517455
244	0x3e5001f6	0.20313248
245	0xbc650056	-0.013977131
246	0xbde36fec	-0.11105332
247	0xbd13a7f5	-0.03604885
248	0x3dfcd120	0.12344575
249	0x3e20e4da	0.157123
250	0x3d2c0f9e	0.04200708
251	0x3ce4c46d	0.027925694
252	0xbe1f355e	-0.15547702
253	0xbe6f4f54	-0.23370105
254	0xbd997514	-0.07493034
255	0x3e833b23	0.25631055

lstm.weight_hh_l1 f4 [128, 32]
0	0xbe22b575	-0.15889533
1	0x3e2871a1	0.16449596
2	0xbe118d05	-0.14213951
3	0xbe13bc3f	-0.14427279
4	0xbd295156	-0.041337334
5	0x3de0e1c3	0.10980561
6	0xbdfb0075	-0.122559465
7	0xbe4b0432	-0.19825819
8	0xbe980637	-0.29692242
9	0x3d6b666c	0.057470724
10	0xbeae8096	-0.34082478
11	0xbd7afe71	-0.06127781
12	0x3e128d87	0.14311801
13	0x3b932013	0.0044899075
14	0xbe0e86f1	-0.13918664
15	0x3e1a5ee5	0.15075262
16	0xbb8c7f99	-0.0042876718
17	0xbd962816	-0.073318645
18	0xbcc9785b	-0.024593523
19	0xbe2f334a	-0.17109409
20	0xbc2c9555	-0.01053365
21	0x3e5bdd5a	0.21471158
22	0x3d2b7ac8	0.04186514
23	0xbc8b7fbc	-0.017028682
24	0xbd31742d	-0.043323684
25	0x3de30380	0.11084652
26	0xbc8ceaf3	-0.017201876
27	0x3e3d9d41	0.18517019
28	0x3e8504d5	0.2598025
29	0xbe0434a8	-0.12910712
30	0x3d3924c9	0.045201097
31	0xbe0ed230	-0.13947368
32	0x3d4a090b	0.04932503
33	0xbebd38ca	-0.3695739
34	0xbc134530	-0.008988664
35	0x3e81003a	0.25195485
36	0xbc977042	-0.018486146
37	0x3e5f86da	0.21828786
38	0x3dee042c	0.116218895
39	0xbe04af2d	-0.1295745
40	0x3de9a628	0.11408645
41	0x3e01475d	0.12624879
42	0xbd1d1b30	-0.038356006
43	0x3dfb7e76	0.1227998
44	0x3f337294	0.7009671
45	0x3db97308	0.090551436
46	0x3d5d1179	0.05397174
47	0xbd8065a9	-0.0626939
48	0x3e1015b3	0.14070778
49	0x3d877485	0.06614021
50	0xbe481b1f	-0.19541596
51	0xbccd27a4	-0.025043316
52	0xbd02daca	-0.031946935
53	0x3d9eb640	0.07749605
54	0x3e0b959d	0.13631292
55	0xbd138f0a	-0.036025085
56	0x3c1773ae	0.009243889
57	0x3d87226e	0.06598364
58	0xbb4c15da	-0.0031140954
59	0xbe1cddea	-0.15319028
60	0x3d71a906	0.058999084
61	0x3e630147	0.22168456
62	0xbd520cda	-0.051281787
63	0x3d376566	0.044774435
64	0xbda2391a	-0.079210475
65	0x3dc1af28	0.094572365
66	0xbd3fefbf	-0.0468595
67	0x3da2cb2c	0.07948908
68	0xbe44112c	-0.19147176
69	0xbd27d295	-0.04097231
70	0xbe0d21f9	-0.13782491
71	0xbe62b1f2	-0.22138193
72	0xbe11838d	-0.14210339
73	0xbcce404b	-0.025177142
74	0xbce72177	-0.0282142
75	0xbdf676f7	-0.120344095
76	0x3e40cf0b	0.1882898
77	0x3e63664a	0.22206989
78	0xbe014540	-0.12624073
79	0x3da2bb41	0.07945872
80	0xbe3cad2f	-0.1842544
81	0xbe291fb8	-0.16516006
82	0x3e8165bc	0.2527293
83	0x3ddea7ef	0.108718745
84	0xbdbff0c8	-0.09372097
85	0x3de556bf	0.11198186
86	0x3c98a9f7	0.018635733
87	0x3c191709	0.009343871
88	0x3e00ffc6	0.1259757
89	0x3e843d48	0.25828004
90	0x3da54dcf	0.080714814
91	0x3e4e6c8d	0.20158596
92	0x3e4ac8a3	0.198031
93	0xbe84a89d	-0.25909892
94	0xbe2b9bce	-0.16758654
95	0xbe9d53e3	-0.30728063
96	0xbecf2a56	-0.40461987
97	0xbf0f5e1d	-0.5600298
98	0xbf3778e9	-0.7166887
99	0xbea05295	-0.31313005
100	0xbf2c9b07	-0.6742405
101	0x3e4aa934	0.19791108
102	0xbd652aba	-0.05594895
103	0xbeb18d0b	-0.3467792
104	0xbf40300c	-0.75073314
105	0xbf36c5ba	-0.71395457
106	0xbee08d35	-0.43857732
107	0xbef516e0	-0.47869015
108	0xbd17782d	-0.036979843
109	0x3f09cd3d	0.53828794
110	0xbe48f60f	-0.19625114
111	0x3e8f7a97	0.28023216
112	0xbf1306fe	-0.57432544
113	0xbf53db60	-0.82756615
114	0xbe602299	-0.21888198
115	0xbedab231	-0.42714074
116	0xbebd08b4	-0.36920702
117	0x3f25479c	0.6456239
118	0x3ee9824f	0.4560723
119	0xbeeb9026	-0.46008414
120	0x3ecedd6f	0.40403315
121	0x3ec6bed4	0.38817465
122	0xbf33684e	-0.7008103
123	0x3efcc463	0.4936858
124	0x3f2e8295	0.68168
125	0xbeeac8bd	-0.45856276
126	0x3e269c12	0.16270474
127	0xbee6a525	-0.4504787
128	0xbd7ccbfe	-0.06171798
129	0xbe6237f9	-0.22091664
130	0xbdb837b4	-0.089949995
131	0xbc8c2e27	-0.01711185
132	0xbe42e935	-0.19034274
133	0x3e05ed5c	0.13078827
134	0xbeb43d45	-0.35202995
135	0xbd09ebe5	-0.033672232
136	0xbde4536f	-0.11148726
137	0xbeb8cca0	-0.36093616
138	0xbdefa829	-0.11701996
139	0x3d19bc12	0.037532873
140	0x3ebe9741	0.37224773
141	0xbceff4b5	-0.02929149
142	0xbde58e57	-0.1120879
143	0x3e8b4080	0.27197647
144	0xbe0120bb	-0.12610142
145	0xbe49e168	-0.19714892
146	0xbd364a02	-0.044504173
147	0x3c441ceb	0.011969785
148	0xbc9e27a6	-0.019306015
149	0x3dcbbd59	0.099482246
150	0xbe0c6707	-0.13711177
151	0xbe7307a7	-0.23733388
152	0xbe67ba70	-0.22629714
153	0x3eb36155	0.35035196
154	0xbe2d7f9f	-0.16943215
155	0x3ea9d768	0.33172154
156	0x3e2e88d4	0.17044383
157	0xbe3e7dcb	-0.18602674
158	0x3da5d2d2	0.080968514
159	0xbdf9371f	-0.12168717
160	0x3d4beed2	0.049788304
161	0x3d9ca9b5	0.076495565
162	0x3e0d60dc	0.1380648
163	0xbeae923d	-0.34095946
164	0xbdee5f7c	-0.11639306
165	0x3e8ac94c	0.27106702
166	0xbdf67b6f	-0.12035262
167	0x3c88a7b0	0.016681522
168	0x3e9fcf71	0.31212953
169	0x3cbd277c	0.023090117
170	0x3eb9331f	0.36171815
171	0x3eaf29a7	0.34211466
172	0xbe24931b	-0.16071741
173	0x3cd2063d	0.02563774
174	0x3e035b32	0.12827757
175	0x3e02c357	0.12769829
176	0x3f100257	0.5625357
177	0x3d999430	0.07498968
178	0xbea4989b	-0.3214768
179	0xbc3bc3d3	-0.011460262
180	0x3e38657d	0.18007465
181	0xbe62f522	-0.22163823
182	0xbbc70c85	-0.0060744905
183	0x3e34aab3	0.17643242
184	0x3d76710e	0.06016641
185	0xbe8cafc7	-0.27477857
186	0x3f25baaa	0.6473795
187	0xbeaabf29	-0.3334897
188	0xbe21c964	-0.1579948
189	0x3e033402	0.12812808
190	0xbd866327	-0.065618806
191	0x3ef73b01	0.48287204
192	0x3e512c88	0.20427144
193	0x3d6ce9e2	0.057840236
194	0x3ea21eb4	0.3166405
195	0xbe3f97c1	-0.18710233
196	0xbd6d61a8	-0.05795446
197	0xbe51e2be	-0.20496652
198	0x3db36d68	0.08761102
199	0xbdd984d5	-0.10621039
200	0x3ebd6a89	0.36995342
201	0x3df3df2f	0.11907803
202	0x3eadd283	0.3394967
203	0x3d273d59	0.04082999
204	0x3e3a716f	0.18207334
205	0xbe6629c1	-0.22476865
206	0xbdcb33b6	-0.099219725
207	0xbe27700e	-0.16351339
208	0x39515e59	0.0001996694
209	0x3e404691	0.18776919
210	0x3d16aa2b	0.03678338
211	0xbe680d2d	-0.22661276
212	0x3de0d770	0.109785914
213	0xbeaa5f19	-0.3327568
214	0x3dee1cc1	0.11626578
215	0x3dca1427	0.09867125
216	0x3dffad63	0.12484243
217	0xbeb86d52	-0.36020905
218	0x3d64a343	0.05581976
219	0xbe17bdef	-0.14818548
220	0xbe8d7001	-0.27624515
221	0x3d28dd45	0.041226644
222	0xbdeab5be	-0.11460446
223	0x3e54f80b	0.20797746
224	0xbd0894a4	-0.03334488
225	0xbe721aef	-0.23643087
226	0xbe265717	-0.1624416
227	0x3e4e459b	0.2014374
228	0xbcf7f752	-0.030269299
229	0x3e35cacb	0.1775314
230	0x3d171b91	0.036891524
231	0xbd3a3176	-0.045457326
232	0xbd007aae	-0.031366996
233	0xbd016940	-0.031594515
234	0xbe5b450b	-0.21413057
235	0xbc46619a	-0.012108231
236	0xbd9fd7b8	-0.07804817
237	0x3eb21c13	0.34787044
238	0xbe91911e	-0.28431028
239	0x3e109ef1	0.14123131
240	0xbea06c48	-0.31332612
241	0x3e00b06c	0.125673
242	0xbe2fd2fa	-0.17170325
243	0xbe645de2	-0.22301438
244	0xbe7569fb	-0.2396621
245	0x3e6889bb	0.2270879
246	0x3e452fd6	0.19256529
247	0xbcfe986c	-0.03107854
248	0x3e2921cb	0.16516797
249	0x3d24e0a4	0.040253296
250	0x3e1a76eb	0.15084426
251	0x3eaae41e	0.33377165
252	0x3e4237f4	0.18966657
253	0xbe9c637f	-0.3054466
254	0xbe798689	-0.24367727
255	0xbea29069	-0.317508

lstm.bias_ih_l1 f4 [128]
0	0x3e464d4f	0.19365428
1	0xbe1e7179	-0.15472974
2	0x3e45b9db	0.1930918
3	0x3f01edc1	0.5075341
4	0x3e762b68	0.24039996
5	0xbe31e94a	-0.17374149
6	0xbd8e6976	-0.06953709
7	0xbd22fa50	-0.039789498
8	0x3e15d92b	0.14633624
9	0xbe3e23c6	-0.18568334
10	0x3dc550bd	0.0963454
11	0xbd4daf63	-0.05021609
12	0x3de794d7	0.11307686
13	0xbe9fb07f	-0.31189343
14	0xbe84d4a2	-0.25943476
15	0xbe6423a9	-0.22279228
16	0xbcc3d4c9	-0.023905175
17	0x3d8702e3	0.065923475
18	0xbe16e58c	-0.14736003
19	0xbd1cb329	-0.038256798
20	0x3dc68429	0.09693176
21	0x3cb7e308	0.022447124
22	0xbdf8b875	-0.121445574
23	0xbe89ba5c	-0.26899993
24	0xbdb4c11a	-0.08825894
25	0xbe911188	-0.28333688
26	0x3d772dd9	0.060346458
27	0x3e7e61e7	0.24842034
28	0x3e612f3f	0.21990679
29	0xbe02aaeb	-0.12760513
30	0x3da962cb	0.082707964
31	0xbdb8d563	-0.09025075
32	0xbd95de06	-0.07317738
33	0x3d3f13bf	0.04664969
34	0x3e35be47	0.17748366
35	0xbd6663b1	-0.056247417
36	0xbde166d7	-0.11005943
37	0xbe9c9b09	-0.30587032
38	0xbe03219a	-0.12805787
39	0x3e44fcdc	0.19237083
40	0xbe05fc99	-0.1308464
41	0xbe3a0fc9	-0.18170084
42	0x3e2dcb20	0.16972017
43	0xbe16f237	-0.14740835
44	0xbe689a0e	-0.22715017
45	0xbe9fb006	-0.31188983
46	0xbe3d84ea	-0.18507734
47	0x3df199e9	0.11796934
48	0x3cfedb09	0.031110303
49	0xbe239d37	-0.15977941
50	0xbee40f70	-0.44543028
51	0x3d144b76	0.036204778
52	0x3e394fa4	0.18096787
53	0xbd22e2eb	-0.039767187
54	0xbe2606c2	-0.16213515
55	0xbc0cefdf	-0.008602112
56	0xbe7e2aab	-0.24820964
57	0xbeec94e6	-0.4620735
58	0x3d964152	0.073366776
59	0xbd55ac50	-0.052166283
60	0x3dd5e5ef	0.10444247
61	0x3dc5fc27	0.09667235
62	0xbd10bdff	-0.035337444
63	0xbd8a9472	-0.06766595
64	0xbe157205	-0.14594276
65	0x3d947597	0.07248991
66	0xbe014122	-0.12622502
67	0x3d03143d	0.032001723
68	0x3c976962	0.018482868
69	0x3db3d5f5	0.087810434
70	0xbdd64ce6	-0.10463886
71	0x3caf8df9	0.021430003
72	0xbe40df49	-0.18835177
73	0xbd84bafa	-0.064809754
74	0xbc593fe9	-0.013259866
75	0x3d7fd3cd	0.06245785
76	0xbd6c0d02	-0.057629593
77	0x3d0a8371	0.03381676
78	0xbdcc1465	-0.099648274
79	0x3bffe1ab	0.007808884
80	0x3bb724a5	0.005589085
81	0xbbe4cfd9	-0.006982785
82	0x3d302e3f	0.043012854
83	0xbdb48481	-0.088143356
84	0xbc22a26c	-0.00992642
85	0xbd21d1aa	-0.03950659
86	0xbd5a0441	-0.053226713
87	0xbe09df9c	-0.13464206
88	0xbd95a182	-0.07306196
89	0xbd89f17e	-0.06735514
90	0xbe00eff4	-0.12591535
91	0x3e438ccf	0.19096683
92	0x3e03532f	0.12824701
93	0xbdd3a862	-0.10334851
94	0x3e0ca62a	0.13735262
95	0x3c99e1c8	0.018784419
96	0x3e35a6d1	0.17739417
97	0xbe439124	-0.19098336
98	0x3e1dc194	0.15405875
99	0x3ea46897	0.32111046
100	0x3dfd3fc2	0.123656765
101	0xbdaaf317	-0.08347147
102	0xbe53ab94	-0.2067092
103	0x3b5bd85e	0.0033545713
104	0x3d4a43c2	0.049381025
105	0xbe4ba69c	-0.19887775
106	0xbd8795d1	-0.06620372
107	0xbec1256d	-0.37723866
108	0x3da2197a	0.079150155
109	0xbe9b22f9	-0.3030012
110	0xbcafe1df	-0.021470008
111	0xbe934cd4	-0.28769553
112	0x3baee9c8	0.0053379275
113	0x3dae3812	0.08506788
114	0xbd4d25b5	-0.05008479
115	0xbe9060ce	-0.28198856
116	0x3d680539	0.056645606
117	0xbd8d06af	-0.068860404
118	0xbe907a4f	-0.28218314
119	0xbe06eca7	-0.13176213
120	0xbe71b1f8	-0.23603046
121	0xbe3ab5d4	-0.18233424
122	0xbe14cb63	-0.14530711
123	0xbcefd87d	-0.029278034
124	0x3e1a4477	0.1506518
125	0xbdf6814e	-0.12036382
126	0xbe1c9776	-0.15292153
127	0xbe2e1f3e	-0.17004105

lstm.bias_hh_l1 f4 [128]
0	0x3d65ef51	0.056136433
1	0xbe423058	-0.18963754
2	0x3e4c7a0a	0.19968429
3	0x3e6d67c0	0.23184109
4	0x3e638776	0.22219643
5	0xbe8c708c	-0.27429616
6	0xbe8fad0f	-0.2806172
7	0xbd1a0664	-0.03760375
8	0xbd6450ba	-0.05574105
9	0x3e22a639	0.15883721
10	0x3e658018	0.22412145
11	0xbe0ba17d	-0.13635822
12	0x3e80571b	0.25066456
13	0xbe616b95	-0.22013696
14	0xbdc3a3d3	-0.09552731
15	0x3dafe274	0.085881144
16	0x3d64a999	0.055825803
17	0x3cf36b7e	0.029714342
18	0x3c7e6b3b	0.015528495
19	0xbd37c421	-0.044864777
20	0x3bef1c57	0.0072970795
21	0x3e536169	0.20642628
22	0xbd944d17	-0.07241266
23	0xbc71b27c	-0.014752027
24	0xbd800781	-0.06251431
25	0xbc6febec	-0.0146436505
26	0xbc9cfc16	-0.019163173
27	0x3d414ae6	0.04719057
28	0x3e31bbcb	0.17356794
29	0x3db9b3a5	0.090674676
30	0xbe2a1cfb	-0.16612618
31	0xbe4b5468	-0.19856417
32	0xbd1e97fb	-0.03871916
33	0xbe41f946	-0.18942747
34	0x3e38670b	0.18008058
35	0xbd2e9001	-0.0426178
36	0x3c9fa13c	0.019486062
37	0xbec66a80	-0.38753128
38	0xbd7aac19	-0.06119928
39	0x3d84d410	0.0648576
40	0x3cba4b67	0.022741033
41	0xbe2ffa80	-0.17185402
42	0x3e80f0e7	0.25183794
43	0xbe3b17c9	-0.18270792
44	0xbe9e2150	-0.3088479
45	0xbd80510f	-0.06265461
46	0xbe49f278	-0.197214
47	0xbdeb2703	-0.1148205
48	0xbe81f951	-0.25385526
49	0xbe2d4e0e	-0.16924307
50	0xbeded14b	-0.43519053
51	0xbe08cd56	-0.1335958
52	0x3e0351b3	0.12824135
53	0x3d6faecc	0.05851631
54	0xbea0e75c	-0.31426513
55	0xbdcb0d4a	-0.09914644
56	0xbecaaf51	-0.3958688
57	0xbe358c56	-0.17729315
58	0x3b97ee4d	0.004636562
59	0x3c9317e8	0.017955735
60	0x3d95ffe9	0.073242016
61	0xbe4c6903	-0.19961934
62	0xbe32914e	-0.17438242
63	0xbead6eda	-0.33873636
64	0xbdee385c	-0.116318434
65	0xbd33cd65	-0.04389705
66	0x3cafddbc	0.021468036
67	0x3cf737bd	0.030177945
68	0xbd222b14	-0.039591864
69	0x3d3fb358	0.046801895
70	0x3d2de2b5	0.042452533
71	0xbdd427a5	-0.10359124
72	0xbdb6d58e	-0.08927451
73	0xbc1dc447	-0.009629316
74	0xbe204e21	-0.15654804
75	0xbdb1b249	-0.08676583
76	0x3dd87a87	0.10570245
77	0x3e0f9581	0.14021875
78	0xbc2cdd1a	-0.010550762
79	0x3da66971	0.0812558
80	0xbd46731b	-0.048449617
81	0x3bd281eb	0.006424179
82	0xbd31eec3	-0.04344059
83	0xbd88da82	-0.06682302
84	0xbdc14ac4	-0.094380885
85	0x3e46e2eb	0.194225
86	0xbd540d9d	-0.051770795
87	0x3c91aaf5	0.017781714
88	0x3e65cb96	0.22440943
89	0x3e2b613e	0.16736314
90	0xbd313e21	-0.04327214
91	0x3db36664	0.08759764
92	0x3d67ca92	0.05658967
93	0x3c20ad86	0.009806996
94	0xbc06aecf	-0.008220389
95	0xbe16cfea	-0.1472775
96	0x3a810612	0.0009843728
97	0x3d8b6ee0	0.06808257
98	0x3ce92804	0.028461464
99	0x3dceae09	0.10091788
100	0x3dc53e81	0.09631062
101	0xbdad4f77	-0.08462422
102	0xbe1f0854	-0.1553052
103	0x3e35df58	0.1776098
104	0xbe25f11f	-0.16205262
105	0xbce80172	-0.028321002
106	0x3cd7160b	0.026255628
107	0xbe37d4e9	-0.17952313
108	0x3e003a11	0.1252215
109	0xbe8664cd	-0.2624878
110	0x3ca6dc1e	0.020368632
111	0xbe64ff83	-0.22363095
112	0xbdbbddaf	-0.09173142
113	0x3d8a17ef	0.06742846
114	0xbe1fb456	-0.15596136
115	0xbe323e98	-0.1740669
116	0xbd968c3c	-0.07350966
117	0xbd98ad38	-0.07454914
118	0xbe90f38f	-0.2831082
119	0x3d9475a1	0.072489984
120	0xbe910f56	-0.28332013
121	0xbdab5e92	-0.08367647
122	0xbe5f4bb3	-0.2180622
123	0x3e58abce	0.21159288
124	0x3daefbc8	0.08544117
125	0xbe272310	-0.16321969
126	0xbdad4b31	-0.08461607
127	0xbe8db3bf	-0.27676198

lstm.weight_ih_l2 f4 [128, 32]
0	0x3e19bdbb	0.15013783
1	0x3e24e639	0.16103448
2	0xbd0afc43	-0.03393198
3	0x3dfe47b4	0.1241602
4	0xbe09e68d	-0.13466854
5	0x3c2e6d66	0.0106462
6	0x3d8a1319	0.06741924
7	0x3b69df49	0.0035686067
8	0x3c011ce1	0.00788042
9	0xbe02fc74	-0.12791616
10	0xbd7b5dff	-0.06136894
11	0xbcef19e2	-0.029187147
12	0x3d1bd9c1	0.038049463
13	0xbe1ea1a7	-0.15491353
14	0x3cb37478	0.021906123
15	0xbec1eeb6	-0.37877434
16	0x3e227119	0.15863456
17	0x3d86e273	0.065861605
18	0x3c84c052	0.016204987
19	0x3d26b12e	0.040696315
20	0xbdfde3fd	-0.12397001
21	0xbdc3e237	-0.095646314
22	0x3e5f9b98	0.21836698
23	0x3e323c7d	0.17405887
24	0x3e7609b1	0.24027134
25	0xbd1f3ad5	-0.038874466
26	0x3e30be80	0.1726017
27	0xbe91df23	-0.28490552
28	0xbddd45b6	-0.10804312
29	0xbd2d682d	-0.042335678
30	0xbe15f67a	-0.14644805
31	0xbd54367d	-0.051809777
32	0xbbfe02cd	-0.0077517987
33	0xbecef3ea	-0.40420467
34	0xbe8d56ed	-0.27605382
35	0x3e8c9272	0.2745548
36	0xbe9ecb86	-0.3101465
37	0xbd4e15af	-0.050313648
38	0xbe3413c5	-0.17585666
39	0xbce1853c	-0.027529351
40	0xbc1e2178	-0.009651534
41	0xbe54f7d2	-0.20797661
42	0xbe9bb522	-0.3041163
43	0x3d9289a4	0.07155159
44	0x3dc80315	0.09766213
45	0x3e8080d0	0.25098276
46	0xbe13ad89	-0.14421667
47	0x3b94f15d	0.0045453743
48	0xbdafceca	-0.08584364
49	0xbdb5975a	-0.08866759
50	0x3e8acd80	0.2710991
51	0xbda5cb24	-0.080953866
52	0xbec1628e	-0.37770504
53	0x3eb9e632	0.36308438
54	0x3e632399	0.22181548
55	0xbeb784ed	-0.35843602
56	0x3e29ff5b	0.16601317
57	0x3e641b67	0.22276078
58	0x3d0f6914	0.03501232
59	0x3d9ada0b	0.0756112
60	0x3d9f7765	0.077864446
61	0xbe2f1f78	-0.17101848
62	0xbe03b775	-0.12862952
63	0xbe78ea6d	-0.24308176
64	0xbe2c0710	-0.16799569
65	0xbd0e319a	-0.034715272
66	0xbe6ac8f5	-0.22928222
67	0x3d7687f7	0.06018826
68	0xbea963a3	-0.3308383
69	0x3e218f43	0.15777306
70	0xbd768154	-0.06018193
71	0xbe736c76	-0.23771843
72	0xbe20c6be	-0.15700814
73	0xbda70558	-0.08155316
74	0xbe889723	-0.26677808
75	0xbe7547bf	-0.2395315
76	0xbe16decb	-0.14733426
77	0xbde29cdb	-0.11065074
78	0xbe04d608	-0.12972271
79	0x3d854ad1	0.06508411
80	0xbcc21432	-0.02369127
81	0xbe2de084	-0.16980177
82	0x3bd02835	0.0063524493
83	0x3caddc38	0.021223173
84	0xbd531e7d	-0.051542748
85	0xbbd45ecb	-0.0064810268
86	0x3ddc18fb	0.10746952
87	0xbcf2afa8	-0.029624775
88	0x3d2b51f2	0.041826196
89	0x3e1de29d	0.15418477
90	0xbe48c8b7	-0.19607817
91	0xbc815aca	-0.015790362
92	0xbd16efb3	-0.03684969
93	0xbdf08cc9	-0.11745603
94	0x3ddfe630	0.10932577
95	0xbe408273	-0.18799762
96	0xbe36ac9b	-0.17839281
97	0xbdb5b861	-0.08873058
98	0xbe29d7fd	-0.16586299
99	0x3e6999e2	0.22812608
100	0xbeb36a9b	-0.3504227
101	0x3e8ea17b	0.27857575
102	0x3da82389	0.08209903
103	0xbea030dd	-0.3128728
104	0xbc0e8a29	-0.008699932
105	0xbda20e07	-0.07912832
106	0xbd664bfd	-0.05622481
107	0xbd276a5a	-0.04087291
108	0x3d3b998a	0.045800723
109	0x3bf1f960	0.007384464
110	0xbe240d2b	-0.16020648
111	0xbd67efee	-0.0566253
112	0xbe6ea941	-0.23306753
113	0xbe08d90e	-0.1336405
114	0xbd2520fb	-0.040314656
115	0x3d9f707c	0.077851266
116	0xbe494f10	-0.19659066
117	0x3eaa9492	0.33316475
118	0x3e0af446	0.13569745
119	0xbe53256e	-0.20619747
120	0x3e24a3db	0.16078131
121	0x3ea0f04b	0.3143333
122	0xbe3b5c80	-0.18297005
123	0x3c7419d7	0.014898739
124	0x3b711485	0.0036785912
125	0xbe212b14	-0.15739089
126	0x3d893c02	0.06700899
127	0xbeb90e79	-0.36143854
128	0xbe45e284	-0.1932469
129	0xbe8b87ec	-0.27252138
130	0xbe2c92a3	-0.16852812
131	0x3dfae30f	0.12250339
132	0xbe12b591	-0.14327075
133	0x3c233a91	0.009962694
134	0xbc0faf3b	-0.008769806
135	0xbd6b398d	-0.05742793
136	0xbe632f27	-0.22185956
137	0xbe9d936e	-0.30776542
138	0xbd554025	-0.052063126
139	0xbe8a15f6	-0.2696988
140	0xbdc6490c	-0.09681901
141	0x3da4ac1f	0.08040642
142	0xbebd82df	-0.3701391
143	0xbdb6b376	-0.08920948
144	0xbc12b6fd	-0.008954761
145	0xbe4b81a5	-0.19873674
146	0xbe191ea5	-0.14953096
147	0xbd9a2e44	-0.07528356
148	0xbe3e68d4	-0.18594676
149	0x3e9541fb	0.29151902
150	0x3e2e4eb2	0.17022207
151	0xbdc8b00f	-0.097992055
152	0x3e28adaf	0.16472505
153	0x3e9e2c8a	0.30893356
154	0x3e061904	0.1309548
155	0x3e45704b	0.19281118
156	0x3ce5ddd8	0.028059885
157	0xbe4330a8	-0.1906153
158	0xbd89528b	-0.06705197
159	0xbdd4b392	-0.10385813
160	0xbe33986e	-0.17538616
161	0xbd7eece5	-0.06223764
162	0x3d2bb012	0.04191596
163	0x3da0ada5	0.0784562
164	0xbe0dd635	-0.13851245
165	0x3d794b07	0.060862567
166	0x3dad8571	0.084727176
167	0xbdc2679d	-0.09492419
168	0xbe0e6466	-0.13905486
169	0xbc4d5c8f	-0.012534275
170	0xbdc63936	-0.09678881
171	0xbe0dd347	-0.13850127
172	0x3e29b56a	0.1657311
173	0x3e3cf9bf	0.18454646
174	0xbde580d9	-0.11206216
175	0xbe768371	-0.24073578
176	0xbe6812f4	-0.2266348
177	0xbe8221f1	-0.2541652
178	0x3c3adaf9	0.011404746
179	0xbde8d476	-0.11368649
180	0xbe694aa3	-0.22782378
181	0x3e4d1255	0.20026524
182	0x3e47a663	0.19497065
183	0xbe47899a	-0.19486085
184	0x3c9471bd	0.01812064
185	0x3e730a45	0.23734386
186	0xb6c53bf2	-5.878036e-06
187	0x3d815b99	0.06316299
188	0x3d691107	0.056901004
189	0xbead4a16	-0.33845586
190	0xbe5fcf32	-0.21856382
191	0xbea64f0d	-0.32482186
192	0x3e87e2f1	0.2654033
193	0xbef7f399	-0.48428038
194	0x3cc8d8b8	0.024517402
195	0x3f81b3ad	1.0132958
196	0xbc553cff	-0.013015031
197	0xbf0a270b	-0.53965825
198	0x3ca8f31d	0.020623738
199	0x3e092f4d	0.1339695
200	0x3d03910a	0.032120742
201	0xbe5cc47f	-0.21559332
202	0x3de464be	0.111520275
203	0x3e14bd97	0.14525448
204	0x3ef8bbde	0.4858083
205	0xbc90cb16	-0.017674964
206	0x3ec961b3	0.3933235
207	0xbf66e491	-0.90192515
208	0xbeed3e6a	-0.4633668
209	0xbf6977fd	-0.9119871
210	0x3f4b48d2	0.7940799
211	0x3ef4744a	0.47744972
212	0xbd60d32c	-0.05488889
213	0x3d5000a6	0.05078187
214	0x3ed130d7	0.40857574
215	0xbd1a75c6	-0.037709974
216	0xbec1b1fa	-0.37831098
217	0x3e239697	0.15975414
218	0xbecdf985	-0.4022943
219	0xbd838770	-0.06422317
220	0xbe147f91	-0.14501788
221	0xbe03b30d	-0.12861271
222	0xbd593f1d	-0.053038705
223	0xbe88771a	-0.26653367
224	0x3e5220e0	0.20520353
225	0x3c9b3400	0.018945694
226	0x3e8b00fd	0.27149191
227	0xbe1e7918	-0.15475881
228	0x39d7287c	0.0004103816
229	0xbd7dbcae	-0.061947517
230	0xbe5ab092	-0.21356419
231	0x3e685cd4	0.22691661
232	0x3ea80337	0.32814953
233	0x3ddb9784	0.10722259
234	0xbd3f8cbd	-0.046765078
235	0x3e52b225	0.20575769
236	0xbd68c15e	-0.056825034
237	0xbe5e74f5	-0.21724303
238	0x3e6fe0d8	0.23425615
239	0xbe1faf6c	-0.15594262
240	0x3e4668e7	0.19375955
241	0xbc0f1111	-0.008732096
242	0xbe423332	-0.18964842
243	0xbda9ede3	-0.082973264
244	0xbc87da2f	-0.01658353
245	0xbd958e79	-0.07302565
246	0x3e0fef2f	0.14056085
247	0x3dbf68d6	0.09346168
248	0xbe50d005	-0.20391853
249	0xbdc275ea	-0.094951466
250	0x3dd19357	0.10233181
251	0xbd44fb84	-0.048091426
252	0xbe4b942c	-0.19880742
253	0x3e0f9172	0.14020327
254	0x3e4151df	0.18878888
255	0x3d806d6b	0.0627087
