1223-code-DL/model/LSTNet_state_dict.pt (torch, 472047 bytes, 31 tensors)

cnn.0.weight f4 [64, 1, 3, 16]
00000000: c0c3 19be ec8e aabc 81ba 8a3d bf39 01be
00000010: 219c ac3d aac7 47be 3456 cfbb c117 dcbb
00000020: 798c cdbd 277f c6bd b024 2cbe d7b5 adbd
00000030: 028c e0bd 1768 a9bd c946 7f3d d8fb 48bc
00000040: a0cd 48be 7556 12be aca5 703d 0f25 6bbd
00000050: 10e9 e1bd 9bdc e63c a16c 9f3d bd6b 16be
00000060: 123b b23d 7f59 b8bd 3cd5 18bd 4f71 30be
00000070: 74d9 37be 3686 1fbe 968b 27be ee05 49be
00000080: b78e cfbd f1d1 29bd 9904 393d 7b11 e33b
00000090: 32ae 37be 7974 6e3d 6fa9 b6bd a2bd 3fbe
000000a0: 9812 943d f29a 22be 6c47 8a3d f503 173d
000000b0: 881a 4abe a1bd d4bd 1977 223d 82cb 3bbd
000000c0: d5a8 823d 3837 abbc 7a15 8abd cb30 53bd
000000d0: 0158 b83d 999e 8cbd 1c35 88bd 1031 1d3e
000000e0: b97a cd3c f068 463e 25e3 633c 1334 473d
000000f0: b60b 4e3d 97ad 293e 9b1a 2c3e 9aad 503d
00000100: fcef c63d d04f e53d 40f6 a43c b7bb b6bc
00000110: 13a5 563d e5b4 433e 03b1 133e 31a1 05bd
00000120: d9fa c3bc 8873 acbc b758 bf3d 5a70 c53d
00000130: d509 e73c 3963 59bd 3952 3b3e 53b5 013e
00000140: 6e1d 283d fbf1 f13d c6d6 3b3e 9cdf d13b
00000150: 5d65 fe3d a3bb 8cbd 187c 433e 7c02 283e
00000160: 6563 f3bc 6ee8 4fbd 52e5 213d 553d 0c3d
00000170: 43a0 1e3e 359d b53d 281d 673d a128 813d
00000180: c47a bebd 9cda 033d cfce 47bd a60c 9b3d
00000190: f38a ebbc b0cc a73d 1b79 d53d 0f7c 1cbd
000001a0: 9063 2a3e 960d 59bd f5e1 313e 3750 f33d
000001b0: ee8b a6bd 587a 07bd c2f4 7e3d 5de4 2c3e
000001c0: 666b 503d c902 4ebd c852 953d 61ef 393e
000001d0: d622 153e 037e 093e d875 043c 79e2 753d
000001e0: 84c8 acbc abd7 373e 0a5c 50bd 6101 94bd
000001f0: c2f1 e3bc d8c5 243e 5295 923d a5aa 3b3d
00000200: 1194 323e 5d2e 6c3a cb5c 303e f810 3e3e
00000210: b771 63bd a56e b6bc 3f70 9cbd 47c5 553d
00000220: 5d75 fb3d 573e 003e 7e43 953d 25a6 3d3e
00000230: 7c41 273e 10ff 143e 0f9d 3e3e ba8c 82bd
00000240: 6582 713c 61de aabd c297 823d ae0c f9bd
00000250: 51f9 9f3d ea10 5fbd d9b3 bcbd ab83 03be
00000260: e657 0c3d 3511 4a3b 52cc b9bd 230f 273c
00000270: 362d efbd 5765 213d e3d0 d63b 4361 23be
00000280: d47f 813d 99d6 00be 92c6 53bd ba2a d5bd
00000290: 449f 523c 4260 27bb 8fd2 d8bc 5bdf a23c
000002a0: 09cb ebbc e10b bb3c 63e6 16be 8820 403d
000002b0: a084 aa3d cf8c a3bd 0f62 07be c334 403d
000002c0: 6980 9bbc c809 533d 6a20 d5bd 91f1 10bd
000002d0: 0e80 abbc 4888 b7bd 2c4c d6bd 5451 4bbd
000002e0: 0786 c0bd 3a19 b9bd 556c 7abd 5835 95bd
000002f0: 619e f5bc 677f 9f3d f81b 9ebc b36f 08be
00000300: ceb3 31be b4e3 17be 542f a2ba f218 483b
00000310: 4c5a c33c bf4e 39be 9444 61bc 25c5 7f3d
00000320: d2ee 443d 9bfa a43c 148d 753d 0645 cfbc
00000330: 8412 c73c 30d3 98bd 5b93 bdbd 8d6e 153d
00000340: 861e 4bbe 095d 4ebe dcd6 073d 5a84 11be
00000350: 2545 9ebd ce06 24be 4c28 a7bd 444b 42be
00000360: fb4d f0bd 67e0 943d ca01 31bc 746c 8cbb
00000370: 8d23 33be 515a 9fbd 7528 15bd 285e 16be
00000380: 161e ebbc da39 9e3c 33fd ab3d cdc2 94bd
00000390: 1473 6bbd 81c3 4c3c 2453 5dbd 877a 0ebd
000003a0: f7b0 20be cd9d 973d 869c 33be 6dc3 b3bd
000003b0: 8aaf 1bbe 9bd2 8f3a 3275 22bd 5dcd 563d
000003c0: 2929 4f3d 8cc8 8dbd b356 ebbc f6c8 423e
000003d0: ecc6 153e bc61 063e 07bd 943d e93b d73d
000003e0: 7af4 f03d 527d 7a3d 3a01 763d c361 c43d
000003f0: ed63 973d ec09 583d 228a 1c3e c9db f33d
-0.15016079 -0.020820104 0.06773854 -0.12619685 0.08428217 -0.1950976 -0.006327415 -0.006716699
-0.10036559 -0.09692221 -0.1681087 -0.08481949 -0.10964204 -0.08271807 0.062323365 -0.0122670755
-0.1960969 -0.14290793 0.058751747 -0.05740839 -0.11030781 0.028181365 0.07784391 -0.14689536
0.08702673 -0.09001445 -0.03731273 -0.17230724 -0.17954046 -0.15578541 -0.16361842 -0.19631168
-0.101346426 -0.04145998 0.0451704 0.006929574 -0.17937544 0.058216546 -0.08919036 -0.18724683
0.07230109 -0.1587942 0.06751904 0.036869008 -0.19736683 -0.10387731 0.03966436 -0.045848377
0.063798584 -0.020900354 -0.067423776 -0.051560204 0.090011604 -0.068661876 -0.06650755 0.15350747
0.025082933 0.19375968 0.013909136 0.048633646 0.050304137 0.16570126 0.16807024 0.05094681
0.09713742 0.11196864 0.020136952 -0.022306306 0.05240352 0.19111975 0.14422993 -0.032624427
-0.023923324 -0.021051183 0.09343093 0.0964057 0.02820293 -0.05307314 0.18293084 0.12666826
0.04104369 0.11813732 0.18343648 0.00640483 0.12421677 -0.06871726 0.19090307 0.16407198
-0.029710481 -0.05075877 0.039525338 0.03423818 0.15490822 0.088678755 0.05642429 0.063065775
-0.093007594 0.032190904 -0.048781212 0.07570772 -0.02875278 0.08193338 0.1042349 -0.03820425
0.16639543 -0.052991472 0.17371352 0.11880534 -0.08132158 -0.03307566 0.062245138 0.16883989
0.050883673 -0.050295625 0.0729118 0.18157722 0.1456407 0.13426976 0.008084737 0.060030434
-0.021091707 0.17953365 -0.050869025 -0.072268255 -0.02782524 0.16091096 0.07157387 0.045817036
0.17439295 0.0009009594 0.17222898 0.1856116 -0.05552837 -0.022269556 -0.07638597 0.05219009
0.12278245 0.12523781 0.07288264 0.1852041 0.16333574 0.14550424 0.186146 -0.06374498
0.014740561 -0.08343197 0.06376602 -0.121606216 0.07811225 -0.05445949 -0.09213991 -0.12843196
0.034263514 0.003083301 -0.09072174 0.01019648 -0.11678545 0.039403286 0.006555663 -0.15955071
0.063232094 -0.12581863 -0.051703043 -0.1040854 0.012855355 -0.0025539552 -0.02646759 0.019881895
-0.028783338 0.022832813 -0.14736323 0.046906024 0.083260775 -0.079858415 -0.13221 0.046925317
-0.01898213 0.051523 -0.10406573 -0.035386626 -0.020935085 -0.089615405 -0.104637474 -0.049638107
-0.09400564 -0.09038015 -0.06113847 -0.07285565 -0.029982748 0.07787972 -0.019300446 -0.1332386
-0.17353746 -0.14832956 -0.0012373724 0.0030532447 0.023846768 -0.18096446 -0.01374926 0.06244387
0.04807932 0.02013903 0.059948996 -0.025301468 0.024300821 -0.07462156 -0.092566215 0.036482383
-0.19835863 -0.20152678 0.03316389 -0.14210644 -0.07728032 -0.16018221 -0.08161983 -0.18974024
-0.117336236 0.07269364 -0.010803649 -0.0042853896 -0.1749403 -0.07780898 -0.036415536 -0.14684355
-0.02870087 0.019314695 0.08397903 -0.07263718 -0.057482794 0.012497784 -0.054034367 -0.03478482
-0.15692507 0.07403145 -0.17540178 -0.08777509 -0.15203682 0.00109728 -0.039662547 0.052441943
0.050576363 -0.06923017 -0.028727865 0.19021973 0.14626664 0.1312322 0.072626166 0.10509474
0.1176538 0.06115467 0.060059763 0.09588959 0.07392106 0.052743837 0.15287068 0.11907155

cnn.0.bias f4 [64]
00000000: b782 0dbe 2458 f23b 6322 e93d c8ac 39be
00000010: 63f6 49be 2fd0 183e 74af c53b 098b c63d
00000020: 2aa7 363e da60 0e3d 9918 32be c9cc 893d
00000030: 3092 7c3d 2b28 4c3c 4be4 623d 1cb8 8d3d
00000040: 0bfd 10be 758c 76bd 0012 6cbd bd96 9fbd
00000050: 0dab 12be 0447 c2bd 8ed1 133e f1cd 20bd
00000060: 9d20 4bbd 0968 413e 947e 0dbd 5f52 8e3d
00000070: 0fc2 f73d 78ae 043e 2198 bbbd 849c d5bd
00000080: ee58 dbbd e190 6b3d a405 053e b12f eebd
00000090: 4d62 163e cae7 1f3e c814 883d 2b4b 20bd
000000a0: 30b1 eabd 8737 a3bd ad0b 093e 10f3 943d
000000b0: 1860 b7bc 22e2 693b 29a0 43be 88f9 753c
000000c0: 43ce 233b 8413 ad3c 8213 79bb fff9 43be
000000d0: 2b65 8fbd de9b ccbc 147b 71bd 8eba d8bd
000000e0: 2a08 cc3b f00c f13d 1498 2a3e 56e6 41be
000000f0: e947 7cbd 0324 9fbd 6427 11bc a31c a3bd
-0.13819395 0.007395761 0.11383512 -0.18132317 -0.19722895 0.14923166 0.0060328785 0.096944876
0.17837206 0.034760334 -0.17392196 0.06728513 0.061662853 0.012460749 0.0553935 0.06919882
-0.14159028 -0.060192544 -0.057634354 -0.07792423 -0.14323063 -0.094862014 0.14435408 -0.0392589
-0.04959165 0.18887343 -0.034544542 0.06949305 0.120975606 0.1295718 -0.09159876 -0.104302436
-0.10710321 0.057511214 0.12990433 -0.1163019 0.14685936 0.15615764 0.06644589 -0.039134186
-0.11459577 -0.079695754 0.1338336 0.07272923 -0.022384688 0.0035687764 -0.19104065 0.015013106
0.0024994768 0.02112747 -0.0038006012 -0.19138335 -0.07001718 -0.024976667 -0.058955267 -0.105824575
0.006226559 0.11770046 0.16659576 -0.18935522 -0.061592016 -0.077705406 -0.008859489 -0.079644464

rnn.weight_ih_l0 f4 [192, 64]
00000000: a1eb 0e3c 6f1d af3d f455 8cbc c513 dcbd
00000010: ddb1 853d a734 9ab9 9dae 73bd e103 abbd
00000020: 2b5a 71bd edd8 cdbd cc35 f6bd d47a 183e
00000030: 9059 de3d 6064 003e cc46 2fbd f1ca 0fbd
00000040: 6f81 a3bd a6d2 72bd 3e31 bebd 8aa8 bc3d
00000050: f46c a23d 0c1f be3d 2910 223b 3416 9cbd
00000060: 6b90 f83c 4081 0dbd 90e2 59bd e28f 9dbd
00000070: 0852 aa3d c429 713d 7110 f23d 2d76 2dbd
00000080: 7c11 203e 1a7c ecbb ff76 b23d 3d23 643c
00000090: a85e 243e f8d6 bebd 24c7 2e3e afd4 0f3e
000000a0: 7c3f 8dbc f8f8 0a3e 644c 0a3e 0d07 9cbd
000000b0: c4bf a0ba 9c77 9c3c 0627 28bc 9639 ce3d
000000c0: 5a3b e3bd a644 613c ed47 91bd c9fa 043d
000000d0: f5ff 96bc a5b0 fe3d 8bbc 00bd dec3 463c
000000e0: a0e4 273e 9fe9 abbb e647 65bd f5bb 323e
000000f0: ea19 bd3b d070 163d b821 7ebd 1b05 01bd
00000100: 4735 f1bb 9381 913d 229e 46bd bf77 d43d
00000110: c6d7 bebc 2931 90bd da0d b8bd a6c1 5cbd
00000120: e192 10bd 87bb 893d fe6e 00bd 77b9 a2bd
00000130: c953 10be b1a9 b43d 321f e53d 5326 06be
00000140: f45a bcbb 610e 1dbe 92ad f73d a757 893c
00000150: f849 043d a4f0 f53d 73ac 02bb eccb 9dbd
00000160: 7bd5 88bd 3752 2fbd dd10 8e3c 0cbc 4d3d
00000170: c3ab 93bd eccd 183e 889f a13d e6fe 91bc
00000180: cf3f 6f3c 46b8 d63d d90c efbd 9bff 21bd
00000190: ccf1 f4bd 0ea9 e7bc 43a3 e93d dbf3 60bd
000001a0: 0334 843d d4a2 90bd 87ef 72bc 9a7f babc
000001b0: ea37 88bd ed98 373d 934d 84bd 7b8e c23d
000001c0: 235a babc beb4 e9bd ff68 babd 0b44 e13d
000001d0: c5b6 fe3d eb79 953d a174 32bd 71ca 9dbd
000001e0: 25e0 a23d f9bc 9e3c 8252 d33d 41c5 cd3d
000001f0: 3f55 67bd e1a4 3a3c ad73 0bbc df75 aa3d
00000200: 2aca d6bd e118 8f3d 1bd3 eabd fe03 5cbd
00000210: 6d8d f8bd 0ff3 31bc 9bea f83d c55c 4e3c
00000220: 79d8 443c fa72 30bd a82a e43c d4a4 b7bc
00000230: a6c0 debd e4f0 b3bd fb0b 0fbe c776 23be
00000240: d613 bc3d 0378 22be 31c0 de3d f03b 573d
00000250: c62c a0bd 3400 25bd dd14 93bd 737b c8bb
00000260: fa29 dcbd 0df1 543c b279 9bbd f981 a23c
00000270: cb22 2f3c 977d 133d 5fbe 17be 133f 20be
00000280: 49fe 26bd 934e 8a3c 80f1 87bd 8323 703c
00000290: aadd 11be 0114 943d 1540 9e3d b6fa dcbd
000002a0: e738 d23c 09b3 803d a76d e33d 67e7 ff3c
000002b0: 1132 b0bd fef1 7abd 24f4 5b3c 9a1a a63d
000002c0: 5f7b 433d ac09 6cbd a35d 9e3d e3ef b23c
000002d0: 1c55 6e3d 3dec 95bd 232c 153d 68aa e4bd
000002e0: e4f6 aabd 1f8a 0abd 9b08 54bd 4d57 c03d
000002f0: 92c0 17bd a7d2 693d 51ad f9bc 3683 a33d
00000300: 3409 90bd 203c 08be 544c a1bd 5f0b a8bd
00000310: 4270 09be ca60 47bd a130 7ebd 8249 463d
00000320: f1d0 f1bc 0110 a3bd bbf9 633d ef8a 05be
00000330: 7a70 29be 269d 06be 1b56 a5bc b59f 1a3d
00000340: 3f1f 1a3d 738f 593d 373a 03bd cb9f 93bd
00000350: 9038 0fbc 38e3 85bd 2693 25be a4b0 e2bd
00000360: b274 93b9 04a2 703c 3f8b b4bd 248b b43d
00000370: 757f 973c 94cc c53c fac5 fbbd 3408 f2bd
00000380: dcb2 48bc c410 66bd baba f6bc c737 fd3d
00000390: 44da a4bd 750a b2bd c58a a33c 5c6f f4bd
000003a0: e876 d13b a36b cdbd 19a5 273d ac9d 37be
000003b0: 7a21 29be d13c 31be e5a2 0dbe dadd b1bd
000003c0: de1c f63d 9671 1fbe 6808 e7bc 52b9 52bd
000003d0: 8197 17be 2327 f2bd bd77 e2bd 1989 d4bd
000003e0: 812d 37be 8593 343d b771 91bd ce5c d2bd
000003f0: ad75 45bc 1f6b 8b3d b543 473d 20b0 643d
0.0087231705 0.08550536 -0.01713083 -0.10745958 0.06528065 -0.00029412398 -0.059492696 -0.08350349
-0.05892388 -0.10051141 -0.1202198 0.14890605 0.108569264 0.1253829 -0.042792127 -0.03510565
-0.07983672 -0.05928292 -0.09286736 0.09211834 0.079309374 0.092832655 0.002472887 -0.076214224
0.030342301 -0.03454709 -0.053194582 -0.07693459 0.083164275 0.05887772 0.11819542 -0.04234903
0.1563167 -0.0072169425 0.08714103 0.013924417 0.16051733 -0.09318346 0.17068154 0.14045976
-0.017242186 0.13571537 0.13505703 -0.07618532 -0.0012264182 0.019100003 -0.01026321 0.100695774
-0.11095305 0.013749277 -0.07093797 0.03246573 -0.018432597 0.12436036 -0.03142981 0.012131659
0.16395807 -0.0052463557 -0.05597677 0.17454512 0.0057709115 0.03672868 -0.062043875 -0.03149901
-0.0073610875 0.071047924 -0.04849065 0.10374402 -0.023296248 -0.070406266 -0.08987017 -0.053895615
-0.035296325 0.06725221 -0.03135585 -0.07945531 -0.14094462 0.088214286 0.11187591 -0.13100557
-0.005748147 -0.15337516 0.12093653 0.016765429 0.032297105 0.12008789 -0.0019939214 -0.07704911
-0.06681343 -0.042803016 0.017342025 0.050228164 -0.07210495 0.14922303 0.07891756 -0.01782174
0.0146026155 0.10484366 -0.11672372 -0.039550405 -0.119601816 -0.028278854 0.11408093 -0.05492006
0.06455233 -0.07062307 -0.014827616 -0.022765923 -0.0665129 0.044823576 -0.064601086 0.09499832
-0.022748059 -0.11411427 -0.09102058 0.10999306 0.12437204 0.07298645 -0.043568257 -0.07704628
0.079529084 0.019377219 0.103184715 0.10047389 -0.05647778 0.011391849 -0.008511466 0.083232634
-0.104877785 0.06987167 -0.114660464 -0.053714745 -0.1213635 -0.010861172 0.121541224 0.01259536
0.012014502 -0.0430784 0.027852371 -0.022417463 -0.108765885 -0.087861806 -0.13969414 -0.15963279
0.09183471 -0.15866093 0.10876501 0.052547395 -0.0782104 -0.040283397 -0.07181714 -0.006118232
-0.10750194 0.012996924 -0.07591571 0.019837366 0.010689448 0.036008444 -0.14818715 -0.15649061
-0.04076985 0.01688317 -0.06637859 0.014656904 -0.14244714 0.07230378 0.077270664 -0.10790007
0.025661899 0.06284148 0.11104899 0.03123827 -0.086032994 -0.061265938 0.013424907 0.081105426
0.047725078 -0.05762641 0.077327035 0.021842903 0.058186635 -0.073204495 0.036419045 -0.11165315
-0.08347872 -0.03382313 -0.05176602 0.09391651 -0.037048884 0.05708566 -0.030478152 0.07984011
-0.07033005 -0.13304186 -0.078758866 -0.08205294 -0.13421729 -0.04867629 -0.062058095 0.048409946
-0.029518576 -0.07962037 0.055658083 -0.1304128 -0.16546813 -0.13145885 -0.02018266 0.037749965
0.037627455 0.05311532 -0.03203794 -0.072082125 -0.008741513 -0.06537479 -0.16169414 -0.11068848
-0.0002812497 0.014687065 -0.088156216 0.088156015 0.018493393 0.024145402 -0.122936204 -0.11817971
-0.012249675 -0.056168333 -0.030118335 0.12364154 -0.08049443 -0.08693401 0.019963631 -0.119353026
0.0063923486 -0.10030296 0.040928934 -0.17931241 -0.16516677 -0.17308356 -0.1383167 -0.08684893
0.12017225 -0.15570673 -0.02820225 -0.051446266 -0.14803888 -0.11823871 -0.110579945 -0.10377712
-0.17888452 0.044085998 -0.071017675 -0.10271607 -0.012051982 0.06807541 0.048648555 0.05583203

rnn.weight_hh_l0 f4 [192, 64]
00000000: bb72 c8bd 578d 1b3e 8aa7 cebd 1284 cf3d
00000010: cbdd 583d 4108 8f3c a476 4bbd 4b36 623c
00000020: c2db adbc fc78 7b3d 6550 7cbd b45f 34bd
00000030: 0cef b53c 6562 0d3e c1ae 02be 97ae 79bd
00000040: f5c6 f53d 1d23 92bd 7879 a33d 29a5 c1bb
00000050: b1e9 dd3d 0728 09be 3a28 40bd c0fe c5bd
00000060: 5d75 083e 5b8f 6e3d 04d2 91bd c945 203e
00000070: afbe 8dbd 3060 66bd 4c50 15bd f7c1 77bd
00000080: 6959 b2bc 6741 303e 8654 04be 529d d73d
00000090: e3f9 ebbc 980f dc3c 0467 c13c 2aa3 243e
000000a0: 3c0b 8b3d 11c6 ed3c d0ed 1cbd f41e 0abe
000000b0: f74d 173e a958 ee3c 4d39 bd3d 2c29 54bd
000000c0: fac0 57bd a5dd 11bd 1088 a2bd 8e5d c8bd
000000d0: 6f63 34be cd08 6c3c 8632 163e 597e a1bd
000000e0: d1d1 173d 4490 12bd ba5f 59bc 79ab 21be
000000f0: 5b58 2e3d 9e6e 76bb 6f43 81bb e7f6 4a3d
00000100: 8ce9 8a3d 7a2e 1e3d 5a70 6dbd 2770 cdbd
00000110: 7326 903d baf2 523b d0a9 2ebd 91d3 af3d
00000120: de07 a4bd 8d25 45bd 21d4 8ebd 8e6d c13d
00000130: d383 10bd 693a 69bc de2b aabb 0ae4 1abe
00000140: 26a0 b43d 4498 e63c 9b6b d53d c915 81bc
00000150: fcc3 f2bd 099b e63d a9ba 603d c4ad a33d
00000160: 9b02 f1ba d125 2ebe b4d2 73bd 0a95 52bb
00000170: 48c3 9d3d 37e3 67bd c33d b2bd f2a1 313d
00000180: eb96 fe3c 9248 c2bd 1fa4 cb3d 0ec5 053e
00000190: ed76 673d b34c f2bd b300 b9bd 981a c8bc
000001a0: d942 40bd 5640 28be 5df4 2bbd 8e96 a6bd
000001b0: 0ecd 133e 76cb 9d3c c0c0 ebbb b1c3 6b3d
000001c0: 717a e3bc a224 48bd cb33 ee3d a15a 873d
000001d0: a4d5 903d 62eb de3c 3440 063c a17c c2bd
000001e0: 577c dfbd deb1 5abd 8933 9f3b 5723 de3d
000001f0: 8c0c dbbd 3a73 1a3e 3b9c 1abb 75c2 fd3c
00000200: c92e 77bc edde b73d fc63 f83d cacc e6bd
00000210: 5ef5 bfbd aac0 b83d 1dde ffbb b662 b83d
00000220: 91e1 f0bd cec1 013d 2c3c c3bd e8ff 063e
00000230: 6fbe bcbd 06d6 bfbd e09d 75bc e0f6 acbd
00000240: 4a0d adbc 0a01 a33d 3ac7 e6bd 9325 31bd
00000250: 9035 973d b203 8cbd 9ec0 ec3c f3b9 033e
00000260: 43af 68bd 4108 5f3c e1b7 003e a715 b53d
00000270: b7e6 7ebd 20e1 ff3d 963e 933c 6690 2bbd
00000280: c981 fa3d e3ba 55bd a9d3 6bbd 889a 383d
00000290: 3acf 9abd 0239 d43c 9eb7 113e f902 3cbd
000002a0: cc22 353d 33f2 343d c760 cc3c e30b a0bb
000002b0: a6ba 53bd ccf2 68bc 765e 45bd 3d28 f6bc
000002c0: f26a d93d 4224 fd3d 7b9e 0a3d 2e7f 94bd
000002d0: 626c 0c3e 5b20 b6bc b4ed 5d3b fce1 1e3e
000002e0: b90e 353d f253 ecbc cdc4 2f3d 5c55 0a3e
000002f0: e428 03be d283 fe3c b61e 083d 9fb8 413c
00000300: c34e dd3d e59c be3d a7a5 b33d e901 d3bc
00000310: bc32 cc3c 025d 13be c390 6a3d 9ae6 1abe
00000320: 7a6f 9ebd 86ea 7cbd b10e 453d 907c a13c
00000330: 5676 b03d 54b0 b0bc 1e18 b53d e22a febd
00000340: 26a8 20bd 4799 993d e4c2 413d 4938 eabc
00000350: 209d de3d dc3a 153e 3f24 18be b84c 003d
00000360: 6053 25be a0b3 00be 6e0c 353e 99ca 893d
00000370: 509e e9bd 6b06 1abd d1de b7bd c4f4 6f3d
00000380: 6733 ad3d 6925 99bb 6a81 273e 9c35 efbd
00000390: 41f6 4ebd 18a2 343e bb6d 2b3e cc28 19be
000003a0: 6c9d 503d 74b5 7ebb bf5d 7ebd 607a e03c
000003b0: 59f5 cfbd 23c9 26be 4b8c 233d cfc6 3b3e
000003c0: 3df6 3e3d 13cc 123e 5aec e73d 153c 2dbd
000003d0: d5b2 f13d e9ce 2bbc f550 c0bc 38c0 efbc
000003e0: 66ca 7fbd fd52 1d3e f3a0 16be b068 db3d
000003f0: 3ae9 603d 1825 97bb d253 eebd 05a9 02bc
-0.09787508 0.15190636 -0.10090549 0.10132612 0.052945893 0.01745999 -0.04967369 0.01380689
-0.021222953 0.061394677 -0.061600108 -0.044036582 0.022208713 0.13807066 -0.12761976 -0.060957517
0.12000839 -0.071356036 0.07982153 -0.005909581 0.10835589 -0.13394175 -0.046913363 -0.0966773
0.1332602 0.058242183 -0.071201354 0.15651621 -0.06921136 -0.056244075 -0.03645353 -0.060487714
-0.02177115 0.17212449 -0.12922868 0.10528053 -0.028805679 0.026862904 0.023608692 0.16077867
0.06789252 0.02902511 -0.038312733 -0.1348837 0.14775835 0.02909501 0.09239445 -0.051797077
-0.05267427 -0.035611767 -0.07936108 -0.09783469 -0.17616056 0.014406395 0.1466771 -0.07885427
0.03706533 -0.035782114 -0.013267452 -0.15788068 0.04256473 -0.0037602554 -0.0039448063 0.04955187
0.06782827 0.038618542 -0.057968475 -0.10031157 0.070385836 0.0032188133 -0.042642415 0.08585275
-0.08009313 -0.048131514 -0.06974054 0.09444724 -0.035281967 -0.0142351175 -0.0051932177 -0.15126052
0.088196084 0.028148778 0.10420915 -0.015757458 -0.11853787 0.11260039 0.054865513 0.079921275
-0.0018387617 -0.17006613 -0.059527114 -0.0032132291 0.077032626 -0.056613173 -0.08703186 0.043367334
0.031077823 -0.09486498 0.09943413 0.13063452 0.0565099 -0.118310355 -0.090333365 -0.024426743
-0.04693875 -0.16430792 -0.04198109 -0.08134185 0.14433691 0.019262057 -0.0071946084 0.057559673
-0.027768346 -0.04886306 0.116309725 0.06609083 0.07071999 0.027211849 0.008194018 -0.09496427
-0.10912388 -0.053392284 0.0048584384 0.10846584 -0.106957525 0.15083018 -0.0023591656 0.030976513
-0.015086838 0.089780666 0.121284455 -0.11269529 -0.09372972 0.09021123 -0.0078084604 0.090032026
-0.117617734 0.031678967 -0.09532961 0.13183558 -0.0921601 -0.093669936 -0.014991254 -0.08445525
-0.0211245 0.079591826 -0.11268468 -0.043248724 0.07383263 -0.06836642 0.02890044 0.12863903
-0.056807768 0.013612808 0.12570144 0.088420205 -0.062231746 0.12494111 0.01797418 -0.041885756
0.12231786 -0.052180182 -0.0575749 0.045069247 -0.075590566 0.02590609 0.142302 -0.045901272
0.044222638 0.04417629 0.02494849 -0.0048842295 -0.051691674 -0.014218044 -0.048185788 -0.030048484
0.10616101 0.12360431 0.033842545 -0.0725082 0.1371322 -0.022232225 0.0033863606 0.15515894
0.044203494 -0.028848622 0.042912293 0.13509125 -0.12808567 0.031068716 0.033232413 0.011823802
0.10806038 0.09307269 0.0877183 -0.025757747 0.024926536 -0.14390948 0.05726696 -0.1512703
-0.07736106 -0.061747096 0.048109714 0.019712716 0.08616321 -0.021568455 0.088424906 -0.12410523
-0.03922286 0.074999385 0.047305003 -0.028591292 0.10869813 0.14573234 -0.14857577 0.031323165
-0.16145086 -0.12568521 0.17680523 0.067280956 -0.11407149 -0.037603777 -0.08978046 0.058583036
0.0845707 -0.004673649 0.16357961 -0.11680147 -0.050527815 0.17639959 0.16741078 -0.14956969
0.05093138 -0.0038865479 -0.062101122 0.027402103 -0.10154218 -0.16287665 0.039928716 0.18337558
0.04662155 0.1433566 0.11324377 -0.042293627 0.11801688 -0.010486343 -0.023476103 -0.029266462
-0.06244888 0.15363689 -0.14709835 0.10713327 0.054909922 -0.004612576 -0.11637081 -0.007974868

rnn.bias_ih_l0 f4 [192]
00000000: 2414 2e3e 5089 593d cdc3 01be 5105 27be
00000010: 55de be3b 11ca 3b3e 9baf eabd 23eb 06bd
00000020: 0806 a5bd 4c15 f6bd dfc0 003d 69f0 5cbd
00000030: 6691 1fbe 9cf7 cfbd 4c5b 0fbe 3b38 32bd
00000040: 9d5b 143d a627 17be 518b 30be f655 e7bb
00000050: 915b d3bd cad5 fe3b e456 b0ba 00de f03c
00000060: f97e 8cbd 00b4 083d 028f 373e 7ee6 24be
00000070: e270 363d 418b 21bd 8698 ae3d c922 293e
00000080: a3c7 883d 74ff 4d3c 05fc 9b3c 5f9e a43c
00000090: 4ede b13d bbbb 2fbc 8052 28be eeea 953d
000000a0: c556 d9bd 2540 3abe fcd4 eb3d 393e a53c
000000b0: f770 b4bd c59d f5bc 96b1 77bd 3e4f 0bbe
000000c0: 8a16 c93b 47fd 72bd e389 cfbd 5610 ea3d
000000d0: 76ce 6abd 86cb 19bd 993e 31be 61fe 09be
000000e0: e818 3cbd aea4 8abd 22ac 0bbd 0ae9 3c3d
000000f0: 22d8 35be 3a30 c63d cd48 15bd 76d9 dbbd
00000100: 03fc a4bd daa2 b73d 9b20 023e b95f 6f3d
00000110: 10b0 1abd 2a4c d23d 0996 3abd 2a28 83bd
00000120: 67d2 533d 43f8 a53d 36fd 19be 58ca 49bd
00000130: 8a99 b7bd 4014 813d 8b7c f13d 4cab 46bc
00000140: 8156 87bd 2534 ea3d 0ccc 623d 4009 803d
00000150: 5b47 b6bd f88a 2b3e a1b1 063d 2e19 343d
00000160: abcc 4fbc 5105 c4bb f44d 6e3c 1fab ee3d
00000170: 60ef 06be a9f3 9abd d9b5 ae3d 74c8 1ebe
00000180: b405 813d 6706 3c3d 7ef3 863c 67ee 46bd
00000190: 6850 f53d 56d9 dcbc 22df 8bbd 4c94 e73c
000001a0: 704c adbc c910 173e 066a b13d 2808 303d
000001b0: ad63 2fba 4a99 8dbd 418d 963d a22f 0dbd
000001c0: c0f6 623b d99e 8dbb a009 d1bd 2b38 95bd
000001d0: 17c4 fe3c 1837 31bd 99aa aabd 11c4 f4bc
000001e0: 2719 8d3c 5b8d c5bd 0de4 a3bd e940 f73d
000001f0: e5a8 8d3d e08d 15bd 8c70 0e3c 988a f43d
00000200: c589 5bbd d04b 82bc 9f1d 263d 8821 623c
00000210: ad29 1ebd 6793 043d 3198 273e 6038 d13d
00000220: 3bc4 213e 660f f33d 7e74 ecbd 13ec f8bd
00000230: 9ce7 46bd 4d90 943d 00a5 24bd ccd8 ccbb
00000240: 8e18 16bc 0632 56bd f4f4 763c c205 f83c
00000250: 41f8 b6bd 2b6f 433d f15b bcbd 2043 36be
00000260: 8215 913d 46db a9bc 3edc e2bb a4d6 3ebd
00000270: 96b1 393e 3eb3 07bc 01bc 843d 06cb f53c
00000280: ca47 0b3e 5533 773d 0bf7 823d 1ae1 163e
00000290: 740d 513d 64a9 9cbd 7b58 25be 30dd 203e
000002a0: 9aa8 f4bd eeb7 363d d1c1 7dba d121 f8bd
000002b0: af7f 553d 22f7 bb3d 77bf 7b3a f5f1 acbd
000002c0: ebd4 f1bc e8b9 0c3e d73b e7bc fb4d d9bd
000002d0: 3d99 043d c83b 103d 5c4a 48bd c2b9 3f3c
000002e0: 7831 d6bd 30e6 d4bd 917b 733d a987 34bc
000002f0: 1dac b8bd 92e9 f73d 0038 523d 41cf 1b3e
0.1699987 0.053109467 -0.12672348 -0.16310622 0.005824844 0.18338801 -0.11459275 -0.032939088
-0.08057791 -0.12015781 0.031433936 -0.05394021 -0.15582809 -0.101546496 -0.1399967 -0.043510657
0.03622018 -0.14761218 -0.17240645 -0.007059808 -0.10320199 0.0077769505 -0.001345363 0.029402733
-0.068601556 0.033374786 0.17925647 -0.16103551 0.044541247 -0.039439443 0.08525185 0.16517176
0.06678703 0.012573112 0.01904107 0.020095048 0.086849794 -0.010725911 -0.16437721 0.073202
-0.10612253 -0.18188532 0.11515233 0.020171272 -0.08810609 -0.029982457 -0.060472094 -0.13604447
0.00613672 -0.059323575 -0.10133722 0.11428897 -0.057325803 -0.03754761 -0.17309035 -0.13475944
-0.04592219 -0.067696914 -0.034099706 0.04612068 -0.1775823 0.09677167 -0.03644638 -0.10734837
-0.0805588 0.08966608 0.1270775 0.058440898 -0.037765563 0.102684334 -0.04555324 -0.06404145
0.051714327 0.08103993 -0.15037999 -0.049265236 -0.08964832 0.063026905 0.11791333 -0.012125801
-0.06608296 0.11435727 0.055370376 0.06251764 -0.08900329 0.16752231 0.032884244 0.043969326
-0.012683074 -0.005982079 0.014544953 0.116537325 -0.13177252 -0.07566006 0.085307784 -0.15506154
0.06299916 0.045904543 0.016473528 -0.048567202 0.11978227 -0.026959103 -0.068296686 0.028268956
-0.021154612 0.14752497 0.086628005 0.04297653 -0.0006690573 -0.06914003 0.07351161 -0.034469254
0.0034631938 -0.0043219146 -0.10206914 -0.07286104 0.031099362 -0.043265432 -0.0833332 -0.029878648
0.017223908 -0.09646102 -0.080024816 0.120729275 0.0691698 -0.036512256 0.008693825 0.11940497
-0.053598184 -0.01590529 0.040555593 0.01380194 -0.038613964 0.032367136 0.1636665 0.10215831
0.15797512 0.118681714 -0.115456566 -0.121544026 -0.048560724 0.07254086 -0.04019642 -0.00625143
-0.009161128 -0.0522938 0.01507305 0.030276183 -0.089340694 0.04771344 -0.09197224 -0.17799044
0.070841804 -0.02073444 -0.0069232276 -0.046591416 0.1813415 -0.008282481 0.064811714 0.030004036
0.13601604 0.06035169 0.06394776 0.14734307 0.05103822 -0.07649496 -0.16147034 0.15709376
-0.11946221 0.044609003 -0.0009680065 -0.12115825 0.05212372 0.09177996 0.00096034206 -0.08444587
-0.029520473 0.13742793 -0.028226776 -0.10610577 0.032372702 0.03521326 -0.04889904 0.011702003
-0.10458654 -0.10395467 0.059444014 -0.011018672 -0.09017203 0.12105097 0.051322937 0.1521578

rnn.bias_hh_l0 f4 [192]
00000000: 1587 953d 7bb5 7ebc 9a87 06be b939 97bd
00000010: eff7 fd3d 67f7 233d 06e9 d23c f5a8 70bd
00000020: faf2 8f3c 7e55 34bd 7ce2 15bd 9cec 75bd
00000030: f5c4 0e3d 6042 11be 1e2e 39be 0b05 32bd
00000040: 775d 96bc 7717 2e3d 697f 26bd ced0 1bbe
00000050: 4233 28be 3ea2 2fbe 9e2d 9dbc 036c ea3d
00000060: ad07 ee3c 3048 adbd 8bfa 263e fe4e 0abe
00000070: 0f24 713d 7d89 1bbd 6774 8e3d 5e09 8fbb
00000080: 4f67 1e3e 2dc0 f9bc 5fe4 d13d fcb7 a6bc
00000090: 3edc a13d f8a3 283e 6fc1 653d c9f5 2d3e
000000a0: 2e6d 89bd 6b27 1abe 489b 0a3e 1a58 b5bd
000000b0: 7a9d 833c 09e1 00be 9de0 12bd 2c65 42bd
000000c0: 713b fb3d ef74 0fbe f7e2 1abe 6d2a 013e
000000d0: 717f d53d 60f6 d73d 3e7f 1a3c e6d8 a43d
000000e0: 87c8 93ba 2941 dabc 216b bb3d f929 393c
000000f0: 8d38 5fbb 3a73 323d 788e 70bd 40a5 bbbd
00000100: 01ad 28be 2ccf d93d 8988 cb3b b023 053d
00000110: 4344 07bc 323c 69bd 253c 2bbb 1127 4fbd
00000120: 6a1d a03d db3a 8bbd 41c7 b6bd 7d6a 753c
00000130: 39df 813c 09b6 0a3e 8b25 da3d 6d6a dd3d
00000140: 788e 4fbd a304 16bd 3936 c53d 36ee d33c
00000150: 93b6 bdbd 0b89 573d e7de c93d 3d78 1d3d
00000160: fcef f33d bea8 913d ff8d 0abd bb1a ab3c
00000170: 066b ac3d 82a2 1e3d 6a2e 843d 078e d2bc
00000180: ebc1 123e 733e 103d defd 573a e445 b33d
00000190: 830c 70bd e48c c2bc 7194 b7bd a705 2abe
000001a0: da4d 6b3d ecc5 ac3d 1178 373c 4667 cbbc
000001b0: 4227 c7bc c418 f63d 41b8 ffbd 051e 70bd
000001c0: 1ec3 3e3c 2a89 4cbd 7bfd e3bc 03d2 f13b
000001d0: 0892 d03d eb07 a93c baaa 02bd 81ec ba39
000001e0: 4881 95bb cddf e438 6ce6 e5bd 37b9 8e3d
000001f0: b9be d93d be25 0d3d e578 21bc f361 04bd
00000200: 0158 063e e09d b73a 9c73 04bd 66c9 c23c
00000210: fb4d 4dbd 64b9 ea3d 739f 393d fc79 fb3d
00000220: 891c 26bd 73d0 073d 71c2 6a3d 785a 453d
00000230: 4d68 97bc 0bb1 6cbd 8ebe 103c 1f7e 24be
00000240: 8094 763d ede6 ad3c 0578 83bd 2e87 10bc
00000250: ef5f adbd f8fe 4e3d d457 023d 5291 bebd
00000260: 96d0 d23b 3f9b b9bd 7789 b13d a326 d4bd
00000270: c25c cb3c 0211 8b3d 0cc2 393e a65c 833d
00000280: 1896 3f3e 8f44 edbc 103d 293c 4fe4 1f3e
00000290: 1491 1abe 64e4 02be 7fbe e83c a499 eb3d
000002a0: 64d1 25bd 52ab 99bc 9b95 b13d 01e3 debd
000002b0: 32d0 6c3d f529 5b3c 359c 063c 9b30 f7bc
000002c0: 1476 29be 8268 0b3e 7e3f 2d3d 98e5 b5bd
000002d0: eb69 c33d 5d78 efbd f21d 543d 3670 1ebc
000002e0: 4ea3 08be df8a d5bd b1ce edb9 8c54 0c3e
000002f0: 163e c33c abb7 a13c 1374 eb3d 406b 723c
0.073011555 -0.015546198 -0.13137665 -0.073840566 0.12400805 0.040030863 0.02574588 -0.05875488
0.017571915 -0.044026844 -0.036592945 -0.0600401 0.0348558 -0.14185476 -0.18083999 -0.04346184
-0.018355114 0.042502847 -0.04064885 -0.15216371 -0.16425803 -0.17151734 -0.019186791 0.11446383
0.029056394 -0.08461034 0.16306512 -0.13506696 0.05887228 -0.037972916 0.06955796 -0.0043651303
0.15469097 -0.030487144 0.102486365 -0.020351402 0.07903336 0.16468799 0.056092676 0.16988291
-0.067102775 -0.150541 0.13535798 -0.08854695 0.016066302 -0.12585844 -0.03585874 -0.047459766
0.12267197 -0.1400945 -0.15125643 0.1261384 0.10424698 0.10545039 0.009429751 0.080491826
-0.0011274972 -0.026642399 0.091512926 0.011301511 -0.0034060807 0.04356692 -0.05872962 -0.09162378
-0.16472246 0.10635218 0.0062113446 0.032504737 -0.008256021 -0.056942172 -0.0026128378 -0.050574366
0.0781811 -0.06798335 -0.089247234 0.014979002 0.015853511 0.13546003 0.10651692 0.10811315
-0.05067298 -0.036625516 0.09629483 0.025870424 -0.09263339 0.05262093 0.098569684 0.038444746
0.11911008 0.07112263 -0.033826824 0.02088677 0.084188506 0.0387292 0.06454165 -0.02570249
0.14331786 0.035215806 0.0008239428 0.08753565 -0.058605682 -0.023748823 -0.0896386 -0.16603719
0.057447292 0.08436188 0.01119806 -0.024829518 -0.024310712 0.120164424 -0.124863155 -0.05862238
0.011643199 -0.049935497 -0.02783083 0.0073797717 0.10184103 0.020633658 -0.0319011 0.00035652894
-0.0045625307 0.00010913573 -0.1122559 0.06968921 0.106320806 0.034459822 -0.009855484 -0.032319974
0.13119508 0.0014008842 -0.032336816 0.023777675 -0.050123196 0.11461142 0.04531808 0.12279126
-0.040554557 0.033157777 0.05731434 0.04818198 -0.018482352 -0.05778603 0.008834494 -0.16063736
0.060200214 0.021228278 -0.06419376 -0.008821292 -0.084655635 0.050536126 0.03182204 -0.093050614
0.006433557 -0.09062814 0.086687975 -0.10358932 0.024824504 0.06790353 0.1814043 0.06414156
0.187096 -0.028963355 0.0103295 0.15614437 -0.15094405 -0.12782437 0.028411148 0.11503914
-0.040482894 -0.01875845 0.08671113 -0.10883141 0.057815738 0.013376703 0.008215954 -0.030174544
-0.1654895 0.13614085 0.04229688 -0.08881682 0.095416866 -0.11692879 0.05178637 -0.009670308
-0.13343546 -0.10426878 -0.0004535816 0.13704127 0.023833316 0.0197409 0.11496749 0.014796078

rnn.weight_ih_l1 f4 [192, 64]
00000000: f2cf 73bd 9de8 ec3c 5995 da3d 3e3a cb3d
00000010: e62d 9e3d d78a e8bc 9ad0 33bb 5430 1fbe
00000020: 8eac 15be af41 0fbe 7184 d83d 775b 103e
00000030: d878 17be 73c8 04be 23a7 f83d 7200 51bd
00000040: afad c3bd 1825 bd3d e306 603a 972d 1d3d
00000050: a06e b4bc 4198 003d 4751 0b3e 55df 5ebd
00000060: ec85 f3bd 1ff8 91bd b5df 793d 4b60 083e
00000070: 12be 7cbd db49 56bd afe0 373d a47a d0bd
00000080: 6705 433d b745 96bd c234 1f3d da79 65bd
00000090: 2b5e 3a3d b8d1 243e e684 ec3d 0261 d6bc
000000a0: ff21 76bd 18ff 4b3c 688b 60bd d529 f9bc
000000b0: 89f3 10be 4610 11bc efb1 563d 920c 11bc
000000c0: 8be8 e43d 073f 9dbd f63e ee3c a001 5bbb
000000d0: 7aeb bc3d 1244 7d3c f4f0 49bb 9ab9 313d
000000e0: 4561 dfbc 4639 a53d 678e 93bc 9836 82bd
000000f0: 346c 943d e81a f73c 2bbe dabd 2361 cbbd
00000100: c121 c9bd 225f 993b 0ed2 2e3c 5d80 273e
00000110: 3d04 a43c cd60 c23b 40bf e3bc 3402 40bc
00000120: 4958 01bd bddd 1ebe 9454 f53d d3d7 683d
00000130: 13ef 3dbb efdd 9bbc 1493 533b e408 243e
00000140: f793 ea3c 01d6 e9bd 3ed5 52bd 471d d7bc
00000150: 8076 2c3d 47ac 95bd abab c43c 5636 46bd
00000160: 553e 10be ed97 363e 44d4 3ebd 5528 b13d
00000170: 800d 98bd 0157 f2bc 1d93 26be 5362 1ebd
00000180: 0207 10bd 7087 dbbc f3ed f5bb d8cc 2f3d
00000190: 2527 0a3e 0da2 9ebd ca94 123c 42dd 86bd
000001a0: b083 32bd 45cd 473d f448 4c3d f9f7 97bd
000001b0: 4295 19be 76e1 363d 2486 84bc 4544 ef3c
000001c0: 59c9 28bc e2e5 443d e17e 28be 5443 773d
000001d0: 93f3 0dbe b871 8cbd 40df abbc fb14 eb3d
000001e0: 57e4 603d a6c5 c0bc 8854 103e a3c4 5a3d
000001f0: 4831 553d 19bb bdbd 1a1e c4bd eb8f 18be
00000200: 7df3 043e f878 ebbd 6195 f13d e4c1 14be
00000210: 0057 2dbc f365 8cbc e831 253e 8a7e 37be
00000220: ec48 b9bd cb72 a3bb ea12 1f3e 5c1b c3bd
00000230: 374d 68bc fcc8 babd c950 183e 6051 93bd
00000240: 0cdf d4bc e60a e33d cfec 843d eab9 3b3e
00000250: 4aa1 0abe fdae b73d ebcb 02be b159 16bd
00000260: 9a2c 10be 0ce0 64bd 906d 5ebc 95c1 86bc
00000270: f29d 9fbd 2975 f53d ac62 16bd e243 043e
00000280: cea8 fc3d 000a 01bd e2e9 6e3d c968 a0bd
00000290: 804f 88bd 0539 243d 78d5 d63d abcc 1bbd
000002a0: 8887 08bd 851d debd 4254 063d 2b8d e3bb
000002b0: 0aa3 dc3b ecfe bbbd f4a3 a6bc 22df 7abc
000002c0: b4a8 55bc a015 e63d c089 f53d e084 003e
000002d0: e10b d63d 6a92 82bd 6e7d 0fbe 1622 463d
000002e0: fd86 1bbe 05a7 a43d 2cfe 0dbd 0e94 c43d
000002f0: 850c 133a ac3b bbbc f14d 46bc 37cc 443d
00000300: 8777 2e3e 7d4b 633b 22b1 fdbc d744 2cbd
00000310: 50e2 01bd 3672 033d 225b 7cbd 2734 32bd
00000320: e758 17be 5d6e 44bd 2eb1 5bbd 3029 19be
00000330: 8c61 d93d 4fd8 2bbe 3af5 64bd 36ab 6d3c
00000340: fd6f 9c3c 06fa da3d 5dd6 1bbd aa7f 533d
00000350: 80d2 933c afe1 01bd c4e2 17be 0995 cc3d
00000360: 1329 733d c98e 823d 7338 993c 99b0 9dbd
00000370: 2498 723d cece 403d e951 e13c 71a7 5bbc
00000380: 720d d3bb 6fa1 413d d821 203d 723a 25be
00000390: d9d6 a5bc 1f83 453c da1d 173e 8e51 2cbe
000003a0: 63d2 3b3d 34c3 00be 1bcb dc3c e874 43bd
000003b0: a397 e1bd 70e9 14be 5cf6 d93d 77bd f03d
000003c0: 48ef 043d 6bbd 9b3b 4b6d 1e3e a312 043e
000003d0: 236a 7dbb d8ee f4bd c652 b7bd 6749 1c3d
000003e0: 1d7e d7bd 3b55 37bd 0209 823d f102 96bb
000003f0: d0f6 423d 1a78 60bd df2e fcbd d527 e03c
-0.059524484 0.028919512 0.10673017 0.09923218 0.07723598 -0.028386516 -0.0027437569 -0.1554578
-0.14616606 -0.139899 0.10572136 0.14097391 -0.14792192 -0.1296709 0.12141254 -0.051025815
-0.09554612 0.09235591 0.0008545948 0.038373556 -0.022025406 0.0313952 0.13605224 -0.054412205
-0.11890778 -0.071274035 0.06100436 0.13317983 -0.061704703 -0.052316528 0.04489201 -0.10179642
0.047612574 -0.07337516 0.038868673 -0.05602441 0.04549996 0.16095626 0.11548786 -0.026169304
-0.060091015 0.012450956 -0.05482045 -0.030415455 -0.14155401 -0.008853978 0.052415784 -0.008853095
0.111771666 -0.07678037 0.029082756 -0.0033417717 0.09224601 0.015458124 -0.0030813785 0.043389894
-0.027268061 0.08067565 -0.018012239 -0.06358069 0.072472006 0.030164197 -0.10680803 -0.09930637
-0.09820891 0.00468053 0.010670198 0.1635756 0.020021552 0.0059319497 -0.027801156 -0.011719275
-0.031578336 -0.15514274 0.119790226 0.05684645 -0.002898161 -0.019026725 0.003228371 0.16019017
0.028635008 -0.11417771 -0.051472895 -0.026259078 0.042105198 -0.0730825 0.024007639 -0.048391663
-0.14086278 0.17831393 -0.04658915 0.08650271 -0.0742445 -0.029582502 -0.16267057 -0.038667988
-0.035162933 -0.02679798 -0.0075051724 0.042919964 0.13491495 -0.077457525 0.008946607 -0.0658517
-0.04358262 0.048779745 0.04987426 -0.07420344 -0.14998344 0.04464861 -0.016177244 0.029207358
-0.010301911 0.048070796 -0.1645465 0.060366943 -0.13862447 -0.06857628 -0.020980477 0.11478611
0.05490526 -0.023531746 0.14094746 0.053410184 0.05204895 -0.09264202 -0.09576054 -0.1489865
0.12983508 -0.11497682 0.1179607 -0.14527088 -0.010579824 -0.017138457 0.16132319 -0.17919365
-0.09047112 -0.0049880496 0.15534559 -0.09526703 -0.014178566 -0.09120366 0.14874567 -0.071932554
-0.025985263 0.11086063 0.0649048 0.1833264 -0.1353809 0.08968923 -0.12773101 -0.03670663
-0.14079514 -0.05587773 -0.013575926 -0.016449729 -0.077937976 0.11985237 -0.036715195 0.1291652
0.123368844 -0.031503677 0.058328517 -0.07832486 -0.066557884 0.04009344 0.10489935 -0.038036983
-0.033332378 -0.10845474 0.0327952 -0.006944319 0.006733303 -0.09179482 -0.02034185 -0.015311988
-0.01304071 0.112345934 0.11989164 0.12550688 0.104514845 -0.063755825 -0.14012691 0.04837235
-0.15188213 0.08039669 -0.034666225 0.09598552 0.00056094705 -0.022855602 -0.012103544 0.048046317
0.17037784 0.0034682446 -0.030968253 -0.04205784 -0.03170997 0.032091342 -0.06161035 -0.043506768
-0.14780007 -0.047956813 -0.05363577 -0.14957118 0.10614309 -0.16781734 -0.05589793 0.014506152
0.019096369 0.106922194 -0.03804623 0.05163542 0.01804471 -0.03170937 -0.14832598 0.09989364
0.059365343 0.0637489 0.018703675 -0.07699699 0.059227124 0.047072224 0.027504878 -0.01340662
-0.006440812 0.047273096 0.039094776 -0.16135576 -0.020244049 0.0120551875 0.14757481 -0.16827986
0.045854937 -0.12574464 0.026952317 -0.047718912 -0.110152505 -0.14542174 0.106426924 0.117548876
0.03245476 0.004752805 0.1547138 0.12897734 -0.0038667999 -0.11959618 -0.08951335 0.03815594
-0.10522101 -0.044759016 0.06349374 -0.0045779874 0.04759866 -0.054802038 -0.123136275 0.027362743

rnn.weight_hh_l1 f4 [192, 64]
00000000: 748b 80bc b5f5 11be 7856 72bd 08f0 b5bc
00000010: 08a1 2d3e 5fb7 183e 9428 b73d 7b1e 01be
00000020: df62 8ebd 856e 123c c86c d4bd b76e 393d
00000030: 0ff6 b8bd 0733 a9bd 562d 813d b205 483d
00000040: b6e9 0a3e 901e 32bc d1f9 753d d323 e4bd
00000050: 575b 8dbd d164 1e3e 33a4 c5bd 6f37 343e
00000060: 5a20 3bbd d245 84bd 6f2d aabd 102b bcbd
00000070: 4ce7 91bd cd1e b83c 0d0a 1fbc 56de a23d
00000080: 6fc8 d43d 571f 453d 194e dabc 5b3b 353e
00000090: 5394 6a3d 8438 aabd d8d8 67bd 2d9b 5ebd
000000a0: 5abc fb3c db83 b93d e605 173e 7478 0f3b
000000b0: 2fc9 90bd 56e6 afbd aee1 13be 7825 d6bd
000000c0: 7455 7e3d 06d9 063c ce44 4cbc c61b 0e3e
000000d0: 6d15 063d 08e6 0b3e 24a3 3a3d dd57 2c3e
000000e0: d846 f1bd 12b6 1cbe c757 6cbc b105 8ebd
000000f0: 45ac c0bd b290 1f3d 36f1 d9bd ea1e 723d
00000100: e936 05be 6ceb 76bd c71e 423c 8cae 013e
00000110: ecd2 e93c bd5a 153e d602 343d 7e97 cabd
00000120: 91b0 133e 4aef c83d a075 8f3c 5edb 8d3d
00000130: a852 59bd 4cec aabd 5412 d3bc 2c4a 4dbd
00000140: c187 033d 80ef 2ebe 6882 17bd 1ab5 74bd
00000150: 705f fc3c ae17 9e3c 52e7 f0bd fd21 a33d
00000160: ba39 9ebb c65a 1b3d cc89 afbd e5d9 9a3d
00000170: 928b 1e3e b977 84bd a276 7dbd 0edd 12be
00000180: 9ca5 b33d b9e7 cfbd e408 4ebd c1ee 503d
00000190: d5a3 dbbd 50b7 173e fc21 a5bd 7bef 573d
000001a0: 841f e63c 78c3 673d 379a 72bd 15c7 a03d
000001b0: 0e39 923d 88ba 053b 8a1d 5a3c 6908 463d
000001c0: d153 9cbd 2835 eabd ff8b 37bd ee14 c33c
000001d0: 37c1 7b3d 0800 9b3c af0d cf3b 2507 3ebb
000001e0: f9bc 0ebd f422 123d a307 6fbd 6e40 173d
000001f0: 1870 af3d e23b c73d a62c e6bd df38 123e
00000200: 2727 7fbd 24d2 e9bc a308 813d 6c53 cbbc
00000210: 44d9 943d 0aaf 4e3d 2bb4 753d f259 2f3e
00000220: 7cb9 613d e13d 3bbd 5542 963d 79ee 983d
00000230: ad45 27be caf0 25be 9918 a03d 9302 10be
00000240: 8ca9 083e a466 353e 6ed5 04be a8fd cd3b
00000250: 9689 a73d 91ee 1e3e 9883 6dbb 1055 3cbd
00000260: e015 84bc 9ad6 67bb e92f 3dbc 3313 5a3c
00000270: 0387 d63d 4fc3 793c 8f6b 5dbd 39a1 9d3d
00000280: 30d2 233e 6f9e b33d 0ebe 2d3e a77c 68bd
00000290: 49a2 90bd 066c 0bbd f7e2 303e 67c0 663d
000002a0: 483a 373d da5e 0d3e 0bd9 103e 143d 0d3e
000002b0: 08d4 e03d 727b 2abe e4e3 49bd 61fc b73d
000002c0: 89ae 823d b159 88bd 356d 033e 0fa3 ce3d
000002d0: b98d 32bd ddf1 b73d 20fb 96bd 41ab ca3d
000002e0: 3384 223c 0247 9bbd 694d 973c 79dd 1bbd
000002f0: c7cd dcbd 51c3 213e 0ed0 5abd dba2 203e
00000300: d3b2 02bd 8827 98bc a17d a6bd 7e91 09be
00000310: 47a6 df3c d46c cd3c ed6a c6bc 5778 253e
00000320: 469e 313e bd81 fa3d 06ea 1e3e 9faf bc3d
00000330: 3b81 583d c12f d1bd 000b 393e eeb6 183d
00000340: 3f8b 293e 3914 08bd ced2 f2bd bdd5 063e
00000350: 3bd9 1c3e 146e 193d cbbb 53bd 518f fb3d
00000360: 69f6 3fbd 8c42 873c 3527 34be 5d2d 01bc
00000370: 7fad a93d a827 443b 1e98 633d 2f6b 0c3d
00000380: 8c72 5bbd 70af 133e 4502 d83d 1ba1 22bd
00000390: 4d2b ffbd 1cd2 9ebd eafd 2f3e 026e 26bd
000003a0: d0b0 963d 5670 5c3d c29f f93d f28c 043e
000003b0: 4e04 1cbd 0fbd eebd 7294 1ebe e2bf 2f3e
000003c0: b35f c7bd cb56 d5bd dfda 1d3b 4a82 023e
000003d0: b77a 5b3d f416 013d de35 d4bd d1ac 193e
000003e0: 7176 1f3d 441c 9bbd d18f 983c 4140 06be
000003f0: 3bd9 d3bd b723 95bb 100c 0fbe 4660 333e
-0.015691496 -0.14253886 -0.059164494 -0.022209182 0.1695596 0.149137 0.089432865 -0.12609284
-0.06952452 0.008937483 -0.10372311 0.0452716 -0.09031307 -0.08261686 0.06307475 0.048833556
0.13565716 -0.0108715445 0.060052697 -0.111396454 -0.06902187 0.15468146 -0.09650459 0.17599271
-0.04568515 -0.0645863 -0.08309447 -0.09187901 -0.071241945 0.022475624 -0.009706986 0.079525635
0.10389792 0.04812559 -0.026648568 0.17698424 0.05727036 -0.08311561 -0.056603283 -0.054347206
0.030729461 0.090583526 0.14748344 0.0021891864 -0.07069623 -0.08588855 -0.14441559 -0.10456365
0.062093213 0.008230453 -0.012467576 0.13877782 0.032735277 0.13661969 0.04556574 0.16830392
-0.117810905 -0.1530383 -0.014425225 -0.06934679 -0.09407858 0.03895635 -0.106417105 0.059111513
-0.13009228 -0.06028311 0.011848158 0.1266424 0.028542958 0.14585395 0.043948017 -0.09892176
0.14422823 0.09811266 0.017512143 0.069266066 -0.053057343 -0.08345851 -0.025765575 -0.050119564
0.032111887 -0.1708355 -0.0369896 -0.059743024 0.030807227 0.0192984 -0.11762871 0.07965467
-0.004828659 0.037928365 -0.085712045 0.07561091 0.1548293 -0.06468148 -0.061880715 -0.14342138
0.08771822 -0.101516195 -0.050301448 0.051008943 -0.10724608 0.14816022 -0.08063123 0.05271862
0.0280912 0.056582898 -0.059229102 0.07850472 0.071397886 0.002040537 0.013312707 0.048347864
-0.07633174 -0.1143592 -0.044811245 0.023813691 0.06146356 0.018920913 0.00631877 -0.0028995958
-0.034848187 0.035677865 -0.058356892 0.03692668 0.08566302 0.097282186 -0.11238985 0.14279507
-0.062293198 -0.028542586 0.063004754 -0.024820052 0.07268003 0.0504599 0.059986275 0.17124155
0.055108532 -0.04571331 0.073368706 0.0746736 -0.16335173 -0.16205135 0.07817192 -0.14063482
0.13345927 0.17714936 -0.12972042 0.0062863417 0.08180539 0.15520693 -0.0036241766 -0.04597956
-0.016123712 -0.0035375715 -0.011547067 0.0133102415 0.1047497 0.015244319 -0.054057654 0.076967664
0.15998149 0.08770453 0.16967031 -0.056759503 -0.070622034 -0.034038566 0.1727408 0.056335833
0.044733316 0.13805714 0.14145295 0.1379283 0.10977942 -0.16648653 -0.0492896 0.08983684
0.06380946 -0.06657732 0.12834628 0.10089695 -0.04359219 0.08981679 -0.07372117 0.09895945
0.009919214 -0.07581903 0.01846953 -0.03805301 -0.107814364 0.15797164 -0.053421073 0.15687124
-0.03190882 -0.018573537 -0.081294306 -0.13434407 0.027300967 0.025076307 -0.024220908 0.16159187
0.17345533 0.12231777 0.1551896 0.092131846 0.05285762 -0.102141865 0.18070602 0.03728383
0.16557024 -0.03322241 -0.11856614 0.13167472 0.15317242 0.037458494 -0.051692765 0.12283195
-0.046865854 0.016511224 -0.17593081 -0.007884351 0.08285045 0.0029930864 0.055564992 0.034281906
-0.053576037 0.14422393 0.10547308 -0.039704423 -0.12459431 -0.07754919 0.17186704 -0.040632255
0.07357943 0.05381807 0.121886745 0.12944391 -0.038090043 -0.11657154 -0.15486315 0.17163041
-0.0973505 -0.10416945 0.0024086756 0.12745014 0.053583827 0.03151603 -0.10361837 0.1500733
0.038931314 -0.075737506 0.018623265 -0.13110448 -0.10344168 -0.0045513767 -0.13969445 0.17517194

rnn.bias_ih_l1 f4 [192]
00000000: 316b 1b3d 67e6 4cbc febf 28be c1b1 a0bc
00000010: d525 cabc 194f 07be e008 c3bd 3e16 99bc
00000020: 7e36 e8bd d171 383e b1c0 023d 56a7 623d
00000030: afcc a03c 009a 2b3e f585 203e 60b2 b5bd
00000040: c62f f63b 75d1 fe3c 85ff 273e 9ee7 fabc
00000050: db6d f23c c0a8 72bd aa86 283e 5431 c8bd
00000060: 4466 03be ce1a 8f3d 5654 e8bd a6a1 353e
00000070: 2f52 b83d 0137 0a3e 1b0d ce3c badf b2bd
00000080: 44fa 54bd 925b 08bd dbec 43be 5228 1cbd
00000090: 69fe 353d 2837 acbd 1a3a 7ebd 6d7d 93bd
000000a0: c3ea ff3d 7dcd 1fbd 92d1 cf3d 68d8 ef3d
000000b0: f1c8 5bbd 57db 8b3d 22ff 943d 4184 683d
000000c0: 75a6 14be 6223 30be 362b 1b3e 7420 efbd
000000d0: 2e3f e13d f097 dd3d bf01 3bbc 3ccb 16bd
000000e0: 2600 8cbd a8d9 533d 6971 69bd 28e6 11b9
000000f0: 58b2 943b f607 a7bd 8acb 4b3d 8a67 ed3c
00000100: 0b8b 153e 5930 c5bc e1e5 0cbe 2747 333e
00000110: eb9b 633d e21d f0bd ae89 86bb 7ac9 a33c
00000120: 9df6 87bd 17a4 55bb e7f3 283e ff3b 69bc
00000130: 5f43 6bbd a27e 8bbd 482c d93d 008a 19bd
00000140: 8c38 943d 821b 32bd 119a 3d3d 7b05 003c
00000150: e30b 75bd 1ad8 dd3d 25e4 1fbc 780c 4f3c
00000160: e342 c63d cf26 c5bd 5885 05be f651 07bd
00000170: a9bb 093e f8f2 83bc 2e59 d2bd dce8 61bd
00000180: cdce 7b3d 86e9 e7bd 6bbe 213d a922 ef3c
00000190: 08a2 04be 4777 c93d 7ee8 64bd 1fd7 20be
000001a0: 933d 333c 1a76 d4bd 86b4 b7bd 3e24 1c3a
000001b0: d8b7 2cbd e306 0bbd 0a23 1bbe d1a3 8dbd
000001c0: 1b73 223d 457b f6bb 4eda cb3d de4d 623c
000001d0: 7b0e 84bc cb55 973d dfee 1d3e c201 003e
000001e0: 9a19 353c 1845 05bd 1737 893d 4edf 69bd
000001f0: 5ce1 9cbc d85c 88bb d9d1 89bd 26f1 5f3d
00000200: ee05 2a3e 9126 ac3d 7666 603d e4c3 0ebe
00000210: 4f9d fcbd 317e 3bbe 2ad8 21be 7f37 043d
00000220: a2bd cbbd f0ba 75bd cc8d 6a3b 7e5c 65bd
00000230: bbe9 343d d518 8e3c 5d8f 1ebe 6534 bcbc
00000240: 5458 19be 132e 833d 0c1e 153d 163e 39bd
00000250: 9c12 35bd ade4 07bd b66e c03a e3ea 4dbd
00000260: cdc6 0fbd d356 d0bd 7fd8 173d 20c6 333c
00000270: adef acbd 0d7e 4b3d 9cca c33d 11c7 d8bc
00000280: 9a09 d8bd c58d d1bc 23b2 de3c 6a99 143d
00000290: 1848 573d b8aa 61bd 103e 373c bc3a afbd
000002a0: 6377 e3bc 392e 52bd 66fb 36be e2bb 3cbe
000002b0: ffcc 9bbd 64a7 d93d 806f da3d d48f c93d
000002c0: 5973 f5bd 990f 223e 3703 2bbe 078e 1cbe
000002d0: f95c 1bbe e3ee a7bd 987c 8c3c 2075 12be
000002e0: c155 bf3c 7403 bf3d 52e4 ab3c 52d6 1f3e
000002f0: 6dc2 b0bd f39d 213e 13f3 153e 6f43 e5bd
0.037944023 -0.012506104 -0.16479489 -0.01961601 -0.024676243 -0.13213767 -0.09523177 -0.018687364
-0.113385186 0.18012168 0.031922046 0.055335365 0.01962885 0.16757965 0.156761 -0.08871913
0.0075130193 0.031105736 0.16406067 -0.030628022 0.029593399 -0.059242964 0.1645762 -0.097750336
-0.1283198 0.069875345 -0.11344211 0.17737445 0.0900005 0.13497545 0.025152734 -0.08734079
-0.051996484 -0.033290453 -0.19133322 -0.03812439 0.044432078 -0.08408958 -0.06206713 -0.072016574
0.12495949 -0.03901433 0.10147394 0.11711198 -0.05365843 0.06828945 0.07275225 0.056766752
-0.14516623 -0.17200997 0.15153202 -0.11676112 0.10998379 0.108199954 -0.0114139905 -0.036814913
-0.06835966 0.051721245 -0.056992922 -0.00013914017 0.004537862 -0.08155815 0.049754657 0.028980035
0.14603822 -0.024070906 -0.13759567 0.17507611 0.055568617 -0.1172445 -0.004105768 0.019993532
-0.066388346 -0.0032599026 0.16499291 -0.014235496 -0.057437297 -0.06811263 0.10604149 -0.037485123
0.07237348 -0.043483265 0.046289507 0.007813807 -0.05982579 0.10832234 -0.009758984 0.01263725
0.096807264 -0.09626543 -0.13039148 -0.03303715 0.13450493 -0.016107067 -0.10270916 -0.055153713
0.061476517 -0.11323838 0.039488237 0.029191332 -0.12952435 0.098372035 -0.055885784 -0.15707062
0.010939973 -0.103740886 -0.08969979 0.0005956328 -0.042167515 -0.033942115 -0.15150085 -0.06916011
0.039660554 -0.007522019 0.09953748 0.01381251 -0.016120186 0.073894106 0.15423153 0.1250067
0.011053467 -0.032536596 0.06699961 -0.057097726 -0.019150428 -0.0041614585 -0.067294784 0.054673336
0.16603824 0.084057935 0.054785214 -0.13941914 -0.12334692 -0.18309857 -0.15805116 0.032279488
-0.09948279 -0.05999273 0.0035790084 -0.05599641 0.044168215 0.017345825 -0.15484376 -0.022974202
-0.14975101 0.06405272 0.036405608 -0.045225225 -0.0442072 -0.033177067 0.0014681432 -0.050272834
-0.0351017 -0.101728104 0.0370717 0.01097253 -0.08444152 0.04968076 0.09560129 -0.02646211
-0.10548706 -0.025580296 0.027184552 0.03627912 0.05255899 -0.05509445 0.01118423 -0.085561246
-0.027766889 -0.051313613 -0.17869338 -0.18431047 -0.07607459 0.1062763 0.10665798 0.09841886
-0.119848914 0.15826263 -0.16700445 -0.15288554 -0.15172185 -0.08199861 0.017149255 -0.14302492
0.02335632 0.093268305 0.020982895 0.156091 -0.08630834 0.15782909 0.14643507 -0.111945026
