1223-code-DL/model/LSTNet_state_dict.pt (torch, 466741 bytes, 29 tensors)

cnn.0.weight f4 [64, 1, 3, 16]
00000000: 1ccc 81bc 016f 223e 3b30 3c3e 7d9c e23a
00000010: 019d 703e b0ce 4cbc f131 1d3e 49d4 5f3d
00000020: d4f3 793d a272 a73d e496 7fbd e5b7 9e3d
00000030: 4f2d 543d cb7a e13d 7713 8e3e fc1f b0be
00000040: f5e7 87bd 0da8 bd3b 420c 4e3e afa0 9b3d
00000050: cc6d 143d 7834 253e 2620 563e b798 d4bd
00000060: 43ff 693e 4bc3 9b3d bb00 be3c 8bb1 f0bc
00000070: c8ab 19bd 5daf 753c d77e 013d 1a84 18bf
00000080: 05ae 0b3d d288 ce3d 6a58 5d3e 5da1 283e
00000090: 3463 aebc 42d5 343e 7f85 1c3d eca0 0fbe
000000a0: 74a6 523e d6fb 883c 5c1b 053e 2b49 313e
000000b0: 1806 7abd 4884 833d c2aa 603e a2c6 d0be
000000c0: eacc 63bd b81b 0fbe 5e26 42be ea2c 2dbe
000000d0: 7369 e4bc 760c 3fbe 64ef 3dbe 6ba8 113d
000000e0: 7666 b8bd e701 9f3d 3955 d8bd 6956 88bd
000000f0: 0ae2 84bd d586 493d 728e 423d f7cf 8fbd
00000100: aa4c b6bc ceef e0bb aa1b d1bd a71b 0fbe
00000110: 82cd 84bd 8e39 963d d4eb ce3c 8427 1abe
00000120: d257 0ebe 3252 0cbe 95ad d4bc eda4 99bc
00000130: 180a b2bd a8cd 2dbe 390b 7f3d 95a2 b63b
00000140: d3c2 9fbd e36b d6b9 7043 7b3d 3bad e2bd
00000150: 6497 ed3b 373d 3ebe 53e5 933d c328 3f3d
00000160: 23d9 13be 8714 2abe f93a a2bd c1db a4bd
00000170: f1ab 243d cc8e e3bc 61ea 82bd b132 6bbd
00000180: 298f a1bd 7b45 4f3c 104f b2bd 02e5 723d
00000190: a37c 85bd 85ff 9d3d 9a3d a53d aece 93bd
000001a0: bbda a83d 3bd7 f0bd 32a8 87bb 2edb 0f3d
000001b0: 8fc9 2abe 8538 2cbc 3a4a b43d 5c82 023f
000001c0: 67a1 673d f262 4bbd 8487 2a3d 7d0a 293e
000001d0: 94d9 973d 2a64 033e dfe7 243b 8dee 123d
000001e0: 908e b6bd 763e f03d 6320 49be b32a 10be
000001f0: 90af c9bd 4345 333e 9e59 a23d 11d6 e23e
00000200: d119 e53d ffd4 4cbd 1c31 f03d 94e0 053e
00000210: 24a9 08be c038 f7bd 3e3a 09be 3815 3d3b
00000220: d0a9 0e3d c02d 473c aa2d 0ebe 1dcb c13d
00000230: 5323 8f3d de38 f23d 1e00 403e b02f 7f3e
00000240: 8a24 773d 4fe3 96bd ef97 0d3e b5eb 29bd
00000250: c01d e73d e161 8abd 9192 82bd 13cc cabd
00000260: 3167 e43d 0967 1c3d 546c 49bd 8869 ad3d
00000270: b5b0 22bd c655 0d3c 5724 a5bc 1e90 a23e
00000280: 0de8 dd3d ec51 a5bd 203a 89bb 480b 0fbd
00000290: 1508 753d 7e1b 293d 1f65 0b3d db33 8c3d
000002a0: c938 943d fe85 993d 3d1e 72bd 353b 143e
000002b0: d5cd 3a3e c57a adbd 6741 0ebe 3370 183f
000002c0: 49a9 883c c387 ac3d 7247 f0bd 4f66 a93a
000002d0: 1629 ec3a b492 e8bc 4867 76bd 6c49 a1bc
000002e0: 4bae 6a3b 4fba 8abd dcc2 733c d1f4 9e3c
000002f0: 4e35 7f3d 8e2d 8e3d 803f 29bd e05d be3e
00000300: 1d66 2dbe 3cce 15be a8ce 713b ecd6 0d3c
00000310: 4772 ee3c 5d4b 35be 307a 3cbc 2fe7 8c3d
00000320: b7d0 483d 96c9 cd3c 4997 8a3d 187f c2bc
00000330: 9550 d33c 7669 90bd 2f0e afbd cc3e 393d
00000340: 93af 46be 3a50 4cbe 4e4f 1c3d a703 0cbe
00000350: 656f 94bd bdef 1fbe fda4 a2bd eccd 3bbe
00000360: 525b eebd 9a2f 9f3d 6223 7fbb 2ef1 31bb
00000370: 8f9d 31be c6c2 96bd ad22 f1bc c5ad 0dbe
00000380: fb02 c4bc 38be ae3c 5a4d b63d f8e1 89bd
00000390: 99d3 56bd d758 883c 2151 54bd fe02 e9bc
000003a0: 33be 1fbe 3112 a23d f3c4 2ebe 2792 b0bd
000003b0: 3f31 1abe f813 b03b f219 06bd 80c6 773d
000003c0: fd6f 0abd 6b74 17be 5ad4 c8bc d93b fc3d
000003d0: 814e a43d e675 b23c 5110 283c 5b2b f4bc
000003e0: e157 0d3d d21d 16bd b9d0 8fbd f16c 3e3c
000003f0: 87f7 10bc ee47 a7bd f38e 5c3c 3dbf da3e
-0.015844397 0.15862657 0.18377773 0.0017289069 0.23497392 -0.01250045 0.15351082 0.05464581
0.06102355 0.08176161 -0.06239976 0.07749919 0.051801022 0.11009749 0.27749225 -0.34399402
-0.06636039 0.0057878555 0.20121863 0.07599007 0.036237523 0.16133296 0.20910701 -0.103806905
0.22851281 0.076056086 0.023193708 -0.029381534 -0.03751734 0.014995423 0.031615105 -0.5957657
0.034101505 0.1008469 0.21615759 0.16467805 -0.021287538 0.17659476 0.03821325 -0.1402623
0.2057131 0.016721647 0.12998718 0.17313068 -0.061040968 0.06421715 0.21940139 -0.40776545
-0.055615343 -0.13975418 -0.18959948 -0.16911665 -0.027882313 -0.18657097 -0.18548352 0.035561007
-0.09003918 0.07764035 -0.1056313 -0.066571064 -0.06488426 0.04920085 0.047499128 -0.07022088
-0.022253353 -0.0068645244 -0.102103546 -0.13975392 -0.0648451 0.073351964 0.025258936 -0.15054137
-0.13900688 -0.1370323 -0.025961677 -0.0187554 -0.086933315 -0.16972983 0.062266562 0.0055735805
-0.07800832 -0.00040897643 0.06134361 -0.11068197 0.007250713 -0.18578039 0.072214745 0.046669733
-0.144383 -0.16609393 -0.079214044 -0.08049727 0.04020304 -0.027778052 -0.063923605 -0.05742139
-0.07888634 0.012650843 -0.08706486 0.05930043 -0.06517913 0.07714752 0.0806839 -0.072171554
0.082448445 -0.11759802 -0.0041399235 0.035121135 -0.16678451 -0.010511522 0.0880322 0.5098016
0.05655041 -0.04965491 0.041633144 0.16507907 0.074145466 0.12831178 0.002516262 0.03587203
-0.089139104 0.117306635 -0.19641261 -0.14078788 -0.09847939 0.1750689 0.07927249 0.44303945
0.11186565 -0.050007816 0.11728117 0.13073951 -0.13345772 -0.12071371 -0.13401124 0.0028851759
0.034829915 0.012156904 -0.13884607 0.09462569 0.069891594 0.11827253 0.18750045 0.24920535
0.06033758 -0.073675744 0.1382749 -0.041484553 0.11284971 -0.0675695 -0.063756116 -0.09902205
0.11152495 0.0381842 -0.049175575 0.08467394 -0.039719302 0.008626407 -0.02015893 0.31750578
0.10835276 -0.08072266 -0.0041878372 -0.034922868 0.05982216 0.041285984 0.034031983 0.06845828
0.072373934 0.0749626 -0.05911087 0.1447571 0.18242581 -0.08470682 -0.13892137 0.595462
0.016682284 0.08424332 -0.11732377 0.0012924167 0.0018017616 -0.028390266 -0.06015709 -0.01968833
0.0035809453 -0.06773817 0.014878001 0.019403847 0.062306695 0.069422826 -0.041320324 0.37180996
-0.16933484 -0.14629453 0.0036896858 0.008657198 0.029107226 -0.1770453 -0.011503741 0.06880032
0.04902717 0.025120538 0.067671366 -0.023742244 0.02579526 -0.07051365 -0.08547627 0.045225903
-0.19402914 -0.19952479 0.03816157 -0.13673268 -0.07247809 -0.15618797 -0.07941625 -0.18340272
-0.11638512 0.07772751 -0.0038931002 -0.002715181 -0.1734526 -0.07361369 -0.02943548 -0.13835819
-0.023927202 0.021330938 0.089014724 -0.06732553 -0.05244789 0.016643925 -0.051835183 -0.02844381
-0.15599899 0.07913626 -0.17067318 -0.08621626 -0.15057848 0.005373474 -0.032739587 0.06049204
-0.033798207 -0.14790504 -0.02451532 0.123161025 0.08022786 0.021784734 0.010257796 -0.02980583
0.034507636 -0.036649533 -0.070222326 0.011622653 -0.008848078 -0.081680164 0.013461816 0.42724028

cnn.0.bias f4 [64]
00000000: 9ee1 133d da79 e4bd 2449 e4ba 2ebc 16be
00000010: c194 44be a92b 213d 422f 46bd 5522 0a3c
00000020: 4952 983d 8e81 86bd 789c e0bd 125c 843d
00000030: 42a6 ca3d 91b6 92bd cf05 76bd fb15 8a3d
00000040: 00fa 11be 855a 41bd 76e2 183d 8100 45be
00000050: 0dab 12be 0447 c2bd cd73 483d ab7c 28be
00000060: 3bff 4bbd 5e2d e6bc 05b3 f1bd 2167 fa3c
00000070: 4686 8b3c f4aa c23c 650f babd 0a53 b8bd
00000080: ac15 4cbd 1d85 f6bc bb02 d23c d072 473d
00000090: c912 983d 4970 4fbc e443 443d dba8 24be
000000a0: 036a 35be 59b3 653c ae73 aa3d 951d 38bd
000000b0: e7ac b2bd 2289 143c 616c f6bd 7e1e 193d
000000c0: d884 f43d ec60 863d a5a4 00be 6e1c 45be
000000d0: 4563 59bd a078 a83d 6073 80bd 0f59 56bd
000000e0: 3427 cfba bd9f 103d 9edf 1b3e c121 e1bc
000000f0: 1596 153e 17cb 0abe 6434 f1bd ce05 10be
0.036103837 -0.11156054 -0.0017416817 -0.14720222 -0.1919737 0.03934828 -0.048384912 0.008431037
0.0743757 -0.06567679 -0.10967344 0.064628735 0.098949924 -0.07163728 -0.060064133 0.06742474
-0.14255524 -0.047205467 0.037325345 -0.19238473 -0.14323063 -0.094862014 0.04893856 -0.16453807
-0.049803954 -0.028097805 -0.118017234 0.030566754 0.0170318 0.023763157 -0.090849675 -0.090002134
-0.049825355 -0.03009277 0.025636068 0.048693478 0.07425458 -0.012661048 0.047916308 -0.16080038
-0.17716222 0.014019811 0.083228454 -0.044950087 -0.08724385 0.009065898 -0.120323904 0.037382595
0.119394004 0.06561455 -0.12562807 -0.19249126 -0.053073186 0.082261324 -0.06272006 -0.052331027
-0.001580453 0.03530859 0.15222022 -0.027481915 0.14608033 -0.13554035 -0.11777571 -0.14064714

rnn.weight_ih_l0 f4 [192, 64]
00000000: ea49 3e3d d73a c43d 95e6 d7bb 453e ecbc
00000010: 772b 723d d9cd 3a3a e8b6 0fbd 8ea5 1fbd
00000020: 0bb0 5fbd 6527 80bd 51ac aebd 23da 173e
00000030: 046b ec3d c048 073e 67ce 05bd d371 08bd
00000040: eac3 a1bd 9379 63bd d315 05bd c542 c93d
00000050: f46c a23d 0c1f be3d 590a 013b 543f 3abd
00000060: 971f 0e3d c9a9 a8bc e66b b8bd fc36 bebc
00000070: 8ebc 923d a743 673d ad23 f03d cbc4 0ebd
00000080: e0ce 1e3e ac30 d13c 5506 ac3d 46ce 5e3d
00000090: 08ef 333e beea 7fbd 8a4f 323e bf89 1f3e
000000a0: db78 8abc 8dc9 bd3d e964 243e 44e7 85bd
000000b0: 0959 60bc a740 2d3c 0cb3 d1bb df1e d03d
000000c0: 1ae4 63bd 546d 633c 5345 60bd 26c9 193d
000000d0: f528 b3bc e38d 2b3e b51f febc 1cd2 ca3b
000000e0: 2fcc 2d3e bac1 503b 7012 11bb a240 413e
000000f0: 083f e53b 03b1 ac3d 4c36 18bd 279b 84bc
00000100: 7291 5dbd 8424 e9bc 8c61 adbd b147 62bc
00000110: d450 3abd d2a9 ecbd 9cbb f6bd 6045 fcbd
00000120: c618 eebd 9fb9 813c d92f 58bd 2454 d5bd
00000130: 1cfe 19be 3a39 433d df77 863d 44f5 30be
00000140: 5b05 10bd 80c4 18be 1184 cd3d 5748 77bd
00000150: f849 043d a4f0 f53d 60e9 adbc f6f7 17be
00000160: bc5e c6bd 1d73 c0bd f3fd d03b 865d e7bb
00000170: 9695 ebbd 6ddf 8c3d e3d0 853d 92f5 ebbc
00000180: 2a6f 803c 3dd8 2e3d 8665 2abe 334f 83bd
00000190: 112c 0dbe 6572 b8bd e2a0 753d 30b9 fdbd
000001a0: 4b75 823d 7158 75bd 26bd 5cbd b917 cfbd
000001b0: fcea ecbd 0420 ec3c 182f 80bd 8707 bf3d
000001c0: ed18 98bd 3350 e1bd 05a3 36be aaa1 943d
000001d0: 911a 523d 5b5f 4e3c 7f24 91bd 8210 90bd
000001e0: a324 223d 13a1 1fbd 50c4 9d3d b6bc 463d
000001f0: 0643 52bd 6148 14bd a690 7bbd bab6 233d
00000200: 0edc 20be 3d3f d63c 84cb dcbd 73e0 bfbd
00000210: f3d2 23be e829 8ebc fb66 d83d 7829 cebc
00000220: f792 f83c 9946 a0bd 3786 81bc 6d23 49bd
00000230: 3a61 cdbd d672 a6bd c245 06be 2018 38be
00000240: e4e2 833d 69c3 0fbe ff5c be3d 8ff2 923a
00000250: c62c a0bd 3400 25bd b69e 75bd a7ff 49bd
00000260: 3aa4 32be 24d8 f73b 54fd 73bd 1e71 fbbc
00000270: 747d 8039 513b 803c e557 24be e613 25be
00000280: cbbc 01bd d86f 5c3b 768d a6bd 344a d9bd
00000290: aab8 0fbe c85d c23c 7cc6 533d 7d69 2dbe
000002a0: 2836 cd3c 9267 903d 1b28 953d 61ea ffba
000002b0: 3609 d6bd fa59 3cbd 620a 9f3c 7022 9d3d
000002c0: 7d8f 75bd 25ac 54bd fc63 523d e3a7 34bc
000002d0: a514 a7bb 4851 f9bd fb28 3ebd 5d77 d2bd
000002e0: c099 8dbd 4622 99bc 4993 07be 998d 9b3d
000002f0: a554 95bc 013f 193d d1bc 67bd b9d9 8b3c
00000300: a408 c9bd f059 06be eb6c d0bd d371 dbbd
00000310: ba00 0dbe f2f0 88bd 8214 53bd 6322 6f3d
00000320: 7c77 3bbd 0672 72bd 74ff 0d3d a4e2 14be
00000330: 6584 41be 8496 11be 2c93 15bd 1c6a 043d
00000340: be8d 203d a1bc d73c d99c 0bbd a9c7 97bd
00000350: 9038 0fbc 38e3 85bd a5b8 34be 5533 d5bd
00000360: a735 3bbc b1fb a8bb 51fb d6bd b929 983d
00000370: cac7 1d3a ed74 853c 20e4 04be 040b 0ebe
00000380: db5a 21bd dbc4 6ebd 4e10 2abd 37df 453e
00000390: 97f7 d2bd 2217 a6bd 4e68 983c 9a06 e0bd
000003a0: f1a5 af3b 6f5a 18be cae3 dd3c 146c 36be
000003b0: c966 3dbe 5aa1 4cbe 8cd4 22be d7cb e0bd
000003c0: d2d6 123e 8a3c 3ebe 5065 dabc eba3 71bd
000003d0: 751e 21be 7f5c e3bd cf89 f2bd 471b 04be
000003e0: f9f2 4fbe 4653 ce3c e4f8 a4bd 9510 d3bd
000003f0: d789 11bd 5b3c 563d 826a 943d a7eb 173d
0.04645721 0.09581535 -0.006588767 -0.028838286 0.059123483 0.00071260106 -0.035086542 -0.038976245
-0.054611247 -0.06257514 -0.085289605 0.14829306 0.11543849 0.13211346 -0.032667544 -0.033311676
-0.07898696 -0.055535864 -0.032491516 0.098271884 0.079309374 0.092832655 0.0019690006 -0.04547055
0.034698095 -0.020588772 -0.09004955 -0.023219578 0.0716487 0.056461003 0.117255546 -0.034855645
0.15508604 0.025535904 0.08399645 0.054395936 0.17571652 -0.062479727 0.17413154 0.1557989
-0.016903332 0.092669584 0.16054119 -0.06538251 -0.013693103 0.010574496 -0.006399518 0.10162138
-0.055637456 0.013881046 -0.054753613 0.037545346 -0.021870116 0.16753344 -0.031020978 0.006189598
0.16972421 0.0031853751 -0.0022136234 0.18872312 0.0069960393 0.084322 -0.037161157 -0.016187264
-0.054093786 -0.028459795 -0.08465871 -0.013811038 -0.04548724 -0.11555828 -0.120475024 -0.1231792
-0.11625819 0.015835581 -0.052780006 -0.10416439 -0.15038341 0.047661997 0.06565832 -0.17281061
-0.035161357 -0.14918709 0.10034955 -0.060371723 0.032297105 0.12008789 -0.021229446 -0.14840683
-0.09686038 -0.09396956 0.0063779294 -0.0070607094 -0.11503141 0.068785526 0.065339826 -0.02880362
0.015678007 0.04268669 -0.1664029 -0.064115904 -0.13786341 -0.09006194 0.059967883 -0.12388837
0.06370028 -0.059898797 -0.053891324 -0.101119466 -0.11568257 0.02882386 -0.062589824 0.093276076
-0.07426629 -0.11001625 -0.17835625 0.072573975 0.051294867 0.012595977 -0.07087039 -0.070343986
0.03958572 -0.03897197 0.07703459 0.048519813 -0.05133345 -0.03620184 -0.061417244 0.039969184
-0.15708944 0.026153201 -0.10781005 -0.09368982 -0.1599844 -0.017353967 0.10566517 -0.025166258
0.030343516 -0.078259654 -0.015811069 -0.04910605 -0.1002831 -0.08127372 -0.13112548 -0.17977953
0.0643976 -0.14039387 0.09295081 0.0011211204 -0.0782104 -0.040283397 -0.05996581 -0.049316075
-0.1744546 0.007563608 -0.059567764 -0.030693587 0.00024507532 0.015653284 -0.16049154 -0.16120872
-0.031674188 0.0033636 -0.0813245 -0.10609856 -0.14035287 0.023726359 0.05170296 -0.16934772
0.025050238 0.070510045 0.0728304 -0.0019524806 -0.104509756 -0.045984246 0.01941413 0.07672584
-0.059951294 -0.051921982 0.051364884 -0.011026355 -0.0050988966 -0.12173706 -0.0464258 -0.10276673
-0.06914091 -0.0186931 -0.13239779 0.07595367 -0.018228838 0.0374136 -0.056576554 0.017071592
-0.09816101 -0.13120246 -0.101770245 -0.107150696 -0.13769808 -0.06686582 -0.05153323 0.058382403
-0.045768246 -0.059190772 0.034667447 -0.14539582 -0.18898161 -0.14217573 -0.036517307 0.032327756
0.039197676 0.026335062 -0.03408513 -0.07411129 -0.008741513 -0.06537479 -0.17648561 -0.104101814
-0.011426366 -0.005156957 -0.104971536 0.07429833 0.00060188456 0.016291106 -0.12977648 -0.1387139
-0.039393287 -0.058293205 -0.041519456 0.19323431 -0.1030113 -0.08109881 0.018604424 -0.10938759
0.005360358 -0.14878248 0.027086157 -0.17814666 -0.1849624 -0.19983426 -0.15901393 -0.10976379
0.1433976 -0.18577781 -0.026659638 -0.058994215 -0.15734275 -0.111016266 -0.11842691 -0.1290103
-0.2030753 0.025186192 -0.080552846 -0.10305897 -0.035531845 0.052303653 0.07246877 0.03708997

rnn.weight_hh_l0 f4 [192, 64]
00000000: 1c83 9dbd 90e0 c63d 82e8 51bd 03f2 f93c
00000010: e389 8abd 48f8 263d b5cd 923d b79e 853c
00000020: 833a 66bd c676 553d 3db3 2abc 9ea9 c9bd
00000030: 7d22 1f3d 67b8 153e 336c 84bd ba68 f2bd
00000040: daa1 c33d 8095 81bc 8ac2 503d 3849 383d
00000050: 7e2d d13d aaf9 16be 37ea 6bbd e3a9 cebd
00000060: b912 843d 78f4 c73c db45 cabb 74d9 513e
00000070: aaa0 53bd ee11 a23c 48b0 3abd 6a98 70bd
00000080: 689f 423c b592 383e 4440 c7bd 3f58 553d
00000090: 8cda a5bd 301e 183d f763 1b3d a692 ff3d
000000a0: 590e 853d 0e39 2dbd 46bb 46bc 0fc4 c8bd
000000b0: 8a78 313e 806b a43d 81d3 6a3d 1cde 57bd
000000c0: 49e1 f6bc 88da e83c 246f b7bc 2192 82bd
000000d0: 49a2 e6bd 1118 e639 8f79 a73d 021e c7bd
000000e0: 81d6 73bd ac56 e6bd 22ff 83bb b94c 4ebe
000000f0: f854 443c 278e b5bd bc11 6ebc 429a 643d
00000100: a7c8 263e 425b 363d 863c 67bd b7c3 5dbd
00000110: 5389 213e 88e3 89bd c736 18be 7753 323d
00000120: 40f6 00be 73f8 5fbd f30f 4fbd 02c8 cf3d
00000130: 1183 95bd 48d4 a4bd c4e0 793b d655 fabd
00000140: 304a aabc a5d1 5c3c b8e5 eb3c 0853 e0bc
00000150: a19f babd d243 133e 8bc8 713d 54eb 033e
00000160: 91c3 00ba 4341 0bbe ec1e 36bd b166 95bd
00000170: b8da b33c 632f 74bd c786 5fbd 8bef fb3c
00000180: d595 563d 87cd e6bd 7652 0c3e 267f d73d
00000190: 320c b93d a80b a1bd 6f13 d23a 5abd c8bd
000001a0: f839 d1bd aae0 1fbe 5236 46bd ccec dcbc
000001b0: b9a2 6c3d e5a7 2f3c 1d3f d03c 4e5d d93d
000001c0: e7cf b8bd 3186 63bd 5285 f03d 2770 e73d
000001d0: c7a7 7a3d fd27 f13c 45ca 77bd f22d 23bd
000001e0: 4a52 72bd 53a3 0a3d ac0f 893c 1069 1e3e
000001f0: 460f 79bd 9fa7 123e 5ee3 c3bb 732a fabb
00000200: 1d64 253d 5187 073d 7e89 033e 50b3 ebbd
00000210: 100b 53bc eda3 613d 47e1 a2bd 14b2 a63d
00000220: 90d3 06be 7bdb eebc 65ce b2bd b63f a23d
00000230: 72b1 cabd 4751 bcbd 9096 4bbc 0357 e8bd
00000240: 11bc b4bd 0b41 b23d 933a 0dbe 9f28 e7bc
00000250: e130 583d fc8f 4cbd 7e2c 183d 2f31 fb3d
00000260: 15df 88bd 45ae dd3c b2f8 0d3e f106 053c
00000270: 451e 83bd 9231 133e 8e68 9d3d 686d 1fbd
00000280: 17a6 113e fef6 8cbd fb5f 52bd 2add 083d
00000290: 4ef7 a3bd 84ba bd3c 3a7c 2c3e 5dc2 92bd
000002a0: e547 15bd af4b 273d 8b60 9b3c 5691 f63c
000002b0: 1f9f 83bd aef6 52bc 6da8 8c3c b096 d0b8
000002c0: 671a d53c ba45 ef3d f84f 373d 1742 16bd
000002d0: f878 183e 17a5 72bc da49 22bd 5545 2f3e
000002e0: e256 e53c 0132 173d 6faf 423d 2c76 403e
000002f0: c369 dcbd 3a25 ac3d 9001 5b3d 748b a5ba
00000300: b70a 4c3d 9ed3 163e c3ef 503d 4ecb 16bc
00000310: 3b4b 49bd f12b 1ebe d314 003e 7b26 2abe
00000320: 8f73 65bc a1e2 a6bd 308e 993d ba3c 883d
00000330: f27f fb3d a799 eebc c5b8 e63d acae ebbd
00000340: 3599 473d c24e 193d 828a 0d3e e2b7 68bd
00000350: 36c6 cd3d a747 2a3e 55a7 35be 7215 4e3d
00000360: 1d5d 42be 7691 20be 9f2b 323e c58e df3d
00000370: 50b7 08be 8369 3dbb 9432 02be 419d b33d
00000380: e467 203d 42c8 e2bc d0f4 b53d f0c8 09be
00000390: 451a 663c 46b2 c03d 7e7d fe3d 9d0b bcbd
000003a0: 1ea1 d33d 4450 28bd 484e f6bc 895b 6ebc
000003b0: 396c dbbd 7965 44be d2e9 3d3d 1069 4a3e
000003c0: b0f7 c03d 0fd8 373e 7aa0 873d ea59 02be
000003d0: cb49 163e f1cc 58bd a19e 5fbb 5dba 67bc
000003e0: 37ca d0bd eff7 353d 6271 36be dea8 9d3d
000003f0: 9809 963d b708 74bc 7134 07be aa37 b8bc
-0.07691023 0.09710801 -0.051247127 0.030510908 -0.06764581 0.040764123 0.07168142 0.016311033
-0.056208145 0.052115224 -0.01041871 -0.09846805 0.03885125 0.14621125 -0.0646595 -0.11836381
0.09552355 -0.015818357 0.050966777 0.0449917 0.10213755 -0.14743677 -0.05759641 -0.10090997
0.064488836 0.024408564 -0.006172878 0.20493108 -0.051666893 0.01978394 -0.04557827 -0.058739103
0.011878826 0.18024714 -0.097290546 0.05208611 -0.08098325 0.037138164 0.03793713 0.12479143
0.06496877 -0.04229074 -0.01212961 -0.0980302 0.17331138 0.080283165 0.057330612 -0.052702054
-0.030136721 0.028424516 -0.022391863 -0.06375528 -0.11261422 0.0004388695 0.08177482 -0.097225204
-0.05953074 -0.11247 -0.004028217 -0.20146455 0.011983149 -0.08865004 -0.014530595 0.055811174
0.1628748 0.044520624 -0.056454204 -0.054141726 0.15775041 -0.06732851 -0.14864646 0.04353663
-0.12593937 -0.0546803 -0.05055232 0.1014557 -0.073003896 -0.08048302 0.0038128356 -0.12223403
-0.020787328 0.0134777175 0.028796062 -0.027383342 -0.09112478 0.1438134 0.059029143 0.1288274
-0.0004911954 -0.13599114 -0.044463083 -0.072949775 0.02195488 -0.059615504 -0.054571893 0.030753871
0.052388985 -0.1126967 0.13703331 0.105222985 0.09035529 -0.078635514 0.001602752 -0.09801741
-0.10216135 -0.15613046 -0.048391648 -0.026968382 0.057772372 0.0107211815 0.02542072 0.106134996
-0.09024029 -0.055547897 0.11744179 0.11300688 0.06119516 0.029438013 -0.060495634 -0.03983874
-0.05916051 0.033847164 0.016731106 0.15469766 -0.06080558 0.14321755 -0.005978032 -0.007634455
0.04037868 0.033088032 0.12845418 -0.115088105 -0.0128810555 0.055087972 -0.079531245 0.081394345
-0.13166642 -0.02915739 -0.08730773 0.07922308 -0.09897126 -0.0919519 -0.012426034 -0.11344721
-0.08824933 0.08703812 -0.13791876 -0.028217612 0.05278099 -0.049942 0.037151806 0.122652404
-0.066831745 0.027060637 0.13864401 0.008119331 -0.06402258 0.14374378 0.07685958 -0.038922697
0.14223514 -0.068830475 -0.051361065 0.033414043 -0.08006154 0.023160227 0.16844264 -0.07165978
-0.036445517 0.040843662 0.018966934 0.030098598 -0.06426834 -0.012876196 0.017170155 -9.9462806e-05
0.026013566 0.11683221 0.044754 -0.036684122 0.14889896 -0.014809868 -0.03962121 0.17116292
0.02799553 0.03691292 0.047530588 0.18795079 -0.1076236 0.08405538 0.053468287 -0.0012630061
0.049814906 0.14729163 0.051009905 -0.009203745 -0.04914401 -0.1544645 0.12507944 -0.16616242
-0.014004602 -0.08148695 0.07497823 0.06652208 0.12280263 -0.029126002 0.11265711 -0.115079254
0.048730094 0.037428625 0.13822368 -0.05681599 0.10047571 0.16628896 -0.17739613 0.05031342
-0.18980832 -0.15680489 0.17399453 0.10915903 -0.13351178 -0.0028902001 -0.12714607 0.08770228
0.039161578 -0.027683381 0.08884585 -0.13455558 0.014044349 0.09409003 0.124262795 -0.091819026
0.10333465 -0.041092172 -0.030066624 -0.014548191 -0.10714001 -0.19179334 0.046365567 0.1976664
0.09422243 0.17953514 0.06622405 -0.12729612 0.14676587 -0.052929822 -0.003412165 -0.014143554
-0.101948194 0.0444259 -0.1781669 0.076982245 0.073260486 -0.014894656 -0.13203599 -0.02248748

rnn.bias_ih_l0 f4 [192]
00000000: d6a4 313e a286 143d 0859 f3bd 4a07 3ebe
00000010: 328e d9bc a41c 113e c4e0 99bd c1c7 71bc
00000020: e063 1d3d 3044 2abe 044b e63d 144d 25bd
00000030: 8442 49bd 0878 06be 9b07 19be 61bf 7ebd
00000040: 4b3a 0e3e 3cb6 23be d5da 97bd d10f db3c
00000050: 24b1 8bbd 8735 983d abad fa3d 17b7 6bbd
00000060: f135 d93d 6957 303e 5810 8b3d 94ed 44be
00000070: 024e 373d 8b7f d4bd 74cf 043d 1b63 213d
00000080: c585 863d 3422 0abd 014b 2a3d ca42 823d
00000090: 0559 903d c971 c4bd 4a36 4bbd 5857 e23c
000000a0: 55d2 86bd 89da 09be e5db 8ebc 7a4c 893d
000000b0: 21ea 20bd 50b6 14bd 918f acbd 2d26 aabd
000000c0: cdb3 9f3c 00a3 82bc e603 65bd fe4d 8e3d
000000d0: b928 e7bd b62f 2dbe 01be 31be 40d8 0ebe
000000e0: 1513 a7bd e880 17be b0c3 25be 344b e4bc
000000f0: 8030 58be 69a5 8bba 30fc e03d 4c57 bc3c
00000100: 9bf8 60bd 2346 05bd f07b ae3c 1626 05bd
00000110: 3585 e2bd 77fa 78bd e2c3 67be 48de 01bd
00000120: 5743 843d 9d23 383e 85f7 7ebe 16c3 e1bc
00000130: 244c 873d 672c 0abd 1ed7 6b3d 2992 623c
00000140: 9444 66bd 0f51 d5bc 008a d1bd 74e8 0bbd
00000150: 4242 8536 d23a 0c3e 83c0 25bb 43b5 d73d
00000160: 9f27 d6bd 9d3e 023e f8a5 3ebd 567d 7e3d
00000170: 5fbd 38be a688 13be 6ef3 38bd 2721 31be
00000180: 5286 023e 9aa2 4e3d cb4d 7abd 750b 393d
00000190: d12b 663c 2f2f a9bd 74bd 163e d1d9 7a3e
000001a0: b671 eabd b952 723d eb99 b23d fc3f 1e3d
000001b0: 102d c3bd cad5 f8bd 16f4 cd3d c5a7 cbbb
000001c0: 7b61 8ebd 1deb 6ebd 9b54 21be e3a9 db3d
000001d0: 07e3 433d 6772 64bd b960 10be db87 97bd
000001e0: 3d96 3bbc ebc1 9bbd d553 bfbd 018c 47bd
000001f0: 04af 3cbd ec39 89bd d2b7 233e 21ec ac3d
00000200: 87f3 99bd bece 8a3c 59c8 363d 7036 d0bb
00000210: f01d 96bb c8fb 4ebd c480 d83d f3b7 003e
00000220: c1fe e03c 0a9a 0b3e d74f 9cbc 6abe 02be
00000230: 36d2 3ebe 90fc d23d 1b8e 64bd 9d50 a4ba
00000240: 7dac f8bd f391 29bd d037 debd 60ea 2b3d
00000250: 58ee e6bd cbbc 2cbd aaa8 663d 5332 59be
00000260: cbe6 fbbc 3a85 003e f3a8 a2bd 5a0f cebb
00000270: 1897 143e 8a45 5abc ed3f bc3c 18a2 afbd
00000280: a4fa 0d3e 375d 073e d00a 4f3e 073d 1c3c
00000290: c244 393d 8cf8 a43d 98a8 3abd f7c0 073c
000002a0: 6e19 c8bd 3f09 cb3d 408f 1bbe dfa6 4c3b
000002b0: a78c ad3d e9e6 c1bc 7b08 0dbc 04cb d5bd
000002c0: 94d5 9f3c 9a86 1c3e ce2d 3cbc 48fd 0c3d
000002d0: 6062 303b e47c 3e3e 4db4 09bd 5e40 fdbd
000002e0: 16a3 9dbd ea3c b3bc eb16 083e c9fd c3bd
000002f0: 9280 e1bd 7929 a13d fd50 993d 135f 353e
0.17348036 0.03626121 -0.11882216 -0.18557468 -0.026557062 0.14171082 -0.07513574 -0.014757098
0.038425326 -0.16627574 0.11244777 -0.04035671 -0.0491357 -0.13131726 -0.14944308 -0.062194232
0.13889425 -0.15987486 -0.07414786 0.02674094 -0.06820896 0.074320845 0.12240156 -0.057547655
0.10605992 0.17220844 0.06790227 -0.19231254 0.04475213 -0.103758894 0.032424405 0.039401155
0.06568483 -0.033724025 0.041575436 0.06360395 0.07048229 -0.09592015 -0.04961232 0.02762954
-0.065830864 -0.13462271 -0.017438838 0.0670404 -0.039285783 -0.03630668 -0.084258206 -0.08308063
0.019494915 -0.015946865 -0.05591192 0.069484696 -0.11287064 -0.16912732 -0.17357637 -0.1394968
-0.081579365 -0.14795268 -0.1618793 -0.02786789 -0.21112251 -0.0010654154 0.10985601 0.022990845
-0.05492459 -0.03253759 0.021299332 -0.032507025 -0.110605635 -0.060785737 -0.22633317 -0.031706125
0.064581566 0.17982335 -0.24899109 -0.027558845 0.066063195 -0.03373375 0.0575782 0.013828793
-0.056217745 -0.026039628 -0.102313995 -0.03415723 3.9714223e-06 0.13694313 -0.0025291748 0.1053262
-0.10456776 0.12719198 -0.046545 0.06213125 -0.1804099 -0.14407596 -0.045154028 -0.17297803
0.12746552 0.050448038 -0.061109345 0.045176942 0.014048533 -0.08260953 0.14720708 0.24497153
-0.1144747 0.05916092 0.08720764 0.03863524 -0.09530079 -0.12150152 0.10056321 -0.006215068
-0.06952187 -0.05832969 -0.1575493 0.10725763 0.047823932 -0.055773165 -0.14099397 -0.07398959
-0.011449394 -0.07605346 -0.093421616 -0.048717503 -0.046065345 -0.06700501 0.1598809 0.084434755
-0.07517152 0.016944285 0.04462466 -0.0063541457 -0.0045812055 -0.050533086 0.10571435 0.12570171
0.027465226 0.1363298 -0.01908104 -0.1276795 -0.18634877 0.10302079 -0.055799585 -0.0012536232
-0.121422745 -0.041398954 -0.10850489 0.041971564 -0.11275929 -0.042172235 0.056313194 -0.21210603
-0.0307497 0.12550822 -0.07942381 -0.006288451 0.14510763 -0.0133222435 0.022979701 -0.08575839
0.13865143 0.13219152 0.20218968 0.009536034 0.04523159 0.08055219 -0.04557094 0.0082857525
-0.09770475 0.09913873 -0.15191364 0.0031227393 0.08474093 -0.023669677 -0.008607979 -0.10439113
0.019511022 0.15285721 -0.01148553 0.034421235 0.0026914105 0.1860233 -0.033619214 -0.12365793
-0.07697122 -0.021879632 0.13289993 -0.0956989 -0.11010851 0.078692384 0.074861504 0.17712049

rnn.bias_hh_l0 f4 [192]
00000000: 80a8 9c3d 12b0 04bd a2e0 fcbd aa3d c5bd
00000010: 95a6 bb3d fbd4 d7ba 1989 853d bc2f 26bd
00000020: 5cda 0b3e cc9d b8bd a9f2 353d 4849 3ebd
00000030: 08f2 103e a2be 2fbe 6cda 42be 338c 7ebd
00000040: 64af ac3d 71ba f73c 33f8 6b3d 4968 f2bd
00000050: 0d5e 04be 59fc d6bd a623 d63d 0464 e13c
00000060: 6e9b 503e 4919 5e3d e0ce 533d 1556 2abe
00000070: 3401 723d a97e d1bd 6f0e 893c 4f42 05be
00000080: 6b46 1d3e 1641 9dbd 6e05 003e f3b4 bd3c
00000090: f656 803d a5cd a23d 4af5 2e3e 7096 fe3d
000000a0: e2a2 dbbc 8983 d3bd 8755 353b 4fb6 2abd
000000b0: 43e3 843d e35a 07be 2b4e 74bd be5c b43b
000000c0: 7a4b 0b3e f613 c6bd ffbd d8bd 8892 a63d
000000d0: cc7b 473d 080d d6bc 9f89 123c 3c25 9b3d
000000e0: 94ab 16bd 75ed dabd 2b8c 14bd 0b62 80bd
000000f0: 0355 17bd 6f4a 5ebd 5b59 b33d 0794 1e3d
00000100: 2b6d 0ebe f5da 81bc a9e9 cbbd 1f62 6fbd
00000110: b115 a6bd bfb3 61be 51cb 3bbe fe69 95bc
00000120: 8e77 ba3d 9450 fc3c f05d 40be 5943 163d
00000130: b7ae 2f3e 4683 1e3d 1d29 3d3d 1549 093e
00000140: 0326 27bd 6545 35be 7573 7bbd f601 91bd
00000150: 74a4 6dbb c190 b43c 1558 813d cb64 cc3d
00000160: d907 df3c 3033 513e c063 c2bd 944b 09bd
00000170: fe9d 113d c831 f3bc 1101 87bd d5a9 32bd
00000180: 6ac5 543e abda 223d ca33 9dbd 62a1 393e
00000190: 9848 28be 139c a2bd c8e2 003e 4e86 4f3d
000001a0: 6bef 12bd df24 83bb 1ef7 403c b5f7 eebc
000001b0: 1798 f3bd 44dc 8a3d 6d51 c8bd b4c6 f8bc
000001c0: a941 7bbd 32e0 d4bd e49e aabd a2ff 3f3e
000001d0: 77d2 f23d ad22 053c 396c b7bd d837 33bd
000001e0: 4d22 08bd a512 a83c 1bab 00be ac4d ccbd
000001f0: 5d0d 12bc defe 813b 3ab9 103e 72cf 89bd
00000200: 2725 ef3d b6d9 dc3c 0229 e8bc ce45 bf3b
00000210: 4346 66bc 56e7 af3c f157 9dbc 2925 163e
00000220: 1ad7 30be fee2 743d 5394 1b3e 2d28 2e3d
00000230: 5d9a 1fbe 3539 e7bc 390d c7bb 05a7 1bbe
00000240: aefc 54bd 04c2 023d 72fe 4abe 7969 ad3a
00000250: 3f27 dcbd 40d6 1dbd 64cf 343e 57c7 03be
00000260: d85b c6bd 680a 623d 0411 3d3c f932 8dbd
00000270: eebc 69bc e2ae 803d 6576 103e ccde 5ebd
00000280: ea1e 423e 8f65 423d 46c7 183e 80e0 893c
00000290: 30e6 20be 2b38 e23c e822 143e 91d3 0ebd
000002a0: 2f20 c1bc 9258 1c3d 1ddf 80bd efd8 8b3c
000002b0: 56cf b83d c619 d3bd d1ec 18bb ba72 4abd
000002c0: 1b5d e4bd 7c51 1a3e ae2d 663d 69d7 533d
000002d0: 57a1 863d 9d38 0a3d 1b5f 853d 849a 14be
000002e0: 5d5b d5bd 623b aabc e417 bb3d b4d8 733d
000002f0: d776 233b e7c1 a7bc 5f1d 0f3e d742 223d
0.07649326 -0.032394476 -0.12347533 -0.09630902 0.091626324 -0.0016466671 0.0652029 -0.040572867
0.13657516 -0.09014472 0.044420872 -0.046456605 0.14154828 -0.17162564 -0.19028634 -0.062145423
0.084318906 0.03024027 0.057609748 -0.11836297 -0.12926503 -0.1049735 0.10456018 0.027513511
0.20371792 0.054223333 0.051710963 -0.166344 0.05908318 -0.10229237 0.016730515 -0.13013576
0.15358894 -0.0767843 0.12502071 0.023157572 0.062665865 0.0794938 0.17085758 0.124310374
-0.026811067 -0.10327823 0.0027669386 -0.04167777 0.06488659 -0.13218264 -0.05964486 0.00550422
0.13603011 -0.09671776 -0.10583114 0.08133417 0.048702046 -0.02612926 0.008943944 0.07575461
-0.036784723 -0.106898226 -0.036266487 -0.062687 -0.036946308 -0.054270204 0.087572776 0.03871539
-0.13908832 -0.015851477 -0.099566765 -0.058443185 -0.08109606 -0.22041224 -0.18339278 -0.018239018
0.091048345 0.030800141 -0.18785834 0.03668532 0.17156492 0.03869941 0.046181787 0.13406785
-0.040807735 -0.17702253 -0.061389405 -0.07080452 -0.0036261352 0.02204168 0.063156284 0.09980162
0.027225422 0.20429683 -0.09491682 -0.033519343 0.035551064 -0.029686823 -0.06592 -0.043618996
0.20778432 0.03975932 -0.076758936 0.18127969 -0.16433942 -0.07939925 0.1258651 0.050665192
-0.035872858 -0.004002198 0.011777667 -0.02917085 -0.11894243 0.067802936 -0.09781156 -0.030368187
-0.061341915 -0.10394324 -0.08331087 0.1874986 0.11856549 0.008125943 -0.08956189 -0.04375443
-0.033235837 0.020516703 -0.12565272 -0.09975752 -0.008914319 0.00396715 0.14133158 -0.0672902
0.11677008 0.026959281 -0.028339867 0.005837179 -0.014054838 0.021472614 -0.019206973 0.14662613
-0.17269555 0.05978679 0.151933 0.042518783 -0.15586229 -0.02822552 -0.0060745743 -0.15200432
-0.051998787 0.03192331 -0.19823626 0.0013230286 -0.10749673 -0.038534403 0.17657238 -0.12869011
-0.096854866 0.055185705 0.011539701 -0.06894488 -0.014266236 0.06283356 0.14107664 -0.054411694
0.18957105 0.047460135 0.14919767 0.016830683 -0.1571281 0.027614674 0.1446644 -0.034869734
-0.023574917 0.038170405 -0.062925555 0.017071215 0.09023921 -0.1030765 -0.0023334513 -0.049425818
-0.11150571 0.15070146 0.056195907 0.051719103 0.06573742 0.033745397 0.065122806 -0.14512068
-0.10417817 -0.020780269 0.09135416 0.059532836 0.002494266 -0.020478202 0.13976048 0.039614525

rnn.weight_ih_l1 f4 [192, 64]
00000000: 800c 20be b94f d63d 354f a3bc 3a8c 483e
00000010: 213b cf3d 0d4e b2bd 2418 b23d d476 31be
00000020: e22e 003d 7b1a 4fbe 84e8 b7bc cb1b 6c3e
00000030: 6de6 17bd 0121 16be 921b b53b 8ee4 433d
00000040: 997f ee3c 6cb6 aeba 46ad 313e 3dc2 7ebd
00000050: cdf1 d43c 6e41 e83d a95e 0a3d 3f9e 66bd
00000060: 1046 e8bb 0c91 26be f539 333c 15e2 033e
00000070: a694 66bd f1a6 26be 1485 373e c3b1 82bc
00000080: 4dd9 11bd 8dad 05be b93e 0cbe fa74 e53d
00000090: 404c 173e 01e4 eeb9 54c2 59bd f7dd 0c3e
000000a0: c6a9 b23c aba2 4f3d 7fce 683d 0fa7 44be
000000b0: 8859 29be 1fa8 193d c200 023e 39aa c73c
000000c0: 0397 423d 3961 1abe 2206 88bd 9f16 3fbe
000000d0: c65a 203e 49bd f6bd 8afb 853d 3460 843d
000000e0: 4b79 34bd 2d95 033c 76c6 a3bd 021c 9abd
000000f0: 4d02 183e af95 873d 1c0e 10be 6395 e4bd
00000100: 0c58 0cbe 4977 6b3d c7f9 edbc b8f1 443e
00000110: 95ab 9b3c bcf0 68bd e1f8 a63d a92e 8abd
00000120: bb77 b53d f557 66be a7a8 d73c 6392 bc3d
00000130: 581d 143e 1610 9ebd 74b9 073d 67fd 3f3e
00000140: e325 273e ae5f 0abe 0131 c23d 6999 3ebd
00000150: 88a3 b13d c096 813d fc5f 02be 8850 ae3c
00000160: b7b2 4dbd 06e1 0e3d 6b52 363d 261b 493c
00000170: 33b8 07be 9c89 4a3c 43e2 85bd 2602 dc3d
00000180: fefd 94bd d8b1 39be 7f80 0bbe 259e 0d3e
00000190: 47a1 393e 9c6c 45be 31d8 d8bd 81ea 2a3d
000001a0: 05dd 4d3c b0ef 9abd bfd6 4f3e 5352 43be
000001b0: 49b5 52be 7b9f d2bc 1d37 f03c 6b6f a83d
000001c0: 0207 ffbd c2ac 543d ba18 4abe 8984 90bd
000001d0: c009 5abc f541 62be ec7e 103b 95ed 4e3e
000001e0: 9fa2 3aba 8d77 bcbd 779b abbc 1084 f33d
000001f0: d637 bc3d 8c41 01be 1b32 1cbe 661f 50be
00000200: 82b9 a6bc 709a c13c 6e83 29bd fc6e 393c
00000210: 6072 043e dc02 faba 71de be3d edec 19be
00000220: 2d48 883d 8ea1 183d c399 9fbb 9e58 753d
00000230: f5cd 1abd 8bcc 9fbd 43e0 383c d925 b83d
00000240: b59a f03d 6009 46bd 2c4a 533e 52d5 bb3c
00000250: 9cf6 12bd eb13 a23d 4e6f d2bd fc0d 93bd
00000260: f0e0 e63b b492 f9bc ae34 d1bd 637b 743d
00000270: 2688 1abd 8d90 713c 745e 0fbd 1df7 bf3d
00000280: 537c 07bd 99b8 8e3b bc3f c3bd 3793 ae3d
00000290: 82d8 a83d 82bb e2bd 27a1 51bd 13cb ff3d
000002a0: 7030 bc3d 6c24 a83b 73e1 623c 943c 28be
000002b0: 214f b03c 0e4a 5fbc 8fc5 d6bc d1fe 06bd
000002c0: 12ad 093c c603 18bd 2ecc 0fbd 1323 03bd
000002d0: dafd 973d 4963 42bd 5d7c 043c a580 233c
000002e0: 59b8 a6bc a54e dd3b 289c 913c 60bb 05bc
000002f0: e7ce 60ba af4a 803c 9331 643b 4ec0 a23d
00000300: a023 283e dec2 29bd f7f0 6abc 7970 a4bd
00000310: f519 cabd a29e 7b3d 49ec e7bb 8e79 0cbd
00000320: 0acd 2ebe 8a2f 42bd 9c09 9dbc 78db 31be
00000330: 8e06 d93d 0da2 0fbe 6797 4abd 36d8 823b
00000340: e307 663c 7437 003e a272 7abd 93d8 843d
00000350: d1b9 153d 2bae 3ebd 9140 0fbe 706c bc3d
00000360: edf9 233d 67e7 853d 89fc e93c 48ec 94bd
00000370: 82ef 853d b261 6f3d a6ad 07ba 5281 acbc
00000380: 98e5 deb7 2558 623d 941b 6b3d bb41 36be
00000390: b372 aabd d829 4d3d 437a 1a3e c3f4 31be
000003a0: 4c1e 5c3d 3f00 10be 1972 6b3c d86d ffbc
000003b0: 1053 b5bd 92d9 18be fd05 8c3d 09cc cf3d
000003c0: e203 753d d330 c23c 6d74 4f3e de42 0f3e
000003d0: 22d7 983a 349f aabd d219 c9bd 42b6 da3c
000003e0: 0cee fabd 3d76 a8bd fa9b 873d 34bd 43bc
000003f0: fb8c d9ba 16d9 00be 625f f5bd df37 153d
-0.15629768 0.10464425 -0.01993523 0.19584742 0.101187 -0.08706293 0.08696011 -0.17330486
0.03129471 -0.20224945 -0.02244974 0.23057477 -0.037084986 -0.14661027 0.0055269683 0.04782539
0.029113578 -0.0013329512 0.17351255 -0.06219696 0.025994206 0.11340605 0.03378168 -0.05630326
-0.00708843 -0.16266268 0.010939111 0.12879212 -0.056294106 -0.1627462 0.17921859 -0.015953904
-0.035607625 -0.13054486 -0.13695802 0.11203952 0.14775181 -0.00045564774 -0.05316384 0.13756548
0.02180947 0.05069224 0.056837555 -0.19204353 -0.1653806 0.03751385 0.12695602 0.02437316
0.047507297 -0.1507615 -0.06641795 -0.18660973 0.15659627 -0.12047822 0.06542118 0.06463662
-0.044060986 0.008031172 -0.07996838 -0.07524873 0.14844628 0.06620347 -0.14067882 -0.11161306
-0.13705462 0.057486806 -0.029049767 0.19232833 0.019002715 -0.056870207 0.08152939 -0.06747181
0.088607274 -0.2249449 0.026325537 0.092076086 0.14464319 -0.07717912 0.033135846 0.18749009
0.16323046 -0.13513061 0.09482003 -0.046533022 0.08673769 0.063275814 -0.12731928 0.021278635
-0.050219264 0.034882568 0.044512194 0.012274539 -0.1325386 0.01236191 -0.065372966 0.10742597
-0.07275008 -0.18134248 -0.13623236 0.13829859 0.18127929 -0.19279712 -0.1058811 0.041727547
0.012564902 -0.07565248 0.20296763 -0.19074373 -0.20576967 -0.025710812 0.029323155 0.08224376
-0.124525085 0.051922567 -0.19735995 -0.07056529 -0.013307989 -0.22095473 0.0022048308 0.20207818
-0.00071195693 -0.0920249 -0.020948155 0.11890423 0.09190337 -0.1262266 -0.15253489 -0.20324478
-0.020352129 0.023633212 -0.041385107 0.011317965 0.12934256 -0.0019074338 0.09319771 -0.15031786
0.066543914 0.037263446 -0.0048706247 0.059898965 -0.037794072 -0.07802685 0.011283937 0.08991594
0.11748258 -0.048348784 0.20633763 0.022928867 -0.035879716 0.07913955 -0.10275136 -0.07180402
0.0070458576 -0.030465461 -0.10215126 0.059687983 -0.037727498 0.014743936 -0.035002187 0.09373305
-0.03307755 0.004355502 -0.09533641 0.08524173 0.082444206 -0.110709205 -0.051179077 0.12489905
0.09188926 0.005131295 0.013847697 -0.16429359 0.021522107 -0.013628496 -0.02621725 -0.032957856
0.00840308 -0.037112974 -0.03510683 -0.03201587 0.07421465 -0.047457967 0.008086291 0.009979402
-0.020351576 0.00675376 0.017774656 -0.008162349 -0.0008575753 0.015660612 0.0034819588 0.079468355
0.1641984 -0.041445605 -0.014339677 -0.08029265 -0.09868232 0.06143058 -0.007077728 -0.03429561
-0.17070404 -0.047408618 -0.019169621 -0.17368877 0.10596953 -0.14026661 -0.049460795 0.0039930595
0.014039966 0.12521154 -0.06114448 0.06486621 0.03655416 -0.04655282 -0.13989474 0.0920037
0.04003327 0.06538277 0.028562801 -0.072716296 0.06539823 0.05844278 -0.0005175717 -0.021057758
-2.6571375e-05 0.055259842 0.057399347 -0.17798512 -0.083226584 0.050088733 0.15085702 -0.17378525
0.05373983 -0.14062594 0.014370465 -0.031180307 -0.088537335 -0.14926746 0.0683708 0.101463385
0.059818156 0.023704922 0.20259257 0.13990352 0.0011660794 -0.08331147 -0.09819378 0.026698235
-0.12252435 -0.08225677 0.06621547 -0.011946965 -0.0016597802 -0.12582812 -0.119810835 0.036430236

rnn.weight_hh_l1 f4 [192, 64]
00000000: 7520 a63a 34a8 59be 49ea a2bd 2b8a 693d
00000010: 3ac6 fa3d ca2a 03bc 99d7 da3d bacd 5bbd
00000020: 2f92 ddbd 5186 19be 63c5 cebd aac6 d8bc
00000030: 79f7 26bd d9bb fbbd dde4 83bc 3395 0f3d
00000040: 4eb2 ea3d f545 e1bc 99e7 213e 4cf5 ecbc
00000050: e434 8dbd 3fbb ce3b 2573 9d3d 832e e33b
00000060: 49ad 2dbe db5a 7fbd d41c ccbd 35cc 97bd
00000070: 2106 66bc baee 2cbb c9d4 d03d dbb0 9fbc
00000080: b50a 883d 39cf 083e 60a7 7c3d e11f 483e
00000090: 83db 5f3e cb39 29be 3c52 53be c49f 25be
000000a0: 8513 f1bc d0d7 b8bb e579 273e 3b5b 10be
000000b0: e823 63be f6b6 a23d fe18 d83c 9d6e 00bc
000000c0: 1d37 153e 612c cc3d a12d 3ebe 130f 32bd
000000d0: 97c0 f3bd 5fbc ca3d 49e1 1a3e 3711 0f3e
000000e0: 23cf 15be 3870 193d 2e39 e1bd a893 d5bd
000000f0: dd1b a13c 1772 edbd 0956 02be 7078 f93c
00000100: a2d0 37be b977 babd 730c febd eccc 383e
00000110: 8742 a63d a0d8 8e3d fd80 d43d 8abf 353d
00000120: 9599 253e 1c05 a03c f6a4 94bd 9839 f93d
00000130: b11a dcbd 9764 1dbe d187 683c f561 37be
00000140: b6a8 e13d b347 24be c0e2 823b def6 a33d
00000150: cbdf 373d ff67 d6bd 630c 7b3b 4d86 a0bc
00000160: 6756 0abe 19f2 713d 3c92 06be 53d6 50bd
00000170: 913a 513e 5183 f3bd 9e6b 833d 67e6 2cbe
00000180: 01f0 313e 96ff 243d 8c27 813d fc0c e83d
00000190: 8c91 0cbd 1e2e 493d 364e 42be f86a 37bd
000001a0: 7ec3 2b3d 3251 053d e532 383c 12b4 08bc
000001b0: 60ca 43bc f89c c33d cd78 043e 0e6f 383e
000001c0: 056c 30bd e24f 4ebd f36c 1ebe bc88 cdbd
000001d0: b370 11bd 624f b73c 2384 483d 980d b83c
000001e0: 44e4 b5bd fa71 123e abda 94bd f9da c4bc
000001f0: 0417 f03d 3a1b 89bc c8b5 22be fad2 593e
00000200: 8a24 963b f8eb 3dbe fb66 e53d 3cca 943d
00000210: 95d3 553b 32b3 f5bd f93b 273d 69b9 1d3e
00000220: ef49 d6ba 0679 59be 9983 7d3d b569 3dbd
00000230: b267 70bc fe3e 1ebe d52a 2ebd 263c e9bd
00000240: ab0b 9e3d f9b2 873c fe24 d03c 82c5 15bc
00000250: e8a5 b63a ca69 4a3c 756c 103e 6cc9 57be
00000260: f90d 8ebc 8cea bbbc 7e93 5e3b 8254 8b3d
00000270: 908e b63d b0ad e83c 586b 6ebd cbb2 acbd
00000280: f160 aa3d 72fe 6f3d ec1f 1e3e 6d3f 9bbd
00000290: fc92 a13d afc9 38bd 0626 093d 6c32 60bd
000002a0: 9d62 37bb 8343 c5bc 1012 d83d e384 91bc
000002b0: 4d8f 63bd 522e 5cbb 815c db3d 1647 9b3d
000002c0: 78f7 3b3e 4cda af3d 874d 0ebd 3e10 6fbd
000002d0: 7c2b 52be 6cc6 7a3d 3019 9f3d bb69 833d
000002e0: 30e9 cd3c 06b8 b13d 75d0 16be 6fe7 8dbc
000002f0: 3a27 573d 5f43 253b 0824 1dbd 96f0 d43d
00000300: cb3a 1ebd f8aa 26bd 02ce b9bd abb8 24be
00000310: 3db3 9e3c f962 c33c 1059 17bd 42bd 323e
00000320: e4eb 183e 3acc 063e a743 a73d a23e b83d
00000330: f64a 303d 0610 15be cf17 353e a495 6b3c
00000340: 4924 223e 427f 4abd c8c0 0abe b3e7 f63d
00000350: 6817 0a3e d267 823d 6adf 8bbd e213 f73d
00000360: 6020 cfbc d3bf 493b a3e7 26be ef85 0bbd
00000370: 9af2 703d ef21 8c3c 6fcd 183d 0a59 713d
00000380: dc4e 75bd f4b8 123e f609 ba3d 1e6a 65bd
00000390: 9ce8 00be fc6b d5bd f756 3a3e 281b b3bc
000003a0: aa1a 813d 572d 643d dbb1 f63d 3ff4 113e
000003b0: 7bb2 e3bc 71e6 fdbd 758b 1fbe 53db 1f3e
000003c0: ccd7 efbd b6e0 b2bd 6c3e 363c b3e9 023e
000003d0: 956b 8b3d 9069 ab3c 3381 ffbd 08fb 103e
000003e0: 0de4 583d 42b9 a3bd 0017 1c3d e9d4 f4bd
000003f0: f272 ddbd b346 c13c 6103 1abe b280 2c3e
0.0012674468 -0.2125557 -0.079548426 0.057016533 0.1224484 -0.008005807 0.10685653 -0.053662993
-0.10818898 -0.14992644 -0.10096242 -0.026461918 -0.040763352 -0.122916885 -0.016100341 0.035054397
0.1145979 -0.027499178 0.15811004 -0.02892556 -0.06894854 0.0063089426 0.07687978 0.006933035
-0.16960634 -0.062342506 -0.09966436 -0.07411996 -0.014039547 -0.002638741 0.101968355 -0.019493511
0.06642667 0.13360299 0.06168306 0.19543411 0.21861081 -0.16525953 -0.20636839 -0.16174227
-0.029428253 -0.005640961 0.16355093 -0.14097302 -0.22181666 0.07945053 0.026379105 -0.007838872
0.14571805 0.09969402 -0.18572094 -0.043471407 -0.11901968 0.0989921 0.15125002 0.1397141
-0.14629798 0.037460536 -0.10997234 -0.10428554 0.019666607 -0.115940265 -0.12728132 0.030452937
-0.17950681 -0.091048665 -0.12404718 0.18046921 0.08118158 0.06974912 0.10376165 0.04437212
0.16171868 0.019533686 -0.07258026 0.12169188 -0.107472785 -0.15370403 0.014192537 -0.17908461
0.11018507 -0.16042976 0.003994316 0.080060706 0.04489116 -0.104690544 0.0038306944 -0.01959529
-0.13509522 0.059068773 -0.13141721 -0.050985646 0.20432498 -0.11890281 0.06417011 -0.16884767
0.1737671 0.04028281 0.06306371 0.113306016 -0.03431849 0.049116246 -0.18975148 -0.044779748
0.041934483 0.032548137 0.011242603 -0.008343713 -0.011950105 0.09551424 0.12936707 0.18011114
-0.043071765 -0.05036915 -0.15471248 -0.10035846 -0.03550787 0.02237672 0.04895414 0.02246742
-0.08881429 0.14301291 -0.0726827 -0.024030196 0.1172314 -0.016736615 -0.15889657 0.21271887
0.0045819925 -0.18547046 0.112012826 0.07265136 0.0032627333 -0.119970694 0.04082868 0.1540276
-0.0016348938 -0.21237573 0.06189308 -0.04624339 -0.01467316 -0.15453717 -0.042521317 -0.113884255
0.07717069 0.016564833 0.025408264 -0.009141328 0.0013934942 0.012354324 0.14103873 -0.2107293
-0.017340647 -0.02293899 0.0033962424 0.06803228 0.089139104 0.028403133 -0.05820784 -0.084325396
0.08319271 0.058592267 0.15441865 -0.07580457 0.07889363 -0.045114215 0.033483528 -0.054735586
-0.0027982362 -0.024080044 0.1055032 -0.01776356 -0.055556584 -0.0033596945 0.10711003 0.07581918
0.1835612 0.08586559 -0.034741905 -0.0583651 -0.205244 0.061224386 0.07768476 0.06416651
0.025135607 0.08677678 -0.14727958 -0.01732227 0.052527644 0.0025217158 -0.03836444 0.103974506
-0.038630288 -0.040690392 -0.09072496 -0.1608607 0.019372577 0.023850905 -0.03695017 0.17455009
0.14933735 0.13163844 0.081672005 0.08996321 0.04304024 -0.14556894 0.17684864 0.014378939
0.15834154 -0.04943777 -0.13550103 0.12055912 0.13485491 0.063674584 -0.06829722 0.12064339
-0.025283992 0.0030784502 -0.162993 -0.034063276 0.058825113 0.017106025 0.03730529 0.058922805
-0.05988966 0.14328367 0.09083931 -0.056009404 -0.12588733 -0.10420987 0.18197237 -0.021863535
0.06303914 0.055707302 0.12045642 0.14253329 -0.027795067 -0.12397469 -0.15580542 0.1561101
-0.11711082 -0.087342665 0.011123281 0.12784462 0.06807629 0.02092436 -0.12475815 0.14158261
0.05295186 -0.079943195 0.038107872 -0.11954672 -0.1081294 0.023593282 -0.15040351 0.16845968

rnn.bias_ih_l1 f4 [192]
00000000: e0ca a33d c1f1 b6bd 4c3a a0bd b3ef 99bc
00000010: aa19 d9bc 3806 98bd 3655 703a 1fc3 2abe
00000020: 1cc8 f6bc 7df8 a33d fbf8 033e d631 053e
00000030: 3c54 913d 55e4 823d 66cc 2b3e 4673 6ebd
00000040: ae04 893c 73c5 5f3c 1ee5 503e c0d0 d1bd
00000050: d7e8 bd3d 790b 6cbe a8da 6e3d 04e0 34bd
00000060: fdfa a43c 21f1 61bd 63f8 a5bd 2b23 983d
00000070: 694d de3d c678 303e 77b1 213e 7112 bcbd
00000080: f2a0 f2bd 28a8 d53d 9b9b 2bbe 9fdd 863c
00000090: 3b1f d53c 2f54 c3bd b6e6 7dbd c981 d2bb
000000a0: 0753 0d3d 3ed8 04be f4a1 133e 1747 f73d
000000b0: e503 01be 9510 7ebd 0eba a4bd 2d30 543e
000000c0: 409b 24be 33d4 42be e763 fb3d 16c0 993c
000000d0: 0a5e cd3d 3099 e7bc f936 ba3c 06e9 52bd
000000e0: 518d d43d 4e01 9e3c b2e3 3bbd 97e2 213c
000000f0: 68f9 2b3c f343 68bc 0720 7a3d f504 6fbc
00000100: cf21 383d cdb0 dfbc f01e 583c 6296 303e
00000110: f77e a0bc c58e 1dbd 3e1f 75bd 8c1b 5bbd
00000120: 1b19 b6bd 81e0 103e ffa1 f13b 2f93 1c3c
00000130: f396 2f3c aee2 51be eb3d 0b3e 53f8 12be
00000140: 02ac 533e 5704 0abe 9a10 f9bc 9e0b 82bd
00000150: 6234 1ebe 0743 0b3e dd1a d4bd 7df8 a43d
00000160: 1b03 033d 8351 3cbe c15e 07be 51fa 143d
00000170: 708c e93d baff 5cbc b4aa 59bc 3f93 9abd
00000180: a75c 303d 25d6 a9bd 455a 043d 03e0 1fb9
00000190: ffe5 27bd 8b47 0e3e bd8c a0bd b4bb 5fbe
000001a0: 2848 273c bbc0 18be 81bf f4bd 7922 5abd
000001b0: 44f1 f0bc d5ff 43bc 7a0e f2bd 1497 c3bc
000001c0: 2370 1cbd fbc4 4fbd daad af3d 18bf 093e
000001d0: e386 f7bd 75ca 943d 8ece 333e d586 633d
000001e0: 9816 95bc 3ce8 1dbe 8cec c03c b72e c8bd
000001f0: 7073 a23d 0370 643d f7a5 a7bd c17d a63b
00000200: cf37 653d fb77 da3d 1595 353e 4d19 1bbe
00000210: acd4 fabd bffa 2ebd d0a7 45be ad59 9cbd
00000220: f28b fd3a 9024 e63c 2a63 f83d 6df0 54be
00000230: b589 f13c e0ad 143e 1308 04bd a309 bcba
00000240: e961 4ebe 216a 403d 353c b33c 5b74 36be
00000250: 4d13 1b3b dafa e23d 062e e2bd 8b41 28bd
00000260: 0abf ea3d 4642 debc 459f f63d e39d bb3d
00000270: 53f5 b9bd dde8 a03d e794 53bc f27b dcbb
00000280: dd5e 7fbd c6f9 2ebe 00c2 b4bd ecd5 09be
00000290: f19a 453d fa52 493d fcfb d13c 4f99 523d
000002a0: 09cf 08be b6c4 82bd a35d 4abe b693 1abd
000002b0: b0f2 a63d c171 08bd 8eb0 3239 519d 3ebd
000002c0: bbf8 f6bd bea3 0c3e 294c 67bd 5e07 84bb
000002d0: 53d5 9fbd 7f4d 5a3d 6030 003d ed3b 1dbe
000002e0: fa12 293e 499e 1cbd 68ca 853c ad07 3f3e
000002f0: 1694 b5bd 517a 113d 0463 293e 3972 bdbd
0.0799768 -0.0893283 -0.07823619 -0.018791055 -0.026501495 -0.07423061 0.0009167971 -0.16675995
-0.030124716 0.0800638 0.12887947 0.13007292 0.070961446 0.06391207 0.1677719 -0.058215402
0.016725864 0.013657915 0.20399901 -0.10244894 0.09272926 -0.23051251 0.058313996 -0.04415895
0.020139212 -0.0551616 -0.08104017 0.07428583 0.108546086 0.17233571 0.15790354 -0.09183205
-0.11847104 0.10432464 -0.16758578 0.016463099 0.026015868 -0.09537541 -0.0619876 -0.006424163
0.03450301 -0.12973115 0.14417249 0.12074106 -0.12599142 -0.062027533 -0.080432996 0.20721503
-0.16074848 -0.1902626 0.12274914 0.018768352 0.10027702 -0.028271288 0.022731291 -0.05149176
0.103785165 0.019287731 -0.045871444 0.009880683 0.010496475 -0.014176357 0.0610657 -0.014588584
0.044954117 -0.027305985 0.01319097 0.17244866 -0.019591792 -0.038466234 -0.059844248 -0.053493068
-0.08891507 0.14148141 0.007374048 0.009556576 0.010717141 -0.20496628 0.13597839 -0.1435254
0.20671085 -0.13478218 -0.030403424 -0.06349872 -0.1544967 0.13599788 -0.10356686 0.08055208
0.031985383 -0.18390469 -0.1321974 0.036371533 0.114037395 -0.013488704 -0.013285328 -0.07547616
0.04305711 -0.08292798 0.03231265 -0.00015246872 -0.040990826 0.13894479 -0.07839344 -0.21848947
0.0102100745 -0.14917271 -0.11950589 -0.053255532 -0.02941192 -0.011962851 -0.118191674 -0.02387575
-0.03819288 -0.050724965 0.085780814 0.13451803 -0.120862745 0.07265178 0.17559263 0.055548508
-0.01819925 -0.15420622 0.023550294 -0.09774535 0.07932174 0.055770885 -0.08185952 0.005080909
0.055961426 0.10667416 0.17732652 -0.1514637 -0.12247595 -0.0427196 -0.19302297 -0.07634292
0.0019344075 0.028093606 0.12128289 -0.2079484 0.02948461 0.14519453 -0.032234263 -0.0014346134
-0.20154537 0.046976212 0.021879295 -0.17817824 0.0023662627 0.110830024 -0.110439345 -0.04107813
0.11462219 -0.027131211 0.12042097 0.09160974 -0.09079995 0.07856915 -0.012913919 -0.0067286426
-0.062346328 -0.17087469 -0.08826065 -0.13460511 0.048243467 0.0491514 0.02563285 0.051415738
-0.13360228 -0.06385176 -0.19762282 -0.037738524 0.08151758 -0.03331161 0.00017041175 -0.046536747
-0.1205916 0.13734338 -0.056469116 -0.0040291985 -0.0780436 0.053296562 0.031296134 -0.15354891
0.16511145 -0.03823689 0.016331866 0.18655272 -0.08866136 0.03551704 0.16541678 -0.09250302
