1223-code-DL/model/LSTNet_state_dict.pt (torch, 310773 bytes, 29 tensors)

cnn.0.weight f4 [64, 1, 3, 16]
5.94753e-40 -1.178164e-39 -1.100975e-39 -1.130688e-39 3.84483e-40 -2.66405e-40 1.3441e-41 -1.424689e-39
3.06617e-40 1.207954e-39 3.49917e-40 1.296263e-39 -2.02332e-40 -1.1926e-41 -1.4085e-40 8.16807e-40
-2.96136e-40 2.26066e-40 1.288117e-39 -4.91235e-40 -1.369848e-39 -5.80419e-40 -3.14481e-40 -1.406283e-39
-1.00548e-39 6.17376e-40 1.296215e-39 9.20998e-40 5.48694e-40 -1.262882e-39 9.89521e-40 8.08792e-40
-6.26669e-40 -5.538e-41 8.21199e-40 -2.0308e-40 -1.76446e-40 1.146667e-39 -3.218e-40 -2.239915e-39
-1.64665e-40 -1.021656e-39 1.308164e-39 1.388153e-39 -1.09105e-40 5.45284e-40 -6.81458e-40 9.00523e-40
1.80186e-40 -1.766e-42 4.47551e-40 -4.57248e-40 -2.77775e-40 -6.71726e-40 6.81217e-40 -6.78625e-40
-5.07854e-40 -7.0715e-41 2.0186e-40 -4.23213e-40 -4.67822e-40 -1.59839e-40 6.1898e-40 -1.19221e-40
-5.1643e-40 -1.65719e-40 4.10086e-40 6.4641e-40 6.79141e-40 1.71146e-40 -1.13009e-40 5.84305e-40
-6.89096e-40 -6.70136e-40 -3.40007e-40 2.46906e-40 9.8877e-41 -1.63389e-40 -5.88208e-40 6.24075e-40
5.64656e-40 -4.11602e-40 -3.01914e-40 3.0345e-40 -3.79388e-40 -2.70488e-40 6.08678e-40 4.00989e-40
3.65908e-40 3.37895e-40 4.4114e-41 -9.3447e-41 -7.03976e-40 -3.59097e-40 -4.81375e-40 2.8763e-41
-6.25132e-40 1.354e-41 5.23354e-40 -4.96502e-40 5.15546e-40 -5.43128e-40 -2.43795e-40 4.67071e-40
-2.72557e-40 -4.36621e-40 -4.92024e-40 3.33858e-40 3.14779e-40 -6.63918e-40 -4.90162e-40 -1.81128e-40
-6.63547e-40 2.05886e-40 5.77219e-40 -3.44518e-40 3.37863e-40 -5.13147e-40 -2.35634e-40 2.82027e-40
-3.20328e-40 3.28743e-40 -1.87956e-40 1.82756e-40 1.632e-40 -3.54596e-40 -3.69664e-40 -2.03096e-40
-1.81556e-40 -2.43995e-40 4.8757e-40 1.19276e-40 3.44106e-40 -4.46001e-40 -2.0906e-40 5.50026e-40
-2.12035e-40 6.1834e-40 3.64832e-40 4.84111e-40 4.41448e-40 1.3848e-41 -5.53107e-40 -2.24375e-40
-2.489655e-39 2.502038e-39 -1.915069e-39 -1.78436e-39 -2.071957e-39 2.574152e-39 -2.307706e-39 1.987101e-39
2.191104e-39 1.101498e-39 -1.45878e-39 -2.178676e-39 1.949327e-39 -1.835702e-39 7.62878e-40 -2.378848e-39
1.266066e-39 2.052281e-39 2.614906e-39 -1.611147e-39 2.920002e-39 -2.34993e-39 1.96235e-39 -1.814888e-39
-2.130002e-39 1.211892e-39 1.678754e-39 6.69822e-40 1.970143e-39 1.135148e-39 -7.2135e-40 -2.530651e-39
5.09027e-40 -1.544008e-39 1.728172e-39 2.36513e-39 -1.917165e-39 2.07042e-39 8.8116e-40 -6.89493e-40
1.4313e-40 -1.7706e-40 -1.72215e-39 -1.900847e-39 3.070667e-39 4.91194e-40 -7.97681e-40 1.642791e-39
-1.717367e-39 1.841331e-39 9.92847e-40 -1.205728e-39 1.959929e-39 2.64952e-40 -1.801553e-39 -8.09192e-40
-1.980726e-39 -1.597536e-39 1.02089e-39 -9.50058e-40 1.525466e-39 -1.35731e-39 1.171742e-39 -1.456992e-39
1.197729e-39 1.719961e-39 1.922154e-39 -1.123792e-39 9.01981e-40 1.667938e-39 5.60375e-40 -2.1866e-39
-6.19458e-40 8.06517e-40 1.63963e-39 2.06634e-40 1.90075e-39 -1.731485e-39 5.56826e-40 -1.587325e-39
1.01737e-39 8.93029e-40 9.69352e-40 1.848842e-39 -3.85811e-40 -1.622538e-39 -2.044925e-39 2.239551e-39
-1.215318e-39 1.009539e-39 1.37977e-39 -4.3048e-40 1.291746e-39 8.70348e-40 -4.538e-41 8.08291e-40
-3.06062e-40 -3.15568e-40 6.89285e-40 -1.14499e-40 5.8136e-41 -6.98476e-40 -4.99319e-40 6.24511e-40
-4.0403e-40 -3.813e-42 1.6535e-40 -1.34614e-40 -2.34439e-40 6.58188e-40 4.61375e-40 4.38838e-40
00000000: ee79 0600 3ed4 0c80 12fd 0b80 e64f 0c80
00000010: c82f 0400 a1e6 0280 7825 0000 7483 0f80
00000020: b956 0300 4927 0d00 6dcf 0300 741d 0e00
00000030: 0534 0280 3f21 0080 a288 0180 ede4 0800
00000040: 8239 0380 2e76 0200 bf06 0e00 5d59 0580
00000050: 94ea 0e80 f951 0680 a56c 0380 2550 0f80
00000060: dff2 0a80 feb8 0600 521d 0e00 5e07 0a00
00000070: 89f9 0500 67c0 0d80 62c6 0a00 95ce 0800
00000080: e6d2 0680 609a 0080 2bf1 0800 1b36 0280
00000090: dceb 0180 717c 0c00 0c81 0380 f963 1880
000000a0: 05cb 0180 f61f 0b80 a13e 0e00 9b1d 0f00
000000b0: 2430 0180 08f0 0500 a16b 0780 4bce 0900
000000c0: 49f6 0100 ec04 0080 97df 0400 9ffa 0480
000000d0: 5306 0380 8050 0780 f56a 0700 bb63 0780
000000e0: b187 0580 20c5 0080 b432 0200 bf9b 0480
000000f0: 1918 0580 91bd 0180 77bd 0600 574c 0180
00000100: 999f 0580 f5cd 0180 2777 0400 ee09 0700
00000110: 2b65 0700 16dd 0100 063b 0180 ce5c 0600
00000120: eb80 0780 114c 0780 cdb3 0380 46b0 0200
00000130: a113 0100 76c7 0180 af67 0680 abcb 0600
00000140: 0826 0600 617b 0480 9d49 0380 e54d 0300
00000150: 9421 0480 03f2 0280 bfa0 0600 cb5d 0400
00000160: 01fc 0300 eaad 0300 f97a 0000 7e04 0180
00000170: 66aa 0780 04e9 0380 e13d 0580 2e50 0000
00000180: 9dce 0680 be25 0000 e6b2 0500 0c68 0580
00000190: 229d 0500 05ea 0580 9aa7 0280 0116 0500
000001a0: c7f7 0280 1fc1 0480 905b 0580 a9a2 0300
000001b0: 7a6d 0300 bc3a 0780 5f56 0580 e9f8 0180
000001c0: b339 0780 ed3d 0200 0d49 0600 60c0 0380
000001d0: d3ad 0300 7296 0580 da90 0280 2d12 0300
000001e0: f27c 0380 6794 0300 f20b 0280 73fd 0100
000001f0: efc6 0100 78dc 0380 7906 0480 2636 0280
00000200: 1bfa 0180 29a8 0280 264f 0500 7e4c 0100
00000210: 3abf 0300 45db 0480 c646 0280 40fd 0500
00000220: 114f 0280 aebb 0600 01f9 0300 8145 0500
00000230: 94ce 0400 9a26 0000 d605 0680 7771 0280
00000240: 251c 1b80 aa3e 1b00 6fda 1480 126e 1380
00000250: c68f 1680 b007 1c00 f220 1980 3ba3 1500
00000260: e8db 1700 87fe 0b00 7ce2 0f80 43b9 1780
00000270: ee39 1500 31fd 1380 984e 0800 43e7 1980
00000280: 47c9 0d00 ed58 1600 4b79 1c00 398b 1180
00000290: c7cb 1f00 a696 1980 3c5e 1500 2bc3 1380
000002a0: 9431 1780 4332 0d00 af47 1200 314b 0700
000002b0: f573 1500 555c 0c00 d5da 0780 6d8e 1b80
000002c0: f68a 0500 11d0 1080 71d1 1200 05c1 1900
000002d0: 47e0 1480 7d8b 1600 5198 0900 0782 0780
000002e0: fd8e 0100 92ed 0180 a7c0 1280 cab2 1480
000002f0: c56f 2100 4059 0500 9caf 0880 6fe3 1100
00000300: 52b3 1280 e20c 1400 a7cf 0a00 1421 0d80
00000310: 7c57 1500 94e2 0200 ff9d 1380 b3cf 0880
00000320: 7591 1580 4865 1180 d31d 0b00 6058 0a80
00000330: 619c 1000 a1c7 0e80 57c2 0c00 80dd 0f80
00000340: c80a 0d00 8dba 1200 2fee 1400 ad3c 0c80
00000350: 5bd2 0900 8829 1200 191a 0600 5acf 1780
00000360: ccbe 0680 3ec8 0800 9fda 1100 0340 0200
00000370: 85b2 1400 adda 1280 3410 0600 d148 1180
00000380: 0314 0b00 67b9 0900 298e 0a00 d221 1400
00000390: 7c33 0480 faaa 1180 6b44 1680 f562 1800
000003a0: d03b 0d80 2ffe 0a00 3d06 0f00 01b0 0480
000003b0: dd10 0e00 2d7a 0900 807e 0080 30cd 0800
000003c0: 2d55 0380 ad6f 0380 7281 0700 2d3f 0180
000003d0: 0fa2 0000 119b 0780 e66f 0580 e2cc 0600
000003e0: 4566 0480 a10a 0080 eecc 0100 4077 0180
000003f0: 858d 0280 c32a 0700 2006 0500 4dc7 0400

cnn.0.bias f4 [64]
5.22e-41 -1.60924e-40 4.550127e-32 5.27555e-40 5.53234e-40 7.035355e-32 -1.022464e-39 4.8949324e-35
5.44623e-40 -1.2072e-41 -5.57212e-40 -2.86292e-40 -1.26533e-40 -2.94638e-40 3.38493e-40 3.3886525e-32
9.5896e-41 4.161e-40 6.63124e-40 1.53787e-40 -2.120633e-39 -1.767107e-39 -3.62463e-40 -6.25764e-40
-6.23813e-40 1.9679374e-24 2.90147e-40 -2.510415e-39 3.1493284e-19 -6.82039e-40 -8.94946e-40 -5.372627e-22
2.14075e-40 1.74225e-40 6.34132e-40 -2.346739e-39 -9.857e-42 2.131043e-39 3.8555613e-34 -9.34268e-40
6.03571e-40 -3.64448e-40 -3.77574e-40 6.8134e-41 5.54969e-40 -7.44831e-40 7.29254e-40 3.64178e-40
1.293358e-39 5.8823e-40 -7.95175e-40 5.19707e-40 4.69909e-40 7.99116e-40 9.29777e-40 -2.07929e-40
-5.16454e-40 1.434551e-39 -1.764121e-39 3.4816203e-28 -5.0246e-40 5.8604e-41 -1.233724e-39 -5.740235e-24
00000000: 8391 0000 97c0 0180 9041 6c0b 9cbe 0500
00000010: 3106 0600 f4a5 b60b 3722 0b80 2f21 8206
00000020: 30ee 0500 a721 0080 4811 0680 111e 0380
00000030: b960 0180 5535 0380 95af 0300 ebf2 2f0b
00000040: 520b 0100 eb87 0400 8538 0700 b2ac 0100
00000050: 7617 1780 fa3d 1380 66f2 0380 60d0 0680
00000060: f0ca 0680 0443 1818 d028 0300 0456 1b80
00000070: 4ee7 b920 3f6d 0780 bfbe 0980 b060 229c
00000080: c154 0200 abe5 0100 b4e7 0600 c18d 1980
00000090: 7a1b 0080 7b34 1700 7d1f 0008 5c2c 0a80
000000a0: 8392 0600 eff7 0380 861c 0480 eebd 0000
000000b0: 070b 0600 491c 0880 ddf0 0700 2ef7 0300
000000c0: 5b15 0e00 bf67 0600 a0a8 0880 bba8 0500
000000d0: ea1d 0500 9cb3 0800 d71f 0a00 9f43 0280
000000e0: aa9f 0580 f29e 0f00 a735 1380 85ac dc11
000000f0: a778 0580 5da3 0000 1f6f 0d80 8910 de98

rnn.weight_ih_l0 f4 [192, 64]
1.600967e-39 7.4288e-40 1.233263e-39 2.47246e-39 -1.007466e-39 -1.9635e-41 -2.648355e-39 -1.82937e-39
1.047077e-39 -1.330812e-39 5.33153e-40 -1.7741e-40 1.444089e-39 -2.217203e-39 -5.68402e-40 -2.69956e-40
2.12618e-40 1.125545e-39 -2.418064e-39 8.77026e-40 -2.25516e-39 -1.470862e-39 8.95891e-40 1.755213e-39
2.967542e-39 -4.4858e-40 -2.84815e-40 -3.1924e-41 1.03745e-40 6.42776e-40 7.27243e-40 1.139364e-39
5.23835e-40 1.114582e-39 1.082717e-39 1.853108e-39 -3.80467e-40 -9.58108e-40 -1.195512e-39 2.138258e-39
7.95694e-40 -2.239964e-39 1.276332e-39 -9.51931e-40 -1.667418e-39 -2.449341e-39 -2.202712e-39 1.224345e-39
-1.292848e-39 1.794452e-39 1.025927e-39 -1.58123e-40 -8.16527e-40 1.410064e-39 1.388325e-39 -9.21445e-40
-1.668725e-39 5.3795e-40 -1.252898e-39 9.84798e-40 -1.291212e-39 -4.90314e-40 1.701103e-39 1.136558e-39
7.64806e-40 -7.85197e-40 -6.01097e-40 2.152724e-39 2.876316e-39 -3.04945e-40 -1.524062e-39 -1.941174e-39
1.552555e-39 2.571939e-39 -3.93995e-40 -2.046238e-39 2.411587e-39 -2.135091e-39 2.413704e-39 9.86642e-40
6.11675e-40 -8.99439e-40 1.420495e-39 -8.82214e-40 2.60298e-40 -6.77493e-40 -2.958552e-39 -1.991119e-39
5.19205e-40 -2.56887e-40 9.72765e-40 -1.290957e-39 5.42511e-40 1.360978e-39 -1.309839e-39 -7.4653e-41
-1.99062e-39 -3.04987e-40 -9.64469e-40 -1.01923e-39 1.535659e-39 -2.408521e-39 -1.659209e-39 -7.77183e-40
-1.66604e-39 -1.748895e-39 -2.20807e-39 1.501432e-39 6.59538e-40 8.88978e-40 -2.204577e-39 5.13373e-40
5.62149e-40 1.280669e-39 2.07996e-39 1.66201e-40 5.53149e-40 -6.4658e-40 -2.763153e-39 -1.455335e-39
-1.260602e-39 1.05737e-39 -1.803461e-39 -8.12244e-40 -1.267327e-39 -2.098091e-39 7.45517e-40 -1.081672e-39
2.229207e-39 9.36231e-40 -8.01041e-40 2.474186e-39 4.54825e-40 1.03011e-40 -1.43877e-39 1.587628e-39
1.195316e-39 -2.81552e-40 -4.00921e-40 -1.159597e-39 -1.500593e-39 1.802686e-39 -9.31341e-40 -6.56943e-40
1.79285e-40 -1.062839e-39 1.906078e-39 6.9775e-41 2.264127e-39 2.499353e-39 -2.210208e-39 4.78323e-40
3.59994e-40 -9.61895e-40 1.29528e-40 1.897036e-39 -1.079696e-39 -9.2514e-41 -3.16175e-40 4.34222e-40
-1.830372e-39 7.3186e-40 -3.22203e-40 1.7712e-39 -1.553894e-39 -8.75507e-40 -8.9467e-40 -2.33116e-40
1.708033e-39 1.750234e-39 6.49684e-40 -4.17395e-40 1.879371e-39 2.39134e-39 -2.462052e-39 8.9878e-40
-1.750907e-39 1.116874e-39 1.666518e-39 -1.01353e-39 2.469318e-39 -1.758931e-39 -1.737087e-39 1.661894e-39
1.217513e-39 1.183374e-39 -2.628327e-39 -5.41635e-40 1.577659e-39 1.900514e-39 -3.29912e-40 3.8574e-40
1.373633e-39 1.011526e-39 1.330073e-39 -2.8135e-41 -1.412428e-39 8.99037e-40 -2.574311e-39 5.08369e-40
6.6424e-40 -7.45632e-40 -2.93622e-40 -1.79928e-39 1.305064e-39 -2.226075e-39 -1.45602e-40 -1.168435e-39
-9.38312e-40 8.46112e-40 -1.413955e-39 -9.24599e-40 -1.18547e-39 -1.81711e-39 -1.09696e-40 -1.82229e-40
6.7593e-41 -1.320291e-39 1.86362e-39 2.136422e-39 -1.199008e-39 1.872743e-39 9.91953e-40 -2.97957e-40
-2.03015e-39 8.49242e-40 -1.066929e-39 -1.153145e-39 -2.121939e-39 -1.892399e-39 -6.337e-41 -1.339596e-39
2.936543e-39 -9.47763e-40 -8.69616e-40 4.53981e-40 1.186079e-39 -3.99995e-40 -2.038521e-39 -2.095563e-39
4.8205e-40 -1.204521e-39 -7.30368e-40 4.598e-42 2.03632e-39 -1.292922e-39 2.364872e-39 -2.4968e-39
-1.399065e-39 -7.37935e-40 2.500766e-39 7.57287e-40 -2.367435e-39 -7.66648e-40 -1.569495e-39 -2.89318e-40
00000000: d86e 1100 d916 0800 d66d 0d00 36ec 1a00
00000010: 68f8 0a80 bc36 0080 89d6 1c80 8aeb 1380
00000020: d366 0b00 c37d 0e80 37ce 0500 8cee 0180
00000030: 88b9 0f00 a924 1880 7930 0680 87f0 0280
00000040: b150 0200 9041 0c00 9454 1a80 cb8c 0900
00000050: 788e 1880 2a04 1080 61c1 0900 d21c 1300
00000060: 4d50 2000 75e2 0480 f319 0380 fe58 0080
00000070: 3321 0100 ccff 0600 42eb 0700 1568 0c00
00000080: 3db4 0500 0023 0c00 2dca 0b00 b62d 1400
00000090: 9624 0480 d16e 0a80 9a04 0d80 9848 1700
000000a0: 12aa 0800 1c64 1880 e5e5 0d00 995d 0a80
000000b0: 1528 1280 c4ab 1a80 44fc 1780 fa54 0d00
000000c0: ef13 0e80 348a 1300 de2b 0b00 c8b8 0180
000000d0: 25e4 0880 af5a 0f00 161e 0f00 9d08 0a80
000000e0: ba2b 1280 96db 0500 92a4 0d80 37b9 0a00
000000f0: 600f 0e80 cc56 0580 fc85 1200 4360 0c00
00000100: f853 0800 cf8c 0880 9d8b 0680 eb70 1700
00000110: 0052 1f00 1052 0380 7798 1080 3423 1580
00000120: e4e7 1000 8501 1c00 4c4a 0480 1448 1680
00000130: 8642 1a00 c43f 1780 6d48 1a00 5bbe 0a00
00000140: 1aa9 0600 45cb 0980 c377 0f00 419b 0980
00000150: 9bd5 0200 9360 0780 3d37 2080 6eae 1580
00000160: 55a7 0500 19cc 0280 ac97 0a00 aa0e 0e80
00000170: 4de8 0500 dad1 0e00 4c43 0e80 1ad0 0080
00000180: 0aad 1580 2e52 0380 8c80 0a80 3319 0b80
00000190: cbb8 1000 fa39 1a80 3311 1280 7876 0880
000001a0: 3e24 1280 350b 1380 330b 1880 6259 1000
000001b0: 862e 0700 1cae 0900 7701 1880 1397 0500
000001c0: 0b1f 0600 fcf1 0d00 15a6 1600 4dcf 0100
000001d0: f405 0600 670a 0780 8c16 1e80 e2d8 0f80
000001e0: 0cba 0d80 8483 0b00 51a3 1380 35d8 0880
000001f0: cbcc 0d80 a0d8 1680 331e 0800 43c7 0b80
00000200: 1f46 1800 d531 0a00 fab8 0880 06f1 1a00
00000210: def3 0400 271f 0100 b5aa 0f80 a949 1100
00000220: 0e04 0d00 da10 0380 9b5d 0480 7ca0 0c80
00000230: 0b57 1080 28a1 1300 3324 0a80 4a27 0780
00000240: c6f3 0100 c392 0b80 5fc1 1400 81c2 0000
00000250: 77a7 1800 2e37 1b00 2911 1880 5f35 0500
00000260: 84eb 0300 5f79 0a80 1269 0100 2aa8 1400
00000270: c1c1 0b80 e401 0180 5e71 0380 6fba 0400
00000280: 55ee 1380 21f8 0700 2c82 0380 6349 1300
00000290: a0eb 1080 8f88 0980 fabd 0980 d589 0280
000002a0: 4d99 1200 f10e 1300 0e13 0700 878b 0480
000002b0: ec76 1400 150a 1a00 33cf 1a80 6fc9 0900
000002c0: d110 1380 6429 0c00 9325 1200 4f09 0b80
000002d0: 74e3 1a00 2f27 1380 4bea 1280 af18 1200
000002e0: ee41 0d00 c4e2 0c00 b59e 1c80 dce5 0580
000002f0: df2d 1100 dcb1 1400 a997 0380 4933 0400
00000300: 21f5 0e00 b903 0b00 b47b 0e00 6e4e 0080
00000310: 4661 0f80 26ca 0900 2208 1c80 2089 0500
00000320: a23b 0700 851e 0880 8032 0380 a997 1380
00000330: fd35 0e00 643d 1880 e195 0180 1fb9 0c80
00000340: a237 0a80 9e36 0900 8865 0f80 6811 0a80
00000350: 9ce8 0c80 5dc9 1380 ca31 0180 fbfb 0180
00000360: 6cbc 0000 6f60 0e80 044b 1400 7a43 1700
00000370: 590e 0d80 7264 1400 29cd 0a00 953e 0380
00000380: 3b1b 1680 573f 0900 2a9e 0b80 808e 0c80
00000390: 1a1b 1780 3d9b 1480 a6b0 0080 4096 0e80
000003a0: e3f9 1f00 fa51 0a80 2378 0980 84f1 0400
000003b0: 4eea 0c00 065b 0480 9132 1680 94d1 1680
000003c0: c23f 0500 b71d 0d80 f8f3 0780 d10c 0000
000003d0: 6f2c 1600 2414 0e80 4dc0 1900 1030 1b80
000003e0: 063c 0f80 1009 0880 1e3b 1b00 023f 0800
000003f0: 72c7 1980 1a59 0880 1d17 1180 8026 0380

rnn.weight_hh_l0 f4 [192, 64]
-1.129479e-39 -5.47396e-40 1.014233e-39 -1.000031e-39 1.768527e-39 1.578086e-39 -2.12343e-39 3.2822e-40
4.05831e-40 1.70297e-40 8.84847e-40 -9.89953e-40 1.261295e-39 7.30238e-40 -1.382692e-39 -5.91288e-40
1.605553e-39 9.3474e-40 9.85923e-40 -3.19405e-40 7.106e-40 6.99569e-40 9.40194e-40 -1.225862e-39
-1.997613e-39 1.464854e-39 1.750035e-39 1.2582e-39 5.34392e-40 -4.5424e-40 -8.5429e-40 -2.165998e-39
6.86108e-40 -1.12645e-39 1.408951e-39 8.29284e-40 -1.215597e-39 1.59562e-40 4.18331e-40 -1.03553e-39
-2.14758e-39 1.093716e-39 4.6052e-40 8.07629e-40 1.226175e-39 -5.5563e-40 -1.186663e-39 1.26398e-39
1.573346e-39 2.99916e-40 -1.148206e-39 2.25466e-40 2.238836e-39 1.475734e-39 -4.79425e-40 9.31003e-40
1.991744e-39 3.12572e-40 1.521048e-39 -2.038109e-39 -1.305468e-39 -1.393433e-39 -1.92781e-40 1.78364e-39
1.284312e-39 1.173994e-39 -1.196908e-39 1.938873e-39 -1.543226e-39 -1.71212e-39 -4.2117e-41 3.46446e-40
-1.623295e-39 -5.2878e-40 2.457395e-39 -2.261798e-39 -1.294536e-39 -1.33925e-39 1.77843e-40 1.871375e-39
1.492551e-39 1.120704e-39 -1.527868e-39 -1.083045e-39 5.17044e-40 1.831721e-39 -1.222654e-39 -9.9717e-40
-1.41823e-39 -2.222665e-39 2.261689e-39 -3.28851e-40 -7.29835e-40 -7.0487e-40 -8.62747e-40 2.171009e-39
9.80752e-40 1.99273e-39 -8.79934e-40 -3.4521e-40 -1.090085e-39 2.277612e-39 1.463443e-39 2.405766e-39
-1.847284e-39 1.616525e-39 1.030924e-39 -9.8762e-40 -5.84633e-40 6.28267e-40 -7.90439e-40 1.674668e-39
1.826277e-39 6.4783e-41 2.142618e-39 -1.967003e-39 -2.238789e-39 -1.050989e-39 1.513761e-39 1.45212e-40
5.91567e-40 5.00498e-40 1.739904e-39 -1.104858e-39 -1.96184e-39 1.407726e-39 1.554329e-39 -1.915026e-39
1.266788e-39 2.92546e-40 -8.47169e-40 2.16582e-40 -1.15072e-40 -7.17783e-40 -1.002078e-39 9.5297e-40
1.210234e-39 7.98522e-40 1.126268e-39 -2.051408e-39 1.204164e-39 1.456536e-39 9.02338e-40 -3.64258e-40
-1.031953e-39 1.481575e-39 2.4824e-41 -1.174148e-39 -9.95247e-40 -8.23497e-40 -1.046904e-39 8.50821e-40
-1.143846e-39 -4.74041e-40 -1.147415e-39 -1.72357e-40 1.151738e-39 -1.190193e-39 2.111942e-39 1.42884e-39
8.09232e-40 1.669115e-39 -9.73636e-40 -4.15317e-40 -9.0745e-40 9.33586e-40 -1.194105e-39 1.15676e-40
3.78373e-40 -1.137416e-39 1.813284e-39 4.50628e-40 5.18521e-40 1.78632e-40 -4.66024e-40 1.4608e-40
-9.28795e-40 5.00877e-40 8.28568e-40 1.655341e-39 -1.568817e-39 -6.72941e-40 8.29905e-40 -1.180563e-39
-1.789312e-39 6.25229e-40 -3.06957e-40 1.9629e-39 -1.316015e-39 -9.96936e-40 -2.14392e-40 1.357774e-39
1.33352e-39 -1.417388e-39 8.95228e-40 1.36017e-39 6.3082e-41 1.051114e-39 1.834653e-39 1.13871e-39
-1.543501e-39 -8.6419e-40 -1.1059e-39 1.829479e-39 -1.298474e-39 -1.96077e-40 -1.631504e-39 1.014872e-39
5.39092e-40 -6.75877e-40 2.36324e-39 -1.550045e-39 -7.55873e-40 6.46724e-40 -1.252806e-39 -1.800523e-39
-1.83451e-40 7.7535e-41 3.99093e-40 1.445334e-39 -2.6826e-41 -4.52273e-40 1.714706e-39 4.60786e-40
-5.4288e-40 1.906363e-39 1.200194e-39 1.169651e-39 -9.50816e-40 1.792743e-39 -1.026268e-39 -2.059264e-39
1.31329e-39 -1.138048e-39 -1.739356e-39 -1.865504e-39 2.175004e-39 -3.38823e-40 1.176268e-39 1.28321e-40
8.39805e-40 1.876696e-39 -1.997248e-39 2.3347e-40 2.068549e-39 -3.35161e-40 -8.67695e-40 -1.936502e-39
1.065699e-39 1.522347e-39 -3.6682e-41 1.46321e-39 5.26045e-40 1.50069e-39 -7.83602e-40 1.312581e-39
00000000: 874c 0c80 ebf5 0580 450b 0b00 aee3 0a80
00000010: ef41 1300 102f 1100 421f 1780 f292 0300
00000020: 4b6b 0400 b8da 0100 98a2 0900 96c7 0a80
00000030: fabb 0d00 9bf3 0700 620e 0f80 4570 0680
00000040: a17b 1100 ad2d 0a00 5abc 0a00 5f7a 0380
00000050: ddbc 0700 1d9e 0700 e13c 0a00 3459 0d80
00000060: 88c0 1580 6bf3 0f00 630e 1300 5ab3 0d00
00000070: abd1 0500 3cf2 0480 6a4d 0980 ec95 1780
00000080: 9778 0700 1644 0c80 9557 0f00 b507 0900
00000090: 973c 0d80 cbbc 0100 238e 0400 a346 0b80
000000a0: 9462 1780 d6e8 0b00 be03 0500 57cb 0800
000000b0: 145a 0d00 df0c 0680 efeb 0c80 76c3 0d00
000000c0: d921 1100 0b44 0300 bb80 0c80 8274 0200
000000d0: f760 1800 bf11 1000 7138 0580 4223 0a00
000000e0: 2cb0 1500 5367 0300 1090 1000 6b31 1680
000000f0: 1d37 0e80 532c 0f80 6519 0280 106c 1300
00000100: 24fc 0d00 9ec8 0c00 7e08 0d80 ca1c 1500
00000110: e3cd 1080 b2a4 1280 6875 0080 c0c5 0300
00000120: 16ad 1180 06c2 0580 38c2 1a00 f9a0 1880
00000130: a418 0e80 4995 0e80 c1ef 0100 a260 1400
00000140: a040 1000 1134 0c00 13a3 1080 17cb 0b80
00000150: 4fa1 0500 18f2 1300 4350 0d80 b4db 0a80
00000160: 7371 0f80 e333 1880 aba0 1800 b494 0380
00000170: 7cf2 0780 e4ac 0780 fd64 0980 e4a3 1700
00000180: f0ad 0a00 ecb2 1500 e694 0980 4ec2 0380
00000190: b7de 0b80 0ecd 1800 7cef 0f00 4c32 1a00
000001a0: 7a1d 1480 379a 1100 cc39 0b00 15c1 0a80
000001b0: b85d 0680 5ad7 0600 6c9b 0880 4b3c 1200
000001c0: ebe2 1300 97b4 0000 bf54 1700 346b 1580
000001d0: d560 1880 bb71 0b80 c07b 1000 cb94 0100
000001e0: 0c71 0600 2f73 0500 25f2 1200 e507 0c80
000001f0: d05c 1580 2b54 0f00 d6ec 1000 50da 1480
00000200: 4acb 0d00 802f 0300 9039 0980 be5b 0200
00000210: c640 0180 e3d0 0780 63e9 0a80 7e60 0a00
00000220: a42d 0d00 f4b1 0800 9443 0c00 7e56 1680
00000230: b81c 0d00 3bdc 0f00 5ad3 0900 67f7 0380
00000240: aa3c 0b80 0722 1000 3345 0000 0cc9 0c80
00000250: 58d6 0a80 93f7 0880 5866 0b80 be43 0900
00000260: 9474 0c80 6f29 0580 877e 0c80 76e0 0180
00000270: 948a 0c00 c6f5 0c80 3cff 1600 068f 0f00
00000280: cfcf 0800 d02c 1200 1a9a 0a80 bc85 0480
00000290: 9ae1 0980 752a 0a00 ae00 0d80 7542 0100
000002a0: c01e 0400 a762 0c80 b3be 1300 2be8 0400
000002b0: 6da5 0500 f4f1 0100 1613 0580 3697 0100
000002c0: 1a1d 0a80 3e74 0500 b605 0900 6b06 1200
000002d0: 3915 1180 e353 0780 7009 0900 eeda 0c80
000002e0: e07b 1380 e2ce 0600 ac57 0380 c45f 1500
000002f0: 8454 0e80 0ddb 0a80 a355 0280 ecc8 0e00
00000300: 5085 0e00 1a6f 0f80 88bf 0900 9acf 0e00
00000310: d9af 0000 1472 0b00 44fa 1300 4366 0c00
00000320: a7ce 1080 0369 0980 cd0a 0c80 d8eb 1300
00000330: 9e23 0e80 9522 0280 f8c3 1180 0d0d 0b00
00000340: c5de 0500 125c 0780 c0bb 1900 e5e0 1080
00000350: 113b 0880 ce0a 0700 50a4 0d80 209b 1380
00000360: 63ff 0180 23d8 0000 8258 0400 01bd 0f00
00000370: c84a 0080 c1ec 0480 e7ab 1200 7c04 0500
00000380: 54e9 0580 2ac2 1400 a711 0d00 83bc 0c00
00000390: 7d5a 0a80 7085 1300 d12c 0b80 646c 1680
000003a0: eb4c 0e00 6a64 0c80 9ef0 1280 4450 1480
000003b0: 07af 1700 80b0 0380 f5ce 0c00 b565 0100
000003c0: 0925 0900 776f 1400 84bf 1580 d28a 0200
000003d0: 4686 1600 4ba6 0380 c872 0980 2e16 1580
000003e0: bc9a 0b00 af93 1000 4166 0080 d6ee 0f00
000003f0: 66ba 0500 5057 1000 5d88 0880 f14a 0e00

rnn.bias_ih_l0 f4 [192]
-6.7803e-40 8.8365e-40 8.52483e-40 5.22277e-40 1.71421e-40 3.0237e-40 1.029245e-39 -1.34352e-40
6.70775e-40 -7.9976e-40 -1.067421e-39 5.69397e-40 2.2361e-40 5.3299e-40 -1.588941e-39 -6.5955e-40
-2.54515e-40 -3.2932e-40 -8.79836e-40 -2.77018e-40 -5.22348e-40 9.64793e-40 -5.31654e-40 -7.68336e-40
1.46969e-39 3.05238e-40 5.93193e-40 8.1554e-40 -1.991e-41 5.86652e-40 -2.42604e-40 3.9486e-40
-7.90286e-40 -8.84423e-40 6.40336e-40 -7.74181e-40 -5.29932e-40 9.99242e-40 -8.88994e-40 5.961e-40
-4.78162e-40 1.53921e-40 -9.61309e-40 7.8806e-40 2.10325e-40 -5.18316e-40 1.113999e-39 8.81477e-40
4.46759e-40 -6.1427e-41 -7.66606e-40 2.9426e-40 -3.84488e-40 -1.6163e-41 -3.30292e-40 1.729288e-39
-8.90087e-40 -9.12824e-40 1.470234e-39 -1.662247e-39 8.7928e-40 5.56269e-40 -4.43999e-40 1.03392e-40
2.489827e-39 -1.588034e-39 2.504834e-39 3.09306e-40 -1.516987e-39 -1.091422e-39 -2.291143e-39 -2.625834e-39
-5.65463e-40 2.136982e-39 8.48363e-40 2.67158e-40 -1.33776e-39 1.023862e-39 -2.306759e-39 -1.668516e-39
1.62318e-39 -1.05797e-39 8.67414e-40 2.92963e-39 -4.34133e-40 1.294406e-39 2.160051e-39 -2.284786e-39
-1.20363e-40 1.298645e-39 -1.896468e-39 -2.151918e-39 -3.0555e-41 -1.962886e-39 -1.312715e-39 2.112655e-39
1.810325e-39 3.45702e-40 1.55811e-39 7.22025e-40 1.09305e-39 -2.484824e-39 1.19492e-40 2.199338e-39
-2.918612e-39 1.503296e-39 1.190837e-39 -6.2949e-41 -8.88817e-40 1.909485e-39 -1.417867e-39 -2.60995e-39
2.218309e-39 -7.18814e-40 -8.9664e-40 1.086544e-39 -2.487338e-39 -1.39244e-39 -1.977794e-39 3.37958e-40
2.268414e-39 2.26446e-40 8.67963e-40 -1.800321e-39 1.845639e-39 9.48732e-40 -8.6572e-40 -1.506962e-39
-1.2868348e-29 2.0252795e-25 7.296609e-23 1.3189146e-36 1.4845176e-23 6.384084e-21 1.0704024e-27 -8.903927e-24
5.0650903e-22 -2.6008702e-25 -1.2837764e-30 -8.606616e-27 -2.9591083e-17 2.79525e-24 8.758627e-27 7.57667e-27
-1.7903029e-20 -2.8004227e-25 -4.42638e-40 2.6174097e-25 -3.3672478e-28 -4.396279e-25 -1.8675914e-26 -2.50302e-21
-1.3612054e-26 5.4254456e-27 -5.529337e-24 9.514737e-24 2.0734896e-22 1.2007319e-22 5.27422e-37 2.310911e-28
7.698739e-23 -1.672143e-30 -1.5627187e-25 -4.4239976e-26 -2.2520527e-26 1.5476017e-30 -2.6228132e-24 -3.49379e-40
3.0194543e-30 -3.1219963e-32 -1.89436e-40 1.6017181e-24 -1.35521e-40 -3.225569e-30 -5.7726102e-27 -6.8991716e-24
-1.1441118e-29 2.3072216e-23 -6.942827e-32 -1.807929e-29 8.544102e-25 2.5949006e-26 -1.2648867e-24 8.5610254e-24
-6.1094297e-30 4.1014042e-24 1.1749605e-25 5.11097e-40 -9.394447e-26 -2.1108712e-32 -7.7840655e-20 1.211485e-21
00000000: 1262 0780 429f 0900 6048 0900 e5af 0500
00000010: dadd 0100 e24a 0300 1e35 0b00 8576 0180
00000020: d94d 0700 68b5 0880 899f 0b80 3f33 0600
00000030: 556f 0200 c2cd 0500 524d 1180 8f2e 0780
00000040: 7cc5 0280 0396 0380 a094 0980 3704 0380
00000050: 18b0 0580 7381 0a00 09ca 0580 cf5d 0880
00000060: e600 1000 e152 0300 9575 0600 65e1 0800
00000070: 8037 0080 5963 0600 48a4 0280 b64c 0400
00000080: ff9a 0880 69a1 0980 fff8 0600 1a6e 0880
00000090: 3cc5 0580 7be1 0a00 27ae 0980 af7d 0600
000000a0: ec34 0580 12ad 0100 bd77 0a80 ca94 0800
000000b0: 4d4a 0200 dba4 0580 6021 0c00 3399 0900
000000c0: 62dd 0400 3cab 0080 fc58 0880 4734 0300
000000d0: cc2f 0480 0e2d 0080 b898 0380 8dd4 1200
000000e0: 33b1 0980 95f0 0980 6a02 1000 ab19 1280
000000f0: 1393 0900 a70e 0600 b0d5 0480 3720 0100
00000100: a01c 1b00 cb4a 1180 7546 1b00 385e 0300
00000110: be84 1080 71e2 0b80 c6f2 1880 c297 1c80
00000120: 4828 0680 0945 1700 e43c 0900 bae8 0200
00000130: 2191 0e80 1c26 0b00 4e1e 1980 252b 1280
00000140: c4ac 1100 3185 0b80 ff71 0900 9ee6 1f00
00000150: 30ba 0480 4718 0e00 5885 1700 0ee1 1880
00000160: 864f 0180 1824 0e00 95a6 1480 ac6e 1780
00000170: 2d55 0080 ba5f 1580 514b 0e80 3901 1700
00000180: 73b6 1300 adc3 0300 60f7 1000 b6dc 0700
00000190: fbe6 0b00 ae0e 1b80 184d 0100 dcf2 1700
000001a0: e7c7 1f80 945e 1000 92f7 0c00 7aaf 0080
000001b0: a9ad 0980 deca 1400 7070 0f80 7b6b 1c80
000001c0: be27 1800 c3d3 0780 78c3 0980 d8d4 0b00
000001d0: b015 1b80 8e29 0f80 4989 1580 17ae 0300
000001e0: 6ab3 1800 3d77 0200 8773 0900 909a 1380
000001f0: e418 1400 ae54 0a00 466d 0980 cc68 1080
00000200: 2480 828f abb7 7a16 d26b b01a d566 e003
00000210: e092 8f19 122f f11d ae9c a912 1c3a 2c99
00000220: 3d15 191c 6ffc a096 fc4d d08d ba78 2a94
00000230: fc76 08a4 a145 5818 847b 2d14 4812 1614
00000240: de16 a99e 7856 ad96 e5d1 0480 8302 a216
00000250: b86c d591 e90e 0897 11f5 b894 731f 3d9d
00000260: a8ce 8694 8eec d613 e7e7 d598 b20a 3819
00000270: 65ab 7a1b da28 111b f078 3303 ad78 9211
00000280: e324 ba1a 0da9 078e 8874 4196 d510 5b95
00000290: 5208 df94 dc1c fb0d 2bee 4a98 edcd 0380
000002a0: 9df7 740e 731a 228b 1210 0280 97da f717
000002b0: c779 0180 39d8 828e 39ad e493 0b73 0599
000002c0: ae0d 688f 0a24 df19 003f b48b 8558 b78f
000002d0: ad36 8417 467e 0015 53bb c397 2598 2519
000002e0: f2d3 f78e 57aa 9e18 fc73 1116 bb90 0500
000002f0: 6298 e895 9534 db8a cacb b79f 0e13 b71c

rnn.bias_hh_l0 f4 [192]
-5.5997e-40 -3.34986e-40 7.23584e-40 -1.387277e-39 1.50841e-40 8.35657e-40 2.37868e-40 1.26228e-39
8.53146e-40 -7.71614e-40 -6.91622e-40 8.13259e-40 -1.5627e-40 -9.12881e-40 -1.17447e-39 -3.9049e-41
-2.16282e-40 -8.5726e-41 -9.1442e-41 1.97533e-40 -8.20446e-40 -9.61584e-40 -1.15459e-40 6.08867e-40
8.88663e-40 1.48878e-40 -5.6615e-41 1.28063e-40 1.91933e-40 8.33316e-40 -8.15313e-40 -1.9859e-41
-3.98717e-40 1.4322e-40 -8.51866e-40 -9.27545e-40 -5.3331e-40 8.4287e-40 1.007078e-39 7.91763e-40
7.66667e-40 -1.55551e-39 2.10867e-40 -3.95784e-40 -8.06264e-40 1.59378e-40 -5.74216e-40 -4.2796e-41
7.20305e-40 -7.93574e-40 3.9836e-41 1.248617e-39 -4.11264e-40 3.80375e-40 -8.55357e-40 -1.420146e-39
9.39527e-40 4.29904e-40 1.621234e-39 1.886181e-39 -9.88978e-40 1.321188e-39 -4.1278e-40 -3.1266e-40
-1.189925e-39 2.11194e-39 -2.342935e-39 -1.799333e-39 2.75449e-40 -2.339291e-39 2.508672e-39 -1.907777e-39
-2.232999e-39 -3.55743e-40 2.589656e-39 1.568269e-39 -1.57738e-39 2.070309e-39 4.16692e-40 7.66391e-40
-4.99204e-40 8.976e-40 -2.86619e-40 1.876609e-39 -7.51665e-40 -1.94426e-39 -7.88165e-40 -1.338572e-39
-2.492484e-39 4.60045e-40 6.98261e-40 2.444927e-39 -2.214566e-39 2.375469e-39 3.15501e-40 2.25375e-40
2.493932e-39 2.2065e-40 2.326266e-39 -1.875865e-39 7.8947e-40 -2.399585e-39 -7.1466e-40 9.8782e-41
-8.35465e-40 1.666458e-39 -8.88995e-40 -1.027177e-39 2.422098e-39 2.234219e-39 -1.80147e-40 -4.41521e-40
-1.574258e-39 -6.33596e-40 -1.076567e-39 -2.556523e-39 -2.262291e-39 1.402858e-39 1.367904e-39 -2.132967e-39
-1.345195e-39 1.30435e-39 1.554815e-39 -1.323493e-39 -2.22108e-39 1.377258e-39 7.46292e-40 -2.611852e-39
-1.3390589e-29 5.143534e-25 3.138441e-23 6.967813e-37 6.663518e-24 2.4713709e-29 4.6186886e-28 -4.8748756e-24
-2.7213433e-26 -1.5602535e-25 6.0932696e-34 -4.4881047e-27 7.052262e-24 1.1970813e-24 1.8815692e-27 2.4543485e-27
-3.41721e-26 -1.2564718e-25 5.1994e-40 1.4979389e-25 -2.4438318e-28 -2.3262337e-25 -1.038592e-26 -1.3850698e-24
-8.015378e-27 -3.4772e-40 8.690007e-37 1.8542095e-24 1.3686063e-22 5.3245025e-23 2.7305758e-37 -3.7978574e-37
3.8508526e-23 -6.166052e-31 -9.338146e-26 -2.3350332e-26 5.0809855e-25 6.8770115e-31 -6.0439663e-25 -6.11598e-40
1.730666e-30 -1.00796495e-32 -3.83177e-40 6.844318e-25 -3.5183e-40 -8.798967e-31 -2.5022296e-27 -3.3156163e-24
1.0967582e-37 1.3793058e-23 2.10348e-40 -1.0423199e-29 -4.73898e-39 1.5456324e-26 -4.9438455e-25 2.9393817e-24
-2.2559174e-30 1.9772507e-24 3.2350335e-26 -5.74175e-40 8.8115884e-30 -3.4088067e-32 -3.312388e-30 -4.66984e-25
00000000: f818 0680 cea5 0380 0fe1 0700 2a1b 0f80
00000010: 7ca4 0100 7919 0900 1497 0200 b9be 0d00
00000020: 394a 0900 f266 0880 f687 0780 09db 0800
00000030: 9eb3 0180 bef0 0980 f2c9 0c80 da6c 0080
00000040: e85a 0280 f8ee 0080 e7fe 0080 a426 0200
00000050: 12ef 0880 8178 0a80 da41 0180 46a1 0600
00000060: 3bad 0900 039f 0100 d29d 0080 fd64 0100
00000070: 0817 0200 f212 0900 c3e0 0880 5c37 0080
00000080: 7657 0480 3d8f 0100 a846 0980 9e19 0a80
00000090: a7ce 0580 942d 0900 53f7 0a00 1d9f 0800
000000a0: 2859 0800 21f0 1080 d04b 0200 494f 0480
000000b0: 89c7 0880 48bc 0100 ae40 0680 4c77 0080
000000c0: ebd7 0700 29a4 0880 0c6f 0000 a398 0d00
000000d0: 707a 0480 5524 0400 6350 0980 ca76 0f80
000000e0: 053b 0a00 66ae 0400 57a7 1100 e889 1400
000000f0: dec4 0a80 ef62 0e00 aa7e 0480 9267 0380
00000100: 07f5 0c80 3bff 1600 2683 1980 cf97 1380
00000110: d7ff 0200 fe78 1980 2851 1b00 1bc6 1480
00000120: b150 1880 abdf 0380 e832 1c00 b213 1100
00000130: 182d 1180 2e8b 1600 9189 0400 6358 0800
00000140: 946f 0580 25c6 0900 fa1e 0380 396f 1400
00000150: 562f 0880 ce2b 1580 1595 0880 6593 0e80
00000160: 0824 1b80 6b02 0500 789a 0700 769f 1a00
00000170: 4f1d 1880 d7dd 1900 7d6f 0300 4174 0200
00000180: 1128 1b00 1567 0200 af54 1900 266d 1480
00000190: b998 0800 1121 1a80 2ec8 0780 5d13 0100
000001a0: f018 0980 6825 1200 28ae 0980 5a2f 0b80
000001b0: d35f 1a00 1854 1800 2df6 0180 c8ce 0480
000001c0: 6424 1180 35e6 0680 08b9 0b80 8cd6 1b80
000001d0: 59a2 1880 9946 0f00 29e5 0e00 d839 1780
000001e0: dba5 0e80 ff33 0e00 31ee 1000 5c69 0e80
000001f0: 782f 1880 3cff 0e00 5c20 0800 c870 1c80
00000200: f5cb 878f 462f 1f17 05c4 171a 361a 6d03
00000210: 25e4 0019 75a0 fa0f 415f 1212 6e96 bc98
00000220: 20c1 0695 6826 4196 ce7b 4a08 caca b193
00000230: 1c69 0819 473d b917 c212 1513 1a74 4213
00000240: 4836 2995 2e8b 1b96 62a9 0500 946f 3916
00000250: 70e5 9a91 a5fc 8f96 dfb6 4d94 4554 d697
00000260: ccc2 1e94 4dc9 0380 52da 9303 6776 0f18
00000270: 5074 251b 13bd 801a 57d5 b902 013c 0183
00000280: 3f37 3a1a 8e19 488d 8833 e795 2040 e794
00000290: b73f 1d17 fa2b 5f0d 3c0d 3b97 e3a8 0680
000002a0: 8768 0c0e 9c58 518a 242c 0480 46d2 5317
000002b0: c2d4 0380 7bc5 8e8d 3f3f 4693 4644 8098
000002c0: 7248 1502 f565 8519 5d4a 0200 5868 538f
000002d0: 599a 3380 7012 9914 2e01 1997 746c 6318
000002e0: 9205 378e 7cfb 1818 ec30 2015 9140 0680
000002f0: 62b8 320f d0fe 308b ce5d 868e 4986 1097

rnn.weight_ih_l1 f4 [192, 64]
-1.07769e-39 -2.81976e-40 -8.39191e-40 -1.26849e-39 -1.008813e-39 -7.8993173e-38 7.44584e-40 6.70181e-40
9.86888e-40 9.73832e-40 1.747685e-39 2.0043e-41 -1.1109444e-34 -8.8841e-41 -9.2723e-40 1.193999e-39
-1.6939398e-37 -4.52583e-40 8.9051e-40 -3.80045e-40 1.71773e-40 -6.2101e-41 -1.20322e-40 -1.668081e-38
6.4967e-41 1.327442e-39 -3.2478e-40 8.5782e-41 8.48001e-40 1.2578e-41 -3.11165e-40 1.253146e-39
-1.000118e-39 8.20769e-40 2.3695e-40 -4.21117e-40 5.3067e-40 1.20478e-39 1.31662e-40 -9.694e-40
1.14112e-40 1.052039e-39 -7.96148e-40 9.99437e-40 -3.0956e-40 5.30257e-40 -8.32727e-40 -5.9869e-41
1.789237e-39 5.87363e-40 -4.75615e-40 4.48449e-40 -2.21207e-39 -2.65476e-40 -2.78779e-40 2.45706e-40
2.040113e-39 -9.50663e-40 -1.90218e-40 1.886921e-39 7.51043e-40 1.110818e-39 -4.9963155e-37 -4.407881e-39
-4.63514e-40 -6.93692e-40 1.94869e-40 -8.92654e-40 -3.83293e-40 -7.67777e-40 8.40534e-40 -6.87043e-40
-7.25825e-40 -1.74055e-40 2.70893e-40 -3.52582e-40 -5.320027e-36 -5.84326e-40 -8.50117e-40 4.24563e-40
-2.44793e-39 -1.9414e-40 3.13448e-40 4.69977e-40 -7.39779e-40 3.40047e-40 7.6204e-40 -8.8905e-41
-8.00303e-40 9.1814e-41 -4.34358e-40 -9.9793e-41 7.26018e-40 7.87908e-40 3.94009e-40 8.9603e-40
5.77235e-40 8.836e-40 -7.73134e-40 -5.02828e-40 -3.48688e-40 7.90685e-40 -3.63516e-40 3.1019e-41
5.60643e-40 5.01155e-40 1.50804e-40 -3.87432e-40 -1.03536e-39 5.63252e-40 3.86891e-40 -6.88224e-40
-7.76675e-40 -2.6462e-41 -2.70085e-40 -3.07446e-40 -9.85217e-40 6.22956e-40 -4.54081e-40 6.30981e-40
-6.34432e-40 7.54966e-40 1.85737e-40 -3.98566e-40 8.72793e-40 -8.5173e-40 -7.478429e-39 6.77842e-40
-1.211462e-39 -1.081573e-39 -6.89203e-40 1.167521e-39 -1.20061e-39 -3.08912e-40 5.05432e-40 2.13405e-40
-2.46602e-40 1.216593e-39 -8.91896e-40 -8.80647e-40 -1.032024e-39 4.23932e-40 5.35545e-40 -1.09925e-40
-1.267413e-39 1.85543e-40 1.99754e-40 4.4495e-41 5.87483e-40 1.252989e-39 1.382941e-39 1.279778e-39
-1.242261e-39 7.82404e-40 1.660058e-39 -8.6055e-40 -5.14844e-40 -9.56985e-40 1.45055e-39 1.236567e-39
4.16138e-40 7.62462e-40 1.27276e-39 -1.10468e-39 -6.04708e-40 -1.79691e-40 -2.30766e-40 1.320207e-39
-1.132333e-39 -1.035504e-39 -1.151804e-39 5.67006e-40 -8.66884e-40 3.05721e-40 -1.241566e-39 -1.4613e-41
-4.5001e-40 -6.04226e-40 2.25711e-40 4.89151e-40 -1.18053e-39 -9.79415e-40 -9.81774e-40 2.89364e-40
1.56295e-40 5.62617e-40 -4.05104e-40 -1.765895e-39 -1.401562e-39 -1.118735e-39 -9.5774e-40 5.17731e-40
4.23229e-40 7.25815e-40 6.80719e-40 3.28055e-40 -6.76386e-40 3.2809066e-38 -1.34867e-40 4.53e-41
7.02772e-40 -8.1806e-41 -2.5177e-40 1.019377e-39 8.3548043e-35 4.49112e-40 -9.53072e-40 -9.5406e-41
3.092145e-38 -4.08417e-40 -1.172566e-39 -3.07595e-40 5.38314e-40 8.53022e-40 -9.5742e-40 9.0363e-40
-6.89344e-40 -1.34703e-39 1.646231e-39 -4.6637e-40 -9.34696e-40 -6.6486e-41 2.34307e-40 -8.91398e-40
5.09916e-40 -6.67356e-40 3.85682e-40 -1.000359e-39 7.39158e-40 -4.99098e-40 2.71017e-40 4.42569e-40
-6.06248e-40 -5.48706e-40 -8.33362e-40 5.62354e-40 1.105032e-39 1.107546e-39 3.46142e-40 8.56276e-40
-4.49197e-40 -1.27143e-40 4.11341e-40 -4.34494e-40 -2.1633e-41 6.48018e-40 8.58113e-40 -9.95882e-40
8.693e-41 -6.2243e-40 3.6602e-40 -1.085966e-39 -1.138188e-39 3.16916e-40 2.6330642e-38 1.009102e-39
00000000: 29bc 0b80 0912 0380 5323 0980 09d0 0d80
00000010: 29fc 0a80 350a d781 991b 0800 314c 0700
00000020: 0bbf 0a00 a69a 0a00 d607 1300 df37 0000
00000030: 7bab 1387 a7f7 0080 bd18 0a80 6200 0d00
00000040: 3091 6682 9eed 0480 61b2 0900 6923 0480
00000050: d5de 0100 1dad 0080 694f 0180 50a3 b580
00000060: 1ab5 0000 5e74 0e00 5b89 0380 20ef 0000
00000070: e23b 0900 1023 0000 6763 0380 43a5 0d00
00000080: ece3 0a80 f8ef 0800 8594 0200 e795 0480
00000090: 4bc7 0500 701e 0d00 056f 0100 4b8e 0a80
000000a0: 193e 0100 a874 0b00 56ab 0880 06e2 0a00
000000b0: ed5e 0380 24c6 0500 4e11 0980 e4a6 0080
000000c0: aa7b 1300 5465 0600 d22d 0580 18e2 0400
000000d0: 5a16 1880 0ae4 0280 1f09 0380 eeac 0200
000000e0: 0137 1600 105a 0a80 4012 0280 f88b 1400
000000f0: 9a2d 0800 8218 0c00 0c04 2a83 61ff 2f80
00000100: 170c 0580 bb8d 0780 371f 0200 5bb8 0980
00000110: 772c 0480 405c 0880 1127 0900 327b 0780
00000120: 4ee7 0780 32e5 0180 24f3 0200 dbd6 0380
00000130: f749 e284 dd5c 0680 c841 0980 829f 0400
00000140: d5a7 1a80 2f1d 0280 c469 0300 1b1e 0500
00000150: 340e 0880 eab3 0300 424c 0800 d5f7 0080
00000160: ebb6 0880 f1ff 0000 d0ba 0480 2f16 0180
00000170: d8e7 0700 5e94 0800 564a 0400 c4c1 0900
00000180: 1949 0600 1e9f 0900 2f6b 0880 ae79 0580
00000190: 00cc 0380 1c9c 0800 56f5 0380 7856 0000
000001a0: d81a 0600 0475 0500 61a4 0100 0138 0480
000001b0: 2a46 0b80 1e22 0600 7f36 0400 7d7e 0780
000001c0: 0e75 0880 c449 0080 e3f0 0280 0959 0380
000001d0: 62ba 0a80 8cc8 0600 cbf1 0480 ebde 0600
000001e0: 8ae8 0680 8a38 0800 c205 0200 0a57 0480
000001f0: fe80 0900 4746 0980 d16e 5180 8c61 0700
00000200: 1031 0d80 fcc6 0b80 3881 0780 93b6 0c00
00000210: d012 0d80 1f5d 0380 f080 0500 e352 0200
00000220: 6daf 0280 5e3f 0d00 3eb6 0980 e396 0980
00000230: dd3c 0b80 c09d 0400 e2d4 0500 6d32 0180
00000240: 08cd 0d80 3805 0200 d52c 0200 097c 0000
00000250: aa65 0600 d3a4 0d00 140f 0f00 80ef 0d00
00000260: eb86 0d80 0685 0800 9113 1200 dd5e 0980
00000270: 2d9b 0580 af6b 0a80 8bcb 0f00 0c77 0d00
00000280: 0688 0400 6f4d 0800 f0db 0d00 6607 0c80
00000290: ae95 0680 e8f4 0180 4883 0280 3360 0e00
000002a0: 7c54 0c80 9046 0b80 c38a 0c80 952c 0600
000002b0: 8570 0980 3a54 0300 fb84 0d80 bc28 0080
000002c0: 72e6 0480 5694 0680 3175 0200 8e53 0500
000002d0: d6da 0c80 36aa 0a80 c9b0 0a80 a126 0300
000002e0: b0b3 0100 5920 0600 4469 0480 993a 1380
000002f0: fc42 0f80 942e 0c80 ca6d 0a80 39a3 0500
00000300: ca9b 0400 47e7 0700 9169 0700 7c92 0300
00000310: 7d5d 0780 2aa1 3201 f477 0180 477e 0000
00000320: 0ba7 0700 0be4 0080 d5bd 0280 9c19 0b00
00000330: da1b de06 f1e3 0400 c760 0a80 f409 0180
00000340: 365a 2801 8072 0480 a3c4 0c80 7359 0380
00000350: 9adc 0500 e149 0900 e66c 0a80 f4d6 0900
00000360: 9c81 0780 f9aa 0e80 06ed 1100 0d14 0580
00000370: 8d2d 0a80 56b9 0080 278d 0200 dbb4 0980
00000380: 708d 0500 5144 0780 2033 0400 98e4 0a80
00000390: 790c 0800 486f 0580 7cf3 0200 b4d1 0400
000003a0: f999 0680 92f9 0580 1313 0980 9d1f 0600
000003b0: 6108 0c00 630f 0c00 e7c4 0300 f352 0900
000003c0: 2ee4 0480 6c62 0180 a77a 0400 31bb 0480
000003d0: 4e3c 0080 690e 0700 1258 0900 1dd8 0a80
000003e0: 53f2 0000 15c7 0680 51fc 0300 3bd3 0b80
000003f0: ce64 0c80 6f73 0300 8f5b 0f01 f7fc 0a00

rnn.weight_hh_l1 f4 [192, 64]
-1.2785884e-26 -3.1807856e-27 7.7902874e-31 -5.640486e-27 -2.0322854e-27 3.2056378e-27 -2.6331983e-28 -2.844615e-33
-1.2837205e-27 2.1032487e-33 -4.9692143e-27 3.796402e-26 -1.1428814e-26 6.952825e-28 4.47535e-27 7.3846404e-28
1.5341178e-27 -1.9872803e-27 1.7012072e-27 3.956926e-33 -3.695641e-26 2.3242448e-29 -6.9194595e-27 2.4304862e-32
-8.942552e-30 9.9220544e-27 1.2103449e-27 -3.9924602e-26 1.92154e-26 -3.9950166e-27 -3.6950038e-30 1.1160853e-30
-2.025614e-27 -1.4996974e-27 1.4652406e-26 -2.7727742e-27 -3.1339376e-26 3.6100925e-27 -3.2741265e-26 1.4624903e-32
7.4739443e-26 1.8004548e-28 2.1300439e-26 -8.6605295e-27 2.806672e-27 9.00532e-27 -6.2314203e-27 -2.2742861e-26
-1.4098351e-26 3.250968e-26 -1.4927065e-26 4.385808e-27 -4.689091e-27 -7.721414e-27 -1.6485054e-26 2.421611e-30
-5.339747e-26 1.080517e-26 1.8957633e-28 2.4113042e-27 -3.9701363e-28 6.71915e-27 -9.918298e-27 -7.2098314e-28
-9.8561337e-29 -7.039882e-30 1.59598e-32 5.8931474e-30 2.3819887e-29 -1.5135358e-29 4.455937e-30 -1.8429663e-33
-2.566373e-29 -2.352227e-34 2.3631439e-29 7.066138e-29 -2.9031064e-28 1.1358892e-28 1.6362696e-28 8.619748e-30
1.5784571e-29 -4.4780733e-29 -1.5917748e-29 5.2087537e-34 6.4768456e-28 -9.092905e-29 3.0776775e-28 4.3353653e-33
-7.5694025e-32 1.2618859e-28 2.6466852e-29 3.0711182e-28 -4.4152465e-29 -7.281954e-29 -4.7450005e-31 -2.0958583e-33
7.440035e-29 -9.485253e-29 2.4806567e-28 -1.3817927e-28 -1.4970811e-28 -8.119011e-30 -9.726942e-28 -4.4347593e-33
1.3062173e-27 4.837713e-29 -5.2317273e-29 -3.5153797e-28 -7.6153136e-29 2.6619819e-28 -2.3415057e-28 -5.3861337e-28
-6.0511335e-29 -1.0835252e-28 -3.5203433e-28 -4.1344534e-29 -5.974186e-29 1.2301061e-28 1.2305004e-30 1.8208795e-31
3.0618237e-28 7.043857e-28 -2.468147e-30 -9.5103045e-30 -8.274956e-30 4.162517e-29 3.2009269e-28 -1.5303459e-29
3.1692972e-35 -4.0324806e-35 -6.941639e-39 4.7293346e-35 -1.4168103e-35 2.1785236e-35 -1.1544668e-36 1.868004e-39
-3.5688196e-36 1.285958e-39 3.9434546e-36 -4.7052063e-34 -1.4758204e-35 -2.0028927e-35 5.6165786e-35 -2.2478194e-36
7.388272e-36 -2.117327e-35 2.889421e-35 -5.84412e-40 1.1902305e-34 -1.017907e-35 1.8337123e-34 -1.446467e-39
4.8488744e-38 -1.2711171e-34 1.9018095e-36 6.895954e-34 -5.358311e-35 -2.3468123e-35 7.1179376e-38 -4.131545e-39
1.3107616e-35 -3.8645298e-35 -3.2466293e-35 -9.767603e-35 1.2278422e-34 -5.369404e-36 7.2195104e-35 6.0368e-40
-3.4073368e-34 -7.358229e-36 -4.1109198e-35 -1.3107528e-34 -2.3277773e-35 6.103736e-35 -1.1214982e-34 1.1397799e-34
3.5801655e-35 -2.0469311e-35 3.8385e-35 4.9824803e-35 4.1037283e-36 2.9497636e-35 4.4692376e-35 1.0028065e-37
-2.6232128e-36 1.6692291e-34 4.3039773e-37 2.6245793e-35 -1.65921e-36 9.48462e-35 8.093319e-35 -2.3203951e-36
-6.2621185e-27 -1.1563359e-27 1.2122293e-30 -1.0862379e-26 -1.2661363e-27 -1.3815841e-27 -1.1774306e-28 3.056981e-32
-2.0521429e-27 7.610434e-33 -6.594751e-28 2.6516515e-26 -4.064075e-27 1.09771135e-26 -5.796239e-27 4.263273e-28
-1.929873e-27 3.2184783e-27 4.0524128e-27 1.6000603e-32 -1.3508507e-26 1.746256e-27 -1.07445875e-26 3.7125443e-31
-5.904025e-30 4.167806e-27 3.2587869e-28 -2.4047636e-26 1.2473726e-26 2.4184131e-27 -1.478231e-29 5.1307775e-31
-4.4781923e-27 1.227872e-27 7.338364e-27 1.5532531e-26 -1.590026e-26 1.6711799e-27 -1.545661e-26 -1.4793607e-31
3.8474164e-26 -1.4274934e-27 3.5840085e-27 1.01968785e-26 1.0485769e-27 -7.928038e-27 2.2096881e-26 -1.8121061e-26
-1.1915203e-26 4.949956e-27 -1.4397832e-26 7.493235e-27 -5.577221e-27 -3.7835075e-27 2.9829735e-27 4.2812783e-31
1.6993171e-27 3.7029115e-27 -5.7252216e-29 -2.3025055e-27 3.037044e-29 5.31601e-27 -1.2787874e-26 5.6098115e-30
00000000: 2240 7d94 ff01 7c93 2dcf 7c0d 5371 df93
00000010: a503 2193 0ffa 7d13 16e6 a691 4552 6c89
00000020: e469 cb92 27bb 2e09 d2d9 c493 1dfd 3b15
00000030: f95e 6294 0558 5c12 7149 b113 5207 6a12
00000040: 3617 f312 d572 1d93 95c8 0613 415d a409
00000050: d1ff 3695 d8b4 eb0f d40d 0994 6865 fc0a
00000060: 6260 358f cb86 4414 6cc9 bf12 72b2 4595
00000070: d44c be14 4842 9e93 1de3 958e 5f18 b50d
00000080: 557c 2093 f4a2 ed92 431c 9114 8bae 5b93
00000090: 612f 1b95 b002 8f13 7c20 2295 a9df 970a
000000a0: c00b b915 193c 6411 07f3 d214 1a8a 2b94
000000b0: 125e 5e13 665e 3214 1cda f693 013c e194
000000c0: 919f 8b94 eafa 2015 9bd4 9394 61bd ad13
000000d0: 08c1 b993 38f0 1894 9442 a394 e576 440e
000000e0: ab34 8495 b904 5614 0951 7011 0f0b 3f13
000000f0: 25a3 fb91 2316 0514 bf73 4494 1a7d 6492
00000100: f7e1 f990 28c9 0e8f 6dbc a50a f10d ef0e
00000110: f68f f10f a37d 998f 18c1 b40e 8f1b 1989
00000120: 6d21 0290 1255 9c87 b9a6 ef0f dc25 b310
00000130: 9801 b891 b6fd 0f11 fc6b 4f11 4ad4 2e0f
00000140: 1713 a00f b710 6390 d66c a18f 2d17 2d08
00000150: 6a42 4d12 5488 e690 2c12 c311 8315 b409
00000160: 4f83 c48b 8af6 1f11 f033 0610 bea7 c211
00000170: 2de1 5f90 959e b890 ecfb 198d fa1d 2e89
00000180: 97a0 bc10 d07a f090 f53a 9d11 bd29 2f91
00000190: 0fc7 3d91 51ac 248f 2a21 9a92 7336 b889
000001a0: 78fa ce12 1b4d 7510 daa3 8490 4cd0 de91
000001b0: 3612 c190 20b9 a811 1a69 9491 82b1 2a92
000001c0: 1a6a 9990 675a 0991 d620 df91 46a4 5190
000001d0: af76 9790 3aef 1b11 fda8 c70d 1a5d 6c0c
000001e0: ee10 c211 8f3a 5f12 683d 488e 53e4 408f
000001f0: 07d6 278f 8f10 5310 02e2 ca11 0d32 9b8f
00000200: 3d82 2806 4867 5686 7796 4b80 5e74 7b06
00000210: 3fa9 9685 0ea9 e705 1f6c c483 3c57 1400
00000220: 01cd 9784 ba00 0e00 6bbc a704 785b 1c88
00000230: a7ef 9c85 edfb d485 7450 9506 2c39 3f84
00000240: 9421 1d05 2027 e185 c3a0 1906 1a5d 0680
00000250: 7235 1e07 217c 5885 ffbd 7307 29c0 0f80
00000260: b9ff 8301 e0f5 2887 bec9 2104 4a28 6508
00000270: c672 8e86 4f8e f985 c9c4 c101 11fd 2c80
00000280: 5362 8b05 4179 4d86 d49e 2c86 6ed5 0187
00000290: 4e35 2307 a263 e484 71ed bf06 d092 0600
000002a0: d574 e287 027e 1c85 f192 5a86 9b3a 2e87
000002b0: 2088 f785 e043 a206 9b12 1587 b380 1707
000002c0: b05a 3e06 c4aa d985 f416 4c06 0175 8406
000002d0: a58d ae04 1ad6 1c06 1ca0 6d06 b57e 0802
000002e0: 8428 5f84 ece0 5d07 ee74 1203 ec8b 0b06
000002f0: 6526 0d84 fb24 fc06 4628 d706 bb65 4584
00000300: 6d11 f893 8f3a b792 09b2 c40d ce26 5794
00000310: 97a0 c892 b6eb da92 cf41 1591 3fba 1e0b
00000320: 6796 2293 0210 1e0a fafe 5092 ad4d 0315
00000330: 9efe a093 946c 5914 d99c e593 c81b 0712
00000340: 7ae6 1893 7ffe 7e13 5988 a013 e628 a60a
00000350: 22c8 8594 485a 0a13 88d1 5494 39f5 f00c
00000360: e77e ef8e 931a a513 d78c ce11 0028 ee94
00000370: 4e11 7714 3f9b 3f13 12e9 958f d580 260d
00000380: 4466 b193 6890 c212 ed59 1114 a5d3 9914
00000390: f377 9d94 8e67 0413 2913 9994 3108 408c
000003a0: cc83 3e15 0332 e292 2afa 8d13 51f8 4914
000003b0: 5527 a612 ee07 1d94 40d6 da14 5976 b394
000003c0: 4201 6c94 8416 c413 d796 8e94 376b 1414
000003d0: beef dc93 53e1 9593 e455 6c13 78ef 0a0d
000003e0: 3fa2 0613 fcaf 9213 d026 9190 5c6c 3693
000003f0: 16ff 1910 bf96 d213 394a 7d94 9d8f e30e

rnn.bias_ih_l1 f4 [192]
2.3208616e-18 8.968832e-20 1.9809168e-26 1.3483524e-18 4.4624766e-20 4.01107e-21 3.050091e-22 6.8244495e-31
4.1361376e-20 5.5735424e-32 1.2923442e-20 2.1887105e-17 1.3060752e-18 6.994645e-18 -4.571489e-19 4.181968e-21
-3.9200086e-20 -4.6140425e-20 -1.1674212e-21 3.0531583e-31 2.8380426e-18 2.9608562e-20 -8.055244e-18 -7.268367e-28
-1.8539506e-33 4.879507e-18 5.88074e-22 1.0709837e-16 -1.1606758e-18 1.1512978e-19 2.0297525e-24 6.3753493e-27
3.175999e-19 -2.1719522e-19 2.595104e-18 3.8726334e-18 -7.5956584e-19 -1.5342863e-20 8.61109e-18 -4.0574755e-28
1.0061294e-17 1.1475946e-19 3.2815126e-19 1.6230142e-18 2.19817e-19 -1.0240874e-18 1.5471249e-17 2.6769746e-18
-1.4829468e-18 1.4710528e-18 -1.8190957e-18 1.2141084e-18 5.0373174e-19 -6.581241e-19 -3.1062716e-21 7.013623e-26
3.9288432e-19 2.0521704e-18 -3.903126e-23 8.4292114e-19 6.239949e-28 1.6863195e-19 3.922867e-18 5.2482606e-22
-5.7649908e-24 -1.6171772e-26 6.889459e-32 3.263642e-24 1.3427357e-25 -4.3977914e-26 1.5563675e-27 -1.7733526e-35
-1.0839793e-25 -7.4497824e-37 -2.021679e-26 2.9617483e-23 5.22632e-25 6.543433e-24 1.6493797e-24 -2.3152627e-26
-6.424417e-25 -2.3598094e-25 1.2871375e-25 3.3763998e-36 -1.6949519e-24 -2.1059108e-25 2.888514e-23 1.9684402e-33
2.6286502e-35 -1.5138488e-23 -3.932992e-27 -2.7911265e-22 2.6225056e-24 6.4993826e-25 4.0158803e-30 1.9667936e-33
-8.1321856e-25 -1.1114682e-24 -6.740719e-24 -1.655491e-23 2.2728952e-24 1.01670285e-25 -3.5606865e-23 3.828619e-34
9.968203e-23 1.6685897e-25 1.4205454e-24 -2.753517e-24 6.225702e-25 -7.464874e-24 -1.599861e-23 -4.2456314e-23
-3.547973e-24 2.4020558e-24 2.0668993e-23 -4.6615313e-24 -1.6072651e-24 1.5867895e-24 -2.063536e-25 -4.1545097e-31
6.3619534e-24 7.461348e-24 -8.552257e-28 6.702897e-25 1.6331057e-29 -1.4361558e-24 -4.8144645e-23 8.0080945e-27
2.5618012e-09 5.191365e-10 -2.7944875e-13 3.4570113e-09 4.6440418e-10 -5.5625765e-10 -9.359294e-11 -1.0521451e-14
1.4155821e-10 -1.4777672e-15 2.8391547e-10 -1.6735392e-08 1.0220214e-09 -4.002588e-09 2.2089164e-09 -2.0688823e-10
7.5560846e-10 -1.4537426e-09 -7.730499e-10 -3.0918405e-15 6.214911e-09 -7.341905e-10 8.003964e-09 -5.995337e-14
2.6230565e-12 -4.958345e-09 -9.135316e-12 2.7032888e-08 -3.1077823e-09 -1.174624e-09 2.6657977e-12 -1.565544e-13
1.3452632e-09 -1.6512327e-09 -2.533963e-09 -5.7691185e-09 4.158675e-09 -4.420153e-10 6.706964e-09 3.8486257e-14
-1.584388e-08 8.4383805e-10 -1.638074e-09 -4.7039306e-09 -1.3367719e-09 3.898501e-09 -6.9569235e-09 7.8410745e-09
2.572449e-09 -2.7424034e-09 3.5504533e-09 -3.3472978e-09 1.1686547e-09 1.6743225e-09 3.1651142e-09 -2.505286e-12
3.222998e-09 3.90037e-09 2.919782e-11 1.443913e-09 -1.2254606e-10 -2.274301e-09 6.4868377e-09 -2.0492787e-10
00000000: d63f 2b22 43c5 d31f 352e c414 50fb c621
00000010: 08bc 521f b088 971d df5d b81b 4f77 5d0d
00000020: d652 431f 8bb2 900b ee1d 741e 77df c923
00000030: 20be c021 4707 0123 32ed 06a1 83fd 9d1d
00000040: ff1d 399f 5ae4 599f 6c6a b09c 4b29 c60c
00000050: 1c69 5122 8ed2 0b1f d097 14a3 0058 6692
00000060: 2b05 1a89 a405 b422 06bc 311c b8f3 f624
00000070: 1849 aba1 d7eb 0720 640b 1d18 b98d fc13
00000080: 577a bb20 9d35 80a0 217c 3f22 fddf 8e22
00000090: 2c2f 60a1 c4e8 909e b9d8 1e23 2796 0092
000000a0: 1e99 3923 eb7b 0720 d1b4 c120 be83 ef21
000000b0: cec1 8120 ee20 97a1 74b2 8e23 9f86 4522
000000c0: 25d8 daa1 ce16 d921 bf39 06a2 b82b b321
000000d0: e5ac 1421 733e 42a1 08b4 6a9d 1ea6 ad15
000000e0: 00eb e720 676c 1722 5cbe 3c9a 52c9 7821
000000f0: 7bc0 4512 e115 4720 6eba 9022 739e 1e1c
00000100: b405 df98 5028 a094 4fdc b20b 1783 7c18
00000110: fe38 2616 a1c4 5995 c49d f612 4093 bc85
00000120: ad30 0696 c280 7d83 a737 c894 ab38 0f1a
00000130: 2cbf 2117 0623 fd18 a93a ff17 e24a e594
00000140: 7ad3 4697 ac10 9296 0457 1f16 bd9d 8f04
00000150: fb23 0398 7d59 8296 12ae 0b1a 1888 2309
00000160: 55c3 0b06 1569 9299 47cd 9b93 97b6 a89b
00000170: 13e8 4a18 6a25 4917 49e7 a20e 1365 2309
00000180: d0ad 7b97 cbfd ab97 6c62 0299 f91b a099
00000190: 54db 2f18 33b9 fb15 2a2f 2c9a 9474 fe07
000001a0: 3004 f11a b88f 4e16 9ad1 db17 060b 5598
000001b0: 18ad 4017 4464 1099 a4ba 9a99 5f4e 4d9a
000001c0: 6c41 8998 9ed9 3918 f3e5 c719 9255 b498
000001d0: 55b6 f897 358b f517 1174 7f96 51d2 068d
000001e0: bc1d f618 ce52 1019 1384 8792 d271 4f17
000001f0: d99d a50f fe3b de97 2fd0 689a dd9d 1e14
00000200: af0b 3031 fcb2 0e30 cf50 9daa 6390 6d31
00000210: 144f ff2f 27e7 18b0 24d0 cdae a189 3da8
00000220: 18a5 1b2f fdf7 d4a6 8d15 9c2f 84c1 8fb2
00000230: 2e77 8c30 2387 89b1 abcb 1731 dc79 63af
00000240: 38b3 4f30 05cd c7b0 8d7e 54b0 64ca 5ea7
00000250: ef8a d531 10d0 49b0 ce81 0932 c400 87a9
00000260: c994 382c 105e aab1 ceb5 20ad f335 e832
00000270: af90 55b1 6870 a1b0 be96 3b2c bc43 30aa
00000280: 3ee4 b830 96f1 e2b0 f321 2eb1 b439 c6b1
00000290: 18e4 8e31 2000 f3af 1473 e631 a253 2d29
000002a0: 1019 88b2 d3f3 6730 9b22 e1b0 36a0 a1b1
000002b0: 7bb9 b7b0 94f3 8531 bf09 efb1 69b5 0632
000002c0: 00c7 3031 df74 3cb1 3cfc 7331 4906 66b1
000002d0: 629e a030 fc1d e630 4781 5931 384b 30ac
000002e0: 957b 5d31 0404 8631 d369 002e 2c73 c630
000002f0: a6bd 06af ed49 1cb1 d4e2 de31 1152 61af
