1223-code-DL/model/seq2seq_TCN_state_dict.pt (torch, 312939 bytes, 97 tensors)

encoder.network.0.conv1.bias f4 [24]
000000 96 60 16 be f3 69 39 3e 7b 62 bf 3e 1d 44 91 3d
       -0.14685282 0.18106823 0.37379822 0.0709307
000010 f8 f5 fb bd 1f 0a 9e be 59 84 78 bd 9b 78 28 bd
       -0.12302774 -0.30867097 -0.06067309 -0.041130643
000020 c8 fc 11 be b0 2d d6 bc 6c 73 07 bd fd de 97 bd
       -0.14256585 -0.026144832 -0.03306906 -0.074155785
000030 37 3d 88 3e 50 1a 04 be 6b e4 94 3d 5e 42 73 3e
       0.26609203 -0.12900662 0.0727013 0.23755786
000040 fc 48 07 be 05 8e 53 be b3 6f 22 bd ba f2 e3 3d
       -0.13211435 -0.20659645 -0.039657306 0.11130281
000050 50 db 1a 3e 5f 01 21 3e 94 8b 4f be d4 4f 57 3e
       0.15122724 0.1572318 -0.20268089 0.21026546

encoder.network.0.conv1.weight_g f4 [24, 1, 1]
000000 d0 f7 0f 3f b2 37 91 3f b5 a4 cb 3f 8f 75 1a 3f
       0.56237507 1.1345122 1.590964 0.6033563
000010 59 41 19 3f 85 f5 da 3f b2 80 6b 3f 2a 8d 8b 3f
       0.5986534 1.7106177 0.9199325 1.0902455
000020 13 11 1a 3f 4a 5d 09 3f cb b8 1a 3f 24 86 20 3f
       0.60182303 0.5365797 0.6043822 0.6270468
000030 5c ed a1 3f 62 fc fb 3e e7 ad 8d 3f 7e b7 ad 3f
       1.2650561 0.4921599 1.1068696 1.3571622
000040 2d e3 0e 3f 90 a2 1d 3f c4 b1 b2 3f 6c 2c 04 40
       0.5581539 0.61576176 1.39605 2.0652113
000050 d8 cc c2 3f e2 43 39 3f 1e 10 6f 3f 5c 5f 82 3f
       1.5218763 0.72369206 0.9338397 1.0185351

encoder.network.0.conv1.weight_v f4 [24, 16, 2]
000000 7a d6 e0 3d 42 50 ef 3d 42 b6 a1 bd 2f 0c fe 3d
       0.10978408 0.1168523 -0.07896091 0.124046676
000010 0e 27 9b bd f5 4b 09 bb 1a 4e f5 bd 22 9e 92 3d
       -0.075758085 -0.0020949815 -0.11977787 0.07159068
000020 b3 ea 0a 3e fc 7e 2b be eb 99 ec 3d c1 bc 41 bb
       0.13566093 -0.1674766 0.11552795 -0.002956197
000030 1e 84 bd 3d 96 d1 63 bc 83 84 8a 3d 08 60 38 bd
       0.09253715 -0.01390495 0.06763556 -0.045013458
000040 f8 03 c5 3d 96 98 59 bc bf c0 f6 bd 6f f9 c9 3b
       0.096198976 -0.013281008 -0.12048482 0.006163768
000050 2a 62 e7 bd 78 7b 50 bd 9a c2 e2 bd 01 4d 9e 3d
       -0.1129802 -0.050899 -0.110722736 0.07729531
000060 55 88 36 be 9c aa f6 bd 24 3f aa bd 9e 21 0f be
       -0.17825444 -0.1204426 -0.08312824 -0.13977668
000070 17 a0 b7 bc a9 fb 59 be ce c8 01 3e ed 7d 3b be
       -0.022415204 -0.21287407 0.12674257 -0.18309756
000080 9d 51 22 3e ca 88 70 3d f1 0b 17 be 70 56 dd bc
       0.15851445 0.058724202 -0.14750649 -0.027018756
000090 85 a0 23 bd 97 95 a4 3c c3 5d 39 3d e5 85 84 bb
       -0.039948005 0.020090861 0.045255434 -0.004044282
0000a0 c9 fd 29 bd a2 f6 95 bd 72 11 c1 3e 0a 71 f7 3e
       -0.041501794 -0.07322432 0.37708622 0.4832843
0000b0 9c 77 33 bd 9f 79 29 be 4a 01 02 3f 23 2f e7 3e
       -0.04381524 -0.16550301 0.50783217 0.4515315
0000c0 c4 a0 c5 bd f1 f6 4c be ff 73 20 be eb ee 8a bd
       -0.09649804 -0.20016076 -0.15669249 -0.06783851
0000d0 75 bd 6a bc 12 0f 94 3e 62 32 d2 bd 9c 43 94 bd
       -0.014327397 0.28917748 -0.10263516 -0.07239458
0000e0 d2 b7 d9 bd 5b 6b 00 be c4 37 bf bd 6b 5a 87 be
       -0.10630764 -0.12540953 -0.09336808 -0.2643617
0000f0 ae 5c 4f bd 97 79 21 be da fe 8e 3d d4 c7 1c 3c
       -0.050625496 -0.15769039 0.06982203 0.009569127
000100 04 e3 b1 3b d9 2a 09 3d 86 60 f5 3c 09 8a 00 be
       0.0054286737 0.03348813 0.029953253 -0.12552656
000110 8e ee 96 be 59 b5 b3 be 4b ea 9a 3e 5e 90 48 3e
       -0.29478878 -0.35099295 0.30256876 0.19586322
000120 97 d6 2f 3e 1e ee 64 3e 50 56 88 be e7 3b 3f be
       0.17171703 0.2235646 -0.2662835 -0.18675195
000130 15 40 0c be fb 12 8b 3d 2e 34 06 be 27 bc 83 bc
       -0.1369632 0.067907296 -0.13105842 -0.016080929
000140 fc 16 35 be 62 04 30 be 3b 25 03 be de 1f 70 be
       -0.17684549 -0.17189172 -0.12807171 -0.23449656
000150 46 c4 98 3e c2 3b 70 3c e3 e1 6b bd 24 b2 50 be
       0.29837245 0.014662685 -0.05758847 -0.20380455
000160 25 7c 47 be b1 09 80 bd 1e 00 e2 be 11 48 e6 be
       -0.19480951 -0.062518485 -0.44140714 -0.44976857
000170 09 7e 89 3e 44 41 b7 3e c0 aa cb bd 20 ad af bd
       0.2685397 0.3579198 -0.09944677 -0.08577943
000180 a5 c0 25 3e c5 53 74 bd 40 59 80 bd 41 27 2f be
       0.1618677 -0.0596502 -0.06267023 -0.17104818
000190 2a 54 cf bd 8e e0 34 3d 83 25 bf bc 3f 66 03 be
       -0.10123475 0.044159465 -0.023333317 -0.12831973
0001a0 2c e0 87 3b 4a 4d f7 bd 82 93 19 be 75 5c c7 bd
       0.0041465964 -0.120752886 -0.14997676 -0.09734432
0001b0 29 6e 1e be 18 86 e6 bd d3 f2 34 3e 94 c2 08 3d
       -0.1547171 -0.11256045 0.17670755 0.03338869
0001c0 a7 21 5f 3d 7a d5 28 be 0b c7 ed bd 6b 03 71 bd
       0.054475453 -0.16487685 -0.1161023 -0.05884115
0001d0 16 73 e2 3c 64 48 1f be 22 fe 9b bd bd bd d8 bd
       0.027642768 -0.15554959 -0.07616831 -0.10583065
0001e0 39 6c 00 3a 3b b7 86 bd b4 b3 48 bc 02 54 f5 bd
       0.0004898939 -0.06577917 -0.012249876 -0.11978914
0001f0 68 80 f8 bd c9 36 d3 bd 8d d9 77 bd 07 e0 0e be
       -0.121338665 -0.10313184 -0.060510207 -0.13952647
000200 f4 44 d6 3d 28 53 82 bd 98 fe 16 3e b1 70 40 3d
       0.104623705 -0.06363517 0.14745557 0.04698247
000210 41 4d 46 be 6d a0 9d 3d 2f ed 8c bd 94 1b b4 bd
       -0.19365408 0.076966144 -0.06881177 -0.087943226
000220 72 e2 21 be 67 c2 4a be df 2e 2a 3d 5d 73 53 bd
       -0.15809038 -0.19800721 0.041548606 -0.05162369
000230 9a 8e 62 3d 08 75 23 be 08 ef d5 3d 9f 8d 1e be
       0.055311777 -0.15962613 0.10445982 -0.15483712
000240 ce 8e 85 bd c1 fa 1c 3a 2a af 7e 3d 3a 08 e9 3d
       -0.065213785 0.0005988293 0.06217877 0.11378522
000250 a9 1d 20 3e 92 2f 2b be 14 8c 0a 3c 8c 08 e0 bd
       0.15636314 -0.16717365 0.008456249 -0.1093913
000260 11 22 5e bd 5a e0 28 be 02 54 12 3e 3b fd 1d be
       -0.054231707 -0.16491833 0.14289859 -0.15428631
000270 ff de 96 3d 3e 37 3a 3d 83 2c 09 3d 5d 3f fa bd
       0.07366752 0.04546284 0.033489715 -0.12219117
000280 a8 2b d0 3e 2a 2b 95 3e 5f 32 53 bd db e1 cc bd
       0.40658307 0.29134494 -0.05156171 -0.10004016
000290 a9 9e 25 3f 72 25 04 3f 2a 41 cb 3d 26 7e 93 3e
       0.6469522 0.51619637 0.099245384 0.2880718
0002a0 e6 eb 64 3d e3 db c1 3d 91 51 df 3d 82 80 81 3d
       0.055889033 0.09465768 0.109042294 0.06323339
0002b0 1d 14 88 3c 64 fb 0a bc 79 12 11 bf 0d 4c 10 bf
       0.016611153 -0.008482788 -0.5666881 -0.56366044
0002c0 8b 3e 4e be 3f 1f 01 be 3a d4 4d bd 09 15 49 be
       -0.20141046 -0.12609576 -0.050251223 -0.1963693
0002d0 a4 0e 0f 3e a0 e6 84 3e 03 37 08 be cd b5 2f be
       0.13970429 0.25957203 -0.13302235 -0.17159195
0002e0 10 58 c2 ba f2 e7 db bb 44 e8 63 be 7d 0a 49 be
       -0.001482727 -0.0067109996 -0.22256571 -0.19632907
0002f0 db 71 b0 be f8 18 c7 be 54 cb 52 be 7e 27 1c be
       -0.34461865 -0.38886237 -0.20585376 -0.1524944
000300 04 4d 8f bd 99 8b 8e bd 6a e6 ae be 04 e7 bf be
       -0.069971114 -0.0696022 -0.34160167 -0.37480938
000310 0e 48 0a be 86 c9 16 be c3 7f 98 3c da 45 b7 3b
       -0.13504049 -0.14725313 0.018615609 0.0055930438
000320 a4 f7 81 3d c9 0c a0 3d 8a ef 61 bd d7 25 f2 bd
       0.06346062 0.078149386 -0.055160083 -0.118236236
000330 5d 00 a3 be 1a 63 c4 be e3 49 69 bc b2 61 5c bd
       -0.31836215 -0.38356858 -0.014238807 -0.053804107
000340 15 d9 a6 3d db 8a 08 3e d6 97 7a 3e ec 9d 50 3e
       0.08146874 0.13334219 0.24471983 0.20372742
000350 a3 fe bb 3c 24 30 2e bb 37 26 dc 3d 05 b6 5c 3e
       0.022948569 -0.0026578987 0.107494764 0.2155381
000360 be f3 1a 3e 2a ca 7d 3d 23 88 52 be c7 2f a7 be
       0.15132043 0.061960377 -0.20559745 -0.3265364
000370 e2 02 8d 3d 56 44 7b 3e 3e 75 9c ba 85 48 d2 3b
       0.068853155 0.24537787 -0.0011936796 0.0064173364
000380 81 be 8a bb c1 ad 6a 3e d2 5a aa 3f fd a0 a1 3f
       -0.0042341356 0.22917844 1.3308966 1.2627255
000390 22 77 78 3d 39 0b 1a 3d c2 a7 81 bd b6 91 df 3d
       0.06066049 0.03760836 -0.063308254 0.10916464
0003a0 76 3d 41 3d 8d 83 ae 3d 24 4f 72 3e 37 49 91 3e
       0.047177754 0.08521185 0.23663002 0.2837617
0003b0 01 8b 5a 3f 76 2c f0 3e 5f 78 6a 3d f8 d1 1d 3d
       0.85368353 0.4690892 0.0572437 0.03853032
0003c0 8a f4 7a 3d 04 71 02 bd 88 df c3 3b 37 ba ef bb
       0.061268367 -0.03184606 0.0059775747 -0.0073158997
0003d0 95 4d 88 bd 11 01 dc bd 33 f7 70 bd e8 21 8d 3d
       -0.066554226 -0.10742391 -0.058829498 0.06891233
0003e0 69 77 99 bc 23 53 c5 3d 4c f0 19 bb b5 74 b7 bc
       -0.018733697 0.09634998 -0.0023489175 -0.022394517
0003f0 d5 61 48 3c ea b9 0d bd fc 62 fd bb 35 2e a4 bd
       0.012230356 -0.03460113 -0.007732747 -0.08016626

encoder.network.0.conv2.bias f4 [24]
000000 67 5a 2c be 99 3f 8c 3c 8f 7e 0c be 9a 46 24 be
       -0.16831361 0.01712017 -0.13720153 -0.16042557
000010 46 b3 68 3d 8b 96 6a be 5e 46 34 be ed fc ae bd
       0.056811593 -0.2290899 -0.17604968 -0.085443355
000020 71 cd 97 bd 7e 53 47 bd c3 91 e5 bd 8d 96 38 3c
       -0.07412232 -0.04866361 -0.112094425 0.011266363
000030 aa 9b 31 be 5f 76 59 bd 3a 4d d1 bc 14 80 c4 3b
       -0.17344537 -0.053091403 -0.02554952 0.0059967134
000040 ea fc 95 bc 88 71 8d 3c 4a a2 77 bd b4 eb 54 be
       -0.018309075 0.01726605 -0.060457505 -0.20793039
000050 ed 64 19 be 96 28 12 be 9d df 1f be 8a 95 ec 3d
       -0.14979906 -0.14273295 -0.15612645 0.1155196

encoder.network.0.conv2.weight_g f4 [24, 1, 1]
000000 ca f8 58 3f e8 b7 3c 3f a5 34 09 3f 5c 29 03 3f
       0.8475462 0.7371812 0.53595954 0.51234984
000010 2b de 3b 3f b9 7c 23 3f 56 69 06 3f b4 6f 0b 3f
       0.73385876 0.63862187 0.5250448 0.5446732
000020 58 06 0b 3f 80 07 0a 3f 69 81 0c 3f d4 f8 07 3f
       0.54306555 0.53917694 0.54884964 0.53114057
000030 a8 70 07 3f 86 de 3e 3f 5e 11 3c 3f 41 ce 65 3f
       0.52906275 0.74558294 0.73464 0.89767843
000040 01 0f da 3e 61 da 7a 3f dd 6d 08 3f ae 01 32 3f
       0.42589572 0.9798947 0.5329264 0.69533813
000050 7b 42 11 3f 1a b7 fb 3e 89 68 09 3f 94 d4 18 3f
       0.56742066 0.49163133 0.53675133 0.5969937

encoder.network.0.conv2.weight_v f4 [24, 24, 2]
000000 43 e5 e7 08 b0 91 38 24 0b 7e 72 be 7e 52 65 be
       1.3956706e-33 4.0022042e-17 -0.23680894 -0.2239475
000010 2d 0c cc bd 24 4a 01 be 90 49 4e 14 38 d6 ab 92
       -0.0996326 -0.12625939 1.041485e-26 -1.0844426e-27
000020 b5 9e 7f b7 5d 9b 77 b8 90 26 26 be 9c e5 22 be
       -1.5236136e-05 -5.9034082e-05 -0.16225648 -0.15907902
000030 67 52 65 bd f2 51 a5 bd 92 a8 1d 3e 3b 75 94 3e
       -0.055986788 -0.080722705 0.15396336 0.2899569
000040 33 9f 94 8f 5e 66 3b 0f 09 07 05 b8 0c 40 bf 35
       -1.4655248e-29 9.239527e-30 -3.1716223e-05 1.4249249e-06
000050 26 4d 78 89 6c 31 d4 0c 61 b9 5b b6 0e 0b 1f b6
       -2.988819e-33 3.2693517e-31 -3.2741448e-06 -2.369928e-06
000060 ec d0 85 be af c4 82 be 4f 5c 0a 0b cd dd 1d 8e
       -0.26135957 -0.25540683 2.6647279e-32 -1.9458537e-30
000070 05 04 38 be b0 25 2c be e7 af 65 be 24 c2 66 be
       -0.17970283 -0.16811252 -0.22430383 -0.22534996
000080 60 3f 89 8b 01 16 00 0d 1b 65 97 0e 16 37 85 93
       -5.2865837e-32 3.946953e-31 3.7321735e-30 -3.362824e-27
000090 8f 59 22 b5 bc 82 04 b4 41 b7 64 3e 14 11 99 ba
       -6.048003e-07 -1.2341019e-07 0.22335531 -0.0011678063
0000a0 d8 0f d2 bd a5 cb f8 bd a7 75 88 3d bd 73 16 3b
       -0.10256928 -0.12148217 0.066630654 0.002295717
0000b0 12 a6 35 3e f0 e8 9d 3e 6e 74 fa bd 7d f9 02 be
       0.17739132 0.3084178 -0.122292385 -0.12790485
0000c0 b4 66 b9 1a 11 8d d5 bc 36 52 ac bd 09 ef c3 bd
       7.668013e-23 -0.026068242 -0.08414118 -0.09567077
0000d0 34 1d 17 be e2 74 1f be a9 46 83 19 3e 49 88 8a
       -0.14757234 -0.15571931 1.3573622e-23 -1.3123874e-32
0000e0 31 c5 5d ba f1 3e 66 ba f6 1b 9a be 96 42 77 be
       -0.0008459865 -0.0008783183 -0.30099458 -0.24146494
0000f0 d4 da 2c be 5f a7 91 bd d8 a4 e5 3d c9 8d 8a 3e
       -0.16880351 -0.07112002 0.11213082 0.27061298
000100 31 a3 cf 92 80 68 9a 91 aa 25 15 3d fa 29 14 3d
       -1.3103766e-27 -2.436132e-28 0.036412872 0.036172844
000110 38 69 9b 8d 5f 7a 9b 28 1c f9 7b 3d 7f d2 09 bd
       -9.577943e-31 1.7261527e-14 0.061516866 -0.03364801
000120 0d 36 f7 be 1b db bd be b6 fb 08 36 12 8f 46 8f
       -0.48283425 -0.37081227 2.0412094e-06 -9.789708e-30
000130 23 a3 07 be 1f ca 1b be b0 ba 3a 3c 42 68 09 3e
       -0.13245825 -0.15213822 0.011397049 0.13418677
000140 0c f5 b8 93 0b 6d df 8b c8 1f 95 b5 3d 96 a3 b9
       -4.6689765e-27 -8.6060545e-32 -1.1110615e-06 -0.0003120172
000150 01 24 48 bd 16 cf 3b bd 28 d1 8f 3e bd b5 64 be
       -0.04886246 -0.04585179 0.2808926 -0.22334953
000160 19 47 6c be 3d 94 41 be 02 c8 0d 3d b6 8a 6d 3d
       -0.23073997 -0.18904205 0.03461457 0.057993613
000170 bf 8c 5a 3e 89 ca 71 3e 2c b3 f8 bc 77 5d 1c be
       0.21342753 0.23612417 -0.030358873 -0.15270029
000180 b5 43 fa bd 9c 2a d8 3c 8b 20 a5 ba 7e 35 1a bd
       -0.12219945 0.026387505 -0.00125982 -0.03764867
000190 51 00 c6 bc 1b 73 de 3b 81 ae d7 3d d3 4d 38 3d
       -0.024170073 0.006788624 0.10531331 0.044996094
0001a0 4b ef 51 bd a1 1e 73 bd d5 66 12 bd 75 81 64 bd
       -0.0512536 -0.059355382 -0.0357426 -0.055787522
0001b0 ff e7 04 3e 18 90 9c 3d 30 76 05 3e 09 ad f1 39
       0.12979124 0.07644671 0.13033366 0.00046096023
0001c0 82 75 ee 3c 9b 02 4d 3d 59 e7 0b be b8 26 53 3c
       0.029108766 0.050051313 -0.13662471 0.012887649
0001d0 08 2f 1e bc 4d bb a5 bd 06 60 e5 bd 18 d8 02 3e
       -0.009654768 -0.080923654 -0.11199956 0.12777746
0001e0 7f 58 f0 3d d5 00 89 3d 80 09 0d 3e 22 eb 6f bd
       0.11735629 0.06689612 0.13773155 -0.05857385
0001f0 ed 3a cc bc a3 d6 5f 3d 89 5e c3 bc 75 0a e8 bc
       -0.024930442 0.054648053 -0.023848789 -0.028325299
000200 c5 55 f4 bd 9b d5 1e 3d 42 a4 b2 bd 08 00 ac 3b
       -0.11930422 0.03877793 -0.08722736 0.005249027
000210 3d 1a 10 3e a4 fb 35 bd 64 58 3a bd 80 57 b2 3d
       0.14072509 -0.044429436 -0.045494452 0.087080956
000220 23 5c 59 bd 08 16 4b bc 5c 01 0a 3e 7c 63 72 bd
       -0.053066384 -0.012395389 0.13477081 -0.059176907
000230 6f 7a d3 bd d9 6e a5 bd f0 e8 23 bd 87 43 8c bd
       -0.10326087 -0.08077783 -0.04001707 -0.06848817
000240 98 71 ef bd cf fd f8 3d 24 67 70 bb 1e 83 a6 bd
       -0.11691588 0.12157785 -0.003668257 -0.08130477
000250 23 c8 12 be 88 9b 91 bd ae 86 e1 bd e8 70 c4 bd
       -0.14334159 -0.07109743 -0.11012016 -0.09591848
000260 1a 09 2a be 68 45 b8 3b 22 3c 10 be e6 3f 16 be
       -0.16605034 0.0056235082 -0.14085439 -0.14672813
000270 cb 2b 25 be 77 90 f5 3d 97 48 8c be e2 28 34 be
       -0.16129987 0.11990445 -0.27399132 -0.1759372
000280 f3 f4 27 3e e9 6b c0 3d 59 2c 60 3d c3 95 2f be
       0.16402034 0.09395582 0.054729793 -0.17146973
000290 08 48 1b be b7 65 d4 bd c6 8c dc 3d 39 2b 90 bb
       -0.15164196 -0.10370963 0.10769038 -0.004399684
0002a0 f2 bb 2c be f4 f2 4e be 55 fe 22 be 60 ae 97 bd
       -0.1686857 -0.20209867 -0.15917332 -0.07406306
0002b0 9c 32 4b be 60 c3 72 3d 89 f2 d9 bb 93 b1 9a bd
       -0.19843525 0.059268355 -0.006651227 -0.07553401
0002c0 a5 7c 6c 3d 56 88 b7 bd 38 cb 93 3c d9 37 95 3c
       0.057736058 -0.08961551 0.018041238 0.018215107
0002d0 b7 37 c1 3d 9f 2f d5 bd eb 36 99 3e db 39 1f bd
       0.09434455 -0.10409474 0.29924712 -0.038873535
0002e0 eb 0e a7 bd a0 4c a1 3d 71 6b dc 3d 89 cf 01 3e
       -0.08157142 0.07875943 0.1076268 0.12676825
0002f0 55 d8 e6 bd c8 07 15 be e1 d5 97 ba 04 ee 14 3c
       -0.11271731 -0.1455375 -0.0011584127 0.0090899505
000300 92 79 c6 bc e8 14 5c 23 7a 56 f8 bc 90 35 fe 3d
       -0.024227891 1.1930651e-17 -0.030314673 0.1241256
000310 1a 3e dc 3e 08 23 87 3e df 26 80 3a e8 78 5c 9b
       0.4301613 0.26393914 0.000977721 -1.823704e-22
000320 0a 78 28 bb cc ad 26 bd fd d1 09 be ad 83 28 be
       -0.0025706314 -0.04069309 -0.1345901 -0.1645648
000330 6d de 44 be da 8a c7 bd f0 b9 81 3e 95 4f 96 3c
       -0.19225474 -0.09743281 0.25337172 0.018348495
000340 49 95 54 17 16 97 2f ba cf d9 35 bd de e4 3a 3b
       6.868932e-25 -0.0006698234 -0.04439717 0.0028517763
000350 d1 5a 3f 2d f3 c0 99 23 6b 79 cf bc e1 59 e8 bc
       1.0877258e-11 1.667001e-17 -0.025326451 -0.02836317
000360 f9 ee dd be 36 59 de be da d1 92 1e cd f7 ac ba
       -0.43346384 -0.43427438 1.5545144e-20 -0.0013196409
000370 e8 b5 89 be 88 bf 59 be 02 77 e1 3d 64 44 23 3e
       -0.26896596 -0.2126447 0.11009027 0.15944058
000380 35 8b 59 b7 de 41 27 16 ee d7 f7 39 b8 d1 ee 39
       -1.296662e-05 1.3510937e-25 0.0004727239 0.0004555115
000390 41 4e f9 bc d8 d7 7e b4 91 8c 1b 3e 64 17 e9 bc
       -0.030432822 -2.3734117e-07 0.1519034 -0.028453536
0003a0 56 99 08 bc 17 b0 b1 ba c2 f4 50 3d ae fe 48 bd
       -0.008337339 -0.0013556507 0.05101467 -0.049071006
0003b0 db 7c 94 3e 1a 72 ee 3d 27 42 77 be 67 e3 a1 be
       0.29001507 0.11642857 -0.24146329 -0.31618807
0003c0 9c a0 fe 2b 86 c8 b7 bd df 53 4a be 78 fe 06 be
       1.8092364e-12 -0.08973794 -0.19758557 -0.1318301
0003d0 57 e8 64 3d 8b 9a 9f bd d8 12 79 18 a0 50 90 9f
       0.05588564 -0.077931486 3.219201e-24 -6.1119755e-20
0003e0 ed 91 b3 bd 1f c7 86 b9 a1 92 5c be 4f ea 4b be
       -0.087680675 -0.00025706828 -0.2154031 -0.199136
0003f0 57 70 6b bd 9d 46 79 bd 9a 62 7d 3e 4f 5d 53 3e
       -0.057480182 -0.060858358 0.24744645 0.20641063

encoder.network.0.net.0.bias f4 [24]
000000 96 60 16 be f3 69 39 3e 7b 62 bf 3e 1d 44 91 3d
       -0.14685282 0.18106823 0.37379822 0.0709307
000010 f8 f5 fb bd 1f 0a 9e be 59 84 78 bd 9b 78 28 bd
       -0.12302774 -0.30867097 -0.06067309 -0.041130643
000020 c8 fc 11 be b0 2d d6 bc 6c 73 07 bd fd de 97 bd
       -0.14256585 -0.026144832 -0.03306906 -0.074155785
000030 37 3d 88 3e 50 1a 04 be 6b e4 94 3d 5e 42 73 3e
       0.26609203 -0.12900662 0.0727013 0.23755786
000040 fc 48 07 be 05 8e 53 be b3 6f 22 bd ba f2 e3 3d
       -0.13211435 -0.20659645 -0.039657306 0.11130281
000050 50 db 1a 3e 5f 01 21 3e 94 8b 4f be d4 4f 57 3e
       0.15122724 0.1572318 -0.20268089 0.21026546

encoder.network.0.net.0.weight_g f4 [24, 1, 1]
000000 d0 f7 0f 3f b2 37 91 3f b5 a4 cb 3f 8f 75 1a 3f
       0.56237507 1.1345122 1.590964 0.6033563
000010 59 41 19 3f 85 f5 da 3f b2 80 6b 3f 2a 8d 8b 3f
       0.5986534 1.7106177 0.9199325 1.0902455
000020 13 11 1a 3f 4a 5d 09 3f cb b8 1a 3f 24 86 20 3f
       0.60182303 0.5365797 0.6043822 0.6270468
000030 5c ed a1 3f 62 fc fb 3e e7 ad 8d 3f 7e b7 ad 3f
       1.2650561 0.4921599 1.1068696 1.3571622
000040 2d e3 0e 3f 90 a2 1d 3f c4 b1 b2 3f 6c 2c 04 40
       0.5581539 0.61576176 1.39605 2.0652113
000050 d8 cc c2 3f e2 43 39 3f 1e 10 6f 3f 5c 5f 82 3f
       1.5218763 0.72369206 0.9338397 1.0185351

encoder.network.0.net.0.weight_v f4 [24, 16, 2]
000000 7a d6 e0 3d 42 50 ef 3d 42 b6 a1 bd 2f 0c fe 3d
       0.10978408 0.1168523 -0.07896091 0.124046676
000010 0e 27 9b bd f5 4b 09 bb 1a 4e f5 bd 22 9e 92 3d
       -0.075758085 -0.0020949815 -0.11977787 0.07159068
000020 b3 ea 0a 3e fc 7e 2b be eb 99 ec 3d c1 bc 41 bb
       0.13566093 -0.1674766 0.11552795 -0.002956197
000030 1e 84 bd 3d 96 d1 63 bc 83 84 8a 3d 08 60 38 bd
       0.09253715 -0.01390495 0.06763556 -0.045013458
000040 f8 03 c5 3d 96 98 59 bc bf c0 f6 bd 6f f9 c9 3b
       0.096198976 -0.013281008 -0.12048482 0.006163768
000050 2a 62 e7 bd 78 7b 50 bd 9a c2 e2 bd 01 4d 9e 3d
       -0.1129802 -0.050899 -0.110722736 0.07729531
000060 55 88 36 be 9c aa f6 bd 24 3f aa bd 9e 21 0f be
       -0.17825444 -0.1204426 -0.08312824 -0.13977668
000070 17 a0 b7 bc a9 fb 59 be ce c8 01 3e ed 7d 3b be
       -0.022415204 -0.21287407 0.12674257 -0.18309756
000080 9d 51 22 3e ca 88 70 3d f1 0b 17 be 70 56 dd bc
       0.15851445 0.058724202 -0.14750649 -0.027018756
000090 85 a0 23 bd 97 95 a4 3c c3 5d 39 3d e5 85 84 bb
       -0.039948005 0.020090861 0.045255434 -0.004044282
0000a0 c9 fd 29 bd a2 f6 95 bd 72 11 c1 3e 0a 71 f7 3e
       -0.041501794 -0.07322432 0.37708622 0.4832843
0000b0 9c 77 33 bd 9f 79 29 be 4a 01 02 3f 23 2f e7 3e
       -0.04381524 -0.16550301 0.50783217 0.4515315
0000c0 c4 a0 c5 bd f1 f6 4c be ff 73 20 be eb ee 8a bd
       -0.09649804 -0.20016076 -0.15669249 -0.06783851
0000d0 75 bd 6a bc 12 0f 94 3e 62 32 d2 bd 9c 43 94 bd
       -0.014327397 0.28917748 -0.10263516 -0.07239458
0000e0 d2 b7 d9 bd 5b 6b 00 be c4 37 bf bd 6b 5a 87 be
       -0.10630764 -0.12540953 -0.09336808 -0.2643617
0000f0 ae 5c 4f bd 97 79 21 be da fe 8e 3d d4 c7 1c 3c
       -0.050625496 -0.15769039 0.06982203 0.009569127
000100 04 e3 b1 3b d9 2a 09 3d 86 60 f5 3c 09 8a 00 be
       0.0054286737 0.03348813 0.029953253 -0.12552656
000110 8e ee 96 be 59 b5 b3 be 4b ea 9a 3e 5e 90 48 3e
       -0.29478878 -0.35099295 0.30256876 0.19586322
000120 97 d6 2f 3e 1e ee 64 3e 50 56 88 be e7 3b 3f be
       0.17171703 0.2235646 -0.2662835 -0.18675195
000130 15 40 0c be fb 12 8b 3d 2e 34 06 be 27 bc 83 bc
       -0.1369632 0.067907296 -0.13105842 -0.016080929
000140 fc 16 35 be 62 04 30 be 3b 25 03 be de 1f 70 be
       -0.17684549 -0.17189172 -0.12807171 -0.23449656
000150 46 c4 98 3e c2 3b 70 3c e3 e1 6b bd 24 b2 50 be
       0.29837245 0.014662685 -0.05758847 -0.20380455
000160 25 7c 47 be b1 09 80 bd 1e 00 e2 be 11 48 e6 be
       -0.19480951 -0.062518485 -0.44140714 -0.44976857
000170 09 7e 89 3e 44 41 b7 3e c0 aa cb bd 20 ad af bd
       0.2685397 0.3579198 -0.09944677 -0.08577943
000180 a5 c0 25 3e c5 53 74 bd 40 59 80 bd 41 27 2f be
       0.1618677 -0.0596502 -0.06267023 -0.17104818
000190 2a 54 cf bd 8e e0 34 3d 83 25 bf bc 3f 66 03 be
       -0.10123475 0.044159465 -0.023333317 -0.12831973
0001a0 2c e0 87 3b 4a 4d f7 bd 82 93 19 be 75 5c c7 bd
       0.0041465964 -0.120752886 -0.14997676 -0.09734432
0001b0 29 6e 1e be 18 86 e6 bd d3 f2 34 3e 94 c2 08 3d
       -0.1547171 -0.11256045 0.17670755 0.03338869
0001c0 a7 21 5f 3d 7a d5 28 be 0b c7 ed bd 6b 03 71 bd
       0.054475453 -0.16487685 -0.1161023 -0.05884115
0001d0 16 73 e2 3c 64 48 1f be 22 fe 9b bd bd bd d8 bd
       0.027642768 -0.15554959 -0.07616831 -0.10583065
0001e0 39 6c 00 3a 3b b7 86 bd b4 b3 48 bc 02 54 f5 bd
       0.0004898939 -0.06577917 -0.012249876 -0.11978914
0001f0 68 80 f8 bd c9 36 d3 bd 8d d9 77 bd 07 e0 0e be
       -0.121338665 -0.10313184 -0.060510207 -0.13952647
000200 f4 44 d6 3d 28 53 82 bd 98 fe 16 3e b1 70 40 3d
       0.104623705 -0.06363517 0.14745557 0.04698247
000210 41 4d 46 be 6d a0 9d 3d 2f ed 8c bd 94 1b b4 bd
       -0.19365408 0.076966144 -0.06881177 -0.087943226
000220 72 e2 21 be 67 c2 4a be df 2e 2a 3d 5d 73 53 bd
       -0.15809038 -0.19800721 0.041548606 -0.05162369
000230 9a 8e 62 3d 08 75 23 be 08 ef d5 3d 9f 8d 1e be
       0.055311777 -0.15962613 0.10445982 -0.15483712
000240 ce 8e 85 bd c1 fa 1c 3a 2a af 7e 3d 3a 08 e9 3d
       -0.065213785 0.0005988293 0.06217877 0.11378522
000250 a9 1d 20 3e 92 2f 2b be 14 8c 0a 3c 8c 08 e0 bd
       0.15636314 -0.16717365 0.008456249 -0.1093913
000260 11 22 5e bd 5a e0 28 be 02 54 12 3e 3b fd 1d be
       -0.054231707 -0.16491833 0.14289859 -0.15428631
000270 ff de 96 3d 3e 37 3a 3d 83 2c 09 3d 5d 3f fa bd
       0.07366752 0.04546284 0.033489715 -0.12219117
000280 a8 2b d0 3e 2a 2b 95 3e 5f 32 53 bd db e1 cc bd
       0.40658307 0.29134494 -0.05156171 -0.10004016
000290 a9 9e 25 3f 72 25 04 3f 2a 41 cb 3d 26 7e 93 3e
       0.6469522 0.51619637 0.099245384 0.2880718
0002a0 e6 eb 64 3d e3 db c1 3d 91 51 df 3d 82 80 81 3d
       0.055889033 0.09465768 0.109042294 0.06323339
0002b0 1d 14 88 3c 64 fb 0a bc 79 12 11 bf 0d 4c 10 bf
       0.016611153 -0.008482788 -0.5666881 -0.56366044
0002c0 8b 3e 4e be 3f 1f 01 be 3a d4 4d bd 09 15 49 be
       -0.20141046 -0.12609576 -0.050251223 -0.1963693
0002d0 a4 0e 0f 3e a0 e6 84 3e 03 37 08 be cd b5 2f be
       0.13970429 0.25957203 -0.13302235 -0.17159195
0002e0 10 58 c2 ba f2 e7 db bb 44 e8 63 be 7d 0a 49 be
       -0.001482727 -0.0067109996 -0.22256571 -0.19632907
0002f0 db 71 b0 be f8 18 c7 be 54 cb 52 be 7e 27 1c be
       -0.34461865 -0.38886237 -0.20585376 -0.1524944
000300 04 4d 8f bd 99 8b 8e bd 6a e6 ae be 04 e7 bf be
       -0.069971114 -0.0696022 -0.34160167 -0.37480938
000310 0e 48 0a be 86 c9 16 be c3 7f 98 3c da 45 b7 3b
       -0.13504049 -0.14725313 0.018615609 0.0055930438
000320 a4 f7 81 3d c9 0c a0 3d 8a ef 61 bd d7 25 f2 bd
       0.06346062 0.078149386 -0.055160083 -0.118236236
000330 5d 00 a3 be 1a 63 c4 be e3 49 69 bc b2 61 5c bd
       -0.31836215 -0.38356858 -0.014238807 -0.053804107
000340 15 d9 a6 3d db 8a 08 3e d6 97 7a 3e ec 9d 50 3e
       0.08146874 0.13334219 0.24471983 0.20372742
000350 a3 fe bb 3c 24 30 2e bb 37 26 dc 3d 05 b6 5c 3e
       0.022948569 -0.0026578987 0.107494764 0.2155381
000360 be f3 1a 3e 2a ca 7d 3d 23 88 52 be c7 2f a7 be
       0.15132043 0.061960377 -0.20559745 -0.3265364
000370 e2 02 8d 3d 56 44 7b 3e 3e 75 9c ba 85 48 d2 3b
       0.068853155 0.24537787 -0.0011936796 0.0064173364
000380 81 be 8a bb c1 ad 6a 3e d2 5a aa 3f fd a0 a1 3f
       -0.0042341356 0.22917844 1.3308966 1.2627255
000390 22 77 78 3d 39 0b 1a 3d c2 a7 81 bd b6 91 df 3d
       0.06066049 0.03760836 -0.063308254 0.10916464
0003a0 76 3d 41 3d 8d 83 ae 3d 24 4f 72 3e 37 49 91 3e
       0.047177754 0.08521185 0.23663002 0.2837617
0003b0 01 8b 5a 3f 76 2c f0 3e 5f 78 6a 3d f8 d1 1d 3d
       0.85368353 0.4690892 0.0572437 0.03853032
0003c0 8a f4 7a 3d 04 71 02 bd 88 df c3 3b 37 ba ef bb
       0.061268367 -0.03184606 0.0059775747 -0.0073158997
0003d0 95 4d 88 bd 11 01 dc bd 33 f7 70 bd e8 21 8d 3d
       -0.066554226 -0.10742391 -0.058829498 0.06891233
0003e0 69 77 99 bc 23 53 c5 3d 4c f0 19 bb b5 74 b7 bc
       -0.018733697 0.09634998 -0.0023489175 -0.022394517
0003f0 d5 61 48 3c ea b9 0d bd fc 62 fd bb 35 2e a4 bd
       0.012230356 -0.03460113 -0.007732747 -0.08016626

encoder.network.0.net.4.bias f4 [24]
000000 67 5a 2c be 99 3f 8c 3c 8f 7e 0c be 9a 46 24 be
       -0.16831361 0.01712017 -0.13720153 -0.16042557
000010 46 b3 68 3d 8b 96 6a be 5e 46 34 be ed fc ae bd
       0.056811593 -0.2290899 -0.17604968 -0.085443355
000020 71 cd 97 bd 7e 53 47 bd c3 91 e5 bd 8d 96 38 3c
       -0.07412232 -0.04866361 -0.112094425 0.011266363
000030 aa 9b 31 be 5f 76 59 bd 3a 4d d1 bc 14 80 c4 3b
       -0.17344537 -0.053091403 -0.02554952 0.0059967134
000040 ea fc 95 bc 88 71 8d 3c 4a a2 77 bd b4 eb 54 be
       -0.018309075 0.01726605 -0.060457505 -0.20793039
000050 ed 64 19 be 96 28 12 be 9d df 1f be 8a 95 ec 3d
       -0.14979906 -0.14273295 -0.15612645 0.1155196

encoder.network.0.net.4.weight_g f4 [24, 1, 1]
000000 ca f8 58 3f e8 b7 3c 3f a5 34 09 3f 5c 29 03 3f
       0.8475462 0.7371812 0.53595954 0.51234984
000010 2b de 3b 3f b9 7c 23 3f 56 69 06 3f b4 6f 0b 3f
       0.73385876 0.63862187 0.5250448 0.5446732
000020 58 06 0b 3f 80 07 0a 3f 69 81 0c 3f d4 f8 07 3f
       0.54306555 0.53917694 0.54884964 0.53114057
000030 a8 70 07 3f 86 de 3e 3f 5e 11 3c 3f 41 ce 65 3f
       0.52906275 0.74558294 0.73464 0.89767843
000040 01 0f da 3e 61 da 7a 3f dd 6d 08 3f ae 01 32 3f
       0.42589572 0.9798947 0.5329264 0.69533813
000050 7b 42 11 3f 1a b7 fb 3e 89 68 09 3f 94 d4 18 3f
       0.56742066 0.49163133 0.53675133 0.5969937

encoder.network.0.net.4.weight_v f4 [24, 24, 2]
000000 43 e5 e7 08 b0 91 38 24 0b 7e 72 be 7e 52 65 be
       1.3956706e-33 4.0022042e-17 -0.23680894 -0.2239475
000010 2d 0c cc bd 24 4a 01 be 90 49 4e 14 38 d6 ab 92
       -0.0996326 -0.12625939 1.041485e-26 -1.0844426e-27
000020 b5 9e 7f b7 5d 9b 77 b8 90 26 26 be 9c e5 22 be
       -1.5236136e-05 -5.9034082e-05 -0.16225648 -0.15907902
000030 67 52 65 bd f2 51 a5 bd 92 a8 1d 3e 3b 75 94 3e
       -0.055986788 -0.080722705 0.15396336 0.2899569
000040 33 9f 94 8f 5e 66 3b 0f 09 07 05 b8 0c 40 bf 35
       -1.4655248e-29 9.239527e-30 -3.1716223e-05 1.4249249e-06
000050 26 4d 78 89 6c 31 d4 0c 61 b9 5b b6 0e 0b 1f b6
       -2.988819e-33 3.2693517e-31 -3.2741448e-06 -2.369928e-06
000060 ec d0 85 be af c4 82 be 4f 5c 0a 0b cd dd 1d 8e
       -0.26135957 -0.25540683 2.6647279e-32 -1.9458537e-30
000070 05 04 38 be b0 25 2c be e7 af 65 be 24 c2 66 be
       -0.17970283 -0.16811252 -0.22430383 -0.22534996
000080 60 3f 89 8b 01 16 00 0d 1b 65 97 0e 16 37 85 93
       -5.2865837e-32 3.946953e-31 3.7321735e-30 -3.362824e-27
000090 8f 59 22 b5 bc 82 04 b4 41 b7 64 3e 14 11 99 ba
       -6.048003e-07 -1.2341019e-07 0.22335531 -0.0011678063
0000a0 d8 0f d2 bd a5 cb f8 bd a7 75 88 3d bd 73 16 3b
       -0.10256928 -0.12148217 0.066630654 0.002295717
0000b0 12 a6 35 3e f0 e8 9d 3e 6e 74 fa bd 7d f9 02 be
       0.17739132 0.3084178 -0.122292385 -0.12790485
0000c0 b4 66 b9 1a 11 8d d5 bc 36 52 ac bd 09 ef c3 bd
       7.668013e-23 -0.026068242 -0.08414118 -0.09567077
0000d0 34 1d 17 be e2 74 1f be a9 46 83 19 3e 49 88 8a
       -0.14757234 -0.15571931 1.3573622e-23 -1.3123874e-32
0000e0 31 c5 5d ba f1 3e 66 ba f6 1b 9a be 96 42 77 be
       -0.0008459865 -0.0008783183 -0.30099458 -0.24146494
0000f0 d4 da 2c be 5f a7 91 bd d8 a4 e5 3d c9 8d 8a 3e
       -0.16880351 -0.07112002 0.11213082 0.27061298
000100 31 a3 cf 92 80 68 9a 91 aa 25 15 3d fa 29 14 3d
       -1.3103766e-27 -2.436132e-28 0.036412872 0.036172844
000110 38 69 9b 8d 5f 7a 9b 28 1c f9 7b 3d 7f d2 09 bd
       -9.577943e-31 1.7261527e-14 0.061516866 -0.03364801
000120 0d 36 f7 be 1b db bd be b6 fb 08 36 12 8f 46 8f
       -0.48283425 -0.37081227 2.0412094e-06 -9.789708e-30
000130 23 a3 07 be 1f ca 1b be b0 ba 3a 3c 42 68 09 3e
       -0.13245825 -0.15213822 0.011397049 0.13418677
000140 0c f5 b8 93 0b 6d df 8b c8 1f 95 b5 3d 96 a3 b9
       -4.6689765e-27 -8.6060545e-32 -1.1110615e-06 -0.0003120172
000150 01 24 48 bd 16 cf 3b bd 28 d1 8f 3e bd b5 64 be
       -0.04886246 -0.04585179 0.2808926 -0.22334953
000160 19 47 6c be 3d 94 41 be 02 c8 0d 3d b6 8a 6d 3d
       -0.23073997 -0.18904205 0.03461457 0.057993613
000170 bf 8c 5a 3e 89 ca 71 3e 2c b3 f8 bc 77 5d 1c be
       0.21342753 0.23612417 -0.030358873 -0.15270029
000180 b5 43 fa bd 9c 2a d8 3c 8b 20 a5 ba 7e 35 1a bd
       -0.12219945 0.026387505 -0.00125982 -0.03764867
000190 51 00 c6 bc 1b 73 de 3b 81 ae d7 3d d3 4d 38 3d
       -0.024170073 0.006788624 0.10531331 0.044996094
0001a0 4b ef 51 bd a1 1e 73 bd d5 66 12 bd 75 81 64 bd
       -0.0512536 -0.059355382 -0.0357426 -0.055787522
0001b0 ff e7 04 3e 18 90 9c 3d 30 76 05 3e 09 ad f1 39
       0.12979124 0.07644671 0.13033366 0.00046096023
0001c0 82 75 ee 3c 9b 02 4d 3d 59 e7 0b be b8 26 53 3c
       0.029108766 0.050051313 -0.13662471 0.012887649
0001d0 08 2f 1e bc 4d bb a5 bd 06 60 e5 bd 18 d8 02 3e
       -0.009654768 -0.080923654 -0.11199956 0.12777746
0001e0 7f 58 f0 3d d5 00 89 3d 80 09 0d 3e 22 eb 6f bd
       0.11735629 0.06689612 0.13773155 -0.05857385
0001f0 ed 3a cc bc a3 d6 5f 3d 89 5e c3 bc 75 0a e8 bc
       -0.024930442 0.054648053 -0.023848789 -0.028325299
000200 c5 55 f4 bd 9b d5 1e 3d 42 a4 b2 bd 08 00 ac 3b
       -0.11930422 0.03877793 -0.08722736 0.005249027
000210 3d 1a 10 3e a4 fb 35 bd 64 58 3a bd 80 57 b2 3d
       0.14072509 -0.044429436 -0.045494452 0.087080956
000220 23 5c 59 bd 08 16 4b bc 5c 01 0a 3e 7c 63 72 bd
       -0.053066384 -0.012395389 0.13477081 -0.059176907
000230 6f 7a d3 bd d9 6e a5 bd f0 e8 23 bd 87 43 8c bd
       -0.10326087 -0.08077783 -0.04001707 -0.06848817
000240 98 71 ef bd cf fd f8 3d 24 67 70 bb 1e 83 a6 bd
       -0.11691588 0.12157785 -0.003668257 -0.08130477
000250 23 c8 12 be 88 9b 91 bd ae 86 e1 bd e8 70 c4 bd
       -0.14334159 -0.07109743 -0.11012016 -0.09591848
000260 1a 09 2a be 68 45 b8 3b 22 3c 10 be e6 3f 16 be
       -0.16605034 0.0056235082 -0.14085439 -0.14672813
000270 cb 2b 25 be 77 90 f5 3d 97 48 8c be e2 28 34 be
       -0.16129987 0.11990445 -0.27399132 -0.1759372
000280 f3 f4 27 3e e9 6b c0 3d 59 2c 60 3d c3 95 2f be
       0.16402034 0.09395582 0.054729793 -0.17146973
000290 08 48 1b be b7 65 d4 bd c6 8c dc 3d 39 2b 90 bb
       -0.15164196 -0.10370963 0.10769038 -0.004399684
0002a0 f2 bb 2c be f4 f2 4e be 55 fe 22 be 60 ae 97 bd
       -0.1686857 -0.20209867 -0.15917332 -0.07406306
0002b0 9c 32 4b be 60 c3 72 3d 89 f2 d9 bb 93 b1 9a bd
       -0.19843525 0.059268355 -0.006651227 -0.07553401
0002c0 a5 7c 6c 3d 56 88 b7 bd 38 cb 93 3c d9 37 95 3c
       0.057736058 -0.08961551 0.018041238 0.018215107
0002d0 b7 37 c1 3d 9f 2f d5 bd eb 36 99 3e db 39 1f bd
       0.09434455 -0.10409474 0.29924712 -0.038873535
0002e0 eb 0e a7 bd a0 4c a1 3d 71 6b dc 3d 89 cf 01 3e
       -0.08157142 0.07875943 0.1076268 0.12676825
0002f0 55 d8 e6 bd c8 07 15 be e1 d5 97 ba 04 ee 14 3c
       -0.11271731 -0.1455375 -0.0011584127 0.0090899505
000300 92 79 c6 bc e8 14 5c 23 7a 56 f8 bc 90 35 fe 3d
       -0.024227891 1.1930651e-17 -0.030314673 0.1241256
000310 1a 3e dc 3e 08 23 87 3e df 26 80 3a e8 78 5c 9b
       0.4301613 0.26393914 0.000977721 -1.823704e-22
000320 0a 78 28 bb cc ad 26 bd fd d1 09 be ad 83 28 be
       -0.0025706314 -0.04069309 -0.1345901 -0.1645648
000330 6d de 44 be da 8a c7 bd f0 b9 81 3e 95 4f 96 3c
       -0.19225474 -0.09743281 0.25337172 0.018348495
000340 49 95 54 17 16 97 2f ba cf d9 35 bd de e4 3a 3b
       6.868932e-25 -0.0006698234 -0.04439717 0.0028517763
000350 d1 5a 3f 2d f3 c0 99 23 6b 79 cf bc e1 59 e8 bc
       1.0877258e-11 1.667001e-17 -0.025326451 -0.02836317
000360 f9 ee dd be 36 59 de be da d1 92 1e cd f7 ac ba
       -0.43346384 -0.43427438 1.5545144e-20 -0.0013196409
000370 e8 b5 89 be 88 bf 59 be 02 77 e1 3d 64 44 23 3e
       -0.26896596 -0.2126447 0.11009027 0.15944058
000380 35 8b 59 b7 de 41 27 16 ee d7 f7 39 b8 d1 ee 39
       -1.296662e-05 1.3510937e-25 0.0004727239 0.0004555115
000390 41 4e f9 bc d8 d7 7e b4 91 8c 1b 3e 64 17 e9 bc
       -0.030432822 -2.3734117e-07 0.1519034 -0.028453536
0003a0 56 99 08 bc 17 b0 b1 ba c2 f4 50 3d ae fe 48 bd
       -0.008337339 -0.0013556507 0.05101467 -0.049071006
0003b0 db 7c 94 3e 1a 72 ee 3d 27 42 77 be 67 e3 a1 be
       0.29001507 0.11642857 -0.24146329 -0.31618807
0003c0 9c a0 fe 2b 86 c8 b7 bd df 53 4a be 78 fe 06 be
       1.8092364e-12 -0.08973794 -0.19758557 -0.1318301
0003d0 57 e8 64 3d 8b 9a 9f bd d8 12 79 18 a0 50 90 9f
       0.05588564 -0.077931486 3.219201e-24 -6.1119755e-20
0003e0 ed 91 b3 bd 1f c7 86 b9 a1 92 5c be 4f ea 4b be
       -0.087680675 -0.00025706828 -0.2154031 -0.199136
0003f0 57 70 6b bd 9d 46 79 bd 9a 62 7d 3e 4f 5d 53 3e
       -0.057480182 -0.060858358 0.24744645 0.20641063

encoder.network.0.downsample.weight f4 [24, 16, 1]
000000 7c dc 91 bc 4e ca 26 3e 82 8d 7f 3d a9 2d 22 be
       -0.01780533 0.1628811 0.06239081 -0.1583773
000010 8a bd 3d bb 4b 72 0f be 7a fc 09 3e 4b 12 ca be
       -0.0028952085 -0.14008443 0.13475218 -0.3946708
000020 92 4b b2 3c 29 4b 8e 3d 75 9c 2c be 8d ba d0 3c
       0.02176455 0.069479294 -0.16856559 0.02547958
000030 9b 07 27 ba f9 92 be 3d 31 aa 5e 3e 62 c5 88 bd
       -0.0006371678 0.093053766 0.2174461 -0.06678273
000040 aa 99 a4 3d d6 28 fd 3d f8 d7 90 bd 19 e8 49 3d
       0.080371216 0.123613045 -0.07072443 0.04929361
000050 6f e5 33 be 0e fc 9a bc db 22 c4 3d 5f 0a a9 3d
       -0.1756799 -0.018919017 0.09576961 0.08253931
000060 80 4e 16 3b ce 2b b8 be 9b 9d c5 bd e0 3c a7 bc
       0.0022934973 -0.3597092 -0.096492015 -0.02041477
000070 de 0d 26 bc 36 a4 59 3c fb b0 7a be 4b 87 17 bc
       -0.010135142 0.01328378 -0.24481575 -0.009248565
000080 38 d1 11 bd 27 ba 28 bd e7 20 1d bd 17 c5 3c bd
       -0.035599917 -0.041193154 -0.038361456 -0.046086397
000090 61 ff 39 bd 49 2d a1 bc 57 c0 2c bd 2f ce 2b bd
       -0.045409564 -0.019674914 -0.042175617 -0.04194468
0000a0 d5 dd 13 bd ec ad 7d bc 69 03 0b bd a4 be 3e bd
       -0.036100227 -0.015483361 -0.0339388 -0.046568528
0000b0 0b fb 5c bd 98 f2 47 bd ef 69 df bc 90 74 4d bd
       -0.05395035 -0.04881534 -0.027272193 -0.05015999
0000c0 8d 4f 6a bd 46 87 fe bc a6 35 6c bd c5 a3 f9 bc
       -0.05720477 -0.031070363 -0.05766835 -0.0304736
0000d0 7d 92 32 bd 08 bc 7f bd 15 81 fc bc f5 21 09 bd
       -0.043596733 -0.06243518 -0.03082327 -0.03347965
0000e0 0b cf 61 bd 5a 42 8a bd f6 d6 2f bd f5 9c 2e bd
       -0.055129092 -0.06750937 -0.042929612 -0.042630155
0000f0 80 26 7c bd 3c 48 01 bd 4e 1d 83 bd ff 73 df bc
       -0.061560154 -0.03156303 -0.06402074 -0.027276991
000100 51 15 e7 bd aa 84 03 3e 51 58 c5 bd f1 d6 74 3d
       -0.11283363 0.12843576 -0.09635986 0.059775297
000110 a9 e0 c8 3b a4 20 02 be 0d e8 d8 3d d2 76 29 3e
       0.006130297 -0.12707764 0.10591135 0.16549233
000120 8f 45 ae bc 2e 2e 34 bf c5 79 5a bd 25 4b 67 bd
       -0.021273402 -0.70382965 -0.053338785 -0.056468148
000130 ef d9 83 bd 35 32 20 be 98 60 55 be 55 e5 af bd
       -0.06438052 -0.15644152 -0.20837629 -0.085886635
000140 e3 a2 33 3d a1 79 05 3e 4e f1 b0 bd 53 b6 ab 3c
       0.043856513 0.13034679 -0.08639775 0.020960962
000150 dc c3 d5 bd 91 2d e6 bd 86 8f d6 3d b4 3f cc be
       -0.10437748 -0.1123916 0.10476594 -0.39892352
000160 38 8b e7 3c b5 d8 56 be 78 7e 01 be 4a e4 17 3d
       0.028264627 -0.20981105 -0.126459 0.037082948
000170 88 f8 19 3d 84 8b ba 3d 2c 6b 5f 3e 3d 70 e5 3b
       0.037590533 0.09108642 0.21818227 0.0070019052
000180 a2 f1 00 ba b1 39 b1 ba 71 1b 54 bc 70 e0 d3 bc
       -0.00049188186 -0.0013521222 -0.012945996 -0.025863856
000190 4b a7 4e bb 7f ab d8 bc 1b 9c a1 ba 6f d4 b2 bc
       -0.003153282 -0.026448963 -0.0012329848 -0.021829812
0001a0 6c c5 76 bc a8 58 7c bc 21 b6 e4 bb 58 79 0b bd
       -0.0150617175 -0.015401997 -0.0069797193 -0.03405127
0001b0 76 0b 9b ba 35 42 06 bd 9c 66 0b bd a0 55 c2 bc
       -0.0011828977 -0.032777984 -0.034033403 -0.02372247
0001c0 3b 11 88 bd 13 f7 39 bd b3 69 89 bd 44 19 a3 bd
       -0.066439115 -0.045401644 -0.06709614 -0.079638034
0001d0 8a 39 58 bd c3 00 5b bd 79 e1 5f bd f6 70 81 bd
       -0.05278925 -0.053467523 -0.054658387 -0.06320374
0001e0 7d ed ab bd 1b e3 83 bd 32 70 8c bd af 9e 92 bd
       -0.08394907 -0.06439801 -0.06857337 -0.07159173
0001f0 61 2a 94 bd 13 c7 88 bd fa e8 85 bd 30 08 9a bd
       -0.07234646 -0.066785954 -0.065385774 -0.07521093
000200 2f 9e 0b bd 91 2b e0 bc 31 9a 33 bc 61 45 e8 bc
       -0.034086403 -0.027364524 -0.010962055 -0.028353395
000210 87 85 af bc c7 48 50 bc 52 a5 b1 bc 53 5e 38 bc
       -0.021425975 -0.012712664 -0.021685276 -0.011252957
000220 9b 64 8c bc dd 74 8f bc 87 9b a8 bc 99 83 fc bc
       -0.017137816 -0.01751178 -0.020581974 -0.03082447
000230 c4 fc e5 bc 2c f0 8e bc 36 30 06 bd cf 1d 13 bd
       -0.02807463 -0.017448507 -0.03276082 -0.0359171
000240 24 05 03 bd 45 62 fc bc 88 9a 01 bd ce 12 28 bd
       -0.031987324 -0.030808577 -0.031641513 -0.04103356
000250 ae 25 52 3d 28 e7 f2 3b ae 94 e4 bc a9 55 bd bb
       0.051305465 0.00741281 -0.027902927 -0.0057780338
000260 a3 06 dc 3c bc 87 90 bc 08 06 bf bc ef 32 10 3c
       0.026858633 -0.017642848 -0.023318306 0.008801206
000270 55 09 f8 3c b9 69 4f 37 33 0d 20 bd 77 90 f5 bc
       0.030277887 1.2362777e-05 -0.039075088 -0.029976113
000280 af 7d 58 bc 2f 25 b7 bc d8 b8 89 b9 3e f2 0a bd
       -0.013213559 -0.022356598 -0.00026268396 -0.033922426
000290 29 67 9f bb 33 24 0f bc ea 8a 1d 3b ab 65 be bc
       -0.0048645926 -0.008736658 0.0024039098 -0.023241838
0002a0 c7 ea 86 bc 74 19 d6 bc 8d c0 14 3b ea 8f fe bc
       -0.016469372 -0.026135184 0.0022697777 -0.031074483
0002b0 56 86 b2 bc b4 18 91 bc 32 a4 d3 bc 64 c4 82 ba
       -0.021792572 -0.017711975 -0.02583513 -0.0009976742
0002c0 10 8a 46 bd e7 40 0c bd 12 10 14 bd 89 ff 0a bd
       -0.04847151 -0.034241583 -0.03614814 -0.033935104
0002d0 eb cd dd bc f4 72 2d bd c5 e1 14 bd f2 20 a3 bc
       -0.027075728 -0.042345956 -0.036348123 -0.01991317
0002e0 bf 6a 47 bd 08 e4 25 bd 39 40 42 bd 51 52 71 bd
       -0.048685785 -0.04050067 -0.04742453 -0.058916394
0002f0 1c ba 2a bd 91 0a 2a bd 25 a3 8b 3b c7 1e 15 bd
       -0.041681394 -0.041513983 0.0042613917 -0.036406305
000300 59 b6 3c 3d 13 3b 3c 3d ae 8a 15 be 4a 56 a1 3d
       0.046072338 0.045954775 -0.14603683 0.078777865
000310 a3 e5 d2 bd 43 44 a7 3e 0c 6c be 3c fa 4e 07 be
       -0.10297706 0.32669267 0.02324488 -0.13213721
000320 03 c1 14 bd 0b 36 57 3d f2 a1 50 3d 1a 93 34 bd
       -0.036316883 0.052541774 0.050935693 -0.0440856
000330 1c 51 41 bd 4c 23 99 be 21 a6 0a bf d5 09 e8 3c
       -0.047196493 -0.29909742 -0.5415974 0.028325
000340 79 bd 19 3e 09 7b fc 3c 9d f0 01 be f0 5d 71 3e
       0.15013684 0.030820386 -0.12689443 0.2357099
000350 6b 21 cb 3d be 06 c3 be 33 c8 0c 3d f8 21 40 bf
       0.09918483 -0.3809108 0.034370612 -0.7505183
000360 11 c5 d4 bd b4 ba e6 bd db 63 99 bc 47 44 9f bd
       -0.1038915 -0.112660795 -0.018724373 -0.07776695
000370 c9 23 86 be 88 b7 94 3d 51 dc 24 be 5d c2 93 3b
       -0.26199177 0.07261568 -0.16099669 0.004509254
000380 03 ee ad bc bd d0 22 3e 83 22 9b 3e 79 49 12 3b
       -0.021231657 0.1589994 0.30299768 0.0022321625
000390 50 f6 95 3d 06 ae eb 3d 3e 58 10 3e ae 68 80 3d
       0.07322371 0.11507802 0.14096162 0.06269966
0003a0 e7 72 82 3b 83 60 f7 bc d9 31 d4 bd ec 21 52 3b
       0.0039809826 -0.030197388 -0.1036107 0.0032063676
0003b0 33 ac 0a 3c 63 46 b4 bd 31 77 2a bc 05 25 9d bd
       0.008463907 -0.08802488 -0.010404394 -0.076730765
0003c0 d7 6f 8f bc a3 dd ce bd 64 64 9c 3e c0 e8 9d bc
       -0.017509384 -0.101008676 0.30545342 -0.019276023
0003d0 0f e2 c7 3c 86 35 c9 bd cd 0b d1 bd 0d a6 b9 3e
       0.024399785 -0.09824662 -0.10207329 0.362595
0003e0 6a bf 36 be 1e 57 c3 3b 8a 2e 01 be d8 a9 16 be
       -0.17846456 0.005961313 -0.1261541 -0.14713228
0003f0 0b 6b b3 bd e4 1b fa bd 83 6b ac bd 34 d9 93 bd
       -0.08760651 -0.12212351 -0.08418944 -0.072191626

encoder.network.0.downsample.bias f4 [24]
000000 4b 5a e8 bd 16 7e af 3d 7d 81 d8 bd c7 97 a3 bc
       -0.11345347 0.08568971 -0.10571573 -0.019969834
000010 f1 cf 4b 3c 15 bb 44 bd cc b0 92 3c 7d 20 bd 3b
       0.012439714 -0.048029978 0.017906569 0.005771695
000020 60 f5 48 bc d3 73 79 be ad d6 80 ba 7c 7f c3 bd
       -0.012265533 -0.2436059 -0.0009829603 -0.095458
000030 cd ca ba 3e de 00 76 3e 9f 91 2d be 4c c9 8f 3e
       0.3648285 0.24023768 -0.16950081 0.28083265
000040 85 4a 2a be e7 f8 3e 3d 10 5a b3 3e 66 a5 30 be
       -0.1662999 0.04662409 0.3502965 -0.17250594
000050 37 41 94 be b0 ec 00 be 93 14 16 be 4b b7 bc bc
       -0.28956005 -0.12590289 -0.14656286 -0.02303662

encoder.network.1.conv1.bias f4 [32]
000000 23 03 8a 3a 75 a2 8f 3c 69 e3 a6 be 87 6a 23 be
       0.0010529499 0.01753352 -0.32595375 -0.15958606
000010 aa 90 20 be 5f b2 9d 3d d9 f6 66 3d 31 d1 2b be
       -0.15680185 0.07700037 0.056387756 -0.16779019
000020 1b ec 85 3d b5 3b 1d be f2 bc e4 bd 53 52 a9 bd
       0.06539174 -0.15354808 -0.11168851 -0.08267655
000030 81 c8 2d be e4 5e 5c be f4 66 95 bd 28 e3 7c 3d
       -0.16971017 -0.21520573 -0.072950274 0.06174007
000040 c5 f1 ad be 79 b6 e0 bd 81 76 89 bd eb 9a 4c bc
       -0.33973518 -0.10972304 -0.06712056 -0.012488107
000050 53 2c 12 3c bb 68 ce bd 97 aa 21 be ec 04 6d be
       0.0089217005 -0.100785695 -0.15787731 -0.23146409
000060 e8 de e9 bd 07 d2 af 3c 9b 94 c8 bd 2f 21 df bd
       -0.11419469 0.021462454 -0.09793969 -0.10895001
000070 38 83 98 be 17 26 59 3d 03 fa 92 3e 39 f3 46 3d
       -0.29787612 0.05301484 0.2870637 0.0485718

encoder.network.1.conv1.weight_g f4 [32, 1, 1]
000000 41 bb 1d 3f e2 b1 36 3f 97 0b 1f 3f 14 b1 0f 3f
       0.6161385 0.7136518 0.6212706 0.56129575
000010 bf 58 e3 3e 6b 00 e9 3e db e6 22 3f 58 4e 17 3f
       0.44403645 0.4550813 0.6363351 0.5910392
000020 ab 8f 21 3f dd 8a 06 3f f0 4c 00 3f d1 ac 13 3f
       0.63109845 0.5255564 0.501174 0.5768557
000030 72 c1 0c 3f 00 92 f1 3e 88 b5 15 3f 22 00 e0 3f
       0.54982674 0.47181702 0.5848012 1.750004
000040 e6 df 46 3f 1c 42 fe 3e b4 77 21 3f ba e3 09 3f
       0.7768539 0.49659812 0.6307328 0.5386311
000050 92 62 98 3f 00 39 18 3f ed 9d 27 3f 51 dc 06 3f
       1.1905081 0.59461975 0.6547535 0.52679926
000060 67 43 03 3f 25 66 28 3f e6 7c 0b 3f 32 79 18 3f
       0.5127472 0.6578086 0.54487455 0.5955993
000070 18 dc de 3e 0b b5 36 3f 8e c1 ac 3f 0f 12 a5 3f
       0.43527293 0.7137 1.3496568 1.2896136

encoder.network.1.conv1.weight_v f4 [32, 24, 2]
000000 ba aa a1 bd 4c 1c 48 bd af 04 d4 bd fd 13 01 bd
       -0.07893892 -0.04885511 -0.10352456 -0.031513203
000010 25 9d 16 b3 71 cd 39 bd 2f 5d 2c 3d 23 4a 3a 3d
       -3.506752e-08 -0.04536194 0.042081054 0.04548086
000020 fa ca f5 bd 08 e8 c9 3c d4 e3 d8 bd eb 72 6d bd
       -0.12001605 0.024646774 -0.1059033 -0.057970922
000030 75 f2 94 3c f6 b6 4f bc d1 cd b9 3c a5 94 e5 bb
       0.018182019 -0.012677899 0.022681149 -0.007006245
000040 ca b7 4c 3d 04 59 5e bd 02 e3 8e 39 e4 42 cd b9
       0.049979962 -0.05428411 0.00027253485 -0.00039150484
000050 b0 73 45 3d c1 c9 e9 bb c1 46 38 3d bf 91 95 3b
       0.04820603 -0.0071346466 0.04498935 0.0045644934
000060 17 16 56 be bd e0 2f be a8 03 99 3d ea 02 4b 3e
       -0.20906864 -0.17175575 0.074714005 0.1982533
000070 c9 69 87 bd b7 66 98 bd e9 26 7d 3d d6 7f a6 3c
       -0.06611974 -0.07441466 0.061804686 0.020324629
000080 6c 5e c0 bd 56 5b 37 3c 6b 74 47 be 07 23 2a be
       -0.093930095 0.01119121 -0.19478004 -0.16614924
000090 2f 17 91 bd bc b9 07 bd 66 c5 46 bd a9 c7 96 3d
       -0.070845 -0.033136114 -0.048528098 0.07362301
0000a0 f9 19 cb 3d 95 9f 8d 3d dd 77 b4 bd a9 be 69 bc
       0.09917063 0.069152035 -0.088119246 -0.014266648
0000b0 bf 7a d4 23 72 c9 97 3d 01 d9 b4 bc 70 dc 8a 3c
       2.3037071e-17 0.074114695 -0.022076132 0.016950816
0000c0 1b ea e6 3c cd 40 ba bd 60 cf e6 bd 9a c3 f8 3d
       0.028187802 -0.09094391 -0.112700224 0.12146683
0000d0 9e 73 07 b3 65 90 d2 3c f9 29 1d be 21 54 97 bd
       -3.153729e-08 0.025703618 -0.15348043 -0.07389093
0000e0 df df 87 3d 75 b5 39 bd b2 90 1d bc 8f 0c 27 be
       0.06634497 -0.045339067 -0.009617018 -0.16313384
0000f0 5b c3 c7 3d bb aa b6 bd 22 ae 04 b3 f2 1a 22 bc
       0.09754058 -0.08919283 -3.0892018e-08 -0.00989412
000100 a0 d2 ab bd 1f 7e 0c be d2 65 e0 bd 2d 2b 22 bd
       -0.08389783 -0.13719986 -0.10956921 -0.039591957
000110 58 1c b3 bd 54 93 95 3d b7 e3 06 b2 cf 50 03 3d
       -0.087456405 0.07303491 -7.851603e-09 0.032059487
000120 6a 6c ab bc 50 eb ad 3d 9d 58 fb 3d ea e8 10 be
       -0.02092572 0.08492148 0.12272761 -0.1415135
000130 52 76 9d bd f7 79 f6 3d eb a4 a8 bd c2 c2 a6 bd
       -0.076885834 0.12034982 -0.082345806 -0.08142616
000140 76 9c 73 39 c4 47 fa bc 44 26 b8 bd db 50 d5 bd
       0.00023232572 -0.030551799 -0.089916736 -0.104158126
000150 c1 7f 4b bd 01 e7 97 bd cb 63 a2 bd be 33 a8 bd
       -0.049682382 -0.074171074 -0.0792919 -0.08212994
000160 7c d9 bc b9 3b 75 14 3c 9c 44 31 bd bf ee b0 bc
       -0.00036020193 0.009061153 -0.04327832 -0.021598218
000170 14 bf 52 bd ff 88 eb 3b 7d d2 a2 3d b0 9f 16 be
       -0.051451758 0.007187962 0.07950304 -0.14709353
000180 c0 29 c7 bc 3c 8e 6b 3d 93 ec d6 bd 48 49 a7 3d
       -0.0243119 0.057508692 -0.10494342 0.08168274
000190 bd 4a d4 3d 11 c9 14 3e ea e8 83 3d 8a 03 e6 26
       0.10365818 0.14529826 0.06440909 1.5960415e-15
0001a0 f2 bb 6f 3e 60 f7 a6 3e bd 97 2a be bc 1f 8c bd
       0.23411539 0.32610607 -0.16659446 -0.0684199
0001b0 11 1c f5 3d 69 8f 02 be f4 02 12 92 9c 17 39 b3
       0.11968244 -0.12750019 -4.6073117e-28 -4.309514e-08
0001c0 ce e3 8c 38 fb af 3a 3e 82 83 b1 25 1d 80 8e 12
       6.718152e-05 0.18231194 3.079372e-16 8.993042e-28
0001d0 29 66 a7 b8 cc 04 09 be 18 34 06 be 28 1b 6a 3c
       -7.982209e-05 -0.13380736 -0.1310581 0.014288701
0001e0 9a a0 91 be 70 01 55 be cf 46 b0 3c 85 4c ad 3e
       -0.28442842 -0.2080133 0.02151814 0.33847442
0001f0 02 eb 30 3e 4b e9 14 3e 4f 89 b2 bd 57 87 af bd
       0.17277148 0.14542119 -0.08717596 -0.08570736
000200 61 20 20 a0 44 00 cc 3d 51 2a 2d bd 56 90 a1 3e
       -1.356324e-19 0.09960988 -0.042276684 0.31555432
000210 dc fe 67 be 50 2d 45 be b3 7c a2 3e 48 0e 8b 3e
       -0.22655815 -0.19255567 0.31735763 0.27159333
000220 f6 ba ff 3d a4 6e 7d bc 5d 6b 83 bd 87 a1 f4 3d
       0.12486832 -0.015468273 -0.06416962 0.119448714
000230 13 e2 83 bd c8 5f ae 3d 71 e3 2b 3e 3e 7a e9 3d
       -0.064396046 0.085143626 0.16785981 0.11400269
000240 7e c2 9b bd 7a 63 b9 bc 35 4c 1c be e5 4a cf bd
       -0.07605456 -0.022630442 -0.15263446 -0.10121707
000250 ca ba 50 bd 57 9b f3 bd 69 9b 82 3d f8 18 62 3d
       -0.050959386 -0.11894863 0.063772984 0.055199593
000260 37 6b 7b bd 90 bd 2f bd 34 ec ef 3d d6 18 04 bd
       -0.061381545 -0.04290539 0.11714974 -0.032250248
000270 f7 ef 24 3e 90 4b 2e 3e f2 eb 94 bd 39 4d 25 be
       0.16107164 0.17021012 -0.072715655 -0.1614274
000280 6e 0c 1a 3e e3 dd d3 bd 4c 16 25 3e 6b 7d ed bd
       0.15043804 -0.10345056 0.16121787 -0.11596187
000290 13 ff 99 ba af 26 73 3c 2e 8e 64 bd 04 83 0b 3e
       -0.0011748992 0.014840766 -0.055799656 0.13624197
0002a0 08 1a 1c be e5 06 a5 bd c5 ab 31 bd 6e 2b bb 3d
       -0.15244305 -0.08057956 -0.043376703 0.09139143
0002b0 e2 4f 44 3d 89 4a 98 3d 20 d8 25 3d 75 f4 dd 3d
       0.047927745 0.074360915 0.040489316 0.10837642
0002c0 92 9b 77 bd d2 69 8d bd bc 3e 25 bd ad 10 1c 3d
       -0.060451098 -0.06904949 -0.04034303 0.03810184
0002d0 0f 0f 80 bd b2 33 0d 3d 89 7e 9e 3c d5 c6 5c 3c
       -0.06252872 0.03447313 0.019347446 0.01347514
0002e0 c7 b4 10 3e b7 1c 2c 3d 7c cf f6 3d 5d 0c 72 bd
       0.14131461 0.042019572 0.12051293 -0.05909382
0002f0 2d 1e 1d be 70 f8 e4 3d 59 17 39 3d 94 31 0a 3e
       -0.15343542 0.11180198 0.04518828 0.13495475
000300 70 7f 64 3b 56 1d c7 bd f8 36 3f be 1b 64 64 be
       0.0034865998 -0.09722392 -0.18673313 -0.22303812
000310 59 28 d9 3d 8f a3 4e 3e 89 99 98 bd 97 fa 02 be
       0.10603399 0.2017958 -0.074511595 -0.12790905
000320 4a eb 21 bc ce 80 25 be 8b 3c b2 bc 87 3b 52 be
       -0.009882757 -0.16162416 -0.021757385 -0.2053052
000330 0d 31 5c be eb 7f 2b be 70 04 cd bd 5a cb 04 3e
       -0.21503086 -0.16748016 -0.10010612 0.12968197
000340 2b 99 1f 3e 9f 0c 33 be 29 00 db bd 66 7b 03 3e
       0.15585773 -0.17485283 -0.1069339 0.12840042
000350 28 d4 e0 bd 91 33 f2 3c 8d 3e 35 3e e4 35 f9 bd
       -0.109779656 0.029565604 0.17699642 -0.12168482
000360 7d 0e 20 bc 4d ba 07 3d 78 78 07 bd 8f f2 f4 bd
       -0.009769079 0.033136655 -0.033073872 -0.11960327
000370 74 7a 32 be 13 70 3f be 98 ec db bd 05 f8 0c bd
       -0.17429525 -0.18695097 -0.10738486 -0.034416217
000380 22 e9 25 3e 59 ad 76 bd de 4d 06 3d 95 57 17 be
       0.16202214 -0.06022391 0.032789104 -0.14779504
000390 bc 65 ef bc 21 5f 11 be 2b 0d 0f bd 52 70 5b 3e
       -0.029223315 -0.14196445 -0.034924667 0.21429566
0003a0 78 f6 06 3e 36 62 8f 3d 1e d5 09 be 2d 56 4f be
       0.13179958 0.07001154 -0.13460204 -0.20247717
0003b0 ae d5 3a be 48 ef 54 be 40 d4 3e 3e 51 b4 11 be
       -0.18245575 -0.20794404 0.18635654 -0.14228942
0003c0 b4 ca 22 be a1 58 9e be 5f 04 bc bc 64 c9 a9 3d
       -0.15897638 -0.30926993 -0.022951303 0.08290365
0003d0 29 b4 3c 3e 32 65 3b be 8f 1f d9 3c 5e 85 a4 3d
       0.184281 -0.18300322 0.026504306 0.0803325
0003e0 ca 71 00 3e 6d 85 16 be 37 63 27 be 38 79 9c be
       0.12543407 -0.14699335 -0.16346441 -0.30561233
0003f0 b3 7f 12 be 4a 87 af 3d 24 38 98 be 56 f7 80 be
       -0.14306526 0.08570726 -0.29730332 -0.25188702
