1223-code-DL/model/seq2seq_bahdanau_onlyfeatures_state_dict.pt (torch, 423550 bytes, 26 tensors)

encoder.rnn.weight_ih_l0 f4 [192, 16]
000000 ea b0 b9 3d 61 0b dc 3d f8 78 4f bc 16 99 0e 3e
       0.09066947 0.10744358 -0.012663119 0.13925585
000010 cf 2a 1d bd ba 74 09 bd c4 31 98 bc 57 c7 d6 3d
       -0.038370904 -0.033558585 -0.018578418 0.1048724
000020 2b 9e 24 3e 14 bf ac bd 42 2c 93 3c 7b 8d 90 3d
       0.16075961 -0.08434883 0.01796544 0.07058235
000030 4d bf 0f 3e 6c a7 be 3c cc 15 c4 3b 58 5b b5 3e
       0.14037819 0.023273192 0.0059840437 0.35421252
000040 dc 47 30 3d 09 10 e5 bd 7e e0 00 be 3e e8 75 bd
       0.04303728 -0.11184699 -0.12585637 -0.060035937
000050 2c 0c 1a be 4a 6d 08 be 9c ab 38 be d5 7e 95 3c
       -0.15043706 -0.1332294 -0.18034214 0.018248955
000060 d5 bd 54 be cb 25 47 be b2 f8 dd bd b5 d3 3d be
       -0.2077554 -0.1944801 -0.108384505 -0.18537791
000070 97 42 c9 bd f9 6f 67 be eb 4e 44 3d 53 e1 77 be
       -0.09827154 -0.22601308 0.047926825 -0.24207048
000080 23 f2 cc bc 7e ce 9e bd 9c df b6 bd b3 6f 6b bd
       -0.025017804 -0.07754229 -0.08929369 -0.05747957
000090 c3 f4 eb bd a9 45 40 bd 63 2a ad bd fe 54 61 be
       -0.11521294 -0.046941433 -0.0845535 -0.22005078
0000a0 63 4c e2 bd 57 25 1d be dd 62 07 bd 2a 96 fe bc
       -0.11049726 -0.15346275 -0.033053268 -0.031077463
0000b0 d7 39 91 bd 8e 94 2d be 5f 0a 97 bd 9a b9 3a be
       -0.0709111 -0.169512 -0.07375025 -0.18234864
0000c0 9c 52 ac 3c 48 d9 eb bd 7b d9 35 be 41 a2 c6 bd
       0.021035485 -0.115160525 -0.17758743 -0.09698916
0000d0 0d 32 10 be b9 07 63 3d cf 11 5e bb e9 fa 1b bd
       -0.14081593 0.055427287 -0.0033885126 -0.038081083
0000e0 2b 5d 30 3d de b7 a8 bc b3 f1 c8 3c 10 97 af bd
       0.043057602 -0.020595487 0.024529314 -0.08573735
0000f0 d1 11 41 3c dd 37 0e be 72 98 78 bc 29 9f cc bc
       0.011784033 -0.13888498 -0.015173065 -0.024978237
000100 a1 41 6f 3d a4 c6 9c bb 5a a5 3f 3e e8 ba 0a bd
       0.058412198 -0.004784422 0.1871542 -0.033869654
000110 3e 14 31 bd f2 68 ff bd f4 9a 1a 3e bc 04 b3 3d
       -0.043232195 -0.124711886 0.15098172 0.087411374
000120 d7 8a 16 3e a4 cb 9b bd 29 ae 08 be f5 9b 8f bd
       0.147014 -0.07607201 -0.13347687 -0.07012168
000130 35 86 64 bd cd 81 56 3d f1 24 85 3d 89 35 af 3e
       -0.055792052 0.05236988 0.06501187 0.34220532
000140 9a c4 d4 bd 93 1c 53 3d 7c 5e 3e 3e 5b 3b 70 bd
       -0.10389061 0.051540922 0.1859073 -0.058650356
000150 53 56 0d 3e ab a7 4e bd 04 53 5d 3e 76 83 c2 bd
       0.13802461 -0.05045287 0.21613699 -0.094977304
000160 79 57 0b be df 53 eb 3d 05 2f 29 bd d5 df c7 bd
       -0.13607587 0.114906065 -0.041304607 -0.097594894
000170 c8 a2 ed 3b 3a 4e 96 3d c1 fb 8a bd 3a 46 68 bd
       0.007252071 0.07339139 -0.067862995 -0.0567076
000180 ee 3e ac 3c 24 b8 c4 bd 1a f0 99 bd d0 de 6a be
       0.021026101 -0.096054345 -0.07516499 -0.22936559
000190 3c 7c fe bd 40 f5 2f be 07 c8 2c bd c6 f0 1c be
       -0.124260396 -0.17183399 -0.04218295 -0.15326223
0001a0 9f 78 99 bc 8a f2 15 be e2 72 36 be 84 26 bf bd
       -0.018734274 -0.14643303 -0.17817262 -0.09333518
0001b0 37 fb 08 be 62 58 36 be db c2 54 bc 57 9f 48 3e
       -0.13377081 -0.17807153 -0.01298591 0.19592033
0001c0 61 65 0e 3d f0 92 14 be b7 08 0e be 8f d5 7f bd
       0.03476465 -0.14509177 -0.13870512 -0.062459525
0001d0 6b 9f e1 bb 86 48 bb bd 05 dd b1 bd de 4c dd bc
       -0.006885459 -0.09144692 -0.08684734 -0.027014192
0001e0 9a 6a 13 bc 3c 73 e3 bc bc ae 54 bc 8c f3 bc bd
       -0.008997584 -0.027764909 -0.012981113 -0.092261404
0001f0 99 5a be bd 6c 47 db bd dc 0f a9 bd 03 9e c8 be
       -0.09294624 -0.10706982 -0.08254978 -0.39183053
000200 69 63 08 3e 67 17 20 bd 44 b4 a1 3d d6 58 86 3a
       0.13319172 -0.03908482 0.07895711 0.0010249864
000210 4c ae 90 bd a3 ce 1e 3d b1 04 37 bd 22 e1 98 3c
       -0.070644945 0.038771283 -0.04468221 0.01866204
000220 69 b9 b0 bd 5b 38 13 be a4 c3 35 be 02 bc 59 bc
       -0.08629114 -0.14376967 -0.17750412 -0.013289453
000230 7f f0 83 3d 52 07 79 bd fe f8 04 3e 3b a3 8b be
       0.06442355 -0.060797997 0.12985608 -0.27272972
000240 b6 7a 8a 3d 93 0b 92 3d 40 de 98 3d 98 39 16 3e
       0.067616865 0.07131114 0.07464266 0.14670408
000250 05 60 37 3e 5e 26 d9 bc 4c 41 89 3d 95 dc 32 3d
       0.17907722 -0.026507553 0.067019075 0.043667395
000260 3c ab 00 3e 7c 5e 2d bd 76 97 01 3e d6 98 22 3d
       0.1256532 -0.042326435 0.12655434 0.039696537
000270 51 89 4b 3e e2 5b 15 3e 89 5a f7 3d a4 6a 4f be
       0.19876601 0.14585832 0.12077815 -0.20255524
000280 46 72 29 bd 36 4a 44 bd 09 a0 88 be a5 c1 60 be
       -0.041368745 -0.047922336 -0.26684597 -0.2194887
000290 73 7c d2 bd 41 e7 96 bd 55 8b 0e be 99 f7 1e bd
       -0.10277643 -0.07368327 -0.13920338 -0.038810346
0002a0 3d 55 fd bd 15 8d 72 be 3a 32 c8 be 54 27 22 be
       -0.123697735 -0.23686631 -0.3910082 -0.15835315
0002b0 3e aa a5 bd 39 d2 47 be 1c b9 07 be eb 7c 61 bd
       -0.08089112 -0.19513787 -0.13254207 -0.05505077
0002c0 d3 cf 6f be 48 d2 6f bd e9 f2 f3 3d 2b 90 9a be
       -0.23419122 -0.05855015 0.11911566 -0.30188116
0002d0 bb 66 f9 bd 84 2d 74 be a4 94 7e bd eb 3d 7a be
       -0.121777974 -0.23845488 -0.062153473 -0.24437682
0002e0 92 21 04 be 08 57 55 3c 48 93 2a bd 86 ba 50 be
       -0.12903431 0.013021238 -0.041644365 -0.20383653
0002f0 50 55 5c be cf d9 4c be 89 10 2b be b3 00 d2 be
       -0.21516919 -0.20004962 -0.16705526 -0.41016158
000300 5c 92 fb 3d 8a d3 db 3d 87 bc a1 3d 61 9a 1a bd
       0.12283775 0.10733707 0.07897287 -0.037744883
000310 88 4d 15 bd 97 a0 d3 bd c8 33 2c 3d b8 34 c1 3d
       -0.036450893 -0.103333645 0.04204157 0.094338834
000320 9c 5d f9 bd 24 13 e7 3c 81 cb 3e 3e 38 7f 41 3d
       -0.12176058 0.02820737 0.18632318 0.047240466
000330 54 ec e6 bb 0b 4f e6 bd b5 7a 14 be d4 cd cd be
       -0.0070472155 -0.11245545 -0.14499934 -0.40196097
000340 a3 a3 6c be 10 1c 23 be 2b 4c 37 bc 06 fe d6 bd
       -0.23109297 -0.15928674 -0.011187593 -0.1049767
000350 2a 8c 83 be 80 e7 92 be a7 a3 4f be e0 ed ba bd
       -0.25692874 -0.28692245 -0.20277272 -0.09127402
000360 80 a7 10 be 62 9a ee bd 3b 3c a1 bd a9 50 4e be
       -0.14126396 -0.1165054 -0.07872816 -0.20147957
000370 0c c0 6f be 5a d0 e6 bd 88 ce 5c be 83 e8 e0 bd
       -0.23413104 -0.11270209 -0.2156316 -0.10981848
000380 6a b7 f2 bd 25 df df bd 9e dc e5 3d a1 4e 85 ba
       -0.1185139 -0.10931233 0.1122372 -0.0010170528
000390 53 b3 1c be b5 60 a4 be 06 10 90 be 6e 7f 8a 3d
       -0.15302782 -0.32105032 -0.28137225 0.067625865
0003a0 28 17 b5 3d e6 b4 c0 3d 58 6c f5 3d 9c 69 72 3d
       0.08842307 0.09409504 0.119835556 0.05918275
0003b0 a3 09 ec 3c d4 4e 53 be 12 52 9a bd db 28 19 be
       0.028813189 -0.2063554 -0.07535185 -0.14956991
0003c0 56 33 72 3d f7 ee 0d be 8a c1 1d bc e6 cf a5 bd
       0.05913099 -0.13860689 -0.009628663 -0.08096294
0003d0 38 fa da 3c 8e ca db bd 3a d9 16 be e5 07 9d 3d
       0.026730642 -0.107319936 -0.14731303 0.076675214
0003e0 91 29 47 bd 96 b0 44 3d 1b f7 37 be e0 e1 d6 bd
       -0.048623625 0.048019968 -0.17965357 -0.10492301
0003f0 cd 2b 07 bd 6e 51 e6 bc 16 c6 b7 bb 76 88 77 bd
       -0.033000756 -0.028115 -0.0056083305 -0.060432874

encoder.rnn.weight_hh_l0 f4 [192, 64]
000000 c4 5e 4b be 49 f7 e1 3c d0 ea 4d 3c b6 7a 24 be
       -0.19860369 0.027583735 0.012568191 -0.16062436
000010 14 53 83 bd 21 73 d2 3d 9f 89 00 be ab ac dd bc
       -0.0641233 0.10275865 -0.12552498 -0.027059874
000020 ff e7 e8 3c 76 df 19 3d b7 50 8b bd c1 f2 9f be
       0.028430937 0.037566625 -0.068025045 -0.31239894
000030 c3 2a a0 bd ac 66 10 3e cd 80 89 bd df cd 2c 3e
       -0.07820656 0.14101666 -0.0671402 0.16875409
000040 31 10 0e 3b af 7a 11 be f9 bf 37 3e fd f6 8e 3b
       0.0021677131 -0.14206956 0.17944326 0.0043629394
000050 72 f5 8d bd 43 5b bf bd 7a 94 4c 3e 83 93 2a be
       -0.069315806 -0.09343579 0.19978514 -0.16657834
000060 d9 4c 44 be 0d 63 cd 3d 81 ba 6a be 60 1d 19 3d
       -0.1916994 0.10028658 -0.22922708 0.03738153
000070 dc 90 2b 3e 62 1f e0 bc be 84 0b be 83 df 2c bd
       0.16754478 -0.027358714 -0.13624856 -0.042205345
000080 af 6b 43 3d f8 94 27 3e 88 3e 47 bc c9 3f 38 3e
       0.047710117 0.16365421 -0.012160905 0.17993082
000090 75 02 6b 3c aa 53 2d be 0d 9a 3b 3d ba cd 12 bd
       0.0143438475 -0.16926447 0.04580121 -0.035840727
0000a0 55 3f 5d 3d 6b 69 bf 3d 9c 74 6e be 6d 95 4d bd
       0.054015476 0.09346279 -0.2328667 -0.05019133
0000b0 a4 5a aa 3d b4 90 09 3e 44 be ba bd 64 66 36 be
       0.083180696 0.13434106 -0.091183215 -0.17812496
0000c0 0b 0c 93 3d 62 f4 53 3d 28 b6 a4 bd 34 bf c4 3d
       0.071800314 0.051746733 -0.08042556 0.096067816
0000d0 3c 48 06 3d 11 e6 0d 3d 53 ab 93 3c b7 63 e7 bb
       0.03278373 0.034643237 0.01802603 -0.0070614475
0000e0 60 06 b3 3d a7 06 e4 bc fb 55 c8 3b 1e af 78 3d
       0.0874145 -0.027835203 0.0061137653 0.06071388
0000f0 f2 b0 05 bd c9 99 67 bc 16 43 14 bd 7e ac ff 3c
       -0.03263945 -0.014135786 -0.03619679 0.03121018
000100 07 69 41 3e 25 78 5d be d3 15 2c 3e 57 78 07 be
       0.18887721 -0.21627863 0.168052 -0.132295
000110 24 dc 03 be d8 3a 4c bd 7e 24 3e be 8e 63 0d 3e
       -0.12876946 -0.049860805 -0.18568608 0.13807508
000120 69 55 96 3d 2e 22 a5 3c e0 d2 27 3d 63 9e 34 be
       0.073405094 0.0201579 0.04097259 -0.17638545
000130 97 9b c8 3d a6 9b 78 bd a2 a2 b0 bd e9 da b9 3d
       0.097953014 -0.060695313 -0.0862477 0.09074957
000140 97 b6 03 3d 69 48 e7 3d fb 26 51 3c ca 52 39 3e
       0.032156553 0.11293108 0.012765641 0.18097988
000150 4d 45 f9 3d fe aa 35 3a 6f d0 18 3e 3b c9 12 be
       0.12171421 0.0006930082 0.14923261 -0.14334576
000160 4e 5e fc bd d5 dd 10 3e 78 94 1b be bb d0 6d bb
       -0.12322675 0.14147122 -0.15193355 -0.0036287743
000170 5c fd 86 bc a0 d6 f1 3c c7 9f 55 be cf 03 75 bc
       -0.016478233 0.029521286 -0.20861731 -0.014954521
000180 b7 58 b2 3d 32 21 45 3d a0 d8 c1 3d e2 00 8d 3d
       0.08708327 0.04812736 0.09465146 0.06884934
000190 b7 7b b5 3d 90 d6 2f be 9d 08 b3 bc a7 56 21 be
       0.08861487 -0.17171693 -0.021854693 -0.15755711
0001a0 c1 45 f7 bc 4c c4 05 bd cf 45 ea 3c a7 54 7e 3c
       -0.030184628 -0.032657906 0.02859774 0.015523112
0001b0 30 51 64 3c 96 a6 af bc ea 2d ea 3a 4c 9a 12 bd
       0.013935372 -0.021441739 0.0017866467 -0.03579168
0001c0 d7 49 88 3e a3 00 13 3c bb 02 89 3c 49 d1 63 3d
       0.26618835 0.00897232 0.016724935 0.05561951
0001d0 21 4e c6 bd 3b bb 1b 3c 80 c7 1f 3d d3 4b e1 3b
       -0.09682871 0.009505088 0.039008617 0.006875494
0001e0 a7 1b 5d 3d 42 89 7e bd e9 10 f4 bd 1f c5 26 be
       0.05398145 -0.062142618 -0.11917288 -0.16286133
0001f0 12 46 66 3d 43 a1 6f 3d 8b 66 94 bd f7 6b 84 bd
       0.056219168 0.0585034 -0.07246121 -0.06465905
000200 fc 62 42 3c 25 df 10 be 19 6c 6d 3e e8 09 93 bd
       0.01186442 -0.14147623 0.23185767 -0.07179624
000210 80 43 3d be c3 c1 b5 3d f9 d5 c1 3c 55 a7 b2 3e
       -0.1848278 0.08874848 0.0236616 0.3489329
000220 dd ab f9 3d f1 07 c8 bd b5 ee 87 bc aa 31 c9 3d
       0.121909834 -0.0976714 -0.016593317 0.09823926
000230 41 2c 88 3d 94 6c 47 3d d5 cc 83 3d 29 e9 4b 3e
       0.06649066 0.048687533 0.06435553 0.19913162
000240 e0 5e 5c 3e 80 95 4f 3d d0 96 a0 bd 5c 71 5c 3c
       0.21520567 0.050679684 -0.07841265 0.013454761
000250 75 1d ef 3d 73 3c 7f 3d 73 3c c2 3d fc 7a df bd
       0.1167554 0.06231351 0.09484186 -0.10912129
000260 bd b5 42 bd 58 3e aa bd 13 4a ce bd ca ca dd 3d
       -0.0475366 -0.083126724 -0.10072722 0.108296946
000270 3e fa 62 bc ff 5e 20 3d d6 50 0d be 5a 3e 52 3d
       -0.013853608 0.039153095 -0.13800368 0.051328994
000280 f6 bc c4 bc d7 ca 5f 3e 41 ff 8e bc f6 c5 cb 3d
       -0.024015885 0.21854721 -0.017455699 0.099498674
000290 24 b2 32 bc a5 09 d7 3d d1 00 0b be b2 0b 04 be
       -0.01090673 0.104998864 -0.1357453 -0.12895086
0002a0 4e 5d de bd ec 5b 23 3c b0 3d 6b bd 7e 18 03 bd
       -0.1085764 0.009970646 -0.057431877 -0.03200578
0002b0 1c be 13 3e d7 45 50 3e c8 25 34 be e9 e5 b4 3b
       0.1442799 0.20339142 -0.17592537 0.0055205715
0002c0 be 07 3b 3e 83 c9 8c bd 06 33 9a 3c 07 f8 73 bd
       0.18264672 -0.06874373 0.018823158 -0.05956271
0002d0 98 02 38 bd 76 3c f8 3d 74 2f 0d 3d 34 b2 8b 3d
       -0.04492435 0.12120907 0.034469083 0.06821099
0002e0 e5 36 16 3e 7e 0f d5 bd b3 52 1d bd 48 97 79 be
       0.14669378 -0.104033455 -0.038408946 -0.24374115
0002f0 3b 7f 7d bd af 87 40 3d c0 ca 9a bd 02 0e 64 be
       -0.061888915 0.047004398 -0.07558203 -0.22270969
000300 7d 4e 03 3c fc 25 de bd f1 39 80 3d 56 06 41 3b
       0.0080143185 -0.10847089 0.062610514 0.002945324
000310 cd 4b d9 bd 41 80 de 3d 47 db 27 be 2d 26 c9 3d
       -0.10610161 0.10864306 -0.16392241 0.098217346
000320 f4 ba e2 bc b9 46 b3 bd 2a 36 11 be 8c 0d 00 be
       -0.027677037 -0.08753724 -0.14180818 -0.12505168
000330 bc ec 95 bc 0e e0 f5 3d 1a dc 67 bd 99 24 1c 3e
       -0.01830136 0.12005626 -0.05660639 0.15248336
000340 82 36 95 3c 38 64 e0 bd fb 9b 13 3d bc 34 9d 3d
       0.018214468 -0.10956615 0.036037426 0.07676074
000350 07 f8 50 3d 9a 26 66 3d d5 fc 33 3e 84 a5 44 3d
       0.051017787 0.056189157 0.17576917 0.04800941
000360 d8 a3 0a 3e 3e be 9d 3d 44 c0 5d bd 89 77 9f bd
       0.13539064 0.077023014 -0.054138437 -0.077864714
000370 c8 a4 21 3e 32 6e 27 3d 22 40 98 bd e1 03 08 3e
       0.15785515 0.040876575 -0.07434107 0.1328273
000380 48 5c 1f be 3d bc c5 3d dd d1 92 bc ce 6d d5 bc
       -0.15562546 0.09655044 -0.017922336 -0.026053336
000390 02 a2 08 3c 71 03 f0 bd 2f a6 11 3e f0 0e b1 bd
       0.008339407 -0.117194064 0.1422355 -0.08645427
0003a0 02 3c 71 bd a9 16 61 3d 15 15 0e be 51 95 9b 3d
       -0.05889512 0.05495325 -0.1387523 0.07596839
0003b0 cb bf 5c 3d 8e 08 24 3d cc 45 fd 3c 0d 8c 13 bd
       0.053893846 0.04004722 0.03091707 -0.036022235
0003c0 64 61 c0 3d 11 b1 fa 3c b1 7a 36 be fc 0f 83 bd
       0.09393576 0.03060201 -0.1782024 -0.06399533
0003d0 b2 e7 bf bc 2e 70 39 bd 59 6f 62 bc 65 fa ed bb
       -0.02342591 -0.045273 -0.013820493 -0.0072625154
0003e0 14 94 7e 3d 3b 81 76 3d 7e 7e 38 be 39 8e 3f bd
       0.062152937 0.060181838 -0.18017003 -0.046766493
0003f0 43 c4 aa bd 03 6b b3 bd 7a 6a 08 bd 06 b8 2c be
       -0.08338215 -0.08760645 -0.03330467 -0.16867074

encoder.rnn.bias_ih_l0 f4 [192]
000000 14 08 e2 bd 05 48 23 be 92 5d b0 bd c5 59 a3 bd
       -0.11036697 -0.15945442 -0.08611597 -0.079761066
000010 f8 59 c6 ba 79 5c 92 bd ab 80 ca bd 92 ec 55 bd
       -0.0015133014 -0.07146544 -0.09887823 -0.052227564
000020 9b 2a 03 3e 72 35 11 3e 51 be d3 bd 7f 99 d7 bd
       0.12809221 0.14180544 -0.10339034 -0.10527324
000030 d9 46 4e bd 75 6a 43 be d1 8d 4d 3d 5c e6 f1 3d
       -0.050360534 -0.19083579 0.050184075 0.11811516
000040 11 e2 16 3c 7b 2e 0a be 80 62 d1 bc de 98 4a 3d
       0.009209172 -0.13494293 -0.025559664 0.04946219
000050 1c 08 f8 3c 3e 87 77 be cf 23 bb 3d a1 8b f3 bd
       0.030277304 -0.24172685 0.09137689 -0.118918665
000060 9c bc 63 bc 2d 43 e7 3b 72 c3 95 bc 09 e9 21 be
       -0.013899948 0.0070575685 -0.018281672 -0.15811552
000070 5c 30 c8 bd fe 54 07 be 6b 1c 57 3d 35 60 e9 bc
       -0.09774849 -0.13216016 0.052517336 -0.028488258
000080 21 81 55 be 45 20 c3 bd c0 58 28 bc 07 3d c3 3d
       -0.2085004 -0.09527639 -0.010275066 0.095331244
000090 3d 42 a1 bd d7 c3 ce bc a9 65 9b 3c 60 29 f0 bd
       -0.07873962 -0.025239868 0.018969374 -0.11726642
0000a0 95 16 d2 bd 3f 27 6f 3d 56 0b 4b be 0d bb 00 3d
       -0.102582134 0.058387037 -0.19828543 0.031428386
0000b0 b3 75 cd bc 43 d9 53 3c 48 05 1b 3d 3e ae 09 3e
       -0.025080537 0.012930217 0.037846833 0.13445374
0000c0 91 76 88 3c 87 b3 60 3d 1d 77 05 3e 02 e8 0e be
       0.0166581 0.05485871 0.1303372 -0.13955691
0000d0 ce 6b 04 3e e8 c4 77 3c cf fa b3 3d 68 93 42 bd
       0.12931749 0.01512263 0.08788072 -0.04750386
0000e0 53 d9 cc bd 98 5c 3b be 32 ea 73 bd 16 e2 c4 bd
       -0.10002389 -0.1829704 -0.059549518 -0.09613435
0000f0 da 42 c0 bd 88 fa ac bd dc b5 18 bc 28 7d 4d 3d
       -0.09387751 -0.084462225 -0.009320702 0.050168186
000100 ea 1a b5 3d ba 01 ff bd d1 a7 ef bc f0 41 b8 3e
       0.08843024 -0.12451501 -0.029254826 0.35987806
000110 c5 25 5c be f4 9c b8 3d 3c d3 72 bd f7 fc 5a bd
       -0.21498783 0.090143114 -0.05928348 -0.053463902
000120 e0 59 f1 bd c6 a4 40 3e 83 fe 4e 3d c5 17 00 be
       -0.117847204 0.18812856 0.05053569 -0.12509067
000130 73 ec 52 be d3 92 35 3c 21 fe 22 bd 70 74 4e 3e
       -0.2059801 0.011082369 -0.039793137 0.20161605
000140 a6 f5 41 3e 16 a7 c6 bc 53 f3 58 3e 8f 6c 4e 3e
       0.18941364 -0.024249595 0.21186571 0.201586
000150 6a d1 54 bd 65 c5 0b be d7 38 1d 3e 3e dd 5e be
       -0.051957525 -0.13649519 0.15353714 -0.21764085
000160 16 63 7b be 57 f4 ad bc 7c e1 45 3e 62 c6 08 be
       -0.24549517 -0.021234674 0.19324297 -0.13356927
000170 f1 e9 89 3e 59 63 87 3e c4 55 d4 3d 05 36 29 be
       0.26936296 0.26442984 0.10367921 -0.16524513
000180 ff 03 35 be 99 c6 78 3e f1 74 11 be f7 29 79 3e
       -0.17677306 0.24294509 -0.14204766 0.24332415
000190 d3 30 82 bc 23 df 42 3d 43 a9 28 be 27 03 47 3e
       -0.015892422 0.04757608 -0.16470818 0.19434796
0001a0 70 ff 6b be 64 f3 18 3e 05 51 2f be 36 40 66 3d
       -0.2304666 0.14936596 -0.1712075 0.05621358
0001b0 4e 90 2c 3d fb 5e b9 3e 8e ac 0c be c3 d8 93 3c
       0.042129807 0.36205277 -0.137377 0.018047696
0001c0 8d 6e b5 bd 91 4d c6 3d 73 73 a5 3d 6f 2a 0f 3c
       -0.088589765 0.09682763 0.08078661 0.008738144
0001d0 d2 40 10 3d 3f d2 e1 3c fb b2 31 3e 39 60 ff bc
       0.035218067 0.027566073 0.17353432 -0.031173812
0001e0 6a 5c dd bd e1 fd c4 3e 54 7a bf 3e 94 8e 7b be
       -0.10808642 0.38474944 0.37398016 -0.24566108
0001f0 97 a0 aa bd 41 ad c4 bd 3c 54 54 3d 81 24 55 3e
       -0.08331411 -0.09603358 0.051838145 0.20814706
000200 18 5b 77 3c 8b d1 40 3c 71 37 ee bc ff 3e b3 3d
       0.015097402 0.011768709 -0.02907917 0.0875225
000210 4f 91 6e 3d 07 e1 b6 3d 46 ce ac 3d ca a4 d9 bc
       0.058244046 0.08929639 0.08437781 -0.026567835
000220 7f 5b 7f 3b 4f 75 83 3d 75 44 6d 3c c6 2e f9 3d
       0.0038964448 0.06418859 0.014481653 0.121671245
000230 0e 4b 88 3c 93 58 c8 bd d0 44 78 bd 9f d0 aa 3d
       0.016637351 -0.09782519 -0.0606125 0.083405726
000240 f7 76 92 3d 8b 8e 62 3d 4e 91 01 3e 2b 5c fd 3d
       0.07151597 0.05531172 0.12653086 0.12371095
000250 11 b7 6e bd 54 3f 9e 3d 69 e1 c3 3c 95 72 30 3c
       -0.058280054 0.07726923 0.023911195 0.010769506
000260 03 7e d9 bd 58 13 14 be 79 e1 a3 3d bf 26 19 bd
       -0.10619738 -0.14460504 0.0800199 -0.037390467
000270 ef f4 1d bd e6 37 a4 bd 15 2e 69 bd 03 70 19 3d
       -0.038563665 -0.08018474 -0.056928713 0.03746034
000280 f9 02 ab bd 27 cc b2 3b d0 12 93 bc cc 95 a2 3d
       -0.08350176 0.0054564658 -0.017953306 0.07938728
000290 f4 6e 99 bc b5 be a3 3d 5c 09 1c 3d 6a 59 ea 3d
       -0.018729664 0.07995359 0.038094863 0.11442836
0002a0 c8 06 b6 3d 0e f5 8f bc dc 0c d3 3d 08 30 b3 bd
       0.08888012 -0.017572906 0.10305187 -0.087493956
0002b0 f8 d6 d7 39 46 0e 93 3c 0f 40 a8 3d 56 4d e6 bd
       0.0004116816 0.017951142 0.08215343 -0.112452194
0002c0 92 a4 4e bd 6a 7b c9 3d f5 a0 62 bd 0a 55 45 3d
       -0.050449915 0.098379925 -0.05532928 0.048176803
0002d0 18 b2 30 3e d2 cd ec bd 7b c2 64 bd e4 32 97 3c
       0.17255437 -0.115626946 -0.055849534 0.018456884
0002e0 79 fa 12 3d 56 a1 8b 3d 41 6e e0 bd 70 2e f9 bb
       0.0358834 0.06817882 -0.10958529 -0.0076044127
0002f0 8b 25 e1 3c 6d 31 88 3d b8 64 94 3d f6 59 bd 3d
       0.027483722 0.06650052 0.07245773 0.09245674

encoder.rnn.bias_hh_l0 f4 [192]
000000 ed 9a 15 bd a1 cb b8 bd 92 7c b1 bd a0 1f 45 3d
       -0.036524702 -0.09023214 -0.08666338 0.048125863
000010 9d 0a 93 3d c5 e0 eb 3d b6 a2 6d bd 89 f2 50 3d
       0.07179759 0.11517481 -0.0580165 0.05101255
000020 f8 f5 13 3d 16 86 2c 3e 1e 05 1d bd 5a 1e a5 bd
       0.036123246 0.16848025 -0.03833496 -0.0806243
000030 cd 4b d4 bd 77 31 2f be 82 86 87 bd fd 65 04 bc
       -0.1036602 -0.17108713 -0.06617452 -0.0080809565
000040 ad c0 fd 3d 39 ef dc bd d1 56 b3 bd 9d d1 9a bd
       0.123902656 -0.107878156 -0.08756793 -0.07559512
000050 35 12 08 3d d9 3c 43 be 8a 15 ce 3d 19 fc 20 be
       0.03322049 -0.1906618 0.10062702 -0.15721168
000060 5b 53 04 be b4 26 af bc 11 e9 04 bc 74 91 c3 bd
       -0.12922423 -0.02138076 -0.008112208 -0.09549227
000070 54 22 f5 bd 65 87 04 be 51 1b 79 bd f3 a5 ac 3b
       -0.11969438 -0.12942274 -0.060817067 0.005268806
000080 3a 0a 08 bd a3 22 06 bd 3a e0 d5 3d e3 29 9b bd
       -0.033212878 -0.032747876 0.104431584 -0.07576349
000090 39 a2 69 bd 73 0a 47 be be 00 38 be a5 21 54 3c
       -0.057039473 -0.1943758 -0.17969033 0.012947475
0000a0 b5 e4 8b 3d e1 44 8b bd 87 7f 60 be 4e c1 16 bd
       0.06830732 -0.06800247 -0.21923648 -0.036805443
0000b0 4c e0 25 3e 20 16 b5 3d 78 05 b5 bd b6 37 1e 3e
       0.16198844 0.08842111 -0.08838934 0.1545094
0000c0 74 56 27 3d f5 9d ef 3d 03 ba 93 3c 1e 2b ed bd
       0.040853932 0.1170005 0.018033033 -0.115804896
0000d0 31 1b 1c 3d 1e 10 46 3c 2d 75 77 3e 09 cc e5 bd
       0.03811187 0.012088804 0.24165793 -0.11220557
0000e0 64 78 e7 bd c5 36 48 bd 21 20 b7 bc e9 cc 9e bd
       -0.113022596 -0.048880357 -0.022354187 -0.07753927
0000f0 3f 3e 40 be 31 8c 14 be 24 fc 1f bd e6 14 80 bc
       -0.18773745 -0.14506604 -0.03905882 -0.015634965
000100 ca 10 e3 3d 62 0f 60 be 93 39 88 bd 4d 20 39 3e
       0.11087187 -0.21880868 -0.066516064 0.18078728
000110 6a 7d a3 be 10 b4 f8 3d 6d b0 db bb 78 cc 72 3d
       -0.3193162 0.12143719 -0.006704381 0.059277028
000120 1e 67 1f bd 24 9f 4a bc a5 b3 0e 3e 5a fd 82 bd
       -0.0389167 -0.012367044 0.13935716 -0.06395979
000130 69 2d d6 3a 82 d4 83 3c da 0e be bd 82 c2 39 bb
       0.0016340438 0.016092543 -0.092801765 -0.0028344695
000140 f2 27 50 3e 4d b4 e7 3d 48 78 aa 3e 34 b3 21 3e
       0.20327738 0.113136865 0.33294892 0.15791017
000150 73 60 b0 3d 1d 40 19 be bd 64 2b 3d ed ef f8 bd
       0.08612146 -0.14965864 0.04184412 -0.12155137
000160 22 5e dc bd 3e ce 35 be e4 fe 13 3e 3c cd 89 bc
       -0.10760142 -0.17754456 0.14452702 -0.016821496
000170 4e 46 67 3e fa 28 7e 3d 84 ff 7e bb 43 7d 88 bd
       0.22585413 0.062050797 -0.0038909623 -0.06664517
000180 19 de df bc 67 2c ab 3e 01 53 8c be d0 e6 bd 3e
       -0.027327584 0.33432314 -0.27407077 0.37090158
000190 05 89 18 3e 7a 7b 23 be 48 ef 48 be 07 1b 75 3e
       0.14896019 -0.15965071 -0.19622529 0.23936091
0001a0 bf 10 16 be 3b 2c e4 3d 47 08 3f be 43 a2 04 3e
       -0.14654826 0.11141249 -0.18655501 0.12952523
0001b0 23 5b 8e 3c ff ed 2e 3e c8 c9 03 3c 5d c0 00 3b
       0.017377442 0.17082976 0.008043714 0.0019645907
0001c0 d7 5c 95 3d cd dc aa 3d 49 90 9d 3d 1e 54 1e 3d
       0.072930984 0.08342896 0.07693536 0.03865444
0001d0 ac 61 b4 3d 78 95 e8 3c f7 25 99 3e a3 d4 1d be
       0.08807692 0.028391585 0.29911777 -0.15413146
0001e0 be 45 6f be 75 c8 eb 3e 05 85 25 3e 16 d3 f6 bd
       -0.23366448 0.46051374 0.16164024 -0.1205198
0001f0 94 ee 2b be 28 b0 b0 bc 69 dd 14 3e 39 d2 36 3e
       -0.16790229 -0.021568373 0.14537586 0.17853631
000200 53 d4 ce bc 5d 6c e8 3b 52 5b 03 bd 47 14 f8 3d
       -0.025247728 0.007092996 -0.03206951 0.121132426
000210 2a 62 d9 bd c6 a5 60 3d b3 f7 ce 3d 15 7d 0c be
       -0.106144264 0.054845594 0.101058386 -0.1371959
000220 49 85 b2 bd e0 fe 6a 3c 29 1f e3 bc 81 51 68 3c
       -0.087168284 0.0143429935 -0.02772482 0.014179588
000230 3d e9 0c be 84 f3 6c 3d 76 46 0e 3c 9e 4a 08 3d
       -0.13760848 0.057849422 0.008683791 0.033274285
000240 a2 2f 54 bd 8b 53 4f 3d 3c 43 10 3d ef 1f 83 bd
       -0.05180324 0.050616782 0.03522037 -0.06402575
000250 0a 21 f7 3c 6a e3 f1 bb 52 f7 04 3d b5 61 ce bd
       0.030167121 -0.007381846 0.032462426 -0.1007723
000260 86 1a 09 bd 2b 4e 21 be a8 17 a4 3d 30 0f 88 bd
       -0.03347256 -0.15752475 0.080123246 -0.06643522
000270 87 dd 9f 3d 9f f3 81 3c 90 21 8b 3d b4 97 d9 bd
       0.07805925 0.015863238 0.06793511 -0.10624638
000280 9b 7d a5 bd de 7f 97 bd a3 fd 9f bd cf 7d 05 bd
       -0.08080598 -0.073974356 -0.07812049 -0.032590684
000290 82 09 14 3e f2 72 d8 3d f8 e8 ea bc 81 57 d0 3d
       0.14456752 0.10568799 -0.028675541 0.1017294
0002a0 30 eb a9 bd b5 e4 de bd 0f 40 4e 3d 4c 0a 77 3d
       -0.082968116 -0.10883466 0.05035406 0.060312554
0002b0 7d d5 31 3c 26 1d f2 bd 46 f4 c4 3c 20 37 b4 3d
       0.010854122 -0.11821966 0.02404226 0.08799577
0002c0 40 a1 d3 3d 86 81 e7 3d 26 c8 2f bd 40 fd d5 3d
       0.1033349 0.113040015 -0.042915486 0.10448694
0002d0 80 16 8f 3d 6b 0b 37 be 95 dd 9b bc 3a 78 f2 bd
       0.069867134 -0.1787545 -0.019026557 -0.11839338
0002e0 d4 8d 13 bc 7c ff ab 3b c7 d0 9f bd 94 32 89 3c
       -0.009005982 0.005248962 -0.07803493 0.01674775
0002f0 54 23 ba 3d be 76 dd 3c cb 12 1f bc 1f 70 98 3d
       0.090887696 0.02703416 -0.00970907 0.074432604

encoder.rnn.weight_ih_l1 f4 [192, 64]
000000 a4 89 ed 3d 07 ec 83 be 03 29 2f 3e 28 00 5e be
       0.115985185 -0.25766012 0.17105488 -0.21679747
000010 4e fe 44 3c c5 47 d8 bd cc f4 8c bc 5e e9 8c 3e
       0.012023522 -0.10560564 -0.017206572 0.27521795
000020 4b 0d da ba 4e 46 3b 3c 8a fa ad bd 89 70 83 3c
       -0.0016636042 0.011430336 -0.08495052 0.016044872
000030 68 84 e3 3d a4 1b 84 bd 0e 6f 42 be 06 c5 2b 3e
       0.11109239 -0.064505845 -0.18987677 0.16774377
000040 36 5b 9b 3e 62 bd 00 bd 70 9a d0 bd 28 36 fb 3c
       0.30343026 -0.03143061 -0.101857066 0.030665472
000050 6e 7c 46 3e 3a 77 d5 bd 9e df 31 bb 9b e6 c2 3d
       0.19383404 -0.10423131 -0.0027141343 0.09516641
000060 f1 df 99 bc 1f b1 d3 3c 10 f6 75 bd 14 17 03 be
       -0.018783541 0.025841294 -0.060049117 -0.12801772
000070 80 70 86 bb cf a8 d8 bd 75 19 a7 bd d0 69 73 3e
       -0.0041027665 -0.10579073 -0.081591524 0.23770833
000080 b9 00 58 bc d9 68 82 3d 1b ca 19 3c 19 8e 0e be
       -0.013183766 0.06367654 0.009386565 -0.13921393
000090 75 78 7d bb 69 9c 05 3d 32 ef 2a bb 16 c7 4e be
       -0.0038676534 0.032619867 -0.0026082513 -0.20193133
0000a0 96 c7 85 bd 1e ef 19 3c e4 11 4f bd 78 f4 03 be
       -0.065322086 0.009395389 -0.05055417 -0.12886226
0000b0 e9 8d 26 3d dd 50 01 3e f5 43 99 bd 89 10 c9 3c
       0.04066268 0.12628503 -0.07483665 0.024544017
0000c0 d4 1a 84 3e a8 a1 3e bd e1 20 15 bd 4b 40 c2 3b
       0.25801718 -0.046540886 -0.03640831 0.0059280745
0000d0 50 48 b8 3d b5 86 ec 3c ce 3d 40 3e 60 e2 d0 bd
       0.089981675 0.028872827 0.18773577 -0.101994276
0000e0 e7 6e 77 3e 7d 11 3a be 23 b0 e5 bd fc 99 7e be
       0.241634 -0.18170734 -0.11215236 -0.24863428
0000f0 aa ae 10 3e 92 f7 24 3e 61 23 1e be f4 a6 3b bd
       0.14129129 0.16110066 -0.15443183 -0.045813516
000100 92 3e c2 3d 3e d7 30 3d 3f 60 14 3e c9 6e f8 bd
       0.094845906 0.04317402 0.1448984 -0.121305056
000110 7c 81 fb bc 29 1b 69 3e 10 67 24 bc 13 6c 26 3d
       -0.030701391 0.22764267 -0.010034338 0.04063041
000120 8d a0 68 be c0 a7 39 bb c6 0c 49 3c b8 3a 3b be
       -0.22717495 -0.0028328747 0.012271112 -0.18284118
000130 7e 97 67 3d 86 85 41 3d e4 1e d4 bd b3 10 ac bc
       0.05654096 0.04724648 -0.103574544 -0.021004057
000140 08 4d 24 3e 3e e3 04 bd 66 3b 0b 3e c8 9a a6 bc
       0.1604501 -0.032443278 0.13596877 -0.020337477
000150 e5 7f 88 3d bf 75 e2 bb 7d ea f6 3d ed db 43 bd
       0.06665019 -0.006911009 0.12056444 -0.04781716
000160 df 89 2f bd dc 6a 90 3d 6f 2c 22 be 2f 92 72 be
       -0.042856093 0.07051632 -0.15837263 -0.23688577
000170 1c 44 d9 bd da de 18 bd c4 aa 51 be 68 52 01 3e
       -0.10608694 -0.037321903 -0.20475298 0.12629092
000180 b4 3d a0 3d 03 21 41 bd b8 72 88 bd ef 63 ff 3d
       0.07824269 -0.047150623 -0.06662506 0.12470233
000190 ee 7b e5 3d 8e d7 ad bd 5c f2 03 3e b6 d1 d1 bc
       0.11205278 -0.084883794 0.12885422 -0.025612693
0001a0 55 cb 61 bd 54 be d2 3c c0 9d e0 bc ff d8 65 3d
       -0.055125553 0.025725521 -0.027418971 0.056115147
0001b0 71 a7 32 3d 36 58 6f be d8 e2 2f be 96 3e 54 bd
       0.043616716 -0.23373494 -0.17176378 -0.0518175
0001c0 9b cb 3a 3e c5 29 c5 3d 71 b3 0c be 05 8f 47 3d
       0.18241732 0.096271075 -0.13740326 0.04872038
0001d0 96 0f f9 bd be a8 0a be dd 05 9a 3e f6 5e 15 3e
       -0.12161176 -0.13540933 0.30082598 0.14587006
0001e0 23 ae 64 3d c7 11 0e bd 74 29 75 be eb f3 ee 3d
       0.055830132 -0.034684923 -0.23941594 0.116676174
0001f0 02 05 29 bd b2 f7 24 3e 9c 0c b0 3c ce 31 87 3d
       -0.04126454 0.16110113 0.021490388 0.06601296
000200 56 3c 4e 3b 32 b7 26 3d 64 b1 08 3e 15 16 d3 bd
       0.0031469068 0.040702052 0.13348919 -0.10306946
000210 67 99 e3 3d 71 5a 2d be f5 fd bc 3d 5e 1b f0 bb
       0.111132436 -0.16929032 0.09228126 -0.007327481
000220 5c c6 97 bd 8f 6c e1 bc 18 9a be bd 82 b3 11 3e
       -0.07410881 -0.027517585 -0.09306735 0.14228633
000230 aa dd e7 3d 02 85 6e 3d 79 78 82 bc e9 01 a2 3d
       0.11321576 0.058232315 -0.015926586 0.079105206
000240 c6 b2 35 3e 6c d3 48 3c a5 54 ae bd 7f 05 f9 3c
       0.17743978 0.012257438 -0.085122384 0.030398129
000250 9f cd 55 3e c8 7f 03 3e b7 53 3c 3e f6 2b eb bd
       0.2087922 0.12841713 0.1839131 -0.11482994
000260 48 a2 d5 3b ca 78 79 3d b1 fe 2a bd 2e ed 79 3c
       0.0065195896 0.06090621 -0.0417468 0.015254302
000270 ed 1e a6 3d c9 83 e6 3d 96 c5 37 be 21 18 f4 3c
       0.081113674 0.11255605 -0.17946467 0.029796662
000280 a6 df 40 bd b0 bb 63 bd 90 bb 2e 3e c4 0c eb 3d
       -0.047088288 -0.055598915 0.17063737 0.11477044
000290 76 73 ef 3c d3 3a 6c 3d 1b b4 c0 bd 8d bb 0d 3e
       0.02922986 0.057673287 -0.094093524 0.13841076
0002a0 20 37 94 3c 77 93 9e bd 3f 90 3a 3d 36 70 99 3d
       0.018092692 -0.077429704 0.04554772 0.07492106
0002b0 b5 91 87 bd 65 4e 11 bd 4f 2f 90 3d 08 f9 25 3c
       -0.06619588 -0.035475153 0.070402734 0.010130174
0002c0 81 cc d2 3d 27 21 f9 bd 0a d3 7e bd 9a 8a b5 3d
       0.10292912 -0.121645264 -0.06221298 0.08864327
0002d0 c2 fd d7 bd e0 e1 f2 bd 33 48 e9 3d d1 e1 55 3d
       -0.10546447 -0.118594885 0.11390724 0.05221731
0002e0 7d dd 24 bd 41 c6 56 3e a4 e7 8b 3d b5 9b 8d bd
       -0.04025029 0.20974065 0.06831291 -0.069144644
0002f0 15 44 7d be f6 ff f3 bc 4b b9 c0 3c 71 da 8c 3d
       -0.24733002 -0.029785138 0.023525855 0.06877602
000300 48 84 ae 3d 2d c4 28 3d 33 69 f2 bd 5f 06 25 3e
       0.085213244 0.041202713 -0.118364714 0.16115712
000310 ba e2 67 3d e2 e4 79 3e b5 7e ad bc 6f 3d b1 bd
       0.056612708 0.24403718 -0.021178583 -0.08654296
000320 3d 6b e5 bd 22 eb 90 3d 05 cc a9 3e 11 a4 de bc
       -0.11202095 0.07076098 0.33163467 -0.027177842
000330 e6 b2 bb bd b5 5b ea 3d b2 6e 23 be d1 fb bc bc
       -0.091649815 0.11443273 -0.15960196 -0.023069294
000340 62 b6 7a 3d 38 a7 7e be ee f9 8e 3e c9 20 0f 3e
       0.06120909 -0.24868476 0.27925056 0.1397735
000350 3e 47 b9 bd 02 ee b0 be 65 03 f8 3c a3 19 ea be
       -0.090467915 -0.34556586 0.030275056 -0.45722684
000360 64 31 44 bd 55 99 5e 3e 49 18 d5 be ca 6c 93 3d
       -0.047898665 0.21738179 -0.4162009 0.07198484
000370 2a 95 c4 bd fa 06 5d be 50 0d 25 be cd 35 f9 3d
       -0.09598763 -0.21584693 -0.1611836 0.12168465
000380 01 ba 52 be 87 e8 20 be 75 f4 36 bd 98 84 1d 3e
       -0.20578767 -0.15713702 -0.044666726 0.15382612
000390 1f 1e 65 3e 95 50 e9 bd f9 7b 8b 3e 81 8c cb bd
       0.22374772 -0.11392323 0.2724302 -0.09938908
0003a0 37 01 27 be dd 25 8a 3e 36 6b bc bd 42 2b 0a bd
       -0.16309057 0.26982012 -0.09200136 -0.03373266
0003b0 46 3a 07 3e de be c4 bd 35 e1 bc 3d 33 b9 41 bc
       0.13205823 -0.096067175 0.09222642 -0.01182394
0003c0 db da 8d bd f9 c0 d2 3e e2 ff b8 bd d1 b2 bd 3d
       -0.06926509 0.4116285 -0.09033181 0.09262622
0003d0 51 41 cf bb ca 3e 2b be e1 24 7f 3e 18 67 10 3e
       -0.006324925 -0.16723171 0.24916412 0.14101827
0003e0 04 2e 85 bd c4 40 e4 3d ac 39 f9 be ef d0 6a 3e
       -0.065029174 0.111451656 -0.48676813 0.22931264
0003f0 1b 05 eb bd 86 df 35 3d e8 c6 f6 3d 7f 56 14 bd
       -0.11475583 0.04440262 0.12049657 -0.0362153

encoder.rnn.weight_hh_l1 f4 [192, 64]
000000 42 c4 36 3e de 4f 2b 3d c4 87 e6 3c 59 23 09 3e
       0.17848304 0.041824214 0.02814091 0.1339239
000010 6d 7c 1d 3d a8 0b 5c bd d2 95 eb bd ea b9 47 3e
       0.03844874 -0.053722054 -0.11503185 0.19504514
000020 a1 f7 f0 3c 44 d1 85 bc 5f c4 57 bd 8f 5e f7 bd
       0.029414954 -0.016335137 -0.05267751 -0.120785825
000030 e2 89 56 bd c5 3a 4d 3d a7 3c c4 3d 0a fc c1 3b
       -0.05237759 0.050104875 0.09581881 0.005919938
000040 20 31 c2 3d ff 35 cf bd 7f d3 cf bd fd e4 04 be
       0.09482026 -0.10117721 -0.101477616 -0.12977977
000050 27 f6 28 be c4 97 18 3e 98 39 39 be 49 5a bd 3d
       -0.1650015 0.14901644 -0.18088377 0.09245736
000060 d7 9f 90 3d 1a 93 89 bd 8b 87 34 bd ca b2 d5 3d
       0.07061737 -0.067175105 -0.044074576 0.10434492
000070 09 f9 1a be 07 a4 4c be 5b 64 45 3c 8c 0d 90 3d
       -0.15134062 -0.19984446 0.012047852 0.07033834
000080 6c 8d 11 be 91 ea 84 3d 4f b0 eb 3d f8 84 01 bd
       -0.14214104 0.064900525 0.115082376 -0.03162095
000090 b9 9b df bb 9a d2 6c 3d 0d f9 3b 3e 0d 85 0c bd
       -0.0068239835 0.057818033 0.18356724 -0.034306575
0000a0 c8 57 3d 3d a3 e3 4d be 69 4a 62 bd 85 8e eb 3c
       0.046226293 -0.20106368 -0.055246744 0.028754482
0000b0 5b 80 6a bd d5 f5 fd 3d 7f ef 47 bd 7f 25 8f be
       -0.057251316 0.12400404 -0.048812386 -0.27958295
0000c0 6d 65 c4 3d f5 15 85 bc 91 10 b7 bc 82 9a 11 3e
       0.09589658 -0.016245821 -0.022346767 0.14219096
0000d0 aa dc 03 3c 5d 68 8d 3d 02 a4 d8 3d 0a 1b aa bd
       0.008048216 0.06904671 0.10578157 -0.083059385
0000e0 45 b9 83 bd 64 8d c5 3d 9d 91 e2 3c d7 db db bd
       -0.06431822 0.09646109 0.027657324 -0.107352905
0000f0 8f b7 37 3e 35 76 1e bd a5 4d a2 be 7f 45 77 be
       0.17941116 -0.03868695 -0.31699863 -0.24147604
000100 8e a0 8d ba 8c be 86 bd bd 7f 02 3e 95 20 12 be
       -0.0010805295 -0.06579313 0.12744041 -0.14270242
000110 a2 87 70 3d a3 f5 89 3d a2 0a a3 bd 90 6e 86 bd
       0.0587231 0.067363046 -0.079610124 -0.06564057
000120 45 62 2a be a3 2f 68 bd 24 6e 67 bd ad 17 6f bd
       -0.1663905 -0.056686055 -0.056501523 -0.05837219
000130 5f 6b 67 be c3 7b 4a be 29 36 25 bd a4 5b 4a 3d
       -0.22599553 -0.19773774 -0.040334854 0.0494038
000140 cb 7f f1 3d 5d 86 71 bc 49 e7 9b 3d 07 75 64 be
       0.11791953 -0.014741507 0.076124735 -0.22310267
000150 38 e5 74 3d 41 e6 13 3c 5e 04 88 bd a2 d2 8b bc
       0.059788913 0.009027065 -0.06641458 -0.017068211
000160 9b 61 70 3c 27 18 da bc f9 ab 5e be c0 81 bc bd
       0.014671708 -0.026622845 -0.2174529 -0.09204435
000170 e1 37 c6 bd 88 d7 1e be 2c 9c d5 bd b0 d4 90 3e
       -0.09678627 -0.15511906 -0.10430178 0.28287268
000180 8b a8 85 bc 35 71 18 3e dd 87 39 bd 9e 52 eb 3d
       -0.01631572 0.14886935 -0.045295585 0.11490367
000190 72 7c f0 3d 1d 1b b2 bd 64 f4 c0 bc e7 c3 f5 bd
       0.11742486 -0.08696578 -0.023554035 -0.12000256
0001a0 33 27 d6 3b 15 08 ab bd b4 5a a8 3d b8 4d 73 bd
       0.0065354346 -0.08351151 0.08220425 -0.05940029
0001b0 8d b6 82 bc 12 45 34 3c 12 19 13 be e9 76 f2 bd
       -0.015956188 0.011002796 -0.14365032 -0.118390866
0001c0 5d c3 2d 3e f7 45 a0 bd 35 42 83 3b f0 c6 76 be
       0.16969056 -0.07825845 0.004005695 -0.24099326
0001d0 02 c5 0b bd e0 71 34 bd e5 77 72 3e 6f d5 b7 3d
       -0.03412343 -0.044053912 0.23678549 0.08976256
0001e0 db bc af 3c 76 3c dd 3d fc 43 6c 3d 40 a6 c1 bd
       0.021452358 0.10802548 0.057682022 -0.09455538
0001f0 20 4f 5b bb 6d 1d 05 3d 4d 88 30 be 7b f7 40 be
       -0.003346391 0.032498766 -0.17239495 -0.18844406
000200 37 10 d6 3d 3f ff e0 3d 2f 82 5a 3e 10 eb 53 3d
       0.104523115 0.10986184 0.21338724 0.051737845
000210 4f 3e 71 3d 0b 32 3c bd 69 12 f5 3d bc 4d 33 bd
       0.058897313 -0.045946162 0.11966402 -0.043775305
000220 79 e5 da 3d 89 81 dd bd d7 d5 47 bd 23 d0 4c bc
       0.106883 -0.108157225 -0.048787918 -0.012500796
000230 87 55 16 3d e1 69 40 be ab 1c 38 be ff f8 66 3d
       0.03670266 -0.1879039 -0.17979686 0.056389805
000240 eb da 26 be 89 6f ef 3c 38 2a fe 3b 1f dc c2 3d
       -0.16294448 0.029227989 0.0077564977 0.09514641
000250 8e cc b7 3d bc 38 ce bd f6 de a8 bd 55 9e 1f bd
       0.089745626 -0.10069415 -0.082456514 -0.038969357
000260 62 06 90 bc ea d5 0c be 6c ee 0b be b6 e9 74 bd
       -0.017581169 -0.13753477 -0.1366517 -0.059793197
000270 2b 78 a9 3d 6f 73 51 3e 33 00 1d be 7b bb 3e bd
       0.08274873 0.2045419 -0.15332107 -0.046565514
000280 0e ba 02 bd 22 93 39 3d 37 34 dc ba 69 68 3c be
       -0.031915717 0.045306332 -0.0016800229 -0.18399204
000290 20 6c ba 3b 52 2a e9 3d 1d ee df bd f2 18 0f bd
       0.005689159 0.11385025 -0.109340884 -0.0349359
0002a0 6c 28 6d bd 15 46 98 bc 52 6f a6 bb a7 26 30 3d
       -0.057899877 -0.018588105 -0.0050791884 0.04300561
0002b0 44 8b 80 3c 34 23 17 be c8 60 22 3e 8f 92 05 be
       0.015691407 -0.14759523 0.15857232 -0.13044189
0002c0 f5 25 5d bd a4 a2 22 3d 6e f2 f4 3d d8 0c 2e be
       -0.053991277 0.039705887 0.11960302 -0.16997087
0002d0 0e d8 d2 bd 4d 8b 02 be d3 85 17 3e 2e 86 8f bd
       -0.102951154 -0.12748452 0.14797144 -0.070080146
0002e0 8b 87 2a bd f9 75 60 3d bf fd 14 be 6b 74 ea 3c
       -0.04163317 0.054800007 -0.14549921 0.028619966
0002f0 b1 01 05 be 0b 0e dd 3d f2 6d 21 3c 03 f2 eb bd
       -0.12988926 0.10793694 0.009852873 -0.115207694
000300 47 ba 26 3e f5 f5 2f be 72 53 fb 3d 7c 46 54 be
       0.16281997 -0.17183669 0.12271775 -0.20730013
000310 97 13 67 3d fe 2a 1a 3d ef 90 83 bd e2 2f df 3b
       0.056415167 0.037638657 -0.06424128 0.006811128
000320 e7 61 d5 3d e7 53 f2 bd b4 6b 5c be f0 f2 bd bd
       0.10419064 -0.11832409 -0.2152546 -0.09274852
000330 81 ce 6a 3d 73 3c 8c bd af e1 96 be 66 b1 c7 bd
       0.057325844 -0.06847467 -0.29469058 -0.09750633
000340 02 ae e6 bb e3 c8 f6 bd 89 2b 81 3d d3 e5 1d 3e
       -0.0070397863 -0.12050035 0.06307132 0.15419702
000350 21 c1 87 be 04 3c 99 3d 3c 17 65 be 68 0d a2 be
       -0.26514533 0.0748215 -0.22372144 -0.31650853
000360 e3 43 65 be f1 6d 7a 3e 66 b8 19 3e 9a 04 cb 3d
       -0.22389178 0.24456002 0.15011749 0.09912987
000370 34 4e d7 bd 2e a8 1c 3e 6e 5c c7 bd 42 34 19 3e
       -0.10512963 0.1529853 -0.097344264 0.14961341
000380 03 1a 85 bc 62 73 0e bd 7d ee db 3d 0a ef 80 3d
       -0.016247755 -0.034778006 0.107388474 0.06295593
000390 32 e6 9e bc 96 e2 f2 3d 72 8d 0f be 36 be ae bb
       -0.019396875 0.11859624 -0.14018801 -0.0053327335
0003a0 1f 65 87 3d 51 f3 b2 3d e4 a6 47 be 82 9e 16 be
       0.06611084 0.08737815 -0.19497257 -0.14708903
0003b0 25 8e 82 be 84 8f 6a 3b 84 e2 cf bd e6 7f be bd
       -0.25499073 0.0035791108 -0.10150626 -0.093017384
0003c0 40 6c 2c 3d dc 31 ca bc 07 ed da 3d f1 70 2f bd
       0.042095423 -0.024681978 0.10689741 -0.04283232
0003d0 8f a1 57 3e d9 2a de 3d e5 a0 0d 3e 57 18 57 be
       0.21057723 0.10848016 0.13830908 -0.21005379
0003e0 fd c0 8c bd 65 f3 6b 3e 7c 9a 1c bd f9 85 0d be
       -0.06872747 0.23042066 -0.038233265 -0.13820638
0003f0 40 aa 1f be 48 e6 ba ba 0b 43 78 be 6f 38 a1 be
       -0.15592289 -0.0014259303 -0.24244325 -0.31488368

encoder.rnn.bias_ih_l1 f4 [192]
000000 e8 d2 76 be 12 e6 d3 3c 70 40 03 be 48 0b 69 bd
       -0.24103892 0.025866542 -0.1281755 -0.056895524
000010 26 29 4b 3c 76 81 21 3e f8 a3 7c be 5b 22 95 bd
       0.012399947 0.15772042 -0.24671924 -0.072819434
000020 1b fd 66 bd 43 76 7b bd 61 e5 07 3b 91 ed 2f 3e
       -0.056393724 -0.06139208 0.0020736086 0.17180468
000030 68 d5 4d be 78 f8 68 3c d7 d1 d0 bc 7e ea 41 3c
       -0.2010094 0.014219396 -0.025490684 0.011835692
000040 ca f2 0e 3d b4 97 0b 3d e3 41 51 be 6d 6c 16 bc
       0.03489951 0.034080222 -0.2043529 -0.009181124
000050 55 df 0a be fb 6a 12 be 01 92 0c bd d1 29 4e be
       -0.13561757 -0.14298622 -0.034318928 -0.20133139
000060 91 0b c1 3d 03 f6 d8 bd 65 0f f5 3d 6a c2 69 bd
       0.09426034 -0.10593798 0.11965827 -0.057070173
000070 80 eb 8b be 3a 0a 24 3d 52 6c 8a 3d c7 5e a2 bd
       -0.2732811 0.040048815 0.06758942 -0.079282336
000080 11 fc 99 bd 55 5f 5b be e0 72 e3 bd 3c 21 af 3d
       -0.07518781 -0.21423085 -0.11105895 0.08551261
000090 71 5b 8d bc ad 09 3d 3d 60 90 82 3d f1 5b fe 3c
       -0.017255517 0.046151806 0.063751936 0.0310497
0000a0 cc 1f 38 3b 55 aa 86 3d 17 c5 e7 bd 19 95 5e 3d
       0.0028095124 0.06575457 -0.11316889 0.05434141
0000b0 b9 36 b4 3c 54 5b 08 bd 71 e8 c9 bc 8d 89 44 3e
       0.02199875 -0.033290222 -0.02464697 0.19193096
0000c0 5d e0 ac bd 4c d7 6b 3d d8 89 78 bd c8 28 c3 3d
       -0.084412314 0.05757837 -0.060678333 0.09529263
0000d0 98 92 0f 3c 48 bf 0d be 2b 5e a8 be 16 e3 bc bd
       0.008762978 -0.138425 -0.32884344 -0.09223001
0000e0 ab a6 7d be 3f 5e 9c bd e8 92 cd bd 1c 8b 4c 3d
       -0.2477061 -0.076351635 -0.10037786 0.049937353
0000f0 7b 61 9d be 13 1d 4b 3d bb 25 70 3d f7 ad b6 bc
       -0.30738434 0.049588274 0.058629733 -0.02229975
000100 ed 7d da 3d b4 08 95 3d 7e 19 bb 3e 63 ae d7 3d
       0.1066855 0.072770506 0.36542886 0.105313085
000110 71 f0 93 3e 22 9d 9d 3e 96 ec b6 3d ff 16 a9 bd
       0.2889438 0.30783945 0.08931844 -0.08256339
000120 51 ce fd 3d b6 3b 3a bd f7 ca bf 3e fa ea 6d 3e
       0.12392867 -0.0454671 0.37459537 0.23234168
000130 17 01 c3 3e 55 cf 98 3e 77 99 05 3f f4 6b d9 3d
       0.3808677 0.29845682 0.52187294 0.106162935
000140 56 2a 9d bc b2 08 51 3f 39 85 37 3e 64 49 16 3f
       -0.019185226 0.81653893 0.17921914 0.58705735
000150 00 0c 81 3e 73 b5 d8 3e 89 d3 36 3e 1e 97 b1 3e
       0.25204468 0.42325935 0.17854132 0.34685606
000160 f5 bc 5f 3e 4d 14 30 3f 69 11 b4 3d 41 83 20 3e
       0.21849425 0.68780977 0.08792383 0.1567507
000170 b6 b7 93 3e 9c ca bb bd f0 5c 10 3e 36 d0 ab 3d
       0.28851098 -0.09169504 0.14097953 0.083893225
000180 04 fe d8 3e 92 7d 0f 3e b9 5b 0b 3f 45 07 49 3d
       0.423813 0.14012745 0.5443683 0.0490792
000190 5b 29 71 3e 6b 32 d2 bc ae 0a 9d 3d 46 21 f7 3e
       0.23550932 -0.025658807 0.076680526 0.48267573
0001a0 53 5a 64 3f 9e ff 0f 3e fd ff 47 3e 18 95 8c 3e
       0.89200324 0.14062354 0.19531246 0.274575
0001b0 88 b3 3f 3e 15 60 8a 3e 1d e9 1a 3f 21 f8 57 3f
       0.1872083 0.2702643 0.6051195 0.8436299
0001c0 c5 33 9a 3d d4 6c dc 3e 83 d9 93 3e 9e 40 c2 3e
       0.075294055 0.4305178 0.28876886 0.37939924
0001d0 d5 f0 c0 3e 82 54 5b 3e c1 d0 c1 3e e4 ac 43 3e
       0.3768374 0.21418956 0.3785458 0.19108921
0001e0 ac b3 a3 bd 6c 18 dd 3e fe 62 09 3e 3a 86 b3 3e
       -0.07993254 0.43182695 0.13416669 0.35063344
0001f0 23 03 9a 3e f4 d6 4f 3e 39 5d 65 3e aa b4 e3 3e
       0.30080518 0.20296842 0.22398843 0.44473773
000200 a1 73 05 3d 08 2f a4 bd 83 d0 10 3e dd 70 82 bd
       0.032580975 -0.08016783 0.14142041 -0.06369183
000210 6c 5a 8f bd 37 96 12 bc e2 04 20 3e 36 95 43 bc
       -0.069996685 -0.008946947 0.15626863 -0.01193743
000220 74 e7 11 be f9 e4 01 be ef e5 8c bd b1 97 ff 3d
       -0.14248449 -0.12685002 -0.06879794 0.12480105
000230 fe 3d 84 3e a4 42 67 3a 46 88 c1 bd d6 77 e6 bd
       0.25828546 0.0008821881 -0.0944982 -0.11253326
000240 ed 0a 28 bd 2d d0 32 bc d4 ad 0a 3d 58 ca 55 3d
       -0.041026045 -0.010913891 0.03385718 0.052194923
000250 68 07 1c be d8 03 45 3d 2a 47 b0 bc 86 3b a1 bd
       -0.152372 0.04809937 -0.021518309 -0.07872681
000260 dc d0 ae bd 25 f7 c2 3c a3 d8 76 3d 47 bf 41 3a
       -0.085359305 0.023799488 0.060265195 0.0007390868
000270 62 38 11 bd 2c ba 96 3b 1d ee 02 bd 07 2f 03 be
       -0.03545416 0.00459983 -0.031965364 -0.12810908
000280 b7 cb a2 3b d4 2a 55 3e 43 22 01 3e 5b 1b a1 3d
       0.0049681324 0.20817119 0.12610726 0.07866546
000290 45 72 c0 bd 7e 77 ba bc bc d9 82 bc 19 3c 6b bd
       -0.09396795 -0.022762056 -0.015972964 -0.05743036
0002a0 9b 3e cf bd dd 00 30 be 6d 52 88 bd bb a1 68 3d
       -0.10119363 -0.1718783 -0.066563465 0.056794863
0002b0 82 53 2d bc 57 78 fd bb 20 d3 b5 3d a6 78 ca bd
       -0.010578992 -0.007735293 0.088781595 -0.09886293
0002c0 0f 4b 8b bc 2d ae d7 bc 55 07 5e bd ee 9a 81 bd
       -0.017003564 -0.02632817 -0.05420621 -0.063283786
0002d0 7d 18 ef 3c 27 e8 4c be e8 f3 84 bb 43 f7 48 bb
       0.029186482 -0.20010434 -0.004057396 -0.0030664958
0002e0 59 bc 26 3e d9 ff 2a 3e 02 f3 f3 bd 32 15 b6 bc
       0.16282786 0.1669916 -0.119115844 -0.022226904
0002f0 b1 5d 31 bd e8 8f 43 3e 91 6c 8a 3d e7 97 23 be
       -0.04330224 0.19097865 0.06758989 -0.15975915

encoder.rnn.bias_hh_l1 f4 [192]
000000 cc d4 2a bc 14 d8 da 3c 85 43 f4 3c 77 54 a3 3d
       -0.010426711 0.026714362 0.029817352 0.07975095
000010 10 9c 22 3d 68 f8 f0 3d e5 46 b4 be b8 3a 8a bd
       0.039699614 0.1176613 -0.35210338 -0.06749481
000020 a8 f5 79 bd 9c 27 db bd c7 64 5b bc d2 7f 94 bd
       -0.06102529 -0.10700914 -0.013390726 -0.07250942
000030 d6 bb cb bd 1b 02 34 3d 45 97 b2 bd 2c 17 81 3c
       -0.09947936 0.04394732 -0.087202586 0.01575812
000040 60 4c cd bc 3a a5 37 3e 82 e3 17 be b1 69 aa bd
       -0.025060833 0.17934123 -0.14832881 -0.0832094
000050 19 a5 e0 3c b9 74 ef bd 50 a0 84 3c 3b 14 0d be
       0.027422475 -0.11692185 0.016189724 -0.13777249
000060 cf fb 17 3e db 8f 1b be 6b 02 96 3e 01 53 3e 3c
       0.14842151 -0.15191595 0.2929872 0.011616469
000070 42 d0 61 be 77 77 02 be 8c 5c a4 3d b6 28 c3 bd
       -0.220521 -0.12740885 0.080254644 -0.09529249
000080 16 9b 85 bd 90 1d 05 be 20 55 86 be 32 4f 83 bb
       -0.06523721 -0.12999558 -0.2623682 -0.0040072436
000090 7e 17 f1 bd 77 8e 91 bd 50 05 02 3c 85 64 3a bd
       -0.11772059 -0.07107251 0.007935837 -0.04550602
0000a0 c0 8c 56 3d 7d c9 fd 3d 0b bf 19 3d 2c 3b ab 3d
       0.052380323 0.123919465 0.03753571 0.083608955
0000b0 93 21 f7 3d 43 f6 e1 bc b8 63 ee bb 3f 4f 25 bd
       0.12066951 -0.027583247 -0.007275071 -0.040358778
0000c0 b8 c8 a9 3d e2 07 fa bd 03 bd 11 be d4 06 24 3e
       0.08290237 -0.12208535 -0.14232258 0.1601823
0000d0 68 08 82 3d 4f ed 3a bd ce a5 a7 be 58 49 6b bd
       0.063492596 -0.04563647 -0.32743686 -0.057442993
0000e0 95 11 a5 be b5 8d c1 bd b2 d0 98 3c a2 b9 3e 3e
       -0.32239977 -0.094508566 0.018654201 0.18625501
0000f0 f9 77 13 be a8 ac a8 3d 17 b4 f4 3c f5 d5 b3 bd
       -0.14401235 0.082360566 0.02987103 -0.087810434
000100 87 f4 35 3e 95 02 22 3e 14 cc e7 3e ee 77 b3 3c
       0.17769061 0.15821297 0.45272887 0.021907773
000110 d7 87 aa 3e c7 34 53 3e 4c ba cb 3d 30 58 ed bd
       0.33306763 0.20625602 0.09947643 -0.11589086
000120 a5 06 19 3e dc 05 38 3e 93 11 5b 3e bf 89 b5 3d
       0.14943941 0.17970985 0.21393423 0.088641636
000130 3f 6f f4 3e 44 9f fb 3e f2 e7 9a 3e 8b 8b 70 3e
       0.47741124 0.49144948 0.30255085 0.23490731
000140 e7 01 2d bb 14 00 73 3f df 0c 1b 3e 11 23 10 3f
       -0.002639884 0.94921994 0.15141629 0.5630351
000150 26 60 7a 3e 81 b1 a3 3e 68 92 7e 3e 70 57 1a 3e
       0.2445074 0.31971362 0.24860537 0.15072417
000160 0f e5 dc 3e 74 d8 23 3f ef 46 9d bd 06 5a 55 3e
       0.43143508 0.64002156 -0.07679545 0.20835122
000170 73 67 ac 3e d7 cb 18 3d 21 2e 7f 3c 2b de 65 3d
       0.33672675 0.03730377 0.015574963 0.05612008
000180 96 fc d2 3e 63 45 09 3e bc 11 27 3f dd 9c 49 bc
       0.41208333 0.13405375 0.65261436 -0.0123054655
000190 89 8c 57 3e 41 82 db 3d b9 4d a9 3d c8 df 0a 3f
       0.21049704 0.10718203 0.082667775 0.54247713
0001a0 b2 0f 65 3f a3 70 83 3e 03 00 25 3e f2 ce 2d 3d
       0.89477074 0.25671872 0.16113286 0.042433687
0001b0 6b 58 a5 3e db 0d c9 3e e0 63 10 3f e9 91 78 3f
       0.3229402 0.39268383 0.564024 0.9709764
0001c0 19 83 06 3e c9 c4 be 3e 14 5e d1 3e 45 68 0f 3f
       0.13135947 0.3725951 0.40892088 0.5601848
0001d0 73 29 c7 3e 7d c5 3e 3e 7c 73 c1 3e c3 a8 9b 3e
       0.3889881 0.18630023 0.3778342 0.30402192
0001e0 15 d9 1b be e0 92 e2 3e fb 6f 55 bd 79 8d 0b 3e
       -0.15219529 0.44252682 -0.052108746 0.13628186
0001f0 70 01 f7 3e df 50 1c 3e 3d da 4d 3e 79 b5 dd 3e
       0.48243284 0.15265225 0.20102783 0.43302515
000200 b3 e6 3c 3b 08 1a 36 bc 7a 94 5a 3d c7 7d a6 3d
       0.002882403 -0.011114605 0.053364255 0.08129459
000210 df 0e 17 3d 5f 8f 38 3d 0a ca 3d bd 75 c1 cf bd
       0.036879417 0.045058604 -0.046335258 -0.10144321
000220 d3 3e f1 bc df 80 52 3d 6d 69 2e be 31 22 00 bd
       -0.029448902 0.051392432 -0.17032404 -0.031282607
000230 05 e5 07 3e 5f c2 4a be 9f 8a 53 be 88 2b e5 bd
       0.13270958 -0.19800709 -0.20658349 -0.111899436
000240 48 e7 03 be 69 9a c9 3d 09 a0 26 3d 92 dd a7 3d
       -0.12881196 0.098439045 0.040679965 0.08196558
000250 25 9b 4c 3d bb a3 de 3d c2 e3 6f 39 98 33 02 3e
       0.049952645 0.10871073 0.00022877663 0.12714994
000260 63 0a bd 3d 9b 85 1b 3d 30 72 91 3d dd 46 05 bd
       0.09230497 0.037969213 0.07101858 -0.032538284
000270 df 47 bc bc c6 1e 00 3c 18 e3 f3 bd 65 65 a0 bd
       -0.02298349 0.007819837 -0.11908549 -0.078318395
000280 8e ba a6 3c 21 d6 8a 3c dd a0 e9 3c cb 94 dc bd
       0.020352628 0.016947808 0.028519088 -0.107705675
000290 fa cf ad bd bb 8c 43 bd fc a2 b2 bd ba 4a 2d bd
       -0.08486934 -0.047741633 -0.08722493 -0.042307593
0002a0 08 86 7d bd 85 ff 83 bd a9 c1 a3 bd 41 14 e2 bc
       -0.0618954 -0.06445221 -0.07995922 -0.027597548
0002b0 5a 54 a0 3d 40 a4 f8 bd fb 40 92 bd c5 d3 06 bd
       0.07828589 -0.12140703 -0.071413 -0.032916803
0002c0 2e 71 e4 bd c9 70 55 be 33 94 79 3d 7d 5f 65 be
       -0.111544 -0.20843805 0.06093235 -0.22399707
0002d0 b2 88 80 3d 1c f4 34 bd 1b 8f 2e 3d a7 1f b0 bd
       0.062760726 -0.044178113 0.042616945 -0.08599787
0002e0 ef 80 c6 3c 69 2c a3 bc 8d 2d 07 bc 7d 2a 94 3d
       0.024231402 -0.019918637 -0.008250606 0.072346665
0002f0 21 7d 00 be fb 79 28 3d be 59 a6 3d 49 ad 1a 3d
       -0.12547733 0.041131955 0.08122586 0.037762914
