1223-code-DL/model/seq2seq_DPA_state_dict.pt (torch, 390279 bytes, 23 tensors)

encoder.rnn.weight_ih_l0 f4 [192, 16]
0.15827394 0.14077166 -0.18273208 0.16179872 -0.065716 0.114250116 -0.035389967 0.2821819
0.25022155 -0.05739868 0.114494994 0.15156175 0.22717346 -0.036511343 0.07824951 -0.19548917
0.09207693 0.16707936 -0.013575377 0.06431598 0.01718543 0.056588404 0.06988339 -0.12338246
0.017416647 -0.06706087 0.052386027 0.031091243 0.11680365 -0.029482365 0.12518962 -0.49666375
0.12421757 -0.055926193 0.0067503997 0.15610494 -0.068713136 0.14727826 -0.04393254 -0.00014645564
0.07543816 0.14245039 -0.06063279 0.16403534 0.12462906 -0.015382087 0.17299026 -0.040057637
0.04208302 -0.1341302 -0.19793946 -0.08416602 -0.051741175 0.15273091 -0.035930302 0.055607412
0.049563337 -0.034380704 0.16054156 -0.08414748 0.012835097 -0.10545332 0.03973833 -0.44416612
-0.0572226 -0.16160801 0.13873771 -0.15377887 -0.209463 -0.2945743 -0.0033146758 0.037251018
0.0351581 -0.30510542 -0.24523248 -0.19117613 -0.17798872 -0.05699455 0.06460644 0.38715768
-0.045410834 -0.13633616 0.010690272 -0.09202498 0.083415456 -0.030833315 0.013298017 -0.08373597
-0.08145284 0.0013843996 0.1020478 -0.05068258 0.056292284 0.044670355 -0.04459048 -0.3110709
0.040871214 -0.07424785 -0.23337604 0.005124583 -0.03302526 0.16334741 -0.05015369 -0.16846289
-0.017469129 0.023607172 -0.60286456 -0.07352669 -0.11793085 0.12524578 0.04728514 -0.083415404
-0.068961084 -0.22806472 -0.22182539 -0.17747895 -0.12814125 -0.23785414 -0.17445242 -0.122041926
-0.09188945 -0.16519915 -0.068026625 -0.18031113 -0.18096577 -0.14455287 -0.22114314 -0.563893
0.06291709 -0.11900069 -0.0075674616 -0.01764168 -0.20570308 0.0019519627 -0.12715371 -0.16440162
-0.1580857 -0.18485266 -0.040708967 -0.07995649 -0.0049277856 -0.12298368 0.0070436085 0.06124771
-0.2564682 -0.27637357 -0.124374695 -0.10599832 -0.0810466 -0.43345287 -0.2651126 -0.1564868
-0.2106358 -0.322048 -0.19059746 -0.29013097 -0.13071181 -0.16138852 0.011192849 0.10103705
0.14699319 -0.0001933288 -0.024060428 -0.08712811 0.076311275 -0.005595427 -0.095254354 0.20039184
0.023441067 -0.09156483 0.008947554 -0.011043535 0.06479523 -0.038829185 -0.029841477 -0.24329764
-0.30429915 -0.13308664 0.038125932 -0.28425473 -0.120335065 -0.32199824 -0.12528 -0.120262645
-0.14081043 -0.11516038 -0.17150614 -0.22545752 -0.23720352 -0.15405677 -0.23891924 0.19764283
0.036398806 0.06821439 -0.11852555 -0.04374464 -0.052073505 -0.001024919 -0.022056345 -0.035170577
-0.13977928 -0.06906842 0.023921248 0.023635704 -0.031930022 -0.0959715 -0.117205665 -0.44366553
-0.2386587 -0.07403295 0.033670314 -0.072670884 -0.1746982 -0.25692084 -0.12741873 -0.062366314
-0.18972418 -0.16326967 -0.107150346 -0.2501647 -0.28496075 -0.050669372 -0.2473272 -0.09170266
-0.11940291 0.11258356 0.05012433 0.047182735 -0.049162887 -0.09875928 -0.08944776 0.07505371
0.030332236 0.0825026 0.11155981 0.0023608152 -0.031511176 -0.072439454 -0.1636557 -0.46118402
-0.1193882 -0.18525274 -0.19657376 -0.24583597 -0.09453876 -0.27930123 -0.21368565 -0.10961561
-0.14093716 -0.037989143 -0.16541399 -0.19931489 -0.12886454 -0.1958703 -0.100404434 -0.53721994
00000000: 9012 223e 7226 103e 1e1e 3bbe 90ae 253e
00000010: 1c96 86bd f7fb e93d 12f5 10bd 257a 903e
00000020: 0a1d 803e e11a 6bbd 5a7c ea3d 0133 1b3e
00000030: 29a0 683e eb8c 15bd 4741 a03d 502e 48be
00000040: d492 bc3d da16 2b3e 426b 5ebc 19b8 833d
00000050: 75c8 8c3c 3ec9 673d 061f 8f3d f1af fcbd
00000060: 5bad 8e3c 3657 89bd bb92 563d 10b3 fe3c
00000070: c136 ef3d 0085 f1bc b531 003e b64a febe
00000080: c865 fe3d dd12 65bd 7532 dd3b f9d9 1f3e
00000090: 79b9 8cbd 1dd0 163e 9bf2 33bd e391 19b9
000000a0: 527f 9a3d 84de 113e 175a 78bd e1f8 273e
000000b0: 853d ff3d 2605 7cbc 5c24 313e 7a13 24bd
000000c0: 3f5f 2c3d 6d59 09be a4b0 4abe 3c5f acbd
000000d0: 8eee 53bd 7e65 1c3e a72b 13bd 99c4 633d
000000e0: ed02 4b3d c8d2 0cbd 0265 243e 8455 acbd
000000f0: 4c4a 523c e9f7 d7bd a9c4 223d be69 e3be
00000100: 3f62 6abd 927c 25be 4211 0e3e 3578 1dbe
00000110: 787d 56be 71d2 96be 083b 59bb 8694 183d
00000120: f101 103d c736 9cbe 391e 7bbe adc3 43be
00000130: ad42 36be 1e73 69bd 6250 843d 8839 c63e
00000140: b600 3abd b59b 0bbe 4026 2f3c 9877 bcbd
00000150: b9d5 aa3d 2696 fcbc eddf 593c c47d abbd
00000160: bfd0 a6bd be74 b53a 70fe d03d 8998 4fbd
00000170: bd92 663d 43f8 363d 82a4 36bd af44 9fbe
00000180: 9368 273d 420f 98bd 21fa 6ebe 1eec a73b
00000190: 7f45 07bd 8b44 273e f56d 4dbd 8981 2cbe
000001a0: 6b1b 8fbc d463 c13c 5555 1abf 2995 96bd
000001b0: bb85 f1bd 6e40 003e 10ae 413d b2d5 aabd
000001c0: 783b 8dbd cc89 69be 3226 63be 0bbd 35be
000001d0: 7637 03be 0990 73be a8a3 32be 1ef1 f9bd
000001e0: 8930 bcbd f729 29be 8b51 8bbd 7ba3 38be
000001f0: 174f 39be ab05 14be 5973 62be 4b5b 10bf
00000200: adda 803d a2b6 f3bd 78f8 f7bb 4985 90bc
00000210: d4a3 52be 00d9 ff3a 9534 02be e658 28be
00000220: 38e1 21be 044a 3dbe 72be 26bd 3ac0 a3bd
00000230: 4379 a1bb dede fbbd 12ce e63b e1de 7a3d
00000240: cd4f 83be d680 8dbe 29b8 febd a615 d9bd
00000250: c3fb a5bd 89ed ddbe d7bc 87be 133e 20be
00000260: e9b0 57be 7ae3 a4be fb2b 43be 0c8c 94be
00000270: 51d9 05be 0843 25be 3662 373c 83ec ce3d
00000280: 6285 163e 4eb8 4ab9 601a c5bc 3970 b2bd
00000290: 1649 9c3d d859 b7bb b714 c3bd 8533 4d3e
000002a0: 7b07 c03c 5786 bbbd c398 123c f1ef 34bc
000002b0: 5db3 843d 5a0b 1fbd 1d76 f4bc 0423 79be
000002c0: 19cd 9bbe dd47 08be f029 1c3d d689 91be
000002d0: 3b72 f6bd f4dc a4be 6649 00be 434c f6bd
000002e0: 9c30 10be 35d9 ebbd 4e9f 2fbe 56de 66be
000002f0: 7be5 72be 0fc1 1dbe 3fa7 74be e262 4a3e
00000300: ea16 153d fcb3 8b3d 86bd f2bd 942d 33bd
00000310: 074b 55bd 9356 86ba 82af b4bc 060f 10bd
00000320: 4d22 0fbe be73 8dbd 7ef6 c33c aa9f c13c
00000330: 0ec9 02bd b58c c4bd 8609 f0bd 2128 e3be
00000340: f262 74be 969e 97bd e2e9 093d 79d4 94bd
00000350: 16e4 32be 218b 83be 0e7a 02be d273 7fbd
00000360: 0e47 42be 2a30 27be a471 dbbd 9615 80be
00000370: 60e6 91be b08a 4fbd 5743 7dbe 9bce bbbd
00000380: 8389 f4bd 3692 e63d 2b4f 4d3d af42 413d
00000390: 065f 49bd 4e42 cabd 6330 b7bd c2b5 993d
000003a0: 4f7b f83c 20f7 a83d 7879 e43d e8b7 1a3b
000003b0: dd11 01bd 235b 94bd 5c95 27be 5020 ecbe
000003c0: cd81 f4bd e5b2 3dbe a24a 49be 6dbc 7bbe
000003d0: 8a9d c1bd 9200 8fbe 69d0 5abe 267e e0bd
000003e0: d551 10be 819a 1bbd 4962 29be 3419 4cbe
000003f0: 11f5 03be 3992 48be d7a0 cdbd 3f87 09bf

encoder.rnn.weight_hh_l0 f4 [192, 64]
-0.19127378 -0.15772763 -0.10542562 -0.23023091 -0.018363213 0.045527086 -0.11029057 0.08122546
0.06676408 -0.19910319 0.011666812 0.047387436 -0.006210029 -0.22201166 0.15582184 0.31802815
0.109998755 -0.13548796 -0.026303755 -0.10731485 -0.019557303 0.110627316 0.20766479 0.6639443
-0.06924418 0.03673274 -0.10487742 0.34739903 -0.10461068 0.34346935 -0.27728787 -0.060180992
0.1047885 0.08277374 0.022189682 0.29441112 -0.06255118 0.091854885 0.06481476 0.16851322
0.030571038 -0.392055 -0.46617973 -0.15463 0.10811449 0.16955851 -0.022193998 -0.1726924
-0.16668473 -0.014270017 0.42243057 -0.021125315 0.09323917 0.13184437 -0.060172874 0.13202943
-0.07589766 0.07596096 0.20734182 -0.02313792 0.01168996 -0.1423909 0.09375409 -0.07304234
0.053541247 -0.039139017 0.03965211 0.060920853 -0.0323581 -0.10154435 -0.08278579 -0.13663326
0.07851076 -0.022573823 0.084976815 0.044303954 -0.06676705 -0.07082819 0.0545314 0.06361787
-0.15549213 0.18083835 -0.043943226 0.09104806 -0.015527354 0.15745372 0.09853827 0.09321786
-0.021901162 0.069868945 -0.015966076 0.06323326 -0.12515536 0.5634558 -0.022735914 -0.023758503
0.1917999 0.039560776 0.08955899 0.0154685695 0.22387716 -0.13480459 -0.09944741 -0.045387067
0.094366685 -0.05655497 0.24942958 -0.22431919 -0.062037054 -0.14875047 0.0762028 0.034973413
0.097721644 0.03645055 0.05942848 -0.037040144 -0.05063933 -0.06793844 -0.45746294 -0.012364865
0.047198426 0.17329217 -0.17104094 -0.2779125 0.13941258 0.024483766 0.059394274 -0.07023985
0.0923832 0.123827934 0.064834855 0.47074446 -0.058327243 0.17730655 0.044706825 0.25404
0.046270877 0.032690715 0.13732503 0.085436895 -0.018838549 -0.14274207 0.1103059 0.043414675
0.17057425 0.15298435 -0.010249332 -0.03267618 -0.090907715 0.028941838 0.15268058 -0.19116408
-0.10260451 -0.119728364 -0.07304878 0.21457238 -0.14392991 -0.123462744 -0.096118726 -0.09867656
0.08570681 0.14869326 -0.20148695 0.10476261 0.026385143 0.10419555 0.0322145 -0.0003768783
-0.13396615 -0.03375217 -0.13342735 0.17356451 0.18484429 0.009627064 -0.25418225 -0.07751747
0.08230064 0.053723954 -0.024795564 -0.060380995 -0.018001392 0.05084767 -0.128008 0.056858547
0.14287814 -0.23342913 -0.24396443 -0.12749206 0.1483606 -0.06463432 -0.09601026 -0.15600862
-0.21596831 -0.1744774 0.09590555 -0.04392457 -0.036195975 0.07266565 -0.12629156 0.18390293
-0.04747628 -0.1858644 -0.09873515 -0.034364372 -0.07068955 -0.059770014 -0.04177651 0.07790157
0.076661825 -0.07540145 -0.020793408 0.10310749 0.002528206 0.15087259 0.027002871 0.2929651
0.05995516 0.13235648 -0.15419544 0.09465345 0.019571109 0.2991411 -0.123519726 0.06835059
-0.065802686 0.011792092 -0.013712134 -0.1416322 -0.121403605 0.0039680433 0.088443555 -0.052723587
-0.031041805 -0.103779905 0.029249165 -0.3193529 -0.0814181 0.17987919 0.14806162 -0.04481115
0.060722888 -0.029696923 0.0027148041 -0.051738232 -0.027866144 0.08626437 -0.02802446 -0.105954096
0.14295118 0.11217314 -0.048529368 -0.18198612 -0.029978689 -0.039864227 -0.19649598 -0.16155654
00000000: 46dd 43be 5a83 21be 63e9 d7bd a7c1 6bbe
00000010: 736e 96bc 9c7a 3a3d 06e0 e1bd 8959 a63d
00000020: 9bbb 883d b5e1 4bbe 2826 3f3c 5419 423d
00000030: 807d cbbb 0657 63be c38f 1f3e 96d4 a23e
00000040: 0747 e13d 5bbd 0abe f97a d7bc e3c7 dbbd
00000050: a336 a0bc 9390 e23d 14a6 543e 41f8 293f
00000060: e5cf 8dbd 1275 163d f9c9 d6bd 49de b13e
00000070: 203e d6bd 37db af3e adf8 8dbe 5880 76bd
00000080: 5a9b d63d 4785 a93d 23c7 b53c 0ebd 963e
00000090: d51a 80bd 6a1e bc3d 9abd 843d bb8e 2c3e
000000a0: 1d70 fa3c 6fbb c8be 1caf eebe 5457 1ebe
000000b0: 216b dd3d bfa0 2d3e 30d0 b5bc 47d6 30be
000000c0: 67af 2abe cacc 69bc d248 d83e ff0e adbc
000000d0: 2ef4 be3d 3602 073e d577 76bd b932 073e
000000e0: 3b70 9bbd 6b91 9b3d 6a51 543e bc8b bdbc
000000f0: 3f87 3f3c ecce 11be 2502 c03d 3997 95bd
00000100: 114e 5b3d 3c50 20bd 406a 223d 2588 793d
00000110: ed89 04bd 7cf6 cfbd 998b a9bd 97e9 0bbe
00000120: 40ca a03d bdec b8bc 5308 ae3d 1078 353d
00000130: 2abd 88bd 5f0e 91bd 515c 5f3d 164a 823d
00000140: 5439 1fbe b02d 393e d0fd 33bd 6877 ba3d
00000150: 7166 7ebc 8c3b 213e 6fce c93d 01e9 be3d
00000160: 116a b3bc 7317 8f3d 4acb 82bc 7080 813d
00000170: ba28 00be a43e 103f ab40 babc 31a1 c2bc
00000180: 3167 443e 7b0a 223d b46a b73d e26f 7d3c
00000190: 0e40 653e 370a 0abe 15ab cbbd cae7 39bd
000001a0: 5243 c13d 2fa6 67bd 786a 7f3e eeb3 65be
000001b0: 911a 7ebd 0b52 18be 3710 9c3d 4840 0f3d
000001c0: 4922 c83d 2c4d 153d 476b 733d 68b7 17bd
000001d0: 306b 4fbd 4f23 8bbd 9538 eabe 0196 4abc
000001e0: 2353 413d 8173 313e 5b25 2fbe 8c4a 8ebe
000001f0: 2cc2 0e3e 2e92 c83c 6947 733d e9d9 8fbd
00000200: 6733 bd3d 8099 fd3d 23c8 843d 6b05 f13e
00000210: 8ce8 6ebd d98f 353e 811e 373d 8811 823e
00000220: 8886 3d3d b3e6 053d ef9e 0c3e 8af9 ae3d
00000230: 4d53 9abc fa2a 12be 0fe8 e13d 96d3 313d
00000240: 04ab 2e3e eea7 1c3e d0ec 27bc 75d7 05bd
00000250: d32d babd 6f17 ed3c 4c58 1c3e 84c0 43be
00000260: 5022 d2bd 2534 f5bd 999a 95bd ddb8 5b3e
00000270: 5d62 13be 09da fcbd e5d9 c4bd f016 cabd
00000280: 0d87 af3d 0c43 183e 9852 4ebe c78d d63d
00000290: a825 d83c 7a64 d53d 5af3 033d c097 c5b9
000002a0: 6c2e 09be b73f 0abd 2ea1 08be e5ba 313e
000002b0: d247 3d3e d5ba 1d3c 2d24 82be 7bc1 9ebd
000002c0: 3d8d a83d a60d 5c3d 1120 cbbc 1052 77bd
000002d0: a877 93bc a545 503d 8714 03be 82e4 683d
000002e0: a64e 123e 0c08 6fbe d0d1 79be 478d 02be
000002f0: d7eb 173e 005f 84bd 07a1 c4bd b9c0 1fbe
00000300: cc26 5dbe 34aa 32be 216a c43d 40ea 33bd
00000310: 3b42 14bd bad1 943d 9352 01be 0d51 3c3e
00000320: 7d76 42bd 3d53 3ebe a835 cabd a8c1 0cbd
00000330: afc5 90bd 67d1 74bd d91d 2bbd dc8a 9f3d
00000340: e000 9d3d 136c 9abd f056 aabc 052a d33d
00000350: 42b0 253b 587e 1a3e 2035 dd3c 86ff 953e
00000360: 8b93 753d 7588 073e 69e5 1dbe abd9 c13d
00000370: 9753 a03c 0629 993e e9f7 fcbd 65fb 8b3d
00000380: 8fc3 86bd 9e33 413c dca8 60bc 0808 11be
00000390: 74a2 f8bd 5c06 823b e521 b53d b0f4 57bd
000003a0: 624b febc 8f8a d4bd f29b ef3c 3982 a3be
000003b0: 88be a6bd 4032 383e 779d 173e e58b 37bd
000003c0: 90b8 783d f646 f3bc dbea 313b 78eb 53bd
000003d0: 8a47 e4bc 60ab b03d 8d93 e5bc 76fe d8bd
000003e0: cb61 123e 08bb e53d bbc6 46bd 925a 3abe
000003f0: de95 f5bc ac48 23bd 3e36 49be 146f 25be

encoder.rnn.bias_ih_l0 f4 [192]
-0.14274324 -0.050094765 0.14904678 -0.06303309 -0.09935339 -0.0693533 0.09453994 -0.12837368
0.05864559 -0.13808185 0.047698256 -0.14620385 -0.053073734 -0.18136322 0.07902937 -0.0396893
-0.07011794 -0.15659833 -0.11688111 0.044764847 0.051504187 -0.24152908 0.13916972 -0.3263946
0.038015455 0.15210997 0.07512933 -0.101569965 -0.2396086 -0.17310248 -0.13954882 -0.10754978
-0.07115077 -0.052816916 0.08611726 -0.0049673445 -0.17826624 0.11254138 0.09094984 0.002974295
-0.07826105 -0.05908049 -0.06972338 -0.12128286 -0.12475406 0.1270625 0.24357113 0.02010914
0.006575961 0.00084836263 0.0667413 -0.14488776 0.26649332 0.027346257 -0.23440082 -0.06837176
-0.0047384934 -0.27569106 -0.22707696 -0.07116576 0.12562765 0.010545273 0.024306757 0.1270065
0.28424674 0.1517424 0.033561513 0.08922648 0.10032328 -0.18662056 0.06499278 -0.28216156
-0.18393281 0.080515176 -0.15452461 -0.16818659 -0.10038246 0.1776445 -0.047684535 0.23067297
0.05008541 0.14257176 -0.03524198 -0.091674894 -0.11995588 -0.34713927 0.031058986 -0.117966376
-0.19717081 -0.0124316355 0.25690153 0.042842127 -0.036928523 0.1415329 0.25968376 -0.33165136
0.0052255443 -0.1959486 0.14736101 0.11138473 -0.37425733 0.23049955 0.13918668 0.068476796
-0.37752238 -0.21881533 0.021091884 0.0006268656 0.28028706 0.08992597 0.11933512 -0.05454504
0.079753004 -0.18193035 -0.03976689 -0.15057163 0.099389955 -0.13039623 -0.37569648 0.0060494957
0.3799999 -0.10758838 0.2543221 -0.23927398 -0.08360135 -0.050768074 -0.23756675 -0.076638244
0.09290365 -0.036324684 -0.018683795 0.07544583 0.06099331 0.07910981 0.03663476 0.038223207
0.02502238 0.07075508 0.03390156 0.1358286 0.07694816 -0.099148445 -0.05283877 0.09525048
0.11367647 0.016998133 0.07234324 0.09046633 -0.039464265 0.08975359 0.08389102 0.009900025
-0.12536709 -0.09104943 0.07859048 -0.0006852848 -0.059090573 -0.048564434 -0.11681234 0.05643915
-0.04859861 0.08112528 -0.1069541 0.19999133 -0.10994254 0.1569635 0.14539716 0.24825692
0.07812523 -0.046881877 0.09847366 -0.13584001 -0.057164367 0.06857259 0.05424455 -0.06719546
-0.112242825 0.057695452 -0.07999844 0.035204723 0.11386318 0.018062437 -0.05784298 0.07924551
0.10359091 0.016945677 -0.08278341 -0.023814622 0.04483234 0.074450515 -0.026294332 0.061640665
00000000: 492b 12be 2b30 4dbd b89f 183e 7e17 81bd
00000010: ca79 cbbd 1a09 8ebd 289e c13d 6474 03be
00000020: 5c36 703d 5465 0dbe 3f5f 433d 76b6 15be
00000030: d863 59bd 48b7 39be 26da a13d 3f91 22bd
00000040: ff99 8fbd 505b 20be 5d5f efbd 585b 373d
00000050: 0ef6 523d 6653 77be 8282 0e3e 311d a7be
00000060: 18b6 1b3d b7c2 1b3e 68dd 993d ea03 d0bd
00000070: f55b 75be c741 31be e3e5 0ebe 0f43 dcbd
00000080: 7fb7 91bd 8d56 58bd 3f5e b03d 1bc5 a2bb
00000090: 6d8b 36be 187c e63d e943 ba3d 64ec 423b
000000a0: 5447 a0bd 62fe 71bd 22cb 8ebd 2663 f8bd
000000b0: 0e7f ffbd ac1c 023e b66a 793e ecbb a43c
000000c0: 297b d73b a764 5e3a aaaf 883d 755d 14be
000000d0: d071 883e 4205 e03c c506 70be 7e06 8cbd
000000e0: 5d45 9bbb 6127 8dbe dd86 68be 5bbf 91bd
000000f0: 89a4 003e 15c6 2c3c f71e c73c fe0d 023e
00000100: ca88 913e 5c62 1b3e cc77 093d 5fbc b63d
00000110: 4b76 cd3d 7619 3fbe ef1a 853d 7b77 90be
00000120: e258 3cbe 24e5 a43d b33b 1ebe 1b39 2cbe
00000130: 5295 cdbd 71e8 353e dc50 43bd 8935 6c3e
00000140: 5c26 4d3d 55fe 113e e559 10bd 0cc0 bbbd
00000150: 6eab f5bd 3dbc b1be 6a6f fe3c 5b98 f1bd
00000160: 25e7 49be 0fae 4bbc 9988 833e 3a7b 2f3d
00000170: 5d42 17bd 00ee 103e 45f5 843e 35ce a9be
00000180: 0b3b ab3b c0a6 48be cee5 163e ad1d e43d
00000190: a89e bfbe 1308 6c3e f486 0e3e 903d 8c3d
000001a0: 9d4a c1be 2011 60be e3c8 ac3c 3d54 243a
000001b0: c981 8f3e 1b2b b83d f965 f43d 9f6a 5fbd
000001c0: 8b55 a33d f34b 3abe 9be2 22bd 732f 1abe
000001d0: f68c cb3d 9786 05be 4a5b c0be d93a c63b
000001e0: 598f c23e 4c57 dcbd 8236 823e 3d04 75be
000001f0: 2f37 abbd 2ff2 4fbd b344 73be 83f4 9cbd
00000200: 4544 be3d 31c9 14bd c20e 99bc 5883 9a3d
00000210: 1fd4 793d 5304 a23d 550e 163d f08f 1c3d
00000220: bcfb cc3c 0ae8 903d 5ddc 0a3d a716 0b3e
00000230: ff96 9d3d 570e cbbd 776d 58bd af12 c33d
00000240: 36cf e83d ab3f 8b3c b128 943d 6946 b93d
00000250: 48a5 21bd bbd0 b73d 0ecf ab3d b733 223c
00000260: 3b60 00be 2078 babd 0cf4 a03d afa4 33ba
00000270: f508 72bd 80eb 46bd 4f3b efbd bd2c 673d
00000280: 560f 47bd 0325 a63d c00a dbbd 87ca 4c3e
00000290: 8e29 e1bd 0abb 203e fee2 143e 1037 7e3e
000002a0: 1f00 a03d 3607 40bd 8fac c93d a519 0bbe
000002b0: 2f25 6abd c96f 8c3d 892f 5e3d c69d 89bd
000002c0: 91df e5bd 1152 6c3d 39d6 a3bd d432 103d
000002d0: 1931 e93d adf7 933c c3ec 6cbd 784b a23d
000002e0: 7927 d43d a9d1 8a3c 598a a9bd e216 c3bc
000002f0: 1ea2 373d 8379 983d 3667 d7bc ec7a 7c3d

encoder.rnn.bias_hh_l0 f4 [192]
-0.06890142 0.019127155 0.14849938 0.064853825 -0.026042687 0.117286935 0.13540177 -0.025133394
-0.03332333 -0.111407205 0.11275368 -0.12155488 -0.106373385 -0.1616145 -0.037329163 -0.16588569
0.04457582 -0.12953356 -0.17888941 -0.08029247 0.054447353 -0.19046438 0.14841986 -0.36468774
-0.07730894 0.1236717 0.0852988 -0.03894676 -0.2615548 -0.17036502 -0.25288302 -0.073792726
0.10413674 0.009711625 0.2008239 -0.17606178 -0.1565661 -0.056594465 -0.10770989 0.13318829
0.092628404 -0.18547006 -0.09067444 -0.18951653 0.06231524 0.20255344 0.11733485 0.04016484
0.030771807 0.062990144 -0.045562845 -0.121135786 0.17528725 0.024312448 -0.080623604 -0.13307329
-0.017737167 -0.14160097 -0.18988165 -0.052570775 0.031767547 -0.05005854 -0.0054314346 0.061203253
0.30668843 0.05744835 -0.0036998012 -0.089864686 -0.0040047257 -0.15532655 0.1175719 -0.16942076
-0.10500265 -0.119980395 -0.0657029 -0.107055664 0.10723167 0.18265468 -0.10069315 0.026222412
0.06394917 0.2799579 0.085841455 -0.13535084 0.018123174 -0.3603026 -0.08063407 -0.021876778
-0.059276983 -0.16874157 0.2081856 0.15958986 -0.08043718 -0.06084625 0.15211393 -0.23305152
0.15467109 -0.10457066 0.015337932 0.23896167 -0.20940447 0.023272503 0.10766941 0.11348972
-0.29360393 -0.2567688 0.0057444097 0.07393828 0.2555345 -0.1012973 0.2647562 -0.070628166
0.24127351 -0.19532906 -0.043618158 -0.12065543 0.15224886 -0.12957071 -0.2501131 -0.11690792
0.2544224 -0.03182407 0.041982263 -0.11413261 -0.16818942 0.023697177 -0.14402927 -0.10624907
0.042766843 -0.04963767 -0.0004937521 0.0797529 -0.060039036 0.053306863 0.050729904 0.01894628
-0.0700565 -0.033400733 -0.017059237 0.06476482 -0.01936488 0.047178272 0.024223294 0.06522677
-0.021146396 0.026439695 -0.02875393 -0.063465536 0.043301653 -0.03218431 0.11131539 -0.051475246
-0.055943795 -0.072543085 0.0734239 -0.034990225 0.023867508 0.04282397 -0.036902174 -0.070159055
-0.05035457 0.01666801 -0.13355127 0.06637968 0.07075914 0.17998624 0.14960465 0.22056901
-0.083150364 -0.14822586 0.050693996 0.0024816936 -0.040951863 -0.07870882 -0.002633784 0.14175044
0.038579192 0.10200761 -0.06526743 0.054599136 0.017783247 -0.024364509 -0.026471801 -0.06811182
0.07231547 -0.053421535 -0.030074196 -0.017024862 0.11318649 0.086822025 -0.12797579 0.030121021
00000000: 301c 8dbd 8db0 9c3c 3910 183e 15d2 843d
00000010: 7957 d5bc 2234 f03d c3a6 0a3e 8ce4 cdbc
00000020: 0b7e 08bd 7629 e4bd 67eb e63d c4f1 f8bd
00000030: 4ada d9bd 467e 25be 77e6 18bd f0dd 29be
00000040: 2395 363d 72a4 04be c92e 37be 6170 a4bd
00000050: 3004 5f3d 1809 43be 60fb 173e 5ab8 babe
00000060: 2654 9ebd 9747 fd3d 23b1 ae3d a386 1fbd
00000070: 83ea 85be 2b74 2ebe e279 81be a420 97bd
00000080: a545 d53d 821d 1f3c c8a4 4d3e 8a49 34be
00000090: dd52 20be 99cf 67bd 0197 dcbd 8362 083e
000000a0: f6b3 bd3d ddeb 3dbe 85b3 b9bd 9f10 42be
000000b0: 443e 7f3d 2b6a 4f3e 414d f03d e383 243d
000000c0: 2815 fc3c fa00 813d 1ba0 3abd 0a16 f8bd
000000d0: 807e 333e e62a c73c fd1d a5bd 5d44 08be
000000e0: 894d 91bc d8ff 10be 5670 42be 7454 57bd
000000f0: b01e 023d 2f0a 4dbd 2dfa b1bb 43b0 7a3d
00000100: 4406 9d3e f64e 6b3d 5d78 72bb fa0a b8bd
00000110: 133a 83bb ec0d 1fbe 89c9 f03d a37c 2dbe
00000120: a10b d7bd 48b8 f5bd 3e8f 86bd 0040 dbbd
00000130: 479c db3d d409 3b3e 3638 cebd 62d0 d63c
00000140: c8f7 823d a456 8f3e a5cd af3d 6999 0abe
00000150: 0d77 943c 9579 b8be 7a23 a5bd ee36 b3bc
00000160: 6ccc 72bd 97ca 2cbe 9b2e 553e 866b 233e
00000170: 40bc a4bd eb39 79bd c1c3 1b3e 0fa5 6ebe
00000180: 1962 1e3e 2429 d6bd f34b 7b3c 5eb2 743e
00000190: 206e 56be faa5 be3c c881 dc3d 4c6d e83d
000001a0: 4153 96be 3377 83be 9a3b bc3b f46c 973d
000001b0: 6bd5 823e f574 cfbd 208e 873e 80a5 90bd
000001c0: 6710 773e 5704 48be f4a8 32bd 321a f7bd
000001d0: 20e7 1b3e 2fae 04be d30e 80be 6b6d efbd
000001e0: a743 823e f559 02bd 98f5 2b3d 5cbe e9bd
000001f0: d939 2cbe 9520 c23c 697c 13be 1d99 d9bd
00000200: 492c 2f3d df50 4bbd 246f 01ba 7d55 a33d
00000210: 7eeb 75bd 4c58 5a3d 29ca 4f3d 3b35 9b3c
00000220: c879 8fbd 35cf 08bd d0bf 8bbc 6ba3 843d
00000230: 19a3 9ebc 013e 413d ee6f c63c 9d95 853d
00000240: 353b adbc 0f98 d83c 5d8d ebbc 38fa 81bd
00000250: 135d 313d b2d3 03bd 53f9 e33d b5d7 52bd
00000260: 5225 65bd 7891 94bd 455f 963d e951 0fbd
00000270: cb85 c33c 3068 2f3d bc26 17bd 8daf 8fbd
00000280: 9840 4ebd 5a8b 883c aac1 08be 12f2 873d
00000290: 2bea 903d 504e 383e f631 193e d8dc 613e
000002a0: bd4a aabd 85c8 17be 82a4 4f3d e9a3 223b
000002b0: 24bd 27bd 1732 a1bd 909b 2cbb 0727 113e
000002c0: 3705 1e3d 5ee9 d03d eeaa 85bd 58a3 5f3d
000002d0: 2cae 913c 1498 c7bc 64db d8bc 367e 8bbd
000002e0: 221a 943d 8ad0 5abd 295e f6bc b977 8bbc
000002f0: 52ce e73d bfcf b13d 160c 03be 5cc0 f63c

encoder.rnn.weight_ih_l1 f4 [192, 64]
-0.0023570477 -0.012619298 -0.027488975 -0.0747775 -0.13585848 -0.13418038 -0.11051755 0.073561035
0.016873604 0.038921155 -0.11534035 -0.050310288 0.0029446352 0.02920114 -0.07192513 -0.0222843
0.15177585 -0.0569104 -0.24555424 -0.08910565 0.08078757 -0.046346318 -0.061290376 -0.041757647
0.031585917 0.10900244 0.018395547 -0.0081852395 0.10377006 -0.03724068 0.15552257 0.15549143
-0.15962513 -0.106992975 -0.06898486 -0.121056855 -0.13581309 -0.09985018 0.08601282 -0.03307677
-0.1036192 -0.091235645 -0.193127 -0.14160791 -0.03443472 0.07428197 0.025531307 -0.06819567
0.09038227 -0.01676686 0.024817707 -0.13391648 0.0984789 -0.073718555 0.1523317 -0.057762437
0.1806965 -0.06869482 -0.04514204 -0.046600845 0.06124393 -0.025922775 -0.011209869 -0.0271045
-0.10190498 0.13570753 0.069161594 -0.088535465 -0.11340436 0.028177803 0.004173037 -0.12537074
-0.04467646 0.16705537 -0.18785514 -0.2177571 -0.120967284 0.07193474 -0.062193274 -0.20240058
0.048324574 0.18592669 0.04438543 -0.16723603 0.067575976 0.13268279 -0.030019833 -0.061465148
-0.15309745 0.0004177873 -0.21019165 -0.03875373 -0.028368745 -0.17069583 0.06479109 0.121589236
0.018990485 0.08702736 -0.11689943 0.0056307395 0.046032928 -0.13444269 -0.093545884 0.0070619998
-0.082798004 -0.10877148 -0.06281415 0.052299764 -0.058778435 -0.12800537 -0.11629478 -0.04042168
0.17959026 -0.09844719 -0.025304582 -0.12878595 -0.075300984 -0.18762127 0.28330514 0.032905392
-0.09468959 -0.16461696 -0.20066842 0.30184442 -0.1331622 0.18734986 -0.07576856 0.079390906
-0.011934908 0.19995639 0.06630826 -0.056344144 0.094860874 0.00815515 0.03698182 -0.071896166
-0.09062393 0.052144088 -0.12919946 0.026507897 0.034205925 0.17957342 0.13337676 -0.28881025
0.041386504 0.043021593 -0.10825164 -0.12852247 0.1447529 0.1368617 -0.056707162 -0.23465574
-0.089357555 0.07850487 -0.13902263 0.04827426 -0.0022438592 -0.14413221 0.04924396 -0.06677247
-0.13583542 -0.004201613 -0.01107998 -0.17257261 0.032846924 0.010035303 0.05181924 0.1409627
-0.049271736 -0.044782463 0.07454441 0.108632796 -0.058170125 0.026242064 0.04830133 -0.010601318
0.14769004 -0.11492837 0.026047662 0.06561467 -0.15911494 -0.023559574 0.13012148 0.013242703
-0.08424461 0.15590635 -0.016771605 0.14436597 -0.09161682 -0.021654973 -0.041057102 0.032951456
0.0015803791 -0.040423695 -0.15474272 0.01530531 0.045914616 0.047095265 -0.1479605 -0.019785916
-0.06067399 0.06694544 0.10443772 -0.00990511 -0.10883754 -0.08458889 -0.06678164 0.019141253
0.16347939 -0.076860994 -0.0756075 0.07431307 -0.059153702 -0.080780834 0.013683071 -0.10048272
-0.21208014 0.044443507 -0.06554871 0.18823282 -0.11314187 -0.014977001 -0.13110995 -0.014615831
-0.11923904 0.022021132 -0.1107627 0.028075965 -0.19912702 0.20536514 -0.09575473 0.029580772
0.14448701 0.06721626 -0.059689835 -0.11924272 -0.0098677585 0.1062413 0.21240972 0.05346201
-0.14701557 0.094490156 0.00026566104 -0.018621325 -0.016463174 0.055164453 0.11522904 0.10375943
0.19093636 -0.022617904 0.05175095 0.10711067 -0.022481289 0.067841455 -0.019147145 -0.041421406
00000000: b378 1abb 2cc1 4ebc 8f30 e1bc f224 99bd
00000010: 7c1e 0bbe 9566 09be 0657 e2bd 2ba7 963d
00000020: 833a 8a3c ca6b 1f3d 9037 ecbd 2912 4ebd
00000030: c8fa 403b 3b37 ef3c 7c4d 93bd 908d b6bc
00000040: 216b 1b3e e11a 69bd 9272 7bbe 067d b6bd
00000050: f473 a53d a3d5 3dbd 9e0b 7bbd 110a 2bbd
00000060: 3c60 013d ac3c df3d 42b2 963c 621b 06bc
00000070: 6685 d43d af89 18bd 4f41 1f3e 2539 1f3e
00000080: c574 23be 221f dbbd ef47 8dbd a8ec f7bd
00000090: 9612 0bbe 407e ccbd 7d27 b03d 827b 07bd
000000a0: 4e36 d4bd c1d9 babd 16c3 45be aa01 11be
000000b0: 6c0b 0dbd 2521 983d 0827 d13c 2caa 8bbd
000000c0: 571a b93d a75a 89bc 814e cb3c 6721 09be
000000d0: 4eaf c93d c1f9 96bd d7fc 1b3e 4e98 6cbd
000000e0: 8108 393e dfaf 8cbd dce6 38bd 87e0 3ebd
000000f0: eada 7a3d 005c d4bc 99a9 37bc 420a debc
00000100: 8fb3 d0bd eaf6 0a3e 98a4 8d3d 1552 b5bd
00000110: 8c40 e8bd 23d5 e63c f9bd 883b 3061 00be
00000120: aafe 36bd 9010 2b3e 195d 40be b8fb 5ebe
00000130: b2bd f7bd 8552 933d 60be 7ebd 1942 4fbe
00000140: fdef 453d 9163 3e3e 7fcd 353d ec3f 2bbe
00000150: 4665 8a3d ffdd 073e 27ec f5bc e1c2 7bbd
00000160: 94c5 1cbe 760a db39 7b3c 57be 3bbc 1ebd
00000170: 9265 e8bc e3ca 2ebe 31b1 843d c703 f93d
00000180: ef91 9b3c 673b b23d f868 efbd 1182 b83b
00000190: 068d 3c3d 58ab 09be fc94 bfbd 5968 e73b
000001a0: 0092 a9bd 95c3 debd b4a4 80bd 4738 563d
000001b0: a8c1 70bd d713 03be f52b eebd 3491 25bd
000001c0: 82e6 373e ae9e c9bd 8e4b cfbc 77e0 03be
000001d0: 6737 9abd ca1f 40be 5f0d 913e cec7 063d
000001e0: 9eec c1bd 5991 28be 067c 4dbe 5a8b 9a3e
000001f0: ac5b 08be a4d8 3f3e 8c2c 9bbd b397 a23d
00000200: a28a 43bc 5ec1 4c3e a0cc 873d 1ec9 66bd
00000210: 6b46 c23d 2e9d 053c 407a 173d 4c3e 93bd
00000220: 0a99 b9bd 0a95 553d dd4c 04be 1727 d93c
00000230: 831b 0c3d 18e2 373e eb93 083e f0de 93be
00000240: e584 293d 6937 303d 09b3 ddbd 659b 03be
00000250: 1b3a 143e 7925 0c3e c545 68bd 9849 70be
00000260: 1801 b7bd 29c7 a03d f35b 0ebe 3bbb 453d
00000270: b60d 13bb 6597 13be 09b4 493d 01c0 88bd
00000280: 7118 0bbe afad 89bb ce88 35bc e0b6 30be
00000290: 7f8a 063d 1d6b 243c 6940 543d 8758 103e
000002a0: 29d1 49bd d16d 37bd bdaa 983d df7a de3d
000002b0: cc43 6ebd 99f9 d63c 9ed7 453d 27b1 2dbc
000002c0: 0f3c 173e 915f ebbd e861 d53c fc60 863d
000002d0: 07ef 22be 0200 c1bc 913e 053e ecf7 583c
000002e0: 7088 acbd eaa5 1f3e 9b64 89bc acd4 133e
000002f0: 99a1 bbbd c565 b1bc 7e2b 28bd 1bf8 063d
00000300: b924 cf3a 5193 25bd e074 1ebe 1fc3 7a3c
00000310: f710 3c3d f7e6 403d f582 17be 1316 a2bc
00000320: 4a85 78bd b11a 893d 71e3 d53d 0b49 22bc
00000330: 37e6 debd f13c adbd d0c4 88bd 1ece 9c3c
00000340: 2467 273e 4c69 9dbd 1bd8 9abd 7331 983d
00000350: 274b 72bd 6c70 a5bd f62e 603c e2c9 cdbd
00000360: 892b 59be 650a 363d 673e 86bd 1bc0 403e
00000370: edb6 e7bd 1862 75bc b041 06be 3d77 6fbc
00000380: 9933 f4bd a965 b43c 8ed7 e2bd 91ff e53c
00000390: f4e7 4bbe 3d4b 523e 0e1b c4bd 6053 f23c
000003a0: 67f4 133e aea8 893d 547d 74bd 8735 f4bd
000003b0: 61ac 21bc 0a95 d93d ef81 593e fbfa 5a3d
000003c0: 408b 16be 0e84 c13d 6c48 8b39 c08b 98bc
000003d0: c7dd 86bc 1ff4 613d 34fd eb3d d37f d43d
000003e0: d284 433e 2f49 b9bc cef8 533d d75c db3d
000003f0: ae2a b8bc 76f0 8a3d 79da 9cbc 7ea9 29bd

encoder.rnn.weight_hh_l1 f4 [192, 64]
0.085083164 -0.023084715 0.05716855 0.17071962 -0.053902995 0.020082962 -0.23197605 -0.07950474
0.10520096 -0.04235777 0.16411489 -0.065624855 0.007798034 0.09924777 -0.016051747 -0.037292585
0.117600426 -0.103645764 -0.039639648 -0.05817344 -0.03477668 0.16947484 -0.012866058 -0.016538464
0.055902623 -0.11644094 0.10423706 -0.018676352 -0.053114157 -0.12734611 0.037321784 0.06934625
-0.061569273 0.098503195 0.14975835 -0.022669338 -0.08365413 -0.10637139 0.053877797 -0.22671716
0.14231907 -0.08368121 0.007796694 0.04738458 -0.060440496 0.10447403 -0.15598115 -0.16053969
0.1606548 0.117627315 -0.13460374 0.002710525 -0.063865565 -0.11201411 0.085636914 -0.09876923
-0.038116988 0.06505681 -0.061698962 0.034655467 0.15127005 -0.0644342 -0.08815435 -0.044039354
0.029317735 0.009845451 0.034930695 -0.144302 0.0050726486 0.26127493 -0.17024086 0.029391615
0.09957606 0.026620174 0.12633124 -0.27689674 -0.11776736 -0.053492296 -0.006946301 0.004232729
0.21996735 -0.1478046 -0.09468331 -0.051136233 0.22292303 0.04069445 -0.13527644 -0.12022683
-0.12505278 -0.09547636 0.015877603 0.002546642 0.13406059 -0.23867582 0.035760313 -0.028732015
0.015202253 0.083617605 -0.06280948 0.21486013 0.21207206 0.104952514 -0.23068282 -0.12800059
0.010562846 0.10224323 -0.031684976 -0.0055838823 0.15437205 0.12689255 0.015520405 -0.20070459
0.045093846 0.0031025768 -0.15332082 -0.053332243 -0.12622125 -0.20447336 0.2364808 0.037451908
-0.06227325 0.18614545 0.07642088 -0.045601927 0.06525381 -0.15122691 -0.035980597 -0.18784364
0.07019444 0.120176926 0.12811017 0.028452126 0.120713174 -0.0060741073 -0.2940073 0.14888635
0.14224726 -0.12154195 0.018050743 0.068443574 -0.00642875 -0.07582692 -0.12236706 0.07651211
-0.033052202 0.033190478 -0.00046898946 -0.101211645 0.14132585 -0.067344636 -0.09565802 -0.049113516
0.020461977 -0.104277864 0.011261312 -0.044020396 -0.024343971 0.025971685 -0.104100466 0.01771928
-0.07210711 0.03093434 -0.010362741 -0.099373125 -0.030378763 -0.04616197 -0.014442755 0.13779964
-0.15320644 0.09130943 -0.11153484 0.048739783 0.04159526 -0.14205141 -0.07475664 -0.054270532
0.0023292606 0.020882541 0.15678842 -0.14836809 -0.13430424 -0.11349362 0.08449865 -0.089124255
-0.26293612 0.022916839 -0.10778481 0.037686832 -0.015346818 0.005329393 -0.08212424 -0.15666597
0.124083005 -0.10435172 0.06475438 0.024443384 -0.117954314 -0.04953503 -0.15726216 0.16625026
0.109420046 -0.08376794 0.259125 -0.010666751 -0.0033432036 0.20466639 -0.100973345 -0.23572937
0.053062934 0.118641704 -0.1470316 0.07489804 -0.028014043 0.15847962 -0.040741846 -0.16375965
-0.009273125 0.100810885 0.029387083 0.09083845 0.029679876 -0.11037223 -0.121876724 -0.04683676
-0.16980654 0.0763555 0.014342531 0.26924106 -0.121645235 -0.19538593 -0.1330456 -0.1584635
0.059028924 0.06160296 -0.079734065 -0.085465476 0.017972313 -0.021617696 -0.24096826 0.07913489
0.023461327 0.13538441 -0.08708584 -0.101819955 0.21265751 -0.29636717 -0.08738191 -0.051094797
0.03722062 -0.10942604 -0.0054261694 0.3612405 -0.06526983 0.030888395 -0.02514625 0.12678544
00000000: 1540 ae3d 281c bdbc 9229 6a3d 20d1 2e3e
00000010: 63c9 5cbd 0685 a43c 218b 6dbe 62d3 a2bd
00000020: 9a73 d73d 577f 2dbd bc0d 283e 5366 86bd
00000030: a786 ff3b 6a42 cb3d f47e 83bc 1cc0 18bd
00000040: 7ed8 f03d 3b44 d4bd 2f5d 22bd 4647 6ebd
00000050: fe71 0ebd d08a 2d3e 29cc 52bc ac7b 87bc
00000060: 26fa 643d 9678 eebd 3d7a d53d 26ff 98bc
00000070: 3b8e 59bd 0567 02be bade 183d 6805 8e3d
00000080: 1030 7cbd 0bbc c93d 415a 193e 0cb5 b9bc
00000090: db52 abbd 3ed9 d9bd f7ae 5c3d 8b28 68be
000000a0: 17bc 113e 0e61 abbd 697b ff3b 5516 423d
000000b0: 7490 77bd 7bf6 d53d 86b9 1fbe 8464 24be
000000c0: b182 243e 97e6 f03d 90d5 09be 10a3 313b
000000d0: f3cb 82bd a767 e5bd 6862 af3d 8647 cabd
000000e0: 8f20 1cbd 813c 853d 0db8 7cbd e4f2 0d3d
000000f0: 89e6 1a3e 14f6 83bd 458a b4bd 9c62 34bd
00000100: bf2b f03c d14e 213c 7d13 0f3d e7c3 13be
00000110: 7638 a63b d4c5 853e 9f53 2ebe afc6 f03c
00000120: 89ee cb3d 8d12 da3c fa5c 013e 69c5 8dbe
00000130: 0330 f1bd bd1a 5bbd cc9d e3bb b4b2 8a3b
00000140: 1f3f 613e 175a 17be 53e9 c1bd 3a74 51bd
00000150: ef45 643e 39af 263d e885 0abe 7c39 f6bd
00000160: d60d 00be 1c89 c3bd bf11 823c 90e5 263b
00000170: 2e47 093e 6f67 74be 6879 123d 675f ebbc
00000180: df12 793c b53f ab3d 42a2 80bd 4b04 5c3e
00000190: 6b29 593e 58f1 d63d 1e38 6cbe 9612 03be
000001a0: ca0f 2d3c e664 d13d 1bc8 01bd 00f9 b6bb
000001b0: b513 1e3e 1ff0 013e 4c49 7e3c 8185 4dbe
000001c0: 53b4 383d 9a54 4b3b 2200 1dbe e972 5abd
000001d0: 2540 01be 7761 51be 0628 723e 2c67 193d
000001e0: 3c12 7fbd ea9c 3e3e 8d82 9c3d 16c9 3abd
000001f0: caa3 853d 3adb 1abe 6460 13bd 155a 40be
00000200: 1ac2 8f3d 521f f63d 502f 033e 6f14 e93c
00000210: 7838 f73d 4e09 c7bb 2088 96be aa75 183e
00000220: 44a9 113e fcea f8bd 27df 933c 252c 8c3d
00000230: 44a8 d2bb 254b 9bbd 959b fabd 62b2 9c3d
00000240: bf61 07bd bdf2 073d b3e2 f5b9 0d48 cfbd
00000250: b9b7 103e fceb 89bd 5ae8 c3bd 412b 49bd
00000260: e09f a73c a28f d5bd 5e81 383c bb4e 34bd
00000270: 026d c7bc 92c2 d43c a032 d5bd 0628 913c
00000280: e4ac 93bd 036a fd3c 7cc8 29bc 2384 cbbd
00000290: e2dc f8bc 5514 3dbd 4ea1 6cbc 591b 0d3e
000002a0: 26e2 1cbe 7000 bb3d 616c e4bd 5ea3 473d
000002b0: cb5f 2a3d ed75 11be 021a 99bd c74a 5ebd
000002c0: 82a6 183b dd11 ab3c 258d 203e ceed 17be
000002d0: 0d87 09be 586f e8bd a10d ad3d c786 b6bd
000002e0: 909f 86be 18bc bb3c 48be dcbd 825d 1a3d
000002f0: 3871 7bbc 30a2 ae3b c130 a8bd 0b6d 20be
00000300: 3b1f fe3d 5bb6 d5bd f29d 843d 7e3d c83c
00000310: 0892 f1bd 3ee5 4abd 5509 21be 823d 2a3e
00000320: 9e17 e03d 878e abbd 08ac 843e 99c3 2ebc
00000330: a619 5bbb 1194 513e 1dcb cebd 0a63 71be
00000340: 8558 593d 6cfa f23d 748f 16be 2564 993d
00000350: b57d e5bc 7b48 223e ece0 26bd 9cb0 27be
00000360: 4eee 17bc f075 ce3d 2ebd f03c 8209 ba3d
00000370: 3623 f33c d60a e2bd 819a f9bd e7d7 3fbd
00000380: c4e1 2dbe 4660 9c3d effc 6a3c f7d9 893e
00000390: 2321 f9bd 4013 48be 1b3d 08be 4144 22be
000003a0: 50c8 713d 6353 7c3d 9d4b a3bd 8608 afbd
000003b0: ac3a 933c 9817 b1bc 62c0 76be 7911 a23d
000003c0: f831 c03c 36a2 0a3e 105a b2bd fb86 d0bd
000003d0: e4c2 593e 70bd 97be 49f5 b2bd c748 51bd
000003e0: a674 183d c21a e0bd 02ce b1bb 84f4 b83e
000003f0: 30ac 85bd a909 fd3c 82ff cdbc 0bd4 013e

encoder.rnn.bias_ih_l1 f4 [192]
-0.123149514 -0.05031652 -0.1005479 0.015545955 0.047726247 0.17885776 0.07289944 -0.23280472
0.12746969 0.02407606 -0.003975048 0.2786526 -0.02553991 -0.0062582404 -0.016311169 0.03583132
0.17936315 -0.14235157 -0.005876097 -0.09875856 -0.23369335 -0.064283445 -0.004341234 -0.24418013
0.023048349 0.025953304 -0.014152957 0.021187348 -0.023733446 0.17215428 -0.019445088 -0.015728673
0.14058915 0.05067095 0.020091979 0.13271855 0.080688335 -0.11227761 0.0023271972 0.1936436
-0.022864971 -0.035507567 -0.030862888 0.010338101 0.12021787 -0.010717504 0.053469684 0.33234066
-0.1662163 0.06234116 0.036917828 -0.13129854 -0.101568684 -0.15525202 -0.07424074 0.100499146
-0.08689854 -0.21330634 0.07090183 -0.15009247 -0.17221259 0.10119744 0.02582957 -0.13112111
0.06570884 0.29001585 -0.01115325 0.11319167 0.071722485 0.3714431 0.1506882 -0.089800395
0.0799007 0.24797152 0.4408772 0.22408652 0.078399256 0.07278514 0.4134772 0.20818299
-0.012766545 0.30013248 0.30691302 0.21510966 0.059470236 0.4993832 -0.021840684 0.32669407
0.15149614 0.27278367 0.17421453 0.5233981 0.079647124 0.1748067 0.3576842 0.26172668
0.18032555 0.04151402 0.1787186 0.15897024 0.37516564 0.25465292 0.18147221 0.01022225
0.06820701 -0.0879175 0.15783978 0.43190438 -0.01002278 0.15876882 0.37009627 0.25724378
0.3708201 0.2673889 0.17389648 -0.0512807 0.3854467 0.23703678 0.2982248 0.21259977
-0.09710108 0.30055615 0.31783375 0.46190295 0.3205059 0.016486214 0.22346993 0.4384861
0.14211494 -0.15027094 -0.061955467 0.039442267 0.001124502 -0.035676204 0.053700402 0.0037537508
-0.12195155 -0.03476703 0.0077046463 0.110314466 0.029036349 0.22625732 0.13193923 0.015916547
-0.007557428 0.0073954593 0.14930099 -0.12133901 -0.17549653 0.11920498 0.1310171 -0.19030815
0.027676819 0.18508354 -0.03327096 0.115969986 -0.09519565 0.026110105 0.04915005 -0.15492561
-0.14409041 0.046410542 0.19830629 0.072038315 -0.16323188 -0.037114248 -0.038999707 -0.1063428
-0.05049476 -0.19051595 -0.05336069 -0.0052059684 -0.061462324 0.13153228 -0.047040958 -0.018460365
0.13503605 0.18082339 -0.10722009 0.17050031 -0.033274963 -0.13468367 0.09786685 0.009087211
0.18003288 0.1120987 -0.055858735 -0.005225702 0.09338327 0.012158228 0.08733802 -0.09982315
00000000: d035 fcbd b218 4ebd 0fec cdbd 76b4 7e3c
00000010: 997c 433d 7d26 373e 4d4c 953d 5c64 6ebe
00000020: 6a87 023e 283b c53c 1f41 82bb 8eab 8e3e
00000030: 1339 d1bc ed11 cdbb 009f 85bc ddc3 123d
00000040: f9aa 373e 9cc4 11be 468c c0bb ee41 cabd
00000050: 4f4d 6fbe 0aa7 83bd e940 8ebb 5b0a 7abe
00000060: e4cf bc3c 069c d43c cee1 67bc 1791 ad3c
00000070: a56c c2bc 3649 303e 4e4b 9fbc 6bd9 80bc
00000080: 9af6 0f3e 588c 4f3d ef97 a43c 5fe7 073e
00000090: ed3f a53d cef1 e5bd e483 183b 824a 463e
000000a0: 524f bbbc 6270 11bd 2bd4 fcbc 2361 293c
000000b0: c934 f63d 7898 2fbc 0703 5b3d 8e28 aa3e
000000c0: 9b34 2abe 7259 7f3d 2637 173d 2073 06be
000000d0: 3e03 d0bd 63fa 1ebe 870b 98bd 7fd2 cd3d
000000e0: ddf7 b1bd fa6c 5abe fb34 913d d7b1 19be
000000f0: 7f58 30be 9a40 cf3d 8998 d33c 9d44 06be
00000100: 5b92 863d f57c 943e 1fbc 36bc 09d1 e73d
00000110: 3de3 923d ca2d be3e 024e 1a3e 45e9 b7bd
00000120: faa2 a33d 3fec 7d3e a8ba e13e f076 653e
00000130: ca8f a03d 6010 953d 49b3 d33e ec2d 553e
00000140: c52a 51bc f7aa 993e b423 9d3e b545 5c3e
00000150: 1097 733d 28af ff3e 3ceb b2bc 7244 a73e
00000160: ce21 1b3e 4daa 8b3e 4b65 323e 6bfd 053f
00000170: 081e a33d 8700 333e 6222 b73e 0a01 863e
00000180: 43a7 383e 9b0a 2a3d 0202 373e 18c9 223e
00000190: b615 c03e de61 823e dad3 393e 397b 273c
000001a0: 1eb0 8b3d 170e b4bd c0a0 213e 9222 dd3e
000001b0: 9636 24bc 4b94 223e 427d bd3e 75b5 833e
000001c0: 22dc bd3e 33e7 883e eb11 323e b60b 52bd
000001d0: 4559 c53e c5b9 723e ecb0 983e c1b3 593e
000001e0: eedc c6bd 7fe2 993e 1bbb a23e 8b7e ec3e
000001f0: 5919 a43e 190e 873c 4dd5 643e 4081 e03e
00000200: 9486 113e a0e0 19be 04c5 7dbd 378e 213d
00000210: 0764 933a 3621 12bd f4f4 5b3d 7d01 763b
00000220: bcc1 f9bd e067 0ebd 4277 fc3b 8dec e13d
00000230: a3dd ed3c 00b0 673e 141b 073e 6b63 823c
00000240: 4da4 f7bb 9c55 f23b 5ce2 183e 9680 f8bd
00000250: 5db5 33be be21 f43d 5929 063e 24e0 42be
00000260: 7fba e23c 8a86 3d3e 2147 08bd ac81 ed3d
00000270: f0f5 c2bd dce4 d53c 9051 493d d2a4 1ebe
00000280: 708c 13be fb18 3e3d ce10 4b3e d388 933d
00000290: 4226 27be 1c05 18bd 28be 1fbd 41ca d9bd
000002a0: 98d3 4ebd 9d16 43be bd90 5abd d496 aabb
000002b0: ebbf 7bbd 66b0 063e 05ae 40bd 313a 97bc
000002c0: e446 0a3e c429 393e 3596 dbbd a297 2e3e
000002d0: 544b 08bd 84ea 09be 6a6e c83d 87e2 143c
000002e0: 8a5a 383e 0194 e53d 21cc 64bd 5e3c abbb
000002f0: ba3f bf3d 4e33 473c 47de b23d 1470 ccbd

encoder.rnn.bias_hh_l1 f4 [192]
0.10746244 -0.049468704 0.05744482 0.15219246 0.07502603 0.13879852 -0.032484666 -0.2274801
0.12283816 -0.021541057 -0.01943938 0.034338497 0.07599029 0.023469705 -0.07802302 0.03975376
0.11940292 0.0029094492 0.050148003 -0.17278667 -0.07065296 -0.038219206 0.046167426 -0.18062119
0.0772097 -0.020024713 0.15917626 0.08987403 0.029026896 0.0046964157 -0.0067798854 -0.03173882
0.1505397 0.13490634 -0.13121729 0.04319887 -0.019776754 -0.22950196 -0.05348893 0.11708784
0.02670588 0.02265732 0.11984184 0.039605677 0.21888869 -0.0050104954 0.07084157 0.10005168
0.0010986073 -0.117322594 -0.04472653 -0.066408426 -0.046839155 -0.06246366 -0.07283414 0.135286
-0.16159213 -0.23146327 0.18993391 -0.013774937 -0.008840587 0.13396986 -0.0029290586 -0.19663182
0.13671392 0.37545866 0.07614651 0.029786343 0.11584621 0.26985994 0.16084617 -0.12312798
0.10541137 0.47314915 0.28021607 0.080386944 0.17494278 0.26577795 0.19415578 0.3369269
0.0037788758 0.43281314 0.27911004 0.19108698 0.051932957 0.39583746 0.048223253 0.13056223
0.36443734 0.22499567 0.009495159 0.5749992 0.1278629 0.30380547 0.23228008 0.23395367
0.1685958 0.035440277 0.2869647 0.09758559 0.35015354 0.38749412 0.18745945 0.0700242
0.070974566 0.028177515 0.123660125 0.19976354 0.12570894 0.28118837 0.32900062 0.38459036
0.4268855 0.20946616 0.29404837 0.12950495 0.39759737 0.20914745 0.29751316 0.32553262
-0.16936369 0.31125608 0.13155833 0.24755098 0.5021333 -0.033829942 0.20050934 0.4267735
0.122126035 -0.06985245 -0.15146476 0.1979471 0.09935773 0.011523953 -0.16846618 -0.07298293
-0.035822954 0.15329534 -0.08538087 -0.059683036 -0.12761512 0.058707606 0.027411811 -0.0003734032
-0.08862964 0.09676611 0.15755571 -0.08532011 0.016205737 0.18497065 0.14962293 0.010742157
0.19959773 0.20355639 0.04368955 0.09495922 -0.11580198 0.038686965 -0.00027585725 -0.1240066
-0.11684975 -0.12513891 0.109063044 -0.08682868 -0.15214653 -0.049781337 -0.09472137 -0.06482369
0.0046713683 -0.07839684 -0.038944457 -0.11343358 0.031272363 0.0101337815 -0.20114814 0.07842191
0.09405311 0.034771256 0.0014968487 0.03439133 -0.0070560235 0.030465104 0.10558071 -0.09511909
0.11477966 -0.06779298 0.044659965 0.0782289 -0.0009806585 -0.12441537 0.10390754 0.066453725
00000000: 4515 dc3d b29f 4abd 424b 6b3d 57d8 1b3e
00000010: 3fa7 993d 3321 0e3e a40e 05bd 8bf0 68be
00000020: 9392 fb3d df76 b0bc 563f 9fbc 86a6 0c3d
00000030: cca0 9b3d 8a43 c03c 88ca 9fbd d7d4 223d
00000040: 8589 f43d 75ac 3e3b fe67 4d3d fdee 30be
00000050: 80b2 90bd be8b 1cbd 0e1a 3d3d c3f4 38be
00000060: 1f20 9e3d de0a a4bc 1aff 223e e00f b83d
00000070: d0c9 ed3c 64e4 993b cd29 debb 9100 02bd
00000080: 1427 1a3e e324 0a3e d35d 06be 4cf1 303d
00000090: dc02 a2bc 9002 6bbe 3517 5bbd c0cb ef3d
000000a0: 4ac6 da3c d89b b93c a36f f53d 9039 223d
000000b0: 5b24 603e 152f a4bb 6315 913d e5e7 cc3d
000000c0: 25ff 8f3a d446 f0bd 2a33 37bd 2401 88bd
000000d0: 6ada 3fbd e5d9 7fbd 112a 95bd 6a88 0a3e
000000e0: 6878 25be b504 6dbe 097e 423e 46b0 61bc
000000f0: 1cd8 10bc 652f 093e 73f5 3fbb da59 49be
00000100: bcfe 0b3e 1e3c c03e b4f2 9b3d 7d02 f43c
00000110: c740 ed3d 152b 8a3e dcb4 243e 862a fcbd
00000120: ebe1 d73d 9b40 f23e 7b78 8f3e e9a1 a43d
00000130: 3324 333e 0c14 883e c6d0 463e af81 ac3e
00000140: 04a7 773b af99 dd3e 83e7 8e3e 4eac 433e
00000150: a7b7 543d 35ab ca3e bf85 453d 1bb2 053e
00000160: 8897 ba3e 4465 663e 9591 1b3c 2633 133f
00000170: 7eee 023e 648c 9b3e d4da 6d3e 8d91 6f3e
00000180: 61a4 2c3e d329 113d 0aed 923e f4da c73d
00000190: 5347 b33e a165 c63e 5ff5 3f3e d968 8f3d
000001a0: 1d5b 913d 88d4 e63c 8541 fd3d d08e 4c3e
000001b0: d8b9 003e ecf7 8f3e c572 a83e 07e9 c43e
000001c0: bc90 da3e 4c7e 563e 828d 963e f29c 043e
000001d0: e291 cb3e c02a 563e a553 983e 36ac a63e
000001e0: ad6d 2dbe f55c 9f3e 3ab7 063e 017e 7d3e
000001f0: cf8b 003f 4491 0abd 5252 4d3e 0e82 da3e
00000200: 371d fa3d cd0e 8fbd 9419 1bbe a5b2 4a3e
00000210: 117c cb3d f6ce 3c3c 6682 2cbe 1378 95bd
00000220: 17bb 12bd 74f9 1c3e 2adc aebd 3376 74bd
00000230: 8aad 02be 6377 703d bc8e e03c 54c5 c3b9
00000240: 7583 b5bd 4f2d c63d 4956 213e 4fbc aebd
00000250: e5c1 843c f268 3d3e c136 193e dfff 2f3c
00000260: 5963 4c3e 1671 503e d0f3 323d fb79 c23d
00000270: 9729 edbd 3976 1e3d efa0 90b9 2cf7 fdbd
00000280: ec4e efbd 6a24 00be 725c df3d 3cd3 b1bd
00000290: 4dcc 1bbe 84e7 4bbd 47fd c1bd 48c2 84bd
000002a0: 4712 993b 868e a0bd 3984 1fbd dd4f e8bd
000002b0: 7317 003d 2908 263c c7f9 4dbe ab9b a03d
000002c0: eb9e c03d 4e6c 0e3d e831 c43a ecdd 0c3d
000002d0: 3736 e7bb f491 f93c b33a d83d cccd c2bd
000002e0: 9911 eb3d 0cd7 8abd 5eed 363d 7936 a03d
000002f0: 7089 80ba 7ccd febd 7acd d43d e418 883d

decoder.rnn.weight_ih_l0 f4 [192, 80]
-0.058136027 0.021282338 -0.08668978 -0.06936129 -0.13078322 0.1788022 0.15374152 0.14517567
0.14834987 -0.08163961 0.01903614 0.049110968 -0.022347668 -0.027868018 0.002595725 0.050971497
0.098460875 0.09942079 0.03802004 0.14122762 0.1288426 -0.12605456 -0.06856551 0.17676775
-0.09913943 -0.032774266 0.04915732 0.11074798 0.10289304 0.058855597 -0.14349516 -0.040201448
0.028598484 -0.022387423 -0.13994567 0.004626166 0.07166103 -0.049865928 -0.053670563 0.026053084
-0.12284232 0.04026825 -0.058277007 0.09214575 0.091018364 -0.113514066 0.22209416 -0.12505323
0.039597414 -0.12940705 -0.14553095 0.058428545 0.12006374 -0.041724343 -0.008055131 -0.040209368
-0.012041456 0.010706399 0.13961266 -0.102384135 -0.04109081 0.06367129 -0.16340709 0.0722778
-0.026369551 0.11548202 -0.20051876 0.107727595 0.012360828 -0.034894705 -0.07715564 0.12923537
0.012653554 -0.115295075 0.06567804 0.11005583 0.058793016 0.1048191 0.114761405 -0.24614467
0.011598618 0.15826249 0.07273393 -0.10639146 -0.06422962 -0.009523422 0.12085003 -0.13933909
-0.010048307 -0.12431371 -0.0025967592 -0.05679898 0.09498357 -0.030308716 -0.0025322589 0.0346523
0.017076867 -0.0030599637 -0.046196174 -0.023077624 0.06956562 0.041468717 -0.033553515 0.10625513
0.081719674 -0.01242792 -0.06340601 0.09939391 0.02049345 0.16447048 0.0050018104 0.03317186
0.09215956 0.122327 0.05527936 -0.011043037 0.042950705 -0.12312028 -0.11446298 0.047939107
-0.02425161 0.0027469518 0.014027833 -0.09159582 0.07448673 -0.059882775 0.23983152 -0.04722624
-0.105816096 -0.010197333 0.061301023 0.023421792 -0.09635093 0.048678666 -0.047411606 0.11859966
-0.019204734 0.11300871 0.1782587 -0.16073185 -0.06836845 0.030347303 -0.15933041 0.113064624
-0.083676524 -0.07945412 -0.043821674 0.08623861 0.046826012 -0.12683198 0.053123422 -0.0815141
0.055642374 -0.037548847 0.09019906 -0.04076334 0.0589611 -0.1350003 -0.009828927 -0.16544592
0.10583548 -0.07147175 -0.050604153 0.13736193 0.094414316 -0.10551442 -0.27827182 0.13887715
0.1212516 0.053568386 0.045678485 0.022393513 0.018569672 -0.022974392 0.05775537 -0.06339869
-0.11161866 0.06947856 0.03397149 -0.046841208 -0.07040358 -0.06727389 0.04525383 0.04473206
0.08031875 0.07043691 -0.043417796 0.11492962 -0.22849262 0.015403814 0.012205602 -0.0036662114
0.006673688 -0.046332166 -0.10994142 -0.23787762 -0.1591767 -0.21508518 -0.103863716 0.047883637
-0.044421546 0.0645652 -0.19642161 -0.09953713 -0.1027299 -0.08463959 -0.1427696 -0.08261135
0.10690994 -0.08524658 -0.024641972 -0.048483938 0.03844467 -0.0529717 -0.12304316 -0.078457735
-0.03194093 -0.04139042 0.15754797 0.16488475 -0.11857328 0.05687903 -0.05471525 -0.1018048
0.14041653 0.22563605 0.05442858 0.04730761 -0.018349113 -0.09684184 0.08449189 0.21552865
0.09723214 -0.0482238 0.33399343 -0.00096652383 0.034772 -0.02193644 0.056732133 -0.0020252063
-0.0737499 0.11251055 -0.018938765 -0.030580617 -0.08808839 0.06387739 0.15892696 0.10771669
-0.093604274 0.07013536 -0.08178331 -0.11625295 -0.019478489 -0.03836063 -0.129707 -0.035111073
00000000: 0b20 6ebd 4c58 ae3c 698a b1bd 4b0d 8ebd
00000010: 09ec 05be ed17 373e 6b6e 1d3e eea8 143e
00000020: 07e9 173e ab32 a7bd aef1 9b3c 9528 493d
00000030: 7512 b7bc 784b e4bc 0a1d 2a3b 7dc7 503d
00000040: dba5 c93d 219d cb3d e7ba 1b3d f99d 103e
00000050: 51ef 033e 7214 01be 136c 8cbd 9b02 353e
00000060: 9d09 cbbd 4f3e 06bd 3059 493d d6cf e23d
00000070: 96b9 d23d 9112 713d 65f0 12be 46aa 24bd
00000080: 5e47 ea3c d465 b7bc eb4d 0fbe 1897 973b
00000090: 05c3 923d 3740 4cbd aad5 5bbd 476d d53c
000000a0: c194 fbbd 52f0 243d dfb3 6ebd e9b6 bc3d
000000b0: d667 ba3d 107a e8bd a76c 633e f40d 00be
000000c0: e630 223d 4883 04be 1106 15be c552 6f3d
000000d0: fae3 f53d 25e7 2abd abf9 03bc 94b2 24bd
000000e0: 8749 45bc e469 2f3c 9ff6 0e3e c6ae d1bd
000000f0: d64e 28bd 1866 823d 3054 27be 6206 943d
00000100: f504 d8bc d681 ec3d ca54 4dbe 49a0 dc3d
00000110: 1285 4a3c c0ed 0ebd c703 9ebd 4756 043e
00000120: da50 4f3c d31f ecbd 3582 863d f364 e13d
00000130: f2d0 703d 65ab d63d 0708 eb3d 590d 7cbe
00000140: 2108 3e3c 900f 223e 87f5 943d c4e3 d9bd
00000150: d28a 83bd 2108 1cbc 3880 f73d e8ae 0ebe
00000160: a7a1 24bc 3098 febd 642e 2abb 0ca6 68bd
00000170: bf86 c23d fc49 f8bc 41f4 25bb 92ef 0d3d
00000180: c9e4 8b3c ac89 48bb 3338 3dbd 490d bdbc
00000190: 6b78 8e3d 1adb 293d 696f 09bd 4a9c d93d
000001a0: a55c a73d 799e 4bbc 03db 81bd 098f cb3d
000001b0: e1e1 a73c f36a 283e 3ae6 a33b 37df 073d
000001c0: 27be bc3d 9486 fa3d 9c6c 623d dbed 34bc
000001d0: 14ed 2f3d 7c26 fcbd 916b eabd cc5b 443d
000001e0: 50ab c6bc 3406 343b ffd4 653c 9796 bbbd
000001f0: 808c 983d a447 75bd 6596 753e 4d70 41bd
00000200: 1cb6 d8bd b712 27bc c816 7b3d 0fdf bf3c
00000210: a353 c5bd 4863 473d ac32 42bd 61e4 f23d
00000220: 3f53 9dbc 1c71 e73d 7389 363e e496 24be
00000230: c204 8cbd e89a f83c 8327 23be 6d8e e73d
00000240: 995e abbd d7b8 a2bd 5b7e 33bd de9d b03d
00000250: a2cc 3f3d 3ee0 01be f297 593d ddf0 a6bd
00000260: 42e9 633d d2cc 19bd 49ba b83d 76f7 26bd
00000270: 3281 713d 853d 0abe 8209 21bc a86a 29be
00000280: 46c0 d83d c85f 92bd 4d46 4fbd 9ba8 0c3e
00000290: 4b5c c13d f217 d8bd a579 8ebe d035 0e3e
000002a0: c252 f83d 866a 5b3d 5d19 3b3d 9a72 b73c
000002b0: 6d1f 983c cb34 bcbc e590 6c3d 2cd7 81bd
000002c0: 5398 e4bd c64a 8e3d b025 0b3d 91dc 3fbd
000002d0: c12f 90bd e5c6 89bd 145c 393d f738 373d
000002e0: 287e a43d 3a41 903d dcd6 31bd 3860 eb3d
000002f0: f8f9 69be 4760 7c3c 01fa 473c d244 70bb
00000300: f4ae da3b ccc6 3dbd f828 e1bd 3196 73be
00000310: 38ff 22be 4a3f 5cbe 80b6 d4bd a221 443d
00000320: 5ef3 35bd c23a 843d bf22 49be 1fda cbbd
00000330: 0e64 d2bd 8557 adbd 3232 12be 2430 a9bd
00000340: 99f3 da3d c295 aebd f6dd c9bc 1897 46bd
00000350: 2978 1d3d daf8 58bd 0dfe fbbd 73ae a0bd
00000360: 7ed4 02bd 0089 29bd 4154 213e 8cd7 283e
00000370: 8cd6 f2bd fcf9 683d 191d 60bd 097f d0bd
00000380: 5ac9 0f3e 230d 673e 81f0 5e3d a0c5 413d
00000390: e150 96bc 0455 c6bd 160a ad3d 8bb3 5c3e
000003a0: a521 c73d 5286 45bd 3001 ab3e 515e 7dba
000003b0: 166d 0e3d 0db4 b3bc f45f 683d 53b9 04bb
000003c0: 300a 97bd ee6b e63d 7825 9bbc 3484 fabc
000003d0: b067 b4bd 26d2 823d c0bd 223e 919a dc3d
000003e0: 99b3 bfbd 21a3 8f3d 027e a7bd 0716 eebd
000003f0: 5a91 9fbc 0920 1dbd e9d1 04be a1d0 0fbd
