1223-code-DL/model/seq2seq_bahdanau_birnn_state_dict.pt (torch, 314622 bytes, 46 tensors)

encoder.rnn.weight_ih_l0 f4 [96, 16]
-0.0344617 0.105005965 -0.19307847 0.078761235 -0.09711166 0.028057322 -0.15080819 0.12886487
-0.05836625 -0.08687689 0.14592132 -0.16058293 -0.06585875 0.0018904685 -0.0066784318 -0.75006074
0.13266113 -0.07104648 0.034764763 0.4773332 0.011015884 -0.3990219 -0.18926153 0.08381235
-0.18751498 0.20403749 0.06800079 -0.1258858 -0.012591531 0.37733847 0.12582555 -0.3743395
0.10055127 -0.056047298 -0.1903749 0.078205466 -0.026476385 0.15526237 -0.07943601 -0.01343058
-0.00046189435 -0.03148962 0.076913334 0.11600593 0.059739675 -0.13415542 0.18475421 -0.4589651
0.10078192 0.0041741612 0.19894025 -0.12516803 0.12407513 -0.009964378 0.23003562 -0.0046330774
0.07304083 0.16490728 0.1857727 -0.09962473 0.04513669 0.14015232 0.016494324 0.4062277
0.032883774 0.11070152 0.40948644 -0.07522566 -0.039199743 -0.25399184 0.32031026 0.065116055
0.18534794 0.0873949 -0.15938146 -0.10466053 -0.08883997 0.17983246 0.07534672 -0.21099605
0.06665843 0.13977611 0.30553842 0.08414414 0.18967433 0.24157175 0.35956612 0.043453123
0.22974035 0.15281993 0.2633631 0.24952146 0.38760823 0.17958535 0.14880073 -0.2097225
0.02693863 -0.43616888 -0.53641355 -0.047363684 -0.344722 0.31837603 -0.40427867 0.1885092
-0.16688798 -0.009424546 -0.26035532 -0.23940632 -0.28723726 -0.0055210413 0.14869487 0.43137214
-0.11801824 -0.5708965 -0.14236236 -0.029923446 -0.13614932 -0.06068594 -0.47822693 -0.36572757
-0.056110945 0.010227415 0.017195439 -0.16575287 -0.17255084 0.07890116 -0.07153214 -0.4011285
0.29369295 -0.09356597 -0.2137329 -0.13750374 -0.41324502 -0.11244574 -0.092992276 0.12410419
-0.14470945 0.049642842 -0.209367 -0.016828502 0.09878622 -0.43507767 0.01700374 -0.63818336
-0.15760267 -0.021193415 -0.033098996 0.06556971 0.08325782 -0.07904934 -0.04110168 -0.15315293
-0.13368987 -0.13434641 0.15542997 -0.23622526 -0.01487783 0.026740689 0.025488611 -0.74945205
-0.050561417 0.068553746 0.35203952 -0.5948012 -1.2188008 0.15911517 -0.035756785 0.1159632
0.23276503 -0.70621467 -0.15111925 0.121221706 0.25197434 -0.6473531 0.049805034 -0.066783786
-0.6675274 -0.08300283 0.044885367 -0.0038409329 -0.948243 -0.4302307 -0.1722003 -0.6921329
0.30222484 -0.40903446 -0.42962274 0.12282418 0.102589555 0.1509794 0.016499136 -0.25138384
0.0071460176 0.15238044 -0.074885316 -0.0635146 -0.0064333193 -0.02544081 0.022735989 0.02246306
-0.28833684 -0.04440294 0.112271 -0.049931753 -0.13042274 -0.11522455 -0.1697262 -0.82758605
-0.1369797 0.15706906 0.13879748 0.049418155 -0.1811057 -0.048541926 0.04640219 0.028619265
-0.050850548 0.0013778268 0.06610196 -0.13547035 -0.18754944 0.14210014 -0.11312638 -0.7340471
-0.24770913 -0.14359786 0.07552938 -0.10410291 -0.4160869 -0.26835275 -0.3854241 0.18405421
-0.03712787 0.012534194 0.023605153 -0.0771719 -0.12500998 -0.09927583 -0.27239233 -0.30010846
0.03355049 -0.23247938 0.03697576 -0.18454656 0.10513553 0.19140747 -0.22099388 -0.2037809
0.20245717 -0.09022191 -0.08923079 0.09344362 0.18429224 0.26878896 0.027670339 -0.0086861495
00000000: b627 0dbd 5e0d d73d 5db6 45be 924d a13d
00000010: 7ae2 c6bd 78d8 e53c 766d 1abe 27f5 033e
00000020: 7311 6fbd 83ec b1bd 666c 153e da6f 24be
00000030: f4e0 86bd 99c9 f73a bfd6 dabb fb03 40bf
00000040: 52d8 073e d180 91bd 7f65 0e3d 0465 f43e
00000050: f77b 343c 994c ccbe c6cd 41be cfa5 ab3d
00000060: ed03 40be 34ef 503e 0044 8b3d 35e8 00be
00000070: b54c 4ebc 8232 c13e 6ad8 003e 6da9 bfbe
00000080: d3ed cd3d da91 65bd a3f1 42be 302a a03d
00000090: 01e5 d8bc 19fd 1e3e 59af a2bd ef0b 5cbc
000000a0: 692a f2b9 43fb 00bd bd84 9d3d 8494 ed3d
000000b0: 97b1 743d 0a60 09be 3530 3d3e 79fd eabe
000000c0: c066 ce3d 67c7 883b feb6 4b3e 0c2c 00be
000000d0: 1a1b fe3d a141 23bc 758e 6b3e 12d1 97bb
000000e0: 6e96 953d 74dd 283e 333b 3e3e 0d08 ccbd
000000f0: 40e1 383d 1784 0f3e 1b1f 873c 14fd cf3e
00000100: 23b1 063d 7bb7 e23d 35a8 d13e e90f 9abd
00000110: e98f 20bd 380b 82be b5ff a33e 915b 853d
00000120: dacb 3d3e 19fc b23d e534 23be 4358 d6bd
00000130: bbf1 b5bd 0026 383e 624f 9a3d 590f 58be
00000140: 3784 883d 7821 0f3e 886f 9c3e c353 ac3d
00000150: fd39 423e 965e 773e 0d19 b83e e7fb 313d
00000160: 0e41 6b3e d47c 1c3e 87d7 863e 8e82 7f3e
00000170: 9674 c63e 39e5 373e 385f 183e 7fc1 56be
00000180: 67ae dc3c 8751 dfbe 6652 09bf 6c00 42bd
00000190: 677f b0be 2f02 a33e 9dfd cebe 8e08 413e
000001a0: afe4 2abe 6969 1abc 4b4d 85be ee26 75be
000001b0: c310 93be dae9 b4bb 7843 183e cfdc dc3e
000001c0: 8cb3 f1bd 4626 12bf 70c7 11be 0422 f5bc
000001d0: ba6a 0bbe d291 78bd 29da f4be a540 bbbe
000001e0: 97d4 65bd e390 273c 73dd 8c3c 1fbb 29be
000001f0: 2bb1 30be ee96 a13d 717f 92bd b760 cdbe
00000200: ec5e 963e 849f bfbd ccdc 5abe c8cd 0cbe
00000210: da94 d3be f449 e6bd bc72 bebd 562a fe3d
00000220: b72e 14be 4b56 4b3d 4e64 56be eddb 89bc
00000230: 6e50 ca3d 80c2 debe 6d4b 8b3c fc5f 23bf
00000240: 9862 21be d09d adbc d092 07bd 6a49 863d
00000250: 1383 aa3d 9fe4 a1bd 3c5a 28bd 1fd4 1cbe
00000260: ffe5 08be 1b92 09be 0929 1f3e 09e5 71be
00000270: 24c2 73bc 4a0f db3c 7ecd d03c 17dc 3fbf
00000280: 7d19 4fbd e865 8c3d 863e b43e e444 18bf
00000290: aa01 9cbf 16ef 223e b575 12bd 1d7e ed3d
000002a0: f559 6e3e 7cca 34bf 01bf 1abe 1643 f83d
000002b0: c802 813e efb8 25bf 5d00 4c3d f0c5 88bd
000002c0: 13e3 2abf 63fd a9bd b8d9 373d 29b8 7bbb
000002d0: 0ec0 72bf 3347 dcbe 4755 30be 9f2f 31bf
000002e0: 37bd 9a3e f76c d1be 83f7 dbbe 3e8b fb3d
000002f0: 791a d23d 589a 1a3e 3229 873c 62b5 80be
00000300: 2429 ea3b 9e09 1c3e 795d 99bd f113 82bd
00000310: 98ce d2bb 3f69 d0bc d340 ba3c 7404 b83c
00000320: e3a0 93be dbdf 35bd 57ee e53d 3d85 4cbd
00000330: 8a8d 05be d9fa ebbd b4cc 2dbe aedc 53bf
00000340: 6844 0cbe b6d6 203e ed20 0e3e b16a 4a3d
00000350: c673 39be e6d3 46bd 3910 3e3d f372 ea3c
00000360: aa48 50bd 3298 b43a 7760 873d bdb8 0abe
00000370: f60c 40be b382 113e ceae e7bd 83ea 3bbf
00000380: 76a7 7dbe 510b 13be 26af 9a3d e833 d5bd
00000390: 5809 d5be 8865 89be 4f56 c5be b578 3c3e
000003a0: 6513 18bd 385c 4d3c 985f c13c 4d0c 9ebd
000003b0: 9e02 00be 2051 cbbd 0277 8bbe d1a7 99be
000003c0: 3d6c 093d 130f 6ebe e573 173d c6f9 3cbe
000003d0: 4c51 d73d 5200 443e 384c 62be f1ab 50be
000003e0: ef50 4f3e 44c6 b8bd a2be b6bd 5e5f bf3d
000003f0: 1bb7 3c3e b59e 893e e8ac e23c 5a50 0ebc

encoder.rnn.weight_hh_l0 f4 [96, 32]
0.09850465 0.1407549 -0.09330785 -0.09315376 -0.073771976 0.15445441 0.104558334 0.16246791
0.02940416 0.70825565 0.08697485 -0.23898442 -0.50469595 -0.09915745 0.05692483 -0.0130313635
0.19857624 -0.018488036 0.14754914 0.16183226 -0.06651902 -0.34706593 -0.14079365 -0.12583332
0.17311203 0.042381395 0.18244086 -0.05922929 0.043923847 0.032112308 0.048712324 0.3063976
0.12275931 0.32958677 -0.22740175 0.1911981 0.29223225 -0.028550837 -0.19969606 -0.8796816
0.009074707 0.5372848 -0.0072635775 0.25336844 -1.0467356 0.07384955 0.20942396 0.26261666
-0.43767783 -0.10369974 -0.09899032 0.36607125 0.0584128 -0.42529982 0.23338765 0.3702402
0.45772347 -0.06224696 0.029845424 0.2789729 -0.28517008 -0.17481129 -0.44420108 0.94949174
-0.05493016 0.005862928 -0.12719715 0.08066872 -0.21193674 0.1307445 0.16535842 0.09080765
-0.1510449 0.2802777 0.0412122 -0.30262086 -0.24313353 0.06916087 0.038748436 -0.15057349
0.03185543 -0.2554003 0.15817598 -0.11770511 -0.15378846 -0.19059496 0.038014717 0.06977635
0.05852226 -0.04968842 0.2506154 -0.2533062 -0.027659282 0.23299894 0.09757106 0.25246793
-0.11344475 0.0011872818 0.008404884 -0.048880935 0.11035456 0.06611468 0.24831179 0.24251886
0.049885895 -0.12809372 -0.19801497 0.3770135 -0.14066888 -0.082103424 0.14520897 -0.06062601
0.17618072 -0.16009147 -0.048682194 -0.09053333 -0.044448473 -0.18277733 0.23284008 -0.18784213
0.081103116 -0.027544033 0.14000691 -0.087803565 -0.30135995 -0.16269657 0.112591326 -0.48336038
-0.08106465 0.042131186 -0.1018069 0.23621465 0.1737783 -0.0076888492 -0.09441911 0.1310607
-0.09218188 0.45415744 0.053459607 0.35841915 0.026183471 -0.13347232 0.1157621 -0.034217957
0.02614123 -0.12118313 0.07487681 0.1664801 -0.13344936 0.018155767 -0.1753537 -0.11172627
-0.09060595 0.10061801 -0.12093844 -0.3270343 0.26614818 0.124687 -0.04556303 -0.4570346
0.3172696 0.11902013 0.1870301 -0.45344725 -0.34649172 0.2552751 0.20374556 -0.00859426
-0.02027118 0.3121391 0.07404676 -0.2269614 0.35772148 0.2234351 -0.058438472 0.2513295
0.21797994 0.048189435 -0.026784496 -0.04824931 -0.08030109 -0.1367002 0.07167283 -0.23644175
-0.010416765 0.23726504 -0.16133411 -0.04285734 0.119561814 0.24785477 0.08851918 -0.20659596
-0.3600055 0.027425824 0.039335277 0.23875499 0.42140824 -0.117093556 -0.055724714 -0.33763093
0.40272263 -0.33031294 -0.2017242 0.49088314 -0.0547584 -0.168179 0.11013161 0.14267558
0.14947392 0.7167714 0.12289661 0.17272472 0.017939916 -0.08748597 -0.054266393 0.12351364
0.07879112 0.13446638 -0.27513692 0.08348561 0.13551013 -0.49133822 0.08340544 0.20214823
-0.24306446 0.18352294 -0.30634448 -0.0564789 0.038762514 -0.05488063 -0.02666472 -1.0479686
0.21429922 0.053832486 -0.047862284 -0.91788876 -0.47616255 0.1305915 0.54110485 -0.13730425
-0.5374044 -0.20828655 0.008117737 -0.47250175 0.42997235 -0.6065201 -0.097401835 0.1646069
0.3080937 0.05344033 0.0777223 -0.41716498 0.2305992 -0.19343032 -0.54655045 -0.29702726
00000000: cebc c93d 0d22 103e 3018 bfbd 66c7 bebd
00000010: c315 97bd 4c29 1e3e ae22 d63d fd5d 263e
00000020: fee0 f03c 3e50 353f df1f b23d 55b8 74be
00000030: c133 01bf 1013 cbbd 032a 693d 8081 55bc
00000040: 9257 4b3e 3974 97bc 1f17 173e 5bb7 253e
00000050: 203b 88bd a0b2 b1be 362c 10be 73da 00be
00000060: 4844 313e 1d98 2d3d c7d1 3a3e 699a 72bd
00000070: 7ee9 333d 3288 033d 9386 473d 25e0 9c3e
00000080: 3c69 fb3d 99bf a83e 01dc 68be 6fc9 433e
00000090: 779f 953e 72e3 e9bc 207d 4cbe d032 61bf
000000a0: 14ae 143c 7f8b 093f 4e03 eebb 82b9 813e
000000b0: 6ffb 85bf 6f3e 973d 3c73 563e b175 863e
000000c0: 4f17 e0be 8760 d4bd 70bb cabd b16d bb3e
000000d0: 4342 6f3d e6c0 d9be 2cfd 6e3e 2090 bd3e
000000e0: bb5a ea3e abf6 7ebd 647e f43c 89d5 8e3e
000000f0: d001 92be bb01 33be 536e e3be e411 733f
00000100: 73fe 60bd ce1d c03b f83f 02be a435 a53d
00000110: f205 59be e3e1 053e b853 293e 5cf9 b93d
00000120: 84ab 1abe 8f80 8f3e 20ce 283d 1ff1 9abe
00000130: fff7 78be 37a4 8d3d aeb6 1e3d f02f 1abe
00000140: d77a 023d d4c3 82be e2f8 213e 600f f1bd
00000150: b97a 1dbe 532b 43be 52b5 1b3d e7e6 8e3d
00000160: 0ab5 6f3d 1686 4bbd a950 803e 5ab1 81be
00000170: b895 e2bc 4697 6e3e 56d3 c73d 7a43 813e
00000180: b955 e8bd 919e 9b3a a3b4 093c 6037 48bd
00000190: 9201 e23d 2267 873d 7245 7e3e dd56 783e
000001a0: 2755 4c3d 002b 03be 70c4 4abe ea07 c13e
000001b0: 810b 10be d725 a8bd a9b1 143e fb52 78bd
000001c0: b868 343e 05ef 23be fb66 47bd 8a69 b9bd
000001d0: 9a0f 36bd fb29 3bbe a16d 6e3e b059 40be
000001e0: 6419 a63d 06a4 e1bc f95d 0f3e 5bd2 b3bd
000001f0: da4b 9abe ee99 26be 4896 e63d 037b f7be
00000200: 3905 a6bd c091 2c3d 2380 d0bd 41e2 713e
00000210: f0f2 313e bef2 fbbb ce5e c1bd c734 063e
00000220: dac9 bcbd 5387 e83e 76f8 5a3d b782 b73e
00000230: b87e d63c f8ac 08be ae14 ed3d 2128 0cbd
00000240: 2226 d63c dc2e f8bd 0359 993d c279 2a3e
00000250: f3a6 08be 67bb 943c ec8f 33be bed0 e4bd
00000260: 9d8f b9bd d110 ce3d 93ae f7bd 0a71 a7be
00000270: 9344 883e e65b ff3d 4da0 3abd 7000 eabe
00000280: 2971 a23e d3c0 f33d d284 3f3e 3d2a e8be
00000290: 5d67 b1be 6bb3 823e ada2 503e f0ce 0cbc
000002a0: bf0f a6bc b2d0 9f3e d4a5 973d 9268 68be
000002b0: 4527 b73e 2ccc 643e 2e5d 6fbd 43ae 803e
000002c0: 2236 5f3e 4962 453d 296b dbbc 12a1 45bd
000002d0: e674 a4bd 23fb 0bbe 34c9 923d c91d 72be
000002e0: 14ab 2abc 9bf5 723e c534 25be 2e8b 2fbd
000002f0: d3dc f43d a4cd 7d3e 8b49 b53d e48d 53be
00000300: a452 b8be 1fac e03c 071e 213d 307c 743e
00000310: d2c2 d73e bfce efbd 993f 64bd f6dd acbe
00000320: a931 ce3e c71e a9be ca90 4ebe 0955 fb3e
00000330: 584a 60bd 1e37 2cbe ae8c e13d 8c19 123e
00000340: b10f 193e 557e 373f 38b1 fb3d c0de 303e
00000350: bbf6 923c d82b b3bd 7046 5ebd b8f4 fc3d
00000360: 3d5d a13d 8eb1 093e bfde 8cbe 81fa aa3d
00000370: 2bc3 0a3e af90 fbbe 79d0 aa3d f2ff 4e3e
00000380: e4e5 78be 70ed 3b3e 2fd9 9cbe 6b56 67bd
00000390: 71c5 1e3d 83ca 60bd f96f dabc d623 86bf
000003a0: 4171 5b3e 747f 5c3d 3e0b 44bd c2fa 6abf
000003b0: 94cb f3be c7b9 053e d985 0a3f 7c99 0cbe
000003c0: 5693 09bf 1249 55be 4200 053c c0eb f1be
000003d0: 5625 dc3e e744 1bbf 9d7a c7bd b68e 283e
000003e0: 75be 9d3e 3fe4 5a3d df2c 9f3d a696 d5be
000003f0: 3222 6c3e 9912 46be bbea 0bbf f513 98be

encoder.rnn.bias_ih_l0 f4 [96]
-0.048392136 -0.16517285 0.03320563 -0.10828686 -0.044481095 0.32783625 0.10697153 -0.02499561
-0.20034537 -0.1969816 -0.08319164 -0.30023637 0.12709244 -0.13220589 0.0023828691 0.035847764
-0.006618534 0.10647964 0.042794093 -0.031014066 -0.23172314 0.11333898 0.24186912 0.35174048
-0.22576933 -0.08661597 -0.18341447 0.094851635 0.1461428 -0.059018698 -0.050212365 -0.061104964
0.0065411106 0.16803749 0.41235748 0.2190954 0.20420243 0.33889833 0.3927405 0.28788158
-0.18912542 0.49510846 0.30712453 -0.4061181 -0.42037362 0.2747996 0.21545973 0.37972748
-0.29716074 0.14044385 0.14402926 0.3076338 0.094143786 0.23528843 -0.0021393572 -0.22868444
0.28667378 0.02611106 0.3443517 0.010371378 0.31760922 0.3612667 0.42772484 0.31008738
0.11234957 -0.0009126356 -0.021786114 0.0018880958 0.11022655 0.20792086 -0.10173382 0.05127535
-0.12348533 -0.0012800159 -0.07769853 -0.062766165 -0.042826366 -0.03346862 0.12534054 0.12056261
-0.28458828 0.008446078 -0.1465631 -0.14104848 0.16959451 -0.082545996 0.037749056 -0.05133598
0.18490666 -0.058682486 -0.011782805 0.043438632 0.01845788 0.08816299 0.033602297 0.045416653
00000000: d536 46bd 1223 29be a002 083d 80c5 ddbd
00000010: cf31 36bd 27da a73e e413 db3d 98c3 ccbc
00000020: 5627 4dbe 8bb5 49be 6160 aabd 95b8 99be
00000030: 8524 023e fb60 07be e929 1c3b 1bd5 123d
00000040: 4ae0 d8bb ff11 da3d dc48 2f3d 3611 febc
00000050: d548 6dbe 441e e83d 8aac 773e 5417 b43e
00000060: 1330 67be b763 b1bd 01d1 3bbe 9341 c23d
00000070: 75a6 153e 97bd 71bd 7bab 4dbd 3349 7abd
00000080: d056 d63b 0512 2c3e 8520 d33e 8b5a 603e
00000090: 711a 513e 1584 ad3e 4815 c93e 3765 933e
000000a0: 18aa 41be db7e fd3e 6d3f 9d3e b6ee cfbe
000000b0: 363b d7be 88b2 8c3e 7aa1 5c3e a46b c23e
000000c0: 7425 98be 83d0 0f3e 687c 133e 2d82 9d3e
000000d0: 75ce c03d 73ef 703e 7534 0cbb 412c 6abe
000000e0: e8c6 923e dde6 d53c de4e b03e b6ec 293c
000000f0: ad9d a23e f3f7 b83e c0fe da3e c6c3 9e3e
00000100: 8817 e63d f03d 6fba cb78 b2bc fb79 f73a
00000110: 75be e13d 35e9 543e d259 d0bd 1a06 523d
00000120: e0e5 fcbd 35c6 a7ba 6820 9fbd 8c8b 80bd
00000130: b36a 2fbd 6416 09bd 4559 003e 88e9 f63d
00000140: 8eb5 91be 6b61 0a3c a314 16be 036f 10be
00000150: 2faa 2d3e e00d a9bd c19e 1a3d ad45 52bd
00000160: 2c58 3d3e 0c5d 70bd ab0c 41bc b5ec 313d
00000170: fb34 973c cc8e b43d 90a2 093d d006 3a3d

encoder.rnn.bias_hh_l0 f4 [96]
0.0540873 -0.029454604 0.044162836 0.2178919 -0.029860303 0.13288188 0.06946923 0.056424838
-0.24085699 0.011038062 -0.21312301 -0.30600184 0.05575135 0.086934306 -0.1439403 0.15187271
0.22282624 0.10022643 -0.21794222 -0.08913159 -0.10115252 0.30904835 0.1552177 0.23549767
-0.07306961 -0.10564001 -0.11774992 0.1610176 -0.030340435 -0.055640634 -0.12408398 -0.2552192
0.18417594 0.058500923 0.36853617 0.21513101 0.332517 0.1800947 0.49007422 0.00865453
-0.4055618 0.19581601 0.15398894 -0.34765038 -0.4017432 0.34290254 0.24972405 0.37668312
-0.47481996 0.16430603 0.45853037 0.10067527 -0.14063294 0.43081585 0.049847934 -0.23494005
0.27553397 0.0623718 0.26265946 -0.13866475 0.4412771 0.38922727 0.45228398 0.105309226
0.0655109 0.04242941 -0.16457188 -0.15924479 -0.20661142 0.22876512 0.13335976 -0.26346558
-0.0015617909 0.08033076 0.021531776 -0.03795308 0.06394571 0.27214044 0.06560817 -0.08449861
-0.33781388 -0.11613377 -0.092641406 -0.11705454 0.22831504 -0.2371184 0.018629087 -0.056272704
0.018086765 0.19175537 -0.05471576 -0.00549585 -0.14575982 -0.09187256 -0.18026237 0.107887454
00000000: a58a 5d3d c84a f1bc 17e4 343d 0e1f 5f3e
00000010: 989d f4bc 3012 083e e245 8e3d bb1d 673d
00000020: 37a3 76be fdd8 343c eb3c 5abe 46ac 9cbe
00000030: 875b 643d 9d0a b23d 1665 13be 8584 1b3e
00000040: 902c 643e 8443 cd3d 3f2c 5fbe a08a b6bd
00000050: 0d29 cfbd 963b 9e3e 64f1 1e3e 4d26 713e
00000060: 85a5 95bd ca59 d8bd df26 f1bd cce1 243e
00000070: 818c f8bc 6fe7 63bd be1f febd 17ac 82be
00000080: 9e98 3c3e aa9e 6f3d c6b0 bc3e 4e4b 5c3e
00000090: ab3f aa3e bf6a 383e 02eb fa3e bbcb 0d3c
000000a0: cca5 cfbe fe83 483e 47af 1d3e 3bff b1be
000000b0: 49b1 cdbe ec90 af3e a9b7 7f3e 9cdc c03e
000000c0: 9a1b f3be d73f 283e 7ec4 ea3e d62e ce3d
000000d0: 1502 10be e593 dc3e 592d 4c3d 2094 70be
000000e0: ca12 8d3e 9379 7f3d 4d7b 863e 22fe 0dbe
000000f0: 12ef e13e cc48 c73e c491 e73e 5dac d73d
00000100: 942a 863d 76ca 2d3d 8885 28be 1111 23be
00000110: f291 53be 6741 6a3e 768f 083e f6e4 86be
00000120: 02b5 ccba 7484 a43d 6863 b03c b074 1bbd
00000130: f8f5 823d fe55 8b3e 945d 863d 9b0d adbd
00000140: f1f5 acbe 8bd7 edbd c7ba bdbd 4aba efbd
00000150: 6bcb 693e 2acf 72be 079c 983c 357e 66bd
00000160: b22a 943c 855b 443e a21d 60bd 8816 b4bb
00000170: 1042 15be ae27 bcbd b396 38be 19f4 dc3d

encoder.rnn.weight_ih_l0_reverse f4 [96, 16]
-0.17790559 0.1653993 -0.06794259 0.08879447 0.13061124 0.19458768 0.074479215 -0.00911796
-0.18285638 0.18447943 -0.09833205 0.048004594 -0.16779733 -0.06284289 0.2292121 -0.6788244
0.0389907 -0.14178136 -0.09218009 0.096557885 -0.23757236 0.22985685 0.09250235 -0.05062691
-0.24651714 -0.0013840038 0.05808638 -0.26004893 -0.19339834 -0.10338328 -0.06244897 -0.4326579
-0.097210936 -0.21665877 -0.16458564 -0.1863083 0.06529052 0.04788133 -0.2694157 -0.2794663
0.038789224 -0.18166323 -0.013089358 -0.23575546 -0.08344356 0.02803369 -0.2592419 0.19013384
-0.27462813 -0.15560253 -0.2629128 0.10708063 0.046098795 -0.048752733 -0.007320648 0.044535145
-0.070333906 -0.30005518 -0.49636072 0.021913944 -0.08533664 -0.01513958 -0.032631826 -0.17276986
0.28376263 0.26049706 -0.008912348 0.14941052 -0.1627159 0.3899553 0.2842793 0.00024266446
0.22705731 0.05681996 -0.16342013 -0.015290261 0.18380798 0.18278746 0.111635275 -0.04391045
-0.1480862 -0.30091614 -0.049221825 -0.33255708 -0.4081211 -0.16679002 -0.2726346 -0.056423698
-0.12659018 -0.254377 -0.14008845 -0.15264294 -0.2388756 -0.053600345 0.023259247 -0.41326937
0.03207667 -0.010900544 0.10231771 -0.05278792 -0.38094467 -0.43022686 -0.16956897 0.06832442
-0.10827318 -0.22598673 0.105261095 -0.2755584 -0.1659177 -0.31218398 -0.009093481 0.3297394
0.11430127 -0.40137926 -0.30675042 -0.16620739 -0.17385195 -0.49065566 -0.22451855 0.026483497
-0.23748055 -0.37911305 -0.117892124 -0.06489292 -0.18688613 -0.31233296 0.042106513 0.7632872
0.011236704 -0.38078767 -0.08230297 -0.28251663 -0.1663714 0.122192234 -0.35616988 -0.30175403
-0.008638857 -0.049589176 -0.16561091 -0.21827757 -0.1880064 -0.0040655243 -0.07867283 -0.0492727
0.10825709 -0.14722268 0.21470554 -0.054117233 0.02262941 -0.16616695 -0.006395292 -0.07592568
0.027537478 -0.010317992 -1.0841466 0.071847364 0.18710077 0.015209651 0.10364979 -0.7503611
-0.1513252 -0.14494692 0.039847903 0.04767543 0.09142614 -0.17092961 -0.2851992 -0.16544159
-0.18268727 -0.28792363 -0.186512 0.0024216883 -0.07532198 -0.22452238 -0.21490389 0.1473708
-0.010868201 -0.17135267 -0.11506502 0.26172632 -0.11520561 0.00055949186 -0.3096862 -0.5673257
-0.37231556 -0.21746226 -0.01656222 -0.36771238 -0.05301237 -0.1306661 -0.23695965 -0.012954672
0.26619437 0.16180138 0.23941788 0.30832124 -0.11275475 -0.07738564 0.020472279 0.69641936
0.29476553 -0.0154058775 0.1352883 0.1318953 0.32428324 0.25303373 0.1650412 0.33604744
-0.14235863 -0.25747535 0.018615322 -0.23011023 -0.07848625 0.07556207 -0.12850648 0.043166257
0.0155506255 -0.13808668 0.05664246 -0.086881734 0.09582586 0.06205861 -0.2165149 -0.4273587
0.20521456 0.17587021 0.14649305 0.10432369 -0.13394926 0.13260324 -0.07585531 0.1997734
0.14272256 -0.075602 -0.24827212 0.14235061 -0.16443671 0.23016098 -0.15383823 0.15227455
0.050922103 0.33180225 0.06889016 0.24550262 0.19608852 0.24958426 0.29266343 0.2994214
0.24098904 0.08709307 0.12881666 0.1484585 0.23656969 0.012030531 -0.14075525 -0.083030276
00000000: e22c 36be 6f5e 293e 7c25 8bbd e0d9 b53d
00000010: f4be 053e fe41 473e 8f88 983d 7f63 15bc
00000020: b43e 3bbe 2de8 3c3e 5062 c9bd 77a0 443d
00000030: 10d3 2bbe c6b3 80bd 94b6 6a3e 70c7 2dbf
00000040: b6b4 1f3d 222f 11be eac8 bcbd 24c0 c53d
00000050: 2b46 73be 985f 6b3e df71 bd3d 2a5e 4fbd
00000060: fd6e 7cbe 7667 b5ba fceb 6d3d 2225 85be
00000070: 370a 46be 9dba d3bd 7eca 7fbd 5685 ddbe
00000080: 8716 c7bd ccdb 5dbe 2389 28be 9ac7 3ebe
00000090: 09b7 853d 371f 443d dbf0 89be 3516 8fbe
000000a0: 73e1 1e3d ed05 3abe bf74 56bc e169 71be
000000b0: 75e4 aabd e9a6 e53c 5bbb 84be 72b2 423e
000000c0: 0f9c 8cbe 4556 1fbe 829c 86be 174d db3d
000000d0: 17d2 3c3d f2b0 47bd 0ce2 efbb 7c6a 363d
000000e0: 390b 90bd d5a0 99be fe22 febe df84 b33c
000000f0: fac4 aebd 000c 78bc f3a8 05bd 95ea 30be
00000100: 5649 913e df5f 853e 1905 12bc 12ff 183e
00000110: ff9e 26be 39a8 c73e 0e8d 913e bf73 7e39
00000120: b681 683e 0cbc 683d 9b57 27be 0184 7abc
00000130: 2938 3c3e a32c 3b3e 09a1 e43d 72db 33bd
00000140: e9a3 17be ae11 9abe d39c 49bd ec44 aabe
00000150: 40f5 d0be 01cb 2abe c396 8bbe 891c 67bd
00000160: dba0 01be b43d 82be 5973 0fbe 6e4e 1cbe
00000170: ce9b 74be 098c 5bbd 2d8a be3c 0b98 d3be
00000180: d462 033d 3298 32bc f38b d13d 2538 58bd
00000190: 2e0b c3be b246 dcbe 7da3 2dbe aced 8b3d
000001a0: 54be ddbd 1169 67be 2193 d73d fe15 8dbe
000001b0: 54e6 29be 94d6 9fbe d3fc 14bc 9ad3 a83e
000001c0: c916 ea3d 9581 cdbe 640e 9dbe 4532 2abe
000001d0: 3f06 32be 3837 fbbe 31e8 65be ebf3 d83c
000001e0: 1a2e 73be 1b1b c2be 6d71 f1bd 94e6 84bd
000001f0: 145f 3fbe 1bea 9fbe e177 2c3d ca66 433f
00000200: 271a 383c 9af6 c2be 768e a8bd 05a6 90be
00000210: 445d 2abe ec3f fa3d e65b b6be 817f 9abe
00000220: fe89 0dbc 051e 4bbd e895 29be 2884 5fbe
00000230: c084 40be 1738 85bb 381f a1bd 2cd2 49bd
00000240: e5b5 dd3d 8bc1 16be c5db 5b3e 08aa 5dbd
00000250: 5061 b93c ab27 2abe 998f d1bb ec7e 9bbd
00000260: 4796 e13c cc0c 29bc 51c5 8abf b624 933d
00000270: 5897 3f3e e631 793c 5746 d43d aa17 40bf
00000280: fef4 1abe f76c 14be 8e37 233d 5047 433d
00000290: a13d bb3d 2c08 2fbe a105 92be 8569 29be
000002a0: 5f12 3bbe ba6a 93be 00fd 3ebe 30b5 1e3b
000002b0: 6942 9abd 32e9 65be c40f 5cbe 5fe8 163e
000002c0: 8a10 32bc 1377 2fbe 36a7 ebbd fe00 863e
000002d0: ebf0 ebbd ddaa 123a 318f 9ebe 423c 11bf
000002e0: 25a0 bebe 6dae 5ebe 7ead 87bc cc44 bcbe
000002f0: 8023 59bd 56cd 05be 8da5 72be d53f 54bc
00000300: a14a 883e 43af 253e f629 753e 48dc 9d3e
00000310: f6eb e6bd 5d7c 9ebd 7bb5 a73c 8a48 323f
00000320: 82eb 963e ef68 7cbc 0489 0a3e 900f 073e
00000330: 7408 a63e a38d 813e 8f00 293e 690e ac3e
00000340: 76c6 11be cfd3 83be 297f 983c 04a2 6bbe
00000350: 66bd a0bd 49c0 9a3d 3497 03be 1acf 303d
00000360: 0dc8 7e3c 9866 0dbe ed01 683d 0def b1bd
00000370: 5940 c43d 2b31 7e3d 15b6 5dbe c2ce dabe
00000380: c423 523e 5217 343e 4602 163e a9a7 d53d
00000390: ff29 09be 25c9 073e 075a 9bbd 6691 4c3e
000003a0: dd25 123e 39d5 9abd 0c3b 7ebe 5cc4 113e
000003b0: 1962 28be 52af 6b3e c587 1dbe dced 1b3e
000003c0: b293 503d fce1 a93e 4916 8d3d 0a65 7b3e
000003d0: 6ecb 483e 0493 7f3e fbd7 953e c34d 993e
000003e0: d5c5 763e da5d b23d 84e8 033e 8105 183e
000003f0: 533f 723e b41b 453c 2522 10be c70b aabd

encoder.rnn.weight_hh_l0_reverse f4 [96, 32]
0.50169 -0.006728299 -0.1801159 0.13975507 0.08458572 0.11259019 0.0037130404 0.059689492
0.039698523 -0.2430759 -0.12531441 0.26261532 -0.14892048 -0.032820497 0.05733935 -0.05577904
0.260759 -0.24400742 0.093299344 -0.020586401 -0.08752029 -0.14844142 -0.14830588 -0.113596454
-0.03919925 0.45414007 0.21072584 -0.16503018 0.34624007 0.06404858 0.12238532 -0.047704495
0.13976352 0.1791135 -0.5986717 -0.18648799 -0.10949447 -0.21792142 0.12798296 0.16735238
-0.40790114 -0.0013177672 -0.05450226 0.6638503 0.19435968 -0.079902574 0.67406183 -0.20601296
0.0671242 0.042080443 0.15341918 0.2149941 0.013637961 -0.014900979 -0.1938896 0.12395106
-0.16881904 0.017214593 -0.08306265 0.11270386 0.11333833 -0.033845037 -0.2562957 -0.0604375
-0.18599969 -0.27663466 0.17565706 -0.23567837 -0.1140303 -0.013265757 0.049644116 0.080888584
-0.030429834 -0.0017609887 0.13843083 -0.23892376 0.20134355 -0.12034127 -0.10910309 -0.30456
-0.0357948 -0.10894698 0.04530404 0.24890074 -0.24080276 0.08969953 0.0960427 0.07326612
0.2636295 -0.69137824 -0.34908146 -0.05293863 -0.003078605 0.010500227 -0.30115876 0.119450025
-0.5967676 -0.12807068 0.052777555 0.34154585 0.037661903 -0.31085378 0.23104206 -0.085623205
-0.14724034 0.33089852 0.0651122 -0.019259678 0.04482607 -0.28243822 0.052678645 -0.31367776
-0.22320868 0.05427414 0.029782161 0.20623389 0.35916 0.11628904 0.03222554 0.15368582
0.583672 -0.044952095 -0.15962179 0.13734587 0.003226563 0.100194454 -0.07615897 -0.12326018
0.029561222 0.092278674 0.22207333 0.030458944 -0.037291117 -0.017326314 0.25891608 0.1401946
0.11758632 0.39910582 0.051833436 -0.104566395 -0.005557605 -0.13378215 -0.17556083 -0.07760468
-0.13172545 0.38468328 0.15375416 -0.21865837 0.24896808 0.16260044 -0.21161081 -0.0373787
0.21364681 -0.36965963 0.091095075 0.027443836 -0.7205643 0.22626634 0.01825986 0.20881042
0.15445957 -0.18399508 0.018032521 -0.07776805 -0.22564743 0.09324247 0.09804738 0.08521214
-0.2171175 -0.109540105 -0.02715407 0.38208488 0.077655055 -0.14686608 0.083301805 0.027369028
-0.08662334 -0.24755578 0.2898702 0.06541283 -0.16242342 0.050171174 -0.083651446 0.250953
0.031805575 0.078239776 0.22969948 0.09620688 0.06603516 0.21854413 -0.08601601 -0.007229369
0.045777805 -0.14670938 0.24190152 -0.16424459 -0.13309366 -0.039611313 -0.02113386 0.11563302
0.09230356 0.123365216 -0.015608538 -0.07049105 0.1971881 0.010741706 -0.14239341 -0.1805829
-0.1405152 -0.017980512 -0.0101384055 0.14232633 -0.24501386 -0.102438435 0.08616187 0.16927393
0.061821043 0.13282992 -0.12701038 0.03142522 0.087755665 -0.07472195 0.0044930377 -0.10524619
-0.45992506 -0.14451191 0.57197756 -0.31580684 0.0010514009 -0.039209355 0.35699114 0.20792165
-0.118412785 0.14183882 -0.030354057 -0.21044128 0.01739989 -0.1120506 -0.09293054 0.12029071
-0.14668377 0.33166304 0.030731987 -0.054826275 -0.22056538 0.28271392 0.23413873 0.12020253
-0.049746104 0.5625001 -0.020324824 0.0021740068 -0.053085856 0.02169967 -0.11609364 0.08207011
00000000: c16e 003f 1079 dcbb 4d70 38be f41b 0f3e
00000010: 473b ad3d af95 e63d 7b56 733b f87c 743d
00000020: eb9a 223d e4e8 78be 6c52 00be 8475 863e
00000030: 9c7e 18be c96e 06bd abdc 6a3d 9078 64bd
00000040: 3482 853e 15dd 79be ba13 bf3d d0a4 a8bc
00000050: d63d b3bd 0701 18be 7fdd 17be 42a5 e8bd
00000060: 658f 20bd 0c85 e83e 84c8 573e acfd 28be
00000070: 6146 b13e e72b 833d 28a5 fa3d ca65 43bd
00000080: 2b1e 0f3e 8869 373e 8c42 19bf b5f6 3ebe
00000090: a33e e0bd cb26 5fbe f70d 033e 6c5e 2b3e
000000a0: 6bd8 d0be eeb8 acba c33d 5fbd 18f2 293f
000000b0: 3906 473e f6a3 a3bd 518f 2c3f 10f5 52be
000000c0: 6a78 893d 8b5c 2c3d eb19 1d3e 6a27 5c3e
000000d0: c171 5f3c 3c23 74bc ff8a 46be 0eda fd3d
000000e0: e6de 2cbe 9e05 8d3c c01c aabd 48d1 e63d
000000f0: ed1d e83d 18a1 0abd 3139 83be 508d 77bd
00000100: b476 3ebe 0fa3 8dbe 72df 333e ac55 71be
00000110: b888 e9bd 9e58 59bc a157 4b3d eaa8 a53d
00000120: fd47 f9bc fad0 e6ba d0c0 0d3e 6ea8 74be
00000130: 012d 4e3e 7c75 f6bd 7171 dfbd 4aef 9bbe
00000140: 919d 12bd 981f dfbd bb90 393d d6df 7e3e
00000150: 0095 76be 63b4 b73d 09b2 c43d 8c0c 963d
00000160: 72fa 863e 2afe 30bf ceba b2be 2dd6 58bd
00000170: 6cc2 49bb 2509 2c3c 7b31 9abe 37a2 f43d
00000180: c3c5 18bf f624 03be 472d 583d 19df ae3e
00000190: 5e43 1a3d 3a28 9fbe 4a96 6c3e 385b afbd
000001a0: 2cc6 16be 886b a93e 8c59 853d 79c6 9dbc
000001b0: 8b9b 373d be9b 90be 90c5 573d 5f9a a0be
000001c0: d190 64be 904e 5e3d b8f9 f33c fa2e 533e
000001d0: d2e3 b73e f328 ee3d eefe 033d d15f 1d3e
000001e0: 876b 153f b01f 38bd e573 23be 65a4 0c3e
000001f0: bf74 533b c032 cd3d 3cf9 9bbd d56f fcbd
00000200: 602a f23c 9afc bc3d 3167 633e 0985 f93c
00000210: 92be 18bd eaef 8dbc a690 843e 2c8f 0f3e
00000220: 19d1 f03d 9957 cc3e 4c4f 543d e826 d6bd
00000230: 921c b6bb 30fe 08be 38c6 33be 34ef 9ebd
00000240: 09e3 06be 35f5 c43e bb71 1d3e fbe7 5fbe
00000250: 7df1 7e3e bb80 263e 81b0 58be 681a 19bd
00000260: 3bc6 5a3e 0744 bdbe 0e90 ba3d e5d1 e03c
00000270: e776 38bf 5db2 673e b495 953c 66d2 553e
00000280: a62a 1e3e 3569 3cbe f0b8 933c db44 9fbd
00000290: 1f10 67be e8f5 be3d 11cd c83d b483 ae3d
000002a0: 0d54 5ebe 9056 e0bd 3672 debc a1a0 c33e
000002b0: 9d09 9f3d 1064 16be 239a aa3d 0335 e03c
000002c0: 9467 b1bd 437f 7dbe de69 943e 29f7 853d
000002d0: 5352 26be 4a80 4d3d 7351 abbd e97c 803e
000002e0: 9046 023d 2d3c a03d 5736 6b3e 1d08 c53d
000002f0: 713d 873d 08ca 5f3e 2929 b0bd 58e4 ecbb
00000300: 8281 3b3d fc3a 16be 08b5 773e bc2f 28be
00000310: b449 08be 793f 22bd eb20 adbc 01d1 ec3d
00000320: a609 bd3d e7a6 fc3d f4ba 7fbc 9d5d 90bd
00000330: adeb 493e fbfd 2f3c 94cf 11be b9ea 38be
00000340: 37e3 0fbe de4b 93bc 8e1b 26bc febd 113e
00000350: eae4 7abe 3ecb d1bd a275 b03d 2556 2d3e
00000360: 1038 7d3d 9104 083e 020f 02be bbb7 003d
00000370: 3eb9 b33d d207 99bd 553a 933b 518b d7bd
00000380: 4c7b ebbe eefa 13be 1f6d 123f 6fb1 a1be
00000390: 29cf 893a fd99 20bd 8bc7 b63e 6ae9 543e
000003a0: 6782 f2bd 323e 113e 12a9 f8bc eb7d 57be
000003b0: 378a 8e3c c97a e5bd 5e52 bebd fa5a f63d
000003c0: 4534 16be bdcf a93e a6c1 fb3c 8491 60bd
000003d0: e4db 61be e1bf 903e 10c2 6f3e be2c f63d
000003e0: 92c2 4bbd 0200 103f 3f80 a6bc c879 0e3b
000003f0: 8e70 59bd 82c3 b13c 81c2 edbd 6014 a83d

encoder.rnn.bias_ih_l0_reverse f4 [96]
-0.07489702 0.052909326 -0.34537762 -0.21812814 0.21489997 -0.23147984 -0.23651388 -0.18343264
0.0143014705 -0.034577597 -0.2412607 -0.09412197 0.032569937 -0.2325924 -0.08119675 0.2720936
-0.08553241 0.28228405 -0.053757433 -0.06459293 0.04074937 -0.20410351 -0.19464792 -0.06564427
8.084126e-05 -0.1340493 0.04491354 -0.056395214 0.11151219 -0.13853784 0.21252263 -0.17102529
0.12125653 5.006067e-05 -0.10568482 0.011474445 -0.025429357 -0.007068629 0.038547188 0.21407361
-0.1799357 0.113595136 -0.033898164 -0.12517236 -0.088168904 -0.080887645 -0.16659825 -0.054942377
-0.14123145 -0.025395252 0.21603526 0.099998966 0.28535324 0.079979 0.058595598 0.09575011
-0.15729386 -0.2196261 0.024517354 0.101478405 -0.091042794 0.35235846 0.17777753 0.074600235
-0.10068153 0.20246121 -0.06788703 0.0090176575 0.20687222 0.06264726 -0.16667752 -0.16074605
0.18308392 -0.2354403 -0.049203254 0.19205223 -0.1665514 0.21005991 -0.004471086 0.17338663
0.073152386 -0.104274064 0.057876114 -0.17390376 0.07698326 -0.17220491 0.18401983 0.0892863
0.04162205 0.18171012 0.010734565 0.08644791 0.030104028 -0.12699656 0.0969242 0.046545867
00000000: 9c63 99bd 73b7 583d 56d5 b0be fc5c 5fbe
00000010: bd0e 5c3e 0d09 6dbe b230 72be c4d5 3bbe
00000020: b750 6a3c 3da1 0dbd 0c0d 77be 05c3 c0bd
00000030: 0e68 053d b42c 6ebe 7b4a a6bd da4f 8b3e
00000040: 9e2b afbd 8987 903e c130 5cbd 4c49 84bd
00000050: d0e8 263d 8300 51be c951 47be 8170 86bd
00000060: 5289 a938 3844 09be 43f7 373d abfe 66bd
00000070: 8160 e43d dddc 0dbe 889f 593e 4121 2fbe
00000080: 5855 f83d 3cf8 5138 4871 d8bd 50ff 3b3c
00000090: 3a51 d0bc f59f e7bb a8e3 1d3d 1d36 5b3e
000000a0: 1041 38be 91a4 e83d cdd8 0abd 2f2d 00be
000000b0: e691 b4bd 6ca8 a5bd bb98 2abe 420b 61bd
000000c0: fa9e 10be b409 d0bc 5938 5d3e 42cc cc3d
000000d0: d219 923e 08cc a33d f001 703d a218 c43d
000000e0: a411 21be aae5 60be 9ed8 c83c e9d3 cf3d
000000f0: a574 babd 5468 b43e 500b 363e 02c8 983d
00000100: 1e32 cebd fe51 4f3e 5b08 8bbd ccbe 133c
00000110: 50d6 533e 354d 803d 83ad 2abe 9d9a 24be
00000120: 5a7a 3b3e 4317 71be 5a89 49bd 57a9 443e
00000130: 738c 2abe f219 573e 3082 92bb 448c 313e
00000140: ebd0 953d a48d d5bd 810f 6d3d d413 32be
00000150: 66a9 9d3d 7c56 30be b26f 3c3e bcdb b63d
00000160: e27b 2a3d 3812 3a3e 07e0 2f3c 9a0b b13d
00000170: b99c f63c 630b 02be 3280 c63d e1a6 3e3d

encoder.rnn.bias_hh_l0_reverse f4 [96]
0.16301797 0.0018065575 -0.27619836 -0.046238884 0.05712052 -0.011077929 -0.023427794 0.09657242
-0.14398776 -0.14386572 -0.20569487 0.09097824 0.2770668 -0.060762223 -0.12084737 0.2673729
-0.08350805 0.039510738 -0.016954571 0.17969693 -0.003861103 -0.072024934 -0.016425217 0.023146559
0.08503398 -0.06960319 0.07274015 -0.21012895 0.14711194 0.020453166 0.2934601 -0.18856174
0.30047935 0.18070363 0.055818893 0.26885736 0.15187082 -0.050491914 0.075731024 0.052615356
-0.22568908 -0.16309619 0.16848023 -0.16066281 -0.047070682 -0.032826744 0.120818116 0.13507721
-0.09659187 0.12777711 0.15987837 0.039308075 0.25891542 -0.10903045 0.23057461 0.20761178
-0.12041672 -0.11117701 0.07011736 0.19211271 -0.089797296 0.38798967 0.20903967 -0.083517365
0.14939915 0.20377207 0.01858779 -0.12805708 -0.052623954 0.005150635 0.04330612 0.0551239
-0.0785138 -0.1441182 0.0015140566 0.0804159 -0.09151507 -0.11157732 -0.16244957 0.24671535
0.036089867 -0.12774503 -0.16169938 -0.089090005 0.001478468 -0.092693835 -0.14614092 -0.040499065
0.018049464 0.1103679 0.05570142 -0.034577895 0.04236564 0.046328478 0.051008098 0.009391351
00000000: 2fee 263e 03ca ec3a df69 8dbe fc64 3dbd
00000010: 35f7 693d 3480 35bc a5eb bfbc c3c7 c53d
00000020: 8771 13be 8951 13be ada1 52be cd52 ba3d
00000030: b3db 8d3e cfe1 78bd d37e f7bd 1ae5 883e
00000040: 4506 abbd 03d6 213d 50e4 8abc 7902 383e
00000050: 8f0a 7dbb cf81 93bd 2d8e 86bc da9d bd3c
00000060: 4c26 ae3d 1e8c 8ebd caf8 943d 0b2c 57be
00000070: 83a4 163e 668d a73c 6740 963e 5416 41be
00000080: 6ed8 993e 5f0a 393e 5aa2 643d aca7 893e
00000090: 0684 1b3e 9cd0 4ebd de18 9b3d 3383 573d
000000a0: 0a1b 67be b002 27be 1586 2c3e cb84 24be
000000b0: 30cd 40bd 5675 06bd 7d6f f73d ae51 0a3e
000000c0: f5d1 c5bd 01d8 023e 28b7 233e 8101 213d
000000d0: 9090 843e 5b4b dfbd c01b 6c3e 2f98 543e
000000e0: 0b9d f6bd c6b0 e3bd b199 8f3d 32b9 443e
000000f0: a5e7 b7bd 95a6 c63e 7f0e 563e 270b abbd
00000100: 17fc 183e a0a9 503e 6c45 983c 6521 03be
00000110: 378c 57bd a8c6 a83b c261 313d 99c9 613d
00000120: d8cb a0bd b993 13be 4f73 c63a 17b1 a43d
00000130: 416c bbbd a682 e4bd 2e59 26be f3a2 7c3e
00000140: f8d2 133d 98cf 02be 8694 25be d274 b6bd
00000150: 27c9 c13a 44d6 bdbd f7a5 15be 59e2 25bd
00000160: 78dc 933c 9108 e23d 2c27 643d 8da1 0dbd
00000170: 9887 2d3d eec2 3d3d deed 503d 2ede 193c

encoder.rnn.weight_ih_l1 f4 [96, 64]
-0.40753064 -0.26681975 -0.038552 0.35579702 0.9359447 -0.38374195 0.03145332 0.110808425
0.24631229 0.060870618 0.38855463 0.24657595 0.0921605 -0.6571232 0.020897208 0.13361765
-0.7792549 0.8911606 0.220346 0.23999254 0.049279545 0.6241492 -0.13544844 0.12397868
-0.0024553563 -0.39854515 0.057804175 -0.20537761 0.0602712 -1.2390479 -0.046136227 0.028787693
0.10468071 0.0213366 -0.035656665 -0.10625794 -0.2774422 -0.8069364 -0.17558101 0.11724676
0.9709246 -0.17227307 0.43067536 0.39354634 0.19846334 0.11204965 0.13871276 -0.4125104
-0.4749444 -0.1671168 0.3479732 0.31971627 0.04273882 -0.011964785 0.082665876 0.5120153
0.1371397 -0.03031284 0.34290123 0.115246676 -0.8727746 0.20449297 0.288924 -0.34541923
-0.18737973 0.10699529 0.36217213 0.03474872 0.004966157 0.053745393 0.07395118 -0.5252827
0.09212397 -0.23967531 0.18396203 0.530349 0.117790684 -0.15550129 -0.118230484 -0.000941097
0.19179241 0.27996337 -0.03941098 0.0065850546 -0.19209202 -0.37908465 -0.2340868 -0.08911346
0.14933677 -0.050868683 -0.1410707 -0.047692556 0.51057017 -0.054913104 -0.15621856 0.13861926
-0.07542515 -0.04546426 0.1712113 -0.0935218 -0.15148813 0.05092184 0.16052201 -0.060197864
0.05193397 0.31911275 0.05927318 -0.088100135 0.12034012 -0.023697274 0.03666152 -0.20365806
-0.21683945 0.10432472 -0.042955935 0.17714313 0.09655227 0.29855996 -0.2584063 0.07640825
-0.17302781 -0.605006 -0.023574566 0.15365393 -0.016871508 -0.10103259 -0.017115194 0.21399426
-0.16124283 0.33054063 0.055024516 -0.059786055 0.059439003 -0.12826928 -0.2616243 -0.3676892
0.46230173 -0.13029322 0.059090782 -0.14594816 0.32248038 -0.15097123 0.20992725 -0.24514002
0.04193056 0.4233252 0.24720877 0.2702726 0.16025433 -0.038730122 0.034364067 0.19817679
0.28701013 -0.23538892 -0.43086126 0.07448105 0.4142934 -0.43205306 0.18533632 -0.012182856
-0.15303703 -0.14932574 -0.16308421 0.10232076 -0.22930354 -0.029761754 -0.0043493966 0.09484935
0.4056435 0.065185145 -0.0981716 -0.18247996 0.12868455 -0.47478136 -0.1728548 -0.04722419
-0.1991646 -0.028836824 0.1349491 0.010960598 0.20760463 0.3904865 -0.24145 0.103051096
-0.038955722 -0.29908198 -0.12141252 -0.0041916254 -0.15359586 0.056117915 0.08151507 -0.041859537
0.18379036 -0.05829507 -0.32169792 -0.21587579 0.10684755 -0.14147167 -0.2807876 -0.1259858
0.15598623 0.13726206 0.1323342 0.30773392 0.36984742 -0.12999554 0.21029897 -0.0036223358
-0.19035865 0.15621915 0.024839161 0.16661982 -0.1022896 0.29647887 0.052947555 0.19136341
0.4149153 -0.19900519 -0.035106745 0.05330776 0.4026367 -0.12387862 0.31440982 0.13933648
0.094160505 -0.033378568 -0.15635829 0.10201064 -0.020398628 -0.53495383 0.22567427 -0.013689471
0.033540785 0.20611848 -0.06339974 0.03966754 0.013228714 -0.18142158 0.14012766 0.10146779
-0.098533645 0.2712192 0.24293223 -0.030957332 0.2193515 0.06369618 -0.054509234 0.3197641
-0.04728071 0.07407622 -0.08191321 0.41785216 -0.5009095 0.06398781 -0.11165489 -0.030658087
00000000: dba7 d0be 999c 88be b4e8 1dbd 072b b63e
00000010: 129a 6f3f d379 c4be 32d5 003d 87ef e23d
00000020: 4a39 7c3e 7853 793d a2f0 c63e 687e 7c3e
00000030: a5be bc3d 3a39 28bf 9f30 ab3c 11d3 083e
00000040: 407d 47bf 1a23 643f 62a2 613e 9bc0 753e
00000050: 59d9 493d 3ec8 1f3f ffb2 0abe 89e8 fd3d
00000060: 0bea 20bb 1c0e ccbe 12c4 6c3d 824e 52be
00000070: efde 763d 1f99 9ebf 57f9 3cbd 2bd4 eb3c
00000080: d762 d63d 18ca ae3c b90c 12bd c39d d9bd
00000090: e70c 8ebe 6293 4ebf 82cb 33be 121f f03d
000000a0: 848e 783f 5a68 30be 7b81 dc3e e87e c93e
000000b0: f939 4b3e 497a e53d b80a 0e3e 9034 d3be
000000c0: ea2b f3be ab20 2bbe 8b29 b23e dab1 a33e
000000d0: e70e 2f3d f207 44bc ba4c a93d 6f13 033f
000000e0: 596e 0c3e a252 f8bc c090 af3e 7306 ec3d
000000f0: 286e 5fbf 9b66 513e d9ed 933e cada b0be
00000100: 79e0 3fbe 5920 db3d a06e b93e ac54 0e3d
00000110: 25bb a23b 2124 5c3d b773 973d ed78 06bf
00000120: 7eab bc3d 726d 75be 8b60 3c3e f4c4 073f
00000130: 3e3c f13d bb3b 1fbe d322 f2bd f3b3 76ba
00000140: 3b65 443e 5c57 8f3e 686d 21bd 71c7 d73b
00000150: c5b3 44be 6217 c2be 73b4 6fbe 1e81 b6bd
00000160: bdeb 183e ae5b 50bd d674 10be 4559 43bd
00000170: bab4 023f 90ec 60bd c2f7 1fbe 35f2 0d3e
00000180: 8078 9abd bb38 3abd 0452 2f3e 5c88 bfbd
00000190: b41f 1bbe 6b93 503d e25f 243e 0992 76bd
000001a0: b7b8 543d bf62 a33e 6fc8 723d d86d b4bd
000001b0: e174 f63d c920 c2bc 642a 163d bd8b 50be
000001c0: 290b 5ebe 33a8 d53d 90f2 2fbd 0265 353e
000001d0: 32bd c53d dadc 983e d54d 84be ee7b 9c3d
000001e0: 342e 31be ace1 1abf 731f c1bc 7557 1d3e
000001f0: 1e36 8abc 2dea cebd 2a35 8cbc 5021 5b3e
00000200: d71c 25be 9f3c a93e 6361 613d 39e2 74bd
00000210: 5076 733d 0659 03be 9ff3 85be c241 bcbe
00000220: d0b2 ec3e 966b 05be 2d09 723d 6f73 15be
00000230: 261c a53e 3498 1abe 2bf7 563e fc05 7bbe
00000240: 61bf 2b3d 15be d83e 4c24 7d3e 2c61 8a3e
00000250: b619 243e 7aa3 1ebd 56c1 0c3d dbee 4a3e
00000260: fef2 923e cb09 71be d999 dcbe 8589 983d
00000270: 441e d43e 0f36 ddbe cec8 3d3e 9a9a 47bc
00000280: bdb5 1cbe d9e8 18be 8cff 26be 8c8d d13d
00000290: 8cce 6abe ecce f3bc 6285 8ebb 6040 c23d
000002a0: 81b0 cf3e ca7f 853d 310e c9bd 07dc 3abe
000002b0: e2c5 033e 8b16 f3be d900 31be 276e 41bd
000002c0: cef1 4bbe 343b ecbc 1930 0a3e 1494 333c
000002d0: 4f96 543e d9ed c73e ab3e 77be 740c d33d
000002e0: 0990 1fbd 4621 99be 21a7 f8bd e759 89bb
000002f0: 3c48 1dbe e6db 653d 5ff1 a63d e874 2bbd
00000300: 8a33 3c3e d0c6 6ebd 97b5 a4be 8b0e 5dbe
00000310: e3d2 da3d f3dd 10be 64c3 8fbe 6c02 01be
00000320: dbba 1f3e 6d8e 0c3e 9e82 073e 4d8f 9d3e
00000330: a45c bd3e 8d1d 05be 9d58 573e b664 6dbb
00000340: 61ed 42be eaf7 1f3e 7f7b cb3c 639e 2a3e
00000350: 367d d1bd 14cc 973e 89df 583d c5f4 433e
00000360: c76f d43e 04c8 4bbe 17cc 0fbd 3d59 5a3d
00000370: 6626 ce3e 13b4 fdbd 53fa a03e 39ae 0e3e
00000380: 39d7 c03d f7b7 08bd 631c 20be f4ea d03d
00000390: 061b a7bc bcf2 08bf 2817 673e ce49 60bc
000003a0: 1062 093d b910 533e b9d7 81bd 6e7a 223d
000003b0: 3fbd 583c 94c6 39be a07d 0f3e 58ce cf3d
000003c0: 02cc c9bd 3edd 8a3e 3ac3 783e 3b9a fdbc
000003d0: ae9d 603e 2573 823d 1345 5fbd 1fb8 a33e
000003e0: 6ba9 41bd 46b5 973d 1dc2 a7bd b8f0 d53e
000003f0: 9b3b 00bf 0a0c 833d 52ab e4bd ab26 fbbc

encoder.rnn.weight_hh_l1 f4 [96, 32]
-0.30111256 -0.21542688 0.27972856 0.060422983 -0.29907688 -0.6828682 -0.07070639 0.11811749
-0.22151574 -0.5747295 0.16997664 0.04633905 0.3047221 -0.022094907 -0.29284635 -0.30280286
-0.26490447 0.21350893 0.236057 -0.19430755 -0.19489338 0.2621145 -0.21635604 -0.09493611
-0.3158654 -0.54950166 -0.3558938 -0.45311964 0.08071746 -0.3273017 -0.05676744 0.21552886
-0.36377886 -0.17243536 0.010320502 0.07690678 -0.051193032 0.050963312 -0.016275749 -0.1407146
-0.15794379 -0.08302716 -0.19214652 -0.010213372 -0.13887455 0.23778203 0.20029746 0.27108353
-0.02180362 -0.116029665 -0.029799566 -0.14420016 0.15155044 -0.046616916 0.26050904 -0.013909671
0.008084825 -0.39341876 0.0403091 -0.29627866 0.21805148 -0.1662783 -0.08833872 -0.14177461
-0.081827655 -0.11683271 0.30271173 -0.10421144 -0.16431172 0.112050794 -0.03173617 -0.10867079
-0.293704 -0.23281282 -0.3816893 0.1029496 -0.2664931 0.09850779 0.29595536 -0.08190459
-0.29056802 0.020995772 0.06516466 -0.2199285 -0.13928276 0.4041639 0.019493181 0.20170353
-0.44454804 -0.39493442 -0.30443394 -0.32592058 0.027505398 -0.026184238 -0.32072878 -0.12586047
0.16595468 0.17406051 0.010231746 0.78985566 0.07239516 -0.27903104 -0.32803628 0.14048651
0.06679039 -0.17937209 -0.11348768 0.26972777 0.20915775 -0.08623064 -0.466679 0.8158239
-0.003766752 0.029798456 0.23059304 0.14496998 0.0719113 0.030777985 0.09071136 0.22042868
-0.438748 -0.17127341 -0.11836186 -0.25461113 0.056615006 0.060683787 -0.14035712 -0.17888448
-0.12114124 -0.08218716 0.62672937 -0.56723094 -1.1925753 -0.14506525 0.100062095 -0.0734956
-0.75131017 -0.4540175 -0.30949965 0.21994652 -0.14562228 0.08681515 -0.0127077345 0.52433646
-0.49208757 -0.2113748 -0.22174105 -0.31774193 -0.11311442 0.42694527 0.05904434 -0.6135943
-0.25796196 -0.16904102 -0.39813522 -0.40920237 0.062320225 0.0457316 0.15385668 -0.32964182
-0.23382927 -0.102448955 0.15238309 0.16940865 -0.050394718 0.10432002 -0.11572379 0.06533559
-0.2064183 -0.07934582 0.39108735 0.19951351 -0.00061336666 0.116227314 0.36051914 0.36814168
0.032529183 -0.25911942 0.06634983 0.0040829303 -0.3748404 -0.08065964 0.32326493 0.08758051
-0.20658514 -0.26520452 0.047167517 -0.087192014 0.14061718 -0.24841611 -0.18870425 -0.1758269
-0.11622993 -0.1744256 0.062227335 -0.0057671946 -0.12167803 0.5134641 -0.1924988 -0.3155671
-0.29598284 0.16963764 -0.17753874 -0.2760604 -0.34912202 0.16638432 0.06213706 -0.2557398
0.078479454 -0.30642033 -0.18435395 -0.08761941 -0.20152842 -0.030370628 0.3021254 -0.20052679
-0.23235111 0.2083618 -0.18467334 -0.17929809 0.2868562 -0.28124654 -0.33472228 -0.14487347
0.13595441 0.20867616 -0.10115276 0.2302317 0.1084721 -0.14882918 -0.066419765 -0.2111585
0.11264845 0.108087465 0.35178846 -0.10617561 -0.14105397 0.1205971 0.7428729 0.5071856
-0.22261801 -0.05013959 0.15824164 -0.3201244 0.88197035 -0.03551865 0.46225417 0.058738697
-0.043217894 -0.08853925 0.0143296 0.13867967 0.26236606 0.18328479 -0.2430533 0.03755519
00000000: 6d2b 9abe dd98 5cbe 9538 8f3e 177e 773d
00000010: 9b20 99be 73d0 2ebf 83ce 90bd 95e7 f13d
00000020: 06d5 62be 7921 13bf 5b0e 2e3e 04ce 3d3d
00000030: 8904 9c3e 6100 b5bc f5ef 95be fa08 9bbe
00000040: 8fa1 87be 16a2 5a3e edb8 713e 8ff8 46be
00000050: 2192 47be df33 863e 708c 5dbe dd6d c2bd
00000060: 1cb9 a1be 24ac 0cbf b637 b6be 4cff e7be
00000070: 324f a53d 1794 a7be fa84 68bd 99b3 5c3e
00000080: 3941 babe e592 30be 5317 293c 4d81 9d3d
00000090: c9af 51bd e8be 503d b854 85bc 7d17 10be
000000a0: 04bc 21be 250a aabd 0fc2 44be fd55 27bc
000000b0: 2135 0ebe 227d 733e c71a 4d3e 76cb 8a3e
000000c0: 819d b2bc f6a0 edbd 381e f4bc 35a9 13be
000000d0: 0a30 1b3e 61f1 3ebd 7161 853e 64e5 63bc
000000e0: 3776 043c 2f6e c9be 281b 253d d6b1 97be
000000f0: e348 5f3e dc44 2abe eeea b4bd 5d2d 11be
00000100: 4295 a7bd fd45 efbd 08fd 9a3e cf6c d5bd
00000110: 5541 28be e37a e53d c9fd 01bd cb8e debd
00000120: 5f60 96be 7c66 6ebe c86c c3be 3dd7 d23d
00000130: c971 88be 74be c93d 7687 973e 98bd a7bd
00000140: 55c5 94be 53ff ab3c 0d75 853d f034 61be
00000150: 24a0 0ebe 92ee ce3e 2ab0 9f3c 5f8b 4e3e
00000160: cd9b e3be d834 cabe c4de 9bbe 10df a6be
00000170: 0053 e13c 5480 d6bc 9036 a4be 91e1 00be
00000180: 06f0 293e eb3c 323e 0ea3 273c fb33 4a3f
00000190: ea43 943d 28dd 8ebe 5ff4 a7be b2db 0f3e
000001a0: 66c9 883d 51ad 37be 3b6c e8bd c219 8a3e
000001b0: 732d 563e b199 b0bd 8df0 eebe d6d9 503f
000001c0: 9ddb 76bb e41b f43c 9520 6c3e 0373 143e
000001d0: 3b46 933d 1d22 fc3c e1c6 b93d 0eb8 613e
000001e0: 94a3 e0be 4c62 2fbe b467 f2bd 645c 82be
000001f0: 23e5 673d 908f 783d c7b9 0fbe 7e2d 37be
00000200: e618 f8bd be51 a8bd 5671 203f 0c36 11bf
00000210: 4fa6 98bf fc8b 14be 5bed cc3d dc84 96bd
00000220: dd55 40bf fb74 e8be bd76 9ebe a939 613e
00000230: 021e 15be 24cc b13d 1a34 50bc ea3a 063f
00000240: e7f2 fbbe a372 58be 1610 63be 12af a2be
00000250: 88a8 e7bd 9298 da3e 7ad8 713d 8414 1dbf
00000260: 9713 84be 1719 2dbe 61d8 cbbe f982 d1be
00000270: 7e43 7f3d 0f51 3b3d 9b8c 1d3e d0c6 a8be
00000280: f170 6fbe c2d0 d1bd 500a 1c3e 7679 2d3e
00000290: b16a 4ebd bca5 d53d 9800 edbd aace 853d
000002a0: 525f 53be 1080 a2bd 9a3c c83e 454d 4c3e
000002b0: 57ca 20ba 9608 ee3d f795 b83e 117d bc3e
000002c0: 523d 053d 4dab 84be 6be2 873d 1aca 853b
000002d0: 15eb bfbe e230 a5bd fb82 a53e 695d b33d
000002e0: 0e8b 53be e3c8 87be ba32 413d ba91 b2bd
000002f0: f3fd 0f3e cb60 7ebe b03b 41be f80b 34be
00000300: f509 eebd a09c 32be 17e2 7e3d bcfa bcbb
00000310: 5532 f9bd 6272 033f 681e 45be 0392 a1be
00000320: 108b 97be 7db5 2d3e b7cc 35be ca57 8dbe
00000330: 1fc0 b2be a760 2a3e 6e83 7e3d 54f0 82be
00000340: d6b9 a03d 20e3 9cbe 48c7 3cbe ce71 b3bd
00000350: 775d 4ebe d3cb f8bc 2eb0 9a3e e556 4dbe
00000360: 73ed 6dbe cc5c 553e 021b 3dbe eb99 37be
00000370: d1de 923e 8cff 8fbe b860 abbe b659 14be
00000380: a237 0b3e 34af 553e 2e29 cfbd dcc1 6b3e
00000390: 9f26 de3d ad66 18be 1607 88bd ef39 58be
000003a0: 3bb4 e63d f65c dd3d 9e1d b43e 9972 d9bd
000003b0: 7470 10be 9dfb f63d eb2c 3e3f ead6 013f
000003c0: faf5 63be 2c5f 4dbd 190a 223e 58e7 a3be
000003d0: cfc8 613f 017c 11bd 94ac ec3e fd97 703d
000003e0: 3f05 31bd 1154 b5bd b3c6 6a3c 0b02 0e3e
000003f0: d854 863e 02af 3b3e f7e2 78be 79d3 193d

encoder.rnn.bias_ih_l1 f4 [96]
-0.103739634 0.056763552 -0.160454 -0.10941702 -0.44462892 -0.076031454 0.020162078 -0.021087715
-0.35901165 -0.21013045 -0.088855185 -0.24053878 -0.070982985 -0.12132888 -0.11060512 -0.20875125
-0.15513013 -0.17500108 0.007838381 -0.34634113 -0.20454186 -0.0936404 0.026601048 -0.3119251
-0.10281156 0.1365056 -0.097237825 -0.0365081 -0.069951564 -0.13411598 0.14244743 0.03743783
-0.10433769 0.0142803835 0.16685867 -0.15798593 -0.15697473 -0.20903249 -0.15823281 -0.33741212
-0.05958579 -0.1122774 -0.11452935 0.007124475 -0.2888636 -0.12660213 -0.03209821 0.38136026
0.06801984 -0.12841742 -0.17250882 0.21654691 0.5817916 -0.23293586 0.16119128 -0.12818141
-0.14013587 -0.029484244 0.32410035 -0.07841839 -0.101065345 -0.40676695 -0.2369039 0.072956055
0.05223818 0.10530639 -0.0031195225 0.08915011 0.21243936 0.0793255 -0.042440075 0.113748536
0.17098343 0.06301394 -0.10830764 0.08914808 -0.04844862 -0.15568432 -0.008618506 -0.062121116
0.17339604 0.061050843 -0.01055172 0.10680668 0.07641269 -0.16066393 -0.00032797197 0.046413142
-0.00745844 -0.04126165 -0.00022827461 0.18307362 -0.2700092 0.011586196 0.07535493 -0.017161101
00000000: 7275 d4bd e680 683d 0e4e 24be 0816 e0bd
00000010: 67a6 e3be 61b6 9bbd f12a a53c 25c0 acbc
00000020: 60d0 b7be 702c 57be b5f9 b5bd cc4f 76be
00000030: 875f 91bd 477b f8bd f084 e2bd e3c2 55be
00000040: 6fda 1ebe 7c33 33be 8e6c 003c a053 b1be
00000050: 6c73 51be 8ac6 bfbd 71ea d93c a6b4 9fbe
00000060: de8e d2bd 20c8 0b3e a024 c7bd 8489 15bd
00000070: c442 8fbd b355 09be bddd 113e 6958 193d
00000080: 00af d5bd 45f8 693c 00dd 2a3e 10c7 21be
00000090: fcbd 20be 9d0c 56be c807 22be 48c1 acbe
000000a0: 3b10 74bd b2f1 e5bd 5d8e eabd 6e74 e93b
000000b0: eee5 93be fda3 01be 6a79 03bd a741 c33e
000000c0: fc4d 8b3d db7f 03be 27a6 30be 79be 5d3e
000000d0: 4bf0 143f bd86 6ebe 540f 253e fd41 03be
000000e0: c77f 0fbe f188 f1bc 7bf0 a53e d299 a0bd
000000f0: 59fb cebd c243 d0be f096 72be fc69 953d
00000100: b4f7 553d e0aa d73d e770 4cbb 5594 b63d
00000110: b489 593e 6875 a23d a5d5 2dbd fef4 e83d
00000120: 4816 2f3e 740d 813d 65d0 ddbd 4593 b63d
00000130: 0f72 46bd b66b 1fbe a234 0dbc b672 7ebd
00000140: bb8e 313e 7310 7a3d 1fe1 2cbc 76bd da3d
00000150: 427e 9c3d 1685 24be a7f3 abb9 b51b 3e3d
00000160: ee65 f4bb fa01 29bd 005d 6fb9 a777 3b3e
00000170: a53e 8abe 07d4 3d3c af53 9a3d 7095 8cbc
