1223-code-DL/model/seq2seq_bahdanau_state_dict.pt (torch, 424318 bytes, 26 tensors)

encoder.rnn.weight_ih_l0 f4 [192, 16]
0	0x3e4976d4	0.19674236
1	0x3e310b3b	0.1728944
2	0x3e37ea66	0.1796051
3	0x3e7fc01a	0.24975625
4	0x3d74e3db	0.059787612
5	0x3df09f9d	0.11749194
6	0x3c95b921	0.018276753
7	0x3e3a6a40	0.18204594
8	0x3e94a9be	0.29035753
9	0x389e7fa3	7.557801e-05
10	0x3e298181	0.16553308
11	0x3e43b8b5	0.19113429
12	0x3e641cd4	0.22276622
13	0x3dd20606	0.10255055
14	0x3d740caa	0.05958239
15	0x3da703cd	0.08155022
16	0xbc95e29e	-0.018296536
17	0xbb9696f0	-0.00459563
18	0xbb14f6f6	-0.0022730208
19	0x3dea5fff	0.11444091
20	0xbdae9368	-0.08524209
21	0x3deb0627	0.11475783
22	0xbddabe3f	-0.10680818
23	0x3d9df621	0.07712961
24	0xbdcd3779	-0.10020346
25	0x3da25031	0.079254515
26	0x3dd4152f	0.10355603
27	0xbd8d0ae9	-0.068868466
28	0xba7892ab	-0.00094823044
29	0xbe054e70	-0.13018203
30	0xbda7abf8	-0.08187097
31	0xbf1f06e8	-0.62119913
32	0x3c7836f1	0.015149818
33	0xbd1f5d5b	-0.03890739
34	0xbdba74b8	-0.091042936
35	0x3e324f7c	0.17413133
36	0x3edb515a	0.42835504
37	0x3ea40138	0.3203218
38	0xbd26b3bf	-0.040698763
39	0xbe38a740	-0.18032551
40	0x3e2ad59e	0.16683051
41	0x3e5d81fa	0.21631613
42	0xbcc55dca	-0.024092574
43	0x3e83f8ac	0.2577566
44	0x3e314bbf	0.17314051
45	0xbd9ce263	-0.07660367
46	0x3d70fed6	0.05883678
47	0x3e019cb8	0.1265744
48	0x3ddd0caf	0.10793435
49	0x3ec4a0e3	0.38403997
50	0xbf6303a4	-0.8867743
51	0xbed539ba	-0.41645604
52	0x3cbfd0ed	0.023415053
53	0x3e09e36b	0.1346566
54	0x3f08dcc4	0.5346186
55	0x3f6622d9	0.89896923
56	0x3edc8bcf	0.43075415
57	0xbf126d42	-0.57197964
58	0x3e7060bc	0.23474401
59	0x3e63afb3	0.22234993
60	0x3eadb384	0.33926022
61	0xbe0ccde7	-0.1375042
62	0xbd38e8a7	-0.04514375
63	0x3c5720b2	0.013130354
64	0xbd272a2b	-0.0408117
65	0x3e2c345e	0.16816851
66	0xbeaab071	-0.3333774
67	0xbeab9848	-0.3351462
68	0xbf06a2f6	-0.5259241
69	0xbe63aa5d	-0.22232957
70	0x3ea79e70	0.32738066
71	0x3ef82e0b	0.48472628
72	0x3e03c47b	0.1286792
73	0xbee3570e	-0.44402355
74	0xbc187b25	-0.009306704
75	0xbe017c3e	-0.12645051
76	0xbdec6ab7	-0.11543792
77	0x3e78189d	0.24228139
78	0xbc54fe1a	-0.013000036
79	0x3e642145	0.22278316
80	0x3d1046e4	0.035223857
81	0x3daaa237	0.08331721
82	0x3ddd841c	0.108162135
83	0x3e2cf341	0.16889669
84	0xbe77ac8e	-0.24186918
85	0xbddfb67c	-0.10923478
86	0x3e75c7e3	0.24002032
87	0x3e803b59	0.2504528
88	0x3e81d218	0.253556
89	0xbd33afb2	-0.043868728
90	0x3e85ffab	0.26171622
91	0x3e77c6f6	0.24196991
92	0x3ea2ba3b	0.31782708
93	0x3d2df981	0.042474274
94	0x3e243a79	0.1603793
95	0x3e3fa242	0.1871424
96	0xbde83f3d	-0.11340187
97	0xbe8aa01e	-0.27075285
98	0xbe67ad81	-0.2262478
99	0xbe5aa955	-0.21353658
100	0xbec8b242	-0.391985
101	0xbe07bb58	-0.1325506
102	0xbe87d8c2	-0.2653256
103	0xbecb7aea	-0.39742213
104	0xbe57ee6b	-0.21087043
105	0xbe2ccc98	-0.16874921
106	0xbd683d40	-0.056699038
107	0xbe8af84a	-0.27142555
108	0xbea98dde	-0.3311605
109	0xbea14069	-0.31494454
110	0xbcd160bd	-0.025558824
111	0xbe97bdc4	-0.29636967
112	0x3e53f400	0.20698547
113	0xbc0bd999	-0.008535766
114	0x3d6a4f1f	0.057204362
115	0xbd2d43e4	-0.042301074
116	0x3d7a2a79	0.06107566
117	0xbda3ce56	-0.0799834
118	0x3d890c45	0.06691793
119	0x3eb4e806	0.3533327
120	0x3e3e50db	0.18585531
121	0xbd4a8480	-0.049442768
122	0x3d72ee81	0.059309486
123	0x3dabf32e	0.08395992
124	0x3dd0359e	0.10166477
125	0x3cf14398	0.029451177
126	0x3d8f544d	0.06998501
127	0x3d6c128f	0.057634886
128	0xbe1781a5	-0.14795549
129	0xbdc8d270	-0.09805763
130	0x3ece6883	0.4031411
131	0xbd8a5acc	-0.067555994
132	0xbe8353c2	-0.2564984
133	0x3f5a6b29	0.85319763
134	0xbe17fad8	-0.14841783
135	0xbd624a0d	-0.0552464
136	0xbde337be	-0.11094616
137	0x3e77a409	0.24183668
138	0x3d127956	0.035760246
139	0x3b447400	0.0029976368
140	0x3d7edea8	0.06222406
141	0xbdd43424	-0.103615075
142	0x3eb2d05b	0.34924588
143	0xbe177f37	-0.14794622
144	0xbe407940	-0.18796253
145	0xbccb6291	-0.024827274
146	0x3bbf7d2b	0.0058437786
147	0x39c737f5	0.0003799793
148	0x3e1b4eec	0.15166825
149	0xbe160bd3	-0.14652948
150	0xbcda1d15	-0.026625196
151	0xbe0839e2	-0.1330333
152	0xbc5ee9fb	-0.01360559
153	0xbde1af6f	-0.110197894
154	0x3e6d0c72	0.23149279
155	0xbdcc14b5	-0.09964887
156	0x3d7827ce	0.060584836
157	0x3c3fa673	0.011697399
158	0xbe078553	-0.13234453
159	0xbf7f6c86	-0.9977497
160	0x3efb6fa0	0.491086
161	0x3ea6b3d0	0.3255906
162	0xbe241f07	-0.16027461
163	0x3d8873c9	0.06662709
164	0x3e3bb45a	0.18330517
165	0xbd04a9dc	-0.032388553
166	0x3e40f53e	0.18843552
167	0x3e920643	0.28520402
168	0x3e930e24	0.28721726
169	0xbe11a3cf	-0.14222644
170	0x3cb652df	0.022256313
171	0x3e5b4606	0.2141343
172	0x3e8ffdf8	0.2812345
173	0x3eb17395	0.34658495
174	0xbe36cfae	-0.17852661
175	0xbdf8a776	-0.12141316
176	0xbef191b3	-0.47181472
177	0xbc8562b2	-0.016282413
178	0xbdefd54e	-0.117106065
179	0xbe7f43a1	-0.24928142
180	0xbc9fb881	-0.019497158
181	0x3e5c4efb	0.21514504
182	0xbdb5ff80	-0.088866234
183	0xbe3c4d17	-0.18388782
184	0x3d9fd5f3	0.078044794
185	0xbdad4d76	-0.0846204
186	0xbaddefcd	-0.0016932428
187	0xbd0f157e	-0.034932606
188	0xbd1b43f8	-0.037906617
189	0xbe2dfce5	-0.16991003
190	0xbe8a958c	-0.2706722
191	0xbf803d88	-1.0018778
192	0x3e9cda5b	0.30635342
193	0x3ef3fbad	0.4765295
194	0xbf6830e3	-0.90699595
195	0xbec2315d	-0.37928286
196	0xbe9757c3	-0.29559144
197	0xbcab74eb	-0.020929774
198	0x3ec6cf8f	0.3883023
199	0x3eb45cdc	0.35227096
200	0x3f473cde	0.7782725
201	0xbe825feb	-0.25463805
202	0x3e6a6f63	0.22894053
203	0x3f511ec6	0.8168758
204	0x3f448152	0.7675983
205	0xbeaf769b	-0.34270176
206	0xbe09807d	-0.1342792
207	0xbd500210	-0.050783217
208	0xbe41a181	-0.18909265
209	0xbe2e2c7b	-0.17009155
210	0x3e3c6222	0.1839681
211	0xbdc2838d	-0.094977476
212	0xbe0c33e8	-0.13691676
213	0xbe7f348d	-0.2492239
214	0xbe6969a2	-0.22794202
215	0x3cccc276	0.02499507
216	0xbd499a94	-0.049219683
217	0x3d507a0b	0.05089764
218	0xbd74a071	-0.05972332
219	0xbdc862a7	-0.097844414
220	0xbdfd2f94	-0.123625904
221	0x3d822124	0.06353977
222	0xbe1e0ba3	-0.15434127
223	0x3d823dd7	0.06359451
224	0xbd3d5853	-0.04622681
225	0x3e97b152	0.29627472
226	0xbeef95b3	-0.467939
227	0x3d466ce2	0.048443682
228	0x3e8a3b1a	0.26998216
229	0xbf1d2636	-0.6138643
230	0x3dfaf2bf	0.122533314
231	0x3ec7e9b6	0.39045495
232	0xbf178a8a	-0.5919577
233	0x3ee7ffc1	0.45312312
234	0xbdb2da2c	-0.08733019
235	0xbf08561b	-0.53256387
236	0xbf0ed9ec	-0.5580127
237	0xbe882150	-0.26587915
238	0xbe112bd4	-0.14176875
239	0xbdabac05	-0.083824195
240	0x3dc3c095	0.095582165
241	0xbeb079fe	-0.34468073
242	0xbe3a19cb	-0.18173902
243	0xbd24a153	-0.040192913
244	0xbe291df4	-0.16515332
245	0x3dee5fec	0.116393894
246	0xbeb71c1e	-0.3576364
247	0x3d99e6b1	0.07514704
248	0xbcaa6953	-0.020802176
249	0xbd8064bf	-0.06269216
250	0xbe3ab49a	-0.18232957
251	0xbdabbb87	-0.083853774
252	0xbc62046e	-0.013795001
253	0xbe4bf900	-0.19919205
254	0x3d5bad85	0.053632278
255	0x3f1f3735	0.62193614

encoder.rnn.weight_hh_l0 f4 [192, 64]
0	0xbdd3042a	-0.103035286
1	0x3d8aace6	0.06771259
2	0xbbb91f19	-0.005649459
3	0x3c942869	0.018085675
4	0x3dfa8a71	0.12233437
5	0x3e0a5d2b	0.13512103
6	0x3e20e919	0.1571392
7	0xbe2b451f	-0.16725586
8	0xbd81c507	-0.06336408
9	0x3c94c906	0.018162262
10	0x3d4cdada	0.0500134
11	0xbdd9121b	-0.105991565
12	0xbe220fb3	-0.15826301
13	0x3d2c6ad0	0.04209405
14	0xbd21ee19	-0.03953371
15	0x3d29fbb3	0.041499805
16	0xbdd17f2a	-0.10229333
17	0xbe77cb9b	-0.24198763
18	0x3ded60fb	0.11590763
19	0x3e0dfa97	0.13865124
20	0x3d8be235	0.06830255
21	0x3cf88253	0.03033558
22	0x3e61a656	0.22036108
23	0xbe0203e2	-0.12696794
24	0xbe553cc4	-0.20823961
25	0x3e374d6d	0.1790063
26	0xbd9f8a74	-0.0779008
27	0x3ec6f72e	0.38860458
28	0x3e450e80	0.19243813
29	0x3d86188c	0.06547651
30	0xbd0d9942	-0.034569986
31	0x3c1edddc	0.00969645
32	0x3d7ab9b5	0.06121226
33	0x3d4849ca	0.048898496
34	0x3dfb13a7	0.12259608
35	0x3bba684e	0.0056887036
36	0xbc7e40c5	-0.015518372
37	0xbe064360	-0.13111639
38	0xbe222793	-0.15835409
39	0x3e17912d	0.14801474
40	0xbe627294	-0.2211402
41	0x3e26eaba	0.16300479
42	0xbe86345d	-0.26211825
43	0x3cda16f9	0.026622282
44	0x3a04865d	0.0005055422
45	0x3c0496a2	0.008092554
46	0x3d97646c	0.07392201
47	0xbeb7b492	-0.35879952
48	0x3dccbbc1	0.09996749
49	0x3dc508df	0.09620833
50	0xbd64a451	-0.055820767
51	0x3c97dfca	0.018539328
52	0xbd0f43f3	-0.03497691
53	0xbd9c5360	-0.0763309
54	0xbd91ff94	-0.07128826
55	0xbd8da9bc	-0.0691714
56	0x3deafc1d	0.11473868
57	0x3d6a3e23	0.057188164
58	0xbc999337	-0.018746955
59	0xbd290b69	-0.041270647
60	0x3e3b2fbf	0.18279932
61	0xbac0cd9f	-0.0014709717
62	0x3dc210bb	0.09475847
63	0x3d1002bf	0.03515887
64	0xbcf7d955	-0.030255
65	0x3e64e44d	0.22352715
66	0x3dd12e39	0.102138944
67	0x3da29096	0.07937734
68	0x3cb89472	0.022531722
69	0x3d046ae6	0.03232851
70	0xba5a9cd6	-0.00083394104
71	0xbe1d3fa5	-0.1535631
72	0xbd7ea211	-0.062166277
73	0x3e165417	0.14680515
74	0x3e30468a	0.17214409
75	0xbe2c9bfc	-0.16856378
76	0xbdebf185	-0.115206756
77	0xbc388adc	-0.011263575
78	0xbe679c63	-0.2261825
79	0xbe2bedaf	-0.16789888
80	0xbe437526	-0.19087657
81	0x3db2d617	0.08732241
82	0xbdbc37c5	-0.09190325
83	0xbd8f869a	-0.07008095
84	0xbe5f778d	-0.21822949
85	0x3cf89aa1	0.03034717
86	0x3d6f8344	0.058474794
87	0xbd41a277	-0.04727408
88	0xbdeff279	-0.1171617
89	0x3e1f405c	0.15551895
90	0xbe9757f5	-0.29559293
91	0xbdab3b8e	-0.083609685
92	0xbe83c87f	-0.25738904
93	0x3df582b9	0.11987824
94	0xbd3fa8a6	-0.046791695
95	0xbe65864b	-0.2241451
96	0xbddb0f3a	-0.106962636
97	0xbdb86202	-0.090030685
98	0x3e1ece59	0.15508403
99	0x3ed88b58	0.4229381
100	0x3e45c9ab	0.19315211
101	0xbf13237c	-0.5747602
102	0xbe38688d	-0.18008633
103	0xbe729971	-0.23691346
104	0x3e1721ad	0.1475894
105	0xbc1bfc1a	-0.009520555
106	0xbeac3c99	-0.33639982
107	0x3cb540ec	0.022125684
108	0x3e11af34	0.14226991
109	0xbeeae964	-0.45881188
110	0x3e50248e	0.20326445
111	0xbe52eeb6	-0.20598873
112	0x3e3274d3	0.17427377
113	0x3e68c79d	0.22732396
114	0xbd69cdee	-0.057081155
115	0x3ef5d46c	0.48013628
116	0xbe9e92d2	-0.3097139
117	0xbe15f2f5	-0.14643462
118	0xbdf38476	-0.11890499
119	0x3d84cac2	0.064839855
120	0x3b37780f	0.0027995144
121	0xbcd6523a	-0.026162256
122	0x3f087e59	0.5331779
123	0x3d8a68f2	0.06758298
124	0x3e73352a	0.23750749
125	0xbd310c78	-0.04322478
126	0x3e84e042	0.25952345
127	0x3db43ea5	0.08801011
128	0xbe01e113	-0.12683515
129	0x3e82f7b2	0.25579602
130	0x3dcc18e8	0.09965688
131	0x3e5baace	0.21451876
132	0xbdc5675b	-0.09638854
133	0x3e580639	0.21096124
134	0x3e0f97ae	0.14022705
135	0x3d9f5c08	0.077812254
136	0x3db46063	0.08807447
137	0xbe6d0d54	-0.23149616
138	0x3df149ff	0.11781692
139	0x3e7a8003	0.24462895
140	0x3d9e1ff7	0.077209406
141	0x3cc5da82	0.024152044
142	0x3d392611	0.04520232
143	0xbe1711bd	-0.1475286
144	0xbdbfad81	-0.09359265
145	0x3e5adf82	0.21374324
146	0x3d783a2e	0.06060236
147	0x3d9e69b2	0.077350035
148	0x3db6ab69	0.08919413
149	0xbd5cf072	-0.053940244
150	0x3ea28921	0.31745246
151	0xbf0b1d2b	-0.5434138
152	0xbe3580ac	-0.17724866
153	0xbc194869	-0.009355643
154	0xbdee98aa	-0.11650212
155	0x3ec36bc0	0.38168144
156	0xbde43a85	-0.11143974
157	0x3cd90574	0.026491858
158	0x3d8119f4	0.06303778
159	0xbdfb8916	-0.122820064
160	0xbe41c715	-0.189236
161	0xbd63cdfa	-0.055616356
162	0xbe4e0ec9	-0.20122828
163	0xbc4f7af3	-0.012663591
164	0x3f017e58	0.5058341
165	0xbe3aeeed	-0.18255205
166	0x3e0828e4	0.13296849
167	0xbe91b138	-0.2845552
168	0xbe5be5d0	-0.21474385
169	0x3e1f6a53	0.15567903
170	0xbea6cbd4	-0.32577384
171	0x3dadf181	0.08493329
172	0x3e26db92	0.16294697
173	0x3b26d243	0.0025454916
174	0xbe014e48	-0.12627518
175	0xbedb951a	-0.42887193
176	0x3e41b628	0.18917143
177	0x3db3cb8d	0.087790586
178	0xbce68995	-0.028141776
179	0xbe1c3c4c	-0.15257376
180	0x3e860702	0.26177222
181	0x3da60f2a	0.08108361
182	0xbe82407c	-0.25439823
183	0xbe3a2578	-0.18178356
184	0x3dcbc915	0.09950463
185	0xbeb85262	-0.36000353
186	0x3cd54d6e	0.026037898
187	0x3dcfdbc1	0.101493366
188	0xbce63715	-0.028102437
189	0x3c09e5be	0.008416591
190	0x3a1fa312	0.0006089668
191	0xbd7f6e8f	-0.062361296
192	0xbd9e4fae	-0.077300414
193	0xbdf14d78	-0.11782354
194	0x3cf896d1	0.030345352
195	0x3ec7d420	0.39029026
196	0xbd502f3e	-0.050826304
197	0xbea71631	-0.32634118
198	0x3f41a104	0.75636315
199	0xbc8ce0dd	-0.017197067
200	0xbc378b70	-0.011202678
201	0xbf5e7e2d	-0.8691128
202	0xbe0fb17d	-0.1403255
203	0x3efa3a9d	0.48872843
204	0xbf2b17f9	-0.66833454
205	0x3e446e21	0.19182636
206	0xbee2fa6d	-0.44331685
207	0xbbf80b23	-0.007569687
208	0xbdb4304a	-0.08798273
209	0xbedfab77	-0.43685505
210	0x3dad1c95	0.08452717
211	0x3ea112f1	0.31459764
212	0x3e8382af	0.2568564
213	0x3dba06b4	0.0908331
214	0xbb8d027a	-0.0043032737
215	0xbc36e5f6	-0.011163225
216	0x3d31f980	0.043450832
217	0x3d9e06fb	0.07716175
218	0xbdbb661e	-0.09150337
219	0x3ebe6dff	0.37193295
220	0x3ec46c0b	0.3836368
221	0x3ea8a4b5	0.32938161
222	0xbe5f5aa1	-0.21811916
223	0x3fbedb4a	1.4910672
224	0x3f23b299	0.63944393
225	0x3e4b26c1	0.19839002
226	0xbfeed0d7	-1.8657483
227	0xbf2bba16	-0.6708082
228	0xbe952883	-0.2913247
229	0x3ed0adcc	0.40757596
230	0xbefef3bb	-0.49795327
231	0x3f43510a	0.7629553
232	0xbe76926a	-0.2407929
233	0x3c539105	0.012912993
234	0x3e5ff9b6	0.21872601
235	0xbb600097	-0.003418004
236	0x3e3b5576	0.1829432
237	0x3f456b41	0.7711678
238	0x3e4c507a	0.19952574
239	0x3e2e2929	0.17007889
240	0x3dc08316	0.09400003
241	0xbbc3e18c	-0.005977815
242	0xbd189605	-0.037252445
243	0xbe00f859	-0.12594737
244	0x3f85d20b	1.0454725
245	0x3e33a784	0.17544371
246	0x3e81123f	0.25209233
247	0xbaf630a2	-0.0018782804
248	0x3d687b26	0.05675807
249	0xbf037f84	-0.5136645
250	0x3e764e9b	0.24053423
251	0xbef8f87c	-0.4862708
252	0xbde452ea	-0.11148627
253	0xbd616ce9	-0.055035505
254	0x3e07c249	0.13257708
255	0xbda8a10a	-0.08233841

encoder.rnn.bias_ih_l0 f4 [192]
0	0xbd142638	-0.03616926
1	0xbd74c34d	-0.059756566
2	0x3d823e9b	0.06359597
3	0x3d5dc0d0	0.05413896
4	0x3d354c40	0.04426217
5	0x3d90afd5	0.07064787
6	0xbe2b67a9	-0.16738762
7	0x3d83435f	0.064093344
8	0x3e2971fe	0.16547391
9	0xbbad9e93	-0.0052984445
10	0x3dc02fa2	0.09384085
11	0x3cc4982f	0.023998348
12	0xbdcb24ab	-0.09919103
13	0xbdb06e24	-0.08614758
14	0x3e1f8ee8	0.15581858
15	0x3d5fff3f	0.05468678
16	0x3dd1e6ec	0.10249123
17	0xbe4aa4aa	-0.19789377
18	0xbe252586	-0.16127595
19	0x3dbd92cf	0.09256517
20	0xbd48013d	-0.048829306
21	0xbcf8ea92	-0.03038529
22	0xbdd6f91f	-0.10496735
23	0xbdd4e1ec	-0.10394654
24	0x3e4a2fcb	0.19744794
25	0x3e6c8132	0.23096159
26	0x3db18ad8	0.086690605
27	0xbe351547	-0.17683898
28	0xbdec178d	-0.115279295
29	0xbe0a355d	-0.13496919
30	0xbd9bbb19	-0.076040454
31	0xbe14fceb	-0.14549606
32	0xbe464c2a	-0.19364992
33	0x3d2d17b9	0.04225895
34	0xbdadebda	-0.08492251
35	0x3c2491ff	0.010044574
36	0xbe92b77e	-0.28655618
37	0xbd0e3b36	-0.034724437
38	0x3d5c1be2	0.05373753
39	0xbd573251	-0.05253822
40	0xbd47e050	-0.048797905
41	0x3e27fde7	0.1640545
42	0xbe65c10e	-0.22436926
43	0x3e14596f	0.14487241
44	0xbdec3357	-0.1153323
45	0xbdb837d2	-0.08995022
46	0xbe26e342	-0.1629763
47	0xbbf1ce86	-0.007379356
48	0x3e17fe41	0.14843084
49	0xbbee346d	-0.0072694332
50	0x3da64ffb	0.08120724
51	0xbe4d9016	-0.20074496
52	0xbd6abc7e	-0.057308666
53	0x3b153041	0.0022764357
54	0xbe1e064a	-0.15432087
55	0x3dcb18c0	0.0991683
56	0x3dba0457	0.09082859
57	0xbe96a86c	-0.2942537
58	0xbe6c117e	-0.23053548
59	0x3e058e81	0.13042642
60	0x3d873665	0.06602172
61	0x3cbf1c30	0.02332887
62	0x3dbc56db	0.09196254
63	0x3e0bb701	0.13644029
64	0x3de9579a	0.11393662
65	0x3e464f1d	0.19366117
66	0x3dfeb9f4	0.124378115
67	0xbd5d2146	-0.05398681
68	0xbe3b557e	-0.18294331
69	0xbe87353c	-0.26407802
70	0x3dc0ac1d	0.09407828
71	0xbe9ab3f2	-0.30215412
72	0x3b9f8943	0.004868658
73	0x3e8c12d4	0.27358115
74	0xbcae62d2	-0.021287356
75	0xbef48df9	-0.47764567
76	0x3d8c169e	0.068402514
77	0x3d568860	0.05237615
78	0x3dbf97b5	0.09355108
79	0x3e1409d9	0.14456882
80	0x3da33c5b	0.07970496
81	0x3d661843	0.05617548
82	0x3d84471b	0.06458875
83	0xbc94491f	-0.018101273
84	0x3d9d80c6	0.07690577
85	0xbddba5ef	-0.10725009
86	0xbeb1e08c	-0.34741628
87	0x3d6ecb44	0.058299318
88	0xbe3c1937	-0.18368994
89	0xbe1f2c82	-0.15544322
90	0xbdea99f8	-0.114551485
91	0xbe768271	-0.24073197
92	0x3e2e2e46	0.1700984
93	0x3e34bd5c	0.1765036
94	0x3e2c2555	0.16811116
95	0xbd672361	-0.056430224
96	0x3bc11d6b	0.0058933995
97	0x3d48f934	0.049065784
98	0x3e5677f5	0.20944197
99	0x3e1d0cea	0.15336958
100	0xbea019c3	-0.31269655
101	0xbda148a3	-0.078751825
102	0x3c8a5354	0.016885437
103	0x3cf90862	0.030399505
104	0x3dea46ce	0.11439286
105	0x3cd91703	0.02650023
106	0xbda06426	-0.07831602
107	0x3de69173	0.11258211
108	0xbe3cd6e2	-0.18441346
109	0x3d9f2aae	0.077718124
110	0xbd9cb9b8	-0.076526105
111	0xbddbea3a	-0.107380345
112	0xbdd4b664	-0.10386351
113	0xbe7fa7c6	-0.24966344
114	0xbce125dc	-0.027483873
115	0xbe1ca82c	-0.15298527
116	0xbe0dde6e	-0.13854381
117	0x3bf129b2	0.007359707
118	0xbdef6579	-0.11689276
119	0x3dae99db	0.08525439
120	0xbace788b	-0.0015752477
121	0x3c84dd8a	0.01621892
122	0x3e601293	0.21882086
123	0xbe398a01	-0.1811905
124	0x3d305f86	0.04305985
125	0xbb4a468f	-0.003086481
126	0xbd3c9a5f	-0.046045657
127	0xbe020e54	-0.12700778
128	0x3d12945b	0.035786014
129	0x3c6ea448	0.014565535
130	0xbd2a5654	-0.041586235
131	0x3cebf88e	0.028805044
132	0x3dbc6913	0.09199729
133	0x3e09a4ea	0.13441816
134	0x3db0a555	0.086252846
135	0xbda5c8a1	-0.080949076
136	0xbd44e97d	-0.048074234
137	0x3dd6cd63	0.10488393
138	0x3cb8807e	0.022522207
139	0x3e4315cb	0.19051282
140	0x3e3b680f	0.18301414
141	0xbde9cca9	-0.11415989
142	0xbd64d494	-0.055866793
143	0x3ddfbba5	0.10924462
144	0xbd365049	-0.04451016
145	0x3daf2552	0.0855204
146	0x3caa7c82	0.020811323
147	0x3ddb20ab	0.1069959
148	0x3ca8bc23	0.020597523
149	0x3dee2c6c	0.116295666
150	0x3b22017d	0.0024720125
151	0x3bd999b9	0.0066406396
152	0xbe4f225d	-0.20227952
153	0x3d767ec5	0.06017949
154	0x3e8172fb	0.25283036
155	0xbd6f8cfd	-0.058484066
156	0xbdca9cc4	-0.09893182
157	0xbd001cf5	-0.031277616
158	0xbdb76e5b	-0.089565955
159	0x3d1da6f7	0.03848931
160	0x3eac36af	0.3363547
161	0xbd04e8f3	-0.03244872
162	0x3c5d7392	0.013516324
163	0x3cde86e3	0.027163928
164	0xbde6451c	-0.1124365
165	0x3e0bd110	0.1365397
166	0x3d9a2c37	0.075279646
167	0x3e26e1aa	0.16297022
168	0x3e8b208c	0.2717327
169	0x3de3da6e	0.111256465
170	0x3dfe69cf	0.12422525
171	0xbd929611	-0.07157529
172	0xbe6dc81d	-0.23220868
173	0x3e002d73	0.12517338
174	0x3d77f69c	0.06053792
175	0x3cddbcfb	0.027067652
176	0x3d7837d4	0.060600117
177	0xbbcf4d58	-0.0063263588
178	0xbe0afb64	-0.1357246
179	0x3bfab7e5	0.0076513165
180	0x3e9ebfb2	0.31005627
181	0xbbc62ba9	-0.006047685
182	0x3d9a3c4c	0.07531032
183	0x3d68ba82	0.056818493
184	0x3dc3190f	0.09526264
185	0x3d30ec9d	0.043194402
186	0xbe08f8c6	-0.1337615
187	0x3e237b43	0.1596499
188	0x3d2db34c	0.04240732
189	0xbce59314	-0.028024234
190	0xbd613370	-0.054980695
191	0x3e28d4ac	0.16487378

encoder.rnn.bias_hh_l0 f4 [192]
0	0x3d1a4f02	0.037673004
1	0x3c1b150a	0.009465465
2	0x3d811f95	0.06304852
3	0x3e3a6501	0.18202592
4	0x3df0c9e6	0.11757259
5	0x3e83bb44	0.2572881
6	0xbe019001	-0.1265259
7	0x3e2b5970	0.16733336
8	0x3d9689c9	0.07350499
9	0x3caf1da7	0.021376444
10	0x3e22b5c7	0.15889655
11	0x3d47425e	0.048647277
12	0xbe1c2679	-0.15249051
13	0xbd87fc21	-0.06639887
14	0x3d21a102	0.03946019
15	0xbd92737c	-0.07150933
16	0x3e5e659c	0.21718448
17	0xbe2eedce	-0.17082903
18	0xbe64a498	-0.22328413
19	0xbd05169c	-0.032492265
20	0xbd3bf312	-0.045886107
21	0x3ca96823	0.02067954
22	0xbdc40763	-0.095717214
23	0xbe11a745	-0.14223965
24	0x3da8303c	0.08212325
25	0x3e4f6244	0.20252329
26	0x3dc65e7f	0.096859924
27	0xbde9ea07	-0.1142159
28	0xbe0c84d7	-0.1372255
29	0xbe0767b7	-0.13223158
30	0xbe41eb88	-0.18937504
31	0xbde4d7a1	-0.111739404
32	0xbc966d12	-0.018362556
33	0x3dd69ae9	0.104787655
34	0x3cf3fd82	0.029783968
35	0xbe24ea3f	-0.16104983
36	0xbe879b35	-0.264856
37	0xbe50c0d7	-0.20386063
38	0xbe14665f	-0.14492176
39	0x3d9f1479	0.07767577
40	0x3dfa0b31	0.12209166
41	0x3d1a45ff	0.03766441
42	0xbe7b3537	-0.24532019
43	0x3d9cf4b4	0.07663861
44	0x3d92eac8	0.07173687
45	0xbc6ce5ec	-0.0144591145
46	0xbe94139a	-0.28921205
47	0x3c4fb07a	0.012676353
48	0x3e30c516	0.17262682
49	0x3d60c1b8	0.054872245
50	0xbcfebeff	-0.031096933
51	0xbe353db8	-0.17699325
52	0xbe181404	-0.14851385
53	0xba468ce2	-0.0007574094
54	0xba0e805b	-0.00054359966
55	0x3d0d2c73	0.03446622
56	0x3d9f654b	0.07782992
57	0xbe2401d0	-0.16016316
58	0xbe45faf7	-0.19334017
59	0x3e189920	0.14902163
60	0xbce40d1d	-0.027838284
61	0xbd18ad8f	-0.037274893
62	0x3d7edefa	0.062224366
63	0x3d90aa2a	0.07063706
64	0x3e0ba6c2	0.13637832
65	0x3dcb80fb	0.099367104
66	0x3db26a5d	0.087116934
67	0xbe6eabff	-0.23307799
68	0xbe931547	-0.2872717
69	0xbe6e5ee3	-0.23278384
70	0x3e162d50	0.14665723
71	0xbe41f56d	-0.18941279
72	0x3dab9ee7	0.083799176
73	0x3d95ada7	0.07308512
74	0x3d8a4f4a	0.067534044
75	0xbed5416b	-0.41651472
76	0x3e8d51f9	0.27601603
77	0x3d6b0df3	0.05738635
78	0x3d260fc9	0.040542398
79	0xbd754654	-0.059881523
80	0x3dbfa0ec	0.09356865
81	0x3e463515	0.19356187
82	0x3e3e20d6	0.18567213
83	0xbd7d0a42	-0.06177736
84	0x3e5c24e7	0.21498452
85	0xbdf69b5a	-0.1204135
86	0xbeeb1068	-0.45910954
87	0x3e1e1822	0.15438893
88	0xbd3b9506	-0.045796417
89	0xbe9f9e11	-0.31175283
90	0xbe272fa0	-0.16326761
91	0xbdfdebdc	-0.12398502
92	0x3e01a0bc	0.12658972
93	0xbcd3f910	-0.025875598
94	0x3d77f9da	0.06054101
95	0x3d2cba63	0.04216994
96	0x3e1f1126	0.15533885
97	0x3e0fd079	0.1404437
98	0x3d9e8dba	0.07741876
99	0x3e8fd82f	0.28094622
100	0xbe17649d	-0.14784475
101	0xbe926bcf	-0.28597876
102	0xbc6fba58	-0.01463183
103	0x3d9a71f0	0.07541263
104	0x3e4b1200	0.19831085
105	0xbc3ba5f2	-0.011453139
106	0xbdbfd294	-0.093663365
107	0x3e3e5ae1	0.18589355
108	0xbe562fa3	-0.2091661
109	0xbde87560	-0.113505125
110	0x3d8d189e	0.06889461
111	0xbdfcda6d	-0.12346349
112	0x3d6c2a10	0.0576573
113	0xbe86b010	-0.263062
114	0xbd005951	-0.03133518
115	0xbdfc0ba5	-0.123069085
116	0xbdaf7b79	-0.085684724
117	0x3c061b3e	0.008185206
118	0x3c0e6404	0.008690838
119	0xbd1a6e73	-0.03770299
120	0xbe023462	-0.12715295
121	0x3dbc61b0	0.0919832
122	0x3bd46057	0.006481211
123	0xbd659392	-0.056048937
124	0xbd2a1988	-0.041528255
125	0x3d922f04	0.07137874
126	0x3d4286eb	0.04749195
127	0xbe2060a3	-0.15661864
128	0x3c42424c	0.011856627
129	0xbb85efa8	-0.004087407
130	0xbd326b6d	-0.04355948
131	0x3e95890c	0.2920612
132	0xbc9cf4af	-0.019159643
133	0x3e0b99b1	0.13632847
134	0x3de18d64	0.11013296
135	0xbe45079a	-0.19241181
136	0xbe1485f8	-0.1450423
137	0xbdb4eb72	-0.0883397
138	0xbd154cd1	-0.03645021
139	0x3eaa2aab	0.33235678
140	0xbdecefcb	-0.115691744
141	0x3cf07809	0.029354112
142	0xbe259218	-0.16169012
143	0xbcb4d43e	-0.022073861
144	0xbe26ee25	-0.16301782
145	0xbcc5dec5	-0.024154076
146	0xbd7521b3	-0.05984659
147	0xbd481d65	-0.048856158
148	0x3de14258	0.10998982
149	0x3d13a2db	0.036043983
150	0x3d8d815e	0.069094405
151	0xbe0c9ac2	-0.1373091
152	0xbe0c0750	-0.13674664
153	0x3db17ea7	0.08666735
154	0x3e837fe0	0.25683498
155	0xbdadb28a	-0.08481319
156	0x3d00da79	0.03145835
157	0x3d0bd5a9	0.03413931
158	0x3d15baf1	0.036555234
159	0x3c855ffd	0.016281122
160	0xbc40b6d3	-0.011762339
161	0xbe115084	-0.1419087
162	0xbce11530	-0.027475923
163	0xbe1cf839	-0.15329064
164	0x3e05c77b	0.13064377
165	0x3df2be88	0.11852747
166	0xbd51178d	-0.05104785
167	0xbdb0b623	-0.0862849
168	0x3d9bd421	0.0760882
169	0x3cf2f796	0.029659074
170	0x3e26ad62	0.16277078
171	0x3d65111a	0.055924512
172	0x3db06d4d	0.086145975
173	0xbd14bca3	-0.03631271
174	0x3d4fdfe6	0.050750636
175	0x3df05eb0	0.1173681
176	0x3e63c5fa	0.22243491
177	0x3e0461cc	0.12927932
178	0xbe1f534b	-0.15559117
179	0xbd592a04	-0.053018585
180	0x3d581c91	0.052761618
181	0xbd73b839	-0.05950186
182	0x3be39d98	0.006946277
183	0xbda226db	-0.07917567
184	0x3e0856fd	0.13314433
185	0xbc1f9d4d	-0.009742093
186	0xbdbed21c	-0.09317419
187	0x3ddb10c4	0.10696557
188	0x3dc36048	0.095398486
189	0xbd116525	-0.03549685
190	0xbe38bd44	-0.18040949
191	0x3e103d9a	0.14085999

encoder.rnn.weight_ih_l1 f4 [192, 64]
0	0xbc4aa18b	-0.012367616
1	0x3b87eaec	0.004147878
2	0x3cd9ac83	0.026571518
3	0x3c670309	0.014099845
4	0xbd492a36	-0.04911252
5	0xbd91fa57	-0.07127827
6	0xbd44c8df	-0.048043128
7	0x3d851349	0.06497819
8	0xbdc85c02	-0.09783174
9	0x3ba8b212	0.0051481808
10	0xbd3756c2	-0.044760473
11	0xbc826a8a	-0.015919942
12	0xbc33c71c	-0.010972764
13	0x3ca36bfa	0.019948948
14	0xbdc82fec	-0.09774765
15	0xbda05afa	-0.078298524
16	0x3cbe2281	0.023209812
17	0xbdd8efc2	-0.10592605
18	0xbd9134d4	-0.07090154
19	0xbd5c01d3	-0.053712677
20	0xbc969f51	-0.018386515
21	0xbe12ac48	-0.14323533
22	0xbe006c4c	-0.12541312
23	0xbd889ff7	-0.06671136
24	0x3c9dc396	0.019258302
25	0x3d6940f4	0.05694671
26	0xbd8b3b23	-0.06798389
27	0xbd43f05c	-0.047836646
28	0x3cea9867	0.028637124
29	0xbd5d8cad	-0.054089237
30	0x3e315423	0.17317252
31	0x3e1ebc51	0.15501525
32	0xbe0317a5	-0.12801988
33	0xbdd387a6	-0.10328607
34	0xbb10762a	-0.0022043088
35	0xbe0df830	-0.13864207
36	0xbce41b3f	-0.027845023
37	0xbe1b2d50	-0.15154004
38	0x3d170457	0.036869373
39	0xbe139f80	-0.14416313
40	0xbd387d59	-0.045041416
41	0x3af723c0	0.0018855259
42	0xbdab259d	-0.083567835
43	0xbc3c9ad6	-0.011511525
44	0x3d3116a1	0.04323447
45	0xbd3cbc75	-0.046078164
46	0x3c23c231	0.009995029
47	0xbdb57db9	-0.0886187
48	0x3de6ee5f	0.112759344
49	0x3d9ca4bd	0.07648609
50	0xbd04d9e8	-0.032434374
51	0xbd478a6f	-0.048716005
52	0x3d65a029	0.056060944
53	0xbdb3e073	-0.08783045
54	0xbce4047b	-0.027834168
55	0xbdae8e6b	-0.08523258
56	0x3dd89fbd	0.10577343
57	0xbe353c08	-0.17698681
58	0x3d6bb9ee	0.057550363
59	0xbe085271	-0.13312699
60	0x3e1622ae	0.14661667
61	0x3c9866f9	0.018603789
62	0x3dafc1b5	0.085818686
63	0x3d79b9ad	0.06096809
64	0xbe1f8fc2	-0.15582183
65	0x3d7b3265	0.061327357
66	0x3e4c0c19	0.1992649
67	0x3db514bd	0.08841846
68	0x3dd11e05	0.10210804
69	0x3e5d217b	0.21594803
70	0x3e0eb7e9	0.13937344
71	0xbdf2d42d	-0.118568756
72	0xbe5cfa9f	-0.2157998
73	0xb9c04cbf	-0.00036678274
74	0xbc670e05	-0.014102464
75	0x3ce24e36	0.027625185
76	0xbdf9f291	-0.12204469
77	0x3ce3e09e	0.027817067
78	0xbd554921	-0.052071694
79	0xbdaa354f	-0.08310949
80	0xbdc6dcbf	-0.09710073
81	0xbc5468a0	-0.012964398
82	0xbd6eed4c	-0.058331773
83	0xbb08408d	-0.0020790428
84	0xbd54a3b5	-0.051913936
85	0x3cd1d93b	0.025616279
86	0x3e0b43b2	0.13600042
87	0x3dd5aba7	0.10433131
88	0xbe5ddbb7	-0.21665846
89	0x3dce0709	0.100599356
90	0xbdb8a26d	-0.09015355
91	0x3bafa0a7	0.0053597274
92	0xbd6f51cf	-0.058427628
93	0x3e1cae10	0.15300775
94	0x3cffc0a6	0.031219792
95	0x3de528a1	0.1118939
96	0x3da4f9b7	0.08055442
97	0xbd22656b	-0.0396475
98	0xbe2c78f0	-0.16843009
99	0xbab4b13e	-0.0013785732
100	0x3c3e78a2	0.011625441
101	0x3db2678a	0.08711155
102	0xbe03afc1	-0.12860014
103	0x3e7167fc	0.23574823
104	0x3d673092	0.056442805
105	0x3dc96b3a	0.09834905
106	0x3e6d0cef	0.23149465
107	0x3c7f97b7	0.0156001365
108	0x3dcd1626	0.1001399
109	0xbe458ada	-0.19291249
110	0x3ce3f4b5	0.027826646
111	0x3d920d71	0.0713147
112	0x3e5517da	0.2080988
113	0x3d8a3d6a	0.06749995
114	0xbe3ba019	-0.18322791
115	0xbdbbef07	-0.0917645
116	0xbdf2f83b	-0.118637525
117	0xbdbc7c59	-0.09203405
118	0x3d561d5e	0.0522741
119	0x3d07218c	0.032990977
120	0x3e4b2a07	0.19840251
121	0xbe4ddb9b	-0.20103304
122	0xbcb700c1	-0.022339227
123	0xbe05826c	-0.13038033
124	0x3cf2d852	0.029644165
125	0x3e49aa80	0.19693947
126	0x3c870948	0.016483918
127	0x3e79e837	0.24404989
128	0xbd636821	-0.055519227
129	0x3e111cd1	0.14171149
130	0x3e5f322d	0.21796484
131	0x3d436982	0.047708042
132	0x3e261c7e	0.16221806
133	0x3d06e4bd	0.032932986
134	0x3de8a2c5	0.11359171
135	0xbd34878f	-0.04407459
136	0xbe41cbeb	-0.18925445
137	0xb90f64a2	-0.00013675031
138	0xbd9d708a	-0.07687481
139	0x3f057374	0.5212929
140	0x3cf54167	0.029938413
141	0x3cbe159d	0.023203665
142	0x3dc8eaa9	0.09810383
143	0xbe2e719d	-0.17035528
144	0xbd60c730	-0.05487746
145	0x3dbbbf22	0.09167315
146	0xbd8d3634	-0.06895104
147	0xbd5e8b71	-0.0543322
148	0x3d2e026b	0.042482775
149	0xbcf68b83	-0.030095821
150	0x3d95f0ca	0.073213175
151	0xbe1eb302	-0.15497974
152	0xbc3c27b0	-0.011484072
153	0x3e0774c3	0.13228135
154	0xbdd9c1e5	-0.106326856
155	0xbdb9c8f0	-0.09071529
156	0xba1c052b	-0.0005951698
157	0x3e2ed322	0.17072728
158	0xbc4d2a20	-0.01252225
159	0xbd8ab242	-0.06772281
160	0x3dddd675	0.1083192
161	0xbdd2fc68	-0.10302049
162	0x3d6ab786	0.057303928
163	0x3df738ec	0.12071404
164	0x3e91ddfe	0.2848968
165	0xbdb482e8	-0.08814031
166	0xbd273d28	-0.040829808
167	0x3bf1d6d3	0.0073803454
168	0x3b21987b	0.0024657536
169	0x3bb44ee4	0.0055025686
170	0x3e80be68	0.25145268
171	0x3e5903bb	0.2119283
172	0xbe0b9fe7	-0.13635217
173	0xbd7b26be	-0.061316244
174	0x3d493c03	0.049129497
175	0xbe887459	-0.26651266
176	0x3e2560e9	0.1615025
177	0xbd995431	-0.07486761
178	0xbc76a2eb	-0.015053491
179	0x3e7e86ef	0.2485616
180	0xbdb0dd6a	-0.086359814
181	0xbd581d9f	-0.052762624
182	0xbe3ebc87	-0.18626605
183	0x3d4d5795	0.050132353
184	0xbce18bd1	-0.02753249
185	0x3d7aa822	0.0611955
186	0xbd47b705	-0.048758525
187	0x3c528f57	0.012851558
188	0xbd552b7d	-0.052043427
189	0x3d37e425	0.04489531
190	0x3c660848	0.01404006
191	0x3d902f4e	0.07040273
192	0xbd48a433	-0.048984718
193	0x3dd8a520	0.1057837
194	0xbc26415e	-0.010147421
195	0x3e3e97d4	0.18612605
196	0x3dc6f152	0.09713997
197	0x3dc878f9	0.09788699
198	0xbbc7a6bb	-0.006092874
199	0xbde1c897	-0.110245876
200	0xbdde1a56	-0.10844867
201	0x3d4ebc36	0.05047246
202	0x3e222fff	0.15838622
203	0xbcfb1985	-0.030651817
204	0xbe3850b7	-0.1799954
205	0x3c7b1296	0.015324255
206	0xbe0d397a	-0.13791457
207	0xbe3c4760	-0.18386602
208	0x3d43d154	0.047807053
209	0xbe4aeded	-0.19817324
210	0x3d39eb93	0.045390677
211	0x3e0b0b63	0.13578562
212	0xbe0720eb	-0.13196151
213	0xbe10c4eb	-0.14137618
214	0x3dbfe650	0.093701005
215	0xbd075fab	-0.03305022
216	0xbdf27629	-0.118389435
217	0x3db9648d	0.09052382
218	0xbe6dd196	-0.23224482
219	0x3e1372ca	0.14399257
220	0xbc8506ee	-0.016238656
221	0x3d9168c6	0.07100062
222	0x3d1037b3	0.03520937
223	0x3c6c3ea8	0.014419235
224	0xbe035976	-0.12827095
225	0xbcf09fb7	-0.029373033
226	0xbda0644c	-0.0783163
227	0xbc742c75	-0.0149031775
228	0xbc80ec71	-0.015737744
229	0x3e1554aa	0.14583078
230	0xbe517141	-0.20453359
231	0x3c94932f	0.018136589
232	0xba856e83	-0.001018003
233	0x3e351fc6	0.17687902
234	0x3e08f8bf	0.13376139
235	0xbcfb62a3	-0.030686682
236	0x3df2c9c6	0.118548915
237	0xbcad97cc	-0.021190546
238	0x3da20b20	0.07912278
239	0x3d780e58	0.060560554
240	0xbd269c3e	-0.040676348
241	0x3e274a1e	0.16336867
242	0xbd2c5693	-0.04207475
243	0xbdc6e30d	-0.09711275
244	0x3c29bb64	0.010359619
245	0xbe2a3e17	-0.16625248
246	0x3d87ed07	0.06637006
247	0xbd11c662	-0.035589583
248	0x3dd8bf43	0.10583355
249	0xbdeb4bdf	-0.11489081
250	0x3d86573e	0.06559609
251	0x3be0c638	0.006859567
252	0x3daa44db	0.083139144
253	0x3dbd7cb6	0.09252302
254	0x3e158595	0.14601739
255	0x3c36d1af	0.011158391

encoder.rnn.weight_hh_l1 f4 [192, 64]
0	0x3dba1801	0.0908661
1	0xbd93da31	-0.07219351
2	0x3d06152f	0.032735046
3	0x3e0929ce	0.13394853
4	0xbcaa251a	-0.020769645
5	0xbdad65ab	-0.08466657
6	0xbc0169df	-0.007898777
7	0x3d4c5ab9	0.049891207
8	0x3c907509	0.017633932
9	0xbbeeaad3	-0.0072835474
10	0x3d50af26	0.050948285
11	0x3bd7b5c0	0.0065829456
12	0xb95099ef	-0.0001989377
13	0x3d974a09	0.07387168
14	0xbd14a42f	-0.03628939
15	0xbd82a6c7	-0.063794665
16	0x3d6ded9d	0.058087934
17	0xbd43f68d	-0.04784255
18	0xbd50c33d	-0.050967444
19	0xbd845f27	-0.06463461
20	0xbdeca782	-0.11555387
21	0x3e1b9783	0.15194516
22	0xbe20a46a	-0.15687719
23	0x3bddd779	0.006770071
24	0x3d585443	0.052814733
25	0xbe05c83e	-0.13064668
26	0x3c5dbe0b	0.013534079
27	0x3ca6d90d	0.02036717
28	0xbd07daea	-0.033167757
29	0xbe2dab34	-0.1695984
30	0xbd3a54ff	-0.045491215
31	0x3c8a2ccb	0.016867062
32	0xbdde4226	-0.108524606
33	0x3cc1de54	0.023665585
34	0x3df06851	0.11738647
35	0xbdc7b49c	-0.097512454
36	0xbe0e71f2	-0.13910654
37	0x3cde89f5	0.027165392
38	0x3ca12db9	0.019675123
39	0xbd4e0dfb	-0.0503063
40	0x3e0f4294	0.13990241
41	0xbe39a73d	-0.18130203
42	0x3d839311	0.06424535
43	0x3dc6b88a	0.09703167
44	0xbde22991	-0.110430844
45	0x3e1fe7bb	0.15615742
46	0xbd8ae010	-0.06781018
47	0xbde7fac4	-0.113271266
48	0x3db03a64	0.08604887
49	0x3dde0099	0.10839958
50	0xbe3cba8c	-0.18430537
51	0xbd40fafd	-0.04711436
52	0xbda59272	-0.08084573
53	0xbcae1e82	-0.021254782
54	0x3e249990	0.16074204
55	0xbc0ba568	-0.008523323
56	0x3cb97673	0.022639489
57	0x3d89cdec	0.067287296
58	0x3c92b6f4	0.017909504
59	0xbdd58cef	-0.104272716
60	0x3e32ada2	0.17449048
61	0xbe057a3b	-0.13034908
62	0xbd9c1087	-0.0762034
63	0xbdae2376	-0.085028574
64	0xbdf64532	-0.12024917
65	0xbe457ca9	-0.19285835
66	0x3ca23376	0.01979993
67	0xbcc98823	-0.024601048
68	0x3d0dd8b1	0.03463048
69	0x3bc7387f	0.006079733
70	0x3d752e64	0.059858695
71	0xbd8d1bfa	-0.06890102
72	0xbd548586	-0.05188515
73	0x3da47d1f	0.080316775
74	0x3dd85c64	0.10564497
75	0xbc821efd	-0.015883917
76	0xbe221632	-0.1582878
77	0x3c6fc266	0.014633751
78	0x3d009c82	0.031399257
79	0x3e0c245a	0.13685742
80	0x3d2a7de1	0.041623954
81	0xbe2a7790	-0.16647172
82	0x3dd71c33	0.105034254
83	0xbd05fd28	-0.03271213
84	0x3ca3f35e	0.020013507
85	0xbd0c7c14	-0.034298018
86	0xbe2bd5ff	-0.16780852
87	0xbe052ee5	-0.1300617
88	0x3c8a17c9	0.016857045
89	0xbda1f10b	-0.079073034
90	0x3ba27e6b	0.004958918
91	0x3c2fe830	0.01073651
92	0x3dc7dc7b	0.0975885
93	0xbe486b18	-0.19572103
94	0xbe29930e	-0.16560003
95	0xbcda5bf6	-0.026655179
96	0xbdeeb2f5	-0.11655227
97	0xbdab0485	-0.083504714
98	0x3d5685ba	0.052373625
99	0x3c92a1fc	0.017899506
100	0xbb84fe5d	-0.004058643
101	0x3e00f298	0.12592542
102	0xbe2bb33d	-0.16767593
103	0xbc515da5	-0.012778674
104	0x3d6ee36d	0.05832236
105	0xbda7e04a	-0.081970766
106	0x3e253b37	0.1613587
107	0xbcb72774	-0.02235768
108	0xbd709014	-0.058731154
109	0x3dacfecb	0.084470354
110	0xbe54003d	-0.20703216
111	0xbcdcb664	-0.02694244
112	0x3e2cf653	0.1689084
113	0x3dddd23d	0.108311154
114	0xbde8b6a4	-0.11362961
115	0xbe2a2a01	-0.16617586
116	0xbde817d0	-0.11332667
117	0xbe05f35f	-0.1308112
118	0x3e4004a0	0.18751764
119	0xbc94c0e8	-0.018158391
120	0xbb83b94f	-0.0040198932
121	0x3e3bdc0a	0.18345657
122	0x3e475132	0.19464567
123	0xbe082aec	-0.13297623
124	0x3d94abc0	0.07259321
125	0xbdf462d3	-0.11932912
126	0xbd082537	-0.033238616
127	0xbe2f4027	-0.17114316
128	0x3dde838b	0.108649336
129	0xbb40a63f	-0.0029395965
130	0x3d3761ee	0.044771127
131	0x3d9c34ed	0.07627282
132	0x3e704f59	0.23467769
133	0xbdedbe8c	-0.116086096
134	0x3e20ca07	0.15702067
135	0x3d3e9aba	0.046534277
136	0xbd3cfd67	-0.0461401
137	0xbd8186da	-0.06324549
138	0xbd902c62	-0.07039715
139	0x3ccf0165	0.02526922
140	0xbd88c882	-0.06678869
141	0xbcd43bb7	-0.02590738
142	0xbdedb91e	-0.11607574
143	0x3d78bcd4	0.060726956
144	0xbdf7851c	-0.120859355
145	0x3c5e2cd0	0.013560489
146	0x3e08ff80	0.13378716
147	0xbc767a91	-0.015043871
148	0x3d35be55	0.044370968
149	0xbcbadec7	-0.022811307
150	0xbdb16275	-0.08661357
151	0xbdcef0a6	-0.10104494
152	0x3bad7901	0.005293966
153	0xbd91297f	-0.07087993
154	0xbe1c8969	-0.15286793
155	0x3c8beb37	0.017079933
156	0x3d823110	0.06357014
157	0x3d549efa	0.051909424
158	0xbe88b843	-0.2670308
159	0xbd85a2ca	-0.0652519
160	0xbe283148	-0.1642505
161	0xbbadc10c	-0.005302554
162	0x3d919acc	0.07109603
163	0xbce9e25f	-0.028550325
164	0xbde743d7	-0.11292236
165	0x3d9bab9b	0.076010905
166	0xba9c1250	-0.0011907313
167	0x3e1c48f5	0.15262206
168	0xbde42227	-0.111393265
169	0xbda9d7ea	-0.082931355
170	0xbe0a28a2	-0.13492063
171	0x3db76fd3	0.08956876
172	0xbe3977fa	-0.18112174
173	0xbcf70b6a	-0.03015681
174	0xbd5f12c6	-0.054461263
175	0xbe015ecc	-0.12633818
176	0xbcfe5350	-0.031045586
177	0x3e13df10	0.1444056
178	0x3d0a77a7	0.033805516
179	0xbdfc41fc	-0.12317273
180	0xbe25a944	-0.16177851
181	0xbdc37aa0	-0.09544873
182	0x3e1f5d49	0.15562929
183	0xbddffda4	-0.1093705
184	0xbd806be6	-0.0627058
185	0x3d0c76c0	0.034292936
186	0x3ab36abd	0.0013688427
187	0x3d6fb8c9	0.058525834
188	0xbc9e4fc2	-0.01932514
189	0xbd78bc86	-0.060726665
190	0xbd482ac4	-0.04886891
191	0xbe188da0	-0.14897776
192	0x3cbd213b	0.023087135
193	0xbe300e58	-0.17192972
194	0xbca86c48	-0.020559445
195	0x3bba0df4	0.005677933
196	0x3d1bfb4e	0.03808146
197	0xbdb82f81	-0.08993436
198	0x3e2346cc	0.15944976
199	0x3cdc8bf0	0.026922196
200	0x3e38f77d	0.1806316
201	0x3d02f3a8	0.03197065
202	0xbca0b1fa	-0.019616116
203	0x3dbf2763	0.09333684
204	0xbdb1109f	-0.08645748
205	0x3e3f11f6	0.18659195
206	0xbe2c877c	-0.16848558
207	0xbd72d636	-0.05928632
208	0xbd1d36e8	-0.03838244
209	0xbe09e37b	-0.13465683
210	0xbd1de234	-0.038545802
211	0x3e2a48f2	0.16629389
212	0xbdec016e	-0.1152371
213	0x3d2596f9	0.040427182
214	0xbe0861d5	-0.1331857
215	0xbe35042e	-0.17677376
216	0x3d969c12	0.07353987
217	0xbba8edbf	-0.0051552947
218	0x3dd6dfb4	0.10491887
219	0x3e3fac77	0.18718134
220	0x3e0301ec	0.12793702
221	0xbdc610e2	-0.09671189
222	0xbe275ed2	-0.16344765
223	0xbdf0f542	-0.11765529
224	0xbe2e7092	-0.1703513
225	0xbdc6d5ed	-0.09708772
226	0x3ddd1d83	0.107966445
227	0xbd8fca56	-0.070210144
228	0xbdf2c9ff	-0.11854934
229	0x3d25ec68	0.040508658
230	0xbe22279d	-0.15835424
231	0xbcb500ca	-0.022095103
232	0x3e4f269e	0.20229575
233	0xbb0622b3	-0.002046746
234	0x3dd07170	0.101778865
235	0xbd1a46dd	-0.037665237
236	0xbdf2e926	-0.11860876
237	0x3cef37df	0.029201446
238	0xbe487505	-0.1957589
239	0x3d9c43de	0.07630132
240	0x3e0d180d	0.13778706
241	0x3e21af2f	0.15789483
242	0xbdb0c564	-0.08631399
243	0xbe3182e1	-0.17335083
244	0xbb3bacd5	-0.0028636951
245	0xbe1b027f	-0.15137671
246	0x3cf0ac5d	0.029379064
247	0xbe0a7403	-0.13520817
248	0xbd9f1abc	-0.07768771
249	0x3d45d683	0.048300277
250	0x3dc71aba	0.097218946
251	0xbc08eddd	-0.008357492
252	0x3dcb304a	0.0992132
253	0xbd92a1a6	-0.07159738
254	0xbd13ea9e	-0.03611242
255	0xbd700124	-0.058594838

encoder.rnn.bias_ih_l1 f4 [192]
0	0xbd71c47f	-0.059025284
1	0x3e1e6a96	0.15470347
2	0xbcfd983f	-0.030956386
3	0xbc885cec	-0.016645871
4	0x3d2b0a01	0.041757587
5	0x3e824f01	0.254509
6	0xbd96f393	-0.07370677
7	0xbdc522b3	-0.09625759
8	0xbc030efe	-0.00799918
9	0x3ddde879	0.10835356
10	0xbd52e1a4	-0.05148472
11	0x3e2bb041	0.16766454
12	0x3d271f2f	0.040801223
13	0xbcfbf500	-0.030756474
14	0x3d6c177b	0.05763958
15	0xbcf2f761	-0.029658975
16	0x3e29849f	0.16554497
17	0xbdc3df44	-0.09564069
18	0x3e25b008	0.16180432
19	0xbd966248	-0.073429644
20	0xbd8f8eed	-0.07009683
21	0xbddbd760	-0.10734439
22	0xbda433d5	-0.08017699
23	0xbe36fc0d	-0.17869587
24	0x3cdbd3f1	0.02683446
25	0xbe1df77b	-0.15426438
26	0xbdb01e26	-0.085995
27	0x3e0682b5	0.13135798
28	0x3cf2682e	0.029590692
29	0x3dc954b2	0.098306075
30	0x3e07913b	0.13238995
31	0x3c8c32b0	0.017114013
32	0x3d936be7	0.07198315
33	0xbcc2867c	-0.023745768
34	0x3e4ea7ef	0.20181249
35	0xbd2cbe93	-0.042173933
36	0xbd7010bf	-0.05860972
37	0x3e4103c8	0.18849099
38	0xbdad05ba	-0.08448358
39	0xbdcbaca9	-0.09945042
40	0x3b7e0208	0.0038758535
41	0x3dcdeb90	0.100546956
42	0xbdb1cb40	-0.08681345
43	0xbe0917a0	-0.13387918
44	0xbdb0a0f3	-0.086244486
45	0xbddaa3c6	-0.106757686
46	0x3e1d01e2	0.1533275
47	0x3e7256db	0.23665945
48	0xbe69fbac	-0.22849911
49	0xbc32074e	-0.010865999
50	0x3c1b3c33	0.009474802
51	0xbe269638	-0.16268241
52	0x3dd57ded	0.10424409
53	0xbe1107e9	-0.14163174
54	0xb99e1514	-0.00030151813
55	0x3e5b6512	0.21425274
56	0xbe0180ba	-0.12646762
57	0xbdf10d6e	-0.1177014
58	0xbd93e070	-0.072205424
59	0xbdc05c47	-0.093926005
60	0xbd135efb	-0.035979252
61	0x3d889710	0.06669438
62	0x3e09cbbc	0.13456625
63	0xbd8d9376	-0.069128916
64	0x3e666782	0.22500423
65	0xbeaa7cc1	-0.33298305
66	0x3e827565	0.2548019
67	0x3e82bef1	0.25536302
68	0xbd2bed52	-0.041974373
69	0xbe63672b	-0.22207324
70	0x3e6fac1f	0.23405503
71	0x3e805a15	0.25068727
72	0x3cef0d46	0.029181134
73	0x3e5769fb	0.21036522
74	0x3e899730	0.2687316
75	0x3ee8e6b2	0.45488507
76	0x3e37c22d	0.17945166
77	0x3dc8c753	0.09803643
78	0x3ec8dc4c	0.39230573
79	0x3e75d9a8	0.2400881
80	0x3e04ad25	0.12956674
81	0x3ea68304	0.32521832
82	0xbd15843e	-0.03650307
83	0x3e292f06	0.16521844
84	0x3eb6792c	0.35639322
85	0x3e800830	0.25006247
86	0x3eb587ac	0.35455072
87	0x3ef11aa8	0.4709065
88	0xbe1cd511	-0.15315653
89	0x3e5d8e7d	0.21636386
90	0x3f0f3dc6	0.55953634
91	0x3ed5b6e6	0.41741103
92	0x3e129a16	0.14316592
93	0x3c437dfa	0.011931891
94	0x3b85444d	0.00406698
95	0x3e3cee9b	0.18450396
96	0xbda0d959	-0.07853956
97	0x3e9ad61b	0.30241475
98	0x3d121795	0.03566702
99	0x3e7dce51	0.24785735
100	0x3dd06fa2	0.10177542
101	0xbea08804	-0.31353772
102	0xbdf4c762	-0.11952092
103	0x3e2b04c5	0.16701038
104	0x3e70ebc7	0.23527442
105	0x3d796772	0.06088967
106	0x3e6c419d	0.23071904
107	0x3e1ae17b	0.15125076
108	0x3e2e2404	0.17005926
109	0x3f031e1a	0.51217806
110	0x3cf07685	0.02935339
111	0x3e3d0368	0.1845833
112	0xbd2b2ffc	-0.04179381
113	0x3e90964b	0.28239664
114	0x3e20adc4	0.15691286
115	0x3dd40f2b	0.103544556
116	0x3ecb4015	0.39697328
117	0x3e3e25c3	0.18569092
118	0x3e61d789	0.22054876
119	0x3e7cc918	0.24686086
120	0x3ebebf20	0.37255192
121	0x3e875d02	0.26438147
122	0x3e45415e	0.19263217
123	0x3ec08d0b	0.37607607
124	0x3e0b1d25	0.13585337
125	0xbe17eac4	-0.1483565
126	0x3ebec305	0.37258163
127	0xbc5e516d	-0.013569218
128	0x3d138e12	0.03602416
129	0xbe65e28c	-0.22449702
130	0xbd3f035d	-0.046634067
131	0xbc529a2c	-0.01285414
132	0x3b5beaae	0.0033556628
133	0xbe3201b0	-0.17383456
134	0x3ce769e8	0.028248742
135	0x3d713ac0	0.05889392
136	0xbd901192	-0.07034601
137	0xbcb6f20d	-0.022332216
138	0x3d931355	0.07181422
139	0x3e218f53	0.1577733
140	0x3d506b21	0.050883416
141	0x3e1cbaaa	0.15305582
142	0x3d08e10d	0.03341775
143	0x3c7f2120	0.015571862
144	0x3d13f7d6	0.036125027
145	0x3cd6fdfe	0.02624416
146	0x3e01779b	0.12643282
147	0xbb84ca6e	-0.004052452
148	0xbe1a4673	-0.15065937
149	0xbc82abe2	-0.0159511
150	0xbd55779d	-0.052116025
151	0xbe2d0e87	-0.16900073
152	0xbd6142d0	-0.054995358
153	0x3d2b6140	0.04184079
154	0x3d787ceb	0.060666006
155	0x3e0b77ff	0.13619994
156	0xbc242867	-0.010019398
157	0x3b056443	0.002035395
158	0xbddfd340	-0.109289646
159	0xbe35acc7	-0.1774169
160	0xbddc84a8	-0.1076749
161	0xbb894459	-0.004189056
162	0x3e539728	0.2066313
163	0x3dd5b40a	0.1043473
164	0xbdc5e172	-0.09662141
165	0x3df98305	0.12183193
166	0xbd8402d5	-0.06445853
167	0x3d334e69	0.04377595
168	0x3cdbadf5	0.026816348
169	0xbe8a0ff6	-0.26965302
170	0xbe04cc6b	-0.12968604
171	0x3df68b4e	0.12038289
172	0xbca93bec	-0.020658456
173	0x3dc9238c	0.09821233
174	0x3d970d28	0.07375556
175	0xbdaba381	-0.08380795
176	0x3ddb4944	0.10707334
177	0x3e117bf7	0.14207445
178	0xbe3375f1	-0.1752546
179	0x3e00c95f	0.12576817
180	0xbd8afe5e	-0.06786798
181	0xbe28189b	-0.16415636
182	0x3e2d7f03	0.16942982
183	0xbd238dfe	-0.039930336
184	0x3e4799b3	0.19492225
185	0x3ddc71a5	0.107638635
186	0x3c5c9fae	0.013465805
187	0xbd23104b	-0.03981046
188	0x3bfd8c06	0.0077376394
189	0x3e2afa65	0.1669708
190	0x3d95815c	0.07300064
191	0xbd9d7fa2	-0.0769036

encoder.rnn.bias_hh_l1 f4 [192]
0	0x3e2fb482	0.17158702
1	0x3e1f48d3	0.15555124
2	0x3e0215c2	0.12703612
3	0x3df5c30f	0.12000095
4	0x3d8d6df8	0.069057405
5	0x3e5b98b2	0.21444967
6	0xbe37639c	-0.17909092
7	0xbdba3b0e	-0.09093295
8	0xbc4ef10f	-0.012630715
9	0x3d807c06	0.062736556
10	0xbd891caa	-0.0669492
11	0xbd9cfa81	-0.07664967
12	0x3e11bf6d	0.1423318
13	0xba86ceb1	-0.0010284988
14	0xbb857063	-0.0040722354
15	0xbcd2d580	-0.02573657
16	0x3dd83cec	0.10558495
17	0x3d4b3e90	0.04962021
18	0x3e5f0e6b	0.21782844
19	0xbe16ff29	-0.14745773
20	0x3dbe591f	0.09294342
21	0xbda67629	-0.08128006
22	0xbcf30ab1	-0.029668184
23	0xbdebcd18	-0.11513728
24	0x3da5e0fb	0.08099552
25	0xbe4d0c56	-0.20024237
26	0x3db2dc2b	0.087334
27	0x3e4cd882	0.20004466
28	0x3da8a79b	0.08235093
29	0xbd8d9f5a	-0.069151595
30	0x3e148950	0.14505506
31	0x3a90aabe	0.0011037213
32	0x3da7cce3	0.08193376
33	0x3d77c3f9	0.06048963
34	0x3d4edcaf	0.05050343
35	0xbe06dabc	-0.13169378
36	0xbe22e478	-0.15907466
37	0x3d91f492	0.07126726
38	0xbe0faacc	-0.14029998
39	0xbe343aed	-0.17600603
40	0x3d5aeaf5	0.05344673
41	0x3e22855e	0.15871188
42	0x3d82d984	0.06389144
43	0xbdd63e93	-0.10461154
44	0x3c4b9781	0.012426258
45	0xbdcef3a4	-0.101050645
46	0x3e2ecbd5	0.17069943
47	0x3b8f31ee	0.0043699658
48	0xbd7a9c55	-0.061184246
49	0xbe431a49	-0.19052996
50	0xbd93cd9a	-0.0721695
51	0xbdc8476d	-0.097792484
52	0x3e22ca00	0.1589737
53	0xbd480fd4	-0.04884322
54	0x3a90d86e	0.0011050829
55	0x3e7f0447	0.24903975
56	0xbe4dfd31	-0.20116116
57	0xbe0b1e5e	-0.13585803
58	0x3d3fcd96	0.04682692
59	0x3d2da2f5	0.042391736
60	0x3e027358	0.12739313
61	0x3dcbb537	0.09946673
62	0x3dd8b1b9	0.10580773
63	0xbe09def6	-0.13463959
64	0x3e978e95	0.2960097
65	0xbe7d7b3c	-0.24754041
66	0x3eaf2800	0.34210205
67	0x3e3015b7	0.17195784
68	0x3b0cdf3c	0.0021495363
69	0xbea5b63a	-0.3236559
70	0x3e7a12fd	0.24421306
71	0x3e5e938c	0.21735972
72	0x3d600463	0.054691684
73	0x3edeff5b	0.43554196
74	0x3ddd5409	0.10807044
75	0x3e9f53a6	0.31118506
76	0x3e8d4f3a	0.27599508
77	0x3e9501d9	0.29102972
78	0x3e31229f	0.17298363
79	0x3ebcd7a4	0.3688327
80	0x3e159e77	0.14611231
81	0x3eea71a9	0.4578984
82	0xbd83b2bd	-0.06430576
83	0x3e1095a5	0.14119585
84	0x3eb29d3b	0.34885582
85	0x3e160896	0.14651713
86	0x3ed9671f	0.42461488
87	0x3e8caf28	0.27477384
88	0x3d74e110	0.05978495
89	0x3e2c9f24	0.16857582
90	0x3eca2559	0.3948162
91	0x3ef0224b	0.46901163
92	0x3e43f98c	0.19138163
93	0x3e105005	0.14093025
94	0xbdf87fc7	-0.121337466
95	0x3e207e0e	0.15673086
96	0xbdb8df27	-0.09026938
97	0x3e97ba02	0.296341
98	0x3e135ded	0.14391299
99	0x3e3ef2b0	0.18647265
100	0x3d9d3604	0.07676318
101	0xbe3908a2	-0.180697
102	0xbde88468	-0.113533795
103	0x3e68417e	0.22681233
104	0x3e73c147	0.23804198
105	0x3e353b72	0.17698458
106	0x3e4941a9	0.19653954
107	0xbda5aa53	-0.080891274
108	0x3e9c90af	0.30579135
109	0x3f2274f1	0.6345969
110	0xbc406265	-0.011742209
111	0x3e9fb534	0.31192935
112	0x3c69d202	0.014271261
113	0x3e65dc5c	0.22447342
114	0x3e8ddb7a	0.2770651
115	0x3e9193c2	0.28433043
116	0x3ed178af	0.40912387
117	0x3e2196be	0.1578016
118	0x3e611cfe	0.21983716
119	0x3eb836c3	0.3597928
120	0x3e99bf80	0.30028915
121	0x3e8cd770	0.27508116
122	0x3bd04d6b	0.006356885
123	0x3e259ae1	0.16172363
124	0x3ea28cd1	0.3174806
125	0xbe4b70e5	-0.19867285
126	0x3eb30187	0.34962103
127	0xbccf1b9c	-0.02528172
128	0xbc3c08d2	-0.011476712
129	0xbe1a28e1	-0.15054657
130	0xbde1f7c0	-0.11033583
131	0x3e0a122d	0.13483496
132	0x3e6284df	0.22120999
133	0xbe0b90d9	-0.13629474
134	0xbe3b5b14	-0.18296462
135	0xbcf46be9	-0.029836612
136	0x3c23e850	0.010004118
137	0x3e2bd13c	0.16779035
138	0x3ba552e4	0.0050452817
139	0xbd00ba73	-0.03142781
140	0xbdb72dff	-0.0894432
141	0xbd2b8c0e	-0.041881613
142	0xbd94b956	-0.072619125
143	0xbd80f3c6	-0.06296496
144	0xbccb9a82	-0.024853949
145	0x3db867f3	0.09004202
146	0x3e04997b	0.12949173
147	0x3c548cf3	0.012973058
148	0x3d8dd80f	0.069259755
149	0x3d08979c	0.03334771
150	0xbd7644b1	-0.060124103
151	0x3d3e30d6	0.046433292
152	0x3e4066fb	0.18789284
153	0x3d7591ed	0.05995362
154	0x3db26611	0.08710874
155	0x3de00289	0.109379835
156	0xbc92e40b	-0.017931005
157	0x3d278f6c	0.040908262
158	0xbe33fea5	-0.17577608
159	0xbe12790d	-0.1430399
160	0xbdcd959f	-0.100383036
161	0xbe30bb9a	-0.17259064
162	0x3df522dc	0.119695395
163	0xbd22012b	-0.039551895
164	0xbd0f921c	-0.03505145
165	0x3da988ac	0.08278021
166	0xbe11f0b5	-0.14251979
167	0x3d56e2cc	0.052462384
168	0x3d6f3257	0.058397617
169	0xbe1ca2bb	-0.15296452
170	0xbd6ae20f	-0.057344493
171	0x3c9617d7	0.018321915
172	0x3e0d5cce	0.13804933
173	0xbbb114d6	-0.005404095
174	0xbdaa88dd	-0.08326886
175	0xbcdaedff	-0.026724814
176	0x3d8e57e5	0.06950358
177	0xbca5a235	-0.020218948
178	0xbe001096	-0.12506327
179	0xbc943b5c	-0.018094711
180	0xbc4995e4	-0.012303803
181	0x3c273c80	0.010207295
182	0x3e52aab4	0.2057293
183	0xbe0c5249	-0.13703264
184	0x3d83bfd4	0.06433073
185	0xbdb373fe	-0.08762358
186	0x3dc53df2	0.09630956
187	0x3d407cf5	0.04699417
188	0xbd8783ad	-0.06616912
189	0x3c1ddb7c	0.009634849
190	0x3da793d1	0.081824906
191	0x3d6fd4a5	0.058552403
