1223-code-DL/model/seq2seq_DPA_AAE_state_dict.pt (torch, 390596 bytes, 23 tensors)

encoder.rnn.weight_ih_l0 f4 [192, 16]
0	0x3e31272a	0.17300096
1	0xbc5d8922	-0.013521465
2	0xbbea0054	-0.0071411524
3	0x3e4f71e9	0.20258297
4	0xbe2f299a	-0.17105713
5	0xbe376b64	-0.1791206
6	0xbe3f9700	-0.18709946
7	0x3e1c4e51	0.1526425
8	0xbbcb42b0	-0.006203018
9	0xbd24dfdc	-0.04025255
10	0x3e23f85f	0.16012715
11	0xbd9f2e78	-0.07772535
12	0xbc32e060	-0.010917753
13	0x3d80c991	0.06288446
14	0xbe6e815d	-0.23291536
15	0x3ed25469	0.41080025
16	0xbc4016db	-0.011724199
17	0xbe2448a7	-0.1604334
18	0xbf22b9da	-0.63564837
19	0xbd36bc71	-0.044613305
20	0xbe40caca	-0.18827358
21	0x3e0bcf29	0.13653244
22	0xbe787193	-0.24262075
23	0x3ca2b313	0.01986078
24	0xbe569db6	-0.209586
25	0xbdb41fee	-0.087951526
26	0xbd968416	-0.07349412
27	0xbe3b91f3	-0.18317394
28	0xbde3c560	-0.11121631
29	0xbe006ada	-0.1254076
30	0xbd63d344	-0.0556214
31	0xbfb1a83b	-1.3879465
32	0x3e3230e4	0.17401463
33	0xbce4606d	-0.02787801
34	0xbe22c710	-0.15896249
35	0x3da14bac	0.078757614
36	0x3e43b26b	0.1911103
37	0x3e2d8207	0.16944133
38	0xbd0c38cb	-0.03423385
39	0x3c12f680	0.008969903
40	0x3d966cdd	0.07344983
41	0x3c1046b4	0.008805919
42	0xbd8a7a59	-0.06761617
43	0x3e192886	0.14956865
44	0x3de7c430	0.11316717
45	0x3c44b2ef	0.012005552
46	0x3c8baaef	0.01704928
47	0xbedf565d	-0.43620577
48	0x3e5e6b44	0.21720606
49	0x3e68a87f	0.22720526
50	0xbc8ee63c	-0.017443769
51	0x3db7662b	0.08955034
52	0x3e7be16b	0.24597709
53	0x3ede3955	0.43403116
54	0x3eac505a	0.33655053
55	0x3c698f06	0.014255291
56	0x3e3691b9	0.17829026
57	0x3e00a5ff	0.12563322
58	0x3ea832a6	0.32851142
59	0x3d3e1d20	0.046414495
60	0x3e0a944c	0.13533133
61	0x3cbe7a0e	0.02325156
62	0x3e934b39	0.28768328
63	0xbe65442d	-0.22389288
64	0x3d84d7b0	0.064864516
65	0xbca36883	-0.019947296
66	0x3dc10331	0.09424437
67	0xbd820294	-0.06348148
68	0x3cd6fa00	0.026242256
69	0xbb8c6319	-0.0042842743
70	0x3df58b7d	0.11989496
71	0x3d7d2a7a	0.061808087
72	0x3e3189b4	0.17337686
73	0xbdbbd137	-0.09170764
74	0xbedb47ea	-0.42828304
75	0xbd52a2c6	-0.051424764
76	0xbd04cfcd	-0.032424737
77	0x3dc4e589	0.09614093
78	0x3d5d9c80	0.05410433
79	0xbc93b7b1	-0.018031927
80	0xbd42143a	-0.04738257
81	0xbe290de1	-0.165092
82	0x3c972682	0.01845098
83	0x3c362500	0.01111722
84	0x3d3a6664	0.045507804
85	0xbdcbb639	-0.099468656
86	0x3c985543	0.018595343
87	0xbe2119d4	-0.15732509
88	0xbe146d17	-0.1449474
89	0x3da40048	0.08007866
90	0x3d986502	0.07441141
91	0xbdd4fa47	-0.10399299
92	0xbae00424	-0.0017091078
93	0x3cd61bb3	0.026136255
94	0xbd4b267d	-0.049597252
95	0x3f5d1a26	0.86368024
96	0x3df04141	0.11731196
97	0xbe35511a	-0.17706719
98	0xbdcb25a5	-0.099192895
99	0xbc83a3fd	-0.016069407
100	0xbd02c2fa	-0.031924225
101	0x3e584c73	0.21122913
102	0xbe1f000b	-0.1552736
103	0xbe45d2ae	-0.19318649
104	0x3e2359f3	0.15952282
105	0xbc86a005	-0.016433725
106	0xbe60c738	-0.21950996
107	0x3da26af8	0.07930559
108	0x3d3cad8c	0.046063945
109	0xbda13122	-0.078706995
110	0x3e8db99f	0.2768068
111	0xbf61f6f5	-0.8826745
112	0xbd697682	-0.056997783
113	0xbec3503f	-0.3814716
114	0xbf2181c8	-0.63088655
115	0xbd95af67	-0.07308846
116	0xbe1fec66	-0.15617523
117	0xbe692c66	-0.22770843
118	0xbea989bf	-0.33112904
119	0xbddb94b1	-0.1072172
120	0xbe0dcb3f	-0.13847063
121	0xbe17aadd	-0.14811273
122	0xbe2ab14a	-0.16669193
123	0xbe62a81e	-0.22134444
124	0xbe6ad6c6	-0.22933492
125	0xbe79747f	-0.24360846
126	0xbe8d555c	-0.27604187
127	0xbfc2e1f6	-1.5225208
128	0xbdd8ec08	-0.105918944
129	0xbe96fb64	-0.2948867
130	0xbe16e342	-0.1473513
131	0xbce51892	-0.027965818
132	0xbe2dc54c	-0.16969794
133	0xbe226c6d	-0.15861674
134	0xbe9cc015	-0.30615297
135	0xbef238d6	-0.47308987
136	0xbdc87f39	-0.09789891
137	0xbe7314b7	-0.23738371
138	0xbdee6456	-0.11640231
139	0xbd116668	-0.035498053
140	0x3cdf3cb1	0.02725062
141	0xbd8fd7b8	-0.07023567
142	0xbd392c7e	-0.045208447
143	0xbfbe0489	-1.4845134
144	0x3cfd929a	0.030953694
145	0xbde2bc88	-0.11071116
146	0xbe31eccd	-0.17375489
147	0x3c0df6c2	0.008664789
148	0xbe2748fc	-0.16336435
149	0xbd6e7bfe	-0.058223717
150	0xbd8141c4	-0.06311372
151	0xbf02e7dd	-0.51135045
152	0xbedb063b	-0.4277819
153	0xbea69809	-0.3253787
154	0xbee5ad80	-0.44858932
155	0xbefd557b	-0.4947928
156	0xbead2d73	-0.33823738
157	0xbea05e36	-0.31321877
158	0x3c568f4d	0.013095689
159	0x3d555b02	0.052088745
160	0xbe448d47	-0.19194518
161	0xbea026e4	-0.3127967
162	0xbdb87627	-0.09006911
163	0xbe35a5e8	-0.1773907
164	0xbe4411e3	-0.19147448
165	0xbea883a6	-0.3291294
166	0xbec681d1	-0.38770917
167	0x3e739e23	0.23790793
168	0xbed277b8	-0.41106963
169	0xbee45543	-0.445963
170	0xbbe3c30b	-0.006950741
171	0xbee0e50b	-0.43924746
172	0xbebcff83	-0.3691369
173	0xbe88161a	-0.26579362
174	0xbddf16c8	-0.10893017
175	0xbf380a4a	-0.718907
176	0xbe2decbc	-0.16984838
177	0x3db80bab	0.089866005
178	0x3d79b481	0.060963158
179	0xbe688d5e	-0.22710177
180	0x3df78a4b	0.12086924
181	0xbe7c61ea	-0.24646726
182	0x3d9bd4ea	0.076089695
183	0xbe8e3bed	-0.27780095
184	0xbd4f5aea	-0.05062381
185	0xbe272802	-0.16323856
186	0xbeb0d44b	-0.34536967
187	0xbe181371	-0.14851166
188	0xbe215611	-0.15755488
189	0xbe515b63	-0.20445018
190	0xbdfb13a2	-0.12259604
191	0xbec8dc15	-0.3923041
192	0x3e216cb2	0.1576412
193	0x3e22f3cb	0.15913312
194	0x3d4c2c4f	0.049846943
195	0xbbebb14c	-0.0071927663
196	0x3dadbbf6	0.08483116
197	0x3e4c5e5a	0.19957867
198	0x3dcc0101	0.09961129
199	0x3df1e053	0.118103646
200	0xbd0c632a	-0.034274258
201	0x3c7e54a5	0.0155231105
202	0x3e87a4e3	0.26492986
203	0x3dfc00ce	0.12304841
204	0x3d9102a6	0.07080583
205	0xbdfc87bd	-0.123305775
206	0xbe261659	-0.16219462
207	0xbd4a9583	-0.04945899
208	0x3e4ef46c	0.20210427
209	0x3e9094d3	0.28238544
210	0x3ec1c420	0.37844944
211	0x3e9b6c77	0.3035619
212	0x3d0d4246	0.03448703
213	0x3daec1e5	0.08533076
214	0x3e4d7dd6	0.20067534
215	0x3e41aac2	0.18912795
216	0x3e91fb00	0.2851181
217	0x3e5bbc9a	0.21458665
218	0x3dd12ad7	0.10213249
219	0x3e5dd50e	0.21663305
220	0x3e2f6d72	0.17131594
221	0x3e0206f8	0.12697971
222	0xbd0eafd0	-0.034835637
223	0xbcb99b47	-0.02265705
224	0xbe026efc	-0.1273765
225	0xbd21dac9	-0.03951529
226	0x3d40dd88	0.04708627
227	0x3dcecbdd	0.100974776
228	0x3aba4459	0.0014211043
229	0xbdd6f563	-0.104960226
230	0xbe61e370	-0.22059417
231	0x3e43dd5f	0.19127415
232	0x3d1dfea9	0.03857294
233	0x3ddcb9cf	0.10777628
234	0xbe921f7c	-0.28539646
235	0x3c2ee008	0.01067353
236	0xbca574ca	-0.02019729
237	0xbd9101a7	-0.07080393
238	0xbe53be88	-0.2067815
239	0xbf65038d	-0.89458543
240	0x3d96bfad	0.07360778
241	0xbd901446	-0.07035117
242	0xbe09000d	-0.13378926
243	0xbe46c6a1	-0.19411708
244	0xbe0ec2cb	-0.13941495
245	0xbd1b7022	-0.037948735
246	0xbdc06ebf	-0.09396123
247	0xbd36d67f	-0.044638153
248	0xbd82ce9c	-0.06387064
249	0x3e04e75d	0.12978883
250	0x3e5c2f8a	0.2150251
251	0xbde7ba9b	-0.11314889
252	0xbd322b44	-0.043498293
253	0xbd83123f	-0.063999645
254	0xbe0ce457	-0.1375898
255	0x3f2905fd	0.6602476

encoder.rnn.weight_hh_l0 f4 [192, 64]
0	0x3e28ded5	0.16491254
1	0xbd5f9d2a	-0.054593243
2	0xbdd0de06	-0.101985976
3	0xbe0ec61f	-0.13942765
4	0xbe3a30bd	-0.18182655
5	0x3e58eff0	0.21185279
6	0x3da6c4f9	0.08143038
7	0x3d46af04	0.04850675
8	0x3d4888d7	0.048958626
9	0xbede9159	-0.43470266
10	0x3d8ca098	0.06866568
11	0x3dd2a98b	0.10286244
12	0x3d7856ee	0.060629778
13	0xbd6136c0	-0.054983854
14	0x3d3d1947	0.046166684
15	0x3e8b4e8e	0.2720837
16	0xbe13b9f3	-0.14426403
17	0xbe2023b1	-0.15638615
18	0x3eacfbd7	0.3378589
19	0xbd37defe	-0.044890396
20	0x3de05f1a	0.10955639
21	0x3e0a1493	0.13484411
22	0x3d3a49e2	0.045480616
23	0xbe3545bd	-0.17702384
24	0xbebb7cce	-0.36618656
25	0xbd8aa983	-0.06770613
26	0xbd58ba25	-0.052911896
27	0x3de36871	0.11103905
28	0x3d2c9ec7	0.04214361
29	0xbe9793e7	-0.29605028
30	0xbe633c94	-0.22191077
31	0xbe8c9b29	-0.27462128
32	0xbe1716ff	-0.14754866
33	0x3cafc430	0.021455854
34	0xbe139844	-0.14413553
35	0x3ebeac49	0.37240818
36	0x3e22029b	0.15821306
37	0x3cbe0a0a	0.023198146
38	0xbe0710e6	-0.1319004
39	0xbdd5fe5b	-0.10448905
40	0x3d211151	0.039323155
41	0xbcaa2729	-0.020770626
42	0xbba3ec77	-0.005002554
43	0xbea2de4b	-0.3181022
44	0xbeb37896	-0.35052937
45	0x3cda5336	0.026651006
46	0x3e1d3d23	0.15355353
47	0xbde2c616	-0.11072938
48	0x3ef5c808	0.48004174
49	0xbd4aed56	-0.049542747
50	0xbe37b43e	-0.1793985
51	0x3dc5eb7a	0.09664054
52	0xbd7ff43d	-0.062488783
53	0x3eb07472	0.3446384
54	0x3d9a23bd	0.07526348
55	0x3e8cc669	0.27495125
56	0x3e3e0791	0.18557574
57	0x3e8612ce	0.26186222
58	0x3d84e3df	0.064887755
59	0x3e1b417f	0.15161704
60	0xbd33364f	-0.043752965
61	0xbec88f06	-0.39171618
62	0xbea87dbc	-0.32908428
63	0xbdfe543c	-0.1241841
64	0x3db04d98	0.0860855
65	0x3d9a6f46	0.07540755
66	0xbed5ad5b	-0.41733822
67	0x3e2ab90f	0.16672157
68	0xbe48372f	-0.19552301
69	0xbda1a4e5	-0.07892779
70	0xbf15c7d4	-0.5850804
71	0xbec829e0	-0.39094448
72	0x3cfa369e	0.030543622
73	0x3d400023	0.04687513
74	0x3ecd9cdc	0.40158737
75	0xbe3501b8	-0.17676437
76	0x3dd1546b	0.102211796
77	0xbdc57efe	-0.096433625
78	0x3e73ab0f	0.23795722
79	0x3d4cb9ba	0.04998181
80	0xbdcd0386	-0.10010438
81	0x3eaf57cd	0.34246674
82	0x3dba3fcf	0.09094202
83	0x3c9f3777	0.019435627
84	0x3e463765	0.19357069
85	0x3e22dd4d	0.15904732
86	0x3e446f89	0.19183172
87	0xbea6ab09	-0.32552364
88	0x3d39ed9a	0.04539261
89	0xbdd770fc	-0.10519597
90	0xbd86e524	-0.06586674
91	0x3e2a5a47	0.16636
92	0xbdd776ed	-0.1052073
93	0x3d4ce2b5	0.050020892
94	0xbe5594fc	-0.20857614
95	0xbed1a3cc	-0.4094528
96	0x3d3b8cb4	0.04578848
97	0x3e75cde7	0.24004327
98	0x3d97046c	0.0737389
99	0xbd701b0c	-0.058619544
100	0x3d79fca5	0.061031956
101	0xbe76dec5	-0.24108417
102	0x3e628ac4	0.22123247
103	0xbe4858f6	-0.19565186
104	0x3e0af652	0.13570526
105	0x3d64dc83	0.05587436
106	0x3dc02ecf	0.09383928
107	0x3e16800e	0.14697286
108	0x3dc0773b	0.093977414
109	0x3e9d171c	0.30681694
110	0xbd54fe06	-0.052000068
111	0xbe572fdc	-0.2101435
112	0x3db79967	0.08964806
113	0xbde16a68	-0.110066235
114	0x3cb87f28	0.02252157
115	0x3cfbe2ac	0.030747734
116	0xbe41af0b	-0.1891443
117	0x3eb5283c	0.3538226
118	0xbd85e1c7	-0.06537204
119	0x3d50f515	0.05101498
120	0x3da78e06	0.08181386
121	0xbea241eb	-0.31690916
122	0xbea527f5	-0.32257047
123	0xbee6e4e5	-0.45096508
124	0xbe4550c8	-0.19269097
125	0x3e11d13e	0.14239976
126	0x3d0d61b6	0.034517013
127	0xbe1ca41e	-0.1529698
128	0xbe8aa409	-0.27078274
129	0x3d4eda87	0.050501373
130	0x3e8248c8	0.25446153
131	0x3dc23146	0.094820544
132	0xbcc7e27a	-0.024399985
133	0xbcc199f2	-0.023632977
134	0x3e549397	0.20759426
135	0xbdbf5205	-0.09341816
136	0x3d063283	0.032763015
137	0x3cbcefa7	0.023063494
138	0x3ea870bc	0.3289851
139	0x3e246e34	0.16057664
140	0xbe484258	-0.19556558
141	0x3c4b742e	0.012417836
142	0xbb36f672	-0.002791789
143	0xbd113422	-0.03545011
144	0x3d7e795d	0.06212746
145	0x3c873dfa	0.016509045
146	0x3e05235b	0.13001768
147	0xbdf9b785	-0.12193207
148	0xbd8e4d95	-0.06948391
149	0x3d84f2c1	0.06491614
150	0x3bdb8a83	0.0066998615
151	0xbe30a757	-0.17251335
152	0xbd6f7f4d	-0.058471013
153	0xbd4a2883	-0.04935504
154	0xbe6938ed	-0.22775622
155	0xbdd26898	-0.10273856
156	0xbd6b9803	-0.057518017
157	0xbe096f31	-0.13421322
158	0x3ca74a54	0.020421185
159	0xbdbe7082	-0.09298803
160	0xbbd5e510	-0.0065275505
161	0x3e0a3394	0.13496238
162	0xbc751308	-0.014958151
163	0x3e074773	0.1321085
164	0x3e2bfbc1	0.16795255
165	0xbd5d722f	-0.054063972
166	0xbe75236d	-0.23939295
167	0xbe2d154b	-0.16902654
168	0x3d33f99f	0.04393923
169	0x3d4292c3	0.047503244
170	0x3c704d1d	0.014666823
171	0x3e2345b1	0.15944554
172	0x3e2dc368	0.16969073
173	0x3d749541	0.059712652
174	0xbc2767c8	-0.0102176145
175	0xbe195be1	-0.14976455
176	0x3e2c8d53	0.16850786
177	0x3ce28c61	0.027654829
178	0x3d239555	0.039937336
179	0xbe1679cb	-0.14694898
180	0xbe024ee1	-0.12725402
181	0x3e0b641e	0.1361241
182	0xbd94e55a	-0.07270308
183	0xbbe29a72	-0.006915384
184	0x3d732f8b	0.059371512
185	0xbe1e034f	-0.1543095
186	0xbd9e9455	-0.07743136
187	0xbe599759	-0.21249141
188	0x3d2c4dd6	0.042066418
189	0x3ca57751	0.020198496
190	0x3e3fbdb4	0.1872471
191	0xbe0d8778	-0.13821208
192	0xbe150664	-0.14553219
193	0xbe294d19	-0.16533317
194	0x3e588ab5	0.21146663
195	0xbdfcd5c0	-0.12345457
196	0x3e080b35	0.13285525
197	0x3d0bfe6b	0.03417818
198	0x3d382a2f	0.044962104
199	0x3d74c0e1	0.059754256
200	0xbca520c7	-0.020157231
201	0x3c3ef4eb	0.011655073
202	0xbdff790e	-0.12474261
203	0xbe3badef	-0.18328069
204	0xbdbf921a	-0.093540385
205	0x3dbd0d36	0.092310354
206	0xbdf7b5f2	-0.1209525
207	0xbd274dd7	-0.04084572
208	0x3d2ee850	0.04270202
209	0xbd8c405e	-0.068482146
210	0xbde535b7	-0.11191886
211	0x3db2d955	0.08732859
212	0x3ca6a345	0.020341525
213	0x3c488e97	0.012241027
214	0x3cd1309c	0.025535874
215	0x3ce52ed7	0.027976437
216	0x3e7de366	0.24793777
217	0x3dd8806c	0.105713695
218	0xbe053082	-0.13006786
219	0xbe34f7b9	-0.17672624
220	0x3bf9ed28	0.007627148
221	0x3dc0b802	0.09410097
222	0xbbd1c8b5	-0.0064021
223	0x3e7da1a8	0.24768698
224	0xbe0b5f14	-0.13610488
225	0x3e061769	0.13094868
226	0x3d909808	0.07060248
227	0xbe89bc56	-0.269015
228	0xbe0ba053	-0.13635378
229	0xbdfb4d89	-0.12270648
230	0x3dbbdcff	0.09173011
231	0xbc1e2e2d	-0.009654564
232	0xbe090376	-0.13380226
233	0xbddea951	-0.10872138
234	0xbd103acd	-0.035212327
235	0xbd6b4289	-0.0574365
236	0xbcaf86e4	-0.021426626
237	0x3d14be74	0.036314443
238	0x3d8bcb0d	0.06825838
239	0x3e09986e	0.13437054
240	0xbb04a132	-0.0020237681
241	0x3e13b6c1	0.14425184
242	0x3d1a71e3	0.037706267
243	0xbeb0cd51	-0.34531644
244	0x3dda3356	0.10654323
245	0xbdc2a610	-0.0950433
246	0xbe23e110	-0.16003823
247	0xbe0a490a	-0.13504425
248	0x3cf384fd	0.0297265
249	0x3dfcac8b	0.123375975
250	0x3e08f192	0.13373402
251	0x3cdc04f2	0.026857827
252	0x3e8e799d	0.2782716
253	0xbc7075bb	-0.014676507
254	0xbdb09c6d	-0.08623586
255	0xbd0204ca	-0.03174285

encoder.rnn.bias_ih_l0 f4 [192]
0	0xbe1e82a8	-0.15479529
1	0xbe50f702	-0.20406726
2	0x3cb75340	0.022378564
3	0x3e013464	0.12617642
4	0xbd50c28a	-0.050966777
5	0xbdbfcc9e	-0.093651995
6	0x3d5f4b39	0.054515097
7	0xbe28bc9a	-0.16478196
8	0x3c7c9710	0.0154168755
9	0x3dacfdc9	0.08446843
10	0xbdea9111	-0.114534505
11	0xbe220fee	-0.15826389
12	0xbd972310	-0.073797345
13	0x3db42bfb	0.08797451
14	0x3d6b2675	0.057409722
15	0x3baa9b7c	0.0052065235
16	0xbd8606f1	-0.06544293
17	0xbe91014c	-0.28321302
18	0xbe2e767d	-0.17037387
19	0x3d9890d4	0.07449499
20	0xbde95472	-0.1139306
21	0xbe544174	-0.20728093
22	0x3c8beb37	0.017079933
23	0xbe1281b1	-0.14307286
24	0xbd1edabe	-0.038782828
25	0x3d53df00	0.05172634
26	0xbdaf201c	-0.08551046
27	0xbec3f3c4	-0.38271916
28	0x3d5c73e9	0.053821478
29	0x3d76b861	0.06023443
30	0xbe0bec15	-0.13664277
31	0xbe254c6b	-0.16142432
32	0xbe184dc6	-0.14873418
33	0xbe3d3521	-0.18477298
34	0x3d86f12e	0.0658897
35	0x3c042346	0.0080650505
36	0xbe45f4db	-0.19331686
37	0x3dd9c483	0.10633185
38	0x3dfc9afb	0.12334248
39	0xbdeaffde	-0.11474584
40	0xbdd0e244	-0.10199407
41	0x3d83f577	0.06443303
42	0xbe23d6a2	-0.15999845
43	0x3d57eef2	0.05271811
44	0xbe0beb23	-0.13663916
45	0xbe9e8108	-0.30957818
46	0x3e6a17cd	0.22860642
47	0x3d3c93b4	0.0460393
48	0xbccc5286	-0.024941694
49	0x3ae3ff7a	0.0017394864
50	0xbdacfc38	-0.084465444
51	0xbc24887c	-0.010042306
52	0x3e17512d	0.1477706
53	0xbe049d87	-0.12950717
54	0xbd66a5cf	-0.05631047
55	0xbe038c5c	-0.12846512
56	0xbcc9ffdb	-0.024658134
57	0xbe65f185	-0.22455414
58	0xbe4dccc4	-0.20097643
59	0xbe25e44f	-0.16200374
60	0xbd4a9b11	-0.04946429
61	0x3ddaa4f9	0.10675997
62	0x3e339148	0.17535889
63	0xbd3eb895	-0.04656275
64	0x3ebb5fb5	0.36596456
65	0xbd0e36db	-0.034720283
66	0xbd5b47d0	-0.053535283
67	0x3f0a12c6	0.53934896
68	0xbd645876	-0.055748425
69	0xbde85cb2	-0.11345805
70	0xbd4f2c45	-0.050579328
71	0xbd3270f5	-0.043564755
72	0xbde46484	-0.11151984
73	0x3cf1f85e	0.029537376
74	0xbe5128d2	-0.20425728
75	0x3c5c4562	0.0134442765
76	0xbe810f1e	-0.25206846
77	0x3f0df9be	0.554592
78	0xbc003bd8	-0.007826768
79	0x3e6b0734	0.22951967
80	0x3d1b8eec	0.037978098
81	0xbe086deb	-0.1332318
82	0xbde23b14	-0.110464245
83	0x3d799b42	0.06093908
84	0xbe0b4013	-0.13598661
85	0xbe24f1fa	-0.16107932
86	0x3da2c87f	0.07948398
87	0x3dc491e9	0.09598143
88	0xbe985145	-0.29749504
89	0xbc2c651e	-0.010522155
90	0xbe293f78	-0.16528118
91	0xbdb72e0c	-0.089443296
92	0x3e873de7	0.26414415
93	0x3e9bb28a	0.30409652
94	0x3d159d4f	0.036526974
95	0x3b5f8df4	0.003411171
96	0xbe9dcf01	-0.30821994
97	0xbdbdd4b3	-0.09269085
98	0x3ea29f45	0.31762138
99	0x3e699343	0.22810082
100	0xbe3db172	-0.18524721
101	0xbe0d3855	-0.1379102
102	0xbe7ca3ab	-0.2467181
103	0x3e608fc7	0.21929847
104	0xbe1316e9	-0.14364208
105	0x3e83a3ef	0.2571101
106	0x3e0f891a	0.14017144
107	0xbcbb2b73	-0.022847867
108	0xbcad9008	-0.021186844
109	0x3ed4280d	0.41436806
110	0x3d65421a	0.055971242
111	0x3dbd48b3	0.09242382
112	0xbd846234	-0.06464043
113	0x3e649deb	0.22325866
114	0x3cd19aa3	0.025586432
115	0xbd8b662c	-0.06806597
116	0xbdc87738	-0.09788364
117	0xbd0c255b	-0.034215312
118	0xbe05a6c1	-0.13051893
119	0xbd48c09a	-0.049011804
120	0x3d88208e	0.06646834
121	0xbd2f0278	-0.042726964
122	0x3ea4656d	0.32108632
123	0xbe81bd9a	-0.25339967
124	0x3e984cc4	0.29746068
125	0x3f1bd5a3	0.6087286
126	0x3e25e245	0.16199596
127	0x3e1c4100	0.1525917
128	0xbc8542fb	-0.01626729
129	0x3d5b7b0e	0.05358415
130	0xbc18a4af	-0.009316607
131	0xbd106b84	-0.035258785
132	0x3c20d47a	0.009816283
133	0x3d579baf	0.052638706
134	0x3d4efd39	0.05053446
135	0xbc629256	-0.0138288345
136	0x3af2d505	0.001852662
137	0x3e6e6c97	0.23283611
138	0x3dd1012f	0.10205304
139	0x3e0ab816	0.13546786
140	0x3db09cd8	0.086236656
141	0xbd6e0fe2	-0.058120616
142	0xbc2c0097	-0.0104981875
143	0x3dc86557	0.09784954
144	0x3e0bcee5	0.13653143
145	0x3d894e60	0.06704402
146	0x3e314a63	0.17313533
147	0x3cfa355d	0.030543024
148	0x3cf3c002	0.029754642
149	0x3e03f9ca	0.12888256
150	0x3d8bdc0a	0.068290785
151	0xbd9c058c	-0.076182455
152	0xbe43f1f2	-0.19135264
153	0xbe2f8742	-0.1714144
154	0x3dc1c934	0.094622046
155	0xbd3a90cd	-0.04554825
156	0x3d456453	0.04819138
157	0xbe07faac	-0.13279217
158	0xbe1b20b4	-0.15149194
159	0x3d8e0cac	0.06936011
160	0xbe0fb866	-0.14035186
161	0x3e02e605	0.12783058
162	0xbc46da64	-0.012137029
163	0x3e0aa474	0.13539296
164	0xbd98712a	-0.07443459
165	0x3ded514c	0.11587772
166	0x3d83698e	0.06416617
167	0x3d9e4500	0.077280045
168	0x3dcf9159	0.10135145
169	0xbd96534f	-0.073401086
170	0x3ddbf4a6	0.10740022
171	0xbe697070	-0.22796798
172	0xbdb95d0b	-0.0905095
173	0x3d98efc3	0.07467606
174	0x3cc85d2d	0.024458492
175	0xbe160b56	-0.14652762
176	0xbdb217d1	-0.08695949
177	0x3e55bc56	0.20872626
178	0xbe1b3f97	-0.15160976
179	0x3c869976	0.016430598
180	0x3e1ce0a2	0.15320066
181	0x3cff7b72	0.031186793
182	0xbdbb9daa	-0.091609314
183	0x3daa1177	0.083041124
184	0x3d9990da	0.07498331
185	0xbc46086e	-0.012086971
186	0xbdf28847	-0.11842399
187	0xbd82cf24	-0.06387165
188	0xbcb9dbf9	-0.022687899
189	0x3e323a57	0.17405067
190	0xbd924811	-0.07142652
191	0x3d902fa2	0.07040335

encoder.rnn.bias_hh_l0 f4 [192]
0	0xbda5caaf	-0.080952995
1	0xbe0a14ef	-0.13484548
2	0x3cb2d748	0.02183117
3	0x3e8214a0	0.2540636
4	0x3cb70aef	0.02234408
5	0x3dbe709e	0.09298824
6	0x3dc354f2	0.095376864
7	0xbd7c1340	-0.061541796
8	0xbd9cc73f	-0.07655191
9	0x3de39f28	0.11114341
10	0xbd4aaa88	-0.049479038
11	0xbe08d263	-0.13361506
12	0xbe0225b1	-0.1270969
13	0x3ddc9df3	0.10772314
14	0xbd717485	-0.058949012
15	0xbdf7c94f	-0.120989434
16	0x3d49bb65	0.04925098
17	0xbe8325e9	-0.2561486
18	0xbe6df592	-0.23238209
19	0xbd4f1a46	-0.050562166
20	0xbde34d60	-0.110987425
21	0xbe1ff71f	-0.15621613
22	0x3cd7b216	0.026330035
23	0xbe39b807	-0.18136607
24	0xbe1dce4b	-0.15410726
25	0x3cbec693	0.023288047
26	0xbd9a4c67	-0.07534104
27	0xbea3e39d	-0.32009593
28	0x3d029000	0.03187561
29	0x3d80f774	0.06297198
30	0xbe7ff9ff	-0.2499771
31	0xbe02bb3e	-0.1276674
32	0x3cd9866a	0.026553351
33	0xbdfa5b65	-0.122244634
34	0x3e38ee38	0.18059623
35	0xbe26f140	-0.16302967
36	0xbe2fbc46	-0.17161664
37	0xbd809f70	-0.0628041
38	0xbd9a3fe0	-0.075317144
39	0x3c7d6df9	0.015468114
40	0x3d8d1902	0.068895355
41	0xbd7dc62f	-0.06195658
42	0xbe394ad0	-0.18094945
43	0xbc7e35d8	-0.015515767
44	0x3d4e8fae	0.050429992
45	0xbe6fb481	-0.234087
46	0x3dd1a76e	0.10237013
47	0x3d875cce	0.06609498
48	0xba4383c1	-0.00074582925
49	0x3d82d42c	0.06388125
50	0xbe497e17	-0.19677006
51	0x3c609ec5	0.013709729
52	0x3d67b10f	0.05656534
53	0xbe07b8d2	-0.13254097
54	0x3dc79c9a	0.09746666
55	0xbe45cd8a	-0.19316688
56	0xbd1a3e00	-0.037656784
57	0xbdb94535	-0.09046403
58	0xbe27b63e	-0.16378114
59	0xbe12d9ba	-0.14340869
60	0xbe12c3b5	-0.14332469
61	0x3d3d0e00	0.04615593
62	0x3e151d9a	0.14562073
63	0xbde62030	-0.11236608
64	0x3ec6dd20	0.3884058
65	0xbe041c25	-0.12901361
66	0xbdb9f36e	-0.09079634
67	0x3eb8738e	0.3602566
68	0xbe23eb0d	-0.16007634
69	0xbda8458f	-0.08216392
70	0x3b030dbb	0.0019997198
71	0x3d8dac48	0.06917626
72	0xbd057c85	-0.032589454
73	0xbe2f0fb6	-0.17095837
74	0xbdec6985	-0.11543564
75	0x3d98bad9	0.07457513
76	0xbd361582	-0.044454105
77	0x3f0f4216	0.55960214
78	0xbd792ebd	-0.06083559
79	0x3ccd5dc5	0.025069127
80	0x3d545805	0.051841754
81	0x3b882212	0.004154452
82	0x3c2dfc63	0.010619256
83	0x3c8d6b9c	0.017263226
84	0x3b0921bb	0.0020924646
85	0xbe326cae	-0.1742427
86	0xbd03edd4	-0.032209232
87	0x3e44ae3c	0.1920709
88	0xbe236e83	-0.15960126
89	0xbe2ad60d	-0.16683216
90	0xbe5b21f7	-0.21399675
91	0x3cdfad79	0.027304398
92	0x3e61ee52	0.22063568
93	0x3dd05169	0.10171778
94	0xbd917f29	-0.07104332
95	0x3dd0eb41	0.10201121
96	0xbe2295b6	-0.15877423
97	0xbaac1687	-0.0013129272
98	0x3e3e0da7	0.18559895
99	0x3eb61b52	0.3556772
100	0xbca7127b	-0.020394554
101	0xbeb0b5b6	-0.34513634
102	0xbe8e74e1	-0.27823547
103	0x3e8753db	0.26431164
104	0xbd74a0b2	-0.059723563
105	0x3e606a8c	0.21915644
106	0x3dffa3bf	0.12482404
107	0x3d4eb30e	0.05046373
108	0xbd3c2aec	-0.04593937
109	0x3e648022	0.22314504
110	0x3e4e399c	0.20139164
111	0x3d9c587f	0.07634067
112	0x3dc66918	0.09688014
113	0x3e56e585	0.20985992
114	0x3cb20dfc	0.021735184
115	0xbd1c42f1	-0.038149778
116	0xbd386be4	-0.045024768
117	0xbd08c3c0	-0.033389807
118	0xbba1b9cd	-0.0049354793
119	0xbe3018b4	-0.17196923
120	0xbd721d06	-0.05910971
121	0x3d07523d	0.033037413
122	0x3ddeb6a0	0.10874677
123	0xbe03561c	-0.12825817
124	0x3e59fb2f	0.21287225
125	0x3f2ee5d1	0.6831942
126	0x3e82d54c	0.25553358
127	0x3dfbdd76	0.122981
128	0xbd41c4e0	-0.047306895
129	0x3d36fb49	0.044673238
130	0x3b9f174a	0.004855071
131	0xbd16087c	-0.036629185
132	0xbe14c7e9	-0.14529385
133	0x3cc871e0	0.024468362
134	0x3dbaa520	0.09113526
135	0xbe1a64e8	-0.15077555
136	0xbdc6cc41	-0.09706927
137	0x3e3b9b19	0.18320884
138	0x3d4f7a20	0.050653577
139	0x3d7184bf	0.058964487
140	0xbcf08b30	-0.029363245
141	0x3dd31d20	0.103082895
142	0x3d75c1e5	0.059999365
143	0x3d929a07	0.07158285
144	0x3d2a5f9a	0.04159508
145	0x3db3dba4	0.087821275
146	0x3d68e6bb	0.056860667
147	0xbe1da0f0	-0.15393424
148	0x3e1c488e	0.15262052
149	0x3d80f994	0.06297603
150	0x3def76c2	0.11692573
151	0xbe4083a9	-0.18800224
152	0xbe012db4	-0.1261509
153	0xbe25a7bf	-0.16177271
154	0x3dbd8a1a	0.092548564
155	0xbd9ea14d	-0.077456094
156	0x3e544564	0.20729595
157	0xbd8bcf0d	-0.06826601
158	0xbd9b86d2	-0.07594074
159	0xbdd504f7	-0.104013376
160	0xbe0f9d91	-0.1402495
161	0x3d2454f6	0.040120088
162	0xbd6b85ff	-0.057500836
163	0x3d00a04e	0.03140288
164	0x3ced0880	0.028934717
165	0x3e12376a	0.14278951
166	0x3b8bd646	0.0042674867
167	0x3d891700	0.0669384
168	0xbdaaf659	-0.08347768
169	0xbe253104	-0.16131979
170	0x3d4f7d69	0.05065671
171	0xbd147705	-0.03624632
172	0xbda4bba3	-0.08043601
173	0xbdb93446	-0.090431735
174	0xbcc2a966	-0.023762416
175	0x3d8d9d2a	0.06914742
176	0x3dc18769	0.094496556
177	0x3e63668d	0.22207089
178	0xbe3b64fe	-0.18300244
179	0x3d18e5a1	0.037328366
180	0x3d838f5e	0.064238295
181	0xbd05a8d2	-0.032631703
182	0xbdbf7319	-0.09348125
183	0xbd946727	-0.07246237
184	0x3d2f62c5	0.042818803
185	0xbd43a942	-0.04776884
186	0xbd68b6fd	-0.056815136
187	0xbd6745c8	-0.056463033
188	0x3cb9abfd	0.022665018
189	0x3e20021c	0.15625805
190	0xbe18d3b3	-0.14924507
191	0x3d7713ae	0.060321502

encoder.rnn.weight_ih_l1 f4 [192, 64]
0	0xbdd60e9b	-0.104520045
1	0x3d21453d	0.03937267
2	0xbf3a2317	-0.7270979
3	0xbd320440	-0.043461084
4	0xbea06069	-0.31323555
5	0x3b86b45e	0.004110857
6	0xbee5274a	-0.44756538
7	0xbd9c92ad	-0.07645164
8	0xbbe77220	-0.0070631653
9	0x3e66a6ce	0.22524568
10	0x3e18c475	0.14918692
11	0xbe946181	-0.2898064
12	0x3e3f85aa	0.18703333
13	0xbd8b399c	-0.067980975
14	0x3e88b9a9	0.26704147
15	0x3e81f6fd	0.2538375
16	0xbdf22771	-0.11823929
17	0x3df5cd83	0.12002089
18	0xbee6de2c	-0.4509138
19	0xbea65188	-0.32484078
20	0x3e6dadd6	0.23210844
21	0xbd6f8935	-0.05848046
22	0xbdc2d4d1	-0.09513248
23	0xbb2a88d7	-0.0026021504
24	0x3d84706e	0.06466757
25	0xbe71e5ce	-0.2362282
26	0xbcc31fa1	-0.023818793
27	0x3e84e012	0.25952202
28	0x3df5c12d	0.11999736
29	0xbdc0628f	-0.093937986
30	0x3d53a4bb	0.05167077
31	0xbe039709	-0.12850584
32	0xbe6f7e39	-0.23387994
33	0x3d8eb35e	0.06967805
34	0xbe341d44	-0.17589289
35	0xbda973f1	-0.08274067
36	0xbd8773cb	-0.06613883
37	0xbd43778a	-0.047721423
38	0x3ec506a3	0.38481626
39	0xbc7b198e	-0.015325917
40	0x3e71b1ca	0.23602977
41	0xbe154397	-0.14576565
42	0xbd8e8c33	-0.06960335
43	0x3e54bb57	0.2077459
44	0xbd32948c	-0.043598697
45	0x3ed3ccf5	0.41367307
46	0xbd9b2af3	-0.07576551
47	0xbb390c4e	-0.0028236094
48	0x3ef39adf	0.47579095
49	0xbd4f8b7c	-0.050670132
50	0x3ef5284c	0.47882307
51	0xbeb9b03d	-0.36267272
52	0xbe955649	-0.29167393
53	0xbd76f236	-0.060289584
54	0x3e50d7e7	0.2039486
55	0xbef1f8ef	-0.47260234
56	0x3e135d6d	0.14391108
57	0xbed89894	-0.42303908
58	0xbd5516fa	-0.052023865
59	0xbf128497	-0.57233566
60	0xbda4f776	-0.08055012
61	0xbbcac69c	-0.006188227
62	0xbdba7ef8	-0.091062486
63	0xbd3eb20c	-0.046556517
64	0xbdf7feeb	-0.121091686
65	0x3e5ab46b	0.21357886
66	0x3d20aeaa	0.039229073
67	0x3e039d3a	0.12852946
68	0x3d8144cd	0.06311951
69	0x3e2d5a60	0.16929007
70	0x3e5cfc8d	0.21580715
71	0x3c94a795	0.018146316
72	0xbe96a70f	-0.2942433
73	0xbd805fc4	-0.06268266
74	0xbd65deca	-0.05612067
75	0xbc8c9d17	-0.01716475
76	0xbe16d160	-0.14728308
77	0xbe447604	-0.19185644
78	0xbe396d74	-0.1810816
79	0xbd98d14d	-0.07461796
80	0xbe1a69b7	-0.1507939
81	0x3e902796	0.28155202
82	0x3e1fee4d	0.15618248
83	0x3e198d7b	0.14995377
84	0x3cc9da03	0.024640089
85	0xbdb4b4f2	-0.08823575
86	0xbdb31aea	-0.08745368
87	0xbe1ca4d0	-0.15297246
88	0x3d1e432c	0.03863828
89	0x3ddff047	0.10934501
90	0xbd6242f2	-0.055239625
91	0xbeac832c	-0.33693826
92	0xbe27d56b	-0.16390006
93	0xbdf817ac	-0.1211389
94	0x3d561aef	0.05227178
95	0xbcfef79d	-0.03112393
96	0xbe2c7dbd	-0.1684484
97	0x3ccc7133	0.024956321
98	0xbe1fdfaf	-0.15612672
99	0x3edfdb8f	0.43722197
100	0xbe0e0a6c	-0.13871163
101	0xbe237235	-0.15961535
102	0xbe0a964c	-0.13533896
103	0xbda15522	-0.07877566
104	0xbd8a4163	-0.06750753
105	0x3e2b09d5	0.1670297
106	0x3e3571e3	0.17719226
107	0x3ac9e03e	0.0015401912
108	0xbe4e4098	-0.20141828
109	0xbbe99477	-0.007128294
110	0x3d306505	0.04306509
111	0xbec3bd7b	-0.382305
112	0x3f38a1dd	0.72121984
113	0xbdea6512	-0.11445059
114	0xbebbb1e0	-0.36659145
115	0xbe9b23aa	-0.30300647
116	0x3e378e43	0.17925362
117	0xbe0d46e4	-0.13796574
118	0x3e97907e	0.29602426
119	0x3bfe3998	0.0077583306
120	0x3ed2cfcf	0.4117417
121	0xbe716aaa	-0.23575845
122	0xbd3b5d31	-0.04574317
123	0x3c96158c	0.018320821
124	0xbdebf92f	-0.115221374
125	0x3ea0fe52	0.3144403
126	0x3d78826b	0.06067125
127	0x3f10b719	0.56529385
128	0x3d9abaa2	0.07555129
129	0x3ec94856	0.39313
130	0xbdffeae9	-0.124959774
131	0x3df29f9c	0.11846849
132	0xbc26b5a4	-0.010175142
133	0x3d613856	0.054985367
134	0xbe1b667a	-0.1517581
135	0x3e2b5f21	0.16735508
136	0xbeac2b20	-0.33626652
137	0x3eabf6ea	0.33586818
138	0xbeb79114	-0.35852873
139	0x3e23f269	0.16010441
140	0x3ee1fd43	0.44138536
141	0xbde9e1ba	-0.11420007
142	0x3e2edfe3	0.17077594
143	0xbd4c3ac7	-0.049860742
144	0xbd24c21e	-0.040224187
145	0x3ee4145d	0.44546786
146	0x3c89a361	0.016801538
147	0xbdd68241	-0.10474063
148	0x3e9a43d5	0.30129877
149	0x3e4c5997	0.19956051
150	0xbd3b04b9	-0.0456588
151	0xbee36a5a	-0.44417077
152	0x3e45b45d	0.19307084
153	0xbd082175	-0.033235032
154	0x3eff51cd	0.49867097
155	0xbdc31410	-0.09525311
156	0x3e70a29d	0.23499532
157	0xbdecba1f	-0.11558937
158	0xbde48b29	-0.11159355
159	0xbdf347d4	-0.118789345
160	0xbed1e63c	-0.40995967
161	0xbcec354f	-0.028834013
162	0xbe168aa8	-0.1470133
163	0x3e26fabe	0.16306588
164	0xbde1dfff	-0.11029052
165	0xbd284a2a	-0.041086353
166	0x3e9934ec	0.2992319
167	0xbdcbb071	-0.09945763
168	0xbd777f27	-0.060423996
169	0x3da18bc2	0.07887985
170	0x3ed2af35	0.41149297
171	0xbddac36a	-0.106818035
172	0xbdfb5be0	-0.12273383
173	0x3eaa8912	0.333077
174	0x3e512286	0.20423326
175	0xbe0fd37b	-0.14045517
176	0x3f2fa134	0.6860535
177	0xbdfdc0f1	-0.12390316
178	0xbdb5d50c	-0.08878526
179	0xbe60338e	-0.21894667
180	0xbe7052e4	-0.2346912
181	0x3da4b92f	0.080431335
182	0x3e2c8622	0.16848043
183	0xbe6dcfef	-0.23223852
184	0xbb84b4bf	-0.004049867
185	0xbde32b45	-0.110922374
186	0xbf2a4820	-0.66516304
187	0xbed8c5e1	-0.4233847
188	0x3e783a9d	0.24241109
189	0x3f0a0bee	0.53924453
190	0x3e10de7b	0.1414737
191	0x3dc3587f	0.09538364
192	0xbe18b528	-0.14912856
193	0xbd2b8cdc	-0.04188238
194	0xbddbc2a0	-0.10730481
195	0x3e8c8eea	0.27452785
196	0x3dc2bc40	0.09508562
197	0xbd7d5365	-0.06184711
198	0x3c935241	0.017983558
199	0xbd557377	-0.05211207
200	0xbda0b19c	-0.07846376
201	0x3e029b91	0.12754656
202	0x3c157db4	0.009124208
203	0x3d121c3a	0.03567145
204	0xbd4a2222	-0.049348958
205	0xbe917704	-0.28411114
206	0xbd69153b	-0.056905013
207	0xbe80f1d4	-0.251845
208	0x3e9485fc	0.29008472
209	0xbe2ea6fb	-0.17055885
210	0x3eccf7cf	0.40032813
211	0x3bba3eaa	0.0056837397
212	0xbd3539d4	-0.044244602
213	0xbd86819b	-0.06567689
214	0xbc82a89b	-0.015949538
215	0xbe924688	-0.28569436
216	0x3e33d2be	0.1756086
217	0x3df7a360	0.12091708
218	0xbe4ff62d	-0.20308752
219	0x3dd54da0	0.104151964
220	0x3d7832ae	0.060595207
221	0xbd9c7e0b	-0.07641228
222	0xbc863a5b	-0.016385248
223	0xbc90d5dd	-0.017680103
224	0xbc6338ab	-0.013868491
225	0x3e20acc4	0.15690905
226	0xbe79913f	-0.24371813
227	0x3d67e917	0.056618776
228	0xbd53c22e	-0.051698856
229	0xbcc53159	-0.024071382
230	0xbe803439	-0.25039843
231	0xbec64668	-0.3872559
232	0x3e83f4f2	0.25772816
233	0x3e88a10e	0.26685375
234	0xbcdc5756	-0.026897114
235	0xbd7e1c70	-0.06203884
236	0x3d0e7947	0.034783628
237	0x3de4eb7f	0.1117773
238	0xbcfe6662	-0.03105468
239	0x3e2dc1ec	0.16968507
240	0x3d5f4d98	0.05451736
241	0xbe2801a3	-0.16406874
242	0xbd10a0cf	-0.03530961
243	0x3e8b242a	0.27176028
244	0x3d455628	0.048177868
245	0xbdf61273	-0.12015238
246	0x3ea5e83c	0.32403743
247	0x3cedb627	0.029017521
248	0x3eb81b45	0.35958305
249	0x3e38d119	0.18048514
250	0x3dc74e12	0.097316876
251	0x3dde15db	0.10844012
252	0xbe4e67e1	-0.20156814
253	0x3e8acb36	0.27108163
254	0x3df1e989	0.118121214
255	0xbd4abc46	-0.049495958

encoder.rnn.weight_hh_l1 f4 [192, 64]
0	0xbe28b36f	-0.16474698
1	0xbdb99bec	-0.09062943
2	0x3e58cd67	0.21172105
3	0x3e69f7a8	0.2284838
4	0xbea166b9	-0.31523684
5	0xbe6af5db	-0.22945349
6	0xbe4d95d0	-0.2007668
7	0xbe09edba	-0.13469592
8	0x3e5fe6c3	0.21865372
9	0xbe63f639	-0.22261895
10	0xbe0050e4	-0.12530857
11	0x3da64a5d	0.081196524
12	0x3e4d22da	0.20032826
13	0x3dd817e5	0.105514325
14	0xbe9158ab	-0.2838796
15	0xbe9948c5	-0.2993833
16	0x3d89c3eb	0.067268215
17	0x3ae54f53	0.0017494954
18	0xbe0bc2b3	-0.1364849
19	0xbe64a9b6	-0.22330365
20	0xbb61ae53	-0.003443618
21	0x3d1f1bae	0.038844757
22	0xbcfcf37f	-0.030877827
23	0x3e725605	0.23665626
24	0xbd5b4875	-0.053535897
25	0xbd6ae087	-0.057343032
26	0xbdecbedc	-0.11559841
27	0x3a038a34	0.0005017847
28	0xbe08ac64	-0.13347012
29	0xbe8e9256	-0.2784602
30	0xbe94f891	-0.2909589
31	0x3e2e2cb0	0.17009234
32	0x3ee4c5d4	0.4468218
33	0xbe2becb5	-0.16789515
34	0x3dc3072c	0.09522852
35	0xbe58b736	-0.2116364
36	0x3e0c7233	0.13715439
37	0xbd186790	-0.03720814
38	0x3e81bf3f	0.25341222
39	0x3d52dcdb	0.051480155
40	0x3d5ebe92	0.05438096
41	0x3e5bc7ee	0.21462986
42	0xbe606f77	-0.2191752
43	0x3a2d7a4d	0.00066176505
44	0xbe7d2fdf	-0.24725293
45	0x3e4b1d9f	0.19835518
46	0xbe10f857	-0.14157234
47	0x3d643175	0.05571123
48	0x3c95bc73	0.018278336
49	0x3e813b0d	0.25240365
50	0x3e4df72e	0.20113823
51	0xbbd7ddb0	-0.0065877065
52	0x3d822e79	0.0635652
53	0xbcb8773b	-0.022517791
54	0x3e498b9b	0.19682162
55	0xbdefe2ed	-0.117132045
56	0x3df97f3d	0.12182472
57	0x3e3447fd	0.17605586
58	0xbef72ef5	-0.48278013
59	0xbd759d31	-0.059964363
60	0xbe42c8ea	-0.19021955
61	0xbd42a8ed	-0.04752438
62	0x3d9e062a	0.077160195
63	0xbdd013f3	-0.10160055
64	0x3c811216	0.015755694
65	0xbe5d8221	-0.21631671
66	0xbddb4781	-0.10706998
67	0xbc8850f5	-0.016640166
68	0xbe1ce7b5	-0.15322764
69	0x3e6c41ae	0.2307193
70	0x3d019301	0.031634334
71	0xbd9ba68a	-0.07600124
72	0xbd94ebfa	-0.072715715
73	0x3dd619b5	0.10454122
74	0xbc98d7b5	-0.018657545
75	0xbbba8758	-0.0056924038
76	0xbe41623e	-0.18885133
77	0xbd3cd87f	-0.046104904
78	0xbd33a4fa	-0.043858506
79	0xbcb9ee78	-0.022696719
80	0x3de70371	0.11279953
81	0xbe26cb63	-0.16288523
82	0xbdc17b7a	-0.094473794
83	0xbe3bf43f	-0.18354891
84	0x3dceaba9	0.10091335
85	0x3deb8a08	0.11500937
86	0xbe3ba3c2	-0.18324187
87	0x3dc46db7	0.09591239
88	0xbdeecda4	-0.116603166
89	0x3ec583bc	0.38577068
90	0xbd81b4b7	-0.06333297
91	0x3e45e25e	0.19324633
92	0xbb9ed90d	-0.004847652
93	0xbe4357e1	-0.19076492
94	0xbd1625e3	-0.036657225
95	0x3df900d9	0.12158365
96	0xbc8f9f14	-0.017531909
97	0xbcd3e8ec	-0.025867902
98	0x3e18c032	0.14917067
99	0x3f329442	0.69757473
100	0x3e7b0ff8	0.2451781
101	0xbe2bf00c	-0.1679079
102	0xbdcbe287	-0.09955316
103	0x3dc03451	0.093849786
104	0x3da3f5e7	0.080058865
105	0x3e18b7cf	0.14913867
106	0xbd273b9a	-0.040828325
107	0xbe565efb	-0.2093467
108	0x3e04ead2	0.12980202
109	0x3dd90650	0.10596907
110	0xbde28565	-0.11060599
111	0x3d71d523	0.059041154
112	0x3e9c1505	0.30484787
113	0x3ea5f558	0.32413745
114	0xbe1ce3d0	-0.15321279
115	0x3cf73070	0.030174464
116	0xbde94a45	-0.11391119
117	0xbe0a4fab	-0.13506953
118	0x3e7f892e	0.24954674
119	0xbd91179e	-0.07084583
120	0xbc35c994	-0.011095423
121	0x3d957a95	0.07298771
122	0x3e04772d	0.12936087
123	0x3cf19696	0.02949075
124	0xbe129dca	-0.14318004
125	0xbe1bcb54	-0.15214282
126	0xbe749af4	-0.23887235
127	0xbe641c5c	-0.22276443
128	0x3dca0245	0.09863714
129	0x3ebf4506	0.37357348
130	0x3e2025f5	0.1563948
131	0xbdb0e232	-0.08636893
132	0xbb0ef15f	-0.002181135
133	0x3d8b23ab	0.067939125
134	0x3f41bc2f	0.7567777
135	0x3e8805fa	0.2656706
136	0xbd5707da	-0.052497722
137	0xbdf09d57	-0.1174876
138	0xbdf9e4e0	-0.122018576
139	0x3d15cb6c	0.03657095
140	0x3e372036	0.17883381
141	0xbe5d2150	-0.21594739
142	0xbec46961	-0.38361648
143	0xbc149f04	-0.009071115
144	0x3b2c9b4c	0.0026337681
145	0x3dff2591	0.12458337
146	0xbe8ba06d	-0.27270833
147	0xbe026485	-0.12733658
148	0xbe8c0ce5	-0.27353588
149	0xbe91fd1f	-0.2851343
150	0xbecc764f	-0.39934012
151	0x3dfba806	0.12287907
152	0x3e311bf9	0.17295827
153	0x3e6f76bd	0.23385139
154	0xbe85ac1e	-0.26107877
155	0x3f2a62f4	0.6655724
156	0x3d932de5	0.07186488
157	0xbc6cbcf4	-0.014449347
158	0xbe8b9b42	-0.2726689
159	0x3d7c6eb7	0.061629023
160	0xbcb66ec7	-0.02226962
161	0xbe6a32ea	-0.22870985
162	0xbd2c2070	-0.042023122
163	0xbdf9e99b	-0.1220276
164	0x3e427d3e	0.18993089
165	0xbcc6af49	-0.024253504
166	0x3d081b5d	0.03322922
167	0x3e74d3db	0.23908941
168	0xbf07f116	-0.5310224
169	0xbdc3815d	-0.095461585
170	0xbc600579	-0.01367318
171	0x3cce347d	0.025171513
172	0x3db6153f	0.08890771
173	0xbd46f78b	-0.04857592
174	0x3d83f8d5	0.06443945
175	0x3c7a713e	0.015285788
176	0x3e70f8db	0.23532431
177	0x3e8e69ae	0.27815002
178	0xbd1ffffa	-0.039062478
179	0xbea1297d	-0.31476966
180	0x3e32f72e	0.17477104
181	0xbe0d6eaa	-0.13811746
182	0x3e92fb46	0.2870733
183	0xbe428e90	-0.18999696
184	0xbde90685	-0.113781966
185	0xbc8ccda4	-0.0171879
186	0xbd2d859a	-0.04236374
187	0x3c8b4257	0.016999407
188	0xbd301678	-0.042990178
189	0x3e122430	0.14271617
190	0xbda4df9f	-0.08050465
191	0xbe79f228	-0.24408782
192	0x3dfe6719	0.12422008
193	0xbc245659	-0.0100303525
194	0xbe8ac182	-0.2710076
195	0xbe022faa	-0.12713495
196	0xbe6a42bb	-0.22877018
197	0x3d392ce7	0.045208838
198	0xbe93f7f6	-0.28900117
199	0x3e45db77	0.19322
200	0x3e0bf05b	0.13665907
201	0x3daa274b	0.08308276
202	0xbd98ba12	-0.07457365
203	0x3dbd7cc9	0.092523165
204	0xbd4fb10c	-0.050705954
205	0xbdf1200c	-0.117736906
206	0x3ce332aa	0.02773412
207	0xbe72dc65	-0.23716886
208	0x3d9d935d	0.07694123
209	0xbdbb2ded	-0.09139619
210	0xbdc8ec85	-0.098107375
211	0xbd80a6e3	-0.06281831
212	0x3eb1c2f3	0.34719047
213	0x3e0d91ff	0.13825224
214	0xbe1b8315	-0.15186723
215	0x3d11d6f6	0.035605393
216	0xbdaf8da4	-0.08571938
217	0x3da4577a	0.08024497
218	0xb9f53d4e	-0.00046775717
219	0xbe34d22d	-0.176583
220	0x3e5e8657	0.21730934
221	0xbe7ff61e	-0.2499623
222	0xbdca6120	-0.098818064
223	0x3dd4700e	0.10372935
224	0xbe120abc	-0.14261907
225	0x3c498e5a	0.012302006
226	0xbd83e09d	-0.06439326
227	0x3e592f28	0.21209395
228	0xbd4a7e62	-0.049436934
229	0x3a0d3822	0.00053870876
230	0x3d242b56	0.04008039
231	0x3d6ffee3	0.05859269
232	0x3e649711	0.22323252
233	0x3bc6ce64	0.006067084
234	0x3c67e3af	0.014153405
235	0xbbb008cd	-0.005372143
236	0xbe12f4e8	-0.14351237
237	0xbd830c7f	-0.06398868
238	0xbe4137c4	-0.18868929
239	0x3e558517	0.20851551
240	0x3d327e0f	0.04357725
241	0x3ddbbaed	0.10729013
242	0xbcfe177d	-0.03101706
243	0xbd53a457	-0.0516704
244	0xbc4ec25f	-0.012619584
245	0xbdf9f2a1	-0.12204481
246	0xbdfcfefc	-0.12353322
247	0xbde450b3	-0.11148205
248	0x3e348130	0.17627406
249	0xbe393b8b	-0.1808912
250	0xbdaff1cd	-0.08591042
251	0xbd010b20	-0.03150475
252	0xbdeb1cc0	-0.11480093
253	0x3db37612	0.087627545
254	0xbe28ff3f	-0.16503619
255	0xbe3169c8	-0.17325509

encoder.rnn.bias_ih_l1 f4 [192]
0	0xbe74e926	-0.23917064
1	0xbd76e71a	-0.06027899
2	0xbe1fea86	-0.15616807
3	0xbea510c8	-0.32239366
4	0x39ef8727	0.0004568633
5	0xbdc436ae	-0.09580742
6	0xbd739c12	-0.059475012
7	0x3e4c08e4	0.19925267
8	0xbdc7d10a	-0.09756668
9	0xbe4186d1	-0.18899085
10	0x3dc0b753	0.09409966
11	0x3ec26f40	0.37975502
12	0xbdfe6fca	-0.12423666
13	0xbe10598b	-0.14096658
14	0xbe9fca40	-0.31208992
15	0xbd41e3cf	-0.047336396
16	0x3d61438c	0.05499606
17	0xbe933a48	-0.28755403
18	0x3dab156c	0.08353695
19	0x3c24e0be	0.010063348
20	0xbd7dec14	-0.06199272
21	0xbd4bcbe7	-0.049755003
22	0xbd082d8a	-0.033246554
23	0xbe722c9a	-0.23649827
24	0x3da3f42b	0.08005556
25	0xbd3e3095	-0.04643305
26	0x3d6c40ff	0.057679173
27	0x3dc5b8f3	0.09654417
28	0xbe51f77a	-0.20504561
29	0x3d9c7d4c	0.07641086
30	0xbe185b6e	-0.14878628
31	0x3cb4b4b9	0.022058832
32	0xbe719cf9	-0.23595037
33	0xbd9118c7	-0.07084804
34	0xbe15d484	-0.1463185
35	0xbe4e28ec	-0.20132798
36	0x3e51a792	0.20474079
37	0xbd989adf	-0.07451414
38	0xbd904af5	-0.07045547
39	0xbe1a046d	-0.15040751
40	0xbcf585e4	-0.02997107
41	0xbda5c47f	-0.08094119
42	0xbdd78315	-0.10523049
43	0xbe3e006d	-0.1855485
44	0xbbfca74f	-0.0077103744
45	0xbe05c5d6	-0.1306375
46	0x3d8ca530	0.068674445
47	0x3e1493f9	0.14509572
48	0xbc80783a	-0.015682328
49	0xbc5126dc	-0.012765612
50	0x3e122a92	0.14274052
51	0xbe8cc34c	-0.2749275
52	0x3dd99942	0.10624935
53	0xbe073ead	-0.13207503
54	0xbe6f71df	-0.23383282
55	0xbcaa757e	-0.020807978
56	0xbe040041	-0.12890722
57	0xbd90111c	-0.07034513
58	0xbe004563	-0.12526469
59	0xbde03622	-0.10947825
60	0xbe3f60d2	-0.18689278
61	0x3cdf32f4	0.027245976
62	0x3c678dfc	0.014132973
63	0xbd123adb	-0.03570066
64	0x3e31677d	0.17324634
65	0x3e8ee43a	0.27908498
66	0x3f6d849e	0.9278048
67	0x3f08ab6b	0.53386563
68	0x3e63f4ef	0.22261404
69	0x3ebd497b	0.36970124
70	0x3f21826b	0.6308963
71	0x3ec6fcc7	0.3886473
72	0x3e0d32ab	0.1378886
73	0x3e793081	0.24334909
74	0x3db8401f	0.08996605
75	0x3ec5918c	0.38587606
76	0x3d872e38	0.066006124
77	0x3ef92b50	0.48665857
78	0x3e8a868b	0.27055773
79	0x3e9308ca	0.28717643
80	0x3d898a22	0.067158
81	0x3e519918	0.20468557
82	0x3ea9da6d	0.33174458
83	0x3e40a3b2	0.18812445
84	0x3f030ab4	0.51188207
85	0x3e665e32	0.2249687
86	0x3f2705a3	0.65242976
87	0x3ef70a4b	0.4825004
88	0x3dc18020	0.09448266
89	0x3ea27f29	0.3173764
90	0x3f09d979	0.5384746
91	0x3ea11c64	0.31466973
92	0x3f30b2c1	0.69022757
93	0x3e16f49d	0.1474175
94	0x3e948863	0.29010305
95	0x3e155bbe	0.14585778
96	0x3dc58164	0.0964382
97	0x3e3bf3b7	0.18354689
98	0x3e831bd3	0.25607166
99	0x3f2da2ab	0.67826337
100	0x3ea482c8	0.32131028
101	0x3d278021	0.040893678
102	0x3ebc5730	0.3678527
103	0x3f80079f	1.0002326
104	0x3ed2acf6	0.41147584
105	0x3efce8ac	0.49396265
106	0x3f1bfa00	0.60928345
107	0x3f009f8a	0.5024344
108	0x3ead659b	0.3386658
109	0x3e924b78	0.28573203
110	0x3e53bbf7	0.20677172
111	0x3f05d325	0.52275306
112	0x3f154725	0.5831168
113	0x3e9dd897	0.30829307
114	0x3eecb048	0.46228242
115	0x3eb76581	0.3581963
116	0x3e969879	0.29413202
117	0x3f4b0c6f	0.7931585
118	0x3e9d6e8f	0.30748412
119	0x3e8a3d5d	0.2699994
120	0x3e1e431f	0.15455292
121	0xbcde3d11	-0.027128728
122	0x3f838b3e	1.0276868
123	0x3e181830	0.14852977
124	0x3e5d6ea3	0.21624236
125	0x3ed75599	0.42057493
126	0x3eaf56b6	0.34245843
127	0x3ec6dc81	0.38840106
128	0x3cce73c0	0.025201678
129	0xbe18d63a	-0.14925471
130	0xbda3f84a	-0.08006342
131	0xbd3fae28	-0.046796948
132	0xbe54b82c	-0.20773381
133	0xbd0c3d06	-0.034237884
134	0xbd11644e	-0.03549605
135	0x3c38c122	0.011276515
136	0x3b8e5a6f	0.0043442766
137	0xbdf293aa	-0.11844571
138	0x3d534358	0.051577896
139	0x3d9d830e	0.07691012
140	0x3dc59e39	0.09649319
141	0x3d9a3dea	0.075313404
142	0x3d820ea0	0.06350446
143	0x3d0b5573	0.034017038
144	0xbd2cd41c	-0.04219447
145	0xbc2f1b5e	-0.010687677
146	0x3dc60106	0.09668164
147	0xbd3d5d1f	-0.046231385
148	0xbc9ab55e	-0.01888531
149	0x3dc955b9	0.098308034
150	0x3e0860a7	0.1331812
151	0xbdb33fe3	-0.0875242
152	0xbe1f0d26	-0.1553236
153	0x3dff4f23	0.12466266
154	0x3d698659	0.05701289
155	0x3cb6fb12	0.022336517
156	0xbdaf7912	-0.08568014
157	0xbbbe4b9a	-0.0058073523
158	0x3cf2eeab	0.029654821
159	0xbd962bc0	-0.073325634
160	0xbce8dc1d	-0.02842527
161	0x3d8ef3a6	0.06980066
162	0x3e0bc461	0.13649131
163	0x3d64a6b8	0.055823058
164	0xbde72933	-0.11287155
165	0xbdab047e	-0.08350466
166	0xbc20b4e3	-0.009808752
167	0xbc59b079	-0.013286703
168	0xbd713d84	-0.058896556
169	0xbd831013	-0.0639955
170	0xbd47d6f0	-0.048788965
171	0x3c8fe955	0.017567316
172	0xbd898dc2	-0.06716491
173	0x3dd549c3	0.104144596
174	0x3daee8f0	0.08540523
175	0xbc72abb2	-0.014811443
176	0x3da1a573	0.07892885
177	0x3e101488	0.14070332
178	0xbd59a145	-0.053132314
179	0x3dc57934	0.09642258
180	0xbd0762b3	-0.03305311
181	0xbe13d581	-0.14436914
182	0x3d03a676	0.03214117
183	0x3c367556	0.0111363735
184	0x3e508e22	0.2036672
185	0x3dba0cb5	0.09084455
186	0xbe2fc527	-0.17165051
187	0xbd72ef38	-0.059310168
188	0xbd87c4f1	-0.066293605
189	0x3d9cb0cb	0.07650908
190	0x3d342a0b	0.043985408
191	0xbdd80dcb	-0.10549506

encoder.rnn.bias_hh_l1 f4 [192]
0	0xbc0c38ff	-0.008558511
1	0xbd736e17	-0.05943116
2	0x3aef2957	0.0018246573
3	0xbe3e3491	-0.1857474
4	0x3ce361a9	0.027756529
5	0xbe0b2091	-0.13586642
6	0xbe28d0dd	-0.16485925
7	0x3e517cb4	0.20457727
8	0xbdd14d49	-0.10219819
9	0xbe703d13	-0.23460798
10	0x3da10b93	0.07863536
11	0x3e0ab0d3	0.13544016
12	0xbcba02d9	-0.022706436
13	0xbde3d11b	-0.11123868
14	0xbebf62f6	-0.3738019
15	0xbd31d2e6	-0.04341402
16	0xbba2ab1d	-0.004964246
17	0xbe11b524	-0.14229256
18	0x3e0ee90c	0.13956088
19	0xbd82fff6	-0.06396477
20	0x3dcef21a	0.10104771
21	0xbcc212f1	-0.023690673
22	0x3c8d6931	0.017262073
23	0xbe311705	-0.17293938
24	0x3e09702d	0.13421698
25	0xbdbd4200	-0.09241104
26	0x3e6c8d63	0.2310081
27	0x3e29325c	0.16523117
28	0xbe1bf0ba	-0.15228549
29	0xbdba7694	-0.09104648
30	0xbe0b6356	-0.13612112
31	0x3bc63435	0.006048704
32	0xbe676c79	-0.22599973
33	0x3c5b563e	0.013387261
34	0xbe9862c2	-0.29762846
35	0xbe94ea0e	-0.2908482
36	0x3dd58e7c	0.10427567
37	0xbe445728	-0.19173872
38	0xbe014d65	-0.1262718
39	0xbe686921	-0.22696353
40	0x3ca08fd0	0.019599825
41	0xbcba95ac	-0.022776447
42	0x3d3a430b	0.045474093
43	0xbe20081d	-0.15628095
44	0x3dba4959	0.09096021
45	0xbdffdb95	-0.12493054
46	0x3db0391b	0.08604642
47	0xbdb292fd	-0.08719442
48	0x3e1b459c	0.15163273
49	0xbe450c44	-0.1924296
50	0x3d7a3ffa	0.06109617
51	0xbe571416	-0.21003756
52	0x3e24d7a2	0.16097882
53	0xbd20eb50	-0.03928691
54	0xbe6e0124	-0.23242623
55	0x3c65080d	0.01397897
56	0xbe507cd5	-0.2036012
57	0xbdb54088	-0.08850199
58	0xbbcc3c71	-0.006232791
59	0x3cdbde18	0.026839301
60	0xbcc0ae87	-0.023520721
61	0x3d75d5c2	0.06001831
62	0xbc6fa0b4	-0.014625717
63	0xbdcf4805	-0.101211585
64	0x3e7a1d13	0.24425153
65	0x3ebaa35b	0.36452755
66	0x3f81eeee	1.015104
67	0x3ee6a2c3	0.45046052
68	0x3e8891d4	0.26673758
69	0x3e8946b9	0.2681177
70	0x3f241c1d	0.641054
71	0x3eb5ec7f	0.35531995
72	0x3e275225	0.1633993
73	0x3eefe2b9	0.46852663
74	0xbd90c8ad	-0.07069526
75	0x3e77fce3	0.24217562
76	0x3e267379	0.16254987
77	0x3f2dfda4	0.6796515
78	0x3d51dc5b	0.051235538
79	0x3ed4f390	0.41592073
80	0x3dab6cab	0.08370336
81	0x3eacbb1f	0.33736512
82	0x3e9b9e46	0.3039419
83	0x3e280a50	0.16410184
84	0x3f011cbc	0.5043447
85	0x3df8acc5	0.12142328
86	0x3f38f54c	0.72249293
87	0x3e929eef	0.28636882
88	0x3e9d668f	0.30742308
89	0x3e8a0787	0.26958868
90	0x3ebf5caf	0.373754
91	0x3ebb87c5	0.3662702
92	0x3f3d0a9c	0.73844314
93	0x3e8d8672	0.27641636
94	0x3e28a6d8	0.16469896
95	0x3df1d65c	0.11808464
96	0x3dad7b97	0.084708385
97	0x3e35bb83	0.17747311
98	0x3eba87df	0.36431786
99	0x3f1debb8	0.61687803
100	0x3e97b45b	0.29629788
101	0x3e31e77a	0.17373458
102	0x3ebf67ee	0.3738398
103	0x3f87af31	1.0600339
104	0x3ed417bd	0.4142436
105	0x3f1c2cbd	0.61005765
106	0x3f133a04	0.575104
107	0x3e8a63ca	0.27029258
108	0x3ef2e430	0.47439718
109	0x3ed0f945	0.40815178
110	0x3e29a6fe	0.16567609
111	0x3f266ced	0.6500996
112	0x3f23a175	0.6391824
113	0x3e80308a	0.25037032
114	0x3f151a5a	0.58243334
115	0x3f09fab7	0.53898185
116	0x3e9cd117	0.30628273
117	0x3f43e8ae	0.76526916
118	0x3e9d114a	0.30677253
119	0x3ec40fab	0.38293204
120	0x3da887c4	0.0822902
121	0xbc8695a7	-0.016428782
122	0x3f5766d5	0.84141284
123	0xbd86cdbd	-0.0658221
124	0x3ecbb58c	0.39786947
125	0x3ebd928e	0.37025875
126	0x3ea3953c	0.31949794
127	0x3ec0dd49	0.37668827
128	0xbc835de5	-0.016035983
129	0xbd99ef2c	-0.075163215
130	0xbdf4c83a	-0.11952253
131	0x3d2afdbc	0.041745886
132	0xbdc58e56	-0.09646289
133	0x3cc61b61	0.024182977
134	0xbe749eda	-0.23888722
135	0xbd74aaba	-0.05973313
136	0x3d9981b7	0.07495444
137	0x3ba47ce8	0.005019773
138	0xbc4d509d	-0.012531427
139	0xbdd33c0d	-0.10314188
140	0xbd2b8c50	-0.04188186
141	0xbda1c161	-0.07898212
142	0xbd5ae6e1	-0.05344284
143	0x3ce7bc13	0.028287923
144	0xbe04a66d	-0.12954111
145	0x3db5b5f7	0.08872598
146	0x3df7a74b	0.120924555
147	0xba1c33a6	-0.0005958624
148	0x3e3dba63	0.18528132
149	0x3e31b3ef	0.17353795
150	0x3e607ec9	0.21923365
151	0x3de315a7	0.11088114
152	0x3c376452	0.011193352
153	0x3e0da066	0.13830718
154	0x3d907acf	0.07054674
155	0xbce67752	-0.028133068
156	0xbdcb47e5	-0.09925822
157	0xbce3e8d0	-0.027820975
158	0xbd00e0d0	-0.031464398
159	0xbd085315	-0.03328236
160	0xbc364d21	-0.011126787
161	0xbdb019c5	-0.08598665
162	0x3d6c41cd	0.05767994
163	0xbdcf94ec	-0.101358265
164	0xbd689130	-0.056779087
165	0xbdedead0	-0.116170526
166	0xbd75d7e4	-0.060020342
167	0x3ccab7f6	0.024745923
168	0xbd0534aa	-0.032520927
169	0x3d8c659f	0.0685532
170	0xbd184ee7	-0.037184622
171	0xbdd3dc22	-0.103447214
172	0x3d1e388e	0.038628154
173	0xbceed404	-0.029153831
174	0xbda9e9aa	-0.08296521
175	0x3d8a393e	0.06749199
176	0x3bd7dc92	0.0065875733
177	0xbc8f8038	-0.017517194
178	0x3d8ae330	0.06781614
179	0xbd13bd84	-0.036069408
180	0x3cd936af	0.026515333
181	0x3c7e3766	0.015516138
182	0x3d5f68b2	0.054543205
183	0xbd53f5e1	-0.05174816
184	0x3d585750	0.052817643
185	0xbdbcad8b	-0.09212788
186	0xbd9ce061	-0.076599844
187	0x3cd85684	0.026408441
188	0xbe119bf5	-0.14219649
189	0xbd2e9857	-0.04262575
190	0x3d6e8a2e	0.058237247
191	0x3d32e029	0.043670807
