1223-code-DL/model/seq2seq_TCN_state_dict.pt (torch, 522003 bytes, 197 tensors)

encoder.network.0.conv1.bias f4 [24]
00000000: 6758 1ebc 11c5 01bd 9bc8 bd3d 5b0b f6bd
00000010: 687a 0ebe 8544 333e ad29 7dbd 2e84 42be
00000020: e9d2 183e f6e3 13bc d1e2 08be 32f0 813d
00000030: 37e4 22be c1d7 8c3d 918b edbd c85c 8a3d
00000040: ee41 903d b7fa 9a3d 0c5b 8bbd fcf8 cbbd
00000050: ab8e 34bd 25a7 2abe fae8 fcbd 4f33 62bb
-0.009664631 -0.031682078 0.09266778 -0.12013885 -0.13913882 0.17506607 -0.061807323 -0.18995735
0.14924206 -0.009026518 -0.13367774 0.06344642 -0.1590737 0.06877089 -0.11598886 0.06755978
0.07043825 0.07567351 -0.06804475 -0.099595994 -0.04408137 -0.16665323 -0.12349124 -0.0034515446

encoder.network.0.conv1.weight_g f4 [24, 1, 1]
00000000: eba7 193f c407 363f e9da 163f 01b9 263f
00000010: 4e5a f53e 91ab 013f b5b3 193f a756 283f
00000020: 87be 0e3f 6f86 0c3f a395 163e 1237 1e3f
00000030: 637c f33e 317c 243f 82f8 313e 4714 ff3e
00000040: 6529 3f3f 9ef1 ce3e fd74 103f b0cd e23e
00000050: c761 f63e b32c f73e 6184 123f 8eeb 333f
0.6002185 0.711056 0.5892778 0.65126044 0.4792046 0.50652415 0.60039836 0.6575722
0.5575947 0.5489263 0.1470552 0.6180278 0.47555837 0.64252 0.17379954 0.49820158
0.7467254 0.40418714 0.5642851 0.44297552 0.48121473 0.4827629 0.57233244 0.702813

encoder.network.0.conv1.weight_v f4 [24, 16, 2]
00000000: aca3 b2bd 4bc3 7e3d fe40 4d3e 5332 30bd
00000010: c9c6 893e 39fa d2bd 4c03 3a3d 18dd e8bc
00000020: c9fa 30bc e175 afbd 446a 2fbe 2e11 97bd
00000030: eeb7 14bc b242 273c aeb4 943d 33a9 bcbc
00000040: 217b f6bd 8b95 51bd 4499 b13e 4a40 cb3d
00000050: 9f32 04be 2306 f53c 9a09 643e 86bd 89bd
00000060: 61c4 6e3e 4fac 2f3c bf69 01be 2c15 4fbe
00000070: 1086 d0bd 2f11 1fbe 54fc 46be 7649 74be
00000080: dc28 393c 1225 ac3d 065a 543d ec7d 33bd
00000090: d120 7abe ed32 023e dda2 c0bc d22f 48bc
000000a0: 9d37 f2bd d474 84be 3047 0a3e 833e a13d
000000b0: 585d 5bbe 9b63 0abe fbf2 0e3e d3f3 3a3d
000000c0: c00e 82bc 7e74 d2bd a06f bc3d 8896 353d
000000d0: bb4a 973d 59a6 69be a074 23be 08be 3f3e
000000e0: a9df 29bd c04a 6b3e 51ee a3bd 5168 383d
000000f0: df81 32bd 28f8 fd3d 414b ea3e 8f1f d03e
00000100: 9e6d 633e 8e8c 113e 5285 e2bd 9a53 55be
00000110: 5069 16bd ead1 283e e2eb 70bc 9c81 2abd
00000120: 66c9 b9bd d77e 09be 6da4 b23c 7d2d 033d
00000130: f1ab 86bc 104f 13be 54f1 c23d b8a2 eb3c
00000140: fa63 81bb 410e c23d 16e2 323d 6a5f 26be
00000150: 4000 87bc 522e 53be c43e 303e 4af7 183e
00000160: 85df c3bd a66c eabd d071 c739 d5f2 383c
00000170: 4e59 9e3d 4f9c 973b 808b c03e 62ce d63e
00000180: 0759 7ebe 8900 3fbe a124 a7bd cdfc d43d
00000190: ec92 93be 7720 32bd b331 903d 7203 b33d
000001a0: 1f08 ab3d 6fa5 58bd f74e 153e 77bc d53c
000001b0: 1dcc febd 7be3 cbbc f225 85bd 80c5 823d
000001c0: f6d5 013d 1073 afbd 53a7 0ebd cb07 1d3d
000001d0: 33bb 823d 405f 663c 2178 16bd 4c10 1e3d
000001e0: 2991 a6bd c715 493e ea55 afbd f8e4 0bbe
000001f0: c393 17be 095d 4e3d 14f9 b03e 0b0f a43e
00000200: 692e a03c 53f7 1fbe 5e3e 683e e330 823e
00000210: d458 bdbd 81a5 60bd 2e64 e3bd c750 963c
00000220: 4807 7d3d 8770 083e 469f a73d 073d 2f3e
00000230: b512 313e 512f 2f3e 0fa1 e43d 3bf7 51be
00000240: ea8e de3d 8ac9 ffbc 2533 8f3c c88b 5bbe
00000250: dd45 dd3c d00d b5bd 9a26 eabc fd56 afbd
00000260: 69b5 0a3e 9768 d83d d0bc cfbd 8d15 2e3d
00000270: e829 fc3b 64e1 313e 2e2a 21bd ab10 73be
00000280: 42d1 cc3c 9052 aebd 78fb 153d 88cd 6b3c
00000290: 2e67 253d 1fc7 3a3d e4f7 64bd 2ac5 d5bc
000002a0: 2823 5e3d d52d a93d f72f 70be 9478 703d
000002b0: f48c 753e 6fdb c33d 2a18 fcbd f44b a13d
000002c0: 15c3 68bd 56d1 913c e80a 8ebd 17ad fcba
000002d0: 5c1c 81bb 92dc 8bbd 8b33 34be 0044 e7bd
000002e0: 25eb 0bbe 4d5c 0bbe 6049 db3b 203d 3abd
000002f0: ad50 f0bd 98cf 8d3c 84e4 863e 4304 b13e
00000300: 7edc c1bd 9247 ccbc f19a febd 3cdf e1bd
00000310: bbd6 613e 7e7e 04bd bea6 af3d 90b5 763d
00000320: 67d5 043e f63b cf3d b11d 683d 29be 23bd
00000330: 00d7 6cbd d40f 30be 67e0 d7bc 201a 073e
00000340: 8b7c efbd 6a06 ecbd 6837 053e d725 9dbd
00000350: 676f 803d be73 30bd d113 fe3c f55a c1bd
00000360: cda0 2dbc 86a0 693e 9f74 97bd 743a 61bd
00000370: bb05 e8bd d543 203c 68b2 3cbe e4e8 b2be
00000380: a982 833d fcd3 9ebb ade4 123e 9ae2 acbd
00000390: a777 8f3d 2a05 313e 8695 373d 7a8f 0a3d
000003a0: 4bb7 8f3d 5033 0e3e dc86 5abe 331a 8ebd
000003b0: b00c 8dbd 65bb ed3d 99bc 8fbc 86ac bb3d
000003c0: 7854 94bc eb3e 27be aa89 9fbd f197 2c3e
000003d0: 41e4 803c 88e7 00be a025 713c 2904 653d
000003e0: 0926 993d fc7f 8e3b 2237 78bc 452e 543b
000003f0: f061 7bbd 99a6 90bd cec0 b53e e823 043f
-0.08722624 0.062197965 0.20044324 -0.043016743 0.26909474 -0.103016324 0.0454133 -0.028425738
-0.010801979 -0.085674055 -0.17130381 -0.07376324 -0.009077055 0.0102087725 0.072610244 -0.0230299
-0.12035204 -0.051168006 0.34687245 0.099243715 -0.12909935 0.029910153 0.22269288 -0.06725602
0.233171 0.010722234 -0.12637995 -0.2022292 -0.101818204 -0.15533899 -0.19432193 -0.23856148
0.011301246 0.08405508 0.051843666 -0.04382126 -0.24426581 0.12714739 -0.02351516 -0.0122184325
-0.11827014 -0.25870383 0.13503718 0.07873251 -0.21422327 -0.13514559 0.13959877 0.045642685
-0.015876174 -0.10276125 0.09200978 0.04433301 0.073873006 -0.22817363 -0.15962458 0.18724835
-0.041473065 0.22977734 -0.080044396 0.04502136 -0.043580886 0.12400848 0.4576054 0.40649077
0.22209784 0.14213774 -0.11060585 -0.20832673 -0.036721528 0.16486326 -0.014704676 -0.04162751
-0.09071617 -0.13427292 0.02180692 0.032025803 -0.01643941 -0.14385629 0.09518686 0.028764114
-0.0039486857 0.09475375 0.043672644 -0.16247335 -0.016479611 -0.20623139 0.17211443 0.14938083
-0.09564117 -0.11446504 0.00038041035 0.011288364 0.07731877 0.0046267877 0.3760643 0.41954333
-0.24838649 -0.18652548 -0.08161283 0.103997804 -0.2882303 -0.043487992 0.070407294 0.087408915
0.08351158 -0.052892145 0.14580904 0.026090844 -0.12441275 -0.024888745 -0.06501378 0.063853264
0.03169819 -0.08566868 -0.03482754 0.03833751 0.06383362 0.014060795 -0.036735658 0.03858976
-0.08133156 0.19637214 -0.08561309 -0.13661563 -0.1480246 0.050381694 0.34565032 0.32042727
0.01955338 -0.1562169 0.22680041 0.25427923 -0.09245458 -0.054845337 -0.11103092 0.018349065
0.061774522 0.13324176 0.08184676 0.17113124 0.17292292 0.17107894 0.11163532 -0.20504467
0.108671024 -0.031224031 0.017480442 -0.21440041 0.027010852 -0.08840525 -0.02858286 -0.085615136
0.13545765 0.10566824 -0.10143435 0.04250102 0.0076954253 0.17371136 -0.039346866 -0.23736827
0.025002126 -0.08511841 0.036616772 0.014392264 0.040381603 0.045600053 -0.05590047 -0.026094992
0.054232746 0.08260695 -0.23455797 0.058708742 0.2397955 0.09563338 -0.123092964 0.07875815
-0.05682667 0.017800014 -0.06935674 -0.0019277659 -0.0039401483 -0.0682918 -0.17597787 -0.11292267
-0.1366392 -0.13609429 0.0066920966 -0.04546845 -0.11734138 0.017310902 0.2634622 0.34573564
-0.09465884 -0.024936471 -0.124318965 -0.11028907 0.2205457 -0.032347195 0.085767254 0.060231745
0.12972032 0.101188585 0.05666894 -0.039976273 -0.057822227 -0.17193538 -0.02635212 0.1319356
-0.116936766 -0.11524661 0.13009417 -0.07673233 0.06271248 -0.04307913 0.031015309 -0.09441177
-0.01059742 0.22815141 -0.073952906 -0.054987386 -0.11329218 0.009781797 -0.18427432 -0.34943306
0.06421406 -0.004847048 0.14345045 -0.08441658 0.07005244 0.17287126 0.04482033 0.033828236
0.07017382 0.13886762 -0.21340507 -0.06938591 -0.068871856 0.11608008 -0.017545985 0.091637656
-0.018106684 -0.16332595 -0.07789929 0.16854836 0.01573384 -0.12588322 0.014718443 0.05591217
0.07477958 0.004348753 -0.015149863 0.0032376212 -0.061372697 -0.07063026 0.3549866 0.5161729

encoder.network.0.bn1.weight f4 [24]
00000000: b059 733f d321 893f 82e0 873f cc69 863f
00000010: ec52 563f 718e 7a3f 5679 7f3f 3d26 993f
00000020: a846 6d3f ac1f 803f 3dd0 2a3f a6d8 843f
00000030: 0bfd 673f c6ec 903f b7ec 213f e330 453f
00000040: ef42 973f 4af6 6f3f 0108 643f 29af 6b3f
00000050: 549b 743f 7805 763f ef87 873f 9531 903f
0.9505873 1.0713447 1.0615389 1.0501037 0.8372028 0.978736 0.9979452 1.1964794
0.9268594 1.0009665 0.66723996 1.0378616 0.9062049 1.1322258 0.63251823 0.7702772
1.1817302 0.9373518 0.89074713 0.9206415 0.9554951 0.96102095 1.0588359 1.1265131

encoder.network.0.bn1.bias f4 [24]
00000000: ef09 eabd a208 90be 550b 72be f5a3 34bf
00000010: 540f 04be 24b4 d3be d93f b6bd 5fa8 7ebe
00000020: 8457 00be 5723 c4bd d74d 8ebe 395a 3cbd
00000030: d07d 19be 197e f0bd 0e0a 45be c6b9 b0bd
00000040: 0e98 62be bcbb 5fbe 2f00 83be d823 e0bd
00000050: e54b c7bd 4030 e8be d827 cabc 7508 71bd
-0.11427676 -0.28131586 -0.23637135 -0.7056268 -0.12896472 -0.41348374 -0.08898897 -0.24868916
-0.12533385 -0.09577053 -0.27793762 -0.04598448 -0.149894 -0.11742801 -0.19242117 -0.086291835
-0.22128317 -0.21848959 -0.25586078 -0.10944337 -0.097312726 -0.45349312 -0.024677202 -0.058845956

encoder.network.0.bn1.running_mean f4 [24]
00000000: ec69 1dbe 5415 ea3d 141a 813e 0dae 60be
00000010: 5351 5e3d 4241 e83d e82f babe 554f 293e
00000020: 371b 943e aa55 253e 2ee2 00be 5abf 9b3e
00000030: f1bc 5abe 9138 87be f0be c8bd aa25 c9be
00000040: ac4b 863c 446d bd3d 0eb2 5bbe 19a3 c0be
00000050: 9747 333e c2c4 8fbd 96b7 9f3c d168 4b3e
-0.15372437 0.11429849 0.2521521 -0.21941395 0.054276776 0.11340572 -0.36364675 0.16534169
0.28927013 0.1614596 -0.1258628 0.30419427 -0.21361138 -0.26410344 -0.098020434 -0.39286548
0.016393505 0.092493564 -0.21454641 -0.37624434 0.17507778 -0.070199504 0.01949672 0.19864203

encoder.network.0.bn1.running_var f4 [24]
00000000: 6752 e33c 1a03 083d 2957 cb3c b5ef cc3c
00000010: e114 e73c df9d ab3c 6f8e b63c 9f18 953c
00000020: 273b b13c 85b1 9b3c edce 3a3b e0b9 933c
00000030: 4efa fd3c 1d7f c63c 011f 553b a612 f13c
00000040: 0e79 9a3c 6bfe d33c ba0b d23c 15f4 7c3c
00000050: f810 943c 2fe0 cc3c 68d0 683c 89ca a13c
0.027749253 0.033206083 0.024821835 0.025016645 0.028208198 0.020949302 0.022284715 0.018200217
0.021634651 0.019005546 0.0028504685 0.018032968 0.031003144 0.024230534 0.00325197 0.029427838
0.018856551 0.025878152 0.025640357 0.015439053 0.018074498 0.025009243 0.014209844 0.019749897

encoder.network.0.conv2.bias f4 [24]
00000000: 9921 9fbd 7da9 6fbd 7047 03be f051 fb3d
00000010: 48e6 f5bd ee01 09be 8903 cf3d 379b 82bd
00000020: c94d 92bb 7eca 9fbd ffb2 c5bd fa11 cf3d
00000030: 10a9 873c 350a 11bd 7e8f 08be db35 b3bd
00000040: ea8c 03be d1ae 11be d9ec 02be 9f5b 24bd
00000050: 374a 0c3e d207 d0bd 7220 d23d f8de 0d3e
-0.0777008 -0.058511246 -0.1282022 0.12271488 -0.12006813 -0.13379642 0.10108096 -0.06377261
-0.004464839 -0.07802294 -0.096532814 0.10110851 0.016560107 -0.035410125 -0.13335988 -0.087505065
-0.12846723 -0.14226843 -0.12785663 -0.04012644 0.13700186 -0.101577416 0.10260095 0.13854587

encoder.network.0.conv2.weight_g f4 [24, 1, 1]
00000000: 74a9 1b3f fce0 153f 86db 0e3f 3425 1f3f
00000010: b5de 203f 7af6 213f 685d e43e 6cea 003f
00000020: 2b53 0f3f 0663 273f d89b e23e a4fa 043f
00000030: 0b86 083f 4dde 303f 84ae 143f f882 123f
00000040: b8d0 2c3f 33e0 033f dfe5 113f 61ca 053f
00000050: 8fae 283f 6ce3 313f fb45 193f 8d4e 093f
0.6080544 0.58546424 0.55803716 0.6216614 0.62839824 0.6326672 0.44602513 0.503577
0.5598628 0.6538547 0.44259524 0.5194495 0.53329533 0.69089204 0.5807879 0.5723109
0.6750598 0.51513976 0.5699138 0.5226193 0.65891355 0.69487643 0.59872407 0.53635484

encoder.network.0.conv2.weight_v f4 [24, 24, 2]
00000000: 74bb a7bd 98a0 993c f01e a53d 0b9f 983d
00000010: 0bc6 833e abd0 4538 43fc c43e cc0c a03d
00000020: 023e c13d 3e0d b33d 7101 b13d 2b2c a53d
00000030: e0f1 d4bd 6c03 7a3d 569a 8c3d b890 01be
00000040: f672 f5bd ec0f ddbd ac85 003d c135 4e3d
00000050: 1550 193c c8be 96ba fab3 2dbe 35fd 8ebd
00000060: 7a2e bbbc a47b ac3d c7bb 0dbd eda0 cebd
00000070: dcbb 733d 9ee8 c3bc 09ce bc3d d93e 94bd
00000080: 9f59 f63d 7975 163d b761 0d3c 5fcd 2fbc
00000090: e1fd 5a3c d1b2 193d c075 ccbd fe3e e3bb
000000a0: 3f38 013e c242 933d 7b54 77bc a5ae 03be
000000b0: 28a8 f5bd cd54 633e 15e9 d53d fedf f4bd
000000c0: f0b5 1ebe c39d 103d 739a 1ebc 4c25 1d3e
000000d0: f3b1 023e da02 8b3d 8849 8e3d 6c0d 4d3d
000000e0: 90a9 49be 54a5 8fbd 5123 443e ac0b 1c3e
000000f0: baa8 2e3d 5e77 6abe 7cd3 243e ee38 3e3e
00000100: f68a 80be cd8b 92bb 86a6 143e 7a46 47bd
00000110: 254f 5fbb 99ef 4f3e b486 e33d 7135 033d
00000120: 88cb 69bc 415d 9a3d 2b3e 21be 4bd1 a0be
00000130: 95f3 6bbc 0f95 ac3d c8c5 cb3d 7885 ecbd
00000140: bd64 f43d 2e23 363d b29d d53d 4219 323e
00000150: 1288 2bbe e9ce 813c 0062 5abe 520d 69be
00000160: 3d90 b23d 4c37 533d 21e3 0d3e 4f19 683d
00000170: d105 983d 3f05 983d dc08 c33d 2e6a e13d
00000180: ce34 76bd 6a0e 09be c324 d8bc 6cf6 fbbd
00000190: d84b 383e e95a e8bd 7aa8 5a3e 5aa7 c53d
000001a0: 77fe c4bc 24d5 033d 94df bb3c 760e a03e
000001b0: cceb e4bd f98a 48be 4a05 21bd ba05 043e
000001c0: fc28 973d ed13 46be 8a37 7a3d b36a e6bd
000001d0: d303 9c3c 20d6 9dbd 0c81 09be 619e 14be
000001e0: 2f5d 9abd e5c1 a13d 11cd 1dbd 5503 8bbd
000001f0: c899 c9bd c131 c0bd ce18 f5bd b755 873d
00000200: bb7a 85bd eb7f c13d 7bbf 2cbe fb1c a03d
00000210: 7c80 78bc d70b 173c 64ea b23c dc4e 0ebe
00000220: 0ecd fdbd 859e babd d9d9 003e e964 3f3e
00000230: 64dc 4abd 95cf 87bd ad9d b9bd abec e83e
00000240: c558 0e3e 4f23 89bd 0334 133d 98a7 1ebd
00000250: a95d 51bd b5c2 c6bd 05a1 f53d b0a6 d1bb
00000260: 6342 6bba 148b 673d 7677 ce3c 00f8 423c
00000270: 8107 353e 9871 9e3d 69da 44be 536b 32be
00000280: f58f f3bd 77d5 953d 2461 ef3b a826 2a3e
00000290: 7b12 2bbe e103 193c 0629 dbbc 4124 0d3e
000002a0: a4a7 023e 7df1 82bd e0c6 a53c fa8e a2bd
000002b0: a18d cdbc 577a 913d 58eb efbd ff43 583d
000002c0: a22d e4bd 139a 26be 921a cfbd f37f 4bbd
000002d0: b1d4 5e3d bce9 4c3d 83a5 673d 185c 3ebc
000002e0: 621d a8bd 4a96 23bd 6e2a 29bd d586 10be
000002f0: 894a 16bd e7f4 db3c 0018 4ebd c1cc 3ebd
00000300: 09bc e5bd 1ddf 42bd a9db 70bc 61dd 893e
00000310: c99c d83d c153 e8bd 5ffb b5bc cd5f a53d
00000320: a2e0 78bc 341e 553c 2ce2 1bbe deb0 9a3c
00000330: 8324 a2bc e1c5 b5bd 1eff 693d 9f74 f53d
00000340: 73cb 713d 65c8 0cbe a362 8bbe ac4f e4bd
00000350: 85ad 843d 826c 10bd 7a05 623e c5c1 2b3d
00000360: edef fcbd 683f bbbd c0c2 16be 0dc6 4ebc
00000370: b609 66bd 3fc6 8bbc ad89 ea3d fb41 b5bc
00000380: 614e b23c 297c 153c ea8c 43be c429 3abe
00000390: 89db afbd 0b19 c6bd e409 b5bd 2bff 38be
000003a0: 2081 1fbe e763 87be 8bdd 4bbe 961f 873d
000003b0: 81df b0bd 5fc6 243e d6b7 1d3e f068 2aba
000003c0: abf5 543d 3e61 d23b 053e 10be 7bbb 903c
000003d0: 4458 203d f05f 0b3e 15ea 0c3e d226 053e
000003e0: 3e70 1bbd 6ffb 91bd 1778 7dbd c5cd 993d
000003f0: 1e8a d4bc 2cde 1e3d 1875 243e 1919 f0bd
-0.08190051 0.018753335 0.080625415 0.0745221 0.25737032 4.7162797e-05 0.3847371 0.07814941
0.09435655 0.0874276 0.08642853 0.08065065 -0.103976965 0.06103842 0.06865375 -0.12652862
-0.11984818 -0.107940525 0.03137748 0.050344232 0.009357472 -0.0011500949 -0.16963187 -0.06981889
-0.02284931 0.0842202 -0.034602907 -0.10089288 0.05950533 -0.023914631 0.092189856 -0.0723855
0.120288126 0.036733124 0.008629254 -0.010730117 0.0133661935 0.03752405 -0.099833965 -0.0069349995
0.12619112 0.071904674 -0.015095825 -0.1285959 -0.11994964 0.22200318 0.104448475 -0.119567856
-0.15499091 0.035306703 -0.009680378 0.15346259 0.12763195 0.06787653 0.06947619 0.05006163
-0.19693589 -0.07013956 0.19154097 0.15238827 0.04264138 -0.22897097 0.160963 0.18576404
-0.2510602 -0.004472232 0.14516649 -0.048651196 -0.0034074273 0.20306243 0.11109677 0.032033388
-0.014269717 0.07537318 -0.15746371 -0.31409678 -0.014401336 0.08426868 0.09949833 -0.11548895
0.11933277 0.044467144 0.104304686 0.17392448 -0.16751125 0.015845733 -0.21326447 -0.22758988
0.087189175 0.051566407 0.13856174 0.05666476 0.074229844 0.074228756 0.09523174 0.1100658
-0.060108952 -0.13384405 -0.026384717 -0.123028606 0.17997682 -0.11345465 0.21353331 0.096510604
-0.02404712 0.03218569 0.022933759 0.31261033 -0.11177787 -0.19584264 -0.039311685 0.1289281
0.07380864 -0.19343539 0.061088122 -0.1125082 0.019044792 -0.07706857 -0.13428134 -0.14513542
-0.075373046 0.078983106 -0.038525645 -0.06787745 -0.098437846 -0.0938449 -0.11967622 0.06608146
-0.065175496 0.094482265 -0.16869919 0.078180276 -0.015167352 0.009219131 0.021840282 -0.1389727
-0.12392627 -0.091122665 0.12583102 0.18690838 -0.049526587 -0.0663139 -0.090632774 0.45493063
0.1390105 -0.06696188 0.035938274 -0.03873405 -0.051114712 -0.09705106 0.11993603 -0.0063980445
-0.0008974431 0.05652912 0.025203448 0.011899948 0.17678644 0.0773651 -0.19223942 -0.17423753
-0.11892692 0.07316106 0.0073052812 0.16616309 -0.16706268 0.009339304 -0.02675296 0.13783361
0.12759262 -0.063937165 0.020236433 -0.07937427 -0.025091948 0.071034126 -0.1171481 0.05279922
-0.11141516 -0.16269712 -0.1011249 -0.04968257 0.054402057 0.050027594 0.05655433 -0.011618637
-0.08208729 -0.03993825 -0.04130023 -0.14113934 -0.036692176 0.026850177 -0.050315857 -0.046581987
-0.112175055 -0.04757606 -0.014700809 0.2692671 0.105767794 -0.113441 -0.02221459 0.08074913
-0.015190275 0.013007689 -0.15222996 0.018883165 -0.0197928 -0.08875633 0.057128064 0.11985134
0.059031915 -0.1374832 -0.2722369 -0.11148009 0.06478409 -0.03525973 0.22072402 0.04193284
-0.1235045 -0.09142953 -0.14722729 -0.012620461 -0.056161605 -0.017062305 0.11452041 -0.022126189
0.02176589 0.00912384 -0.19096723 -0.18179995 -0.08586795 -0.09672745 -0.08839777 -0.18066089
-0.15576601 -0.26443407 -0.1990873 0.065978214 -0.0863638 0.16091298 0.15402159 -0.0006500622
0.0519921 0.0064202836 -0.14086159 0.017667523 0.039146677 0.13610816 0.1376117 0.1300309
-0.03794884 -0.07128035 -0.061882105 0.075099505 -0.025944766 0.0387861 0.16060293 -0.11723537

encoder.network.0.bn2.weight f4 [24]
00000000: 652e 813f 6e62 b23e 2604 8c3f 03d6 673f
00000010: 5de3 713f 1162 633f 3909 783f 1ce8 823f
00000020: b8f9 723f 42bc 7d3f f88d 523f a339 693f
00000030: 910a 843f 48de 693f ca38 743f 7924 7a3f
00000040: 2a63 733f c2da 8a3f d014 833f 9e75 883f
00000050: aa85 7c3f 9644 5c3f 4501 723f befe 653f
1.0092283 0.3484072 1.0938766 0.9056093 0.94487554 0.8882151 0.9688907 1.0227084
0.9491229 0.99115384 0.8224788 0.9110357 1.0315725 0.913548 0.95399153 0.977119
0.9507319 1.084801 1.0240726 1.0660894 0.98641455 0.86042154 0.9453319 0.8984183

encoder.network.0.bn2.bias f4 [24]
00000000: 64b9 8cbc eea9 e0bd 471d 14bd 422f a5bd
00000010: 1cbc f7bc 76e7 94bd 9af4 45bb 8213 2c3c
00000020: 0ada 373d 16f6 7fbd fbbe 7ebd 7336 e9bc
00000030: de7e af3c e9db b8bd 3f95 28be b7b0 e6bd
00000040: 1081 22be 03a8 f43c a768 4fbe 417a 3a3d
00000050: 1471 b1be 94a3 b8bd cb1e c8bb fc68 17be
-0.017178245 -0.109699115 -0.036160734 -0.08065654 -0.030241065 -0.0727071 -0.0030205608 0.010502698
0.044885673 -0.062490545 -0.062193852 -0.028468346 0.0214228 -0.090263195 -0.16463183 -0.112641744
-0.15869546 0.02986527 -0.20254765 0.045526747 -0.34656584 -0.09015575 -0.0061071864 -0.14786142

encoder.network.0.bn2.running_mean f4 [24]
00000000: 6a12 963d 66e1 dd3d 8349 93be 3ef6 aabd
00000010: d70a dcbe 81da 68be 3a12 4a3e 7cde 903e
00000020: 52e6 23be bec9 3e3e fd4e 303e 9c59 793d
00000030: 0205 073f ea83 91be 5a81 893e 734e 23bc
00000040: 9763 8b3d b3cc 643d 696b acbc 84bb a3bd
00000050: 34ce c1bc bf65 bbbe 5a75 df3d 8b17 113e
0.07327731 0.10834007 -0.28767022 -0.08347748 -0.4297702 -0.22739603 0.19733515 0.28294742
-0.16005829 0.18631646 0.17217632 0.060876474 0.52742016 -0.28420955 0.268565 -0.009967434
0.06806105 0.05585928 -0.02104731 -0.0799475 -0.023657896 -0.36601064 0.10911055 0.14169137

encoder.network.0.bn2.running_var f4 [24]
00000000: 03eb 673e c6a0 273f ecff 4a3e 2105 af3e
00000010: db4f a23e fc9a bb3e a6a5 163e fc9e c23e
00000020: 4b68 b03e a0ab d53e 1db4 ba3e fa99 333e
00000030: c3df 043f 916f b23e d69a b73e 1fcf 953e
00000040: e5a9 cc3e e42a c03e c362 bc3e 4dce b43e
00000050: 9538 5a3e 2b3a bb3e 89a1 b23e 5fa3 6a3e
0.22648244 0.65479696 0.19824189 0.341836 0.3170155 0.3664168 0.14711627 0.3801192
0.3445457 0.41732502 0.3646554 0.17539206 0.51903933 0.34850743 0.35860318 0.29259583
0.3997337 0.37532723 0.367941 0.35313645 0.21310647 0.36567816 0.34888867 0.22913884

encoder.network.0.net.0.bias f4 [24]
00000000: 6758 1ebc 11c5 01bd 9bc8 bd3d 5b0b f6bd
00000010: 687a 0ebe 8544 333e ad29 7dbd 2e84 42be
00000020: e9d2 183e f6e3 13bc d1e2 08be 32f0 813d
00000030: 37e4 22be c1d7 8c3d 918b edbd c85c 8a3d
00000040: ee41 903d b7fa 9a3d 0c5b 8bbd fcf8 cbbd
00000050: ab8e 34bd 25a7 2abe fae8 fcbd 4f33 62bb
-0.009664631 -0.031682078 0.09266778 -0.12013885 -0.13913882 0.17506607 -0.061807323 -0.18995735
0.14924206 -0.009026518 -0.13367774 0.06344642 -0.1590737 0.06877089 -0.11598886 0.06755978
0.07043825 0.07567351 -0.06804475 -0.099595994 -0.04408137 -0.16665323 -0.12349124 -0.0034515446

encoder.network.0.net.0.weight_g f4 [24, 1, 1]
00000000: eba7 193f c407 363f e9da 163f 01b9 263f
00000010: 4e5a f53e 91ab 013f b5b3 193f a756 283f
00000020: 87be 0e3f 6f86 0c3f a395 163e 1237 1e3f
00000030: 637c f33e 317c 243f 82f8 313e 4714 ff3e
00000040: 6529 3f3f 9ef1 ce3e fd74 103f b0cd e23e
00000050: c761 f63e b32c f73e 6184 123f 8eeb 333f
0.6002185 0.711056 0.5892778 0.65126044 0.4792046 0.50652415 0.60039836 0.6575722
0.5575947 0.5489263 0.1470552 0.6180278 0.47555837 0.64252 0.17379954 0.49820158
0.7467254 0.40418714 0.5642851 0.44297552 0.48121473 0.4827629 0.57233244 0.702813

encoder.network.0.net.0.weight_v f4 [24, 16, 2]
00000000: aca3 b2bd 4bc3 7e3d fe40 4d3e 5332 30bd
00000010: c9c6 893e 39fa d2bd 4c03 3a3d 18dd e8bc
00000020: c9fa 30bc e175 afbd 446a 2fbe 2e11 97bd
00000030: eeb7 14bc b242 273c aeb4 943d 33a9 bcbc
00000040: 217b f6bd 8b95 51bd 4499 b13e 4a40 cb3d
00000050: 9f32 04be 2306 f53c 9a09 643e 86bd 89bd
00000060: 61c4 6e3e 4fac 2f3c bf69 01be 2c15 4fbe
00000070: 1086 d0bd 2f11 1fbe 54fc 46be 7649 74be
00000080: dc28 393c 1225 ac3d 065a 543d ec7d 33bd
00000090: d120 7abe ed32 023e dda2 c0bc d22f 48bc
000000a0: 9d37 f2bd d474 84be 3047 0a3e 833e a13d
000000b0: 585d 5bbe 9b63 0abe fbf2 0e3e d3f3 3a3d
000000c0: c00e 82bc 7e74 d2bd a06f bc3d 8896 353d
000000d0: bb4a 973d 59a6 69be a074 23be 08be 3f3e
000000e0: a9df 29bd c04a 6b3e 51ee a3bd 5168 383d
000000f0: df81 32bd 28f8 fd3d 414b ea3e 8f1f d03e
00000100: 9e6d 633e 8e8c 113e 5285 e2bd 9a53 55be
00000110: 5069 16bd ead1 283e e2eb 70bc 9c81 2abd
00000120: 66c9 b9bd d77e 09be 6da4 b23c 7d2d 033d
00000130: f1ab 86bc 104f 13be 54f1 c23d b8a2 eb3c
00000140: fa63 81bb 410e c23d 16e2 323d 6a5f 26be
00000150: 4000 87bc 522e 53be c43e 303e 4af7 183e
00000160: 85df c3bd a66c eabd d071 c739 d5f2 383c
00000170: 4e59 9e3d 4f9c 973b 808b c03e 62ce d63e
00000180: 0759 7ebe 8900 3fbe a124 a7bd cdfc d43d
00000190: ec92 93be 7720 32bd b331 903d 7203 b33d
000001a0: 1f08 ab3d 6fa5 58bd f74e 153e 77bc d53c
000001b0: 1dcc febd 7be3 cbbc f225 85bd 80c5 823d
000001c0: f6d5 013d 1073 afbd 53a7 0ebd cb07 1d3d
000001d0: 33bb 823d 405f 663c 2178 16bd 4c10 1e3d
000001e0: 2991 a6bd c715 493e ea55 afbd f8e4 0bbe
000001f0: c393 17be 095d 4e3d 14f9 b03e 0b0f a43e
00000200: 692e a03c 53f7 1fbe 5e3e 683e e330 823e
00000210: d458 bdbd 81a5 60bd 2e64 e3bd c750 963c
00000220: 4807 7d3d 8770 083e 469f a73d 073d 2f3e
00000230: b512 313e 512f 2f3e 0fa1 e43d 3bf7 51be
00000240: ea8e de3d 8ac9 ffbc 2533 8f3c c88b 5bbe
00000250: dd45 dd3c d00d b5bd 9a26 eabc fd56 afbd
00000260: 69b5 0a3e 9768 d83d d0bc cfbd 8d15 2e3d
00000270: e829 fc3b 64e1 313e 2e2a 21bd ab10 73be
00000280: 42d1 cc3c 9052 aebd 78fb 153d 88cd 6b3c
00000290: 2e67 253d 1fc7 3a3d e4f7 64bd 2ac5 d5bc
000002a0: 2823 5e3d d52d a93d f72f 70be 9478 703d
000002b0: f48c 753e 6fdb c33d 2a18 fcbd f44b a13d
000002c0: 15c3 68bd 56d1 913c e80a 8ebd 17ad fcba
000002d0: 5c1c 81bb 92dc 8bbd 8b33 34be 0044 e7bd
000002e0: 25eb 0bbe 4d5c 0bbe 6049 db3b 203d 3abd
000002f0: ad50 f0bd 98cf 8d3c 84e4 863e 4304 b13e
00000300: 7edc c1bd 9247 ccbc f19a febd 3cdf e1bd
00000310: bbd6 613e 7e7e 04bd bea6 af3d 90b5 763d
00000320: 67d5 043e f63b cf3d b11d 683d 29be 23bd
00000330: 00d7 6cbd d40f 30be 67e0 d7bc 201a 073e
00000340: 8b7c efbd 6a06 ecbd 6837 053e d725 9dbd
00000350: 676f 803d be73 30bd d113 fe3c f55a c1bd
00000360: cda0 2dbc 86a0 693e 9f74 97bd 743a 61bd
00000370: bb05 e8bd d543 203c 68b2 3cbe e4e8 b2be
00000380: a982 833d fcd3 9ebb ade4 123e 9ae2 acbd
00000390: a777 8f3d 2a05 313e 8695 373d 7a8f 0a3d
000003a0: 4bb7 8f3d 5033 0e3e dc86 5abe 331a 8ebd
000003b0: b00c 8dbd 65bb ed3d 99bc 8fbc 86ac bb3d
000003c0: 7854 94bc eb3e 27be aa89 9fbd f197 2c3e
000003d0: 41e4 803c 88e7 00be a025 713c 2904 653d
000003e0: 0926 993d fc7f 8e3b 2237 78bc 452e 543b
000003f0: f061 7bbd 99a6 90bd cec0 b53e e823 043f
-0.08722624 0.062197965 0.20044324 -0.043016743 0.26909474 -0.103016324 0.0454133 -0.028425738
-0.010801979 -0.085674055 -0.17130381 -0.07376324 -0.009077055 0.0102087725 0.072610244 -0.0230299
-0.12035204 -0.051168006 0.34687245 0.099243715 -0.12909935 0.029910153 0.22269288 -0.06725602
0.233171 0.010722234 -0.12637995 -0.2022292 -0.101818204 -0.15533899 -0.19432193 -0.23856148
0.011301246 0.08405508 0.051843666 -0.04382126 -0.24426581 0.12714739 -0.02351516 -0.0122184325
-0.11827014 -0.25870383 0.13503718 0.07873251 -0.21422327 -0.13514559 0.13959877 0.045642685
-0.015876174 -0.10276125 0.09200978 0.04433301 0.073873006 -0.22817363 -0.15962458 0.18724835
-0.041473065 0.22977734 -0.080044396 0.04502136 -0.043580886 0.12400848 0.4576054 0.40649077
0.22209784 0.14213774 -0.11060585 -0.20832673 -0.036721528 0.16486326 -0.014704676 -0.04162751
-0.09071617 -0.13427292 0.02180692 0.032025803 -0.01643941 -0.14385629 0.09518686 0.028764114
-0.0039486857 0.09475375 0.043672644 -0.16247335 -0.016479611 -0.20623139 0.17211443 0.14938083
-0.09564117 -0.11446504 0.00038041035 0.011288364 0.07731877 0.0046267877 0.3760643 0.41954333
-0.24838649 -0.18652548 -0.08161283 0.103997804 -0.2882303 -0.043487992 0.070407294 0.087408915
0.08351158 -0.052892145 0.14580904 0.026090844 -0.12441275 -0.024888745 -0.06501378 0.063853264
0.03169819 -0.08566868 -0.03482754 0.03833751 0.06383362 0.014060795 -0.036735658 0.03858976
-0.08133156 0.19637214 -0.08561309 -0.13661563 -0.1480246 0.050381694 0.34565032 0.32042727
0.01955338 -0.1562169 0.22680041 0.25427923 -0.09245458 -0.054845337 -0.11103092 0.018349065
0.061774522 0.13324176 0.08184676 0.17113124 0.17292292 0.17107894 0.11163532 -0.20504467
0.108671024 -0.031224031 0.017480442 -0.21440041 0.027010852 -0.08840525 -0.02858286 -0.085615136
0.13545765 0.10566824 -0.10143435 0.04250102 0.0076954253 0.17371136 -0.039346866 -0.23736827
0.025002126 -0.08511841 0.036616772 0.014392264 0.040381603 0.045600053 -0.05590047 -0.026094992
0.054232746 0.08260695 -0.23455797 0.058708742 0.2397955 0.09563338 -0.123092964 0.07875815
-0.05682667 0.017800014 -0.06935674 -0.0019277659 -0.0039401483 -0.0682918 -0.17597787 -0.11292267
-0.1366392 -0.13609429 0.0066920966 -0.04546845 -0.11734138 0.017310902 0.2634622 0.34573564
-0.09465884 -0.024936471 -0.124318965 -0.11028907 0.2205457 -0.032347195 0.085767254 0.060231745
0.12972032 0.101188585 0.05666894 -0.039976273 -0.057822227 -0.17193538 -0.02635212 0.1319356
-0.116936766 -0.11524661 0.13009417 -0.07673233 0.06271248 -0.04307913 0.031015309 -0.09441177
-0.01059742 0.22815141 -0.073952906 -0.054987386 -0.11329218 0.009781797 -0.18427432 -0.34943306
0.06421406 -0.004847048 0.14345045 -0.08441658 0.07005244 0.17287126 0.04482033 0.033828236
0.07017382 0.13886762 -0.21340507 -0.06938591 -0.068871856 0.11608008 -0.017545985 0.091637656
-0.018106684 -0.16332595 -0.07789929 0.16854836 0.01573384 -0.12588322 0.014718443 0.05591217
0.07477958 0.004348753 -0.015149863 0.0032376212 -0.061372697 -0.07063026 0.3549866 0.5161729

encoder.network.0.net.2.weight f4 [24]
00000000: b059 733f d321 893f 82e0 873f cc69 863f
00000010: ec52 563f 718e 7a3f 5679 7f3f 3d26 993f
00000020: a846 6d3f ac1f 803f 3dd0 2a3f a6d8 843f
00000030: 0bfd 673f c6ec 903f b7ec 213f e330 453f
00000040: ef42 973f 4af6 6f3f 0108 643f 29af 6b3f
00000050: 549b 743f 7805 763f ef87 873f 9531 903f
0.9505873 1.0713447 1.0615389 1.0501037 0.8372028 0.978736 0.9979452 1.1964794
0.9268594 1.0009665 0.66723996 1.0378616 0.9062049 1.1322258 0.63251823 0.7702772
1.1817302 0.9373518 0.89074713 0.9206415 0.9554951 0.96102095 1.0588359 1.1265131

encoder.network.0.net.2.bias f4 [24]
00000000: ef09 eabd a208 90be 550b 72be f5a3 34bf
00000010: 540f 04be 24b4 d3be d93f b6bd 5fa8 7ebe
00000020: 8457 00be 5723 c4bd d74d 8ebe 395a 3cbd
00000030: d07d 19be 197e f0bd 0e0a 45be c6b9 b0bd
00000040: 0e98 62be bcbb 5fbe 2f00 83be d823 e0bd
00000050: e54b c7bd 4030 e8be d827 cabc 7508 71bd
-0.11427676 -0.28131586 -0.23637135 -0.7056268 -0.12896472 -0.41348374 -0.08898897 -0.24868916
-0.12533385 -0.09577053 -0.27793762 -0.04598448 -0.149894 -0.11742801 -0.19242117 -0.086291835
-0.22128317 -0.21848959 -0.25586078 -0.10944337 -0.097312726 -0.45349312 -0.024677202 -0.058845956

encoder.network.0.net.2.running_mean f4 [24]
00000000: ec69 1dbe 5415 ea3d 141a 813e 0dae 60be
00000010: 5351 5e3d 4241 e83d e82f babe 554f 293e
00000020: 371b 943e aa55 253e 2ee2 00be 5abf 9b3e
00000030: f1bc 5abe 9138 87be f0be c8bd aa25 c9be
00000040: ac4b 863c 446d bd3d 0eb2 5bbe 19a3 c0be
00000050: 9747 333e c2c4 8fbd 96b7 9f3c d168 4b3e
-0.15372437 0.11429849 0.2521521 -0.21941395 0.054276776 0.11340572 -0.36364675 0.16534169
0.28927013 0.1614596 -0.1258628 0.30419427 -0.21361138 -0.26410344 -0.098020434 -0.39286548
0.016393505 0.092493564 -0.21454641 -0.37624434 0.17507778 -0.070199504 0.01949672 0.19864203

encoder.network.0.net.2.running_var f4 [24]
00000000: 6752 e33c 1a03 083d 2957 cb3c b5ef cc3c
00000010: e114 e73c df9d ab3c 6f8e b63c 9f18 953c
00000020: 273b b13c 85b1 9b3c edce 3a3b e0b9 933c
00000030: 4efa fd3c 1d7f c63c 011f 553b a612 f13c
00000040: 0e79 9a3c 6bfe d33c ba0b d23c 15f4 7c3c
00000050: f810 943c 2fe0 cc3c 68d0 683c 89ca a13c
0.027749253 0.033206083 0.024821835 0.025016645 0.028208198 0.020949302 0.022284715 0.018200217
0.021634651 0.019005546 0.0028504685 0.018032968 0.031003144 0.024230534 0.00325197 0.029427838
0.018856551 0.025878152 0.025640357 0.015439053 0.018074498 0.025009243 0.014209844 0.019749897

encoder.network.0.net.5.bias f4 [24]
00000000: 9921 9fbd 7da9 6fbd 7047 03be f051 fb3d
00000010: 48e6 f5bd ee01 09be 8903 cf3d 379b 82bd
00000020: c94d 92bb 7eca 9fbd ffb2 c5bd fa11 cf3d
00000030: 10a9 873c 350a 11bd 7e8f 08be db35 b3bd
00000040: ea8c 03be d1ae 11be d9ec 02be 9f5b 24bd
00000050: 374a 0c3e d207 d0bd 7220 d23d f8de 0d3e
-0.0777008 -0.058511246 -0.1282022 0.12271488 -0.12006813 -0.13379642 0.10108096 -0.06377261
-0.004464839 -0.07802294 -0.096532814 0.10110851 0.016560107 -0.035410125 -0.13335988 -0.087505065
-0.12846723 -0.14226843 -0.12785663 -0.04012644 0.13700186 -0.101577416 0.10260095 0.13854587

encoder.network.0.net.5.weight_g f4 [24, 1, 1]
00000000: 74a9 1b3f fce0 153f 86db 0e3f 3425 1f3f
00000010: b5de 203f 7af6 213f 685d e43e 6cea 003f
00000020: 2b53 0f3f 0663 273f d89b e23e a4fa 043f
00000030: 0b86 083f 4dde 303f 84ae 143f f882 123f
00000040: b8d0 2c3f 33e0 033f dfe5 113f 61ca 053f
00000050: 8fae 283f 6ce3 313f fb45 193f 8d4e 093f
0.6080544 0.58546424 0.55803716 0.6216614 0.62839824 0.6326672 0.44602513 0.503577
0.5598628 0.6538547 0.44259524 0.5194495 0.53329533 0.69089204 0.5807879 0.5723109
0.6750598 0.51513976 0.5699138 0.5226193 0.65891355 0.69487643 0.59872407 0.53635484

encoder.network.0.net.5.weight_v f4 [24, 24, 2]
00000000: 74bb a7bd 98a0 993c f01e a53d 0b9f 983d
00000010: 0bc6 833e abd0 4538 43fc c43e cc0c a03d
00000020: 023e c13d 3e0d b33d 7101 b13d 2b2c a53d
00000030: e0f1 d4bd 6c03 7a3d 569a 8c3d b890 01be
00000040: f672 f5bd ec0f ddbd ac85 003d c135 4e3d
00000050: 1550 193c c8be 96ba fab3 2dbe 35fd 8ebd
00000060: 7a2e bbbc a47b ac3d c7bb 0dbd eda0 cebd
00000070: dcbb 733d 9ee8 c3bc 09ce bc3d d93e 94bd
00000080: 9f59 f63d 7975 163d b761 0d3c 5fcd 2fbc
00000090: e1fd 5a3c d1b2 193d c075 ccbd fe3e e3bb
000000a0: 3f38 013e c242 933d 7b54 77bc a5ae 03be
000000b0: 28a8 f5bd cd54 633e 15e9 d53d fedf f4bd
000000c0: f0b5 1ebe c39d 103d 739a 1ebc 4c25 1d3e
000000d0: f3b1 023e da02 8b3d 8849 8e3d 6c0d 4d3d
000000e0: 90a9 49be 54a5 8fbd 5123 443e ac0b 1c3e
000000f0: baa8 2e3d 5e77 6abe 7cd3 243e ee38 3e3e
00000100: f68a 80be cd8b 92bb 86a6 143e 7a46 47bd
00000110: 254f 5fbb 99ef 4f3e b486 e33d 7135 033d
00000120: 88cb 69bc 415d 9a3d 2b3e 21be 4bd1 a0be
00000130: 95f3 6bbc 0f95 ac3d c8c5 cb3d 7885 ecbd
00000140: bd64 f43d 2e23 363d b29d d53d 4219 323e
00000150: 1288 2bbe e9ce 813c 0062 5abe 520d 69be
00000160: 3d90 b23d 4c37 533d 21e3 0d3e 4f19 683d
00000170: d105 983d 3f05 983d dc08 c33d 2e6a e13d
00000180: ce34 76bd 6a0e 09be c324 d8bc 6cf6 fbbd
00000190: d84b 383e e95a e8bd 7aa8 5a3e 5aa7 c53d
000001a0: 77fe c4bc 24d5 033d 94df bb3c 760e a03e
000001b0: cceb e4bd f98a 48be 4a05 21bd ba05 043e
000001c0: fc28 973d ed13 46be 8a37 7a3d b36a e6bd
000001d0: d303 9c3c 20d6 9dbd 0c81 09be 619e 14be
000001e0: 2f5d 9abd e5c1 a13d 11cd 1dbd 5503 8bbd
000001f0: c899 c9bd c131 c0bd ce18 f5bd b755 873d
00000200: bb7a 85bd eb7f c13d 7bbf 2cbe fb1c a03d
00000210: 7c80 78bc d70b 173c 64ea b23c dc4e 0ebe
00000220: 0ecd fdbd 859e babd d9d9 003e e964 3f3e
00000230: 64dc 4abd 95cf 87bd ad9d b9bd abec e83e
00000240: c558 0e3e 4f23 89bd 0334 133d 98a7 1ebd
00000250: a95d 51bd b5c2 c6bd 05a1 f53d b0a6 d1bb
00000260: 6342 6bba 148b 673d 7677 ce3c 00f8 423c
00000270: 8107 353e 9871 9e3d 69da 44be 536b 32be
00000280: f58f f3bd 77d5 953d 2461 ef3b a826 2a3e
00000290: 7b12 2bbe e103 193c 0629 dbbc 4124 0d3e
000002a0: a4a7 023e 7df1 82bd e0c6 a53c fa8e a2bd
000002b0: a18d cdbc 577a 913d 58eb efbd ff43 583d
000002c0: a22d e4bd 139a 26be 921a cfbd f37f 4bbd
000002d0: b1d4 5e3d bce9 4c3d 83a5 673d 185c 3ebc
000002e0: 621d a8bd 4a96 23bd 6e2a 29bd d586 10be
000002f0: 894a 16bd e7f4 db3c 0018 4ebd c1cc 3ebd
00000300: 09bc e5bd 1ddf 42bd a9db 70bc 61dd 893e
00000310: c99c d83d c153 e8bd 5ffb b5bc cd5f a53d
00000320: a2e0 78bc 341e 553c 2ce2 1bbe deb0 9a3c
00000330: 8324 a2bc e1c5 b5bd 1eff 693d 9f74 f53d
00000340: 73cb 713d 65c8 0cbe a362 8bbe ac4f e4bd
00000350: 85ad 843d 826c 10bd 7a05 623e c5c1 2b3d
00000360: edef fcbd 683f bbbd c0c2 16be 0dc6 4ebc
00000370: b609 66bd 3fc6 8bbc ad89 ea3d fb41 b5bc
00000380: 614e b23c 297c 153c ea8c 43be c429 3abe
00000390: 89db afbd 0b19 c6bd e409 b5bd 2bff 38be
000003a0: 2081 1fbe e763 87be 8bdd 4bbe 961f 873d
000003b0: 81df b0bd 5fc6 243e d6b7 1d3e f068 2aba
000003c0: abf5 543d 3e61 d23b 053e 10be 7bbb 903c
000003d0: 4458 203d f05f 0b3e 15ea 0c3e d226 053e
000003e0: 3e70 1bbd 6ffb 91bd 1778 7dbd c5cd 993d
000003f0: 1e8a d4bc 2cde 1e3d 1875 243e 1919 f0bd
-0.08190051 0.018753335 0.080625415 0.0745221 0.25737032 4.7162797e-05 0.3847371 0.07814941
0.09435655 0.0874276 0.08642853 0.08065065 -0.103976965 0.06103842 0.06865375 -0.12652862
-0.11984818 -0.107940525 0.03137748 0.050344232 0.009357472 -0.0011500949 -0.16963187 -0.06981889
-0.02284931 0.0842202 -0.034602907 -0.10089288 0.05950533 -0.023914631 0.092189856 -0.0723855
0.120288126 0.036733124 0.008629254 -0.010730117 0.0133661935 0.03752405 -0.099833965 -0.0069349995
0.12619112 0.071904674 -0.015095825 -0.1285959 -0.11994964 0.22200318 0.104448475 -0.119567856
-0.15499091 0.035306703 -0.009680378 0.15346259 0.12763195 0.06787653 0.06947619 0.05006163
-0.19693589 -0.07013956 0.19154097 0.15238827 0.04264138 -0.22897097 0.160963 0.18576404
-0.2510602 -0.004472232 0.14516649 -0.048651196 -0.0034074273 0.20306243 0.11109677 0.032033388
-0.014269717 0.07537318 -0.15746371 -0.31409678 -0.014401336 0.08426868 0.09949833 -0.11548895
0.11933277 0.044467144 0.104304686 0.17392448 -0.16751125 0.015845733 -0.21326447 -0.22758988
0.087189175 0.051566407 0.13856174 0.05666476 0.074229844 0.074228756 0.09523174 0.1100658
-0.060108952 -0.13384405 -0.026384717 -0.123028606 0.17997682 -0.11345465 0.21353331 0.096510604
-0.02404712 0.03218569 0.022933759 0.31261033 -0.11177787 -0.19584264 -0.039311685 0.1289281
0.07380864 -0.19343539 0.061088122 -0.1125082 0.019044792 -0.07706857 -0.13428134 -0.14513542
-0.075373046 0.078983106 -0.038525645 -0.06787745 -0.098437846 -0.0938449 -0.11967622 0.06608146
-0.065175496 0.094482265 -0.16869919 0.078180276 -0.015167352 0.009219131 0.021840282 -0.1389727
-0.12392627 -0.091122665 0.12583102 0.18690838 -0.049526587 -0.0663139 -0.090632774 0.45493063
0.1390105 -0.06696188 0.035938274 -0.03873405 -0.051114712 -0.09705106 0.11993603 -0.0063980445
-0.0008974431 0.05652912 0.025203448 0.011899948 0.17678644 0.0773651 -0.19223942 -0.17423753
-0.11892692 0.07316106 0.0073052812 0.16616309 -0.16706268 0.009339304 -0.02675296 0.13783361
0.12759262 -0.063937165 0.020236433 -0.07937427 -0.025091948 0.071034126 -0.1171481 0.05279922
-0.11141516 -0.16269712 -0.1011249 -0.04968257 0.054402057 0.050027594 0.05655433 -0.011618637
-0.08208729 -0.03993825 -0.04130023 -0.14113934 -0.036692176 0.026850177 -0.050315857 -0.046581987
-0.112175055 -0.04757606 -0.014700809 0.2692671 0.105767794 -0.113441 -0.02221459 0.08074913
-0.015190275 0.013007689 -0.15222996 0.018883165 -0.0197928 -0.08875633 0.057128064 0.11985134
0.059031915 -0.1374832 -0.2722369 -0.11148009 0.06478409 -0.03525973 0.22072402 0.04193284
-0.1235045 -0.09142953 -0.14722729 -0.012620461 -0.056161605 -0.017062305 0.11452041 -0.022126189
0.02176589 0.00912384 -0.19096723 -0.18179995 -0.08586795 -0.09672745 -0.08839777 -0.18066089
-0.15576601 -0.26443407 -0.1990873 0.065978214 -0.0863638 0.16091298 0.15402159 -0.0006500622
0.0519921 0.0064202836 -0.14086159 0.017667523 0.039146677 0.13610816 0.1376117 0.1300309
-0.03794884 -0.07128035 -0.061882105 0.075099505 -0.025944766 0.0387861 0.16060293 -0.11723537

encoder.network.0.net.7.weight f4 [24]
00000000: 652e 813f 6e62 b23e 2604 8c3f 03d6 673f
00000010: 5de3 713f 1162 633f 3909 783f 1ce8 823f
00000020: b8f9 723f 42bc 7d3f f88d 523f a339 693f
00000030: 910a 843f 48de 693f ca38 743f 7924 7a3f
00000040: 2a63 733f c2da 8a3f d014 833f 9e75 883f
00000050: aa85 7c3f 9644 5c3f 4501 723f befe 653f
1.0092283 0.3484072 1.0938766 0.9056093 0.94487554 0.8882151 0.9688907 1.0227084
0.9491229 0.99115384 0.8224788 0.9110357 1.0315725 0.913548 0.95399153 0.977119
0.9507319 1.084801 1.0240726 1.0660894 0.98641455 0.86042154 0.9453319 0.8984183

encoder.network.0.net.7.bias f4 [24]
00000000: 64b9 8cbc eea9 e0bd 471d 14bd 422f a5bd
00000010: 1cbc f7bc 76e7 94bd 9af4 45bb 8213 2c3c
00000020: 0ada 373d 16f6 7fbd fbbe 7ebd 7336 e9bc
00000030: de7e af3c e9db b8bd 3f95 28be b7b0 e6bd
00000040: 1081 22be 03a8 f43c a768 4fbe 417a 3a3d
00000050: 1471 b1be 94a3 b8bd cb1e c8bb fc68 17be
-0.017178245 -0.109699115 -0.036160734 -0.08065654 -0.030241065 -0.0727071 -0.0030205608 0.010502698
0.044885673 -0.062490545 -0.062193852 -0.028468346 0.0214228 -0.090263195 -0.16463183 -0.112641744
-0.15869546 0.02986527 -0.20254765 0.045526747 -0.34656584 -0.09015575 -0.0061071864 -0.14786142

encoder.network.0.net.7.running_mean f4 [24]
00000000: 6a12 963d 66e1 dd3d 8349 93be 3ef6 aabd
00000010: d70a dcbe 81da 68be 3a12 4a3e 7cde 903e
00000020: 52e6 23be bec9 3e3e fd4e 303e 9c59 793d
00000030: 0205 073f ea83 91be 5a81 893e 734e 23bc
00000040: 9763 8b3d b3cc 643d 696b acbc 84bb a3bd
00000050: 34ce c1bc bf65 bbbe 5a75 df3d 8b17 113e
0.07327731 0.10834007 -0.28767022 -0.08347748 -0.4297702 -0.22739603 0.19733515 0.28294742
-0.16005829 0.18631646 0.17217632 0.060876474 0.52742016 -0.28420955 0.268565 -0.009967434
0.06806105 0.05585928 -0.02104731 -0.0799475 -0.023657896 -0.36601064 0.10911055 0.14169137

encoder.network.0.net.7.running_var f4 [24]
00000000: 03eb 673e c6a0 273f ecff 4a3e 2105 af3e
00000010: db4f a23e fc9a bb3e a6a5 163e fc9e c23e
00000020: 4b68 b03e a0ab d53e 1db4 ba3e fa99 333e
00000030: c3df 043f 916f b23e d69a b73e 1fcf 953e
00000040: e5a9 cc3e e42a c03e c362 bc3e 4dce b43e
00000050: 9538 5a3e 2b3a bb3e 89a1 b23e 5fa3 6a3e
0.22648244 0.65479696 0.19824189 0.341836 0.3170155 0.3664168 0.14711627 0.3801192
0.3445457 0.41732502 0.3646554 0.17539206 0.51903933 0.34850743 0.35860318 0.29259583
0.3997337 0.37532723 0.367941 0.35313645 0.21310647 0.36567816 0.34888867 0.22913884

encoder.network.0.downsample.weight f4 [24, 16, 1]
00000000: f0ec 893c 7800 453c 1591 793c 54cb 693c
00000010: 64ff e43d 96ca 37bb 43c6 083d 6667 28bd
00000020: e241 6d3d 866a 153d c04c 70bd 27b0 3c3d
00000030: 7a99 6f3d 33b7 23bc e96f adbc e4d1 1a3d
00000040: 015e 28bd c02f 35bd 7c73 babb cbfa a53d
00000050: 4b4c bb3c ae64 35be e520 0dbd 64fe 44bd
00000060: 0d0c d93c 9384 0dbd daae 3fbe 7279 a43c
00000070: be87 0c3c 50e5 c13c a84c 04be 2c0e e83f
00000080: 52f7 f2bd 54e5 babd 1715 bebd 855c 8ebd
00000090: 5217 5fbe 274c 90bd c2fe edbd e212 d3bd
000000a0: e5e5 f0bd 8caa 54bd 1fc0 8fbd 4615 d6bd
000000b0: 8224 e1bd 3815 58bd 1df5 c33c 43eb e93c
000000c0: 59ee 9ebd 76ba adbd f768 b5bd 2293 b4bd
000000d0: 8d20 96bd e0a9 acbd 59ce d8bd 43de 64bd
000000e0: 1436 92bd 2721 75bd 98ac 8bbd f20b 5dbd
000000f0: 62fa 7fbd 6bbf 2ebe fda1 02be 4fbf f2bd
00000100: 1b0e a6bd 75a5 3dbd bffb a3bd e9dd 90bc
00000110: ca6f d0ba 2583 00bd 6168 17bd 07e0 9cba
00000120: 244f 86bd 0d4e 5bbb 5766 29bd 559d 7fbd
00000130: 201a 5cbd 45e8 253d 0ad8 99bd 0e46 213e
00000140: 3910 8a3d dfaf f1bc 5040 59be c80a 56bc
00000150: 19af 2cbe a4a9 1e3e 6c47 66bc 6355 383c
00000160: 4622 a43c 020e 07bc 166f 8cbd c21a 37b9
00000170: 64ad 533c ff1c 3b3d 2fbb 13be 4015 623f
00000180: 9887 84bc fa49 7b3c 3b50 a5bd 33fa ed3a
00000190: 2b4a 973c 80d6 59bc d440 b33c 7918 cbbb
000001a0: 4595 ee3c c383 be3c c102 3cbd 5ba5 e73c
000001b0: 95ea b13c 1531 943c f76a 72bc d446 d03d
000001c0: 9e53 143d ab6d 43be bcd5 0cbd 8f1d 063d
000001d0: 338d 10bd d1cb be3d f6a4 34be 564f 783c
000001e0: 12be 58bd 7f63 113d 8111 4fbd 8a45 2dbd
000001f0: f733 38bd 5654 2f39 da9d e3bd f769 273f
00000200: b511 733d c405 fcbc 8524 943c ff0e a53d
00000210: 51a7 273c 308b 60bd 9fcf bfbc f64e d23d
00000220: cce9 0d3d 910c 3ebd 5f3c babd f075 753c
00000230: b365 a83c a2ab 7b3d 420b ebbc 98e2 4e3f
00000240: e78a 983c 6c96 023d f1bf 1fbd 4eea 8cbc
00000250: 51ac 3abb 8a81 0cbe 4b40 3f3c 5903 cf3c
00000260: 8450 9f3c 8ad5 673b 8091 c9bc 4e4f d7bb
00000270: 4318 683a 5bd8 a3bd 2b5d b8bd 46cd 8f3e
00000280: ad63 473d 93f1 a1bd f4ab f93d 61df c73c
00000290: a2b8 c6bd d4ad edbd 61aa a8bd c8ef d93c
000002a0: 7803 0a3d 2869 3abd 8888 1dbe c464 f93c
000002b0: 7562 043d ebdd 823c 0e4b 43bc b053 973f
000002c0: 1e81 f93b 6c50 1e3e 569e c4bd 3d87 843c
000002d0: 7741 fa3d 1e0d bcbe c985 223e c580 e3bc
000002e0: ff33 9f3d 1063 963c a7ae 4abe b133 843d
000002f0: ac54 8d3d 5db4 58be f308 023e 127d 873e
00000300: 9ae9 6b3d 787a 60bd 142f 403d f109 523d
00000310: 6589 69bd 26b3 a3bb 8540 6bbd 5a4d f53c
00000320: 6804 003d 923c f9bc 99ea 0cbc b612 0f3d
00000330: 2d53 723c 4222 463d bb80 11bd 8331 d13e
00000340: 830b 1abd 7260 7dbd 980e e93d b3c7 05bd
00000350: 4a7f 2ebd 61df febd 5cf1 7dbd 03c6 d3bd
00000360: 6d9b d2bd 7ca8 bbbc e7df e5bd b60d f0bd
00000370: 321c d7bd 9331 9bbd 2749 e3bd d71a 6e3c
00000380: 9753 f1bd 468b 10be 4312 043d 49a1 b8bd
00000390: 63f4 3cbd 3215 7ebe 4743 12be 2f8a 45bd
000003a0: a973 7b3c c03f 61bd bf4a a6bd 4e50 b33b
000003b0: 7ca4 623b a56d 9bbd 534a 6cbe ac04 563c
000003c0: 6b55 c7bd 45c0 34be 7b3f e53c 6650 1bbd
000003d0: 58ee 32bc 603d 1cbe 74ce 08be 1345 9dbd
000003e0: a2d6 8abc 5b69 b5bd 46ce f9bd ee36 91bc
000003f0: a060 123b 588f d0bd 4776 a9bd 3371 a2bc
0.016836613 0.012024038 0.015232344 0.014269669 0.111815244 -0.0028044335 0.033392202 -0.041114233
0.05792416 0.03647854 -0.058666945 0.04606643 0.058495976 -0.009992409 -0.021171527 0.037797824
-0.041105274 -0.04423499 -0.0056900363 0.081044756 0.022863528 -0.17714188 -0.0344552 -0.04809417
0.026495004 -0.03455026 -0.18719044 0.02007744 0.008577285 0.023668915 -0.12919867 1.8129325
-0.11863579 -0.09125772 -0.09281366 -0.069512405 -0.2178624 -0.07045775 -0.11620857 -0.10306336
-0.11762599 -0.05192046 -0.07019066 -0.10453276 -0.109932914 -0.05275461 0.02392059 0.028554564
-0.07760305 -0.0848283 -0.08857911 -0.08817126 -0.07330427 -0.084308386 -0.10586233 -0.055876028
-0.07139221 -0.05984607 -0.06820029 -0.05396647 -0.062494643 -0.17065208 -0.12757106 -0.118528955
-0.08108159 -0.04630037 -0.08007001 -0.01768394 -0.0015902456 -0.03137507 -0.036964778 -0.0011968621
-0.065580636 -0.003346327 -0.041357365 -0.062405903 -0.053735852 0.040504713 -0.07511909 0.1574938
0.067413755 -0.029502807 -0.2121594 -0.013064094 -0.1686367 0.154944 -0.014055114 0.0112508265
0.020035874 -0.008243086 -0.068571255 -0.00017462208 0.0129197575 0.04568195 -0.14426874 0.88313675
-0.016177937 0.015337462 -0.08071943 0.001815623 0.018467983 -0.01329577 0.021881498 -0.0061979857
0.029123912 0.023256188 -0.045901064 0.02827709 0.021718303 0.01808981 -0.01479601 0.101697594
0.036212556 -0.19084804 -0.03438352 0.032743033 -0.035290908 0.09316219 -0.17641053 0.015155634
-0.05291564 0.035495277 -0.050553802 -0.042302646 -0.044971433 0.00016720718 -0.11114092 0.65396065
0.05934306 -0.030764468 0.01808382 0.08059501 0.010232762 -0.05482024 -0.023414431 0.10268967
0.034646794 -0.046398703 -0.09093546 0.014981732 0.020556306 0.06144298 -0.028691892 0.80814505
0.018620921 0.031881735 -0.03900141 -0.017201569 -0.0028484056 -0.1372129 0.0116730435 0.025270151
0.019447573 0.0035375082 -0.024605513 -0.006570733 0.0008853713 -0.08000251 -0.090021454 0.280863
0.048679043 -0.07907405 0.121910006 0.024398508 -0.09703185 -0.11605421 -0.08235622 0.026603594
0.033694714 -0.04551044 -0.15384114 0.030443557 0.03232046 0.01597496 -0.01191975 1.1822414
0.007614269 0.15460366 -0.09600513 0.016177768 0.12219518 -0.36728758 0.15871347 -0.027771363
0.07773589 0.018357784 -0.19793187 0.06455172 0.069009155 -0.21162553 0.12698726 0.2646261
0.057595827 -0.054804295 0.046919897 0.051279012 -0.057015795 -0.0049957214 -0.057434577 0.02994411
0.031254202 -0.03042439 -0.008600854 0.034929954 0.014790338 0.048372515 -0.035523158 0.40858087
-0.037608635 -0.061859556 0.11379737 -0.03266115 -0.04260186 -0.1244495 -0.061997756 -0.10340502
-0.10283551 -0.022907488 -0.112243466 -0.11721365 -0.10503425 -0.07577815 -0.11097937 0.014532766
-0.117835216 -0.14115629 0.03224398 -0.09015138 -0.046131503 -0.24812773 -0.14283477 -0.048227485
0.0153474 -0.054992437 -0.081197254 0.0054722195 0.0034582904 -0.075892724 -0.23075227 0.013062637
-0.09733089 -0.1765147 0.027984371 -0.03791847 -0.010921083 -0.15257788 -0.13360006 -0.076791905
-0.016948048 -0.088579856 -0.12197547 -0.017726388 0.0022335425 -0.10183591 -0.08274513 -0.019829368

encoder.network.0.downsample.bias f4 [24]
00000000: b167 c4bd cb2a dc3c dcd4 74bc e562 41be
00000010: bbc5 fdbd ca0a 6bbd 5aea 1ebe 27ec 553e
00000020: 8704 c7bd d335 0a3e 0dfd 7cbd 90d2 48be
00000030: 0a03 f7bd 23e3 3bbe 5d2a bc3d 4e6a 63bd
00000040: c8d6 a9be 80d5 d3bd ef09 de3b 0373 883d
00000050: d83c 043e dfaa 41be 4b0d 4d3e 8551 003e
-0.0959009 0.026875874 -0.014943328 -0.18885382 -0.1239123 -0.057383336 -0.15519086 0.20890866
-0.097176604 0.13497095 -0.061764766 -0.19611573 -0.120611265 -0.18348365 0.09187768 -0.055521302
-0.33171678 -0.10343456 0.0067760865 0.06662562 0.12913835 -0.18912838 0.20024602 0.12531097

encoder.network.1.conv1.bias f4 [32]
00000000: b841 c83d b125 493d 5df8 b9bd 56d6 aebd
00000010: 278e 0b3e b091 d7bb 67f4 9dbd 60f1 0cbe
00000020: c3b5 b33d da2d 073e 22fc ddbd e500 0abe
00000030: 18ea 763d 9f2f 853d 7902 093e 2c28 1dbc
00000040: 805b e1bd 8169 0b3e 378b 10bd 1a34 983c
00000050: ad3a c83d 61ee 693d 918d 353d da32 09be
00000060: 0bba 1fbd e07f 06be 09ca 61bd 318a 123e
00000070: 84e0 0bbc 4813 0a3e 0319 133d 4e2e 7d3d
0.0977816 0.04910821 -0.09080575 -0.08536975 0.13628446 -0.0065786466 -0.07712632 -0.13763952
0.08774903 0.13201085 -0.10839106 -0.13476904 0.060281843 0.06503224 0.1337985 -0.009592097
-0.1100378 0.13614465 -0.035289016 0.018579531 0.097768165 0.0571121 0.04432446 -0.13398305
-0.038995784 -0.13134718 -0.055124316 0.14310528 -0.008537415 0.13483918 0.035912525 0.061811738

encoder.network.1.conv1.weight_g f4 [32, 1, 1]
00000000: c527 003f 9e87 083f a24d 0c3f c4c9 153f
00000010: 37df 1a3f c98f 123f 8647 1d3f 3974 fa3e
00000020: f569 f33e 7441 1e3f a476 283f df5a 1e3f
00000030: 3ee1 0a3f 6205 183f 2552 033f 23d1 1d3f
00000040: 5508 0d3f afc0 1d3f f63f 233f f257 193f
00000050: eba1 063f 6626 ff3e ac79 0d3f 4b27 303f
00000060: 5f91 ff3e f928 193f 4ce2 0d3f 0aad 0b3f
00000070: e368 043f 271b ca3e e443 033f 9a43 1e3f
0.50060683 0.53331935 0.5480596 0.58510995 0.6049685 0.5725065 0.6143726 0.48916796
0.47541776 0.61818624 0.6580603 0.6185741 0.5424994 0.59383214 0.5129722 0.6164724
0.5509084 0.61622137 0.6376947 0.5989982 0.5259082 0.49833983 0.5526378 0.68809956
0.49915597 0.59828144 0.55423427 0.5456091 0.51722544 0.3947384 0.5127547 0.618219
