1223-code-DL/model/TCN_state_dict.pt (torch, 272061 bytes, 91 tensors)

tcn.network.0.conv1.bias f4 [24]
-0.04644879 -0.046578497 0.05759778 -0.15483375 -0.16831955 0.13708359 -0.083578974 -0.20188376
0.061664607 -0.07096313 -0.12997676 0.037289895 -0.17004085 -0.0031237616 -0.13615194 0.09463584
-0.0038681536 0.020253262 -0.6251165 -0.2988951 0.0051529324 -0.20375271 -0.15586078 0.041355904
00000000: 1641 3ebd 18c9 3ebd a6eb 6b3d bd8c 1ebe
00000010: f65b 2cbe a45f 0c3e 742b abbd 9eba 4ebe
00000020: 0794 7c3d 1e55 91bd a118 05be 4abd 183d
00000030: 301f 2ebe 06b8 4cbb 6a6b 0bbe 6fd0 c13d
00000040: d980 7dbb 2bea a53c a307 20bf c708 99be
00000050: eed9 a83b 8da4 50be f899 1fbe cf64 293d

tcn.network.0.conv1.weight_g f4 [24, 1, 1]
0.61578023 0.617637 0.57630527 0.57915103 0.59228307 0.42096013 0.46571517 0.5385572
0.667177 0.5063502 0.54220945 0.5495556 0.5325764 0.38057125 0.54457164 1.1898504
0.29762128 0.53744733 1.0430197 0.37403372 0.5626598 0.49618903 0.48931864 0.76032525
00000000: c6a3 1d3f 751d 1e3f be88 133f 3e43 143f
00000010: dd9f 173f 1688 d73e 3872 ee3e e2de 093f
00000020: 1dcc 2a3f 2ba0 013f 3dce 0a3f adaf 0c3f
00000030: ed56 083f 3cda c23e 0c69 0b3f 054d 983f
00000040: d161 983e 2696 093f ab81 853f 5981 bf3e
00000050: 790a 103f 7d0c fe3e f987 fa3e ada4 423f

tcn.network.0.conv1.weight_v f4 [24, 16, 2]
-0.15354903 0.009927811 0.11596093 -0.12210867 0.13294415 -0.21097393 0.027693791 0.013350098
-0.08978115 -0.09137878 -0.17540528 -0.0725476 -0.1015531 -0.078657664 0.11334717 0.019824926
-0.21400543 -0.14448482 0.106860265 -0.036428094 -0.10502478 0.064619906 0.12654817 -0.16229929
0.13660996 -0.08512984 -0.011830812 -0.17677426 -0.19376473 -0.17491242 -0.16476376 -0.20683001
-0.06991065 0.005517566 0.10333171 0.054121163 -0.17594184 0.12014271 -0.057632953 -0.1961419
0.16744542 -0.13758321 0.16351692 0.121723734 -0.19478764 -0.09231408 0.12253865 0.010234217
-0.018487224 -0.122145094 -0.17306763 -0.14827766 0.04565627 -0.17105846 -0.17616627 0.09462104
-0.06252926 0.14322035 -0.07484956 -0.026598852 -0.014338794 0.12783694 0.13417199 -0.019641893
0.12976342 0.037290514 -0.12246709 -0.16904986 0.0021621147 0.085956395 -0.003759766 -0.11779681
-0.21234049 0.024717256 0.031491198 0.13121165 -0.11662191 -0.20252986 0.051703963 0.034813154
-0.012900328 0.07513654 0.09165675 -0.0013583187 0.109643556 -0.20282696 0.111276805 0.12669982
-0.07778717 -0.092857376 -0.0065687452 -0.029943272 0.008164628 0.00303406 -0.016831243 -0.0997466
-0.17670214 -0.03896904 -0.15219295 0.017259415 -0.119862944 0.030607449 0.047147818 -0.12908712
0.112865545 -0.12943885 0.14274597 0.05411115 -0.19016433 -0.11646322 -0.0010477053 0.11542626
-0.012316944 -0.14558789 -0.0022594905 0.14193916 0.094559155 0.08668525 -0.07429322 -0.011902831
-0.11738485 0.1464914 -0.14261179 -0.18076384 -0.122352585 0.121049725 0.0059654624 -0.037745386
0.13106373 -0.09114481 0.10909895 0.13670808 -0.15933207 -0.11501366 -0.18691732 -0.02962579
0.050202284 0.0685557 0.00020176427 0.12361283 0.10056999 0.08847579 0.14063802 -0.17895374
0.01966809 -0.10314185 0.08187973 -0.13681076 0.07785866 -0.08062229 -0.11338615 -0.17118566
0.05135818 0.02082029 -0.12100516 0.023771467 -0.13365623 0.04398638 0.009806677 -0.19352397
0.076451935 -0.15209572 -0.058264192 -0.11710888 0.010023103 -0.013517579 -0.03129699 0.013739458
-0.025556842 0.046883535 -0.19050498 0.06915238 0.11460774 -0.09803114 -0.1648286 0.059153512
-0.038965743 0.033854764 -0.16223642 -0.057485785 -0.052934345 -0.123946846 -0.15954444 -0.093821794
-0.12354523 -0.12034327 -0.099211596 -0.095702015 -0.045117263 0.08360025 -0.056880422 -0.16853365
-0.12741955 -0.11194361 -0.021135706 0.2029451 0.5562654 -0.50719786 0.15516438 0.2887985
-0.31678382 -0.39996317 -0.25001514 -0.4473075 0.040552877 0.035804793 0.47211987 0.81723446
-0.22242408 -0.27644154 0.38428396 -0.11775795 -0.6113737 0.23567025 0.0058593084 -0.23953523
-0.117314644 0.32050085 0.51417404 0.48185778 0.23102589 0.27008772 -0.69213897 -0.428461
-0.014213542 -0.020225007 0.0010342518 -0.034938585 0.024096165 -0.00436483 -0.046368092 -0.033125594
-0.10095511 0.020367345 -0.14172213 -0.0108909 -0.116048284 0.08850082 -0.048899345 0.039772503
-0.11699502 -0.21307434 -0.0761383 0.44609633 -0.080527164 0.0019911937 -0.08971738 -0.084343575
-0.0977596 -0.095340654 0.037755027 0.08283978 -0.005359272 -0.02998282 0.45327652 0.41121504
00000000: f53b 1dbe 42a8 223c ed7c ed3d 1c14 fabd
00000010: 8322 083e 8d09 58be 17de e23c 5fba 5a3c
00000020: 2edf b7bd cc24 bbbd 719d 33be d693 94bd
00000030: 12fb cfbd 4517 a1bd 9022 e83d e267 a23c
00000040: 3d24 5bbe d4f3 13be 8ed9 da3d a035 15bd
00000050: 3b17 d7bd 7157 843d d895 013e c931 26be
00000060: 7be3 0b3e 8e58 aebd 06d6 41bc 5004 35be
00000070: 436a 46be 3e1c 33be d5b7 28be 3fcb 53be
00000080: 512d 8fbd b3cc b43b 939f d33d 27ae 5d3d
00000090: 192a 34be 620d f63d 8810 6cbd 6cd9 48be
000000a0: d076 2b3e 9de2 0cbe fb70 273e 4b4a f93d
000000b0: 6976 47be 2a0f bdbd 8bf5 fa3d 6bad 273c
000000c0: 8572 97bc 3527 fabd a438 31be 19d6 17be
000000d0: 1202 3b3d f329 2fbe ee64 34be adc8 c13d
000000e0: 570f 80bd 5ba8 123e ba4a 99bd d6e5 d9bc
000000f0: 43ed 6abc b0e7 023e 6264 093e 09e8 a0bc
00000100: b4e0 043e f0bd 183d 07d0 fabd 681b 2dbe
00000110: 44b2 0d3b e809 b03d 6866 76bb 743f f1bd
00000120: c96f 59be d87b ca3c eafc 003d 595c 063e
00000130: 78d7 eebd fd63 4fbe 89c7 533d 3d98 0e3d
00000140: e65b 53bc 30e1 993d 89b6 bb3d 9d09 b2ba
00000150: cd8c e03d dfb1 4fbe 18e5 e33d 99bd 013e
00000160: e14e 9fbd 022c bebd a13e d7bb 984b f5bc
00000170: efc4 053c 14d7 463b ade1 89bc f247 ccbd
00000180: 68f1 34be 009e 1fbd 78d8 1bbe 9e63 8d3c
00000190: b47a f5bd 79bc fa3c 121e 413d 6a2f 04be
000001a0: 0d26 e73d 9e8b 04be 002c 123e a7a3 5d3d
000001b0: 70ba 42be 4584 eebd 2853 89ba 9a64 ec3d
000001c0: 02cd 49bc fe14 15be f613 14bb 8058 113e
000001d0: 3ba8 c13d 0988 b13d 0b27 98bd 1704 43bc
000001e0: 7867 f0bd d701 163e d308 12be 281a 39be
000001f0: fe93 fabd ebe8 f73d ed79 c33b e89a 1abd
00000200: 9235 063e 21aa babd 456f df3d 34fd 0b3e
00000210: f227 23be 488c ebbd 4167 3fbe c9b1 f2bc
00000220: e9a0 4d3d ee66 8c3d af90 5339 b928 fd3d
00000230: a4f7 cd3d cc32 b53d 6a03 103e a63f 37be
00000240: f91e a13c 093c d3bd 8fb0 a73d 1f18 0cbe
00000250: 5c74 9f3d 4d1d a5bd ff36 e8bd 4b4b 2fbe
00000260: f45c 523d 508f aa3c 8ed1 f7bd 61bc c23c
00000270: 2edd 08be 102b 343d 2fac 203c 262b 46be
00000280: d592 9c3d fbbe 1bbe 6fa6 6ebd c8d6 efbd
00000290: f137 243c d678 5dbc 4631 00bd 771b 613c
000002a0: 955c d1bc f308 403d bd13 43be c39f 8d3d
000002b0: 76b7 ea3d 8dc4 c8bd d4c8 28be f44a 723d
000002c0: 8b9a 1fbd 4bab 0a3d 4e21 26be 3776 6bbd
000002d0: afd1 58bd d8d7 fdbd 9e5f 23be a425 c0bd
000002e0: 4805 fdbd 8876 f6bd 732f cbbd 6bff c3bd
000002f0: e1cc 38bd 9c36 ab3d 72fb 68bd 1694 2cbe
00000300: 457a 02be b142 e5bd ca24 adbc d7d0 4f3e
00000310: 6967 0e3f b8d7 01bf 69e3 1e3e 66dd 933e
00000320: 7d31 a2be f9c7 ccbe fc01 80be 7d05 e5be
00000330: c61a 263d 0ca8 123d b2b9 f13e 4736 513f
00000340: 23c3 63be bf89 8dbe dec0 c43e 152b f1bd
00000350: fd82 1cbf 8b53 713e 71ff bf3b b948 75be
00000360: a942 f0bd b018 a43e e9a0 033f 10b6 f63e
00000370: 0d92 6c3e f048 8a3e 0530 31bf 3d5f dbbe
00000380: ebdf 68bc eaae a5bc bb8f 873a c31b 0fbd
00000390: 5265 c53c d906 8fbb 78ec 3dbd b4ae 07bd
000003a0: 8dc1 cebd 6bd9 a63c 9b1f 11be bf6f 32bc
000003b0: b9aa edbd eb3f b53d ae4a 48bd 7ee8 223d
000003c0: 169b efbd 2930 5abe 66ee 9bbd bd66 e43e
000003d0: 6deb a4bd b07e 023b bfbd b7bd 53bc acbd
000003e0: 2f36 c8bd f641 c3bd 04a5 1a3d e7a7 a93d
000003f0: d59c afbb 889e f5bc dc13 e83e c78a d23e

tcn.network.0.conv2.bias f4 [24]
-0.14678934 -0.19792804 -0.157875 -0.18811528 -0.12179071 -0.17420049 0.0810376 -0.09811124
-0.03773166 -0.12024787 -0.11352574 0.060708586 -0.0062307403 -0.2779928 -0.19593371 -0.12677994
-0.15366073 -0.10212644 -0.14345014 -0.07908875 0.084630474 -0.15412913 0.033735096 0.011026842
00000000: f24f 16be a6ad 4abe fca9 21be 4ba1 40be
00000010: 686d f9bd 9d61 32be 0bf7 a53d 8cee c8bd
00000020: 838c 1abd 8444 f6bd 2f80 e8bd 91a9 783d
00000030: 3d2b ccbb 1355 8ebe d9a2 48be 9ad2 01be
00000040: 3d59 1dbe ab27 d1bd 98e4 12be 48f9 a1bd
00000050: be52 ad3d 07d4 1dbe d02d 0a3d eda9 343c

tcn.network.0.conv2.weight_g f4 [24, 1, 1]
0.49522048 0.73793834 0.57597035 0.9282681 0.60845697 0.5403222 0.50896627 0.42684224
0.4930681 0.5392564 0.5250902 0.56041515 0.5943285 0.6895004 0.44881976 0.58285415
0.56986433 0.5029046 0.5106514 0.5299199 0.57857066 0.57782626 0.6731558 0.60788524
00000000: 8a8d fd3e 87e9 3c3f cb72 133f faa2 6d3f
00000010: d6c3 1b3f 8e52 0a3f 9d4b 023f 118b da3e
00000020: 6c73 fc3e b50c 0a3f 506c 063f 5e77 0f3f
00000030: ea25 183f 1983 303f b4cb e53e ee35 153f
00000040: a1e2 113f 5bbe 003f 0dba 023f d5a8 073f
00000050: 351d 143f 6cec 133f f053 2c3f 5e9e 1b3f

tcn.network.0.conv2.weight_v f4 [24, 24, 2]
-0.14123666 0.13874991 0.026337894 0.066070035 0.051616333 -0.013957933 0.012016449 0.02620585
0.014040136 0.080660075 0.076911494 -0.099353656 -0.13626115 0.18075247 -0.001238734 -0.12531337
-0.14320819 -0.13670103 -0.108365305 -0.02481738 -0.08308382 -0.12027948 -0.20067693 -0.20408957
0.059667204 0.10826624 0.089380346 -0.102651484 -0.020667028 -0.15339065 0.20264667 0.022609761
0.08548588 -0.09648736 0.13079952 0.09842606 0.14187407 0.07903091 -0.12110737 0.09315623
-0.05658661 -0.0728035 -0.15187502 -0.1698032 -0.1417693 0.1904041 0.04050815 -0.15755957
-0.032426063 0.027306655 -0.1076342 0.001476054 -0.050020337 -0.048350926 -0.020960214 -0.027330456
-0.07633524 0.0007638163 4.7807047e-05 1.55496e-40 0.08080867 0.069860116 0.17817292 0.15760511
0.09743141 0.20087142 0.013935669 -0.011183162 -0.028148381 -1.5872184e-35 -0.0012815092 -0.018594183
-3.22961e-40 0.028260663 -0.0320818 -0.064464465 -0.057163667 0.014559333 0.009749822 -0.053111747
-0.01244209 -4.932475e-39 0.053354923 -0.004862424 -0.32369673 0.373523 -0.055444688 -0.0732307
0.082922466 0.11013607 -2.4227722e-07 -0.0013837133 -0.004430639 0.058478247 -0.1418373 -0.13594997
-0.035279434 -0.14153852 -0.06431547 -0.07969737 0.08545488 -0.14786805 0.050292794 -0.0353216
-0.018011753 -0.04645206 -0.037981767 0.07030166 0.07468747 -0.16251595 -0.100503236 0.091425575
0.04835988 -0.1647097 -0.006948831 -0.11081299 0.0786735 -0.1388329 -0.17144959 -0.12640199
-0.16929635 0.107328266 0.10694913 0.086972624 -0.09870622 -0.1133629 -0.11985712 0.0919862
-0.084579594 0.17825052 -0.17799148 0.17770068 -0.11566261 -0.06404165 0.15272488 -0.16074222
-0.123588786 0.026699219 0.050181635 0.058268283 -0.047727004 -0.18154022 -0.08200542 0.045501698
0.017579045 -0.0005222528 0.0050888574 -0.0035782827 -0.08277137 -0.18889304 0.09358612 0.060752127
0.08333456 0.086172916 0.014335872 -0.01623635 -0.18424231 -0.22044545 0.07422316 0.13490918
-0.28714287 -0.16562355 -0.012818772 0.011641394 -0.0047193505 0.002255395 -0.005642318 0.021409657
0.0055361465 -0.002100078 -0.0003529224 -0.0028662253 -0.04171649 -0.012113498 -0.008668753 -0.028780863
-0.10193008 -0.053921945 -0.0028183765 -4.822417e-05 -0.1084241 -0.23730113 -0.35762197 -0.37033552
-0.004434252 0.035848886 0.01957324 -0.008119856 0.0012269426 -1.338592e-06 -0.17502144 -0.28240922
-0.05999145 -0.010752559 -0.097186014 0.041453175 0.045873564 -0.12539008 -0.11840915 0.05038871
0.10183872 0.119053856 -0.11628623 -0.05487441 -0.07414892 -0.064054705 0.05898073 -0.0815131
-0.04240283 -0.13129333 -0.085244566 -0.05142011 0.08923923 -0.12386349 0.1209664 -0.025880596
-0.13489076 -0.124331586 -0.056729205 0.14161143 -0.04249898 -0.018229933 0.06173943 -0.112348616
-0.08955734 -0.10398405 -0.1306556 0.0019717822 -0.038287222 -0.0022532786 -0.040332645 -0.13984801
-0.11542316 -0.13293883 -0.11896552 -0.008352613 -0.054010667 0.098835796 -0.023372319 -0.0092669595
0.18251117 0.10796168 -0.14409989 -0.12746982 -0.0013923771 0.08288089 -0.1068533 -0.11960554
-0.046651836 -0.06496741 -0.11710669 -0.1864155 -0.16312477 -0.055630695 0.018614322 -0.075425476
00000000: 58a0 10be 7514 0e3e 91c2 d73c ba4f 873d
00000010: a66b 533d d0af 64bc a4e0 443c a7ad d63c
00000020: 9908 663c 1c31 a53d c683 9d3d ee79 cbbd
00000030: 0b88 0bbe 2d17 393e 045d a2ba 2652 00be
00000040: 2ba5 12be 5bfb 0bbe a1ee ddbd d14d cbbc
00000050: da27 aabd 1755 f6bd 417e 4dbe dbfc 50be
00000060: 9965 743d b1ba dd3d 0b0d b73d f13a d2bd
00000070: e64d a9bc 7012 1dbe 9c82 4f3e 1b38 b93c
00000080: 3913 af3d 2a9b c5bd 4ff0 053e 9a93 c93d
00000090: 7047 113e f5da a13d 2407 f8bd b2c8 be3d
000000a0: 5cc7 67bd 001a 95bd 2085 1bbe e4e0 2dbe
000000b0: f92b 11be 4bf9 423e e0eb 253d 4c57 21be
000000c0: 31d1 04bd 35b2 df3c 526f dcbd 2778 c13a
000000d0: 20e2 4cbd 9f0b 46bd c1b4 abbc 1fe4 dfbc
000000e0: a655 9cbd d83a 483a 6d84 4838 76b1 0100
000000f0: 047f a53d d212 8f3d f672 363e 3c63 213e
00000100: 1e8a c73d 3db1 4d3e 6f52 643c 9539 37bc
00000110: 6f97 e6bc 32c8 a885 50f8 a7ba d452 98bc
00000120: 4984 0380 e882 e73c 3568 03bd f205 84bd
00000130: 7324 6abd 458a 6e3c b8bd 1f3c b48b 59bd
00000140: e8d9 4bbc bcb5 3580 b18a 5a3d f854 9fbb
00000150: 94bb a5be 683e bf3e f819 63bd faf9 95bd
00000160: 41d3 a93d 058f e13d 5412 82b4 b75d b5ba
00000170: e52e 91bb e386 6f3d cc3d 11be 7836 0bbe
00000180: 2b81 10bd 79ef 10be d4b7 83bd 6038 a3bd
00000190: f802 af3d b96a 17be d1ff 4d3d 62ad 10bd
000001a0: 628d 93bc 8444 3ebd c592 1bbd 51fa 8f3d
000001b0: bff5 983d 956a 26be a4d4 cdbd 553d bb3d
000001c0: 0215 463d a9a9 28be 05b3 e3bb ecf1 e2bd
000001d0: 921f a13d 362a 0ebe 7b90 2fbe 866f 01be
000001e0: 065c 2dbe ecce db3d 2508 db3d b41e b23d
000001f0: 7d26 cabd cf2a e8bd a677 f5bd 4363 bc3d
00000200: 1138 adbd 4e87 363e 6643 36be 2bf7 353e
00000210: 85e0 ecbd 4528 83bd e963 1c3e 9c99 24be
00000220: 1e1c fdbd 52b8 da3c 428b 4d3d b9aa 6e3d
00000230: 647d 43bd aee5 39be 75f2 a7bd fd5f 3a3d
00000240: ee01 903c cbe7 08ba 6ec0 a63b 9f81 6abb
00000250: 0984 a9bd 2d6d 41be 14aa bf3d 39d7 783d
00000260: 4fab aa3d 6d7b b03d 01e1 6a3c 1802 85bc
00000270: 04aa 3cbe 74bc 61be 5002 983d a225 0a3e
00000280: 6404 93be 3899 29be d405 52bc 8cbb 3e3c
00000290: c8a4 9abb 40cf 133b 32e3 b8bb 4e63 af3c
000002a0: 9068 b53b 76a1 09bb 7108 b9b9 48d7 3bbb
000002b0: e9de 2abd b177 46bc 6307 0ebc d8c5 ebbc
000002c0: b8c0 d0bd 42dd 5cbd 83b4 38bb 4f44 4ab8
000002d0: 740d debd 11ff 72be 3a1a b7be 9e9c bdbe
000002e0: 344d 91bb 48d6 123d 0f58 a03c 2509 05bc
000002f0: 5dd1 a03a aca9 b3b5 d238 33be f197 90be
00000300: 98b9 75bd 802b 30bc 7609 c7bd ceca 293d
00000310: ebe5 3b3d 4266 00be 7f80 f2bd 6464 4e3d
00000320: d290 d03d 82d2 f33d 7a27 eebd fdc3 60bd
00000330: 64db 97bd 1d2f 83bd c795 713d 57f0 a6bd
00000340: 97ae 2dbd c271 06be b494 aebd e59d 52bd
00000350: 0fc3 b63d 24ac fdbd 3bbd f73d 8b03 d4bc
00000360: ce20 0abe 8fa1 febd e25c 68bd 9602 113e
00000370: 6913 2ebd f156 95bc 7ce2 7c3d 0817 e6bd
00000380: d769 b7bd 97f5 d4bd 95ca 05be 0439 013b
00000390: 10d3 1cbd beab 13bb d833 25bd 5134 0fbe
000003a0: fa62 ecbd 1e21 08be 32a4 f3bd 66d9 08bc
000003b0: 4a3a 5dbd 6c6a ca3d 4e77 bfbc 72d4 17bc
000003c0: 35e4 3a3e 031b dd3d ec8e 13be 7387 02be
000003d0: 6c80 b6ba 75bd a93d e7d5 dabd c0f3 f4bd
000003e0: ff15 3fbd a20d 85bd a2d5 efbd b4e3 3ebe
000003f0: 2e0a 27be 03dd 63bd 107d 983c ac78 9abd

tcn.network.0.net.0.bias f4 [24]
-0.04644879 -0.046578497 0.05759778 -0.15483375 -0.16831955 0.13708359 -0.083578974 -0.20188376
0.061664607 -0.07096313 -0.12997676 0.037289895 -0.17004085 -0.0031237616 -0.13615194 0.09463584
-0.0038681536 0.020253262 -0.6251165 -0.2988951 0.0051529324 -0.20375271 -0.15586078 0.041355904
00000000: 1641 3ebd 18c9 3ebd a6eb 6b3d bd8c 1ebe
00000010: f65b 2cbe a45f 0c3e 742b abbd 9eba 4ebe
00000020: 0794 7c3d 1e55 91bd a118 05be 4abd 183d
00000030: 301f 2ebe 06b8 4cbb 6a6b 0bbe 6fd0 c13d
00000040: d980 7dbb 2bea a53c a307 20bf c708 99be
00000050: eed9 a83b 8da4 50be f899 1fbe cf64 293d

tcn.network.0.net.0.weight_g f4 [24, 1, 1]
0.61578023 0.617637 0.57630527 0.57915103 0.59228307 0.42096013 0.46571517 0.5385572
0.667177 0.5063502 0.54220945 0.5495556 0.5325764 0.38057125 0.54457164 1.1898504
0.29762128 0.53744733 1.0430197 0.37403372 0.5626598 0.49618903 0.48931864 0.76032525
00000000: c6a3 1d3f 751d 1e3f be88 133f 3e43 143f
00000010: dd9f 173f 1688 d73e 3872 ee3e e2de 093f
00000020: 1dcc 2a3f 2ba0 013f 3dce 0a3f adaf 0c3f
00000030: ed56 083f 3cda c23e 0c69 0b3f 054d 983f
00000040: d161 983e 2696 093f ab81 853f 5981 bf3e
00000050: 790a 103f 7d0c fe3e f987 fa3e ada4 423f

tcn.network.0.net.0.weight_v f4 [24, 16, 2]
-0.15354903 0.009927811 0.11596093 -0.12210867 0.13294415 -0.21097393 0.027693791 0.013350098
-0.08978115 -0.09137878 -0.17540528 -0.0725476 -0.1015531 -0.078657664 0.11334717 0.019824926
-0.21400543 -0.14448482 0.106860265 -0.036428094 -0.10502478 0.064619906 0.12654817 -0.16229929
0.13660996 -0.08512984 -0.011830812 -0.17677426 -0.19376473 -0.17491242 -0.16476376 -0.20683001
-0.06991065 0.005517566 0.10333171 0.054121163 -0.17594184 0.12014271 -0.057632953 -0.1961419
0.16744542 -0.13758321 0.16351692 0.121723734 -0.19478764 -0.09231408 0.12253865 0.010234217
-0.018487224 -0.122145094 -0.17306763 -0.14827766 0.04565627 -0.17105846 -0.17616627 0.09462104
-0.06252926 0.14322035 -0.07484956 -0.026598852 -0.014338794 0.12783694 0.13417199 -0.019641893
0.12976342 0.037290514 -0.12246709 -0.16904986 0.0021621147 0.085956395 -0.003759766 -0.11779681
-0.21234049 0.024717256 0.031491198 0.13121165 -0.11662191 -0.20252986 0.051703963 0.034813154
-0.012900328 0.07513654 0.09165675 -0.0013583187 0.109643556 -0.20282696 0.111276805 0.12669982
-0.07778717 -0.092857376 -0.0065687452 -0.029943272 0.008164628 0.00303406 -0.016831243 -0.0997466
-0.17670214 -0.03896904 -0.15219295 0.017259415 -0.119862944 0.030607449 0.047147818 -0.12908712
0.112865545 -0.12943885 0.14274597 0.05411115 -0.19016433 -0.11646322 -0.0010477053 0.11542626
-0.012316944 -0.14558789 -0.0022594905 0.14193916 0.094559155 0.08668525 -0.07429322 -0.011902831
-0.11738485 0.1464914 -0.14261179 -0.18076384 -0.122352585 0.121049725 0.0059654624 -0.037745386
0.13106373 -0.09114481 0.10909895 0.13670808 -0.15933207 -0.11501366 -0.18691732 -0.02962579
0.050202284 0.0685557 0.00020176427 0.12361283 0.10056999 0.08847579 0.14063802 -0.17895374
0.01966809 -0.10314185 0.08187973 -0.13681076 0.07785866 -0.08062229 -0.11338615 -0.17118566
0.05135818 0.02082029 -0.12100516 0.023771467 -0.13365623 0.04398638 0.009806677 -0.19352397
0.076451935 -0.15209572 -0.058264192 -0.11710888 0.010023103 -0.013517579 -0.03129699 0.013739458
-0.025556842 0.046883535 -0.19050498 0.06915238 0.11460774 -0.09803114 -0.1648286 0.059153512
-0.038965743 0.033854764 -0.16223642 -0.057485785 -0.052934345 -0.123946846 -0.15954444 -0.093821794
-0.12354523 -0.12034327 -0.099211596 -0.095702015 -0.045117263 0.08360025 -0.056880422 -0.16853365
-0.12741955 -0.11194361 -0.021135706 0.2029451 0.5562654 -0.50719786 0.15516438 0.2887985
-0.31678382 -0.39996317 -0.25001514 -0.4473075 0.040552877 0.035804793 0.47211987 0.81723446
-0.22242408 -0.27644154 0.38428396 -0.11775795 -0.6113737 0.23567025 0.0058593084 -0.23953523
-0.117314644 0.32050085 0.51417404 0.48185778 0.23102589 0.27008772 -0.69213897 -0.428461
-0.014213542 -0.020225007 0.0010342518 -0.034938585 0.024096165 -0.00436483 -0.046368092 -0.033125594
-0.10095511 0.020367345 -0.14172213 -0.0108909 -0.116048284 0.08850082 -0.048899345 0.039772503
-0.11699502 -0.21307434 -0.0761383 0.44609633 -0.080527164 0.0019911937 -0.08971738 -0.084343575
-0.0977596 -0.095340654 0.037755027 0.08283978 -0.005359272 -0.02998282 0.45327652 0.41121504
00000000: f53b 1dbe 42a8 223c ed7c ed3d 1c14 fabd
00000010: 8322 083e 8d09 58be 17de e23c 5fba 5a3c
00000020: 2edf b7bd cc24 bbbd 719d 33be d693 94bd
00000030: 12fb cfbd 4517 a1bd 9022 e83d e267 a23c
00000040: 3d24 5bbe d4f3 13be 8ed9 da3d a035 15bd
00000050: 3b17 d7bd 7157 843d d895 013e c931 26be
00000060: 7be3 0b3e 8e58 aebd 06d6 41bc 5004 35be
00000070: 436a 46be 3e1c 33be d5b7 28be 3fcb 53be
00000080: 512d 8fbd b3cc b43b 939f d33d 27ae 5d3d
00000090: 192a 34be 620d f63d 8810 6cbd 6cd9 48be
000000a0: d076 2b3e 9de2 0cbe fb70 273e 4b4a f93d
000000b0: 6976 47be 2a0f bdbd 8bf5 fa3d 6bad 273c
000000c0: 8572 97bc 3527 fabd a438 31be 19d6 17be
000000d0: 1202 3b3d f329 2fbe ee64 34be adc8 c13d
000000e0: 570f 80bd 5ba8 123e ba4a 99bd d6e5 d9bc
000000f0: 43ed 6abc b0e7 023e 6264 093e 09e8 a0bc
00000100: b4e0 043e f0bd 183d 07d0 fabd 681b 2dbe
00000110: 44b2 0d3b e809 b03d 6866 76bb 743f f1bd
00000120: c96f 59be d87b ca3c eafc 003d 595c 063e
00000130: 78d7 eebd fd63 4fbe 89c7 533d 3d98 0e3d
00000140: e65b 53bc 30e1 993d 89b6 bb3d 9d09 b2ba
00000150: cd8c e03d dfb1 4fbe 18e5 e33d 99bd 013e
00000160: e14e 9fbd 022c bebd a13e d7bb 984b f5bc
00000170: efc4 053c 14d7 463b ade1 89bc f247 ccbd
00000180: 68f1 34be 009e 1fbd 78d8 1bbe 9e63 8d3c
00000190: b47a f5bd 79bc fa3c 121e 413d 6a2f 04be
000001a0: 0d26 e73d 9e8b 04be 002c 123e a7a3 5d3d
000001b0: 70ba 42be 4584 eebd 2853 89ba 9a64 ec3d
000001c0: 02cd 49bc fe14 15be f613 14bb 8058 113e
000001d0: 3ba8 c13d 0988 b13d 0b27 98bd 1704 43bc
000001e0: 7867 f0bd d701 163e d308 12be 281a 39be
000001f0: fe93 fabd ebe8 f73d ed79 c33b e89a 1abd
00000200: 9235 063e 21aa babd 456f df3d 34fd 0b3e
00000210: f227 23be 488c ebbd 4167 3fbe c9b1 f2bc
00000220: e9a0 4d3d ee66 8c3d af90 5339 b928 fd3d
00000230: a4f7 cd3d cc32 b53d 6a03 103e a63f 37be
00000240: f91e a13c 093c d3bd 8fb0 a73d 1f18 0cbe
00000250: 5c74 9f3d 4d1d a5bd ff36 e8bd 4b4b 2fbe
00000260: f45c 523d 508f aa3c 8ed1 f7bd 61bc c23c
00000270: 2edd 08be 102b 343d 2fac 203c 262b 46be
00000280: d592 9c3d fbbe 1bbe 6fa6 6ebd c8d6 efbd
00000290: f137 243c d678 5dbc 4631 00bd 771b 613c
000002a0: 955c d1bc f308 403d bd13 43be c39f 8d3d
000002b0: 76b7 ea3d 8dc4 c8bd d4c8 28be f44a 723d
000002c0: 8b9a 1fbd 4bab 0a3d 4e21 26be 3776 6bbd
000002d0: afd1 58bd d8d7 fdbd 9e5f 23be a425 c0bd
000002e0: 4805 fdbd 8876 f6bd 732f cbbd 6bff c3bd
000002f0: e1cc 38bd 9c36 ab3d 72fb 68bd 1694 2cbe
00000300: 457a 02be b142 e5bd ca24 adbc d7d0 4f3e
00000310: 6967 0e3f b8d7 01bf 69e3 1e3e 66dd 933e
00000320: 7d31 a2be f9c7 ccbe fc01 80be 7d05 e5be
00000330: c61a 263d 0ca8 123d b2b9 f13e 4736 513f
00000340: 23c3 63be bf89 8dbe dec0 c43e 152b f1bd
00000350: fd82 1cbf 8b53 713e 71ff bf3b b948 75be
00000360: a942 f0bd b018 a43e e9a0 033f 10b6 f63e
00000370: 0d92 6c3e f048 8a3e 0530 31bf 3d5f dbbe
00000380: ebdf 68bc eaae a5bc bb8f 873a c31b 0fbd
00000390: 5265 c53c d906 8fbb 78ec 3dbd b4ae 07bd
000003a0: 8dc1 cebd 6bd9 a63c 9b1f 11be bf6f 32bc
000003b0: b9aa edbd eb3f b53d ae4a 48bd 7ee8 223d
000003c0: 169b efbd 2930 5abe 66ee 9bbd bd66 e43e
000003d0: 6deb a4bd b07e 023b bfbd b7bd 53bc acbd
000003e0: 2f36 c8bd f641 c3bd 04a5 1a3d e7a7 a93d
000003f0: d59c afbb 889e f5bc dc13 e83e c78a d23e

tcn.network.0.net.4.bias f4 [24]
-0.14678934 -0.19792804 -0.157875 -0.18811528 -0.12179071 -0.17420049 0.0810376 -0.09811124
-0.03773166 -0.12024787 -0.11352574 0.060708586 -0.0062307403 -0.2779928 -0.19593371 -0.12677994
-0.15366073 -0.10212644 -0.14345014 -0.07908875 0.084630474 -0.15412913 0.033735096 0.011026842
00000000: f24f 16be a6ad 4abe fca9 21be 4ba1 40be
00000010: 686d f9bd 9d61 32be 0bf7 a53d 8cee c8bd
00000020: 838c 1abd 8444 f6bd 2f80 e8bd 91a9 783d
00000030: 3d2b ccbb 1355 8ebe d9a2 48be 9ad2 01be
00000040: 3d59 1dbe ab27 d1bd 98e4 12be 48f9 a1bd
00000050: be52 ad3d 07d4 1dbe d02d 0a3d eda9 343c

tcn.network.0.net.4.weight_g f4 [24, 1, 1]
0.49522048 0.73793834 0.57597035 0.9282681 0.60845697 0.5403222 0.50896627 0.42684224
0.4930681 0.5392564 0.5250902 0.56041515 0.5943285 0.6895004 0.44881976 0.58285415
0.56986433 0.5029046 0.5106514 0.5299199 0.57857066 0.57782626 0.6731558 0.60788524
00000000: 8a8d fd3e 87e9 3c3f cb72 133f faa2 6d3f
00000010: d6c3 1b3f 8e52 0a3f 9d4b 023f 118b da3e
00000020: 6c73 fc3e b50c 0a3f 506c 063f 5e77 0f3f
00000030: ea25 183f 1983 303f b4cb e53e ee35 153f
00000040: a1e2 113f 5bbe 003f 0dba 023f d5a8 073f
00000050: 351d 143f 6cec 133f f053 2c3f 5e9e 1b3f

tcn.network.0.net.4.weight_v f4 [24, 24, 2]
-0.14123666 0.13874991 0.026337894 0.066070035 0.051616333 -0.013957933 0.012016449 0.02620585
0.014040136 0.080660075 0.076911494 -0.099353656 -0.13626115 0.18075247 -0.001238734 -0.12531337
-0.14320819 -0.13670103 -0.108365305 -0.02481738 -0.08308382 -0.12027948 -0.20067693 -0.20408957
0.059667204 0.10826624 0.089380346 -0.102651484 -0.020667028 -0.15339065 0.20264667 0.022609761
0.08548588 -0.09648736 0.13079952 0.09842606 0.14187407 0.07903091 -0.12110737 0.09315623
-0.05658661 -0.0728035 -0.15187502 -0.1698032 -0.1417693 0.1904041 0.04050815 -0.15755957
-0.032426063 0.027306655 -0.1076342 0.001476054 -0.050020337 -0.048350926 -0.020960214 -0.027330456
-0.07633524 0.0007638163 4.7807047e-05 1.55496e-40 0.08080867 0.069860116 0.17817292 0.15760511
0.09743141 0.20087142 0.013935669 -0.011183162 -0.028148381 -1.5872184e-35 -0.0012815092 -0.018594183
-3.22961e-40 0.028260663 -0.0320818 -0.064464465 -0.057163667 0.014559333 0.009749822 -0.053111747
-0.01244209 -4.932475e-39 0.053354923 -0.004862424 -0.32369673 0.373523 -0.055444688 -0.0732307
0.082922466 0.11013607 -2.4227722e-07 -0.0013837133 -0.004430639 0.058478247 -0.1418373 -0.13594997
-0.035279434 -0.14153852 -0.06431547 -0.07969737 0.08545488 -0.14786805 0.050292794 -0.0353216
-0.018011753 -0.04645206 -0.037981767 0.07030166 0.07468747 -0.16251595 -0.100503236 0.091425575
0.04835988 -0.1647097 -0.006948831 -0.11081299 0.0786735 -0.1388329 -0.17144959 -0.12640199
-0.16929635 0.107328266 0.10694913 0.086972624 -0.09870622 -0.1133629 -0.11985712 0.0919862
-0.084579594 0.17825052 -0.17799148 0.17770068 -0.11566261 -0.06404165 0.15272488 -0.16074222
-0.123588786 0.026699219 0.050181635 0.058268283 -0.047727004 -0.18154022 -0.08200542 0.045501698
0.017579045 -0.0005222528 0.0050888574 -0.0035782827 -0.08277137 -0.18889304 0.09358612 0.060752127
0.08333456 0.086172916 0.014335872 -0.01623635 -0.18424231 -0.22044545 0.07422316 0.13490918
-0.28714287 -0.16562355 -0.012818772 0.011641394 -0.0047193505 0.002255395 -0.005642318 0.021409657
0.0055361465 -0.002100078 -0.0003529224 -0.0028662253 -0.04171649 -0.012113498 -0.008668753 -0.028780863
-0.10193008 -0.053921945 -0.0028183765 -4.822417e-05 -0.1084241 -0.23730113 -0.35762197 -0.37033552
-0.004434252 0.035848886 0.01957324 -0.008119856 0.0012269426 -1.338592e-06 -0.17502144 -0.28240922
-0.05999145 -0.010752559 -0.097186014 0.041453175 0.045873564 -0.12539008 -0.11840915 0.05038871
0.10183872 0.119053856 -0.11628623 -0.05487441 -0.07414892 -0.064054705 0.05898073 -0.0815131
-0.04240283 -0.13129333 -0.085244566 -0.05142011 0.08923923 -0.12386349 0.1209664 -0.025880596
-0.13489076 -0.124331586 -0.056729205 0.14161143 -0.04249898 -0.018229933 0.06173943 -0.112348616
-0.08955734 -0.10398405 -0.1306556 0.0019717822 -0.038287222 -0.0022532786 -0.040332645 -0.13984801
-0.11542316 -0.13293883 -0.11896552 -0.008352613 -0.054010667 0.098835796 -0.023372319 -0.0092669595
0.18251117 0.10796168 -0.14409989 -0.12746982 -0.0013923771 0.08288089 -0.1068533 -0.11960554
-0.046651836 -0.06496741 -0.11710669 -0.1864155 -0.16312477 -0.055630695 0.018614322 -0.075425476
00000000: 58a0 10be 7514 0e3e 91c2 d73c ba4f 873d
00000010: a66b 533d d0af 64bc a4e0 443c a7ad d63c
00000020: 9908 663c 1c31 a53d c683 9d3d ee79 cbbd
00000030: 0b88 0bbe 2d17 393e 045d a2ba 2652 00be
00000040: 2ba5 12be 5bfb 0bbe a1ee ddbd d14d cbbc
00000050: da27 aabd 1755 f6bd 417e 4dbe dbfc 50be
00000060: 9965 743d b1ba dd3d 0b0d b73d f13a d2bd
00000070: e64d a9bc 7012 1dbe 9c82 4f3e 1b38 b93c
00000080: 3913 af3d 2a9b c5bd 4ff0 053e 9a93 c93d
00000090: 7047 113e f5da a13d 2407 f8bd b2c8 be3d
000000a0: 5cc7 67bd 001a 95bd 2085 1bbe e4e0 2dbe
000000b0: f92b 11be 4bf9 423e e0eb 253d 4c57 21be
000000c0: 31d1 04bd 35b2 df3c 526f dcbd 2778 c13a
000000d0: 20e2 4cbd 9f0b 46bd c1b4 abbc 1fe4 dfbc
000000e0: a655 9cbd d83a 483a 6d84 4838 76b1 0100
000000f0: 047f a53d d212 8f3d f672 363e 3c63 213e
00000100: 1e8a c73d 3db1 4d3e 6f52 643c 9539 37bc
00000110: 6f97 e6bc 32c8 a885 50f8 a7ba d452 98bc
00000120: 4984 0380 e882 e73c 3568 03bd f205 84bd
00000130: 7324 6abd 458a 6e3c b8bd 1f3c b48b 59bd
00000140: e8d9 4bbc bcb5 3580 b18a 5a3d f854 9fbb
00000150: 94bb a5be 683e bf3e f819 63bd faf9 95bd
00000160: 41d3 a93d 058f e13d 5412 82b4 b75d b5ba
00000170: e52e 91bb e386 6f3d cc3d 11be 7836 0bbe
00000180: 2b81 10bd 79ef 10be d4b7 83bd 6038 a3bd
00000190: f802 af3d b96a 17be d1ff 4d3d 62ad 10bd
000001a0: 628d 93bc 8444 3ebd c592 1bbd 51fa 8f3d
000001b0: bff5 983d 956a 26be a4d4 cdbd 553d bb3d
000001c0: 0215 463d a9a9 28be 05b3 e3bb ecf1 e2bd
000001d0: 921f a13d 362a 0ebe 7b90 2fbe 866f 01be
000001e0: 065c 2dbe ecce db3d 2508 db3d b41e b23d
000001f0: 7d26 cabd cf2a e8bd a677 f5bd 4363 bc3d
00000200: 1138 adbd 4e87 363e 6643 36be 2bf7 353e
00000210: 85e0 ecbd 4528 83bd e963 1c3e 9c99 24be
00000220: 1e1c fdbd 52b8 da3c 428b 4d3d b9aa 6e3d
00000230: 647d 43bd aee5 39be 75f2 a7bd fd5f 3a3d
00000240: ee01 903c cbe7 08ba 6ec0 a63b 9f81 6abb
00000250: 0984 a9bd 2d6d 41be 14aa bf3d 39d7 783d
00000260: 4fab aa3d 6d7b b03d 01e1 6a3c 1802 85bc
00000270: 04aa 3cbe 74bc 61be 5002 983d a225 0a3e
00000280: 6404 93be 3899 29be d405 52bc 8cbb 3e3c
00000290: c8a4 9abb 40cf 133b 32e3 b8bb 4e63 af3c
000002a0: 9068 b53b 76a1 09bb 7108 b9b9 48d7 3bbb
000002b0: e9de 2abd b177 46bc 6307 0ebc d8c5 ebbc
000002c0: b8c0 d0bd 42dd 5cbd 83b4 38bb 4f44 4ab8
000002d0: 740d debd 11ff 72be 3a1a b7be 9e9c bdbe
000002e0: 344d 91bb 48d6 123d 0f58 a03c 2509 05bc
000002f0: 5dd1 a03a aca9 b3b5 d238 33be f197 90be
00000300: 98b9 75bd 802b 30bc 7609 c7bd ceca 293d
00000310: ebe5 3b3d 4266 00be 7f80 f2bd 6464 4e3d
00000320: d290 d03d 82d2 f33d 7a27 eebd fdc3 60bd
00000330: 64db 97bd 1d2f 83bd c795 713d 57f0 a6bd
00000340: 97ae 2dbd c271 06be b494 aebd e59d 52bd
00000350: 0fc3 b63d 24ac fdbd 3bbd f73d 8b03 d4bc
00000360: ce20 0abe 8fa1 febd e25c 68bd 9602 113e
00000370: 6913 2ebd f156 95bc 7ce2 7c3d 0817 e6bd
00000380: d769 b7bd 97f5 d4bd 95ca 05be 0439 013b
00000390: 10d3 1cbd beab 13bb d833 25bd 5134 0fbe
000003a0: fa62 ecbd 1e21 08be 32a4 f3bd 66d9 08bc
000003b0: 4a3a 5dbd 6c6a ca3d 4e77 bfbc 72d4 17bc
000003c0: 35e4 3a3e 031b dd3d ec8e 13be 7387 02be
000003d0: 6c80 b6ba 75bd a93d e7d5 dabd c0f3 f4bd
000003e0: ff15 3fbd a20d 85bd a2d5 efbd b4e3 3ebe
000003f0: 2e0a 27be 03dd 63bd 107d 983c ac78 9abd

tcn.network.0.downsample.weight f4 [24, 16, 1]
-0.059077293 -0.086895466 -0.048336346 -0.077538446 -0.075206 -0.05831036 -0.068679124 -0.06072244
-0.057913795 -0.06921182 -0.06260042 -0.06918499 -0.058017597 -0.079557516 -0.06625813 -0.07592399
0.026742268 0.050058145 -0.04010868 0.03106959 0.0031872052 -0.03051464 -0.022864934 0.035229303
-0.014940333 -0.009451595 -0.016809091 -0.005999238 -0.018799042 0.039026476 -0.055233438 -0.0937761
-0.028130502 -0.03193472 0.00965188 -0.003708769 -0.035192292 -0.055786096 -0.029333297 -0.002786082
-0.046112787 -0.018083028 -0.1358497 -0.037656583 -0.03159075 -0.06846404 -0.12216883 -0.054351583
-0.020245323 0.0663512 0.04953815 -0.007629405 0.004389701 -0.04220057 0.115291275 -7.202895e-05
-0.0107733505 0.008456797 0.020041225 0.0045986157 -0.0167864 0.037778076 -0.05478836 1.5370069
0.0042741233 -0.006432197 0.0052127317 0.0003685836 -0.003083062 -0.0012146567 0.0010553707 0.005523641
0.0021985767 0.010180333 -0.016569322 -0.0005838625 0.009402223 0.008234245 0.014188887 0.00093366153
-0.030580655 -0.043342233 -0.03990257 -0.04029221 -0.06829097 -0.0653456 -0.05853204 -0.04934767
-0.024319513 -0.04692262 -0.05458965 -0.043410994 -0.031973656 -0.041982934 -0.046809293 -0.05531665
-0.019533506 -0.027541345 -0.023293385 -0.019526616 -0.01727865 -0.029414006 -0.023895217 -0.034920167
-0.015925063 -0.016649688 -0.047583245 -0.016310109 -0.021992885 -0.034280796 -0.017435338 -0.02457508
-0.072885916 -0.05344161 -0.08230238 -0.07022282 -0.08278779 -0.08161393 -0.055387795 -0.059607513
-0.0450511 -0.060421433 -0.052145798 -0.047990873 -0.054122515 -0.0728794 -0.068763725 -0.02612968
-0.046061352 -0.03132073 -0.038308665 -0.03226148 -0.031205812 -0.04118033 -0.0234188 -0.02515162
-0.031565055 -0.046732444 -0.050202377 -0.04350737 -0.03891723 -0.011380017 -0.024738813 -0.027436294
-0.05713452 -0.026825408 -0.03689663 -0.050207037 -0.055967517 -0.042008277 -0.05155717 -0.055524483
-0.033754922 -0.03424467 -0.05296181 -0.06080647 -0.054786257 -0.061647087 -0.05840091 -0.029261027
-0.015146675 -0.008122307 -0.028641252 -0.035196155 -0.015422248 -0.036686376 -0.022175588 -0.030158805
-0.026382355 -0.005623097 -0.012713863 -0.023507433 -0.021581965 -0.039320234 -0.021768168 -0.04075529
-0.03264319 -0.028496414 -0.04469784 -0.045280024 -0.029734217 -0.02737012 -0.03710864 -0.028801832
-0.023878489 -0.045720667 -0.046610422 -0.040468246 -0.037274454 -0.058199633 -0.030881058 -0.067133024
-0.022430366 -0.020043546 -0.026155604 -0.025608692 -0.041128203 -0.04221435 -0.030948134 -0.028997106
-0.025193105 -0.026121989 -0.029466297 -0.015632674 -0.034247477 -0.029595718 -0.002319289 -0.041792005
-0.040008023 0.15802021 0.20361355 -0.029546937 0.010249429 -0.18444054 0.07320273 0.049113605
0.002562373 0.06673706 -0.15857531 0.016370436 0.012618429 0.25738192 -0.13562979 0.042722005
-0.068636805 -0.053099632 -0.050246414 -0.05393637 -0.053523954 -0.060171276 -0.051342685 -0.056550037
-0.06051964 -0.05677863 -0.0639417 -0.062103227 -0.06363048 -0.06862837 -0.06701457 -0.067404896
-0.044666857 -0.060249425 -0.03416095 -0.025479622 -0.033581156 -0.039462253 -0.038028404 -0.044386946
-0.037966542 -0.044864576 -0.02968418 -0.033320412 -0.019186422 -0.021782951 -0.049222004 -0.03607958
00000000: 08fb 71bd 40f6 b1bd 55fc 45bd 7acc 9ebd
00000010: 9a05 9abd d8d6 6ebd a4a7 8cbd 18b8 78bd
00000020: 0437 6dbd edbe 8dbd a634 80bd dcb0 8dbd
00000030: dca3 6dbd 0def a2bd 58b2 87bd 097e 9bbd
00000040: 9a12 db3c c509 4d3d 0049 24bd a785 fe3c
00000050: 6ee0 503b d7f9 f9bc 3e4f bbbc 9a4c 103d
00000060: 4cc8 74bc ddda 1abc 38b3 89bc 4295 c4bb
00000070: 7300 9abc 3ada 1f3d 753c 62bd af0d c0bd
00000080: f071 e6bc fbcd 02bd eb22 1e3c d20e 73bb
00000090: cb25 10bd f67f 64bd 624c f0bc b396 36bb
000000a0: c3e0 3cbd dc22 94bc 2f1c 0bbe ca3d 1abd
000000b0: 4d65 01bd e036 8cbd a733 fabd c49f 5ebd
000000c0: 85d9 a5bc 23e3 873d 84e8 4a3d 1600 fabb
000000d0: 7bd7 8f3b 81da 2cbd d51d ec3d 400e 97b8
000000e0: b582 30bc 618e 0a3c 7f2d a43c fcaf 963b
000000f0: a283 89bc 2fbd 1a3d c269 60bd a4bc c43f
00000100: f20d 8c3b 2ec5 d2bb 90cf aa3b 743e c139
00000110: 320d 4abb 1e35 9fba 5d54 8a3a a9ff b43b
00000120: ff15 103b 69cb 263c 63bc 87bc 590e 19ba
00000130: c80b 1a3c ede8 063c 8178 683c f7c0 743a
00000140: 4884 fabc a087 31bd e170 23bd 7209 25bd
00000150: 23dc 8bbd ead3 85bd 4bbf 6fbd c820 4abd
00000160: b739 c7bc ef31 40bd 6699 5fbd bacf 31bd
00000170: cff6 02bd 4cf6 2bbd 1abb 3fbd b693 62bd
00000180: bb04 a0bc 639e e1bc c5d1 bebc 48f6 9fbc
00000190: f58b 8dbc a4f5 f0bc e7bf c3bc 7308 0fbd
000001a0: 4775 82bc ed64 88bc a6e6 42bd c79c 85bc
000001b0: 6c2a b4bc 056a 0cbd 8ed4 8ebc ae51 c9bc
000001c0: 3645 95bd 97e5 5abd 268e a8bd fbd0 8fbd
000001d0: a58c a9bd 3425 a7bd 50de 62bd 0227 74bd
000001e0: 8187 38bd 777c 77bd d596 55bd 1492 44bd
000001f0: 92af 5dbd cb41 95bd ffd3 8cbd e90d d6bc
00000200: d4aa 3cbd 2a4a 00bd 8ce9 1cbd 9d24 04bd
00000210: 55a3 ffbc b5ac 28bd c9d8 bfbc c50a cebc
00000220: 5c4a 01bd 856a 3fbd 02a1 4dbd c934 32bd
00000230: ac67 1fbd 4073 3abc 0da9 cabc 14c2 e0bc
00000240: e305 6abd f5c0 dbbc ec20 17bd e5a5 4dbd
00000250: 323e 65bd df10 2cbd 9c2d 53bd a46d 63bd
00000260: 9a42 0abd 2444 0cbd 7cee 58bd 3510 79bd
00000270: 8e67 60bd a881 7cbd cb35 6fbd d2b4 efbc
00000280: c229 78bc 6d13 05bc 0fa1 eabc d829 10bd
00000290: 99ad 7cbc 7444 16bd 94a9 b5bc 990f f7bc
000002a0: cf1f d8bc f541 b8bb ce4d 50bc a992 c0bc
000002b0: a9cc b0bc 410e 21bd 2853 b2bc 05ef 26bd
000002c0: deb4 05bd 5071 e9bc 1515 37bd 8c77 39bd
000002d0: 2c95 f3bc 4d37 e0bc 3bff 17bd d2f1 ebbc
000002e0: d29c c3bc 9845 3bbd 92ea 3ebd 08c2 25bd
000002f0: 19ad 18bd bd62 6ebd 46fa fcbc 0a7d 89bd
00000300: e3bf b7bc 5d32 a4bc 4744 d6bc 52c9 d1bc
00000310: 0c76 28bd f4e8 2cbd f186 fdbc 578b edbc
00000320: c561 cebc c8fd d5bc 4e63 f1bc 1810 80bc
00000330: 1547 0cbd b872 f2bc 36ff 17bb 182e 2bbd
00000340: 74df 23bd 0dd0 213e 1280 503e 6b0c f2bc
00000350: 39ed 273c fbdd 3cbe 50eb 953d 592b 493d
00000360: 7ced 273b 71ad 883d 9161 22be 4b1b 863c
00000370: 87bd 4e3c 90c7 833e 89e2 0abe 45fd 2e3d
00000380: 7491 8cbd 007f 59bd 2fcf 4dbd 62ec 5cbd
00000390: ef3b 5bbd 2876 76bd b54c 52bd 03a1 67bd
000003a0: 71e3 77bd b590 68bd def3 82bd f45f 7ebd
000003b0: b250 82bd 088d 8cbd ef3e 89bd 940b 8abd
000003c0: 98f4 36bd 1ac8 76bd 5aec 0bbd a4ba d0bc
000003d0: 658c 09bd 2ca3 21bd acc3 1bbd 16cf 35bd
000003e0: ce82 1bbd ebc3 37bd 3d2c f3bc fc7a 08bd
000003f0: d82c 9dbc 2972 b2bc 039d 49bd 2fc8 13bd

tcn.network.0.downsample.bias f4 [24]
-0.17397375 -0.14503427 0.05347471 -0.104235694 -0.093732595 -0.08449923 -0.18338129 0.16035986
-0.16372931 0.098142445 -0.13116798 -0.2595746 -0.17707251 -0.2749659 0.16794516 0.050657596
-0.19593531 -0.1393128 0.03400202 0.21942115 0.035955146 -0.18788916 0.28659806 0.27784252
00000000: 2d26 32be dd83 14be 4c08 5b3d 8679 d5bd
00000010: e0f6 bfbd ef0d adbd 4ec8 3bbe 6035 243e
00000020: a8a8 27be e8fe c83d e650 06be f6e6 84be
00000030: 7f52 35be 55c8 8cbe d1f9 2b3e 577e 4f3d
00000040: 44a3 48be 04a8 0ebe b445 0b3d f0af 603e
00000050: b445 133d 0466 40be fbbc 923e 6041 8e3e

tcn.network.1.conv1.bias f4 [32]
0.019650396 -0.010597501 -0.15142219 -0.13780184 0.1295419 -0.023000034 -0.10145288 -0.17333996
0.057801742 0.008945657 -0.1464329 -0.124555595 -0.00021593293 -0.06877273 0.10719877 -0.054130595
-0.19709083 0.11258054 -0.05350633 -0.004255319 -0.0665193 -0.027513588 -0.07030262 -0.13703819
-0.12511554 -0.4340161 -0.07988813 0.07924955 0.041555658 -0.037724607 0.20902327 0.030255169
00000000: def9 a03c 24a1 2dbc 6b0e 1bbe ed1b 0dbe
00000010: a2a6 043e 916a bcbc 87c6 cfbd 0880 31be
00000020: 85c1 6c3d ce90 123c 82f2 15be 0117 ffbd
00000030: 0e6c 62b9 b8d8 8cbd 078b db3d 0bb8 5dbd
00000040: 2ed2 49be a090 e63d 7429 5bbd 3470 8bbb
00000050: 453b 88bd 2d64 e1bc d2fa 8fbd bd53 0cbe
00000060: 4a1e 00be 5c37 debe 639c a3bd 974d a23d
00000070: 4436 2a3d 1e85 1abd 320a 563e b0d9 f73c

tcn.network.1.conv1.weight_g f4 [32, 1, 1]
0.6065071 0.4996585 0.51550573 0.52626973 0.6807062 0.5104982 0.60035646 0.542093
0.6499469 2.714314 0.5594797 0.5697655 0.5426373 0.59901017 0.6504834 0.5935388
0.42214906 0.5166714 0.5527444 0.513781 4.2699223 1.2318947 2.4550378 0.6059386
0.73162836 0.60230386 0.60708016 0.57147944 0.5931317 3.1015556 1.1109092 0.55089235
00000000: 0d44 1b3f 3dd3 ff3e 2ff8 033f 9db9 063f
00000010: c342 2e3f 03b0 023f f6b0 193f 9bc6 0a3f
00000020: ec62 263f 52b7 2d40 103a 0f3f 27dc 113f
00000030: 47ea 0a3f bb58 193f 1586 263f 29f2 173f
00000040: ec23 d83e 9444 043f a880 0d3f 2787 033f
00000050: 34a3 8840 baae 9d3f 571f 1d40 cb1e 1b3f
00000060: ff4b 3b3f 9630 1a3f 9b69 1b3f 7a4c 123f
00000070: 7bd7 173f e37f 4640 4632 8e3f 4807 0d3f

tcn.network.1.conv1.weight_v f4 [32, 24, 2]
-0.027380098 -0.035705034 -0.04328616 -0.0085478565 -0.22823179 0.01100835 -0.021093631 -0.61389834
-0.00572914 0.0011721486 0.0086746765 -0.061027892 0.008604152 -0.16261503 0.17122063 0.14548872
-0.037265975 0.03645695 0.00490324 -0.13654445 -0.023309223 -0.15236905 0.03219966 0.0012678416
-0.03839842 0.1415145 -0.17438379 0.07696939 -0.01232924 -0.14420997 -0.061854094 -0.20113091
-0.08919707 -0.004819273 -0.03250264 0.008084643 -0.013989523 -0.25107598 -0.25575176 -0.2012532
-0.17013559 -0.077332035 0.0022796944 -0.0043554385 0.009578554 -0.087868504 0.14215904 -0.27224252
0.089155376 -0.17246759 -0.023747358 -0.0042159446 -0.15170652 -0.15158498 -0.052937727 -0.17148754
0.16572666 -0.17596605 0.13678704 -0.13958587 -0.088987716 -0.11575413 0.0053766635 0.017747678
-0.00830057 0.0010605886 -0.20015505 0.0037546079 0.064195335 -0.08953242 -0.07254017 0.16614336
0.0443248 0.08542413 -0.011324622 0.015441095 -0.05805856 0.041103214 -0.12121424 0.044754982
0.056102604 -0.03938292 -0.060695253 0.045956086 -0.003241081 -0.1232572 -0.038784 -0.033483516
-0.12939005 0.06670477 0.117123745 0.1938596 -0.1843853 -0.0033054051 0.01465922 -0.11028329
0.12049565 0.084385395 -0.026355311 -0.095907405 0.08925177 -0.16322245 0.12027695 -0.017490434
-0.11045887 0.09480999 0.15501465 -0.048908383 0.05252581 0.1014502 -0.048948307 -0.10498483
-0.09007572 -0.123063765 0.18872248 -0.009458169 -0.011374353 -0.16398452 0.07876835 -0.17194332
-0.012422789 -0.10610166 -0.10197416 -0.078131214 0.1795173 -0.05046572 -0.019851161 -0.12938993
0.005098383 -0.05479799 0.15894878 -0.104069084 -0.10421034 -0.002000465 -0.124902174 -0.013686878
-0.07394974 -0.08677244 -0.17704011 0.13317466 0.037270047 0.11086627 0.04742713 0.073095664
-0.13232616 0.064844616 0.112767376 -0.096336596 -0.039969414 0.10376754 -0.015747515 0.009326529
0.014204853 -0.12232248 0.083388545 0.17619951 0.00025255152 -0.18079051 -0.023053491 0.048296396
0.16328466 0.04269043 0.082373254 -0.041738402 0.06469952 -0.014582464 0.09940883 -0.010675131
0.0525418 0.07539372 0.15158947 0.1474654 -0.038860135 -0.1466971 -0.06981391 0.04283526
0.021028068 0.06593228 -0.037854232 0.048978806 -0.07328035 -0.074149534 0.046981618 0.017747967
-0.16195965 0.09597263 0.059289403 -0.018713834 -0.17518477 0.070404604 0.006958261 0.054815307
-6.7743706e-08 0.026981318 -0.13334489 -0.15403531 -0.12310607 0.08833221 0.07971714 -0.29990664
1.0336694e-25 -0.037481688 -0.0017982264 1.3550351e-05 -0.026849672 -0.111117594 -0.1264046 -0.041846756
-0.09557742 -0.055410318 0.017042397 0.055542443 0.033162445 0.057345424 5.7639657e-09 3.0885085e-14
0.052275926 -0.13636948 -0.10022911 -0.101250865 0.026812525 -0.10763138 0.06722455 -0.09635203
0.044508006 -0.037391648 -0.001177649 2.3207009e-05 -0.07416356 -0.11936959 -0.5600443 -0.04177759
-0.039138768 -0.009236593 -0.036913622 -5.1515056e-14 0.02671352 -0.12065838 0.063342035 0.15222228
-0.08352403 0.05870106 0.045691308 -0.045631573 -0.14913775 -0.010070861 -0.1399149 0.09169759
0.06433361 0.13188377 0.1017601 -0.10768961 -0.16085312 0.08722929 0.04977268 -0.048505753
00000000: 3a4c e0bc 713f 12bd d44c 31bd 4f0c 0cbc
00000010: 98b5 69be 5e5c 343c 8dcc acbc 7128 1dbf
00000020: 82bb bbbb c8a2 993a 3b20 0e3c 62f8 79bd
00000030: 6ef8 0c3c 8e84 26be 7654 2f3e fffa 143e
00000040: 35a4 18bd e253 153d 5cab a03b 4fd2 0bbe
00000050: fcf2 bebc a206 1cbe cae3 033d b42d a63a
00000060: a947 1dbd 2de9 103e aa91 32be 21a2 9d3d
00000070: 9500 4abc c7ab 13be b85a 7dbd 43f5 4dbe
00000080: f4ac b6bd feea 9dbb 7d21 05bd 7375 043c
00000090: 5034 65bc 088d 80be e5f1 82be 5215 4ebe
000000a0: 0638 2ebe 4260 9ebd ed66 153b 11b8 8ebb
000000b0: 5eef 1c3c 67f4 b3bd 2492 113e 5f63 8bbe
000000c0: 1897 b63d 589b 30be d289 c2bc e825 8abb
000000d0: f458 1bbe 1839 1bbe 3bd5 58bd 6e9a 2fbe
000000e0: 40b4 293e 7230 34be e711 0c3e 99ef 0ebe
000000f0: 313f b6bd 8010 edbd b92e b03b 9463 913c
00000100: 1dff 07bc 7303 8b3a 72f5 4cbe de0f 763b
00000110: d878 833d c65c b7bd f18f 94bd 7c21 2a3e
00000120: ec8d 353d d9f2 ae3d e88a 39bc a6fc 7c3c
00000130: d0ce 6dbd d85b 283d 2c3f f8bd 0051 373d
00000140: d8cb 653d fc4f 21bd 969b 78bd 733c 3c3d
00000150: 5168 54bb 456e fcbd f9db 1ebd 0326 09bd
00000160: d37e 04be 839c 883d 93de ef3d 2283 463e
00000170: 80cf 3cbe 7f9f 58bb 3a2d 703c 35dc e1bd
00000180: 6cc6 f63d 40d2 ac3d 18e7 d7bc 1a6b c4bd
00000190: a2c9 b63d c923 27be c353 f63d 1948 8fbc
000001a0: 4338 e2bd bd2b c23d 29bc 1e3e 2854 48bd
000001b0: 4e25 573d 1fc5 cf3d 057e 48bd 4902 d7bd
000001c0: 9e79 b8bd db08 fcbd 7740 413e 70f6 1abc
000001d0: 7f5b 3abc 8feb 27be 4d51 a13d e911 30be
000001e0: f488 4bbc d44b d9bd d4d7 d0bd 4203 a0bd
000001f0: 62d3 373e 25b5 4ebd e79e a2bc cb7e 04be
00000200: 5610 a73b db73 60bd 78c3 223e 2c22 d5bd
00000210: 3b6c d5bd 3c1a 03bb b6cc ffbd ed3e 60bc
00000220: f672 97bd c0b5 b1bd 014a 35be f05e 083e
00000230: 7aa8 183d db0d e33d f342 423d 2eb3 953d
00000240: 8280 07be 41cd 843d 95f2 e63d 1f4c c5bd
00000250: f8b6 23bd 1384 d43d ef00 81bc 4cce 183c
00000260: 79bb 683c 3584 fabd 9dc7 aa3d a56d 343e
00000270: e468 8439 2621 39be adda bcbc 71d2 453d
00000280: 1834 273e 29dc 2e3d 4fb3 a83d e3f5 2abd
00000290: 2f81 843d 49eb 6ebc db96 cb3d bfe6 2ebc
000002a0: 1236 573d 0668 9a3d 453a 1b3e 2b01 173e
000002b0: ce2b 1fbd c437 16be 98fa 8ebd 0774 2f3d
000002c0: 0e43 ac3c 8107 873d 0a0d 1bbd 009e 483d
000002d0: 0214 96bd b6db 97bd cc6f 403d 2f64 913c
000002e0: c0d8 25be 4c8d c43d 72d9 723d c14d 99bc
000002f0: a363 33be 4a30 903d 2002 e43b 0486 603d
00000300: 7f7a 91b3 ed07 dd3c 908b 08be 6fbb 1dbe
00000310: 091f fcbd 85e7 b43d bd42 a33d 5d8d 99be
00000320: 95ec ff15 6686 19bd 77b2 ebba 5056 6337
00000330: d8f3 dbbc 9f91 e3bd 3570 01be 8167 2bbd
00000340: 18be c3bd eef5 62bd 7f9c 8b3c 7980 633d
00000350: 58d5 073d 09e3 6a3d 610c c631 1418 0b29
00000360: 481f 563d 71a4 0bbe eb44 cdbd 9d5c cfbd
00000370: f1a5 db3c d76d dcbd 06ad 893d 3754 c5bd
00000380: 074e 363d fc27 19bd 585b 9aba acac c237
00000390: 11e3 97bd 0b78 f4bd 105f 0fbf fa1e 2bbd
000003a0: f94f 20bd 1455 17bc bd32 17bd d100 68a9
000003b0: 50d6 da3c be1b f7bd 78b9 813d 28e0 1b3e
000003c0: a60e abbd 8670 703d cf26 3b3d 2ce8 3abd
000003d0: 91b7 18be 4100 25bc da45 0fbe f2cb bb3d
000003e0: 57c1 833d 8a0c 073e 9967 d03d 5f8c dcbd
000003f0: aeb6 24be 45a5 b23d 70de 4b3d f8ad 46bd

tcn.network.1.conv2.bias f4 [32]
-0.120185375 0.042627405 -0.1583386 -0.1118806 0.02201965 0.019512797 0.04326144 -0.15672165
0.054141067 -0.10657239 -0.1279337 0.057198144 -0.12616335 0.057715025 -0.045745328 0.05380699
-0.2616248 -0.07472831 -0.04731598 -0.14386961 -0.08056787 -0.21476355 -0.026218703 -0.116515756
0.041407872 -0.08887426 -0.153105 -0.035327826 -0.1377159 -0.16162844 0.051369406 0.07169782
00000000: c023 f6bd 139a 2e3d 8423 22be a821 e5bd
00000010: 8e62 b43c 4dd9 9f3c e832 313d a47b 20be
00000020: 06c3 5d3d a042 dabd 0d01 03be 9a48 6a3d
00000030: f730 01be 9766 6c3d 745f 3bbd b864 5c3d
00000040: b0f3 85be 280b 99bd 67ce 41bd 8e52 13be
00000050: c400 a5bd faea 5bbe 9bc8 d6bc d09f eebd
00000060: 4d9b 293d b503 b6bd 8fc7 1cbe e9b3 10bd
00000070: 6605 0dbe ed81 25be ba68 523d 4fd6 923d

tcn.network.1.conv2.weight_g f4 [32, 1, 1]
0.6059233 0.80289364 1.136108 0.49079278 1.2989672 0.55306894 0.6403623 0.49815738
0.6955417 0.6207684 0.5613768 0.59794444 0.37261397 0.63698107 0.609084 0.5684846
0.39412832 0.56134665 0.57515824 0.5408806 0.47254702 0.4059968 0.46575016 0.4956418
0.6121612 0.59062546 0.5701709 0.5153744 0.53778243 0.40613392 0.89771587 0.6311632
00000000: ca1d 1b3f 708a 4d3f fd6b 913f 3149 fb3e
00000010: 8f44 a63f ed95 0d3f c9ee 233f 7c0e ff3e
00000020: 050f 323f aeea 1e3f 64b6 0f3f e312 193f
00000030: 42c7 be3e 3111 233f eeec 1b3f 3588 113f
00000040: 30cb c93e 6ab4 0f3f 923d 133f 2777 0a3f
00000050: aff1 f13e d0de cf3e ce76 ee3e c3c4 fd3e
00000060: 99b6 1c3f 3b33 173f b8f6 113f 94ef 033f
00000070: 1cac 093f c9f0 cf3e b5d0 653f e993 213f
