1223-code-DL/model/TPA_LSTM_state_dict.pt (torch, 374517 bytes, 29 tensors)

encoder.rnn.weight_ih_l0 f4 [192, 16]
0.06526858 0.22563419 0.015182766 0.10701298 -0.08273447 -0.026853275 0.07691476 -0.027718605
0.23855552 -0.1590199 0.08490004 0.13876092 0.21044487 0.041959558 -0.02894138 0.09648092
0.14759536 -0.02697939 0.028455129 0.08161769 0.053743303 -0.021745795 -0.09316014 0.18554398
-0.014949626 -0.092584305 -0.031490717 -0.001456465 0.08680325 -0.10484982 0.18863647 -0.19535473
0.018372623 -0.03709273 -0.16214369 0.0077470946 -0.0289625 0.061872408 -0.057180267 -0.045528647
-0.043357085 -0.101142466 0.027741285 0.034108542 -0.005581323 -0.113324545 -0.0018605238 -0.29718664
-0.09370244 -0.25076956 -0.16586733 -0.18493056 -0.19143392 -0.056198042 -0.13602717 -0.1524555
-0.06851699 -0.14222938 -0.060246628 -0.20040071 -0.10319561 -0.20722264 -0.029357463 -0.2735518
-0.09720759 -0.14018582 -0.01849054 -0.20387924 -0.21475004 -0.2690759 0.012809763 -0.049909454
-0.06382773 -0.25921845 -0.25115412 -0.2808453 -0.26779702 -0.0926442 -0.12423316 0.19771898
-0.15445943 -0.14074147 -0.09890112 -0.15124042 -0.0016016944 -0.07980867 -0.0014935987 -0.13971141
-0.16802254 -0.056172177 -0.018864097 -0.13724536 -0.031150518 0.021701299 -0.19832426 -0.35148743
0.06204167 -0.16490413 -0.0939195 -0.22305247 -0.080768995 -0.15745524 -0.14498167 -0.15414307
-0.013372275 -0.166102 -0.16176136 -0.09139384 -0.13145134 -0.19605279 0.08521793 -0.2629174
-0.07499686 -0.2618816 -0.24340266 -0.18146484 -0.10855939 -0.21913183 -0.20835268 -0.065271586
-0.1297379 -0.19917227 -0.063017 -0.21793033 -0.21867941 -0.16103399 -0.18068545 -0.44657433
0.044489942 -0.13379838 -0.07988225 -0.036221392 -0.13330622 0.08495268 -0.15124395 0.043831356
-0.110926434 -0.18033656 0.0046398737 -0.03996394 0.037098274 -0.12956063 0.00855226 -0.37905854
-0.07522502 -0.047459085 -0.055781327 0.062114384 0.14937559 -0.16095637 -0.051389236 -0.05417153
-0.06505325 -0.15993819 0.120949246 -0.1457989 0.013224969 -0.013734568 -0.0025074503 -0.38820678
-0.018668696 -0.05981571 -0.06528221 -0.23513556 -0.082198344 -0.16737898 -0.13582483 -0.08439131
-0.06704233 -0.1678409 -0.14519964 -0.10213054 -0.025954347 -0.15336448 -0.24185571 -0.050248403
-0.13284579 0.038633328 0.11119352 -0.14746155 0.04894983 0.008593143 0.005318175 -0.13001879
0.06454358 0.025320252 0.033487827 -0.025986617 -0.037237734 -0.022447925 -0.054124974 -0.31835106
-0.036912255 0.009580883 -0.047303908 -0.15653242 -0.15331982 -0.25929815 -0.05295437 -0.12225987
-0.21575424 -0.19817388 0.010148429 -0.05844158 -0.112801194 -0.21884234 -0.22338794 -0.25146714
-0.22983079 -0.16177554 -0.13400993 -0.14084733 -0.2967142 -0.30361405 -0.22712904 0.0033510027
-0.1476172 -0.22549531 -0.08720262 -0.21660775 -0.24876495 -0.12216545 -0.2323603 -0.37989357
-0.21503146 -0.13101263 -0.100334235 -0.043206695 -0.17084272 -0.17849731 -0.3123195 0.18581602
0.013787874 -0.07423829 0.00045499383 -0.024364488 -0.055626106 -0.20192784 -0.14806636 -0.24324057
0.057843864 -0.15384515 -0.095540345 -0.07641577 -0.02881756 -0.12655544 -0.1778758 0.09891812
-0.010538051 0.039296497 -0.029023359 -0.06996276 0.0003717077 -0.09056251 0.017666847 -0.33819076
00000000: 89ab 853d a60c 673e 23c1 783c 9f29 db3d
00000010: b170 a9bd 66fb dbbc 7c85 9d3d 2112 e3bc
00000020: e647 743e 1dd6 22be 12e0 ad3d 5817 0e3e
00000030: dc7e 573e c9dd 2b3d 7916 edbc ca97 c53d
00000040: 3d23 173e e203 ddbc bb1a e93c 2d27 a73d
00000050: f021 5c3d 3d24 b2bc beca bebd 3eff 3d3e
00000060: 47ef 74bc d79c bdbd 69fc 00bd dbe6 beba
00000070: e7c5 b13d 81bb d6bd eb29 413e 120b 48be
00000080: 2f82 963c 8cee 17bd ff08 26be 57db fd3b
00000090: c442 edbc ec6d 7d3d db35 6abd 3f7c 3abd
000000a0: 3397 31bd c823 cfbd b141 e33c 66b5 0b3d
000000b0: 88e3 b6bb b316 e8bd d2dc f3ba d928 98be
000000c0: 11e7 bfbd de64 80be 20d9 29be 705e 3dbe
000000d0: 4107 44be eb2f 66bd b54a 0bbe 4b1d 1cbe
000000e0: a352 8cbd 94a4 11be 2bc5 76bd d835 4dbe
000000f0: 3858 d3bd 2c32 54be 107f f0bc fb0e 8cbe
00000100: c614 c7bd df8c 0fbe 7979 97bc b8c5 50be
00000110: 6fe7 5bbe 51c4 89be 0ae0 513c db6d 4cbd
00000120: 1db8 82bd 48b8 84be 4697 80be f5ca 8fbe
00000130: b11c 89be 3ebc bdbd f46d febd d876 4a3e
00000140: 9d2a 1ebe 881e 10be ac8c cabd c5de 1abe
00000150: f2ef d1ba ba72 a3bd dbc4 c3ba 8210 0fbe
00000160: 1a0e 2cbe cc14 66bd e188 9abc 0c8a 0cbe
00000170: 5f2f ffbc ecc6 b13c 8415 4bbe 29f6 b3be
00000180: 681f 7e3d a1dc 28be de58 c0bd de67 64be
00000190: 376a a5bd f23b 21be 1376 14be aed7 1dbe
000001a0: 6317 5bbc a516 2abe c5a4 25be b22c bbbd
000001b0: 2e9b 06be 10c2 48be bd86 ae3d 1c9d 86be
000001c0: f497 99bd 5815 86be 8c3e 79be ebd1 39be
000001d0: 6354 debd 1864 60be 685a 55be 1cad 85bd
000001e0: 03da 04be d1f3 4bbe 0f0f 81bd 2129 5fbe
000001f0: 7fed 5fbe 18e6 24be 9b05 39be 64a5 e4be
00000200: 163b 363d 7102 09be 4e99 a3bd e25c 14bd
00000210: 6d81 08be acfb ad3d b2df 1abe 8288 333d
00000220: 662d e3bd 26aa 38be 150a 983b 3ab1 23bd
00000230: 5cf4 173d 8bab 04be c71e 0c3c f613 c2be
00000240: 930f 9abd 7564 42bd f67a 64bd a76b 7e3d
00000250: eaf5 183e bfd1 24be 857d 52bd f7e2 5dbd
00000260: a33a 85bd d6c6 23be 3db4 f73d 4f4c 15be
00000270: 8aad 583c f406 61bc 0954 24bb 0ac3 c6be
00000280: 18ef 98bc 5101 75bd aeb2 85bd 60c7 70be
00000290: 9b57 a8bd 6565 2bbe aa15 0bbe 5ad5 acbd
000002a0: 7d4d 89bd 7cde 2bbe 37af 14be d129 d1bd
000002b0: 369e d4bc 940b 1dbe 06a9 77be 45d1 4dbd
000002c0: ba08 08be fb3d 1e3d 6eb9 e33d 2900 17be
000002d0: 9e7f 483d 41ca 0c3c 1644 ae3b a523 05be
000002e0: 6d2f 843d 6b6c cf3c 882a 093d e3e1 d4bc
000002f0: 9886 18bd b6e4 b7bc 26b2 5dbd e9fe a2be
00000300: 4e31 17bd 23f9 1c3c bec1 41bd 094a 20be
00000310: dfff 1cbe bac2 84be aee6 58bd 6263 fabd
00000320: aeee 5cbe 18ee 4abe 9945 263c 7060 6fbd
00000330: 5004 e7bd 3518 60be cfbf 64be 4dc0 80be
00000340: c358 6bbe 7da8 25be e639 09be 483a 10be
00000350: ecea 97be 4d73 9bbe 8494 68be 7f9c 5b3b
00000360: f728 17be 3ee8 66be 4a97 b2bd 6cce 5dbe
00000370: 3dbc 7ebe e131 fabd dcef 6dbe 6981 c2be
00000380: 3531 5cbe 2d28 06be 097c cdbd 81f9 30bd
00000390: 65f1 2ebe 00c8 36be 57e8 9fbe 8e46 3e3e
000003a0: 89e6 613c 3f0a 98bd 3d8c ee39 0998 c7bc
000003b0: 33d8 63bd 2cc6 4ebe b59e 17be 0e14 79be
000003c0: b0ed 6c3d 9589 1dbe a8aa c3bd df7f 9cbd
000003d0: ce12 ecbc c097 01be 1325 36be 9595 ca3d
000003e0: caa7 2cbc 5df5 203d 65c2 edbc a348 8fbd
000003f0: c3e1 c239 d678 b9bd 10ba 903c 5727 adbe

encoder.rnn.weight_hh_l0 f4 [192, 64]
-0.06356552 -0.06228085 -0.070271045 -0.4123401 -0.07580973 0.23576799 0.04501949 -0.2922932
-0.070771344 0.106279835 -0.13798565 -0.07465619 -0.101776205 0.3819486 0.07023286 0.06947288
-0.3009894 -0.04071131 -0.015269042 -0.061844017 -0.019561026 0.24483642 0.37804824 0.10588894
-0.052001793 0.17505231 -0.2824972 0.55127966 0.17300098 0.11987818 -0.13411735 0.24715552
0.17806092 0.30056858 0.1354725 0.09838989 0.14518532 -0.043629427 -0.006507457 0.071051516
0.033723 0.17333363 -0.19057265 0.040317085 -0.15785463 -0.17705238 0.08395125 -0.10543989
-0.18988137 -0.072416835 0.09798928 0.21932815 -0.027592847 0.07885075 -0.11609792 -0.072547264
-0.06471494 0.11902898 0.13272323 0.058719557 -0.011572205 -0.008858355 0.16575381 -0.10490218
0.1873058 -0.15202782 -0.10371779 0.03976452 -0.04202437 -0.12273378 -0.12815592 0.042119034
0.14263883 -0.065549076 0.24428818 0.089114346 0.098226756 -0.15467417 0.10182297 0.11635034
-0.03811776 0.10238389 -0.07777165 0.069227464 0.06734786 0.23015352 0.054864977 -0.04151913
-0.09785887 -0.009786188 0.22355093 0.1893986 -0.008308011 0.19649367 -0.16443643 -0.032059744
0.11844001 0.038397633 -0.05016018 0.25268748 0.059193403 -0.0074984035 0.10493386 0.04019824
0.108474076 -0.13801606 0.068029135 -0.091020346 -0.05931906 0.030636035 0.07090764 -0.11635753
0.13633463 -0.11429754 0.12531742 -0.05735279 0.023072233 0.025823377 -0.018318659 -0.024134057
-0.1422192 0.1460733 -0.067296565 -0.0009609697 -0.032377392 -0.17044356 -0.1384201 -0.20024517
-0.053206272 -0.03012367 0.14504561 0.033002898 -0.13985483 0.0276136 0.064328305 0.11240827
0.11326348 -0.08363699 0.036592662 0.19140868 -0.07376277 -0.039609388 0.14485882 0.17035298
0.1910695 0.06199704 -0.02955414 -0.09699448 0.011288322 0.11977247 0.018451018 -0.026217299
0.027381903 -0.18703586 -0.077762686 0.13238822 -0.19938196 0.06929144 -0.06728138 0.059710193
-0.013037836 0.1237297 -0.023002408 0.16241117 0.03126083 0.19663802 -0.12871976 -0.01286941
-0.06560353 -0.10963667 -0.07570911 -0.04222115 0.111920536 0.18087582 -0.022426095 -0.1075846
0.047426417 -0.050548717 0.07427552 -0.086436406 0.07994082 0.05372873 -0.037753165 0.052526936
-0.0034299206 -0.01411914 0.044576466 -0.0682406 0.052334663 -0.07856736 0.012496211 -0.08973627
-0.07467854 -0.07382916 0.056586076 0.15936878 -0.13366437 0.1477507 0.00030364978 0.031374685
-0.13567151 0.006188504 -0.2597688 0.07879398 0.11109258 0.20328026 -0.022253167 0.17867456
-0.14457104 0.12694366 0.08981919 0.050582442 -0.10670407 0.16424459 0.14510599 0.07241364
0.15434498 0.109116845 0.3727594 0.021681556 0.23977205 0.22397827 -0.015251945 0.10463339
-0.36106667 0.006855542 -0.24650477 -0.023188902 -0.0370465 0.034062594 0.12427661 -0.14176364
-0.118433386 -0.0757814 -0.15511283 0.036997225 -0.1650344 0.17863458 0.25198773 -0.21911591
-0.016874611 -0.08429265 -0.123823576 -0.012507115 0.094862856 -0.05642545 -0.048660185 -0.011451161
0.050545234 0.07222893 -0.27697217 -0.10415957 0.10962993 0.015238364 -0.22525434 -0.024143502
00000000: a42e 82bd 341a 7fbd 44ea 8fbd 3e1e d3be
00000010: 2242 9bbd 2a6d 713e 5b66 383d 74a7 95be
00000020: 91f0 90bd 3ea9 d93d 1c4c 0dbe 58e5 98bd
00000030: 0b70 d0bd c48e c33e 3fd6 8f3d cc47 8e3d
00000040: 481b 9abe e7c0 26bd 012b 7abc 2750 7dbd
00000050: 723e a0bc 66b6 7a3e 8a8f c13e 4ddc d83d
00000060: d5ff 54bd ea40 333e 79a3 90be aa20 0d3f
00000070: 2b27 313e b182 f53d 0f56 09be 5616 7d3e
00000080: 9a55 363e 20e4 993e 4eb9 0a3e a380 c93d
00000090: 76ab 143e c5b4 32bd 813c d5bb 7583 913d
000000a0: 2121 0a3d 5f7e 313e 7a25 43be 8723 253d
000000b0: a5a4 21be 384d 35be a2ee ab3d def0 d7bd
000000c0: 4370 42be 474f 94bd 9bae c83d 8f97 603e
000000d0: 650a e2bc 817c a13d bfc4 edbd a993 94bd
000000e0: 4489 84bd 77c5 f33d 99e8 073e eb83 703d
000000f0: 5999 3dbc a222 11bc 5ebb 293e f4d6 d6bd
00000100: 17cd 3f3e 2ead 1bbe fe69 d4bd 1fe0 223d
00000110: bf21 2cbd d95b fbbd 4e3b 03be 0285 2c3d
00000120: ea0f 123e 983e 86bd ae26 7a3e 9581 b63d
00000130: 1c2b c93d e862 1ebe 9088 d03d 1649 ee3d
00000140: 5e21 1cbd a5ae d13d be46 9fbd 21c7 8d3d
00000150: aded 893d 5dad 6b3e 19ba 603d f70f 2abd
00000160: 3b6a c8bd 3f56 20bc 89ea 643e b5f1 413e
00000170: 531e 08bc a335 493e 0662 28be 1451 03bd
00000180: ad90 f23d d646 1d3d c374 4dbd 4160 813e
00000190: c874 723d 2bb5 f5bb 90e7 d63d e9a6 243d
000001a0: a827 de3d 1554 0dbe dc52 8b3d e068 babd
000001b0: 8bf8 72bd 6cf8 fa3c 0638 913d db4c eebd
000001c0: 4e9b 0b3e d414 eabd 3653 003e c2ea 6abd
000001d0: fb01 bd3c 8c8b d33c 0311 96bc c9b4 c5bc
000001e0: e9a1 11be 3d94 153e c8d2 89bd 96e9 7bba
000001f0: 289e 04bd c288 2ebe 00be 0dbe 120d 4dbe
00000200: d2ee 59bd eac5 f6bc d686 143e 0c2e 073d
00000210: 1b36 0fbe eb35 e23c 8fbe 833d 4f36 e63d
00000220: aff6 e73d df49 abbd 30e2 153d a300 443e
00000230: ef10 97bd 743d 22bd df55 143e 0371 2e3e
00000240: b9a7 433e 9cf0 7d3d 861b f2bc 0ba5 c6bd
00000250: a7f2 383c 454b f53d 9726 973c a9c5 d6bc
00000260: 0350 e03c 5486 3fbe 0b42 9fbd c790 073e
00000270: c92a 4cbe ace8 8d3d d2ca 89bd ad92 743d
00000280: a69c 55bc ff65 fd3d 8c6f bcbc 1d4f 263e
00000290: 5b0b 003d 7a5b 493e 1dcf 03be 38da 52bc
000002a0: 255b 86bd 3189 e0bd 610d 9bbd 16f0 2cbd
000002b0: 9836 e53d 8337 393e eeb6 b7bc 5155 dcbd
000002c0: 3442 423d 2c0c 4fbd c41d 983d 9205 b1bd
000002d0: 03b8 a33d a812 5c3d 10a3 1abd 7c26 573d
000002e0: 85c8 60bb f753 67bc d095 363d bac1 8bbd
000002f0: df5c 563d ede7 a0bd e8bc 4c3c a6c7 b7bd
00000300: 10f1 98bd be33 97bd cdc6 673d 9231 233e
00000310: 50df 08be f64b 173e 2f33 9f39 be82 003d
00000320: 79ed 0abe efc8 ca3b 6b00 85be bd5e a13d
00000330: 8284 e33d b328 503e 464c b6bc 77f6 363e
00000340: 6e0a 14be 85fd 013e 20f3 b73d 892f 4f3d
00000350: aa87 dabd bc2f 283e aa96 143e 9a4d 943d
00000360: 9c0c 1e3e a778 df3d 52da be3e 859d b13c
00000370: ce86 753e 8f5a 653e 4be3 79bc 084a d63d
00000380: bbdd b8be 74a4 e03b bf6b 7cbe a7f6 bdbc
00000390: 12be 17bd 3885 0b3d bc84 fe3d 7d2a 11be
000003a0: 348d f2bd 4733 9bbd e6d5 1ebe 678a 173d
000003b0: c7fe 28be fceb 363e 8904 813e ec5f 60be
000003c0: a03c 8abc a0a1 acbd 3797 fdbd a4ea 4cbc
000003d0: 7547 c23d 5f1e 67bd e74f 47bd a69d 3bbc
000003e0: 8508 4f3d c3ec 933d 4ccf 8dbe 9d51 d5bd
000003f0: a885 e03d 55aa 793c 13a9 66be 98c8 c5bc

encoder.rnn.bias_ih_l0 f4 [192]
-0.1915333 -0.052611247 -0.022669777 -0.10399181 -0.1777798 -0.16637644 -0.061230753 -0.15493011
0.06838523 0.023332529 -0.097411186 0.045340657 -0.17909364 -0.20925073 0.0054326872 0.12195703
-0.12090998 -0.205302 -0.17850538 0.059098247 -0.012576146 -0.19932345 -0.07852686 -0.06512452
0.13785727 0.026040314 0.108143575 -0.27354553 -0.26132607 0.08052167 -0.032191318 -0.09241744
-0.24054568 -0.23681906 0.07448958 -0.03565031 -0.1557763 -0.03970364 -0.0003994967 -0.12891504
-0.16125464 -0.06735907 -0.25085923 -0.058615778 -0.16765273 -0.17344595 0.12117767 0.06887501
-0.08424753 -0.0042727618 -0.042375613 -0.09420986 0.06528232 0.06841743 -0.017534306 -0.025397314
-0.15556136 -0.10824724 -0.099557854 -0.17008512 0.041162528 0.115935974 0.009181759 0.18309058
0.031477682 0.11084472 -0.14114784 0.16834329 -0.16614777 0.11254288 -0.010664831 -0.46189153
-0.33683434 -0.049525954 0.016533788 -0.10972062 -0.31795394 -0.22669613 -0.46613145 -0.1372751
-0.05628686 -0.23945074 -0.22170222 0.038466934 -0.19993426 -0.031197337 0.05404929 0.16532446
0.09172333 -0.21394466 -0.119862445 0.21336034 0.018052783 0.03639316 0.053074468 -0.07420033
-0.30142343 0.018291553 0.08097982 -0.25384197 0.14951801 -0.38948274 -0.10837108 -0.13497034
0.012073506 -0.106691666 -0.15517753 0.026137004 0.11489547 -0.29491338 -0.457266 -0.4372916
-0.12585254 0.02303505 0.037709422 -0.07796822 0.29286695 0.022496799 -0.07246387 0.08821528
-0.1044651 0.08080759 -0.13512032 -0.42530894 -0.011343812 0.047306757 -0.41111302 -0.1330048
0.05879099 0.022746962 -0.01706095 0.108025454 0.082762875 0.046844084 0.08010252 0.042740937
0.075131476 0.08880244 0.037801936 0.12100245 0.017832521 -0.112690955 -0.03392766 0.07411101
0.16065462 0.058793183 0.08026083 0.08971433 0.02470478 0.06659774 0.027050897 -0.005057195
-0.21675897 -0.14709957 0.07675667 -0.06334363 -0.050618134 -0.07357789 -0.09014515 0.020890435
-0.07519094 0.051412176 -0.04522963 0.053104408 -0.13583063 0.09212502 0.042227454 0.16033189
0.16047859 -0.0017234619 0.12391366 -0.15640062 -0.040304918 0.11028646 0.025047874 -0.06331611
-0.040763177 0.07228599 -0.10266649 -0.013460549 0.15303317 -0.04255556 -0.021284489 -0.011741815
0.04563737 -0.00025239846 -0.11560471 -0.02598122 -0.020094046 0.020609202 -0.02301959 0.06047723
00000000: 4e21 44be e47e 57bd f8b5 b9bc a8f9 d4bd
00000010: e80b 36be 965e 2abe 19cd 7abd 00a6 1ebe
00000020: 8e0d 8c3d dc23 bf3c 847f c7bd 20b7 393d
00000030: 5364 37be d345 56be af04 b23b 9bc4 f93d
00000040: a79f f7bd b03a 52be 1dca 36be 0111 723d
00000050: 2e0c 4ebc 721b 4cbe b1d2 a0bd 0160 85bd
00000060: 752a 0d3e 7f52 d53c 617a dd3d 290e 8cbe
00000070: 88cc 85be 8ce8 a43d 0bdb 03bd 5b45 bdbd
00000080: 9b51 76be b280 72be fe8d 983d 0f06 12bd
00000090: d383 1fbe 49a0 22bd 8a73 d1b9 4e02 04be
000000a0: f01f 25be 8df3 89bd 9f70 80be 1917 70bd
000000b0: 28ad 2bbe d19b 31be 002c f83d 570e 8d3d
000000c0: f889 acbd 8602 8cbb 0d92 2dbd 19f1 c0bd
000000d0: bdb2 853d 701e 8c3d 1ba4 8fbc 070e d0bc
000000e0: 7a4b 1fbe bbb0 ddbd fde4 cbbd cb2a 2ebe
000000f0: 0a9a 283d d76f ed3d 176f 163c 197c 3b3e
00000100: beee 003d 8e02 e33d 0f89 10be 2f62 2c3e
00000110: a422 2abe e27c e63d 8bbb 2ebc 0c7d ecbe
00000120: 8d75 acbe badb 4abd de71 873c 34b5 e0bd
00000130: dcca a2be 0823 68be c8a8 eebe d891 0cbe
00000140: 0d8d 66bd 9332 75be e805 63be 818f 1d3d
00000150: 91bb 4cbe 8f91 ffbc ca62 5d3d d14a 293e
00000160: 71d9 bb3d 4f14 5bbe 717a f5bd 227b 5a3e
00000170: 6ee3 933c fe10 153d 9d64 593d 58f6 97bd
00000180: 2c54 9abe 2bd8 953c bfd8 a53d 93f7 81be
00000190: 401b 193e 486a c7be a8f1 ddbd aa35 0abe
000001a0: f4cf 453c 2981 dabd dce6 1ebe 451d d63c
000001b0: 514e eb3d e3fe 96be c51e eabe afe4 dfbe
000001c0: 7ddf 00be 00b4 bc3c 3275 1a3d cdad 9fbd
000001d0: a8f2 953e 354b b83c f067 94bd 36aa b43d
000001e0: ccf1 d5bd 737e a53d fb5c 0abe 18c2 d9be
000001f0: 65db 39bc bbc4 413d 687d d2be 6932 08be
00000200: d2ce 703d d657 ba3c 68c3 8bbc 733c dd3d
00000210: 957f a93d 95df 3f3d ca0c a43d 1f11 2f3d
00000220: 88de 993d 0ede b53d 34d6 1a3d 22d0 f73d
00000230: 8215 923c 84ca e6bd bbf7 0abd 83c7 973d
00000240: a582 243e 1fd1 703d ca5f a43d 26bc b73d
00000250: ae61 ca3c 6564 883d d899 dd3c d4b6 a5bb
00000260: 10f6 5dbe 45a1 16be 9a32 9d3d 4eba 81bd
00000270: f654 4fbd 01b0 96bd 059e b8bd 6b22 ab3c
00000280: b5fd 99bd 9395 523d b442 39bd 0284 593d
00000290: 2f17 0bbe 0bac bc3d b2f6 2c3d 0b2e 243e
000002a0: 8054 243e c9e5 e1ba 72c6 fd3d 7c27 20be
000002b0: c516 25bd dedd e13d 3331 cd3c e0ab 81bd
000002c0: 4af7 26bd ad0a 943d cf42 d2bd a289 5cbc
000002d0: bab4 1c3e bd4e 2ebd cf5c aebc be60 40bc
000002e0: 40ee 3a3d 5954 84b9 2ac2 ecbd 91d6 d4bc
000002f0: 459c a4bc a1d4 a83c 9493 bcbc f9b6 773d

encoder.rnn.bias_hh_l0 f4 [192]
-0.11769092 0.016610757 -0.023217183 0.023895051 -0.10446908 0.020263808 -0.020369146 -0.051689938
-0.02358364 0.050007492 -0.032355793 0.06998961 -0.23239335 -0.18950202 -0.110925905 -0.00423895
-0.006216302 -0.17823721 -0.2405135 -0.065958984 -0.009632976 -0.14825866 -0.06927675 -0.10341767
0.02253293 -0.0023979757 0.11831304 -0.21092196 -0.28327197 0.083259135 -0.14552554 -0.058660418
-0.06525813 -0.1742905 0.18919629 -0.20674515 -0.13407616 -0.20883946 -0.1990592 0.0012990199
0.009634831 -0.1937484 -0.27181032 -0.12684943 0.019416308 -0.09795526 -0.005058495 0.088930674
-0.060051687 0.057869077 -0.15467982 -0.07045786 -0.025923345 0.06538362 0.136243 -0.090099074
-0.16856007 0.025842914 -0.062362555 -0.15149005 -0.05269753 0.055332053 -0.02055641 0.117287524
0.05391927 0.016550794 -0.17840907 -0.010747877 -0.27047598 0.14383696 0.041914262 -0.34915048
-0.2579039 -0.25002134 0.10535537 -0.04858971 -0.11033988 -0.22168598 -0.51913995 -0.3417255
-0.042423163 -0.10206467 -0.10061886 -0.005208854 -0.061855286 -0.044360764 -0.05764375 0.26141402
0.22961707 -0.37025446 -0.16857843 0.33010814 -0.025455898 -0.16598573 -0.05449574 0.024399688
-0.15197794 0.1096695 -0.051043395 -0.126265 0.31437054 -0.59670925 -0.13988821 -0.08995741
0.095991835 -0.14464514 -0.17052501 0.099448584 0.09014309 -0.4861371 -0.31184542 -0.45337474
0.035668135 0.009636363 0.033858165 -0.048051868 0.34572574 0.023322314 0.05311945 -0.03474229
-0.23004316 0.15657203 -0.3474604 -0.30016783 -0.09593198 0.12177189 -0.31757525 -0.16261552
0.008408609 0.006746334 -0.0045687812 0.14013442 -0.060825627 0.015386611 0.108679384 -0.043006685
-0.01202856 0.019743491 -0.003270089 0.01334398 -0.117060095 0.0498194 0.035267696 0.034978367
0.04510202 0.047896557 -0.031269036 -0.067717515 0.12021252 -0.03267625 0.04925596 -0.114217
-0.1635316 -0.16055696 0.07951068 -0.08600571 0.06611724 0.017009364 0.04413114 -0.12466864
-0.081725724 0.0018892072 -0.11523073 -0.05887073 0.036827534 0.11423229 -0.025582103 0.14061013
-0.013036611 -0.09477418 0.07058058 -0.0104847625 -0.024434526 -0.024034789 -0.02591652 0.15621126
0.14860277 0.07325837 -0.09172147 0.027972573 0.029477151 -0.1149681 0.004723669 -0.15848137
0.020577364 -0.053810857 -0.10411404 -0.034805324 0.0563406 0.007491654 -0.14199328 0.052811585
00000000: f007 f1bd 4813 883c f631 bebc 8ebf c33c
00000010: e3f3 d5bd 4900 a63c 32dd a6bc d4b8 53bd
00000020: 7a32 c1bc a8d4 4c3d 8287 04bd b656 8f3d
00000030: 86f8 6dbe d10c 42be 1f2d e3bd e4e6 8abb
00000040: 1fb2 cbbb d183 36be 2c49 76be 8115 87bd
00000050: a1d3 1dbc 1ed1 17be f8e0 8dbd a5cc d3bd
00000060: fb96 b83c 5b27 1dbb 1b4e f23d edfb 57be
00000070: 0609 91be c483 aa3d a604 15be e845 70bd
00000080: 0ea6 85bd 3579 32be acbc 413e 00b5 53be
00000090: 434b 09be 03da 55be 2dd6 4bbe e043 aa3a
000000a0: 69db 1d3c fb65 46be b92a 8bbe d1e4 01be
000000b0: f30e 9f3c c49c c8bd bbc1 a5bb 4921 b63d
000000c0: c2f8 75bd 2008 6d3d 6364 1ebe 364c 90bd
000000d0: 325d d4bc d9e7 853d 4983 0b3e dd85 b8bd
000000e0: 039b 2cbe 85b4 d33c e16f 7fbd 3520 1bbe
000000f0: 5dd9 57bd dda3 623d eb65 a8bc 7134 f03d
00000100: 74da 5c3d 8895 873c deb0 36be dd17 30bc
00000110: d47b 8abe ff49 133e 4aae 2b3d dac3 b2be
00000120: fb0b 84be cc02 80be 8ec4 d73d 0106 47bd
00000130: e0f9 e1bd a601 63be 5be6 04bf a5f6 aebe
00000140: e9c3 2dbd 4807 d1bd 4311 cebd 09af aabb
00000150: f85b 7dbd a2b3 35bd da1b 6cbd 0fd8 853e
00000160: bd20 6b3e fe91 bdbe d39f 2cbe ef03 a93e
00000170: e388 d0bc 2af8 29be ed36 5fbd dbe1 c73c
00000180: 1ba0 1bbe 679a e03d e112 51bd 9d4b 01be
00000190: 2df5 a03e f0c1 18bf db3e 0fbe 973b b8bd
000001a0: 5e97 c43d db1d 14be 1c9e 2ebe b3ab cb3d
000001b0: f19c b83d f6e6 f8be 34aa 9fbe bc20 e8be
000001c0: c018 123d d6e1 1d3c dcae 0a3d 09d2 44bd
000001d0: f702 b13e 700e bf3c c893 593d ee4d 0ebd
000001e0: 6f90 6bbe 6b54 203e 54e6 b1be 99af 99be
000001f0: fc77 c4bd 8a63 f93d 3999 a2be af84 26be
00000200: 43c4 093c 5a10 dd3b b7b5 95bb 667f 0f3e
00000210: 4b24 79bd 2018 7c3c 4c93 de3d c727 30bd
00000220: 7013 45bc 1abd a13c fd4e 56bb b5a0 5a3c
00000230: 34bd efbd 6d0f 4c3d dc74 103d 7a45 0f3d
00000240: e5bc 383d 2e2f 443d f613 00bd 7baf 8abd
00000250: fb31 f63d 88d7 05bd 9ec0 493d 9aea e9bd
00000260: d474 27be 0b69 24be 7fd6 a23d c323 b0bd
00000270: 7a68 873d 3957 8b3c dbc2 343d 4652 ffbd
00000280: d15f a7bd 469f f73a 17fe ebbd 6f22 71bd
00000290: 78d8 163d 9ef2 e93d 8f91 d1bc 1afc 0f3e
000002a0: 8297 55bc f718 c2bd 8d8c 903d 48c8 2bbc
000002b0: ea2a c8bc 9be4 c4bc e24e d4bc d8f5 1f3e
000002c0: 532b 183e 7c08 963d 77d8 bbbd bd26 e53c
000002d0: 117a f13c 6574 ebbd 02c9 9a3b f148 22be
000002e0: dc91 a83c c668 5cbd be39 d5bd 0790 0ebd
000002f0: 67c5 663d 8c7c f53b b066 11be f650 583d

encoder.rnn.weight_ih_l1 f4 [192, 64]
-0.10563497 -0.28583786 0.33432877 0.35135323 -0.068536416 -0.108985394 0.018031197 0.110722065
-0.1022035 -0.14534307 -0.017352099 0.26038095 0.0408119 0.12288001 0.032025263 0.11930884
0.110177256 -0.06442877 -0.07048721 -0.15465225 -0.021145318 -0.08027061 0.06942025 -0.13380452
0.19694252 0.008158634 0.42322746 0.035170168 -0.12742446 0.089971915 0.1951242 0.07509354
-0.1224131 -0.17233989 -0.07238377 -0.11776846 0.049545523 0.10013845 0.07248248 -0.0016633249
-0.16459057 0.086082086 -0.098188184 -0.031163903 0.047399625 0.13906242 -0.083118185 0.14530988
-0.033661395 0.10967399 -0.28538537 -0.22233276 0.34258276 -0.007531247 0.061689865 0.04356375
0.19068968 -0.21658698 -0.217337 -0.25244308 0.18792337 0.011484015 -0.32400402 0.26943347
-0.09185393 -0.02292973 0.18632014 -0.31698775 -0.17313403 0.17104027 -0.08645318 -0.06788529
-0.21906208 -0.075390525 -0.23017117 -0.08568123 0.1313142 0.11579007 -0.036518242 0.038873687
-0.13716054 -0.12278495 0.14161429 -0.3314754 -0.061260115 0.012827688 0.12859786 0.2834187
0.024576288 0.024473071 -0.11315917 0.068864435 -0.19024354 0.04679904 -0.11476281 0.0038776956
-0.09203951 -0.078912646 0.052593116 0.1988696 0.106173374 0.0991689 0.13649619 0.02836413
0.021508895 -0.19538705 -0.06966531 0.004367627 -0.0012286414 -0.25641695 -0.056092598 0.08577747
0.20173888 0.094523996 -0.043679915 -0.094655894 -0.21473873 -0.2408704 -0.0105404295 0.1766942
-0.003686154 0.008727946 0.040830214 0.09998772 0.074832164 0.18287098 0.036525108 0.1173985
0.0056300582 0.18644314 0.12631984 -0.12602533 0.092042 0.22012554 -0.011523302 -0.11989988
-0.21954973 -0.010660243 -0.14150867 0.23368196 0.1430714 0.18383603 0.046540014 -0.028661104
-0.1624557 -0.007948591 0.08172536 -0.2034097 0.088444784 -0.009387318 0.23294903 -0.045661446
0.11069061 0.11353705 0.080702424 0.15976574 0.09800259 0.11306731 -0.40827337 -0.24697004
-0.15814298 -0.06661315 -0.031062573 0.3165546 0.13773377 0.28308457 0.32782078 0.16629891
-0.023032492 -0.11427405 0.06397708 0.13614233 -0.09524692 -0.13295053 0.19341026 -0.114864714
0.2859194 0.120667234 -0.026081434 0.01957959 -0.23101139 -0.0497456 0.07358882 0.07120136
-0.14280392 0.3138181 0.15305215 0.067728035 0.08270433 -0.06373939 0.12175657 0.1850783
-0.16981992 -0.10175848 0.0056714104 0.31306788 -0.046875354 0.46733835 -0.0850335 -0.33904737
-0.2555249 0.11261195 -0.57397884 -0.6741582 0.1041441 0.3219952 0.021951957 -0.06602666
-0.025478724 -0.22466336 -0.0661902 0.07516353 -0.18684874 -0.3160509 0.3364046 -0.108299345
0.10403914 0.25369325 -0.20790257 0.31808448 -0.27978924 0.010822637 -0.09086115 -0.19111866
-0.10365135 -0.09421227 -0.13419375 -0.17560895 0.3093844 0.060921922 0.057339445 -0.32651803
-0.100516535 0.333308 -0.061116207 0.23961146 0.17677535 -0.04507097 -0.18705899 0.14026724
-0.080587916 0.27087358 -0.004609678 -0.1975442 -0.08022636 -0.27821678 -0.12441722 0.14590131
0.23156086 -0.29602122 -0.19077243 -0.06548821 0.3568823 0.31698817 0.23948658 -0.29120925
00000000: 2657 d8bd 5759 92be 242d ab3e 92e4 b33e
00000010: d25c 8cbd bc33 dfbd 29b6 933c 40c2 e23d
00000020: 1250 d1bd d0d4 14be fd25 8ebc a750 853e
00000030: 612a 273d 84a8 fb3d ec2c 033d 3158 f43d
00000040: 9da4 e13d 3bf3 83bd 995b 90bd 295d 1ebe
00000050: f238 adbc eb64 a4bd 342c 8e3d 0d04 09be
00000060: 4dab 493e cbab 053c 45b1 d83e 980e 103d
00000070: 8f7b 02be 3243 b83d a3ce 473e a4ca 993d
00000080: b8b3 fabd de79 30be f13d 94bd 9730 f1bd
00000090: 3ff0 4a3d 6315 cd3d b271 943d ec03 daba
000000a0: 6e8a 28be ce4b b03d e316 c9bd 714b ffbc
000000b0: 1c26 423d 6166 0e3e de39 aabd 1dcc 143e
000000c0: 88e0 09bd c29c e03d 081e 92be 33ab 63be
000000d0: 0267 af3e aec8 f6bb 83ae 7c3d e76f 323d
000000e0: 2844 433e fac8 5dbe 978d 5ebe 3840 81be
000000f0: fc6e 403e 7327 3c3c dbe3 a5be 2ff3 893e
00000100: ea1d bcbd 21d7 bbbc b5ca 3e3e 384c a2be
00000110: 0c4a 31be 2e25 2f3e 5d0e b1bd 7107 8bbd
00000120: cf51 60be 5966 9abd feb1 6bbe a479 afbd
00000130: 3b77 063e 5823 ed3d 2794 15bd 043a 1f3d
00000140: d073 0cbe ad76 fbbd 5603 113e 25b7 a9be
00000150: e3eb 7abd 392b 523c 28af 033e 411c 913e
00000160: 3654 c93c c07b c83c ffbf e7bd cc08 8d3d
00000170: 34cf 42be 5ab0 3f3d c408 ebbd f020 7e3b
00000180: 367f bcbd f49c a1bd e16b 573d 79a4 4b3e
00000190: 6d71 d93d 1019 cb3d a8c5 0b3e e45b e83c
000001a0: 6c33 b03c 8b13 48be b0ac 8ebd 501e 8f3b
000001b0: 5d0a a1ba 1549 83be 5ac1 65bd 19ac af3d
000001c0: a394 4e3e cc95 c13d b6e9 32bd f3da c1bd
000001d0: 78e4 5bbe bba6 76be c4b1 2cbc 53ef 343e
000001e0: 6793 71bb a9ff 0e3c 953d 273d 5dc6 cc3d
000001f0: 9b41 993d 8842 3b3e 5a9b 153d a06e f03d
00000200: 5a7c b83b f3ea 3e3e fd59 013e c90c 01be
00000210: 8480 bc3d 9768 613e 3bcc 3cbc 118e f5bd
00000220: a5d1 60be 4da8 2ebc a6e7 10be 534a 6f3e
00000230: 4f81 123e 833f 3c3e bea0 3e3d b1ca eabc
00000240: c95a 26be cf3a 02bc a05f a73d a24a 50be
00000250: 8a22 b53d 44cd 19bc 318a 6e3e 7f07 3bbd
00000260: c2b1 e23d 1d86 e83d 5047 a53d a199 233e
00000270: 95b5 c83d d58f e73d 3509 d1be b7e5 7cbe
00000280: 3cf0 21be 7a6c 88bd f076 febc 7213 a23e
00000290: 150a 0d3e 76f0 903e 20d8 a73e 434a 2a3e
000002a0: a3ae bcbc 8308 eabd 6a06 833d e568 0b3e
000002b0: d110 c3bd 2f24 08be 570d 463e 313e ebbd
000002c0: 0764 923e 6220 f73d bba8 d5bc 6065 a03c
000002d0: 408e 6cbe 0bc2 4bbd bcb5 963d 05d2 913d
000002e0: 313b 12be c4ac a03e b4b9 1c3e ffb4 8a3d
000002f0: e360 a93d cc89 82bd 825b f93d 2a85 3d3e
00000300: 46e5 2dbe c066 d0bd 3dd7 b93b 6f4a a03e
00000310: 5f00 40bd f946 ef3e 0b26 aebd 9e97 adbe
00000320: 29d4 82be 18a1 e63d 47f0 12bf a295 2cbf
00000330: 8049 d53d 8edc a43e 97d4 b33c fc38 87bd
00000340: c2b8 d0bc 270e 66be ba8e 87bd 56ef 993d
00000350: 4755 3fbe 6cd1 a1be 393d ac3e 0ccc ddbd
00000360: 7912 d53d 15e4 813e 69e4 54be f8db a23e
00000370: 8940 8fbe 6e51 313c 6915 babd 9cb4 43be
00000380: 2947 d4bd 5df2 c0bd 166a 09be d5d2 33be
00000390: a267 9e3e 4489 793d c4dc 6a3d 5f2d a7be
000003a0: 9ddb cdbd 59a7 aa3e fd54 7abd b55c 753e
000003b0: 9904 353e 569c 38bd 648c 3fbe 37a2 0f3e
000003c0: 470b a5bd f1af 8a3e c80c 97bb 0749 4abe
000003d0: b84d a4bd 6e72 8ebe 75ce febd 2767 153e
000003e0: 4a1e 6d3e 1890 97be d959 43be af1e 86bd
000003f0: 47b9 b63e 464c a23e f83b 753e 6119 95be

encoder.rnn.weight_hh_l1 f4 [192, 64]
-0.009533664 0.18151152 0.14700846 0.28444508 0.070706755 0.10578106 -0.17250961 0.036485437
0.10013333 -0.08020506 0.06940248 -0.05077267 0.21952449 0.015574653 -0.07301014 -0.21755162
0.2367244 -0.07907359 0.040592033 0.054472733 -0.045861725 0.3056056 -0.1614284 -0.00021334793
-0.0640599 -0.022294473 -0.06565431 0.23522633 0.121923804 -0.15603015 0.0031832473 -0.023553584
-0.057804465 0.15206154 0.09288589 -0.107611164 -0.19633505 -0.13158461 0.004762977 -0.5634247
0.07558161 -0.012604674 0.17675078 0.07733187 -0.19920984 0.29466772 -0.037269525 0.003287143
-0.03535237 0.2139788 -0.23919502 -0.085235804 0.15484099 -0.006709899 0.13241802 -0.047446236
-0.068791226 0.025752297 0.051706385 -0.11266529 0.2281489 -0.065544814 -0.069876686 0.0017458077
0.034871254 -0.107772656 0.37246677 0.020416131 0.10701992 0.12431139 -0.07718537 0.013485781
0.07579444 0.0046658004 0.058444362 -0.18739378 -0.07156076 -0.0254539 0.06731918 0.014797549
0.0858401 -0.25248593 0.016530178 0.102455735 0.17655051 -0.22157827 -0.2629248 -0.08616376
-0.20749915 0.031174807 -0.0043496215 -0.07782329 0.08990336 -0.19271979 -0.21908078 -0.07027963
0.1349793 -0.00403866 0.15713479 -0.15533718 0.115177535 0.048734725 -0.24356535 -0.14123018
0.087522715 -0.07882146 0.12651022 -0.034011442 0.041703343 0.048717752 -0.16107659 0.0035075976
0.15372528 -0.00759487 -0.116713494 -0.111694194 0.055577576 -0.0083407005 0.2069464 -0.10485876
0.009450203 0.22292253 0.23897618 -0.13152206 -0.033822868 0.07690966 -0.02183209 0.1591689
0.18392487 0.18422091 0.12063655 0.18205266 0.20733407 0.01238758 -0.15240681 0.122272335
0.18156536 0.016017621 -0.0061780466 -0.042660486 -0.1584435 -0.12601526 -0.019370196 -0.05901804
-0.11913553 -0.07954854 0.012466535 0.028835185 0.08745436 0.032345757 -0.193491 -0.14722039
-0.06711265 -0.10479529 -0.23994853 0.0048676273 0.2245737 0.045318525 -0.19857074 -0.14217634
-0.010643968 0.06293899 0.26964638 0.0014559097 -0.016538374 0.06153885 -0.14531405 0.025492063
0.039951075 -0.041405335 -0.109795146 0.11819005 -0.13174817 -0.17506392 0.050078955 -0.08478854
0.0017658776 0.0066330326 0.040833656 0.09799033 -0.057093155 -0.10412685 0.15252975 -0.16801468
-0.13972692 0.060653172 -0.050122928 -0.117636554 -0.010289444 -0.03513627 0.05473815 -0.064411074
0.021009846 0.009942517 0.07165271 0.0019844768 0.1976197 0.05567488 -0.0137264235 0.23415871
0.36156473 -0.2550348 -0.40774348 -0.12523568 -0.013084397 -0.0562466 -0.3384294 -0.16198051
0.18589854 -0.26233354 -0.007830104 0.16191524 0.09919596 -0.056054268 -0.35114512 -0.19472024
-0.12017825 0.20019503 0.08669737 0.27077195 0.22089674 -0.10272963 -0.16274823 -0.08864102
0.029770587 0.2328774 0.0747847 0.17921932 -0.39380875 -0.23950198 -0.063985325 0.039086144
0.011839726 -0.00066312694 0.05914951 0.062009886 -0.13883473 -0.04517217 -0.3608283 -0.047840513
0.33043057 0.11684798 0.19252133 -0.28074563 -0.031681355 -0.313912 -0.17417079 -0.16398904
-0.35483268 0.17264502 0.04764696 0.17355801 -0.30256587 -0.111187465 -0.2277769 -0.029554939
00000000: 1633 1cbc 28de 393e 6389 163e c9a2 913e
00000010: b4ce 903d bea3 d83d 5ca6 30be c171 153d
00000020: b412 cd3d 8d42 a4bd e322 8e3d 01f7 4fbd
00000030: 07cb 603e d42c 7f3c 5786 95bd dac5 5ebe
00000040: e267 723e 56f1 a1bd d543 263d cd1e 5f3d
00000050: 81d9 3bbd 5678 9c3e 7d4d 25be 26b6 5fb9
00000060: d631 83bd e6a2 b6bc c475 86bd 2cdf 703e
00000070: 30b3 f93d 5ec6 1fbe 079e 503b 72f3 c0bc
00000080: 60c4 6cbd 05b6 1b3e f53a be3d 3e63 dcbd
00000090: 0e0c 49be 1ebe 06be bf12 9c3b 9a3c 10bf
000000a0: 88ca 9a3d d683 4ebc 28fe 343e 2c60 9e3d
000000b0: aafd 4bbe b0de 963e eea7 18bd 1c6d 573b
000000c0: a6cd 10bd 421d 5b3e 8aef 74be 1c90 aebd
000000d0: a38e 1e3e b6de dbbb 9798 073e fc56 42bd
000000e0: 6ae2 8cbd 7bf6 d23c 13ca 533d 0fbd e6bd
000000f0: de9f 693e 5c3c 86bd 821b 8fbd 96d3 e43a
00000100: 29d5 0e3d e9b7 dcbd f7b3 be3e bb3f a73c
00000110: 432d db3d f896 fe3d 5d13 9ebd 77f3 5c3c
00000120: 1e3a 9b3d 92e3 983b 5b63 6f3d 28e4 3fbe
00000130: 738e 92bd b384 d0bc a3de 893d 6b71 723c
00000140: efcc af3d d645 81be 4c6a 873c 50d4 d13d
00000150: a8c9 343e 6ae5 62be 149e 86be a076 b0bd
00000160: a87a 54be 4f62 ff3c 4587 8ebb d161 9fbd
00000170: 411f b83d 5658 45be b656 60be c4ee 8fbd
00000180: 0338 0a3e bc56 84bb f1e7 203e b610 1fbe
00000190: 33e2 eb3d 109e 473d 3269 79be a59e 10be
000001a0: 1c3f b33d 256d a1bd e58b 013e 954f 0bbd
000001b0: 20d1 2a3d 448c 473d 43f1 24be b9df 653b
000001c0: 296a 1d3e 63de f8bb 7c07 efbd edbf e4bd
000001d0: 50a5 633d 6fa7 08bc c2e9 533e 31c0 d6bd
000001e0: 06d5 1a3c ce45 643e 2cb6 743e b8ad 06be
000001f0: d989 0abd d082 9d3d 36d9 b2bc 2cfd 223e
00000200: cd56 3c3e 68a4 3c3e 4c10 f73d 036c 3a3e
00000210: 624f 543e 47f5 4a3c 8810 1cbe eb69 fa3d
00000220: 45ec 393e 6337 833c 3671 cabb c3bc 2ebd
00000230: 033f 22be 250a 01be 3fae 9ebc e6bc 71bd
00000240: 54fd f3bd 58ea a2bd 7040 4c3c c437 ec3c
00000250: 461b b33d fc7c 043d 8122 46be f1c0 16be
00000260: 5b72 89bd ea9e d6bd 11b5 75be 9e80 9f3b
00000270: a6f6 653e eb9f 393d 2156 4bbe ad96 11be
00000280: 0a64 2ebc 28e6 803d 170f 8a3e 39d4 be3a
00000290: 7c7b 87bc 2910 7c3d 35cd 14be bbd4 d03c
000002a0: bda3 233d a498 29bd 47dc e0bd a00d f23d
000002b0: fee8 06be f543 33be 971f 4d3d 9da5 adbd
000002c0: 0575 e73a e959 d93b 3141 273d 27af c83d
000002d0: 83da 69bd 7540 d5bd c230 1c3e 0a0c 2cbe
000002e0: 9314 0fbe 766f 783d b34d 4dbd 6feb f0bd
000002f0: 0e95 28bc 0deb 0fbd 1c35 603d f4e9 83bd
00000300: d71c ac3c f0e5 223c a8be 923d ff0d 023b
00000310: d25c 4a3e 580b 643d cbe4 60bc 4dc7 6f3e
00000320: 031f b93e ec93 82be c1c3 d0be c83d 00be
00000330: f05f 56bc d662 66bd 9e46 adbe 38de 25be
00000340: 305c 3e3e 9550 86be d649 00bc 1ccd 253e
00000350: 4027 cb3d 2999 65bd 4bc9 b3be be64 47be
00000360: 0420 f6bd edff 4c3e 648e b13d 9fa2 8a3e
00000370: c132 623e ea63 d2bd 79a7 26be 6c89 b5bd
00000380: 72e1 f33c 6a77 6e3e b928 993d 4585 373e
00000390: 4da1 c9be 0240 75be bd0a 83bd cb18 203d
000003a0: 69fb 413c b2d5 2dba c246 723d 14fe 7d3d
000003b0: b12a 0ebe 7406 39bd 7dbe b8be 6af4 43bd
000003c0: 322e a93e fe4d ef3d 5024 453e e4bd 8fbe
000003d0: 4fc4 01bd 13b9 a0be d459 32be beec 27be
000003e0: a1ac b5be dbc9 303e 7529 433d 31b9 313e
000003f0: eae9 9abe 41b6 e3bd 593e 69be 331d f2bc

encoder.rnn.bias_ih_l1 f4 [192]
-0.23142157 -0.070657484 -0.17292 -0.27074322 -0.09958235 0.07767828 -0.21263768 -0.12716211
-0.25051323 0.019143168 -0.104840465 -0.04483561 -0.030458353 -0.049949776 -0.18974864 -0.21191473
-0.1260774 -0.37085357 -0.08205111 -0.20312934 -0.21126336 -0.14461319 -0.09630187 -0.38127092
-0.12434085 -0.2874678 -0.046083003 -0.10641989 -0.2730035 0.23425563 -0.0114517575 -0.24634229
-0.1438579 -0.18739128 0.27605084 0.016617235 -0.079692855 -0.089283116 -0.109033704 0.0020961768
-0.07782348 -0.1537192 -0.25068438 -0.12555744 -0.06675217 -0.035294134 0.136621 0.038245376
-0.048030294 -0.0015154954 0.15978663 -0.29506737 -0.08489941 -0.13361387 -0.22962165 -0.012499967
-0.26253372 -0.24667363 -0.004123874 -0.021414377 -0.18831442 -0.051039428 -0.09870612 -0.12238983
-0.18683769 0.13075306 0.331165 0.1386574 0.13351294 -0.16196361 0.34506753 -0.17291866
0.078205 -0.03238367 0.19449359 -0.1776413 -0.07014003 -0.4056943 0.0820308 -0.16781834
-0.28157935 -0.15521726 -0.18989275 -0.29243785 -0.1912006 0.48806813 0.17088526 -0.2847776
0.07444988 -0.017286997 0.31852815 -0.016246827 0.21147686 -0.0038167397 0.2085681 0.22995642
-0.4475543 0.17490567 0.16761896 0.21046339 0.05980566 -0.05490621 -0.3649466 0.08047614
0.10393846 -0.404375 -0.13815501 -0.10079929 -0.30822074 -0.03476219 0.23640046 -0.36869302
0.017625794 -0.2255991 -0.07789484 0.028668994 0.2519214 -0.07435021 0.29111832 -0.3144321
0.00717663 0.058134068 0.003083947 0.3833358 0.09895871 0.041537676 0.17772955 0.13629825
0.034549024 -0.17324655 -0.008002162 -0.051598385 -0.05834954 -0.041322414 0.11651 0.18761857
-0.094866216 -0.1395681 -0.0031748032 0.094293706 -0.106340066 0.074905775 0.08998479 -0.04344973
0.030564604 0.07710725 -0.006575969 -0.044018447 -0.11465967 0.042528797 0.05598129 -0.10417025
0.014280592 0.22020897 -0.0031028138 0.07131939 -0.09708663 -0.0655341 -0.01885136 0.06705324
-0.08982471 0.076677635 0.11941945 0.15506774 -0.043963183 -0.054849435 0.030830598 0.07393734
-0.047541812 -0.14306399 -0.1330672 0.10762265 0.017729823 -0.11175191 0.23755413 -0.18245177
0.13000399 0.06973507 -0.05485954 0.06580682 -0.018022552 -0.14353156 -0.036913514 0.03863332
0.09974251 0.15609583 -0.05989803 -0.004383407 0.06623237 -0.0045277453 0.11679634 -0.050137002
00000000: c7f9 6cbe dfb4 90bd f111 31be db9e 8abe
00000010: d5f1 cbbd ca15 9f3d b1bd 59be c936 02be
00000020: 4543 80be 22d2 9c3c 99b6 d6bd 8ba5 37bd
00000030: cc83 f9bc 2398 4cbd 784d 42be 2d00 59be
00000040: 6f1a 01be 85e0 bdbe 6a0a a8bd 2301 50be
00000050: 6c55 58be 7b15 14be ea39 c5bd f135 c3be
00000060: 6aa6 febd fb2e 93be 88c1 3cbd acf2 d9bd
00000070: 1dc7 8bbe b5e0 6f3e 27a0 3bbc 2741 7cbe
00000080: 7c4f 13be 80e3 3fbe 8956 8d3e de20 883c
00000090: 0236 a3bd 11da b6bd 104d dfbd 0360 093b
000000a0: eb61 9fbd 9168 1dbe b459 80be 2192 00be
000000b0: 5db5 88bd 9590 10bd 60e6 0b3e 2fa7 1c3d
000000c0: 6abb 44bd 96a3 c6ba 1b9f 233e 1213 97be
000000d0: bedf adbd 13d2 08be f021 6bbe a9cc 4cbc
000000e0: d26a 86be 0398 7cbe 9021 87bb 346d afbc
000000f0: 7fd5 40be b80e 51bd 6f26 cabd 85a7 fabd
00000100: 6152 3fbe 21e4 053e 758e a93e 35fc 0d3e
00000110: 9eb7 083e cad9 25be b1ac b03e 9711 31be
00000120: f129 a03d bda4 04bd 5429 473e 9ae7 35be
00000130: 93a5 8fbd 2ab7 cfbe c4ff a73d 92d8 2bbe
00000140: 2b2b 90be 46f1 1ebe 3f73 42be 6aba 95be
00000150: 17ca 43be 11e4 f93e 8cfc 2e3e 5fce 91be
00000160: 2e79 983d 769d 8dbc 1f16 a33e 1118 85bc
00000170: 648d 583e 4422 7abb e092 553e b279 6b3e
00000180: d625 e5be 791a 333e 4ea4 2b3e b783 573e
00000190: c8f6 743d 56e5 60bd 48da babe add0 a43d
000001a0: b0dd d43d 3d0a cfbe 8278 0dbe dc6f cebd
000001b0: 1ccf 9dbe cc62 0ebd f612 723e 55c5 bcbe
000001c0: f863 903c 7303 67be 5487 9fbd 3ddb ea3c
000001d0: d7fb 803e ec44 98bd 760d 953e 3ffd a0be
000001e0: f029 eb3b fd1d 6e3d 0c1c 4a3b 9744 c43e
000001f0: ddaa ca3d 6923 2a3d bcfe 353e c591 0b3e
00000200: 4783 0d3d 8b67 31be 801b 03bc d458 53bd
00000210: edff 6ebd b141 29bd cb9c ee3d 151f 403e
00000220: 3849 c2bd f1ea 0ebe 5c10 50bb 0f1d c13d
00000230: d2c8 d9bd 3368 993d f249 b83d 58f8 31bd
00000240: 9f62 fa3c 68ea 9d3d 3a7b d7bb b04c 34bd
00000250: b0d2 eabd ad32 2e3d a34c 653d 3657 d5bd
00000260: 25f9 693c 767e 613e 9458 4bbb e60f 923d
00000270: 5bd5 c6bd be36 86bd 2b6e 9abc 3653 893d
00000280: 04f6 b7bd 2a09 9d3d 2f92 f43d 14ca 1e3e
00000290: bd12 34bd cda9 60bd 7390 fc3c 766c 973d
000002a0: 34bb 42bd 5e7f 12be c542 08be 4469 dc3d
000002b0: 223e 913c 2fde e4bd 6441 733e a3d4 3abe
000002c0: c41f 053e 43d1 8e3d 66b4 60bd bac5 863d
000002d0: 08a4 93bc f0f9 12be a032 17bd f93d 1e3d
000002e0: cd45 cc3d 96d7 1f3e a357 75bd afa2 8fbb
000002f0: d6a4 873d 7b5d 94bb eb32 ef3d 755c 4dbd

encoder.rnn.bias_hh_l1 f4 [192]
-0.00080948044 -0.06980967 -0.014927339 -0.13409646 -0.07228266 0.03761902 -0.31802183 -0.12183753
-0.25514483 -0.026473958 -0.1203048 -0.28914955 0.071071744 -0.020221824 -0.2514605 -0.20799229
-0.18603757 -0.22559239 -0.026026927 -0.2771578 -0.04822307 -0.118548885 -0.045793273 -0.31771195
-0.07017962 -0.33344582 0.12724628 -0.037733108 -0.22024268 0.06679799 0.0012134347 -0.2623527
-0.13390735 -0.10315592 0.124741666 -0.072902374 -0.18015799 -0.20650753 -0.16484988 -0.07445956
-0.028252752 -0.09555425 -0.09997965 -0.096289985 0.031918548 -0.029587124 0.15399297 -0.19404438
0.11928437 -0.18117929 0.0781422 -0.2301778 -0.0301699 -0.040825643 -0.22821505 0.022287024
-0.33722728 -0.26483068 0.11490833 0.11490316 -0.024942227 -0.018267103 -0.12746473 -0.18790066
-0.11583255 0.21619573 0.41846466 0.05525207 0.1776367 -0.26354682 0.3552255 -0.20624618
0.10371573 0.19279318 0.033832386 -0.32134122 0.026403626 -0.21270145 -0.13729125 -0.039074108
-0.26503402 -0.022536723 -0.21769568 -0.31646046 -0.19873786 0.38452256 0.24094921 -0.48090973
0.2873911 -0.06507508 0.15380883 0.03535376 0.25969267 0.12518209 0.083163515 0.20218326
-0.45928407 0.16883194 0.27586484 0.14907868 0.034793377 0.077934586 -0.35895935 0.14027794
0.10670604 -0.28828 -0.17233461 -0.33294097 -0.17248899 0.08765734 0.19530478 -0.24134663
0.0736912 -0.28352177 0.042257193 0.20945449 0.26407197 -0.10223952 0.29040673 -0.20149948
-0.06508625 0.068834 -0.18319143 0.16898397 0.28058633 -0.008778472 0.15476899 0.12458567
0.016759077 -0.07788346 -0.07544969 0.0825402 0.030216401 0.042238533 -0.049481172 0.18661393
-0.017074 0.064212225 -0.0987539 -0.13827805 -0.2507661 -0.09474021 -0.054203406 0.010558593
-0.03517121 0.12933512 0.011911675 -0.003321983 0.14545949 0.10649743 0.10150414 0.07957932
0.22779687 0.09877359 -0.0093859 0.04285499 -0.101623625 -0.09137403 -0.0677665 0.08100082
-0.056588538 -0.074962206 0.041908268 -0.056990765 -0.047018822 -0.096654736 -0.034278795 0.14060861
-0.026138343 -0.011605126 -0.11553374 -0.0460699 0.11340006 -0.20743303 0.0566422 -0.1263233
0.0826883 -0.08005638 0.069053486 -0.07587718 0.027407639 0.02845002 0.015691353 -0.066205144
-0.016384032 -0.054117985 0.065824635 0.08204965 0.026231274 -0.1483601 0.104595564 0.09514222
00000000: 5033 54ba 5ff8 8ebd cc91 74bc 9550 09be
00000010: ee08 94bd 6716 1a3d c2d3 a2be f485 f9bd
00000020: 58a2 82be eadf d8bc 5d62 f6bd 690b 94be
00000030: 108e 913d 3da8 a5bc 6ebf 80be eefb 54be
00000040: a280 3ebe b101 67be 6c36 d5bc a1e7 8dbe
00000050: 8e85 45bd c2c9 f2bd ba91 3bbd 24ab a2be
00000060: 55ba 8fbd 69b9 aabe d94c 023e 088e 1abd
00000070: 4c87 61be 62cd 883d 1d0c 9f3a 1853 86be
00000080: 021f 09be 6943 d3bd 8f78 ff3d d74d 95bd
00000090: 567b 38be b676 53be 68ce 28be 417e 98bd
000000a0: 5172 e7bc f2b1 c3bd 21c2 ccbd af33 c5bd
000000b0: 06bd 023d b260 f2bc 55b0 1d3e 92b3 46be
000000c0: 5d4b f43d 1087 39be 0509 a03d bbb3 6bbe
000000d0: de26 f7bc ca38 27bd 35b1 69be 4793 b63c
000000e0: 0ea9 acbe e397 87be 0f55 eb3d 5952 eb3d
000000f0: a453 ccbc e4a4 95bc 1d86 02be 0869 40be
00000100: 9e39 edbd 6a62 5d3e 0041 d63e ff4f 623d
00000110: 65e6 353e 9cef 86be 1ee0 b53e 3332 53be
00000120: ea68 d43d 936b 453e d493 0a3d d686 a4be
00000130: 6b4c d83c 69ce 59be 1496 0cbe 2c0c 20bd
00000140: 8ab2 87be ef9e b8bc 9eeb 5ebe 1b07 a2be
00000150: f081 4bbe 24e0 c43e 64bb 763e cd39 f6be
00000160: ed24 933e 1546 85bd 1080 1d3e 1bcf 103d
00000170: 70f6 843e bc2f 003e a251 aa3d 2109 4f3e
00000180: 4827 ebbe 48e2 2c3e 283e 8d3e 15a8 183e
00000190: 8083 0e3d 2b9c 9f3d 85c9 b7be 05a5 0f3e
000001a0: b288 da3d 7099 93be 7c78 30be 3d77 aabe
000001b0: f4a0 30be b185 b33d fafd 473e 9223 77be
000001c0: 69eb 963d c429 91be e115 2d3d 3d7b 563e
000001d0: 7134 873e f462 d1bd 31b0 943e e155 4ebe
000001e0: f14b 85bd d7f8 8c3d 8996 3bbe 220a 2d3e
000001f0: 03a9 8f3e 95d3 0fbc c37b 1e3e c626 ff3d
00000200: 554a 893c 5d81 9fbd 5e85 9abd d60a a93d
00000210: 6388 f73c 5002 2d3d c5ac 4abd b917 3f3e
00000220: c6de 8bbc b381 833d 7c3f cabd c398 0dbe
00000230: 6a64 80be 2807 c2bd 6404 5ebd f3fd 2c3c
00000240: b00f 10bd 6d70 043e 3029 433c a0b5 59bb
00000250: 55f3 143e 531b da3d 67e1 cf3d 7cfa a23d
00000260: 9543 693e cf49 ca3d 51c7 19bc b788 2f3d
00000270: 0c20 d0bd 4f22 bbbd 2ac9 8abd c2e3 a53d
00000280: 62c9 67bd c985 99bd 01a8 2b3d 266f 69bd
00000290: cf96 40bd ebf2 c5bd ec67 0cbd b4fb 0f3e
000002a0: 1420 d6bc 6d23 3ebc f49c ecbd cbb3 3cbd
000002b0: 4a3e e83d 5369 54be a701 683d e55a 01be
000002c0: 7c58 a93d 99f4 a3bd ea6b 8d3d 7f65 9bbd
000002d0: fc85 e03c 0410 e93c 278b 803c 9096 87bd
000002e0: ce37 86bc d2aa 5dbd 11cf 863d a609 a83d
000002f0: f8e2 d63c b6eb 17be 3336 d63d edd9 c23d

decoder.cnn.weight f4 [32, 1, 72, 1]
0.11242542 0.10856348 -0.008964352 0.097162284 -0.053381067 0.053642545 -0.02287962 0.08196151
0.09191408 -0.058970872 -0.007864263 0.06540483 -0.09712551 0.0041968306 -0.023261491 0.03330211
0.006141914 -0.005922813 0.022168593 0.013882099 0.03831119 -0.14951894 -0.09238563 0.018929679
-0.07461448 -0.003173994 0.065640464 0.13232128 0.033047095 0.11619874 -0.088577725 -0.011679838
0.049252275 -0.035239555 -0.13142622 -0.07683984 -0.013856252 -0.062127594 -0.0025551273 0.028983194
-0.071737334 0.052765653 -0.0422867 0.04667081 0.02606076 -0.10969549 0.007501811 0.119223036
0.13996924 -0.022427883 0.032553624 0.17797409 0.20631781 0.047243644 0.07193252 0.038059555
0.20296794 0.15123002 0.1961193 -0.0026578007 0.10189924 0.13292919 0.097546935 0.13757809
0.086176135 0.22050466 0.030274464 0.20476897 0.16840181 0.116979174 0.09460842 0.2961072
0.13833666 0.010020046 0.2124821 0.21243235 0.15219545 0.19760239 0.15449369 -0.05716964
0.08401263 0.12792635 0.032212537 0.018321028 -0.048736624 -0.111197606 0.03309251 -0.10783171
-0.107970126 -0.09772908 0.032780483 -0.060883947 0.030105762 0.055135928 -0.051512428 -0.07435736
0.011630638 0.03608351 0.015760178 -0.053027965 0.11921315 0.14565513 0.06380692 0.06082923
0.13357529 0.012827629 -0.09753162 0.07835546 -0.09761912 0.09373959 0.007087977 -0.0026810567
0.06269556 0.065870315 0.04089667 -0.016628426 -0.07757095 -0.11705965 -0.098721765 0.017530322
0.049834512 0.1041065 0.06587296 0.0055004903 0.1650446 0.06505469 0.04517826 0.19216084
0.0048880745 0.09044304 0.09159015 0.10115304 -0.029065676 0.08584497 0.051679213 0.19748907
0.21605971 0.20675324 0.23834205 0.06225365 0.12633364 0.15956491 0.14076827 0.32051408
0.13143265 0.08726088 0.02807597 0.15346642 0.1264647 -0.020020725 0.12913066 0.08830996
0.16286853 0.09211232 0.19243641 0.06729483 0.15895051 -0.027222838 0.09261886 -0.0018727673
0.16577643 0.0021563924 0.024778455 0.15440743 0.13968362 -0.054096203 -0.097411335 0.094238296
0.11234107 0.07682692 0.016582849 0.11925742 0.0057445937 -0.02630696 0.058433298 0.02680815
-0.05696647 0.113253415 0.057513904 0.039611354 -0.0054488336 -0.005541134 0.08548248 0.09933969
0.101490326 0.08886808 -0.03317139 0.1419258 -0.01357426 -0.040777013 0.06820933 0.017636707
-0.016836036 -0.024935704 -0.059543505 -0.036672246 -0.04202592 -0.008850957 -0.03967408 0.06856533
0.09091161 0.15838115 -0.037338015 0.019852009 -0.03956948 0.024763083 0.065447845 -0.0300437
0.11036739 -0.019247787 -0.008015418 0.0070059234 0.13337077 0.09404864 0.005560025 -0.0016302227
-0.03100003 0.033729758 0.063846774 0.018611131 -0.09936874 0.04247765 -0.078267924 -0.091675736
0.01167858 0.007181034 -0.07926783 -0.005833804 -0.06439557 -0.09275399 -0.085465 0.040242486
-0.005069073 -0.031313375 0.06003014 -0.0724413 -0.08729289 -0.22725144 -0.121344104 -0.114453465
-0.12936492 0.12271224 0.05457114 0.13373809 0.05297688 0.08009145 0.08270419 0.09651857
-0.06721717 0.13210572 0.0007805559 -0.0028987231 0.065177344 0.07771925 -0.05382758 0.026918419
00000000: 4c3f e63d 8856 de3d 38df 12bc 05fd c63d
00000010: 1ba6 5abd 49b8 5b3d 0a6e bbbc 70db a73d
00000020: 733d bc3d 718b 71bd 1cd9 00bc f8f2 853d
00000030: bde9 c6bd 9185 893b e28e bebc cb67 083d
00000040: 1c42 c93b 2814 c2bb e99a b53c be71 633c
00000050: 32ec 1c3d 7e1b 19be ad34 bdbd 6a12 9b3c
00000060: 7acf 98bd c802 50bb 826e 863d 3b7f 073e
00000070: 645c 073d 9bf9 ed3d 3d68 b5bd cb5c 3fbc
00000080: c1bc 493d 5a57 10bd 9894 06be 355e 9dbd
00000090: 5505 63bc 8179 7ebd ec73 27bb 2a6e ed3c
000000a0: 06eb 92bd cc20 583d d234 2dbd e429 3f3d
000000b0: 607d d53c 07a8 e0bd c0d1 f53b 352b f43d
000000c0: 1954 0f3e aeba b7bc f356 053d d73e 363e
000000d0: fa44 533e 8d82 413d 5b51 933d 56e4 1b3d
000000e0: d4d6 4f3e 0bdc 1a3e 7fd3 483e 7f2e 2ebb
000000f0: 8cb0 d03d 971e 083e b0c6 c73d 45e1 0c3e
00000100: 1d7d b03d f9cb 613e 2702 f83c f5ae 513e
00000110: 8671 2c3e c792 ef3d 0fc2 c13d 5d9b 973e
00000120: 20a8 0d3e 1e2b 243c e894 593e de87 593e
00000130: 20d9 1b3e 4858 4a3e 9833 1e3e b62a 6abd
00000140: d00e ac3d 20ff 023e 4bf1 033d fb15 963c
00000150: 0ea0 47bd 92bb e3bd 038c 073d dfd6 dcbd
00000160: 711f ddbd 2f26 c8bd d444 063d 7261 79bd
00000170: 5ca0 f63c 36d6 613d b2fe 52bd ac48 98bd
00000180: 6e8e 3e3c 4dcc 133d 7d1b 813c da33 59bd
00000190: 0626 f43d 9e26 153e 34ad 823d 1228 793d
000001a0: f6c7 083e fa2a 523c a8be c7bd d478 a03d
000001b0: 88ec c7bd 8bfa bf3d 4342 e83b abb4 2fbb
000001c0: 8866 803d 04e7 863d 4483 273d 5638 88bc
000001d0: 85dd 9ebd f8bc efbd a32e cabd c09b 8f3c
000001e0: 461f 4c3d ca35 d53d 67e8 863d 753d b43b
000001f0: 7401 293e 653b 853d d70c 393d d0c5 443e
00000200: 242c a03b 333a b93d 9e93 bb3d 5329 cf3d
00000210: 241b eebc 7dcf af3d 95ad 533d 933a 4a3e
00000220: c23e 5d3e 1fb7 533e f00f 743e affd 7e3d
00000230: 9b5d 013e fc64 233e 8f25 103e 6c1a a43e
00000240: 4896 063e d5b5 b23d 94ff e53c 4d26 1d3e
00000250: f67f 013e 8102 a4bc d43a 043e dadb b43d
00000260: 02c7 263e 62a5 bc3d 0d0e 453e dfd1 893d
00000270: ecc3 223e 6e02 dfbc f5ae bd3d a577 f5ba
00000280: 4cc1 293e 4352 0d3b 30fc ca3c fb1c 1e3e
00000290: 3909 0f3e fb93 5dbd 987f c7bd 0200 c13d
000002a0: 1313 e63d 6f57 9d3d c1d8 873c 3c3d f43d
000002b0: 253d bc3b b281 d7bc c157 6f3d c49c db3c
000002c0: ac55 69bd 68f1 e73d b393 6b3d 843f 223d
000002d0: 218c b2bb 6792 b5bb 7011 af3d 9b72 cb3d
000002e0: 29da cf3d 7800 b63d b9de 07bd ff54 113e
000002f0: 9366 5ebc cc05 27bd 55b1 8b3d db7a 903c
00000300: baeb 89bc f645 ccbc e4e3 73bd a335 16bd
00000310: 5f23 2cbd 9b03 11bc 4a81 22bd fb6b 8c3d
00000320: de2f ba3d ab2e 223e bfef 18bd aea0 a23c
00000330: 9b13 22bd f3db ca3c 8509 863d 351e f6bc
00000340: 4c08 e23d 89ad 9dbc 1a53 03bc f291 e53b
00000350: 5992 083e 939c c03d df30 b63b 32ad d5ba
00000360: c6f3 fdbc 3728 0a3d 19c2 823d 5f76 983c
00000370: d781 cbbd 0bfd 2d3d ef4a a0bd 7dc0 bbbd
00000380: 8457 3f3c e14e eb3b 2c57 a2bd 7f29 bfbb
00000390: d3e1 83bd cef5 bdbd 4608 afbd 4ed5 243d
000003a0: 771a a6bb 7442 00bd 2ae2 753d 1b5c 94bd
000003b0: 9dc6 b2bd 9ab4 68be 4283 f8bd 9466 eabd
000003c0: 3d78 04be 8e50 fb3d fd85 5f3d a3f2 083e
000003d0: 49fe 583d fc06 a43d d060 a93d 87ab c53d
000003e0: 28a9 89bd b946 073e 389e 4c3a 81f8 3dbb
000003f0: b37b 853d 452b 9f3d 4f7a 5cbd 0484 dc3c
