1223-code-DL/model/transformer_state_dict.pt (torch, 198687 bytes, 65 tensors)

encoder.embedding.weight f4 [32, 16]
0	0x3e3e6000	0.18591309
1	0x3e5c0e1b	0.21489756
2	0xbd38f32b	-0.045153778
3	0x3e6d602d	0.2318122
4	0xbd85f0eb	-0.06540092
5	0x3d90896c	0.07057461
6	0xbdebea34	-0.1151928
7	0x3e0386c6	0.1284438
8	0x3e6ae1aa	0.22937647
9	0xbe3c93f5	-0.18415816
10	0x3e6424cc	0.22279662
11	0x3d611bc3	0.054958116
12	0x3e4410bc	0.19147009
13	0x3d39002e	0.045166187
14	0x3dee6f0a	0.11642273
15	0xbdb33825	-0.08750943
16	0x3e7a452d	0.24440451
17	0x3dc439ca	0.09581335
18	0xbd4923cc	-0.049106404
19	0x3e00c0c0	0.12573528
20	0xbd908816	-0.07057206
21	0x3d5f6a1f	0.054544564
22	0xbd3431e4	-0.043992892
23	0x3e623949	0.22092165
24	0xbe1262e5	-0.14295538
25	0xbd8badc3	-0.06820252
26	0xbbf564a6	-0.007488805
27	0xbdc5be64	-0.09655455
28	0x3d99d138	0.075106084
29	0xbe2d5d05	-0.16930015
30	0x3e895445	0.26822105
31	0xbe66deb0	-0.22545886
32	0x3e21b58c	0.15791911
33	0x3bb1d657	0.0054271626
34	0xbded3c15	-0.11583725
35	0x3dfc6608	0.123241484
36	0x3c3dbf74	0.0115812905
37	0x3e16ef90	0.14739823
38	0xbbf4f416	-0.0074753864
39	0xbdcb1490	-0.09916031
40	0x3d0345d8	0.03204903
41	0xbdcd5516	-0.100259945
42	0x3d832dd3	0.06405225
43	0x3e40c86b	0.18826453
44	0x3de0e457	0.10981052
45	0xbe1cf93c	-0.1532945
46	0x3df59c1a	0.11992665
47	0x3d8a6761	0.06757999
48	0x3e16d849	0.14730944
49	0xbe07e408	-0.13270581
50	0xbe675e0b	-0.22594468
51	0xbd9b1085	-0.0757151
52	0xbe36a597	-0.17836605
53	0x3e7e7448	0.24849045
54	0x3db6024d	0.088871576
55	0x3df1897c	0.11793801
56	0x3dd0fa63	0.102040075
57	0x3b9450fa	0.0045262547
58	0x3e72536e	0.23664638
59	0xbe1fd671	-0.15609147
60	0x3d11b231	0.035570327
61	0xbe0eb778	-0.13937175
62	0x3dad5b26	0.08464651
63	0xbe0d3e52	-0.13793305
64	0x3daebad9	0.08531732
65	0xbd465648	-0.048422128
66	0x3e4b7b0f	0.19871162
67	0xbe0c73d5	-0.13716061
68	0xbdf14762	-0.11781193
69	0xbe3b3fb0	-0.18286014
70	0x3e6b6358	0.22987115
71	0x3de7e7e6	0.11323528
72	0x3e7ad86f	0.24496625
73	0xbe529310	-0.20563912
74	0xbe7c3508	-0.24629605
75	0xbe4447e2	-0.19168046
76	0xbe266e13	-0.16252927
77	0x3dbad403	0.09122469
78	0x3ddeeca1	0.10884977
79	0x3e90d430	0.28286886
80	0xbe279ffc	-0.16369623
81	0xbe554b90	-0.20829606
82	0x3dab334f	0.08359396
83	0xbe0bb7eb	-0.13644378
84	0x3dfb066d	0.12257085
85	0xbdd58b1b	-0.10426923
86	0x3dd773c2	0.10520126
87	0xbe616c62	-0.22014001
88	0xbe25fd2e	-0.16209862
89	0x3d08c0af	0.033386882
90	0x3cbae9eb	0.022816619
91	0xbdcdd2d0	-0.10049975
92	0x3de5e1fb	0.11224743
93	0x3e0408bd	0.12893958
94	0xbe4f98b2	-0.20273092
95	0xbe33836b	-0.175306
96	0x3e886e87	0.26646826
97	0xbd47beb6	-0.04876586
98	0xbd62c34e	-0.05536204
99	0xbe4d1a25	-0.20029505
100	0xbdacadef	-0.08431613
101	0x3db06532	0.086130515
102	0x3ac9e37b	0.0015402877
103	0xbe06ed94	-0.13176566
104	0x3d223114	0.039597586
105	0xbe0a104a	-0.13482776
106	0xbe2bcc75	-0.16777213
107	0xbdd44ae6	-0.10365848
108	0xbe3df227	-0.18549405
109	0xbdfca2b7	-0.12335723
110	0x3e926d17	0.28598854
111	0x3e030ce2	0.12797883
112	0x3d90f566	0.07078056
113	0xbe7c5c2a	-0.24644533
114	0xbe337424	-0.17524773
115	0xbdb9b875	-0.090683855
116	0x3ceda4a9	0.02900918
117	0xbe6b14b0	-0.2295711
118	0xbdf7eadb	-0.12105342
119	0xbe1a1470	-0.15046859
120	0xbc1716e4	-0.009221766
121	0xbdd69acc	-0.10478744
122	0xbca11c1e	-0.019666728
123	0xbe37d068	-0.17950594
124	0xbe3aadb0	-0.18230319
125	0xbe1a315a	-0.15057889
126	0xbdbfd9de	-0.09367727
127	0xbe5fa585	-0.21840484
128	0x3e7ebdfb	0.2487716
129	0xbc4f1144	-0.012638394
130	0x3e84797a	0.2587393
131	0x3dfcc85b	0.12342902
132	0xbe3937a3	-0.1808763
133	0x3e6b38a9	0.22970833
134	0xbd065c0a	-0.03280262
135	0xbd7a2340	-0.061068773
136	0xbe2b54df	-0.16731595
137	0xbe55d590	-0.20882249
138	0x3dfbb5d8	0.12290543
139	0xbc6aca32	-0.014330434
140	0x3e0b6cb1	0.13615681
141	0xbe1a93b3	-0.15095405
142	0x3e5fe076	0.21862969
143	0xbe43bdbc	-0.19115347
144	0xbd684cc9	-0.056713853
145	0x3cf25c13	0.02958492
146	0x3ddffc0f	0.10936748
147	0x3e424c00	0.18974304
148	0x3e5a66d3	0.21328287
149	0xbe55f596	-0.20894465
150	0x3d1dc5b3	0.03851862
151	0xbe084c5b	-0.13310377
152	0xbd47b3c3	-0.04875542
153	0xbe54a203	-0.20764928
154	0x3e6acdf3	0.22930126
155	0xbe51aacf	-0.20475315
156	0x3de4a80e	0.111648664
157	0x3daff19c	0.08591005
158	0x3d849a4e	0.06474744
159	0xbe3c084a	-0.18362537
160	0x3e725d60	0.23668432
161	0x3d7b6b17	0.061381426
162	0x3d3bb2a0	0.045824647
163	0xbe57e545	-0.21083553
164	0x3dc73322	0.0972655
165	0xbc14a868	-0.009073354
166	0xbddf2330	-0.10895383
167	0x3e5d370d	0.21603031
168	0x3d8b85a0	0.06812596
169	0xbe09fce5	-0.13475378
170	0xbddd8ff4	-0.108184725
171	0xb9b63552	-0.00034753472
172	0x3e19ea13	0.15030698
173	0xbd212093	-0.039337706
174	0xbe118509	-0.14210905
175	0xbe0a5007	-0.1350709
176	0xbe4b3c52	-0.19847229
177	0x3d9be331	0.07611693
178	0x3e40bc91	0.18821932
179	0xbe79f505	-0.24409874
180	0x3d2c77d3	0.04210646
181	0x3e11e5f9	0.14247884
182	0x3cfbe141	0.030747058
183	0xbdec8a22	-0.11549784
184	0x3def5d32	0.116876975
185	0x3dfbb98e	0.12291251
186	0x3dc942b6	0.09827177
187	0xbd69159c	-0.056905374
188	0xbda66469	-0.081246205
189	0x3d041e68	0.03225556
190	0xbd81ac31	-0.06331671
191	0xbe098167	-0.1342827
192	0x3e0b5200	0.136055
193	0x3e453147	0.19257079
194	0xbd297b48	-0.041377336
195	0xbda3bf40	-0.079954624
196	0xbd03c204	-0.03216745
197	0xbbb5b716	-0.005545507
198	0x3d14212d	0.03616445
199	0x3d34da48	0.04415348
200	0xbe82a2f6	-0.25514954
201	0xbdf4e329	-0.1195739
202	0x3e499726	0.19686565
203	0x3d8e1917	0.06938379
204	0xbd2b659b	-0.041844945
205	0xbe286194	-0.16443473
206	0xbe3b2830	-0.18277049
207	0xbea4c47c	-0.32181156
208	0xbd83ae49	-0.06429727
209	0x3dd5a05d	0.104309775
210	0x3e311ea1	0.1729684
211	0x3e08435f	0.1330695
212	0xbe4590f9	-0.19293584
213	0xbe1eee79	-0.15520658
214	0xbc8aa1c0	-0.016922832
215	0x3e8cdc19	0.2751167
216	0x3d665260	0.056230903
217	0xbd6ddf9c	-0.05807458
218	0x3de5b21e	0.11215614
219	0xbd9cee51	-0.07662643
220	0xbe12b075	-0.14325126
221	0x3e48e0b9	0.19616975
222	0xbdc1db24	-0.09465626
223	0xbaf1c4e4	-0.0018445519
224	0xbe91e030	-0.28491354
225	0x3e0b7f8b	0.13622873
226	0x3e23b8aa	0.15988412
227	0x3d544db4	0.051831916
228	0xbe63c295	-0.22242196
229	0xbe86056f	-0.2617602
230	0xbe7089e3	-0.234901
231	0x3e15361a	0.1457142
232	0x3dacdd5b	0.08440658
233	0x3e2cf1ff	0.16889189
234	0x3dc84490	0.09778702
235	0x3cdd16d2	0.02698842
236	0xbd2163b0	-0.03940171
237	0xbe5dc19e	-0.2165589
238	0xbe8206e7	-0.2539589
239	0xbea74a4b	-0.3267387
240	0x3e089b76	0.13340554
241	0xbdef6a9b	-0.11690255
242	0xbd317d0e	-0.043332152
243	0xbde6803c	-0.112549275
244	0xbb2db2c4	-0.0026504258
245	0xbe55f335	-0.20893557
246	0xbe1bbb66	-0.15208206
247	0x3e14080d	0.14456196
248	0xbd757f5a	-0.059935905
249	0x3e3ccd06	0.18437585
250	0xbd9130a4	-0.070893556
251	0xbe2b40cc	-0.16723937
252	0xbcdc100b	-0.026863119
253	0xbde16c77	-0.11007016
254	0xbd0eccea	-0.03486339
255	0xbdc40e32	-0.0957302

encoder.embedding.bias f4 [32]
0	0x3da9d7a1	0.08293081
1	0xbe008b48	-0.12553132
2	0xbe49786d	-0.19674845
3	0xbe3b4f5b	-0.1829199
4	0x3e5e62d3	0.21717386
5	0xbe8cb939	-0.27485064
6	0x3e649d96	0.2232574
7	0xbc83c1ec	-0.01608368
8	0x3c94d149	0.018166201
9	0x3e14581f	0.1448674
10	0xbbf14d54	-0.0073639546
11	0x3e1c9410	0.15290856
12	0x3e280370	0.16407561
13	0xbe5163f4	-0.20448285
14	0x3d827255	0.06369463
15	0x3d84aed7	0.064786606
16	0x3cee94f3	0.029123759
17	0xbcbda646	-0.023150574
18	0x3db8161f	0.08988594
19	0xbe198190	-0.1499083
20	0xbc8516cf	-0.016246228
21	0x3e89ec3c	0.26938045
22	0x3e0cd447	0.13752852
23	0xbb99070f	-0.004670031
24	0xbe78376f	-0.24239896
25	0xbcb744a3	-0.022371596
26	0xbdfcce04	-0.12343982
27	0x3e510146	0.20410642
28	0xbe3756ab	-0.17904155
29	0xbb6ad8b5	-0.0035834734
30	0xbd095212	-0.033525534
31	0x3cfcb710	0.03084901

encoder.blks.block0.attention.W_q.weight f4 [32, 32]
0	0x3e516d73	0.20451908
1	0xbc24020d	-0.010010255
2	0x3e22da4a	0.15903583
3	0x3dccafce	0.099944696
4	0x3e62e2da	0.2215685
5	0xbdd38ac5	-0.103292026
6	0xbe017ae6	-0.12644538
7	0x3d35df9f	0.044402715
8	0xbe2660dc	-0.16247886
9	0x3ddb4677	0.107067995
10	0xbcf011eb	-0.029305419
11	0xbe3cf2a5	-0.18451937
12	0x3d3f73c8	0.046741277
13	0x3ccced85	0.025015602
14	0x3cb38a61	0.02191657
15	0x3dd22207	0.102603965
16	0x3e0b1a75	0.13584311
17	0x3e115ac8	0.14194787
18	0xbd34add6	-0.044111095
19	0xbdf2af69	-0.11849863
20	0xbe31f312	-0.1737788
21	0xbdca7baa	-0.09886868
22	0xbddeceb6	-0.10879271
23	0xbd78b7af	-0.06072205
24	0xbe4e7bd2	-0.20164421
25	0xbe11f943	-0.14255242
26	0xbdfa027b	-0.12207504
27	0xbe103d1d	-0.14085813
28	0xbe2249c1	-0.15848447
29	0x3dd1dcbe	0.10247181
30	0x3e3bada6	0.1832796
31	0xbce1fb36	-0.027585607
32	0xbd38226c	-0.044954702
33	0x3da71b40	0.081594944
34	0xbe0f9cab	-0.14024608
35	0xbd7295c5	-0.059224863
36	0xbba032c9	-0.0048888666
37	0xbe10d894	-0.14145118
38	0x3d255e5e	0.0403732
39	0x3e1fe052	0.15612915
40	0x3df2c066	0.11853103
41	0x3d8abad3	0.06773915
42	0xbe1004f9	-0.14064397
43	0x3e841b19	0.25801924
44	0x3ea537c3	0.32269105
45	0xbd572177	-0.05252215
46	0x3e11ae94	0.14226753
47	0x3e833d5a	0.25632745
48	0xbd514d3d	-0.05109905
49	0xbcf7b146	-0.030235898
50	0xbd34b301	-0.044116024
51	0xbdeea510	-0.11652577
52	0xbb1fc1bc	-0.002437695
53	0xbe0b9b23	-0.13633399
54	0x3dd84860	0.105606794
55	0x3c058d1b	0.008151318
56	0xbd9cfa35	-0.07664911
57	0x3dbde4df	0.09272169
58	0xbe65a20d	-0.22425099
59	0xbd544c41	-0.051830534
60	0xba34e85e	-0.00069010805
61	0xbdc5ef44	-0.09664777
62	0xbdb4a688	-0.08820826
63	0x3e2eed31	0.17082669
64	0x3e6a928c	0.22907466
65	0x3e3a0268	0.1816498
66	0x3e68c19a	0.22730103
67	0xbe19d3c3	-0.15022187
68	0xbd2a0d49	-0.041516576
69	0x3cd94ebf	0.026526807
70	0x3d9266d1	0.07148517
71	0xbdc603d5	-0.096687
72	0x3dcf6817	0.101272754
73	0xbda137b1	-0.078719504
74	0xbe5604a7	-0.20900212
75	0x3e748127	0.23877393
76	0xbd2cf762	-0.04222811
77	0xbe3a7613	-0.18209104
78	0xbe7218a0	-0.23642206
79	0xbe3bebf3	-0.18351726
80	0x3e0657b0	0.13119388
81	0xbeb902a8	-0.3613484
82	0xbdba7b1a	-0.09105511
83	0x3dcb71e3	0.099338315
84	0xbe601e18	-0.2188648
85	0x3e088773	0.1333292
86	0xbe08e2a7	-0.13367711
87	0x3d828107	0.06372266
88	0xbc6cf29e	-0.014462141
89	0x3e644bce	0.22294542
90	0xbd859482	-0.06522466
91	0x3cbc8728	0.023013666
92	0xbe8fce32	-0.28087002
93	0x3cf5fa16	0.030026477
94	0xbc3fe786	-0.011712914
95	0x3cef2f53	0.02919737
96	0x3cc16d2b	0.023611626
97	0xbe01a0de	-0.12659022
98	0x3df5b24c	0.11996898
99	0x3e0a7349	0.1352054
100	0xbe2cd3bd	-0.16877647
101	0xbdad45b4	-0.084605604
102	0x3dcff48e	0.10154067
103	0xbcd86354	-0.02641455
104	0x3d6c1315	0.057635386
105	0xbdd3fa76	-0.10350506
106	0x3e37d358	0.17951715
107	0xbe17394b	-0.1476795
108	0x3dd8cde6	0.10586147
109	0x3d4adaf2	0.04952521
110	0xbd3bf537	-0.045888152
111	0x3e259068	0.16168368
112	0xbda3c1fa	-0.079959825
113	0xbe07ee22	-0.13274434
114	0x3ad174c8	0.0015980238
115	0x3de53850	0.111923814
116	0xbde73b31	-0.11290587
117	0x3d40379d	0.046928037
118	0xbe69c2fb	-0.22828285
119	0x3dc4e6dc	0.096143454
120	0x3d7a3fe6	0.061096095
121	0xbd8254f8	-0.06363863
122	0x3df26975	0.118365206
123	0xbc0a49e9	-0.008440473
124	0x3db2ecd2	0.08736576
125	0xbe0f2a4d	-0.1398098
126	0xbd008a8b	-0.031382125
127	0x3ca5ff06	0.020263206
128	0x3e51d441	0.20491125
129	0x3d8ae347	0.06781631
130	0xbdc1be6c	-0.09460148
131	0x3de035e9	0.109477825
132	0xbc315f34	-0.010825921
133	0xbd881bd4	-0.06645933
134	0xbe33863b	-0.17531674
135	0xbd5938c7	-0.053032663
136	0x3dedb14f	0.116060846
137	0x3d665dbe	0.056241743
138	0xbe17e421	-0.14833118
139	0x3d9b4f58	0.07583493
140	0xbcfec13a	-0.031097997
141	0x3dfc596e	0.12321745
142	0xbe4b8169	-0.19873585
143	0xbdaa089c	-0.08302423
144	0xbe0bf017	-0.13665806
145	0xbe13308a	-0.14373985
146	0x3cc94933	0.024571037
147	0x3e496e9c	0.196711
148	0x3b949c6c	0.0045352485
149	0x3e4f70e4	0.20257908
150	0x3da00157	0.078127556
151	0x3dfca203	0.12335589
152	0x3df3ef6b	0.119109
153	0x3e4acac9	0.19803919
154	0xbe0024ce	-0.1251404
155	0x3e3e561f	0.1858754
156	0x3db0eff2	0.08639516
157	0xbd72292b	-0.059121292
158	0xbd76892a	-0.060189404
159	0xbdf1c3c2	-0.11804916
160	0x3d8ccd14	0.06875053
161	0xbe2b90fe	-0.16754529
162	0x3dcc9e99	0.099911876
163	0x3cf6ec25	0.0301419
164	0xbe0ef3fe	-0.13960263
165	0x3cb83855	0.022487799
166	0xbc509ae0	-0.012732238
167	0x3d63c9a2	0.055612214
168	0x3e12b279	0.14325894
169	0xbe12294d	-0.14273567
170	0x3dbee610	0.09321225
171	0x3e59dea1	0.21276332
172	0x3dde32cb	0.10849532
173	0xbe58da46	-0.21177015
174	0xbe006cee	-0.12541553
175	0xbd9572d1	-0.0729729
176	0xbbcc18f4	-0.0062285606
177	0x3cd86faa	0.026420433
178	0x3d24d611	0.040243212
179	0x3e28b78a	0.16476265
180	0xbda7d5a8	-0.081950486
181	0x3dcf4868	0.10121232
182	0x3db0389f	0.086045496
183	0xbde4e5b4	-0.11176625
184	0xbe45b5b7	-0.193076
185	0xbd31cad1	-0.04340631
186	0x3db7212b	0.08941873
187	0xbe132613	-0.14369993
188	0xbe34071a	-0.17580834
189	0x3dfd8f57	0.123808555
190	0x3df507ac	0.11964354
191	0x3e30cc53	0.17265444
192	0xbe12887f	-0.14309882
193	0xbdde47ea	-0.1085356
194	0x3d1fa5ed	0.0389766
195	0x3e324909	0.17410673
196	0x3d6363e4	0.055515185
197	0x3d24be21	0.040220384
198	0x3db633c4	0.08896592
199	0x3e390727	0.18069135
200	0xbc29e83f	-0.010370313
201	0xbda17296	-0.07883184
202	0x3de2f4a0	0.11081815
203	0xbdafa390	-0.08576119
204	0xbd8d0275	-0.06885234
205	0x3e14c681	0.14528848
206	0x3db87a24	0.090076715
207	0x3ddbec4f	0.10738432
208	0xbdbf88a3	-0.09352233
209	0xbca45dc2	-0.020064238
210	0x3e4cdaee	0.2000539
211	0xbdeea75a	-0.116530135
212	0x3ce5b23b	0.028039088
213	0x3dcf8fb9	0.10134835
214	0xbe35b2c6	-0.17743978
215	0x3e2cbc96	0.16868815
216	0xbdb0f17c	-0.086398095
217	0xbdb181b7	-0.08667319
218	0xbd0ae7d2	-0.033912487
219	0xbdede432	-0.116157904
220	0xbe2b9e22	-0.16759542
221	0x3dbed674	0.093182474
222	0x3d2c86cb	0.042120736
223	0xbe48d11f	-0.19611023
224	0xbd992d59	-0.074793525
225	0x3dfb3106	0.1226521
226	0x3dd5c250	0.10437453
227	0x3ce91ab4	0.028455116
228	0xbda932a1	-0.0826161
229	0xbde6f34b	-0.11276873
230	0xbd7cce4d	-0.06172018
231	0xbd8c8c80	-0.06862736
232	0xbe0a6ba3	-0.13517623
233	0x3d825bbc	0.06365153
234	0xbd3caf28	-0.04606548
235	0x3d645b0f	0.055750903
236	0x3dbdb61c	0.0926325
237	0xbdf6013c	-0.12011954
238	0x3cbef347	0.023309363
239	0x3d071b40	0.032984972
240	0xbd3212a4	-0.04347481
241	0xbe6ae7c9	-0.22939982
242	0x3d5e7395	0.054309446
243	0x3db5cdaf	0.08877122
244	0xbdff2d05	-0.12459759
245	0x3e6a644d	0.22889824
246	0xbcd4383c	-0.02590572
247	0x3e21adc3	0.15788941
248	0x3d4de043	0.0502627
249	0xbdad342a	-0.08457215
250	0x3d715821	0.058921937
251	0xbe008d94	-0.12554008
252	0xbe03a463	-0.12855677
253	0x3bf9074b	0.0075997463
254	0xbdb311f7	-0.08743661
255	0x3e658b84	0.22416502

encoder.blks.block0.attention.W_k.weight f4 [32, 32]
0	0xbd5c6f07	-0.05381682
1	0x3d2b4ace	0.041819386
2	0x3c1404ef	0.009034379
3	0x3db62035	0.08892862
4	0xbcf63577	-0.03005479
5	0xbe4a5351	-0.19758345
6	0x3d8adc8b	0.067803465
7	0x3d3790cb	0.04481582
8	0xbc95f5de	-0.018305715
9	0x3d52df7c	0.051482663
10	0x3cea02f8	0.028565869
11	0xbd6b7e9c	-0.05749379
12	0xbd763d0e	-0.06011682
13	0xbddf103d	-0.10891769
14	0xbe1a6569	-0.15077747
15	0x3d4fbd34	0.050717548
16	0x3d22d897	0.039757337
17	0x3d4bb17b	0.049729805
18	0x3d1aab7b	0.037761193
19	0xbccbde91	-0.024886401
20	0x3dbde0a9	0.09271366
21	0x3da23c26	0.07921629
22	0xbcc3be58	-0.023894474
23	0x3de9e504	0.114206344
24	0x3cc7224b	0.024308344
25	0xbdbc4af7	-0.09193986
26	0x3dd9a62e	0.106273994
27	0xbe66cd2f	-0.22539209
28	0x3c46c1f5	0.012131204
29	0xbd902443	-0.070381664
30	0xbe269c6d	-0.16270609
31	0x3e366da3	0.1781526
32	0xbdd94764	-0.1060932
33	0x3d6d09f4	0.05787082
34	0xbe314643	-0.17311959
35	0xbd7b31ad	-0.06132667
36	0xbc4565d3	-0.012048203
37	0x3e51c1d4	0.20484096
38	0xbdbd578b	-0.09245213
39	0x3cdc85ce	0.026919272
40	0xbccb48b1	-0.024814935
41	0x3ddff7ac	0.109359115
42	0x3ba1a741	0.0049332683
43	0x3e091125	0.13385446
44	0xbde5b4e8	-0.11216146
45	0xbd3e2a72	-0.046427198
46	0x3e2d5614	0.16927367
47	0xbe0d45dc	-0.1379618
48	0xbd976b97	-0.07393568
49	0x3c841a37	0.016125781
50	0x3e0f6a8b	0.14005487
51	0x3ba92f55	0.005163113
52	0xbe2ff4a6	-0.1718317
53	0x3bd3bad5	0.006461481
54	0x3cd12b62	0.025533382
55	0x3d8d5765	0.06901435
56	0x3e2fd77f	0.17172049
57	0xbd89648a	-0.067086294
58	0x3d16af48	0.036788255
59	0xbdb740d9	-0.089479156
60	0x3c802d9e	0.015646752
61	0x3db3221e	0.08746742
62	0x3e01fa34	0.12693101
63	0xbe12892c	-0.1431014
64	0xbddc2032	-0.10748328
65	0x3d751908	0.059838325
66	0xbe1f46de	-0.15554377
67	0xbde94ea8	-0.113919556
68	0xbe1d94a7	-0.15388738
69	0xbdae8adc	-0.08522579
70	0x3df845d4	0.12122694
71	0x3e223d47	0.15843688
72	0x3d37c5b4	0.04486628
73	0x3d0a2466	0.03372612
74	0xbda62461	-0.081124075
75	0xbdc97ab9	-0.098378606
76	0x3c18c5f8	0.009324543
77	0xbe67540a	-0.22590652
78	0x3e439723	0.19100623
79	0xbe024509	-0.12721647
80	0x3d892e8a	0.0669833
81	0xbe385279	-0.18000211
82	0x3d401e3d	0.046903837
83	0xbdcd914a	-0.10037477
84	0x3dc5fc95	0.09667317
85	0xbe2fa603	-0.17153172
86	0x3e41e74f	0.18935893
87	0xbe1d767c	-0.1537723
88	0x3d880b2e	0.06642757
89	0xbdf2bb8b	-0.11852177
90	0x3df35dd7	0.11883133
91	0xbe38dbf5	-0.18052657
92	0x3d87ce72	0.06631173
93	0xbd671206	-0.056413673
94	0x3ddf753c	0.109110326
95	0x3de4b826	0.11167936
96	0xbe3c37d1	-0.18380667
97	0x3d044c30	0.03229922
98	0xbd75a4bf	-0.059971567
99	0x3e0f2fac	0.13983029
100	0x3d3acfa7	0.04560819
101	0xbcd7f560	-0.026362121
102	0xbd6ae97e	-0.05735158
103	0xbdb999e4	-0.090625554
104	0xbd9b186c	-0.075730175
105	0x3e04b789	0.12960638
106	0x3d4eaad3	0.05045588
107	0x3df03c4f	0.11730253
108	0xbcfb00a9	-0.030639963
109	0xbe1fae58	-0.1559385
110	0x3c8db2f2	0.017297242
111	0xbd9da4c1	-0.0769744
112	0xbd8b0422	-0.06787898
113	0xbc733c83	-0.01484597
114	0x3deef297	0.11667364
115	0x3de83b24	0.11339405
116	0x3c15fcad	0.009154481
117	0x3df9aa59	0.12190694
118	0xbdf48f22	-0.11941363
119	0x3b585b7c	0.0033013513
120	0xbe15f21e	-0.14643142
121	0x3d8cfa63	0.06883695
122	0xbdb08f86	-0.08621125
123	0xbda41c12	-0.080131665
124	0x3dc55467	0.09635239
125	0x3e45e875	0.19326957
126	0xbdf0c844	-0.11756948
127	0xbdca0059	-0.098633476
128	0xbd900594	-0.07032314
129	0x3dad7782	0.0847006
130	0xbd8b3aa4	-0.06798294
131	0xbd058276	-0.03259512
132	0xbde1fc5d	-0.110344626
133	0xbc9059ea	-0.017621
134	0x3e40ca2e	0.18827125
135	0x3d4cc673	0.049993943
136	0x3dff98ed	0.1248034
137	0x3d581bbb	0.05276082
138	0x3e2dd637	0.16976248
139	0xbdf4fef4	-0.11962691
140	0x3d57cefe	0.052687638
141	0x3d5e012b	0.054200333
142	0x3e0c56a5	0.13704927
143	0x3e55aba3	0.20866255
144	0x3c8f3d03	0.017485147
145	0x3d1c089d	0.03809415
146	0x3e24ac75	0.16081412
147	0xbe1dc8b5	-0.15408595
148	0x3d8c5ff6	0.068542406
149	0xbe078b3c	-0.13236707
150	0x3e586bbb	0.21134846
151	0xbdc0a7bc	-0.09406993
152	0x3c0f416f	0.008743628
153	0x3df35788	0.1188193
154	0xbe08ba64	-0.13352352
155	0xbe7af63c	-0.24507993
156	0xbce726de	-0.028216776
157	0x3e012ed4	0.1261552
158	0x3da60beb	0.08107742
159	0xbd6ed698	-0.05831012
160	0xbd9a7550	-0.07541907
161	0xbe158c20	-0.14604235
162	0xbe40510b	-0.18780915
163	0x3d3fd232	0.046831317
164	0x3ca64bde	0.020299848
165	0xbda269a7	-0.07930308
166	0xbd74b4aa	-0.059742607
167	0x3e6c753c	0.23091596
168	0xbc1feb67	-0.009760714
169	0xbe02684b	-0.12735097
170	0xbcdb456b	-0.0267665
171	0x3d8e0bd9	0.069358535
172	0x3e006f95	0.12542565
173	0xbc952465	-0.01820583
174	0x3d2d46e1	0.042303924
175	0x3de94fe0	0.11392188
176	0x3e5e3801	0.21701051
177	0x3d2877f4	0.04113002
178	0x3c653af8	0.01399111
179	0x3dff462a	0.124645546
180	0xbd1aa02e	-0.037750416
181	0xbd9c218f	-0.07623588
182	0x3e878757	0.26470444
183	0x3db8e9fb	0.09029003
184	0xbcb9371b	-0.022609284
185	0x3e01660a	0.12636581
186	0x3d9fe5f4	0.07807532
187	0xbe2219bb	-0.15830128
188	0x3e134369	0.14381184
189	0xbbbd0819	-0.0057687876
190	0x3be5f9d7	0.0070183086
191	0x3e6f99eb	0.23398559
192	0xbd6aa6e1	-0.057288054
193	0xbe04395f	-0.1291251
194	0xbe324340	-0.17408466
195	0xbd67c1b1	-0.056581203
196	0xbe33b52d	-0.17549582
197	0xbbbd9138	-0.0057851337
198	0x3d0bb07f	0.034103867
199	0x3d9f93c8	0.07791859
200	0x3d714005	0.058898944
201	0x3e0157db	0.1263117
202	0x3d0f0607	0.034917857
203	0xbd771d95	-0.060330946
204	0xbe193744	-0.14962488
205	0x3d8dc313	0.06921973
206	0x3e3ce11a	0.18445244
207	0xbc9d452f	-0.019198028
208	0xbd882790	-0.06648171
209	0xbdbfd489	-0.0936671
210	0xbdecd3d9	-0.11563844
211	0xbdbc3945	-0.09190611
212	0x3defaf6c	0.11703381
213	0x3d026c4e	0.03184157
214	0xbe6ca11e	-0.23108336
215	0x3ce0a5ef	0.027422873
216	0x3cd96a38	0.026539907
217	0xbd3abbdd	-0.045589317
218	0x3cf4ac86	0.029867422
219	0x3e15056c	0.1455285
220	0xbe4cb0b8	-0.19989288
221	0xbe15e708	-0.14638913
222	0x3c219ad1	0.009863571
223	0xbe505c7f	-0.20347784
224	0xbe03fcd6	-0.12889418
225	0x3ded7d54	0.1159617
226	0xbdf9a788	-0.12190157
227	0xbe17cfcb	-0.1482536
228	0xbdbba2fa	-0.09161945
229	0xbe07f59a	-0.13277283
230	0x3dc31900	0.09526253
231	0xbc06aad2	-0.008219438
232	0xbe0b3d78	-0.13597667
233	0xbdf9ddb3	-0.12200489
234	0x3e0ac2fb	0.13550942
235	0xbc792873	-0.015207398
236	0x3d925f6c	0.071471065
237	0xbd070b6a	-0.03296987
238	0x3c0b1ef3	0.008491266
239	0xbb115da4	-0.0022181058
240	0x3db79c2b	0.089653336
241	0xbdd59af1	-0.10429943
242	0xbb9e2afc	-0.0048269015
243	0xbda9dee2	-0.08294465
244	0xbdd51c6a	-0.1040581
245	0x3e18d11e	0.14923522
246	0xbca48f29	-0.020087795
247	0x3de58113	0.112062596
248	0xbb9a93af	-0.0047173123
249	0xbe07ca18	-0.13260686
250	0xbe1d101b	-0.15338175
251	0x3e0da529	0.13832535
252	0xbe0f5b3b	-0.13999645
253	0x3db42089	0.08795268
254	0x3b85c9c3	0.0040828898
255	0x3d13fded	0.036130834

encoder.blks.block0.attention.W_v.weight f4 [32, 32]
0	0x3df35dd0	0.11883128
1	0x3daee65e	0.08540033
2	0x3d9845d9	0.074351974
3	0x3d7c9345	0.061663885
4	0x3e2b0a14	0.16703063
5	0x3dd1eda0	0.102504015
6	0x3e32654c	0.17421454
7	0xbc6d7246	-0.014492577
8	0xbdd43806	-0.10362248
9	0xbdcabf28	-0.098997414
10	0x3dbafe72	0.09130563
11	0x3d948745	0.07252363
12	0xbdccf10b	-0.10006913
13	0x3e23d842	0.16000465
14	0xbd2dbe05	-0.042417545
15	0x3c8c8fbc	0.017158382
16	0xbc7b5e64	-0.015342329
17	0xbdb7e182	-0.08978559
18	0x3e3159a8	0.17319357
19	0xbc7771c5	-0.015102808
20	0x3df1b520	0.11802125
21	0xbe16f791	-0.14742877
22	0xbdccacf4	-0.09993926
23	0x3b42579f	0.0029654277
24	0x3e1d17da	0.1534113
25	0x3d2fc8e4	0.042916194
26	0x3d9098d3	0.07060399
27	0xbe3dfe34	-0.18554002
28	0xbbe1c847	-0.00689033
29	0xbde2aa06	-0.11067586
30	0xbe28f822	-0.16500905
31	0x3a3a1ed2	0.00070999295
32	0xbdb21206	-0.08694844
33	0x3e098408	0.13429272
34	0xbd84a06f	-0.06475913
35	0x3d3e40e0	0.04644859
36	0x3e133c88	0.1437856
37	0xbe2f32d9	-0.1710924
38	0x3d8be6b1	0.0683111
39	0xbd5319ff	-0.051538464
40	0x3d2a22df	0.041537162
41	0x3e462bc9	0.1935264
42	0xbddcb811	-0.107772954
43	0xbd96727f	-0.07346057
44	0x3e18eb1e	0.1493344
45	0xbb8c6f5c	-0.004285736
46	0xbd97b49b	-0.07407495
47	0x3dd49a6f	0.10381018
48	0xbd82da31	-0.06389273
49	0xbd64fd96	-0.0559059
50	0x3dae4378	0.085089624
51	0x3dc3d014	0.09561172
52	0xbe14cdb3	-0.14531593
53	0x3d98d0c7	0.07461696
54	0xbddc7f07	-0.10766416
55	0xbd75f542	-0.06004835
56	0x3dac5513	0.08414664
57	0xbcd4e421	-0.025987687
58	0xbde735b4	-0.1128954
59	0x3d336ac5	0.043802995
60	0x3bee5fb7	0.0072745937
61	0xbda6b45b	-0.08139869
62	0xbdbf35e5	-0.093364514
63	0xbe25cff4	-0.16192609
64	0x3ccfccea	0.025366265
65	0xbdba812b	-0.09106668
66	0xbbba37b8	-0.0056829117
67	0xbc7562f4	-0.014977206
68	0xbe107352	-0.14106491
69	0xbd10a863	-0.035316836
70	0xbde2d149	-0.11075074
71	0xbd940ba9	-0.072287865
72	0x3d0d93cd	0.034564782
73	0xbe30d8aa	-0.17270151
74	0xbe04fd1b	-0.12987177
75	0x3de67c55	0.11254183
76	0xbb99d85f	-0.004694983
77	0xbd6c2850	-0.057655632
78	0x3c089d5f	0.008338301
79	0x3e1ce5be	0.15322015
80	0xbe2bc214	-0.16773254
81	0xbd7b9a54	-0.061426476
82	0xbdd386e2	-0.10328461
83	0xbd138560	-0.03601587
84	0x3c8dbc0a	0.017301578
85	0xbe22c8e9	-0.15896954
86	0x3dca0f42	0.098661914
87	0xbe1eca14	-0.15506774
88	0x3e3e158d	0.18562908
89	0xbe127fbe	-0.14306542
90	0xbb5dc910	-0.0033841766
91	0x3c2b2f59	0.0104483
92	0xbd5f65d4	-0.05454047
93	0x3e0ec33e	0.13941666
94	0xbe1163a4	-0.14198166
95	0xbcee711b	-0.029106667
96	0xbdab40b5	-0.08361951
97	0x3b997c90	0.0046840385
98	0x3e53839d	0.20655675
99	0x3e1aba26	0.15110072
100	0x3ddd19f1	0.107959636
101	0xbe1bf8cb	-0.15231626
102	0x3e0f3118	0.13983572
103	0xbd2afe52	-0.041746445
104	0x3d46efbe	0.04856848
105	0xbd549392	-0.051898547
106	0xbe22cd08	-0.15898526
107	0xbe24c979	-0.1609248
108	0x3e2762af	0.16346239
109	0xbcb573cf	-0.022149948
110	0xbe6de857	-0.23233162
111	0xbd50f16b	-0.051011484
112	0xbd25a061	-0.040436152
113	0xbd7729b4	-0.060342506
114	0xbc2d2777	-0.010568491
115	0xbd2df6f6	-0.04247185
116	0xbcc29039	-0.023750411
117	0xbd61998b	-0.05507807
118	0x3d8f7eaa	0.07006581
119	0xbdb3b1c0	-0.087741375
120	0xbd065d6f	-0.03280395
121	0x3e50ee1e	0.20403334
122	0x3e00bca9	0.12571968
123	0x3df54106	0.11975293
124	0x3d81d9a4	0.0634034
125	0x3e63cbd2	0.2224572
126	0x3dcd2961	0.10017658
127	0x3d8350a9	0.06411869
128	0xbbe69162	-0.007036374
129	0x3e1f2360	0.15540838
130	0x3e322e1c	0.17400402
131	0x3c968512	0.018374
132	0xbca61007	-0.020271314
133	0xbd95ef5f	-0.07321047
134	0x3db543ff	0.0885086
135	0xbe129c06	-0.1431733
136	0x3d2e01c8	0.042482167
137	0xbd9957bf	-0.07487439
138	0xbdb24795	-0.087050594
139	0xbd27a658	-0.040930122
140	0xbe6c4e4c	-0.23076743
141	0x3dd1c716	0.10243051
142	0x3d5b8399	0.0535923
143	0xbe261ddb	-0.16222326
144	0x3e169eef	0.14709066
145	0x3e4bfdb6	0.19921002
146	0x3dbfa871	0.093582995
147	0xbd45064c	-0.04810171
148	0x3db6660c	0.08906183
149	0xbdc24453	-0.09485688
150	0xbdbb940e	-0.091590986
151	0x3dd189f0	0.102313876
152	0x3ddbe75c	0.10737488
153	0x3d9437ef	0.07237231
154	0xbe1fc129	-0.15601029
155	0x3df75af5	0.120778956
156	0xbd50889f	-0.050911542
157	0x3ddec8fc	0.108781785
158	0x3dddcd71	0.108302005
159	0xbceb6443	-0.028734332
160	0x3e15001c	0.14550823
161	0x3def142e	0.11673771
162	0x3dbb2597	0.09138029
163	0xbc9f72f5	-0.019463995
164	0x3dd6fee9	0.10497839
165	0x3d869203	0.06570818
166	0x3df8d809	0.121505804
167	0xba58b74f	-0.0008267061
168	0x3e1ae3da	0.15125981
169	0x3ddeb57c	0.10874459
170	0xbd3de54f	-0.046361264
171	0x3dfaaf97	0.12240522
172	0xbe1d4524	-0.15358406
173	0xbd2bea01	-0.04197121
174	0xbe524e8c	-0.20537776
175	0x3df43713	0.11924567
176	0xbe369baa	-0.17832819
177	0xbdbb753f	-0.09153222
178	0xbd734ebc	-0.05940126
179	0x3ca02fa6	0.01955397
180	0xbe198b29	-0.14994492
181	0xbdd1c87e	-0.10243319
182	0xbaa778af	-0.0012777055
183	0xbc99caaf	-0.018773405
184	0xbd7d96f4	-0.06191154
185	0x3d2e8e3a	0.042616107
186	0xbdc95b82	-0.09831907
187	0xbe2c1646	-0.16805372
188	0x3c837752	0.016048107
189	0xbe00afa7	-0.12567006
190	0x3db607c7	0.08888202
191	0xbe23d810	-0.1600039
192	0x3c66d526	0.0140889045
193	0x3d959d89	0.07305438
194	0xbe138b4e	-0.1440861
195	0x3d6c2404	0.057651535
196	0xbdb925a0	-0.090403795
197	0xbd89dc02	-0.06731416
198	0xbdf1700a	-0.11788948
199	0xbda73e0b	-0.08166131
200	0x3be74a8c	0.007058447
201	0xbdf80acd	-0.12111435
202	0x3e02b792	0.12765339
203	0x3deca123	0.11554172
204	0x3e8763bd	0.26443282
205	0x3dd16167	0.10223656
206	0x3e03acd6	0.128589
207	0x3d92e241	0.07172061
208	0x3e072e82	0.13201335
209	0x3dbab149	0.09115846
210	0x3e24565f	0.16048573
211	0xbdf8b522	-0.12143923
212	0xbd65668d	-0.056006003
213	0xbe15bcc3	-0.14622788
214	0x3d887f17	0.066648655
215	0xbdb4a412	-0.088203564
216	0x3e0d0481	0.1377125
217	0x3d9f93c9	0.0779186
218	0xbcc970b1	-0.024589868
219	0xbde3e481	-0.11127568
220	0xbe1ad9c3	-0.15122132
221	0x3d848ceb	0.064721905
222	0xbd685121	-0.056717996
223	0xbc38957c	-0.011266109
224	0x3dab77b6	0.083724424
225	0xbd259e91	-0.040434424
226	0xbdf6cb3b	-0.12050482
227	0x3e3e555b	0.18587248
228	0x3d64b9a4	0.055841103
229	0xbd893ee0	-0.067014456
230	0x3de2373b	0.110456906
231	0x3e0172e8	0.1264149
232	0xbde0db4d	-0.10979328
233	0xbbf3f07d	-0.00744444
234	0x3d98b538	0.0745644
235	0xbd9491da	-0.072543815
236	0x3df3770b	0.1188794
237	0xbda7c887	-0.081925444
238	0x3de2464e	0.11048566
239	0xbd742511	-0.05960566
240	0xbe463a82	-0.19358256
241	0x3e0b9981	0.13632776
242	0xbd3d6020	-0.04623425
243	0xbd18d546	-0.03731277
244	0x3e082fe0	0.13299513
245	0xbe3b970d	-0.1831934
246	0xbe4abf62	-0.19799569
247	0x3d067f71	0.03283638
248	0x3e407f1c	0.18798488
249	0xbd90f3c2	-0.07077743
250	0x3e30af33	0.17254333
251	0x3cb8cff3	0.022560095
252	0x3da2bd8a	0.07946308
253	0xbe17a9bd	-0.14810844
254	0x3e019558	0.12654626
255	0x3cfaec5c	0.030630283

encoder.blks.block0.attention.W_o.weight f4 [32, 32]
0	0x3bfe07df	0.007752403
1	0xbcc602fa	-0.024171341
2	0xbdad64fe	-0.08466528
3	0x3d482c1f	0.048870202
4	0xbe14ac2c	-0.14518803
5	0x3d5b0b0d	0.053477336
6	0x3d33d23a	0.04390166
7	0x3bba0915	0.005677352
8	0x3de10197	0.10986631
9	0x3c90bc14	0.017667808
10	0xbc901c80	-0.017591715
11	0xbe02a7a3	-0.12759261
12	0xbe3bae30	-0.18328166
13	0x3ddda8e0	0.10823226
14	0x3da40f39	0.08010716
15	0xbdd27059	-0.10275335
16	0x3cd24a9a	0.025670338
17	0xbd515d43	-0.051114332
18	0x3e1efb32	0.15525511
19	0xbd8e1173	-0.06936922
20	0x3de26135	0.11053697
21	0x3e040d56	0.12895712
22	0x3e1af690	0.15133119
23	0x3e0f01fd	0.13965602
24	0x3cb53087	0.022117866
25	0x3dab2a89	0.08357722
26	0xbe0d5991	-0.13803698
27	0xbd5b09ef	-0.05347627
28	0xbd3df8fb	-0.046380024
29	0x3d85c369	0.06531412
30	0xbd0c2a0c	-0.034219787
31	0x3d0954ac	0.033528015
32	0x3d939d76	0.07207768
33	0x3cc996ab	0.024607977
34	0x3e159ae2	0.14609864
35	0xbd8f304f	-0.06991636
36	0x3e06f097	0.13177715
37	0xbc84adcd	-0.016196156
38	0x3dddd75a	0.10832091
39	0xbcd1567c	-0.025553934
40	0xbd5c32d1	-0.0537594
41	0xbe103ebb	-0.1408643
42	0x3e1f0c1e	0.15531966
43	0xbd14f9de	-0.036371104
44	0x3db299e8	0.087207615
45	0xbdf0564d	-0.117352106
46	0xbe3c0c78	-0.18364131
47	0x3c2c88e1	0.010530681
48	0xbe415733	-0.1888092
49	0x3da047a6	0.07826166
50	0x3d1f0b71	0.03882927
51	0xbdd37e57	-0.10326832
52	0x3d65e685	0.056128044
53	0x3d8fbe4d	0.07018719
54	0xbdc17752	-0.09446587
55	0xbdc8e51f	-0.098093264
56	0x3d0be517	0.034154024
57	0xbd837d3d	-0.06420372
58	0x3da5a41f	0.08087944
59	0xbdb5ed83	-0.088831924
60	0xbcecacbb	-0.028890958
61	0xbe12b49d	-0.14326711
62	0xbd38b999	-0.045098875
63	0xbd93ecb0	-0.07222879
64	0xbd06264b	-0.032751363
65	0xbd682de1	-0.05668438
66	0xba7609d4	-0.000938562
67	0x3e0a9a76	0.13535485
68	0xbd2a5adf	-0.041590568
69	0xbd02c606	-0.03192713
70	0x3e371b08	0.17881405
71	0x3e5be31e	0.21473357
72	0x3bc86e6c	0.006116679
73	0xbe31b2ae	-0.17353317
74	0x3d19bed0	0.03753549
75	0xbbd62b13	-0.0065358966
76	0xbdf8782d	-0.12132297
77	0xbe69865e	-0.22805163
78	0x3d18af48	0.037276536
79	0x3e280b8b	0.16410653
80	0xbde9312f	-0.11386334
81	0xbe02a839	-0.12759484
82	0xbdb4f4e2	-0.0883577
83	0xbdfa6725	-0.122267045
84	0xbdc8cfb4	-0.09805241
85	0x3de3e990	0.11128533
86	0x3e08ed66	0.1337181
87	0xbe209610	-0.15682244
88	0x3d35ea79	0.044413064
89	0xbe1da669	-0.15395512
90	0x3d2112b4	0.039324477
91	0xbda8c71e	-0.082411036
92	0xbd2a1f03	-0.04153348
93	0xbd4fb560	-0.050710082
94	0xbc8f7784	-0.017513044
95	0x3e402c94	0.18767005
96	0xbda1be3d	-0.07897613
97	0x3d45cb05	0.048289318
98	0x3e117c4f	0.14207576
99	0x3c9abc58	0.018888637
100	0x3c2e4e76	0.010638824
101	0x3abd5d93	0.0014447443
102	0x3bf2e20b	0.0074122003
103	0x3d2144b1	0.03937215
104	0x3ddb1447	0.10697227
105	0xbde605f0	-0.11231601
106	0x3e404101	0.18774797
107	0x3e27a0ee	0.16369984
108	0x3b888260	0.0041659325
109	0x3e5f394f	0.21799205
110	0x3ccfd3c5	0.025369534
111	0x3d8ab644	0.06773046
112	0xbe218fae	-0.15777466
113	0x3e1f7b81	0.15574457
114	0x3e1e9a72	0.15488604
115	0xbe01fc18	-0.12693822
116	0xbe079e76	-0.13244042
117	0xbc485f6e	-0.012229783
118	0xbe22784a	-0.15866199
119	0x3ce6ebf5	0.028188685
120	0x3d8b4a2b	0.06801256
121	0xbd186b00	-0.03721142
122	0x3def1512	0.11673941
123	0x3c4178c2	0.011808576
124	0xbd43b133	-0.047776412
125	0xbe0dbe8b	-0.13842218
126	0x3dc81380	0.09769344
127	0xbe6f19c7	-0.23349677
128	0xbc024559	-0.007951104
129	0x3d3be159	0.045869205
130	0xbdd8d1a3	-0.1058686
131	0x3da8b605	0.082378425
132	0x3d13c65c	0.036077842
133	0x3df693b8	0.12039894
134	0x3dd354cc	0.10318908
135	0xbe4b3522	-0.19844487
136	0xbe124db0	-0.14287448
137	0xbdac582c	-0.08415255
138	0xbe2237ef	-0.1584165
139	0x3dcae4f4	0.099069506
140	0xbdb33252	-0.08749832
141	0xbd792dd5	-0.060834724
142	0x3cd5006c	0.026001178
143	0x3e011b47	0.12608062
144	0xbda555d2	-0.080730096
145	0xbe2a5458	-0.16633737
146	0x3c899158	0.016792938
147	0x3d9bdecd	0.07610855
148	0x3dfde156	0.12396495
149	0x3ce1bc39	0.027555572
150	0x3e013633	0.12618332
151	0xbe25b3ef	-0.1618192
152	0x3e22121a	0.15827218
153	0xbde78014	-0.11303726
154	0xbde7e03e	-0.11322068
155	0x3def3c74	0.116814524
156	0xbca154df	-0.01969379
157	0x3ddb6583	0.10712721
158	0xbd7dd22b	-0.06196801
159	0x3dab5f68	0.08367807
160	0x3e5fe5c8	0.21864998
161	0x3dce0fe7	0.10061627
162	0x3dcd4f56	0.10024898
163	0xbd919f1b	-0.07110425
164	0xbdb2ffcc	-0.08740196
165	0x3c5dd2da	0.01353904
166	0x3e162618	0.14662969
167	0xbd50cbbf	-0.050975557
168	0x3e1b4466	0.1516281
169	0xbe14122e	-0.1446006
170	0xbd4014ad	-0.046894718
171	0x3cb8a1b7	0.02253805
172	0xbdba745d	-0.09104226
173	0xbe54bc55	-0.20774968
174	0x3dca7b99	0.09886856
175	0x3cac7762	0.02105302
176	0x3dec1270	0.11526954
177	0xbd8c37f1	-0.068466075
178	0xbe35c26c	-0.17749947
179	0xbdc0f07e	-0.0942087
180	0x3e44af67	0.19207536
181	0xbe11c153	-0.14233904
182	0x3ceedbc3	0.029157525
183	0x3dc9503d	0.09829757
184	0x3e2e0a23	0.16996054
185	0xbe13df51	-0.14440657
186	0xbdc8c401	-0.0980301
187	0xbdc4bb95	-0.09606091
188	0x3e20fc2c	0.15721196
189	0xbdf5028c	-0.119633764
190	0xbe743369	-0.23847736
191	0xbd7820f8	-0.060578316
192	0x3de86a2f	0.11348378
193	0x3d8a491f	0.06752228
194	0x3e25d6b5	0.16195185
195	0x3da62899	0.08113212
196	0xbd4be82e	-0.04978197
197	0xbd87e943	-0.06636288
198	0xbe1707a3	-0.14749007
199	0x3d98a067	0.07452469
200	0x3cb4f31e	0.022088584
201	0x3d4a15d9	0.04933724
202	0xbe20476d	-0.15652247
203	0xbd8e4cdb	-0.06948253
204	0xbe0e4970	-0.13895202
205	0xbd41211f	-0.047150727
206	0xbda08c04	-0.07839206
207	0x3d984461	0.07434917
208	0xbe47ea75	-0.19523032
209	0x3e3cf3e1	0.18452407
210	0xbd0c4d5c	-0.034253463
211	0x3ce03aa4	0.027371712
212	0x3d5767d7	0.052589264
213	0x3b7a0359	0.0038148968
214	0x3e4860da	0.19568196
215	0x3e19f974	0.15036565
216	0x3dbc484b	0.09193476
217	0x3dc5d84e	0.096603975
218	0x3e1636aa	0.1466929
219	0xbde4ea37	-0.111774854
220	0xbe028800	-0.12747192
221	0x3d259f4c	0.04043512
222	0x3d1a2d70	0.03764099
223	0x3c56b21c	0.013103988
224	0xbe065920	-0.13119936
225	0x3da49ffd	0.08038328
226	0x3dbc16ee	0.09184061
227	0x3b82d673	0.0039928495
228	0x3ccc063b	0.024905315
229	0x3d8b824f	0.06811964
230	0xbe1ee2b6	-0.15516171
231	0xbaecd384	-0.0018068408
232	0xbd4b8638	-0.049688548
233	0xbd93b11d	-0.07211516
234	0x3d649012	0.05580146
235	0x3e4d5642	0.20052436
236	0x3d3f7948	0.046746522
237	0x3dcca57a	0.099925
238	0xbdf14659	-0.11780996
239	0xbc128d5c	-0.0089448355
240	0x3a645d6d	0.00087114313
241	0xbdfcd1cc	-0.12344703
242	0x3d0cacfc	0.03434466
243	0x3d7bff34	0.061522678
244	0x3cff9410	0.031198531
245	0x3d986529	0.0744117
246	0x3ce5cd86	0.028052103
247	0x3e114272	0.14185503
248	0x3d3c6894	0.04599817
249	0xbc69379d	-0.014234451
250	0xbc862836	-0.016376596
251	0x3d1a201d	0.03762828
252	0xbdb7ea6d	-0.0898026
253	0xbb32544f	-0.0027210896
254	0xbe27ee0b	-0.163994
255	0xbdaadf39	-0.083433576

encoder.blks.block0.addnorm1.ln.weight f4 [32]
0	0x3f80af74	1.0053544
1	0x3f746f9b	0.95482796
2	0x3f793521	0.97346693
3	0x3f86182b	1.0476125
4	0x3f8504ec	1.0392127
5	0x3f856ef8	1.042449
6	0x3f7812e7	0.9690384
7	0x3f803085	1.0014807
8	0x3f78f3a6	0.9724678
9	0x3f7d4ba1	0.98943526
10	0x3f7d81d6	0.9902624
11	0x3f806f3f	1.003395
12	0x3f870eaf	1.0551356
13	0x3f7b2a33	0.98111266
14	0x3f845e49	1.0341274
15	0x3f81cbe3	1.0140346
16	0x3f7841a2	0.9697515
17	0x3f8428d7	1.0324963
18	0x3f816104	1.0107732
19	0x3f7d7c39	0.99017674
20	0x3f7a412d	0.977557
21	0x3f8476e4	1.0348783
22	0x3f76636c	0.96245456
23	0x3f81e4b9	1.0147926
24	0x3f80f830	1.0075741
25	0x3f7b5ef9	0.9819179
26	0x3f74f540	0.9568672
27	0x3f83c78b	1.0295271
28	0x3f85a743	1.0441669
29	0x3f82ae6a	1.0209477
30	0x3f7f17d9	0.99645764
31	0x3f7f6c75	0.9977487

encoder.blks.block0.addnorm1.ln.bias f4 [32]
0	0x3c38159f	0.011235624
1	0x3d2b8e48	0.041883737
2	0xbd1f4a0f	-0.038888987
3	0xbae75fec	-0.0017652488
4	0x3c1906d2	0.009340005
5	0xbd397462	-0.045277007
6	0x3d02e695	0.03195818
7	0xbc151b41	-0.009100736
8	0x3d1b0142	0.037842996
9	0xbcaca33d	-0.021073932
10	0x3c18b2ba	0.0093199555
11	0xbb323183	-0.0027190156
12	0xbcb7a94c	-0.022419594
13	0x3cc8ce29	0.024512367
14	0xbd18b00f	-0.037277278
15	0x3c8bea29	0.01707943
16	0xbcdc7636	-0.026911836
17	0xbd17ee94	-0.03709276
18	0x3b52029f	0.003204502
19	0xbd17638f	-0.03696018
20	0x3cda33df	0.026636062
21	0x3d14e5f7	0.036352124
22	0xbcc146ff	-0.023593424
23	0x3c66e721	0.014093191
24	0xbc666103	-0.014061215
25	0xbcf4fcbd	-0.029905671
26	0x3d1b7c68	0.03796044
27	0x3d0b203b	0.033966284
28	0xbd188db9	-0.037244532
29	0x3cdd8fca	0.027046103
30	0x3ccd666f	0.025073258
31	0xb9029b20	-0.00012455555

encoder.blks.block0.ffn.dense1.weight f4 [64, 32]
0	0x3b9c1a25	0.004763859
1	0x3da9fb45	0.08299879
2	0x3d3335b1	0.043752376
3	0xbe0c0628	-0.13674223
4	0xbe112eb0	-0.14177966
5	0x3ca9dd47	0.020735396
6	0xbe9cd330	-0.30629873
7	0x3ddabb7f	0.10680293
8	0x3e640105	0.22266014
9	0x3e61f18b	0.22064798
10	0x3ccdeb70	0.02513668
11	0xbca071d4	-0.019585527
12	0x3dbb5759	0.091475196
13	0x3ca7f7aa	0.020503838
14	0xbd1e9ee2	-0.03872574
15	0x3d47afd9	0.048751686
16	0x3e4c050d	0.19923802
17	0xbd54d3f9	-0.051959965
18	0xbe269850	-0.1626904
19	0x3ed9d983	0.4254876
20	0x3dea7254	0.114475876
21	0xbc7c1e2e	-0.015388055
22	0xbe044c02	-0.1291962
23	0xbcd6e238	-0.026230916
24	0xbd1fff08	-0.039061576
25	0xbe10d323	-0.14143042
26	0x3c878abf	0.016545651
27	0x3ded298e	0.115801916
28	0xbdefc2f2	-0.11707105
29	0xbcd796bc	-0.026316993
30	0xbdacc2c2	-0.084355846
31	0x3ee4a547	0.44657347
32	0x3d969a82	0.07353689
33	0x3da7053a	0.08155294
34	0xbd1e808f	-0.03869682
35	0x3c539f0b	0.012916337
36	0x3e0eb924	0.13937813
37	0x3db2b98d	0.08726797
38	0xbd68e255	-0.056856472
39	0x3dcc2a56	0.099690124
40	0xbd1f1a79	-0.038843606
41	0xbd19e618	-0.03757295
42	0xbda9287c	-0.08259675
43	0xbd15604f	-0.0364688
44	0xbcb4e001	-0.02207947
45	0xbd9b75a5	-0.07590798
46	0x3da8b38d	0.082373716
47	0x3e46b425	0.19404657
48	0xbe377656	-0.17916235
49	0x3ca52910	0.020161182
50	0xbdb9ff80	-0.09081936
51	0xbd8812e0	-0.06644225
52	0x3ded8d3e	0.115992054
53	0xbd0cc3e5	-0.034366507
54	0x3cb66b76	0.022268038
55	0xbdb3e995	-0.087847866
56	0x3e4ccb9c	0.19999546
57	0xbd5413f1	-0.05177683
58	0x3d83d11c	0.06436369
59	0xbc57aa5c	-0.013163175
60	0x3e1b2fb2	0.15154913
61	0xbc5935fa	-0.013257498
62	0x3d9a448c	0.075326055
63	0x3c6954f3	0.014241445
64	0x3e044f10	0.12920785
65	0xbd44d6d3	-0.048056435
66	0x3dc0ce90	0.09414399
67	0x3dd76f12	0.10519232
68	0xbd965354	-0.07340112
69	0xbdbacaad	-0.091206886
70	0x3d7fd7dc	0.06246172
71	0x3d68f4a4	0.056873932
72	0xbe752409	-0.23939528
73	0x3db4b8d2	0.08824314
74	0xbe4d04ee	-0.20021412
75	0xbdb05286	-0.0860949
76	0x3d54a9bf	0.051919695
77	0x3d7c4461	0.06158865
78	0xbd3b23f7	-0.045688596
79	0x3e1afd2e	0.15135643
80	0x3e5e8175	0.21729071
81	0x3e5d0ca5	0.21586855
82	0xbe3ee596	-0.18642268
83	0xbd6ac3cd	-0.057315636
84	0xbc943771	-0.018092843
85	0x3e1b3fe9	0.15161099
86	0x3d053248	0.032518655
87	0x3d753d36	0.05987283
88	0x3d9db244	0.07700017
89	0xbc9f818b	-0.01947095
90	0xbe2ee32e	-0.1707885
91	0x3e510f41	0.20415975
92	0xbcb4afbf	-0.022056459
93	0x3e0effe0	0.13964796
94	0xbe3c3d29	-0.18382706
95	0xbb8d649a	-0.004314971
96	0x3db2f701	0.087385185
97	0x3c5d8412	0.013520258
98	0x3d205565	0.03914394
99	0xbe159d53	-0.14610796
100	0x3e5599f6	0.20859513
101	0xbd76a540	-0.06021619
102	0x3c84f08c	0.016227983
103	0xbdaf144c	-0.08548793
104	0xbddad853	-0.10685792
105	0xbe3fcaa2	-0.18729642
106	0xbe0bfaae	-0.13669845
107	0xbdb348f0	-0.08754146
108	0xbda12faa	-0.07870419
109	0x3e1ef9fa	0.15525046
110	0x3cf2d812	0.029644046
111	0x3e442a91	0.19156863
112	0xbd3cb23e	-0.046068422
113	0x3c9b8ce3	0.018988078
114	0x3e412871	0.18863083
115	0xbe30031d	-0.17188688
116	0xbd4b1f13	-0.04959018
117	0x3df10736	0.117689535
118	0xbd6a0471	-0.057133142
119	0xbd92fb5a	-0.07176848
120	0x3d616b60	0.05503404
121	0xbdc5428a	-0.09631832
122	0x3d1d9f36	0.038481914
123	0xbdce37b2	-0.10069217
124	0x3dbe8863	0.093033575
125	0xbd97b6e7	-0.07407933
126	0xbdb258f3	-0.08708372
127	0xbd98b4d0	-0.07456362
128	0x3c059842	0.008153977
129	0x3def5b89	0.11687381
130	0xbe2f5943	-0.17123894
131	0xbdbaf5fd	-0.0912895
132	0xbe1c0e14	-0.15239745
133	0x3df14253	0.117802285
134	0x3df9e386	0.122016
135	0xbe09b0ff	-0.13446425
136	0x3c452e2c	0.012034934
137	0x3b7c6462	0.0038511981
138	0xbd8549ee	-0.065082416
139	0x3ad9fa93	0.0016630463
140	0x3e294956	0.16531882
141	0x3e4ccd38	0.2000016
142	0x3de02f55	0.10946528
143	0x3b66bef2	0.0035209027
144	0xbe05a1c3	-0.13049988
145	0xbdbfda4a	-0.09367807
146	0x3cfeb509	0.031092184
147	0xba599d05	-0.0008301291
148	0x3dd9a600	0.10627365
149	0xbe48a86d	-0.195955
150	0x3d4c30ae	0.049851112
151	0xbdb5bae9	-0.08873541
152	0x3d4aafe3	0.049484145
153	0x3e1257f5	0.14291365
154	0x3d1027de	0.03519427
155	0xbd8ad50c	-0.06778917
156	0xbc96c015	-0.018402139
157	0xbe634a41	-0.22196294
158	0xbe0938db	-0.13400595
159	0x3d3057d4	0.04305251
160	0xbe09464a	-0.1340572
161	0x3dfb6da1	0.122767694
162	0xbd9e14ff	-0.077188484
163	0x3d83eca8	0.06441623
164	0x3e1fa49a	0.15590134
165	0x3d66842e	0.0562784
166	0x3d9ec96a	0.077532604
167	0x3e338822	0.175324
168	0xbd64dabb	-0.05587266
169	0x3dd3fcc2	0.10350944
170	0xbdf4bc03	-0.11949923
171	0x3e095239	0.13410272
172	0xbc500278	-0.012695901
173	0x3ca040a7	0.019562079
174	0x3e073247	0.13202773
175	0x3d114b7f	0.03547239
176	0x3e03db6c	0.12876672
177	0xbdb4023a	-0.08789487
178	0xbd935758	-0.07194394
179	0x3e0b8432	0.13624647
180	0xbda411f8	-0.0801124
181	0x3db793bb	0.08963724
182	0x3e19f36f	0.15034269
183	0x3dba8be0	0.0910871
184	0xbd2df63f	-0.042471167
185	0xbcde85ec	-0.027163468
186	0xbe1290d0	-0.14313054
187	0xbe004759	-0.12527217
188	0xbbd21d3e	-0.0064121773
189	0xbe146f13	-0.14495496
190	0x3d892d87	0.06698137
191	0x3da5cc45	0.08095602
192	0xbdbe7a14	-0.09300628
193	0xbcd3f30b	-0.025872728
194	0x3e352953	0.17691545
195	0xbd177da4	-0.036985055
196	0x3e677665	0.22603758
197	0x3e4680ff	0.19385146
198	0xbd134124	-0.035950795
199	0xbe0aa824	-0.13540703
200	0x3e0a12f8	0.13483799
201	0xbe1260ed	-0.14294787
202	0x3e29b8ec	0.16574448
203	0xbe152cf3	-0.14567928
204	0xbd521e20	-0.05129826
205	0x3d82afc1	0.06381179
206	0xbcb83f18	-0.022491023
207	0x3e3bec01	0.18351747
208	0xbe300a7e	-0.17191502
209	0xbcb692cd	-0.022286797
210	0xbcf2c591	-0.029635223
211	0x3ddc5481	0.10758305
212	0x3dbe4e91	0.09292329
213	0x3d9fb39b	0.07797929
214	0x3dc765f1	0.09736241
215	0x3e058a73	0.13041095
216	0x3ba19097	0.0049305665
217	0xbbc58360	-0.006027624
218	0xb935443e	-0.00017286927
219	0x3d7306eb	0.05933277
220	0xbc6f3e88	-0.014602311
221	0x3d188551	0.037236515
222	0x3cbc32da	0.022973467
223	0x3c37ca8e	0.011217726
224	0x3df61d1d	0.12017272
225	0x3d3c3786	0.04595139
226	0x3dc0fbde	0.0942304
227	0xbc8cf094	-0.01720456
228	0xbe0aa492	-0.13539341
229	0x3e0a00d6	0.13476881
230	0x3daf983d	0.08573959
231	0x3e31ba44	0.17356211
232	0x3d5868da	0.05283437
233	0xbca1999b	-0.019726565
234	0xbdd3db73	-0.10344591
235	0xbe4573ff	-0.1928253
236	0x3da6a96b	0.08137783
237	0x3e2b6fe9	0.16741909
238	0x3ca5d8ba	0.020244945
239	0xbd1c787a	-0.038200833
240	0x3d87cb7a	0.06630607
241	0xbdcba71f	-0.09943985
242	0x3dad0f7b	0.08450218
243	0xbe25c814	-0.16189605
244	0xbe0bdad8	-0.13657701
245	0xbe097d09	-0.13426603
246	0xbd4f08e5	-0.05054559
247	0x3d0988e5	0.03357782
248	0x3dea694e	0.114458665
249	0xbe05438b	-0.13014047
250	0xbcb3d573	-0.021952366
251	0x3d08315a	0.03325019
252	0xbc41f8f9	-0.011839145
253	0xbcc9e94f	-0.024647383
254	0x3d9db076	0.07699673
255	0xbd81f928	-0.06346351

encoder.blks.block0.ffn.dense1.bias f4 [64]
0	0xbc74a822	-0.014932664
1	0xbe00da4b	-0.12583272
2	0xbc75f4b4	-0.015011955
3	0xbd2f32ec	-0.042773172
4	0xbdab62b6	-0.08368437
5	0x3dd3c1cb	0.103396975
6	0x3d869ce3	0.065728925
7	0x3cfb9c5a	0.030714203
8	0xbd8ec170	-0.06970489
9	0xbd134b16	-0.03596028
10	0x3d910c50	0.070824265
11	0xbc450831	-0.012025879
12	0xbe4620c7	-0.19348441
13	0xbc756160	-0.014976829
14	0x3e04ea6b	0.12980048
15	0xbdaec53e	-0.08533715
16	0xbd822f87	-0.06356721
17	0x3d3d58f8	0.046227425
18	0x3d0b2af0	0.033976495
19	0x3df29fcf	0.11846887
20	0xbdc2b290	-0.09506714
21	0x3da65a3d	0.0812268
22	0x3dbc8c9e	0.09206508
23	0x3de494c2	0.11161186
24	0xbdf27d37	-0.11840289
25	0xbdc167a6	-0.094435975
26	0x3e575d1c	0.21031612
27	0x3d8e88e2	0.06959702
28	0xbc656598	-0.014001273
29	0xbd9b0caf	-0.075707786
30	0x3dfa3a2d	0.122181274
31	0xbce800e0	-0.02832073
32	0x3e050367	0.12989579
33	0xbca5b809	-0.020229356
34	0x3d6cab08	0.057780296
35	0x3b2806b0	0.0025638752
36	0xbdfa85ad	-0.12232528
37	0xbd4e9d6f	-0.05044311
38	0x3cf5c4e7	0.030001117
39	0xbe5ca690	-0.21547914
40	0xbd1174dd	-0.03551184
41	0x3d4cf894	0.05004175
42	0x3def8094	0.11694446
43	0x3c2e047e	0.010621188
44	0xbe11d4fa	-0.142414
45	0xbcae059e	-0.021242913
46	0x3e132789	0.1437055
47	0xbc9534c6	-0.01821364
48	0x3dae3d49	0.08507783
49	0x3c867b8b	0.016416332
50	0x3d9b51bb	0.07583948
51	0xbdf77b70	-0.12084091
52	0x3e171487	0.14753924
53	0x3d8ddf31	0.06927336
54	0xbd41de36	-0.047331057
55	0x3e23bbc3	0.15989594
56	0x3d6ce384	0.057834163
57	0xbe133cb4	-0.14378625
58	0xba977e25	-0.001155798
59	0x3df9a287	0.12189203
60	0x3d906fd5	0.0705258
61	0xbd933fc3	-0.07189896
62	0xbdaedf40	-0.08538675
63	0xbe1f7f06	-0.155758
