1223-code-DL/model/transformer_state_dict.pt (torch, 408278 bytes, 67 tensors)

embedding.0.weight f4 [16, 16]
-0.08122245 0.117216475 0.13636336 -0.31215665 -0.16032943 -0.005851352 0.12021034 -0.09320084
0.05789174 -0.21399193 0.11874522 -0.10398355 -0.043236014 0.12714808 0.0057632765 -0.32852316
-0.3098486 -0.22056597 -0.038066566 -0.18609908 0.16141817 0.1272698 -0.30002093 0.074618705
-0.117075846 -0.033779137 -0.1756217 -0.037061885 0.09927363 -0.090581805 -0.08753444 0.117423125
0.2807169 0.39395085 0.57108605 0.14935307 0.1329701 0.22696134 0.5822865 0.026504721
0.16141495 0.14703387 -5.2474523 0.120495856 -0.24529023 0.30786872 0.024143606 -1.8927184
0.12527904 0.31067246 0.25234476 0.022967808 0.059519697 0.06990505 0.33963054 0.27872503
-0.062314756 0.04130627 -4.582378 -0.0049338876 0.2262866 0.22737236 0.1675762 -2.058605
0.07825669 0.49175322 0.08615548 0.035174463 0.001725616 0.11233827 -0.025039915 0.50065213
0.05095587 0.019301752 0.3152112 0.25388488 0.04635375 0.10008828 0.03488718 -5.3932257
-0.1511805 -0.16053173 -0.1183291 -0.26635155 0.00036474396 0.24716267 -0.57803404 -0.28921792
-0.40300834 0.2661842 0.4169544 0.00640399 -0.11209615 -0.09196018 -0.33830288 -0.5726888
-0.02172175 -0.011314303 -0.041781634 -0.061451882 -0.11423355 -0.06366956 -0.12794942 -0.101097375
-0.18720835 -0.14187461 -0.034885764 -0.12185678 -0.10156843 -0.15577409 -0.052044213 0.17558682
0.053885564 -0.1853797 -0.27139965 -0.12728158 0.062534206 0.02332544 -0.20009522 -0.06886514
0.0013460072 -0.07295093 -0.28539196 -0.13995914 0.20479624 -0.22809827 -0.040133927 0.12641567
0.046867948 -0.08789095 0.08634593 0.0064660013 0.02983933 0.00806489 0.17171445 0.06341335
-0.072394654 0.008213376 0.45128268 -0.05154247 0.20969035 0.08857726 0.13886733 3.4061453
-0.0009521781 -0.21940958 -0.23475671 -0.12180392 -0.15457807 0.15948908 -0.26607493 -0.08629372
0.07882721 -0.18553463 0.15826061 -0.29882973 -0.06816096 -0.21509874 0.16602354 -0.27269265
0.04022617 0.18868099 0.07433242 0.00035328447 0.018386176 -0.021170722 -0.13543116 0.054459956
0.097542524 0.021166727 0.3094775 0.16793133 -0.21743053 0.06275499 0.08491965 1.5638126
0.1460193 -0.3329664 -0.25100622 -0.07678446 -0.17465542 -0.15015985 0.05923973 -0.29213375
-0.036717363 -0.418869 -0.025872191 0.04416597 0.04146897 0.06120067 -0.15791275 -0.020409875
0.02992259 -0.04693479 0.04645504 -0.0021460033 0.015162464 -0.0020540457 0.06774431 0.037329055
0.0064934227 0.008595493 0.7402687 0.091311656 -0.057926204 0.05122194 0.06552766 -1.1430987
-0.02546484 0.033965204 0.007995376 -0.23584731 -0.1759666 0.05121138 -0.11810982 -0.18036065
-0.062428955 -0.2759636 -0.2723899 0.119587824 0.0018084261 -0.13115501 -0.279538 -0.28770727
0.01898398 0.23266642 0.059723012 -0.008386029 0.019316826 -0.026619645 -0.20601359 0.036974426
-0.06166455 0.0041569765 0.6552122 -0.08353971 0.17346784 0.05354973 0.06673153 -1.2717086
0.1454588 -0.15593879 0.028654767 0.059208546 0.019020068 -0.040797573 -0.22096929 -0.01726476
0.09946368 -0.0014282472 -0.73808694 0.025438188 -0.11096029 -0.07014859 -0.43219188 0.56933564
00000000: f557 a6bd 310f f03d d6a2 0b3e ffd2 9fbe
00000010: 662d 24be b3bc bfbb d730 f63d 15e0 bebd
00000020: e41f 6d3d b320 5bbe b230 f33d 54f5 d4bd
00000030: 3f18 31bd 1b33 023e ded9 bc3b 3034 a8be
00000040: 7aa4 9ebe 0cdc 61be b0eb 1bbd c290 3ebe
00000050: ce4a 253e 0453 023e 589c 99be b1d1 983d
00000060: 76c5 efbd fe5b 0abd 2dd6 33be 34ce 17bd
00000070: f94f cb3d f482 b9bd 4245 b3bd 897b f03d
00000080: 20ba 8f3e edb3 c93e b232 123f 03f0 183e
00000090: 5029 083e 8e68 683e ba10 153f 6e20 d93c
000000a0: f649 253e 0c90 163e 21eb a7c0 88c6 f63d
000000b0: 5d2d 7bbe f8a0 9d3e d0c8 c53c 9944 f2bf
000000c0: 2649 003e 7610 9f3e 5533 813e fc26 bc3c
000000d0: edca 733d 612a 8f3d 0ee4 ad3e 0cb5 8e3e
000000e0: c23d 7fbd c330 293d d7a2 92c0 73ac a1bb
000000f0: adb7 673e 4dd4 683e 1899 2b3e 2fc0 03c0
00000100: 0b45 a03d 14c7 fb3e 4972 b03d 1913 103d
00000110: 112e e23a 9b11 e63d 8220 cdbc bd2a 003f
00000120: 1ab7 503d b51e 9e3c 5d63 a13e 33fd 813e
00000130: 6edd 3d3d 16fb cc3d dce5 0e3d 4e95 acc0
00000140: 10cf 1abe 6e62 24be 8756 f2bd 3b5f 88be
00000150: 1b3b bf39 3618 7d3e 0afa 13bf 5f14 94be
00000160: 1c57 cebe 4c49 883e 0c7b d53e 90d8 d13b
00000170: ab92 e5bd 9e55 bcbd 0936 adbe bc9b 12bf
00000180: d0f1 b1bc a05f 39bc 3823 2bbd f8b4 7bbd
00000190: 48f3 e9bd 3065 82bd 2c05 03be 240c cfbd
000001a0: 8cb3 3fbe 9447 11be 60e4 0ebd 0c90 f9bd
000001b0: 1c03 d0bd 3e83 1fbe 502c 55bd 08cd 333e
000001c0: 1cb7 5c3d 2dd4 3dbe e5f4 8abe 1a56 02be
000001d0: ef11 803d fe14 bf3c c3e5 4cbe 2b09 8dbd
000001e0: 826c b03a 4c67 95bd e51e 92be 7351 0fbe
000001f0: 1bb6 513e 9892 69be 7963 24bd 1c73 013e
00000200: 9bf8 3f3d 2c00 b4bd 23d6 b03d c0e0 d33b
00000210: 9c71 f43c 9a22 043c ead5 2f3e dcde 813d
00000220: a643 94bd 6591 063c 860e e73e 321e 53bd
00000230: 11b9 563e ff67 b53d 3d33 0e3e 49fe 5940
00000240: 979b 79ba e8ac 60be 1064 70be 5574 f9bd
00000250: b749 1ebe 1b51 233e f93a 88be c3ba b0bd
00000260: 2970 a13d cafc 3dbe 120f 223e 3600 99be
00000270: f997 8bbd d842 5cbe 1302 2a3e 5f9e 8bbe
00000280: 32c4 243d 9735 413e 993b 983d 0a39 b939
00000290: 9b9e 963c 396e adbc 77ae 0abe 6711 5f3d
000002a0: 60c4 c73d d865 ad3c d673 9e3e 31f6 2b3e
000002b0: 1ca6 5ebe b085 803d 5aea ad3d 032b c83f
000002c0: 1586 153e 927a aabe e383 80be 2c41 9dbd
000002d0: dfd8 32be 81c3 19be 5ca5 723d 8e92 95be
000002e0: f264 16bd ff75 d6be ebf1 d3bc 60e7 343d
000002f0: 5edb 293d 8ead 7a3d e1b3 21be 9c32 a7bc
00000300: 3820 f53c b23e 40bd a447 3e3d f6a3 0cbb
00000310: fc6b 783c 2b9d 06bb 87bd 8a3d 5ae6 183d
00000320: c7c6 d43b 1cd4 0c3c 4082 3d3f 9b01 bb3d
00000330: 0744 6dbd 19ce 513d 5e33 863d 0f51 92bf
00000340: a49b d0bc 191f 0b3d 0aff 023c f581 71be
00000350: 9730 34be 06c3 513d 90e3 f1bd 76b0 38be
00000360: 81b5 7fbd 1a4b 8dbe b076 8bbe 76ea f43d
00000370: b608 ed3a 804d 06be 9b1f 8fbe 5e4e 93be
00000380: 4b84 9b3c 1b40 6e3e 1ea0 743d 8e65 09bc
00000390: 523e 9e3c 7111 dabc 3af5 52be 7f72 173d
000003a0: f893 7cbd 3f37 883b fdbb 273f de16 abbd
000003b0: 8ea1 313e f656 5b3d 8aaa 883d 59c7 a2bf
000003c0: 27f3 143e 6bae 1fbe 67bd ea3c a984 723d
000003d0: f9cf 9b3c 5b1b 27bd c645 62be d36e 8dbc
000003e0: 9db3 cb3d 0634 bbba 44f3 3cbf bf63 d03c
000003f0: 263f e3bd 10aa 8fbd 4148 ddbe fbbf 113f

embedding.0.bias f4 [16]
-0.17868477 -0.24608032 0.91002387 4.2107406 4.378363 0.059018318 -0.22223017 -0.004135404
-0.17302564 -0.23331347 -0.25156373 -0.08107097 0.48520237 0.15304673 0.24685514 0.24403459
00000000: 24f9 36be 7bfc 7bbe 53f7 683f 63be 8640
00000010: 8d1b 8c40 31bd 713d 4e90 63be 4882 87bb
00000020: a22d 31be bae9 6ebe f6cc 80be 8908 a6bd
00000030: 726c f83e 48b8 1c3e 98c7 7c3e 34e4 793e

transformer.encoder.layers.0.self_attn.in_proj_weight f4 [48, 16]
0.009187061 0.04280272 0.038514663 -0.24488258 0.107777886 -0.0049713333 -0.037874375 0.018268377
-0.19266832 0.25202855 0.030954044 -0.072580405 -0.59876233 -0.07898706 -0.59945166 -0.16283251
0.052941322 -0.31688648 -0.03384396 0.18010388 -0.13820459 -0.029357985 -0.061473075 0.1936049
0.16157094 0.2788291 0.5190018 0.3289408 0.14284514 -0.0060034185 0.009764151 0.0456011
0.22740956 0.043576736 0.14334936 -0.04805421 0.18078236 0.18080363 -0.052068435 0.34639692
0.31943852 1.1633978 -0.19926529 0.41170147 -0.06682246 0.27070957 0.12705989 -0.17099439
-0.12346292 -0.0048429724 -0.14351702 0.3395996 0.25663954 -0.003226928 -0.11766294 -0.2938732
0.22232312 0.021077817 0.3470359 -0.016337708 0.15219517 0.6059899 0.008610618 0.53646845
0.16011478 -0.008683992 0.028411537 -0.084030084 -0.19694054 0.17006798 0.20829643 -0.23911731
0.28362566 -0.40022093 0.18471375 0.02206327 -0.19048192 0.5011142 -0.06294752 0.38547772
0.06024186 0.120173275 0.0035963298 0.21829954 0.05372244 0.13481945 0.018298365 0.09455391
-0.27895585 0.06366653 -0.4200907 0.23324648 -0.059939396 -0.015268597 0.11182732 -0.13184129
0.061805278 0.022134507 0.08323444 -0.14566687 0.123562194 -0.008848031 0.033493042 -0.19803941
0.37040588 -0.102398336 0.5930507 0.056007117 0.33937055 0.39514866 0.2552714 0.0009810673
-0.016617011 -0.23810053 -0.18782717 0.11423759 -0.2864319 -0.07136687 -0.16235122 -0.0063362503
-0.43433875 -0.026994197 -0.8926163 -0.21114504 -0.67996025 -0.34052512 -0.7322613 -0.48615274
-0.010793063 -0.17203705 -0.17265047 0.045538027 -0.2691485 0.107738174 0.13879853 -0.20788217
0.10598457 -0.24409215 -0.2593917 -0.072005145 -0.2061989 -0.14762616 -0.4894738 -0.22146091
-0.26835403 0.006436602 0.12049185 0.15257886 0.38880578 0.016341373 0.38094154 -0.19569203
0.5802604 -0.55816203 0.3755488 0.15441109 -0.07804119 0.41604653 -0.3323674 0.24911466
-0.011153717 -0.14076634 -0.042017154 0.24681501 0.1384448 0.28804237 -0.00023799151 0.92229015
0.011018159 0.3875792 0.4013448 0.37288457 -0.10052759 0.18220547 -0.24910212 0.52159077
0.019381361 0.06957928 -0.38312623 0.21654387 -0.1023403 0.095868275 0.07462033 -0.6134867
0.34429684 0.017898083 0.34474126 0.2740529 0.29364014 0.27942738 0.5027483 0.23050837
0.14616312 -0.0404765 0.004141598 -0.04348892 0.34730983 -0.07979881 0.012404078 0.25934142
0.37832338 -0.25351456 -0.20349844 -0.083855905 0.24914975 0.16850738 1.1125834 0.3050338
0.087133445 0.028595334 0.31640282 0.005903395 -0.42492077 -0.009393715 -0.035936628 0.12131516
-0.08402069 -0.1919014 -0.37960365 0.02443202 -0.29771006 -0.40211645 0.20436646 -0.4222647
-0.0024746563 -0.0676489 -0.14677356 0.03241166 -0.33966205 0.1903182 -0.040579762 0.07005851
0.02097144 0.15115047 -0.40672913 -0.19730407 -0.21228924 0.019725384 -0.37118766 -0.34200612
-0.05003566 0.054313652 -0.02429008 0.025701143 -0.12736163 0.10018271 0.001656272 -0.12514667
-0.12292909 0.16798696 -0.5173908 -0.39157516 0.03494603 -0.49086267 0.5915248 -0.5596445
00000000: 5485 163c e851 2f3d 8dc1 1d3d 80c2 7abe
00000010: a7ba dc3d 91e6 a2bb 2922 1bbd 90a7 953c
00000020: d84a 45be e309 813e 5693 fd3c 09a5 94bd
00000030: 7d48 19bf f8c3 a1bd aa75 19bf 91bd 26be
00000040: 00d9 583d f23e a2be f79f 0abd 276d 383e
00000050: 8185 0dbe 2880 f0bc 31cb 7bbd 5d40 463e
00000060: da72 253e b0c2 8e3e 4ddd 043f ee6a a83e
00000070: ff45 123e 53b8 c4bb d1f9 1f3c 38c8 3a3d
00000080: 0dde 683e 857d 323d 2dca 123e 7ed4 44bd
00000090: 031f 393e 9624 393e b645 55bd f05a b13e
000000a0: 728d a33e 38ea 943f 330c 4cbe 89ca d23e
000000b0: 37da 88bd 729a 8a3e fd1b 023e 2719 2fbe
000000c0: 21da fcbd ccb1 9ebb 20f6 12be 00e0 ad3e
000000d0: 4266 833e de7a 53bb 44f9 f0bd 8c76 96be
000000e0: aca8 633e 63ab ac3c b1ae b13e a8d6 85bc
000000f0: 0dd9 1b3e 2722 1b3f 8d13 0d3c ff55 093f
00000100: 21f5 233e 4d47 0ebc 50bf e83c f717 acbd
00000110: c8aa 49be 4d26 2e3e a94b 553e 2bdb 74be
00000120: 6237 913e c2e9 ccbe 9a25 3d3e 08be b43c
00000130: b10d 43be 0549 003f a1ea 80bd 565d c53e
00000140: 2bc0 763d 681d f63d 67b0 6b3b ea89 5f3e
00000150: 100c 5c3d 1c0e 0a3e 74e6 953c 7ba5 c13d
00000160: 4dd3 8ebe 9963 823d 2116 d7be 2ad8 6e3e
00000170: 0383 75bd 2329 7abc b905 e53d 6701 07be
00000180: 8827 7d3d 6d53 b53c d176 aa3d b229 15be
00000190: 2d0e fd3d 55f7 10bc 0030 093d d8ca 4abe
000001a0: d7a5 bd3e 38b6 d1bd 2cd2 173f b867 653d
000001b0: fac1 ad3e ed50 ca3e efb2 823e 2897 803a
000001c0: 6620 88bc a0d0 73be c455 40be 66f5 e93d
000001d0: 34a7 92be cb28 92bd 663f 26be 52a0 cfbb
000001e0: a661 debe ef22 ddbc 8082 64bf 6836 58be
000001f0: e011 2ebf 4f59 aebe 7a75 3bbf 03e9 f8be
00000200: 63d5 30bc 7b2a 30be 49cb 30be 1586 3a3d
00000210: d5cd 89be d5a5 dc3d 3421 0e3e 10df 54be
00000220: 700e d93d 4bf3 79be fdce 84be 6f77 93bd
00000230: ce25 53be 502b 17be 4f9c fabe a6c6 62be
00000240: b365 89be 22ea d23b 6ec4 f63d a23d 1c3e
00000250: 8d11 c73e 58de 853c c50a c33e 7e63 48be
00000260: f28b 143f b5e3 0ebf ef47 c03e f11d 1e3e
00000270: 0fd4 9fbd 0d04 d53e 0f2c aabe ea17 7f3e
00000280: 14be 36bc 0d25 10be 2e1a 2cbd 13bd 7c3e
00000290: 79c4 0d3e 4a7a 933e 5c8d 79b9 351b 6c3f
000002a0: 8285 343c c870 c63e 117d cd3e baea be3e
000002b0: 69e1 cdbd 1294 3a3e a014 7fbe f986 053f
000002c0: a9c5 9e3c 957f 8e3d 1f29 c4be adbd 5d3e
000002d0: cb97 d1bd 9656 c43d 8bd2 983d 770d 1dbf
000002e0: ad47 b03e 009f 923c ed81 b03e a950 8c3e
000002f0: 0058 963e 1b11 8f3e 1db4 003f 630a 6c3e
00000300: c9ab 153e b0ca 25bd 3eb6 873b 7021 32bd
00000310: 98d2 b13e 8f6d a3bd 793a 4b3c 66c8 843e
00000320: 9ab3 c13e a9cc 81be e561 50be a5bc abbd
00000330: 1d21 7f3e 338d 2c3e 2269 8e3f 642d 9c3e
00000340: 0573 b23d c340 ea3c 8dff a13e 4471 c13b
00000350: 378f d9be 19e8 19bc 4932 13bd 1574 f83d
00000360: 0a13 acbd cd81 44be 695b c2be a925 c83c
00000370: 746d 98be 35e2 cdbe 7145 513e 1433 d8be
00000380: d82d 22bb 828b 8abd cf4b 16be 17c2 043d
00000390: 2fe8 adbe c6e2 423e f736 26bd d67a 8f3d
000003a0: 4ccc ab3c 30c7 1a3e cd3e d0be 140a 4abe
000003b0: 5a62 59be 2197 a13c 4f0c bebe 6d1b afbe
000003c0: 31f2 4cbd fe77 5e3d fdfb c6bc 348b d23c
000003d0: 166b 02be 982c cd3d 4417 d93a 7326 00be
000003e0: 3fc2 fbbd c604 2c3e b973 04bf 8a7c c8be
000003f0: 9123 0f3d 5a52 fbbe 2b6e 173f dd44 0fbf

transformer.encoder.layers.0.self_attn.in_proj_bias f4 [48]
-0.19810933 0.187618 0.1684349 0.3330959 0.24781406 -0.038608957 0.21739672 -0.47276047
-0.1963292 0.28447175 0.43323082 0.20448828 0.17973672 -0.1380951 -0.07037386 -0.36541873
-0.06367538 -0.124403976 -0.09835034 -0.10787044 -0.06491477 0.06882385 -0.10143386 0.05028432
-0.023392703 -0.023863478 0.028096609 -0.011986291 0.045658395 0.121005505 0.053079426 -0.04386757
0.042894967 0.024520293 0.007858682 -0.07494091 -0.062254474 -0.0055790357 0.068640366 0.0116802445
-0.04071195 0.02777628 -0.00028340277 0.075273365 -0.108857974 -0.16633019 -0.006533043 -0.1571956
00000000: 2cdd 4abe ef1e 403e 337a 2c3e 8c8b aa3e
00000010: f8c2 7d3e 6d24 1ebd 3f9d 5e3e a90d f2be
00000020: 860a 49be 48a6 913e 6ed0 dd3e 6065 513e
00000030: e70c 383e cd68 0dbe 2c20 90bd 2a18 bbbe
00000040: 3d68 82bd 83c7 febd e76b c9bd 2deb dcbd
00000050: 09f2 84bd 85f3 8c3d 8ebc cfbd eef6 4d3d
00000060: 0ea2 bfbc 577d c3bc dc2a e63c 2662 44bc
00000070: 4c04 3b3d bcd1 f73d d069 593d 7bae 33bd
00000080: a2b2 2f3d c8de c83c b4c1 003c 9f7a 99bd
00000090: 8cfe 7ebd 58d0 b6bb 5293 8c3d 7f5e 3f3c
000000a0: 93c1 26bd 158b e33c ad95 94b9 ec28 9a3d
000000b0: eef0 debd 7652 2abe 2313 d6bb e2f7 20be

transformer.encoder.layers.0.self_attn.out_proj.weight f4 [16, 16]
-0.5768624 0.44072732 -0.26779857 -0.2035376 0.043605134 -0.6079596 -0.46464464 0.2527983
-0.6255348 0.05079466 -0.6021763 -0.4569178 0.6922723 -0.10784208 0.78722733 -0.47858393
-0.17139049 -0.46266422 -0.06264057 0.18446563 -0.30106133 0.45220223 -0.37302694 0.17749839
-0.2283586 -0.34866953 -0.39035395 -0.2249987 0.050355 0.09284306 0.37819895 0.6761676
-0.07413575 0.23557934 -0.3156239 -0.29410937 0.1335475 0.21506654 -0.2317115 -0.36087096
-0.28660396 -0.18462913 -0.26989004 0.03289622 0.9463425 -0.29712892 0.6659142 -0.22687773
-0.08702033 -0.13224441 0.23516732 -0.43815508 0.42743847 0.0021745993 0.29585606 -0.13656166
0.23498607 0.054030113 0.36174867 -0.38633195 0.3028635 -0.16870101 0.097741485 -0.16036662
-0.2726558 -0.37717658 0.15722358 -0.3525344 0.24706675 0.20152143 -0.15087582 0.00092315034
-0.13163018 0.25965676 0.47711676 -0.28140217 -0.44422618 0.14151171 0.21425056 0.15829308
-0.14310382 0.25183547 0.32337606 -0.31419426 -0.009679203 0.24195822 0.2428666 0.011461557
-0.56569666 -0.12467966 0.22359477 0.2297551 0.1627563 -0.7086938 -0.10554658 0.44034204
-0.38998935 0.04893948 0.18214 -0.21511254 -0.23232591 0.26081538 0.060020328 -0.32221177
-0.047509003 0.027916158 -0.31356922 -0.22055952 -0.5575618 0.0844733 0.24241942 0.65139574
-0.058676243 0.40134457 0.04542434 0.27087137 0.17682464 0.37572476 -0.2301887 -0.28216535
0.18170577 0.069578834 -0.093301915 -0.37953743 -0.6948914 -0.29241142 -0.22300974 -0.2283944
-0.21204516 0.25346383 -0.07602426 0.05600014 -0.14792219 0.16118407 -0.019100526 -0.19361618
-0.010256686 -0.24479184 0.26158983 -0.489489 0.124767676 0.44464076 -0.066517234 0.4368815
0.28521168 0.03196853 0.03227579 0.13088025 -0.20829926 -0.1470158 0.21266416 0.2450958
0.11318418 0.008993589 -0.15772778 -0.19650535 0.3492925 0.2208853 0.27569747 0.22108856
0.19523583 0.30583313 -0.20311129 0.17911191 0.21337022 0.19446528 -0.108897656 -0.3616785
0.016551357 -0.2474761 -0.37838882 -0.2922009 -0.15063883 0.089833945 0.23491073 0.59127086
0.2670628 -0.23010284 0.119841136 -0.18120186 -0.074700035 -0.021684747 0.20936385 0.04652714
0.46052712 0.06139382 0.116635576 -0.39539808 -0.4833636 -0.39285928 0.08411209 -0.20430663
-0.2993457 -0.2960459 -0.05029901 -0.21177702 -0.06968081 -0.25154987 0.31367433 -0.1387557
-0.22125205 -0.34538323 0.0051178383 -0.19783579 -0.23567034 -0.1530767 0.10484289 -0.42707452
0.39209995 0.45734274 -0.062034383 -0.035432156 0.14204836 -0.06862891 -0.1302583 0.30042282
0.06380732 0.16912635 0.2859776 -0.091700144 -0.29460156 -0.73864514 0.014010074 -0.5075115
0.17429325 -0.24528535 0.38831213 -0.061917204 -0.11572658 0.21913558 -0.14830062 0.14509012
0.18630292 0.38697538 -0.039602682 -0.05482043 -0.10860665 -0.17127979 0.24139905 0.2886752
0.33460885 0.65619713 -0.37038782 0.08761511 0.31400383 0.39223632 -0.3124427 0.06929649
0.04546147 0.058819294 0.0069390144 -0.21779427 0.45132512 0.09833938 0.38107008 0.42021194
00000000: 41ad 13bf 03a7 e13e e51c 89be 296c 50be
00000010: 4c9b 323d 3ea3 1bbf e7e5 edbe c76e 813e
00000020: 0c23 20bf 100e 503d 3a28 1abf 21f1 e9be
00000030: c238 313f 4fdc dcbd bb87 493f f408 f5be
00000040: fd80 2fbe 53e2 ecbe b349 80bd 8fe4 3c3e
00000050: b624 9abe 0d87 e73e 63fd bebe 23c2 353e
00000060: d6d6 69be d084 b2be 79dc c7be 0f66 66be
00000070: 0b41 4e3d 8124 be3d 4ba3 c13e 5219 2d3f
00000080: 7cd4 97bd b63b 713e 7599 a1be 8195 96be
00000090: adc0 083e 673a 5c3e c845 6dbe 14c4 b8be
000000a0: c1bd 92be 6b0f 3dbe 072f 8abe 30be 063d
000000b0: 8143 723f 4821 98be 5a79 2a3f a352 68be
000000c0: b737 b2bd 146b 07be b4cf 703e dd55 e0be
000000d0: 37d9 da3e b983 0e3b 727a 973e d2d6 0bbe
000000e0: 30a0 703e ae4e 5d3d 1f37 b93e 4dcd c5be
000000f0: ed10 9b3e f5bf 2cbe b02c c83d 2637 24be
00000100: 8b99 8bbe 4a1d c1be 38ff 203e 647f b4be
00000110: 11ff 7c3e a25b 4e3e 317f 1abe 92ff 713a
00000120: 10ca 06be bbf1 843e a648 f43e f213 90be
00000130: 9d71 e3be 72e8 103e 8064 5b3e 9517 223e
00000140: cf89 12be 94f0 803e 8c91 a53e 12de a0be
00000150: 8595 1ebc e5c3 773e 06b2 783e 41c9 3b3c
00000160: 7fd1 10bf 0d58 ffbd 07f6 643e ec44 6b3e
00000170: 96a9 263e f56c 35bf ce28 d8bd 8374 e13e
00000180: afac c7be c474 483d e882 3a3e 7646 5cbe
00000190: d8e6 6dbe 9889 853e e0d7 753d f1f8 a4be
000001a0: cd98 42bd 6db0 e43c 258c a0be 5bda 61be
000001b0: 5fbc 0ebf 5600 ad3d cc3c 783e dfc1 263f
000001c0: 8056 70bd 097d cd3e df0e 3a3d a7af 8a3e
000001d0: 8511 353e ff5e c03e 96b6 6bbe fa77 90be
000001e0: 1411 3a3e 597f 8e3d 1315 bfbd bb52 c2be
000001f0: 67e4 31bf f3b6 95be aa5c 64be 39e0 69be
00000200: 5e22 59be 03c6 813e 9bb2 9bbd 6760 653d
00000210: ea78 17be 700d 253e b578 9cbc 5243 46be
00000220: a90b 28bc b6aa 7abe 1aef 853e 4d9e fabe
00000230: 3286 ff3d f4a7 e33e 303a 88bd efae df3e
00000240: 4407 923e 6ff1 023d 9e33 043d 7905 063e
00000250: 674c 55be 4f8b 16be a2c4 593e 65fa 7a3e
00000260: 1bcd e73d d959 133c 6483 21be b338 49be
00000270: 77d6 b23e c22f 623e 3828 8d3e 0a65 623e
00000280: e7eb 473e 2996 9c3e 68fc 4fbe 1d69 373e
00000290: b97d 5a3e e821 473e bc05 dfbd ed2d b9be
000002a0: b696 873c 606a 7dbe 2ebc c1be 5b9b 95be
000002b0: 1141 1abe dcfa b73d 708c 703e 875d 173f
000002c0: 75bc 883e 14a0 6bbe 456f f53d fb8c 39be
000002d0: 55fc 98bd 36a4 b1bc 7a63 563e 3e93 3e3d
000002e0: 36ca eb3e 1678 7b3d a2de ee3d 9e71 cabe
000002f0: 6f7b f7be da24 c9be f642 ac3d c235 51be
00000300: d743 99be 5493 97be 5606 4ebd 13dc 58be
00000310: d0b4 8ebd 25cb 80be ec99 a03e f915 0ebe
00000320: e68f 62be 12d6 b0be 8ab3 a73b 7795 4abe
00000330: 9153 71be 23c0 1cbe deb7 d63d 83a9 dabe
00000340: 53c1 c83e d428 ea3e c417 7ebd 4f21 11bd
00000350: 2075 113e 508d 8cbd 6f62 05be 05d1 993e
00000360: 6aad 823d 752f 2d3e a86b 923e 49cd bbbd
00000370: 04d6 96be d917 3dbf 828a 653c 46ec 01bf
00000380: ee79 323e 152c 7bbe d9d0 c63e e59c 7dbd
00000390: 0f02 edbd 1465 603e 1edc 17be 8192 143e
000003a0: 31c6 3e3e a321 c63e 6c36 22bd 638b 60bd
000003b0: 2a6d debd f863 2fbe 5031 773e 3ccd 933e
000003c0: da51 ab3e 89fc 273f 79a3 bdbe 8d6f b33d
000003d0: 1cc5 a03e 33d3 c83e 7df8 9fbe 51eb 8d3d
000003e0: ce35 3a3d 80ec 703d ac60 e33b 7605 5fbe
000003f0: 1614 e73e 2866 c93d 9e1b c33e 0526 d73e

transformer.encoder.layers.0.self_attn.out_proj.bias f4 [16]
-0.078022644 -0.14423083 0.035830073 0.061283134 -0.0015085058 -0.026759107 -0.097597465 -0.20526996
-0.09372092 -0.09462861 -0.07914185 0.01760173 0.15956978 0.22215383 0.040924557 -0.03807369
00000000: 56ca 9fbd 3fb1 13be 8ec2 123d 0604 7b3d
00000010: 0eb9 c5ba ea35 dbbc 2ee1 c7bd 4a32 52be
00000020: c1f0 bfbd a5cc c1bd 1f15 a2bd 8131 903c
00000030: 4366 233e 4b7c 633e 82a0 273d 28f3 1bbd

transformer.encoder.layers.0.linear1.weight f4 [64, 16]
0.07210163 0.18080652 -0.19350155 0.12955001 -0.5631046 -0.26378235 0.033471018 -0.15855214
-0.0154188005 -0.047790814 -0.29336935 -0.51200366 -0.0780309 0.08524728 0.4292164 0.1610752
-0.78549826 0.2564178 -0.16753396 0.034952454 0.055451207 -0.068519466 0.4300307 0.0876864
0.19188687 0.06397667 -0.011575018 -0.24720255 0.018078603 0.19698437 0.18901986 0.059717007
0.11482801 0.020751996 -0.08373758 0.23499791 0.12881747 0.19291303 -0.23066145 0.21622719
-0.049089715 -0.04771454 -0.25653908 0.4614101 0.21638115 0.2110986 -0.04022441 0.046056755
-0.3231182 -0.13819629 -0.3319077 -0.04748434 -0.15706666 -0.022644235 0.06428724 -0.098922975
-0.18377428 -0.29066536 0.36578345 0.19354075 -0.13621895 0.3885482 0.19643678 0.17035131
-0.06834563 -0.023000007 -0.2708792 0.32382944 0.20381866 -0.008279025 0.15450503 0.10754512
-0.07961517 0.23799372 0.16542074 0.094278194 -0.2073153 -0.17832482 0.5425125 -0.4807817
-0.2618689 0.013721757 0.28137398 -0.24867432 0.31757745 -0.16049567 0.16363914 -0.057570003
-0.20827107 0.04319518 -0.023578856 0.1103603 -0.07412937 -0.15967673 0.15288916 0.10835354
0.20021312 -0.3662066 0.41413122 0.21048325 0.4146546 -0.17766842 -0.48575765 -0.12512727
-0.52486336 0.040556684 -0.9487707 0.15645124 0.6705016 -0.21971688 0.21845652 -0.018191537
-0.12202903 0.2648255 -0.5021667 -0.31190085 -0.11931587 0.121105336 0.11875858 -0.031631295
0.08214623 0.05179933 0.30575007 0.124304675 -0.1821582 -0.073086895 -0.3668873 -0.048021514
0.15853128 0.24368641 0.09543999 0.044404887 -0.03651731 0.24284069 -0.12057686 -0.18304028
-0.20548968 0.23608536 0.07867601 -0.2000451 0.36290532 0.029713022 0.42550877 0.15016368
-0.10309772 -0.3492257 -0.19578691 -0.054196708 -0.04261762 -0.20633213 -0.20735464 0.02071035
0.1424692 -0.08516676 -0.22207187 0.12120459 0.2948683 -0.3328557 -0.2759855 -0.033108354
-0.051285744 0.18867244 -0.25036162 0.046163917 -0.07802974 0.42000088 -0.06690081 0.03650389
-0.10968198 0.052335262 0.15120351 -0.307569 0.20619452 0.18614988 0.14819063 0.3589745
-0.20978296 -0.16276664 0.012238325 -0.021279719 0.12716362 0.03133772 0.14545372 0.7092478
-0.12375776 0.35799718 -0.037349746 0.19585489 0.043478254 0.12949516 -0.23748799 -0.07506292
0.022708254 -0.058814477 -0.19461657 -0.48431048 -0.10304603 -0.007883388 0.21202019 -0.14805508
0.093832485 -0.016539562 0.22699618 0.40932667 0.39921585 0.26408637 0.24006402 -0.12390577
-0.16341732 -0.082189456 -0.062162057 -0.088406764 -0.0024969552 0.01466958 -0.027761819 0.027319593
-0.06422111 -0.059263658 0.4488721 0.07174672 -0.11338401 0.32369533 -0.002683833 -0.1627461
-0.11098629 -0.14009023 -0.1361736 0.058821462 -0.31692463 -0.0045708804 -0.15398084 -0.20389281
-0.18141113 -0.2623774 -0.032580014 0.24245948 0.25157705 0.031569514 0.26307544 0.054235034
-0.17769703 -0.20669672 -0.29334974 -0.1477195 -0.16997123 -0.28594482 -0.056450207 0.35316148
-0.20438874 0.47765675 0.2508877 0.51711917 -0.4565342 0.18676649 -0.11610279 -0.16242285
00000000: 05aa 933d 5825 393e 4525 46be c2a8 043e
00000010: a027 10bf 7b0e 87be e818 093d 7e5b 22be
00000020: 239f 7cbc 4dc0 43bd 8234 96be ac12 03bf
00000030: aace 9fbd 2096 ae3d 41c2 db3e e6f0 243e
00000040: 6a16 49bf 3249 833e 068e 2bbe 4e2a 0f3d
00000050: ce20 633d ef53 8cbd fc2c dc3e ed94 b33d
00000060: fe7d 443e 3306 833d 25a5 3dbc aa22 7dbe
00000070: 9419 943c 45b6 493e 6c8e 413e d299 743d
00000080: f32a eb3d 1700 aa3c 9c7e abbd 4ba3 703e
00000090: bae8 033e fe8a 453e 8432 6cbe a96a 5d3e
000000a0: 4c12 49bd 5270 43bd 1759 83be f23d ec3e
000000b0: 0593 5d3e 3b2a 583e 5ac2 24bd 02a6 3c3d
000000c0: c06f a5be 5483 0dbe ceef a9be f07e 42bd
000000d0: 15d6 20be 6780 b9bc 07a9 833d 2198 cabd
000000e0: 532f 3cbe 17d2 94be f847 bb3e 8c2f 463e
000000f0: fb7c 0bbe caef c63e b926 493e 9370 2e3e
00000100: cbf8 8bbd 836a bcbc aeb0 8abe f9cc a53e
00000110: d7b5 503e bfa4 07bc 9136 1e3e 9e40 dc3d
00000120: 470d a3bd a0b4 733e 0e64 293e ed14 c13d
00000130: 764a 54be c89a 36be 19e2 0a3f 0529 f6be
00000140: ae13 86be 38d1 603c 4010 903e 7ba4 7ebe
00000150: 8399 a23e fa58 24be 0591 273e 86ce 6bbd
00000160: 0345 55be 6eed 303d 7228 c1bc 9504 e23d
00000170: 24d1 97bd 4c82 23be fa8e 1c3e 76e8 dd3d
00000180: ab04 4d3e 6e7f bbbe 0209 d43e ec88 573e
00000190: 9c4d d43e b6ee 35be 3ab5 f8be 5d21 00be
000001a0: 725d 06bf c41e 263d a3e2 72bf c134 203e
000001b0: fea5 2b3f 76fd 60be 11b3 5f3e 6b06 95bc
000001c0: 5bea f9bd 3597 873e ff8d 00bf 78b1 9fbe
000001d0: e15b f4bd 1306 f83d b337 f33d d18f 01bd
000001e0: 483c a83d 892b 543d 468b 9c3e 7393 fe3d
000001f0: ae87 3abe 95ae 95bd a7d8 bbbe 35b2 44bd
00000200: 0656 223e ee88 793e 0b76 c33d e6e1 353d
00000210: 2d93 15bd 3bab 783e 00f1 f6bd e96e 3bbe
00000220: e36b 52be 5cc0 713e e320 a13d 9fd8 4cbe
00000230: bace b93e b968 f33c 49dc d93e 82c4 193e
00000240: e624 d3bd b6cd b2be 5d7c 48be 5efd 5dbd
00000250: d08f 2ebd bb48 53be c654 54be c0a8 a93c
00000260: 72e3 113e e96b aebd cf66 63be 1d3a f83d
00000270: faf8 963e 106c aabe f94d 8dbe a09c 07bd
00000280: 0011 52bd 5933 413e 662f 80be 6016 3d3d
00000290: 0ece 9fbd 5b0a d73e 4b03 89bd 1a85 153d
000002a0: f2a0 e0bd 805d 563d 18d5 1a3e af79 9dbe
000002b0: a824 533e 139e 3e3e 49bf 173e 81cb b73e
000002c0: 58d1 56be 4cac 26be 4183 483c ce52 aebc
000002d0: 2e37 023e fb5b 003d d2f1 143e 4491 353f
000002e0: b574 fdbd 684b b73e 0cfc 18bd 2f8e 483e
000002f0: 4116 323d 619a 043e 0d30 73be 97ba 99bd
00000300: a906 ba3c 73e7 70bd 9149 47be 8bf7 f7be
00000310: cc09 d3bd 5329 01bc d21b 593e c09b 17be
00000320: 3f2b c03d fa7d 87bc b071 683e 4493 d13e
00000330: 0566 cc3e 5436 873e 58d3 753e 4fc2 fdbd
00000340: df56 27be f252 a8bd a49d 7ebd 9b0e b5bd
00000350: f5a3 23bb ae58 703c c16c e3bc 57cd df3c
00000360: 5b86 83bd 73be 72bd 90d2 e53e f2ef 923d
00000370: e035 e8bd 65bb a53e 3fe3 2fbb eaa6 26be
00000380: c84c e3bd d073 0fbe 1871 0bbe c6ee 703d
00000390: f243 a2be 53c7 95bb 27ad 1dbe 47c9 50be
000003a0: d7c3 39be 5556 86be 9f72 05bd 4c47 783e
000003b0: b5ce 803e 094f 013d d3b1 863e 8e25 5e3d
000003c0: 36f6 35be 4ea8 53be f031 96be c843 17be
000003d0: f00c 2ebe 5c67 92be 5538 67bd 95d1 b43e
000003e0: 484b 51be 6d8f f43e 5a74 803e ec61 043f
000003f0: dabe e9be b73f 3f3e 4dc7 edbd 2d52 26be

transformer.encoder.layers.0.linear1.bias f4 [64]
-0.27373132 -0.18196839 -0.10558267 0.050625745 -0.1659678 -0.061394654 0.038908724 -0.10018275
-0.14746541 0.094310366 0.01422153 0.13200778 -0.24068749 -0.13254452 0.25432837 0.11575652
0.08504961 -0.016504278 0.19937524 -0.12847696 -0.29004526 0.1841394 -0.093871094 0.03481079
0.07549557 -0.21664687 -0.108013384 0.13874082 -0.13122791 -0.28522357 -0.13352397 -0.10520746
0.23853397 0.03923888 -0.03468503 -0.2361413 -0.21401381 0.035016436 -0.11917457 0.14549157
0.09425419 0.17542696 -0.24519517 -0.31011182 0.1434881 0.14920959 -0.13066399 0.18501069
-0.0023195883 -0.24075224 0.06730849 0.10823325 0.022035556 -0.0863172 -0.17819928 0.2306535
0.0005317943 0.11813308 0.2300728 -0.1513503 0.093817465 -0.26526037 0.09648312 -0.15980963
00000000: 8326 8cbe ec55 3abe ba3b d8bd f15c 4f3d
00000010: 77f3 29be f678 7bbd c15e 1f3d 9d2c cdbd
00000020: 2c01 17be cb25 c13d 6c01 693c 0c2d 073e
00000030: c876 76be c0b9 07be 5437 823e c111 ed3d
00000040: 7d2e ae3d fb33 87bc 0629 4c3e 778f 03be
00000050: d080 94be 0a8f 3c3e 7d3f c0bd c295 0e3d
00000060: 6c9d 9a3d add8 5dbe 1f36 ddbd 1312 0e3e
00000070: 9c60 06be d308 92be 82ba 08be 0277 d7bd
00000080: 4042 743e f3b8 203d e411 0ebd 06cf 71be
00000090: 7026 5bbe 656d 0f3d cc11 f4bd befb 143e
000000a0: 5708 c13d 20a3 333e 7114 7bbe fac6 9ebe
000000b0: 8bee 123e 66ca 183e c8cc 05be 7173 3d3e
000000c0: 3c04 18bb c187 76be 09d9 893d 65a9 dd3d
000000d0: e983 b43c 12c7 b0bd df79 36be 6e30 6c3e
000000e0: 1d68 0b3a c2ef f13d 3498 6b3e 93fb 1abe
000000f0: 5f23 c03d 35d0 87be f198 c53d 23a5 23be

transformer.encoder.layers.0.linear2.weight f4 [16, 64]
0.36975694 0.50532496 -0.07211751 0.17683081 -0.21258044 0.42465886 -0.50427383 0.05204445
-0.28331605 0.18172674 -0.09963167 0.05177244 0.17892231 0.21363084 -0.2564661 -0.21562086
-0.24656413 -0.25585115 -0.14658937 0.12170485 -0.06139934 0.26602304 -0.1705586 -0.213335
-0.51747394 -0.10765793 -0.175334 0.07899207 -0.003726048 -0.060686715 0.053360768 0.1219661
0.1538874 -0.12197019 -0.02735286 0.2610563 0.16969721 -0.10115006 0.004062471 0.13739616
-0.039924923 -0.11499304 -0.3491019 0.2261039 -0.08024592 0.05760784 -0.12862699 -0.06136934
-0.22685017 -0.1635278 0.25107053 0.008997558 0.008145141 -0.1435704 0.34031036 0.17272645
0.065351516 0.24075523 0.36483252 -0.1724618 0.035393313 0.12333613 0.3681313 0.18585826
-0.087727845 0.07609692 -0.26517907 0.003078557 0.25792447 0.1642512 0.49363858 0.19265759
-0.20462267 0.070725426 -0.10873933 -0.096495554 0.12251767 -0.008168676 -0.5260851 0.041233934
-0.23249774 -0.1909178 -0.12159547 0.249965 0.07561525 0.012053659 -0.12805636 -0.10801888
0.15077548 0.1904572 -0.18628845 -0.11257489 -0.2979667 -0.14168394 0.22067086 -0.038751133
0.07509499 -0.0421967 -0.14813977 -0.092129774 -0.1451651 -0.24042667 0.015277911 -0.34585026
0.24105543 -0.04200845 -0.21425033 0.22368939 -0.3733646 0.26679423 -0.07069632 -0.12809162
0.25663033 0.012065217 0.13622205 -0.08998406 0.004114402 0.18639673 -0.49349162 -0.04561803
-0.34065425 0.047417134 0.081369676 0.05891451 0.1491801 0.3184398 0.27626958 -0.15574005
0.13567446 -0.005959063 -0.22093037 -0.10899881 -0.037487723 -0.10396884 0.017067978 -0.22729269
0.2006699 -0.015806876 -0.058509197 0.15731432 -0.24302436 0.118543856 0.121822484 0.13220602
-0.0010636887 -0.21481876 -0.16259414 0.07061469 -0.005457572 0.099871315 -0.064348094 0.27435973
0.38003352 -0.019896258 0.036008414 0.17053467 -0.027141726 0.31290475 -0.116021864 0.05665466
0.15672119 -0.051690444 0.27560216 -0.16748935 -0.07085801 0.09920025 0.26123393 -0.002351654
0.1684412 -0.13690041 -0.16229628 0.2069493 -0.029007649 0.014986488 -0.20529476 0.1323989
0.28512633 0.20221256 -0.2056859 -0.06702731 0.26575905 0.08609118 0.07453043 0.18355113
0.00069388386 -0.26408002 0.10423664 0.19174494 0.27611038 -0.059356153 0.32402965 -0.18153487
0.052680153 0.17126894 -0.22932649 0.11359144 0.04823 -0.083922535 0.39777225 -0.29900894
-0.11516123 -0.105335936 0.24434774 -0.15224198 -0.18293941 -0.015758898 0.19214955 -0.13807671
0.29937735 0.026940435 0.037646312 -0.056253966 0.0353896 -0.08452298 -0.011939512 0.12727849
-0.039141543 -0.016842987 -0.15419328 -0.67008364 -0.081707396 -0.3330175 -0.015478285 0.15862697
0.00297562 0.0020336483 0.07523579 -0.6870266 -0.103539936 -0.044925235 0.013491664 0.09853655
-0.09909699 -0.16940477 -0.19185397 -0.042855944 0.0074496693 0.1049794 0.25690603 0.10061624
-0.38595924 -0.14702216 0.06520655 -0.121525206 -0.15078256 -0.17121358 0.031990923 -0.22296627
0.084649846 0.39206225 -0.10774256 -0.275844 0.0146540655 0.06528946 -0.1539087 0.18156387
00000000: c850 bd3e fa5c 013f 58b2 93bd 2313 353e
00000010: b0ae 59be e36c d93e 1718 01bf 902c 553d
00000020: cd0e 91be 9316 3a3e b00b ccbd 570f 543d
00000030: 6937 373e 0bc2 5a3e 864f 83be b7cb 5cbe
00000040: 4f7b 7cbe ecfe 82be 861b 16be 6440 f93d
00000050: e07d 7bbd 2c34 883e eaa6 2ebe 7e74 5abe
00000060: 2c79 04bf c37b dcbd c28a 33be 98c6 a13d
00000070: b630 74bb a292 78bd d290 5a3d 5dc9 f93d
00000080: a994 1d3e 82cb f9bd 1b13 e0bc 2ca9 853e
00000090: 1bc5 2d3e c327 cfbd 7a1e 853b 94b1 0c3e
000000a0: 5188 23bd 7981 ebbd 7cbd b2be c887 673e
000000b0: f957 a4bd 33f6 6b3d cbb6 03be 6b5e 7bbd
000000c0: 694b 68be d573 27be 518c 803e 7e6a 133c
000000d0: 3373 053c 1e04 13be 293d ae3e 34df 303e
000000e0: 04d7 853d 8a88 763e 54cb ba3e d399 30be
000000f0: 94f8 103d a797 fc3d b57b bc3e a151 3e3e
00000100: a8aa b3bd b4d8 9b3d 8dc5 87be 9ec1 493b
00000110: ad0e 843e 7731 283e 32be fc3e 0848 453e
00000120: 9b88 51be 7ed8 903d bab2 debd 769f c5bd
00000130: 8bea fa3d e9d5 05bc 83ad 06bf eae4 283d
00000140: e313 6ebe f57f 43be 0c07 f9bd d3f6 7f3e
00000150: 2bdc 9a3d b67c 453c 3521 03be 0139 ddbd
00000160: e364 1a3e 3607 433e 66c2 3ebe aa8d e6bd
00000170: 178f 98be 9815 11be 8bf7 613e 82b9 1ebd
00000180: 67cb 993d 72d6 2cbd f4b1 17be 89ae bcbd
00000190: 29a6 14be 6932 76be 3450 7a3c 4913 b1be
000001a0: 3cd7 763e 0d11 2cbd 7064 5bbe d50e 653e
000001b0: a529 bfbe 4199 883e 3bc9 90bd 732a 03be
000001c0: 0d65 833e 30ad 453c cb7d 0b3e 9049 b8bd
000001d0: 1bd2 863b c9de 3e3e efaa fcbe f9d9 3abd
000001e0: 3c6a aebe 7838 423d 25a5 a63d 5750 713d
000001f0: abc2 183e 8b0a a33e 3573 8d3e 527a 1fbe
00000200: 3fee 0a3e 3e44 c3bb 923b 62be c53a dfbd
00000210: ba8c 19bd 9ded d4bd 25d2 8b3c 6abf 68be
00000220: 697c 4d3e 6c7d 81bc 57a7 6fbd 0117 213e
00000230: 61db 78be 1fc7 f23d 117e f93d 0461 073e
00000240: 786b 8bba 73f9 5bbe 147f 26be 6f9e 903d
00000250: 6fd5 b2bb 5589 cc3d efc8 83bd e178 8c3e
00000260: c193 c23e 7afd a2bc 8f7d 133d a4a0 2e3e
00000270: 5358 debc 0d35 a03e df9c edbd b70e 683d
00000280: 857b 203e 5cb9 53bd ba1b 8d3e 5482 2bbe
00000290: 011e 91bd 8029 cb3d 74c0 853e 351e 1abb
000002a0: da7b 2c3e 9f2f 0cbe ff30 26be 84ea 533e
000002b0: 73a1 edbc e389 753c ca38 52be 9493 073e
000002c0: 14fc 913e cf10 4f3e 539f 52be 9d45 89bd
000002d0: 9211 883e 9350 b03d 69a3 983d d4f4 3b3e
000002e0: c2e5 353a 7f35 87be 057a d53d c958 443e
000002f0: 575e 8d3e 701f 73bd 37e7 a53e 47e4 39be
00000300: 25c7 573d 2061 2f3e 90d4 6abe a1a2 e83d
00000310: d28c 453d 94df abbd cea8 cb3e b317 99be
00000320: a7d9 ebbd 5eba d7bd 4b36 7a3e 52e5 1bbe
00000330: 7854 3bbe ce18 81bc dac2 443e fb63 0dbe
00000340: fd47 993e 30b2 dc3c 0533 1a3d 8f6a 66bd
00000350: aff4 103d 621a adbd f19d 43bc 4b55 023e
00000360: e252 20bd 4efa 89bc d8e4 1dbe 9a8a 2bbf
00000370: 3556 a7bd 4581 aabe a298 7dbc 1c6f 223e
00000380: 9f02 433b f546 053b 3915 9a3d fae0 2fbf
00000390: bf0c d4bd 8603 38bd 240c 5d3c 88cd c93d
000003a0: 5df3 cabd 7278 2dbe 5e75 44be b789 2fbd
000003b0: 5b1c f43b 71ff d63d 3089 833e e30f ce3d
000003c0: 739c c5be fa8c 16be 038b 853d 35e2 f8bd
000003d0: be66 1abe 9d52 2fbe ea08 033d 4551 64be
000003e0: e65c ad3d 62bc c83e 22a8 dcbd 6d3b 8dbe
000003f0: 9b17 703c 7bb6 853d 3e9a 1dbe e1eb 393e

transformer.encoder.layers.0.linear2.bias f4 [16]
0.008605471 0.010289718 0.1504636 0.12280124 -0.16374601 -0.11412682 -0.035025213 0.020668712
-0.10312538 0.0076101404 -0.08683111 0.01054576 0.12126174 0.103388175 0.0035053617 -0.03304105
00000000: f6fd 0c3c 3596 283c 2113 1a3e 377f fb3d
00000010: 09ad 27be 52bb e9bd 9976 0fbd 6e51 a93c
00000020: 6633 d3bd 7c5e f93b 82d4 b1bd 20c8 2c3c
00000030: 1358 f83d 2ebd d33d 36ba 653b 0d56 07bd

transformer.encoder.layers.0.norm1.weight f4 [16]
0.92992026 0.74341094 1.1940804 1.0868026 0.97886026 0.9457658 0.8099585 0.90538275
0.8714349 1.1310344 1.3454416 0.944087 1.2463685 0.8186825 1.1686668 0.99835753
00000000: 410f 6e3f 2e50 3e3f a0d7 983f 591c 8b3f
00000010: 9696 7a3f b51d 723f 7159 4f3f 2ac7 673f
00000020: 5c16 5f3f bcc5 903f 6e37 ac3f b0af 713f
00000030: 0189 9f3f 2d95 513f e096 953f 5c94 7f3f

transformer.encoder.layers.0.norm1.bias f4 [16]
0.09633394 -0.025137894 0.043588262 0.060040023 0.005862353 0.0499328 0.01916926 7.7334014e-05
-0.0886163 -0.0022360736 -0.10279563 -0.04504423 0.0778994 -0.04041771 0.052561663 -0.04107697
00000000: bb4a c53d fced cdbc 9b89 323d 87ec 753d
00000010: fb18 c03b 5686 4c3d da08 9d3c 622e a238
00000020: 767c b5bd 178b 12bb 8486 d2bd 4c80 38bd
00000030: b889 9f3d 0a8d 25bd e64a 573d 5340 28bd

transformer.encoder.layers.0.norm2.weight f4 [16]
0.9320606 0.93838936 0.97946495 1.0604401 1.0278432 0.9394539 1.11759 0.898295
1.0426662 1.0394044 1.1805186 0.9787202 1.0995537 1.0602453 0.9309728 0.8772709
00000000: 869b 6e3f 493a 703f 37be 7a3f 80bc 873f
00000010: 5e90 833f 0d80 703f 300d 8f3f a9f6 653f
00000020: 1676 853f 340b 853f 3c1b 973f 688d 7a3f
00000030: 2dbe 8c3f 1eb6 873f 3c54 6e3f d394 603f

transformer.encoder.layers.0.norm2.bias f4 [16]
0.013399385 0.0070818537 0.018452002 0.07705258 -0.12782855 0.049856197 -0.03565807 -0.03629113
-0.04774795 0.050929736 0.0042810515 -0.06366866 0.062287234 -0.03752053 0.05978405 -0.03107395
00000000: 1889 5b3c e50e e83b a728 973c becd 9d3d
00000010: 7de5 02be 0336 4c3d 320e 12bd 02a6 14bd
00000020: 5b93 43bd b39b 503d 1048 8c3b b764 82bd
00000030: e620 7f3d 21af 19bd 1fe0 743d cc8e febc

transformer.encoder.layers.1.self_attn.in_proj_weight f4 [48, 16]
0.25112885 0.20445527 -0.103451654 0.23890983 0.059311178 -0.35671163 -0.1528757 0.086714976
-0.080580086 -0.08888734 -0.039403018 -0.117244184 0.25145635 -0.12203513 0.39777356 -0.14086102
-0.2322945 -0.20663862 -0.3635493 -0.061301038 0.111461006 -0.08082942 -0.17128794 -0.11442955
0.31542197 -0.1491967 0.27205223 0.0015452246 -0.14702056 -0.4140981 0.101933666 -0.1286661
-0.010538466 -0.26482323 0.3685729 -0.08117575 -0.09072232 -0.07918407 0.12291212 -0.055083632
-0.33818862 -0.42808747 0.1797311 0.06724968 0.33259103 0.04147847 0.11678075 0.08578653
0.002619835 0.43940145 0.07240897 -0.0009854155 0.2516644 0.30680534 -0.056680605 0.12521553
-0.14374682 -0.03557224 0.04873053 0.21421348 0.19120291 -0.23904264 0.0065434934 0.31315282
-0.0496374 0.12770373 -0.367536 -0.20883225 -0.072583735 0.22675246 0.058877256 -0.1367352
-0.08034693 0.1484366 -0.3805203 0.14223419 0.2106164 0.10977788 -0.0057451627 0.10299009
-0.012897158 -0.07707424 0.20985875 -0.24909239 -0.20276184 0.18299316 0.10863044 -0.33897117
0.19302016 0.20768443 0.018874284 0.086014464 -0.12184026 0.17261866 -0.41673404 -0.062677175
-0.21520956 0.116544925 0.1472518 0.014461254 0.23889033 0.023649475 -0.14736591 0.04244016
0.20591122 0.091327436 0.4041635 0.027148347 -0.16685137 0.11094154 -0.023739925 0.005893404
0.054580085 0.12105039 0.23589931 -0.0021010202 -0.08436831 -0.20013008 0.3539732 -0.012586536
-0.2237369 -0.113066055 -0.30420947 -0.08308474 0.13996825 0.28759766 -0.08023633 -0.028330354
-0.18335341 0.044364776 -0.087666914 -0.21249337 0.079514846 0.22591536 0.29013792 0.020860441
-0.13886294 0.23135749 0.19309492 0.17642207 -0.15584624 -0.23932572 0.25110048 -0.11760828
0.33997107 -0.33539122 -0.0042691575 -0.11990637 -0.23628703 0.23579311 -0.044323 0.00082337006
-0.06377964 -0.039859395 0.22880909 0.28533763 0.2825417 -0.21112096 0.10872933 -0.12921432
0.045971353 0.45404443 -0.062857166 -0.052853867 0.2554475 -0.2928643 0.30315906 -0.0019409329
-0.29307887 0.1733532 -0.08969111 0.11282415 -0.24804333 -0.06944079 0.20240249 -0.06803851
-0.034959614 -0.2925521 -0.014485664 -0.3135483 0.12491396 -0.07834863 -0.21478616 0.04910314
0.06282425 0.1702222 0.06851758 -0.075001 -0.08475876 0.18932758 -0.40549242 0.023412399
0.14170772 0.16389722 -0.042178504 0.37180036 0.0682787 -0.35956022 -0.088407315 0.23422249
-0.29893467 0.09845852 0.2362005 -0.14512128 0.17413476 -0.15892963 0.19140092 -0.2559068
-0.112801574 -0.014000295 -0.29459843 0.29157448 0.07771265 0.13468437 -0.117429495 0.19937058
0.14426766 0.52686924 -0.15038893 0.11547572 0.07999879 0.023650285 0.015357029 -0.24760768
0.07789582 -0.61085033 0.06867249 0.16831312 -0.20298342 0.24452038 0.01307011 0.15649319
-0.16038185 -0.046061058 0.49997213 0.26669866 0.2800083 0.30471754 0.049818892 0.085322306
0.21862283 -0.45940447 -0.1863147 -0.23952533 -0.23732184 0.20416656 0.19452472 -0.15192991
0.47387427 0.16061445 -0.024601772 0.28948712 0.0446475 0.40141767 0.087913305 0.18239287
00000000: f693 803e b95c 513e 76de d3bd c7a4 743e
00000010: 47f0 723d e8a2 b6be 738b 1cbe 9f97 b13d
00000020: 2c07 a5bd 910a b6bd 0f65 21bd b81d f0bd
00000030: e3be 803e 8eed f9bd faa8 cb3e df3d 10be
00000040: 9cde 6dbe 1399 53be 2223 babe cc16 7bbd
00000050: ab45 e43d e589 a5bd 1b66 2fbe 0a5a eabd
00000060: fd7e a13e 05c7 18be 6e4a 8b3e 2289 ca3a
00000070: 8f8c 16be ab04 d4be 99c2 d03d 0cc1 03be
00000080: 88a9 2cbc e996 87be 96b5 bc3e 793f a6bd
00000090: a0cc b9bd 422b a2bd 59b9 fb3d 609f 61bd
000000a0: 0f27 adbe 482e dbbe 6e0b 383e 33ba 893d
000000b0: 5f49 aa3e 54e5 293d bf2a ef3d d9b0 af3d
000000c0: 8ab1 2b3b 3af9 e03e 274b 943d 0f29 81ba
000000d0: 28da 803e 9715 9d3e ec29 68bd 8038 003e
000000e0: 5e32 13be 32b4 11bd aa99 473d c75a 5b3e
000000f0: b2ca 433e 98c7 74be cd6a d63b 9155 a03e
00000100: 9650 4bbd c4c4 023e ae2d bcbe 1fd8 55be
00000110: c8a6 94bd cc31 683e 4729 713d 5004 0cbe
00000120: ee8c a4bd c4ff 173e 8fd3 c2be d7a5 113e
00000130: d3ab 573e 3ad3 e03d eb41 bcbb 78ec d23d
00000140: 9a4e 53bc 19d9 9dbd 36e5 563e 1312 7fbe
00000150: cda0 4fbe 8f62 3b3e a379 de3d a18d adbe
00000160: 14a7 453e 3aab 543e 3e9e 9a3c 5a28 b03d
00000170: 6387 f9bd f2c2 303e 2a5e d5be e45c 80bd
00000180: e55f 5cbe 1baf ee3d 2dc9 163e e5ee 6c3c
00000190: ab9f 743e 8bbc c13c 17e7 16be bcd5 2d3d
000001a0: 64da 523e e109 bb3d 85ee ce3e 3666 de3c
000001b0: 16db 2abe 5135 e33d 3b7a c2bc 751d c13b
000001c0: 5e8f 5f3d 44e9 f73d 978f 713e 45b1 09bb
000001d0: 4bc9 acbd e6ee 4cbe fa3b b53e c237 4ebc
000001e0: 491b 65be 2d8f e7bd 58c1 9bbe 5528 aabd
000001f0: d653 0f3e 0040 933e f252 a4bd 0f15 e8bc
00000200: ffc0 3bbe d7b7 353d b68a b3bd dd97 59be
00000210: aed8 a23d 5b56 673e f58c 943e 84e3 aa3c
00000220: 1632 0ebe fae8 6c3e adba 453e fda7 343e
00000230: 2896 1fbe cd11 75be 3e90 803e 9cdc f0bd
00000240: b010 ae3e 66b8 abbe 4ae4 8bbb 7991 f5bd
00000250: 3af5 71be c073 713e 098c 35bd 6ed7 573a
00000260: e69e 82bd 9b43 23bd ee4c 6a3e c617 923e
00000270: 4ea9 903e 1830 58be 7cad de3d c250 04be
00000280: 754c 3c3d 8378 e83e 42bb 80bd 4c7d 58bd
00000290: 04ca 823e 4ff2 95be aa37 9b3e e766 feba
000002a0: 6f0e 96be 8083 313e f9af b7bd 5910 e73d
000002b0: 12ff 7dbe f936 8ebd 9942 4f3e c657 8bbd
000002c0: d031 0fbd 64c9 95be 4755 6dbc 6789 a0be
000002d0: e4d2 ff3d 3f75 a0bd e7f0 5bbe 6020 493d
000002e0: 00aa 803d ba4e 2e3e f252 8c3d 209a 99bd
000002f0: 0096 adbd 17df 413e b49c cfbe 5ccb bf3c
00000300: d41b 113e acd4 273e 5ec3 2cbd 9e5c be3e
00000310: b4d5 8b3d 4718 b8be e50e b5bd 05d8 6f3e
00000320: f70d 99be 9fa4 c93d 8bde 713e ac9a 14be
00000330: 6250 323e 73be 22be 9afe 433e 3706 83be
00000340: 8304 e7bd 7e61 65bc 9bd5 96be 4049 953e
00000350: cf27 9f3d b3ea 093e e07e f0bd cd27 4c3e
00000360: e7ba 133e e7e0 063f 8eff 19be 897e ec3d
00000370: 68d6 a33d 3ebe c13c 0c9c 7b3c de8c 7dbe
00000380: d887 9f3d b060 1cbf 2aa4 8c3d 465a 2c3e
00000390: e3da 4fbe 8d63 7a3e 0424 563c c03f 203e
000003a0: 243b 24be 85aa 3cbd 59fc ff3e ba8c 883e
000003b0: 3f5d 8f3e f003 9c3e e50e 4c3d 76bd ae3d
000003c0: aade 5f3e 1037 ebbe 48c9 3ebe 2146 75be
000003d0: 7f04 73be 0a11 513e 7d31 473e 8493 1bbe
000003e0: a69f f23e 1d78 243e a889 c9bc a837 943e
000003f0: 4ce0 363d 9e86 cd3e e40b b43d 32c5 3a3e

transformer.encoder.layers.1.self_attn.in_proj_bias f4 [48]
0.3833289 -0.12848957 0.18896312 0.033373367 -0.13399345 -0.33047006 -0.03866817 0.07904586
-0.12219979 -0.054257948 0.13118929 -0.022081714 0.22033675 -0.09113171 0.10046986 -0.25208336
-0.06432955 -0.02171321 0.025409281 0.023841249 -0.054180056 -0.059294473 0.045433402 0.003770709
0.079845645 -0.069889314 0.062164076 -0.016033648 0.04421906 -0.042760905 -0.044129614 -0.07172623
-0.06977709 -0.0736424 0.07050222 -0.004418209 0.046502884 0.052585356 0.04380102 -0.0059371353
-0.0987743 -0.096946925 -0.049897455 -0.11415092 0.15235482 0.05356647 -0.11507711 -0.10641382
00000000: b043 c43e c592 03be 8c7f 413e 83b2 083d
00000010: 9435 09be 5f33 a9be 8462 1ebd cce2 a13d
00000020: e243 fabd 953d 5ebd 7c56 063e b6e4 b4bc
00000030: f59f 613e 43a3 babd 24c3 cd3d 1211 81be
00000040: 36bf 83bd e7df b1bc 2027 d03c b94e c33c
00000050: e8eb 5dbd c3de 72bd 6018 3a3d 001e 773b
00000060: 1d86 a33d 2122 8fbd c29f 7e3d ff58 83bc
00000070: 0c1f 353d 0f26 2fbd 41c1 34bd 34e5 92bd
00000080: 4ae7 8ebd d4d1 96bd 7863 903d a0c6 90bb
00000090: cf79 3e3d be63 573d b368 333d 4d8c c2bb
000000a0: 2e4a cabd 1c8c c6bd 4661 4cbd f5c7 e9bd
000000b0: e702 1c3e 8468 5b3d 8cad ebbd 7def d9bd

transformer.encoder.layers.1.self_attn.out_proj.weight f4 [16, 16]
0.114964254 0.04778335 -0.7463546 0.1801448 0.27423257 -0.03181743 0.16037448 -0.50435865
-0.38883018 -0.23631896 -0.5643988 -0.54642737 -0.06350028 0.08139847 -0.04451671 0.18161538
0.19169198 0.090497084 -0.2576704 0.37977797 -0.09086969 -0.41258085 -0.5016906 0.08949977
-0.40336943 -0.104896754 0.14771962 0.33381552 0.29701525 -0.123910606 -0.22194506 0.15620033
-0.12001803 -0.34496632 0.10065171 0.011278599 0.3935321 0.15891223 0.27631953 -0.11965908
-0.04920052 0.0073612924 0.11885194 -0.20367777 0.21873446 -0.16865948 -0.15012561 -0.089883864
0.44217628 0.1032825 -0.25058404 -0.19155107 0.46553588 0.020432215 -0.025564533 0.008422795
0.20913716 0.103789255 -0.2637038 0.22924845 -0.16390555 0.0961125 0.31821615 -0.11377062
-0.08610081 0.40204716 0.22702962 -0.36429858 0.06457288 0.24235865 0.62303674 0.24247028
-0.31143382 0.0022297446 -0.13778512 0.019462664 0.31283838 -0.23153333 -0.1758034 0.26810387
-0.040492095 -0.21005763 -0.099953175 -0.32917646 -0.2391597 0.01535276 -0.5218609 -0.22502466
0.132132 0.24293955 -0.08294533 0.23887141 -0.16595715 -0.1904402 0.073688366 0.045439128
0.11866381 -0.28682268 0.050364684 0.26257393 -0.18738398 -0.27369732 -0.0071556494 0.1039011
0.25652003 -0.021071153 -0.2118406 0.4717476 0.080817744 0.21541034 -0.30513513 0.19515094
0.14544857 -0.15332228 -0.09048799 -0.09052476 0.27460152 0.5411766 0.14059064 -0.41217336
-0.38581017 -0.35741857 0.22926572 0.26952595 0.39102247 0.4639319 0.008241709 0.58405286
-0.17712995 0.06023015 0.11840424 0.10794061 -0.18685278 -0.13170297 0.10339035 0.08931362
-0.049754232 0.38690174 -0.14447369 -0.500483 0.24200484 -0.045801755 -0.12561607 -0.36809367
0.20905785 0.24158652 -0.011649651 -0.087721325 -0.24088807 -0.12225016 -0.12128263 0.06267462
-0.33962113 0.22477606 -0.23987599 -0.23196396 -0.17035468 -0.1629314 -0.0010986237 -0.3235152
0.18091443 0.09952527 -0.033758033 -0.24156642 0.18016541 0.1791874 -0.26336136 -0.09872311
-0.15833586 -0.14891414 0.35506383 -0.31170142 0.27318552 0.27588755 -0.3322443 0.059832115
-0.34589395 0.20009904 0.05624321 -4.485861e-06 0.28978026 -0.019161817 -0.6993189 -0.02363718
-0.1884785 -0.4469201 0.12186373 -0.21036303 0.067947924 0.34747443 -0.22212076 0.26764148
0.28724706 0.16832775 -0.09651679 0.12853502 0.23443069 0.14175089 0.32194695 0.33851817
-0.45313442 -0.10714942 0.14090411 0.3335316 0.232211 0.2260305 0.19465473 0.094997086
-0.1978278 0.07936543 -0.30919403 0.5501704 -0.34625676 -0.0982617 -0.24339703 0.043657314
-0.013829814 -0.054441232 -0.15448476 -0.09913993 -0.1765777 -0.44795516 0.32626072 -0.06639717
0.029855223 -0.12889276 -0.1933114 -0.24811704 0.004462841 0.2726219 0.2889175 -0.43444347
-0.3266267 0.46140864 -0.17789313 0.28408808 -0.40649432 -0.32853746 -0.36654103 0.014358505
0.6205497 -0.17272544 -0.069583714 -0.021451661 -0.046137378 0.45536304 -0.036202148 0.33241853
-0.25322202 0.33572868 0.092372775 0.0029311301 -0.30942434 0.37226963 -0.030565424 -0.45700958
00000000: 6172 eb3d 79b8 433d 1811 3fbf e177 383e
00000010: 3668 8c3e fe52 02bd 3539 243e a61d 01bf
00000020: c014 c7be 99fd 71be 717c 10bf aae2 0bbf
00000030: 6f0c 82bd 3eb4 a63d 2757 36bd 62f9 393e
00000040: e74a 443e 8956 b93d 60ed 83be 4272 c23e
00000050: e319 babd cc3d d3be cc6e 00bf a84b b73d
00000060: 7086 cebe 1cd4 d6bd d043 173e dee9 aa3e
00000070: 6212 983e d8c4 fdbd 9145 63be fbf2 1f3e
00000080: 03cc f5bd 6d9f b0be 7c22 ce3d dfc9 383c
00000090: 0a7d c93e e3b9 223e c179 8d3e d20f f5bd
000000a0: 7c86 49bd ff36 f13b a568 f33d e890 50be
000000b0: edfb 5f3e 12b5 2cbe 87ba 19be 0815 b8bd
000000c0: ee64 e23e c685 d33d 8d4c 80be f725 44be
000000d0: b85a ee3e 7661 a73c b66c d1bc c3ff 093c
000000e0: 0d28 563e 768f d43d 2f04 87be 1bc0 6a3e
000000f0: dbd6 27be a1d6 c43d 3aed a23e 9200 e9bd
00000100: 9f55 b0bd 20d9 cd3e 747a 683e 5885 babe
00000110: c93e 843d de2c 783e 567f 1f3f 214a 783e
00000120: 4174 9fbe e820 123b 8b17 0dbe 2a70 9f3c
00000130: 5a2c a03e 1317 6dbe ce05 34be e944 893e
00000140: 0adb 25bd 5919 57be 40b4 ccbd d189 a8be
00000150: 48e6 74be 258a 7b3c ad98 05bf dd6c 66be
00000160: 9c4d 073e 25c5 783e 3edf a9bd b59a 743e
00000170: acf0 29be c102 43be ede9 963d 611e 3a3d
00000180: 0306 f33d 6cda 92be 334b 4e3d 1770 863e
00000190: 96e1 3fbe 0e22 8cbe f079 eabb 1aca d43d
000001a0: 9856 833e 699d acbc beec 58be e788 f13e
000001b0: c683 a53d 8794 5c3e ac3a 9cbe a6d5 473e
000001c0: 78f0 143e 8400 1dbe c451 b9bd 0c65 b9bd
000001d0: 9298 8c3e 8d8a 0a3f fef6 0f3e 6308 d3be
000001e0: e988 c5be 91ff b6be a2c4 6a3e 4eff 893e
000001f0: 1934 c83e 7b88 ed3e 3c08 073c 7d84 153f
00000200: 8e61 35be e4b3 763d ec7d f23d f70f dd3d
00000210: 5656 3fbe 25dd 06be 52be d33d 0fea b63d
00000220: 18cb 4bbd fc17 c63e e9f0 13be a71f 00bf
00000230: 1ed0 773e 9f9a 3bbd 80a1 00be c676 bcbe
00000240: 4313 563e 7562 773e 2ede 3ebc 3da7 b3bd
00000250: 5dab 76be 4b5e fabd 0763 f8bd 8d5b 803d
00000260: d2e2 adbe b22b 663e 0da2 75be f687 6dbe
00000270: 7571 2ebe 7dd7 26be b2ff 8fba c9a3 a5be
00000280: a241 393e e8d3 cb3d dd45 0abd 305d 77be
00000290: 487d 383e e77c 373e 4dd7 86be 582f cabd
000002a0: cc22 22be f37c 18be edca b53e 5497 9fbe
000002b0: f9de 8b3e 2241 8d3e ed1b aabe 8512 753d
000002c0: 0319 b1be c3e6 4c3e 485f 663d 4185 96b6
000002d0: 145e 943e 3ef9 9cbc 9006 33bf c2a2 c1bc
000002e0: 8200 41be b6d2 e4be b193 f93d 6869 57be
000002f0: 4828 8b3d 2be8 b13e a073 63be 4e08 893e
00000300: 0c12 933e 1c5e 2c3e 98aa c5bd af9e 033e
00000310: 990e 703e 2527 113e 3bd6 a43e 4152 ad3e
00000320: 3c01 e8be 2871 dbbd 2b49 103e a7c4 aa3e
00000330: b8c8 6d3e 8a74 673e 9253 473e d58d c23d
00000340: 5f93 4abe 588a a23d ae4e 9ebe f8d7 0c3f
00000350: 9148 b1be 6e3d c9bd 123d 79be 03d2 323d
00000360: 7296 62bc c5fd 5ebd 4131 1ebe e009 cbbd
00000370: c9d0 34be 615a e5be a50b a73e 3dfb 87bd
00000380: f192 f43c 77fc 03be 6cf3 45be 6512 7ebe
00000390: 063d 923b 1995 8b3e ffec 933e 606f debe
000003a0: 9d3b a7be c13d ec3e 9e29 36be fe73 913e
000003b0: 0620 d0be 1036 a8be 44ab bbbe ef3f 6b3c
000003c0: 58dc 1e3f f0de 30be e881 8ebd 65bb afbc
000003d0: 8cfa 3cbd 5825 e93e b448 14bd c332 aa3e
000003e0: 51a6 81be a1e4 ab3e f02d bd3d 3418 403b
000003f0: de6c 9ebe 209a be3e 5764 fabc 29fd e9be
