1223-code-DL/model/transformer_state_dict.pt (torch, 198687 bytes, 65 tensors)

encoder.embedding.weight f4 [32, 16]
0	0x3e31b043	0.17352395
1	0x3e4fa690	0.20278382
2	0xbd3bc0e4	-0.04583825
3	0x3e6772d1	0.22602393
4	0xbd9f812d	-0.0778831
5	0x3d8799bb	0.06621119
6	0xbe011894	-0.12607032
7	0x3ddd2572	0.10798158
8	0x3e6b44f2	0.2297552
9	0xbe4b221b	-0.19837229
10	0x3e5f2f92	0.2179549
11	0x3d5e2215	0.054231722
12	0x3e41cbab	0.1892535
13	0x3d4d5272	0.050127454
14	0x3de08189	0.10962207
15	0xbdf9bfc4	-0.121947795
16	0x3e6fcb75	0.23417456
17	0x3db951a7	0.09048777
18	0xbd43e85e	-0.047829024
19	0x3e04d35c	0.12971252
20	0xbd9c40a7	-0.07629519
21	0x3d860034	0.065430075
22	0xbd428703	-0.04749204
23	0x3e580c50	0.21098447
24	0xbe09dd8a	-0.13463417
25	0xbd9909de	-0.07472585
26	0xba9af988	-0.0011823634
27	0xbdb6f47a	-0.08933349
28	0x3da523bd	0.08063457
29	0xbe1be250	-0.1522305
30	0x3e891e09	0.26780728
31	0xbe8332fd	-0.25624838
32	0x3e1e627a	0.15467253
33	0x3c944492	0.018099103
34	0xbdebe88a	-0.11518963
35	0x3df246f5	0.1182994
36	0x3c16b8d7	0.009199343
37	0x3e0e82bd	0.1391706
38	0x3b6d5f5a	0.0036220164
39	0xbdc1225c	-0.09430382
40	0x3cecd31b	0.028909257
41	0xbdc89a7d	-0.09795091
42	0x3d5cb207	0.053880718
43	0x3e3db403	0.185257
44	0x3ddc5a13	0.10759368
45	0xbe2a825c	-0.1665129
46	0x3df09f11	0.117490895
47	0x3db41939	0.08793873
48	0x3e15a097	0.14612041
49	0xbe134b4e	-0.14384195
50	0xbe699175	-0.22809394
51	0xbd8b3265	-0.06796721
52	0xbe29d331	-0.1658447
53	0x3e7e4447	0.24830733
54	0x3da13268	0.07870942
55	0x3de5a427	0.1121295
56	0x3ddf8d04	0.109155685
57	0xb8dcb092	-0.00010523306
58	0x3e7a0443	0.24415688
59	0xbe197414	-0.14985687
60	0x3d20449b	0.039127927
61	0xbdf6a65e	-0.12043451
62	0x3db1de20	0.08684945
63	0xbe25491b	-0.16141169
64	0x3dace1aa	0.084414795
65	0xbd2f40a3	-0.04278625
66	0x3e477f6e	0.19482204
67	0xbe0fbc8b	-0.14036767
68	0xbded587d	-0.115891434
69	0xbe461a9f	-0.19346093
70	0x3e6ff62b	0.2343375
71	0x3df72c05	0.12068943
72	0x3e73cb05	0.23807915
73	0xbe50ebae	-0.20402405
74	0xbe81de80	-0.25365067
75	0xbe4ac530	-0.19801784
76	0xbe2aea61	-0.16690971
77	0x3d9d8bd1	0.076926835
78	0x3dd911ea	0.1059912
79	0x3e9d4f89	0.30724743
80	0xbe15c918	-0.14627492
81	0xbe4721a8	-0.19446433
82	0x3d97b490	0.074074864
83	0xbdcf9e51	-0.10137618
84	0x3e46c145	0.19409664
85	0xbdbc66a3	-0.09199264
86	0x3df5ba83	0.11998465
87	0xbe42f4b2	-0.19038656
88	0xbe1bd55d	-0.1521811
89	0x3d70d02b	0.058792274
90	0x3d4b85c8	0.04968813
91	0xbdb62d4e	-0.0889536
92	0x3df8aa53	0.12141862
93	0x3e16f31b	0.14741175
94	0xbe35da3c	-0.17759031
95	0xbe370807	-0.17874156
96	0x3e8a1670	0.26970243
97	0xbd207ba6	-0.03918042
98	0xbd6172a9	-0.05504099
99	0xbe468fb7	-0.1939076
100	0xbd94f155	-0.07272593
101	0x3d9aaede	0.075528845
102	0x3c1c5d75	0.009543766
103	0xbdf288bc	-0.11842486
104	0x3d19dd22	0.037564404
105	0xbdfbdca5	-0.12297944
106	0xbe2f831b	-0.17139857
107	0xbdd677b9	-0.10472054
108	0xbe3ed078	-0.18634212
109	0xbdfcf4db	-0.1235139
110	0x3e8d2851	0.2756982
111	0x3e1b8d49	0.15190615
112	0x3da71d1e	0.081598505
113	0xbe7b47e3	-0.24539141
114	0xbe2b4c06	-0.1672822
115	0xbd93df2d	-0.07220302
116	0x3d3ca6bf	0.04605746
117	0xbe690762	-0.22756723
118	0xbdf1f429	-0.11814148
119	0xbe11ea3c	-0.1424951
120	0x3bed60d9	0.007244211
121	0xbdc40ef9	-0.09573168
122	0xbbad4826	-0.005288142
123	0xbe277eb6	-0.1635693
124	0xbe2ce5d3	-0.16884546
125	0xbdf06e7a	-0.11739822
126	0xbdaa4083	-0.08313086
127	0xbe6e595a	-0.23276272
128	0x3e77f05e	0.24212787
129	0xbcd23f96	-0.025665086
130	0x3e81d007	0.25354025
131	0x3e01fe50	0.12694669
132	0xbe3a9b51	-0.18223311
133	0x3e6abd1f	0.22923706
134	0xbd368e03	-0.044569027
135	0xbd91ae2a	-0.07113297
136	0xbe292963	-0.16519694
137	0xbe5d3f7b	-0.21606247
138	0x3e011290	0.12604737
139	0xbc52265f	-0.012826531
140	0x3e0b2024	0.1358648
141	0xbe0f61f1	-0.14002205
142	0x3e5dc8e7	0.2165867
143	0xbe617301	-0.22016527
144	0xbd8cc389	-0.06873233
145	0xbb1139ca	-0.002215969
146	0x3dcf6d94	0.10128322
147	0x3e3171e3	0.173286
148	0x3e5ff5db	0.2187113
149	0xbe64a6cf	-0.22329257
150	0x3bf720bf	0.0075417454
151	0xbe1ae94c	-0.15128058
152	0xbd6ed684	-0.058310047
153	0xbe7147e0	-0.23562574
154	0x3e6cb730	0.23116755
155	0xbe5d1033	-0.21588211
156	0x3dc8d3a3	0.098059915
157	0x3dbf8f9e	0.09353565
158	0x3d73c0b4	0.059509948
159	0xbe594d78	-0.21220958
160	0x3e734ac0	0.23758984
161	0x3d73730b	0.059435885
162	0x3d3b8281	0.045778755
163	0xbe58324e	-0.2111294
164	0x3db643dc	0.08899662
165	0x3aa79392	0.0012785068
166	0xbddfa6d1	-0.109204896
167	0x3e5b899b	0.21439211
168	0x3d97b3a0	0.074073076
169	0xbe0de126	-0.13855419
170	0xbdca187c	-0.09867951
171	0x3ba08ffe	0.0048999777
172	0x3e1e3c7c	0.1545276
173	0xbd039d0d	-0.032132197
174	0xbe09e416	-0.13465914
175	0xbe1950c1	-0.14972211
176	0xbe4f2be4	-0.20231587
177	0x3d84c23f	0.06482362
178	0x3e3faabf	0.18717478
179	0xbe754c33	-0.23954849
180	0x3d36cdc6	0.044629835
181	0x3e148c3a	0.14506617
182	0x3ca7555b	0.020426443
183	0xbdff9482	-0.124794975
184	0x3df4715e	0.119356856
185	0x3df01095	0.11721913
186	0x3dd17701	0.10227776
187	0xbd6115cf	-0.05495244
188	0xbda6e414	-0.08148971
189	0x3d35cb60	0.044383407
190	0xbd856ddb	-0.06515094
191	0xbe25a5a9	-0.16176476
192	0x3e06cb76	0.13163552
193	0x3e3a2028	0.18176329
194	0xbd2ec044	-0.042663828
195	0xbda22e25	-0.079189576
196	0xbd0daeb6	-0.034590445
197	0xba8b7416	-0.0010639455
198	0x3cd9daec	0.026593648
199	0x3d0e814b	0.034791272
200	0xbe81932e	-0.25307602
201	0xbe01f08e	-0.1268942
202	0x3e4d50e8	0.20050395
203	0x3d910a0e	0.07081996
204	0xbd2bb1a6	-0.041917466
205	0xbe1dfd11	-0.15428568
206	0xbe37dd46	-0.17955503
207	0xbeb44e7d	-0.35216132
208	0xbda84bc5	-0.08217577
209	0x3e044c83	0.12919812
210	0x3e303c5a	0.17210522
211	0x3e1d1ad4	0.15342265
212	0xbe15e5a7	-0.14638387
213	0xbe2a69ab	-0.16641872
214	0x3c67f96b	0.014158587
215	0x3e939f6d	0.2883257
216	0x3d7e8c60	0.06214559
217	0xbcc11da6	-0.023573708
218	0x3dfaaba6	0.122397706
219	0xbd8aae3a	-0.06771512
220	0xbe0c692e	-0.13711998
221	0x3e6df9f9	0.23239888
222	0xbdbf6414	-0.0934526
223	0xbcd1db68	-0.025617316
224	0xbe9137b9	-0.28362826
225	0x3e1072a9	0.1410624
226	0x3e290df8	0.16509235
227	0x3d72f32c	0.059313938
228	0xbe63b39d	-0.22236486
229	0xbe79f2bf	-0.24409007
230	0xbe6a35cb	-0.22872083
231	0x3e15128b	0.14557855
232	0x3dc1f2cb	0.09470137
233	0x3e2f8c2d	0.17143317
234	0x3dddda1e	0.10832618
235	0x3d1658df	0.036705848
236	0xbcfc9660	-0.030833423
237	0xbe4d6179	-0.20056714
238	0xbe77e2fb	-0.2420768
239	0xbeb5718b	-0.3543819
240	0x3e11a1db	0.14221899
241	0xbded4a16	-0.115863964
242	0xbd59cf51	-0.053176228
243	0xbdd3d50b	-0.10343369
244	0x3c273faa	0.01020805
245	0xbe611db3	-0.21983986
246	0xbe19c176	-0.15015206
247	0x3e229a01	0.1587906
248	0xbd7872de	-0.06065642
249	0x3e4a2143	0.19739251
250	0xbd8bfe11	-0.06835569
251	0xbe2ac10c	-0.16675204
252	0xbcd0bae4	-0.025479741
253	0xbdf0d813	-0.11759963
254	0xbd2f847a	-0.04285095
255	0xbd8b5b34	-0.06804505

encoder.embedding.bias f4 [32]
0	0x3d9ebbaf	0.077506416
1	0xbdf7b881	-0.12095738
2	0xbe507f56	-0.20361075
3	0xbe35cacc	-0.17753142
4	0x3e59089b	0.21194689
5	0xbe7f4ff5	-0.24932845
6	0x3e6374ba	0.22212496
7	0xb9bc1b02	-0.00035878277
8	0x3ca4d236	0.020119768
9	0x3e0dac98	0.1383537
10	0xbb260419	-0.0025332032
11	0x3e1f415c	0.15552276
12	0x3e2a49d8	0.16629732
13	0xbe4498b6	-0.1919888
14	0x3d94171d	0.07230971
15	0x3d8c55ff	0.0685234
16	0x3cf8c348	0.030366555
17	0xbcc34736	-0.023837667
18	0x3dc59422	0.09647395
19	0xbe1846e0	-0.14870787
20	0xbb19ac92	-0.0023448807
21	0x3e807719	0.25090864
22	0x3e184b57	0.1487249
23	0xbc7b7178	-0.015346877
24	0xbe654b84	-0.22392088
25	0xbcad9e53	-0.021193659
26	0xbe069c45	-0.1314555
27	0x3e48a70a	0.1959497
28	0xbe15d269	-0.14631046
29	0xbcc026c0	-0.023455977
30	0xbd21a1e9	-0.03946105
31	0x3d0c8a03	0.034311306

encoder.blks.block0.attention.W_q.weight f4 [32, 32]
0	0x3e4d7b81	0.20066644
1	0xbbc63872	-0.0060492093
2	0x3e039094	0.12848121
3	0x3dacbbc5	0.08434252
4	0x3e74cada	0.23905507
5	0xbdcb6ece	-0.09933244
6	0xbe4c0e64	-0.19927365
7	0x3d3464fb	0.044041615
8	0xbe283cd5	-0.16429456
9	0x3ddefffa	0.108886674
10	0x3d4b0dd7	0.049573746
11	0xbe486035	-0.1956795
12	0x3d8c421a	0.06848545
13	0x3dbe9e70	0.09307563
14	0x3d14633f	0.03622746
15	0x3d99cc4c	0.0750967
16	0x3e17a1ce	0.14807817
17	0x3e2b2582	0.16713527
18	0xbbe8c782	-0.0071038613
19	0xbdea4eb3	-0.11440792
20	0xbe2ee68e	-0.17080137
21	0xbdde92f0	-0.1086787
22	0xbe0ccdd1	-0.13750388
23	0xbd854c3b	-0.065086804
24	0xbe4ff906	-0.20309839
25	0xbe1ac192	-0.15112904
26	0xbe20f839	-0.1571969
27	0xbe11a4bb	-0.14222996
28	0xbe292238	-0.1651696
29	0x3dc8e023	0.09808376
30	0x3e39c055	0.18139775
31	0x3d0403ea	0.032230295
32	0xbce9598b	-0.02848508
33	0x3daa8f6e	0.08328138
34	0xbdda7ab2	-0.106679335
35	0xbd6e7eae	-0.05822628
36	0xbc0b473b	-0.008500869
37	0xbe20f95c	-0.15720123
38	0x3dbda14d	0.09259281
39	0x3e12f908	0.1435281
40	0x3e05f362	0.13081124
41	0x3da0cd6a	0.078516796
42	0xbe55f8dd	-0.20895715
43	0x3e930a01	0.2871857
44	0x3ea96c9a	0.3309067
45	0xbdf5de40	-0.120052814
46	0x3dfcb5c8	0.123393595
47	0x3e8d6107	0.27613088
48	0xbd6925e2	-0.056920893
49	0xbd86248b	-0.06549939
50	0xbd9a9a3c	-0.07548949
51	0xbdd95c61	-0.10613323
52	0xbc9b04b4	-0.018923141
53	0xbdf0b86c	-0.11753926
54	0x3df75b76	0.12077992
55	0x3cb56cb2	0.022146557
56	0xbdb318f2	-0.08744992
57	0x3dafb9ed	0.085803844
58	0xbe3d4cf7	-0.18486391
59	0xbd143675	-0.036184747
60	0xbbe29976	-0.0069152666
61	0xbda04753	-0.07826104
62	0xbd93628a	-0.07196529
63	0x3e14cac4	0.14530474
64	0x3e92381d	0.28558436
65	0x3e6e8ed0	0.23296666
66	0x3ea405be	0.3203563
67	0xbe3045be	-0.17214105
68	0xbc8dc76d	-0.017307008
69	0xbd0c4250	-0.034242928
70	0x3e27afb3	0.16375618
71	0xbe1cc464	-0.15309292
72	0x3e47aff8	0.1950072
73	0xbd10a7b3	-0.03531618
74	0xbe7adb36	-0.24497685
75	0x3ea32b0f	0.3186879
76	0x3d9e0f43	0.07717755
77	0xbeb1e4e4	-0.34744942
78	0xbe8efa89	-0.27925518
79	0xbe668de8	-0.2251507
80	0x3e958199	0.29200438
81	0xbed6847e	-0.4189796
82	0xbd9fa07e	-0.07794283
83	0x3e00c627	0.12575589
84	0xbe84b8f8	-0.2592237
85	0x3e3f9ecb	0.18712918
86	0xbe4ce227	-0.20008145
87	0x3e0e032d	0.13868399
88	0xbd4e4ea5	-0.05036797
89	0x3e3d5c0d	0.18492146
90	0xbd85a643	-0.065258525
91	0x3dc1773f	0.094465725
92	0xbeadcb61	-0.33944228
93	0x3df3db6d	0.119070865
94	0x3d7c22cf	0.061556634
95	0x3e345484	0.17610365
96	0x3dad4a0d	0.0846139
97	0xbe0bec45	-0.13664348
98	0x3e0f2b56	0.13981375
99	0x3dd3e0dd	0.10345624
100	0xbe0343e4	-0.12818867
101	0xbe22a195	-0.15881951
102	0x3de27011	0.11056531
103	0xbdcfd703	-0.10148432
104	0x3db2e482	0.08734991
105	0xbdaf996a	-0.08574183
106	0x3e2b83ef	0.16749547
107	0xbdedde73	-0.116146944
108	0x3e00b111	0.12567545
109	0x3d067638	0.032827586
110	0xbdfe407d	-0.12414644
111	0x3e22213c	0.1583299
112	0xbdaf5404	-0.085609466
113	0xbe5a5032	-0.21319655
114	0xbcaadd27	-0.020857407
115	0x3e13e6ee	0.14443561
116	0xbe32f1f7	-0.17475115
117	0x3dfbd290	0.12296021
118	0xbe8e684e	-0.27813953
119	0x3e3d79f8	0.18503559
120	0x3b532dad	0.003222327
121	0xbe121db3	-0.14269142
122	0x3e0f8399	0.14015044
123	0x3daf5ad6	0.085622475
124	0x3c729c32	0.014807748
125	0xbd2f0020	-0.04272473
126	0x3d7a64e8	0.061131388
127	0x3c7913ec	0.015202504
128	0x3e590ca4	0.21196228
129	0x3d8fbcc2	0.070184246
130	0xbd452f77	-0.04814097
131	0x3df9e194	0.12201229
132	0xbc81aed4	-0.015830435
133	0xbd86b859	-0.0657813
134	0xbe0740b6	-0.13208279
135	0xbd5508c1	-0.0520103
136	0x3e10d58a	0.14143959
137	0x3d76f552	0.06029255
138	0xbe4d86b1	-0.20070912
139	0x3da56ca9	0.08077366
140	0xbd95964f	-0.0730406
141	0x3c98c421	0.018648209
142	0xbe5be125	-0.21472605
143	0xbe0cbaff	-0.13743208
144	0xbdfce9cd	-0.123492815
145	0xbe27858a	-0.16359535
146	0x3cad77df	0.021175323
147	0x3e3c16cf	0.18368076
148	0x3c7c70e9	0.015407779
149	0x3e48dc6c	0.19615334
150	0x3d9490f8	0.07254213
151	0x3df80143	0.12109616
152	0x3e01fde6	0.12694511
153	0x3e6eee85	0.23333175
154	0xbdf2e30c	-0.11859712
155	0x3e34c2bf	0.17652415
156	0x3dae9296	0.08524053
157	0xbd7e80c5	-0.062134523
158	0xbd5848ae	-0.052803688
159	0xbe052aac	-0.1300456
160	0x3d9b1430	0.0757221
161	0xbe1a2f50	-0.15057111
162	0x3e075df8	0.1321944
163	0x3d3c2c94	0.04594095
164	0xbe19628c	-0.14978999
165	0x3c76b294	0.015057225
166	0x3d08ac30	0.033367336
167	0x3d567b0a	0.052363433
168	0x3e1c08c4	0.15237719
169	0xbe155f1b	-0.14587061
170	0x3d98e669	0.07465822
171	0x3e5317e4	0.20614582
172	0x3dc536ff	0.0962963
173	0xbe8db4b0	-0.27676916
174	0xbe0c4362	-0.1369758
175	0xbd76ef1a	-0.06028662
176	0xbbeaa0ed	-0.007160297
177	0xba59d770	-0.0008309996
178	0x3cc09f2a	0.023513395
179	0x3e234371	0.15943696
180	0xbdb57f4e	-0.08862172
181	0x3ddad42e	0.10685001
182	0x3deb0cdc	0.11477062
183	0xbddd548a	-0.1080714
184	0xbe45d902	-0.19321063
185	0xbd222761	-0.039588336
186	0x3df1f7d4	0.118148476
187	0xbe0ebbe8	-0.13938868
188	0xbe31255d	-0.17299409
189	0x3e0bbc0b	0.13645951
190	0x3e027e57	0.12743507
191	0x3e3beed6	0.18352827
192	0xbe3355af	-0.17513154
193	0xbe5db578	-0.21651256
194	0xbd814c21	-0.063133486
195	0x3e2ab943	0.16672234
196	0xbcb30ba2	-0.021856133
197	0x3d961067	0.07327347
198	0x3d015a23	0.0315801
199	0x3e59e8dd	0.21280237
200	0xbd9ce6f3	-0.076612376
201	0xbd9332af	-0.071874015
202	0xbd1b81ed	-0.037965704
203	0xbcd0e896	-0.02550153
204	0xbdb6900f	-0.08914196
205	0x3e070d6d	0.13188715
206	0x3dd8733a	0.10568853
207	0x3e5b3860	0.21408224
208	0xbda68b92	-0.0813209
209	0xbc4b690f	-0.012415185
210	0x3e3f8fb6	0.18707165
211	0xbde1aaf5	-0.110189356
212	0x3d4f2d25	0.050580163
213	0x3dec848b	0.11548718
214	0xbe352b4e	-0.176923
215	0x3e2ce3ff	0.16883849
216	0xbd84f002	-0.0649109
217	0xbd18b5a7	-0.037282612
218	0xbd6a9770	-0.05727333
219	0xbe066bf5	-0.1312712
220	0xbe05a432	-0.13050917
221	0x3d24a942	0.04020048
222	0x3ca70d72	0.020392153
223	0xbe97c93d	-0.2964572
224	0xbdb2a8f1	-0.08723629
225	0x3ddd5724	0.108076364
226	0x3dcb5477	0.0992822
227	0x3d44a50e	0.04800897
228	0xbde0dc6f	-0.10979544
229	0xbdca9415	-0.09891526
230	0xbc991156	-0.018685024
231	0xbd59cd9e	-0.053174607
232	0xbe128f67	-0.14312516
233	0x3d7e469b	0.062079053
234	0xbdfcd665	-0.1234558
235	0x3da13f73	0.0787343
236	0x3dadb78d	0.08482275
237	0xbe31dba5	-0.17368944
238	0x3c6a6ac4	0.0143076815
239	0x3d1fb9ee	0.038995676
240	0xbd79c0f4	-0.06097503
241	0xbe6a6d36	-0.22893223
242	0x3d2bac69	0.04191247
243	0x3da64ed7	0.08120506
244	0xbde5e78c	-0.11225805
245	0x3e6cbf52	0.23119858
246	0x3a9b782d	0.0011861377
247	0x3e12032f	0.14259027
248	0x3d8cedd8	0.068813026
249	0xbd7d11f3	-0.061784696
250	0x3d8533d5	0.06504027
251	0xbe13e7a6	-0.14443836
252	0xbde09db9	-0.10967583
253	0xbb6e6bd0	-0.003638018
254	0xbddeee5e	-0.10885309
255	0x3e3f6bf0	0.18693519

encoder.blks.block0.attention.W_k.weight f4 [32, 32]
0	0xbcf0719c	-0.029351048
1	0x3d3f665c	0.046728477
2	0xbae305b4	-0.0017320425
3	0x3dcdf4cc	0.10056457
4	0xbcb0ac20	-0.02156645
5	0xbe560f14	-0.2090419
6	0x3d780931	0.06055564
7	0x3c1bba6b	0.009504895
8	0x3b9ea5dc	0.0048415493
9	0x3dd3aff6	0.10336296
10	0x3c7ab438	0.015301757
11	0xbd6aa050	-0.057281792
12	0xbd108bda	-0.035289623
13	0xbe1d85d8	-0.15383089
14	0xbe283d15	-0.16429551
15	0x3c3f61aa	0.011681
16	0xbb209477	-0.0024502554
17	0x3d035b74	0.03206964
18	0x3d8b6d66	0.068079755
19	0x3cd6af24	0.02620656
20	0x3da544bf	0.08069753
21	0x3dbac4f7	0.09119599
22	0xbc22a935	-0.009928037
23	0x3dc31054	0.09524599
24	0x3d9a3706	0.07530026
25	0xbe02c78e	-0.12771437
26	0x3deb847e	0.1149988
27	0xbea5d357	-0.32387802
28	0x3d764fe6	0.06013479
29	0xbd823db2	-0.06359424
30	0xbe0eaaa4	-0.13932282
31	0x3e3e581a	0.18588296
32	0xbde2b4c9	-0.11069638
33	0x3d8c262e	0.0684322
34	0xbe1eb90e	-0.1550028
35	0xbd8a76bb	-0.06760927
36	0xbbf691f5	-0.0075247237
37	0x3e553e81	0.20824625
38	0xbd9f99f6	-0.077930376
39	0x3d7746fc	0.06037043
40	0xbd0e95a5	-0.03481068
41	0x3d8e3774	0.069441706
42	0x391ffb8f	0.00015257135
43	0x3de96dae	0.11397873
44	0xbe1c98f5	-0.15292723
45	0xbcebe084	-0.02879358
46	0x3e250116	0.16113696
47	0xbdfc62b5	-0.12323514
48	0xbd382d8d	-0.044965316
49	0xbbd27fa8	-0.006423909
50	0x3ddd808f	0.10815536
51	0xbc24cba1	-0.010058315
52	0xbe1afbba	-0.15135089
53	0x3c39f3f6	0.011349669
54	0x3c3640c5	0.011123841
55	0x3dbd6460	0.09247661
56	0x3e3e3d9a	0.18578187
57	0xbc1b58c6	-0.009481614
58	0x3d7f9430	0.062397182
59	0xbd86c3ff	-0.06580352
60	0xbaecd9e5	-0.0018070309
61	0x3d8170f2	0.06320371
62	0x3def40bb	0.11682268
63	0xbe1cb58e	-0.15303633
64	0xbdcb23ed	-0.09918962
65	0x3d42cf48	0.04756096
66	0xbe378d5b	-0.17925017
67	0xbde8f916	-0.11375634
68	0xbe19e879	-0.15030088
69	0xbdaf0711	-0.0854627
70	0x3dcee596	0.10102384
71	0x3df24455	0.118294396
72	0x3d4924fc	0.049107537
73	0x3db77418	0.0895769
74	0xbdb05b0f	-0.08611118
75	0xbe2b8e73	-0.16753559
76	0x3d8afc91	0.067864545
77	0xbe9db967	-0.30805513
78	0x3e5811f8	0.21100605
79	0xbe23f5bd	-0.1601171
80	0x3d7f4c9e	0.062328927
81	0xbe285999	-0.16440429
82	0x3dfb698b	0.1227599
83	0xbd96b311	-0.07358373
84	0x3da15fdc	0.07879612
85	0xbe37308b	-0.17889611
86	0x3e5a543f	0.213212
87	0xbe39d19c	-0.18146366
88	0x3d7b5840	0.06136346
89	0xbe3fd801	-0.18734743
90	0x3dbf14bd	0.093301274
91	0xbe789adb	-0.24277823
92	0x3db21d22	0.08696963
93	0xbd0fe661	-0.035131816
94	0x3dec31b3	0.11532917
95	0x3e059ee8	0.13048899
96	0xbe3026fe	-0.17202374
97	0x3c6b6bb8	0.014368944
98	0xbdbf8f28	-0.09353477
99	0x3e0d9573	0.13826542
100	0x3d4dd52c	0.050252125
101	0xbc99b158	-0.018761322
102	0xbda76af6	-0.08174698
103	0xbdff574d	-0.12467823
104	0xbd9d40cf	-0.07678377
105	0x3e45de47	0.19323073
106	0x3d2e7736	0.042594157
107	0x3d8213a3	0.06351402
108	0x3d102e24	0.035200253
109	0xbe54d659	-0.20784892
110	0x3d275b04	0.040858284
111	0xbde9168e	-0.11381255
112	0xbdf09e33	-0.11748924
113	0xbb15746c	-0.0022804989
114	0x3e38f284	0.18061262
115	0x3e540470	0.20704818
116	0xbc6b6c9f	-0.014369159
117	0x3df722c0	0.12067175
118	0xbdba644c	-0.09101161
119	0xbce5eabd	-0.028066033
120	0xbe079373	-0.13239841
121	0x3a6e234f	0.0009084241
122	0xbdd70653	-0.10499253
123	0xbdcd7d27	-0.100336365
124	0x3e046ca8	0.12932074
125	0x3e5bb39a	0.21455231
126	0xbdc7b3e2	-0.09751107
127	0xbda0588c	-0.07829389
128	0xbd7fb23a	-0.06242583
129	0x3d998abd	0.07497165
130	0xbdb96093	-0.09051623
131	0xbcebe655	-0.028796354
132	0xbde8f1a3	-0.113742135
133	0xbc7d052b	-0.015443127
134	0x3e3382f5	0.17530425
135	0x39f6c2f4	0.00047066028
136	0x3e0174cf	0.12642215
137	0x3dc0cf71	0.09414566
138	0x3e292450	0.16517758
139	0xbe24056a	-0.1601769
140	0x3dcfaa21	0.101398714
141	0xba04f789	-0.0005072286
142	0x3e1cb88e	0.15304777
143	0x3e3f1604	0.18660742
144	0x39e12e92	0.00042950042
145	0x3d316885	0.04331257
146	0x3e51d5a1	0.20491649
147	0xbdcbe481	-0.09955693
148	0x3d705d6c	0.058682844
149	0xbe062cb8	-0.13102996
150	0x3e653a47	0.22385512
151	0xbde1ad3c	-0.1101937
152	0x3d243347	0.040087964
153	0x3d8d3431	0.0689472
154	0xbe16132a	-0.14655748
155	0xbe860058	-0.26172137
156	0xbb5f55e2	-0.003407829
157	0x3e146b87	0.14494143
158	0x3dca1d58	0.09868878
159	0xbd3c26e2	-0.04593552
160	0xbd98ae16	-0.07455079
161	0xbe22a1a5	-0.15881975
162	0xbe5206ad	-0.20510359
163	0x3d3ba7af	0.045814212
164	0x3c30a1e6	0.010780787
165	0xbdaa05b4	-0.08301869
166	0xbda9ff8c	-0.08300695
167	0x3e5d59a4	0.21616226
168	0xbbd617a3	-0.0065335794
169	0xbd906f34	-0.0705246
170	0xbcd754dd	-0.026285583
171	0x3cadf742	0.021236066
172	0x3e35d5df	0.17757367
173	0xbdc20d27	-0.09475165
174	0x3d686c34	0.056743816
175	0x3dabf99f	0.08397221
176	0x3e742053	0.23840456
177	0x3d55e32e	0.05221861
178	0x3d83ae68	0.0642975
179	0x3dfb60be	0.122743115
180	0xbd8803ab	-0.066413246
181	0xbdbd6a8b	-0.09248837
182	0x3e9bcd93	0.30430278
183	0x3d58f71b	0.052970033
184	0xbbd41004	-0.006471636
185	0x3d5ae223	0.053438317
186	0x3d3f8ed2	0.046767063
187	0xbe54fd27	-0.20799695
188	0x3e103808	0.14083874
189	0x3d1be40b	0.038059276
190	0xba862a1d	-0.0010235939
191	0x3e83b026	0.25720328
192	0xbd7ac1a8	-0.06121984
193	0xbdfa235d	-0.12213776
194	0xbe1b3aff	-0.15159224
195	0xbd5dbc1d	-0.054134477
196	0xbe37930b	-0.17927186
197	0xbc22a50d	-0.0099270465
198	0x3d44740d	0.047962237
199	0x3dd097ce	0.101852044
200	0x3d65d745	0.0561135
201	0x3da8072b	0.08204492
202	0x3d1a51e6	0.03767576
203	0xbd11a88b	-0.035561126
204	0xbe429ff1	-0.19006325
205	0x3debafed	0.115081646
206	0x3e362939	0.17789163
207	0xbbb2ec97	-0.0054603326
208	0xbd82bb00	-0.06383324
209	0xbdc0ae20	-0.09408212
210	0xbe14c170	-0.14526916
211	0xbdd49c69	-0.10381395
212	0x3e0aeb28	0.13566267
213	0x3d12a95e	0.035806052
214	0xbe8249bb	-0.25446877
215	0x3d63040e	0.05542379
216	0x3b08c4a5	0.0020869162
217	0xbc71b1d9	-0.014751875
218	0x3d1831fb	0.03715704
219	0x3e34f932	0.17673185
220	0xbe64266a	-0.22280279
221	0xbe2b1d51	-0.16710402
222	0xbb8e05f8	-0.0043342076
223	0xbe62572e	-0.22103569
224	0xbe028395	-0.12745507
225	0x3dd58363	0.10425451
226	0xbe142a9f	-0.14469384
227	0xbe198ba5	-0.14994676
228	0xbdbe001e	-0.09277366
229	0xbe02645b	-0.12733595
230	0x3da1c939	0.07899708
231	0xbd07a80b	-0.033119243
232	0xbe1191ba	-0.14215747
233	0xbdbe8cc9	-0.093041964
234	0x3e046a59	0.12931193
235	0xbd988e68	-0.07449037
236	0x3df320c3	0.11871483
237	0xbdc8bb47	-0.09801345
238	0x3d028b73	0.03187127
239	0xbcbc60ac	-0.022995315
240	0x3da51128	0.08059913
241	0xbdcad255	-0.09903399
242	0x3d1425bf	0.03616881
243	0xbd365842	-0.044517763
244	0xbdebef3d	-0.115202405
245	0x3e16909f	0.14703606
246	0xbba24a5f	-0.0049527134
247	0x3dc2e193	0.09515681
248	0x3caff693	0.02147988
249	0xbe2ef61a	-0.17086068
250	0xbe28fb28	-0.16502059
251	0x3e0ee5c7	0.1395484
252	0xbdf6e578	-0.120554864
253	0x3dd5b5fa	0.104351
254	0x3c8c1b25	0.017102787
255	0x3d52e913	0.05149181

encoder.blks.block0.attention.W_v.weight f4 [32, 32]
0	0x3e035d04	0.12828451
1	0x3dea5c9d	0.11443446
2	0x3d8f2680	0.06989765
3	0x3d8e8bf1	0.069602855
4	0x3e4787b5	0.19485362
5	0x3db07509	0.08616073
6	0x3e3f3533	0.18672638
7	0xbcd68490	-0.026186258
8	0xbdb8535c	-0.090002745
9	0xbdb0b680	-0.08628559
10	0x3d561008	0.052261382
11	0x3d51ccc3	0.051220667
12	0xbdd889be	-0.10573147
13	0x3e203b53	0.1564763
14	0xbd61eee1	-0.055159453
15	0xbb84de7a	-0.0040548416
16	0xb900a371	-0.00012267918
17	0xbde2162b	-0.110393845
18	0x3e1cec46	0.15324506
19	0xbbcdc150	-0.006279148
20	0x3dda7734	0.106672674
21	0xbe0e8fe1	-0.13922073
22	0xbd81b592	-0.0633346
23	0x3c17e6ee	0.0092713665
24	0x3e191604	0.14949805
25	0x3d1af83c	0.03783439
26	0x3dbb7303	0.09152796
27	0xbe339099	-0.17535628
28	0xbcbd38ce	-0.023098376
29	0xbdc6d3eb	-0.09708389
30	0xbe2443ce	-0.1604149
31	0x3d01094a	0.031503
32	0xbdbec8d1	-0.093156464
33	0x3e00f3c5	0.1259299
34	0xbd9085df	-0.07056784
35	0x3d82fcb7	0.06395858
36	0x3e1344cd	0.14381714
37	0xbe2cc6a2	-0.16872647
38	0x3d7634e7	0.060109045
39	0xbd3b985a	-0.04579959
40	0x3cd0c475	0.025484303
41	0x3e407bae	0.1879718
42	0xbddded5b	-0.108362876
43	0xbd997fcb	-0.07495078
44	0x3e08915a	0.13336697
45	0x3c7d7a98	0.015471123
46	0xbd90f08d	-0.070771314
47	0x3df4988c	0.119431585
48	0xbd9cd52e	-0.07657848
49	0xbd49c691	-0.049261633
50	0x3d8e99f1	0.06962956
51	0x3dd2211a	0.1026022
52	0xbe14d8cd	-0.14535828
53	0x3d9ffd3a	0.07811971
54	0xbde5ac2f	-0.11214482
55	0xbd5b458d	-0.053533126
56	0x3dabe475	0.08393184
57	0xbcd1ccd3	-0.025610363
58	0xbde3811c	-0.1110861
59	0x3d3f8b46	0.04676368
60	0x3ba5932d	0.005052945
61	0xbdac1631	-0.0840267
62	0xbdcb84e2	-0.09937455
63	0xbe40834d	-0.18800087
64	0x3d138d7a	0.036023594
65	0xbda53b79	-0.08067984
66	0x3b934ac6	0.0044949977
67	0xbc2477d6	-0.010038337
68	0xbe003d1d	-0.12523313
69	0xbd524a33	-0.051340293
70	0xbdc52684	-0.09626487
71	0xbdaf1744	-0.085493594
72	0x3d428749	0.0474923
73	0xbe30031f	-0.1718869
74	0xbe0697f4	-0.13143903
75	0x3dbbc247	0.09167915
76	0xbc8d41b2	-0.01724324
77	0xbd90243b	-0.070381604
78	0xbc4cbd29	-0.012496271
79	0x3e102400	0.14076233
80	0xbe2a0a96	-0.166056
81	0xbd995c12	-0.07488264
82	0xbdd21a34	-0.10258904
83	0xbd2463d2	-0.04013426
84	0x3c23f0d6	0.01000615
85	0xbe2156bf	-0.15755747
86	0x3dc78244	0.09741643
87	0xbe180238	-0.14844596
88	0x3e354d04	0.1770516
89	0xbe189321	-0.14899875
90	0x3b7bd453	0.0038426116
91	0x3ca31cc7	0.019911183
92	0xbd826e78	-0.063687265
93	0x3e19e29b	0.1502785
94	0xbe018567	-0.12648545
95	0xbcca226d	-0.024674619
96	0xbdb738c3	-0.08946373
97	0x3b2d6a99	0.0026461242
98	0x3e50a7f0	0.20376563
99	0x3e333ba3	0.17503218
100	0x3de591f8	0.11209482
101	0xbe19fda9	-0.1503817
102	0x3e096e98	0.13421094
103	0xbd1a0f9a	-0.037612535
104	0x3d1cb548	0.03825882
105	0xbd79472a	-0.060858883
106	0xbe20bccb	-0.15697019
107	0xbe26b173	-0.16278629
108	0x3de736c7	0.11289745
109	0xbc106a15	-0.008814354
110	0xbe6be6b9	-0.23037232
111	0xbd694eb1	-0.05695981
112	0xbd4cf8b3	-0.050041866
113	0xbd663155	-0.05619939
114	0xbd0b67c4	-0.034034505
115	0xbd1ab7e7	-0.03777304
116	0xbcc398d0	-0.023876578
117	0xbd784764	-0.06061496
118	0x3d90c146	0.07068114
119	0xbdb94df4	-0.090480715
120	0xbceab28d	-0.028649593
121	0x3e54c885	0.20779617
122	0x3e0a1972	0.13486269
123	0x3df19059	0.1179511
124	0x3d81e951	0.0634333
125	0x3e6161f1	0.22010018
126	0x3dc3dcf6	0.09563629
127	0x3d61fdef	0.05517381
128	0xbc5e20a3	-0.013557586
129	0x3e1b7f33	0.15185241
130	0x3e347797	0.17623745
131	0x3d41a114	0.047272757
132	0xbc972412	-0.018449817
133	0xbd91b74d	-0.0711504
134	0x3da265ba	0.07929559
135	0xbe0e841e	-0.13917586
136	0x3d076718	0.033057302
137	0xbdb4c209	-0.08826072
138	0xbdad83d5	-0.084724106
139	0xbd1db14b	-0.038499158
140	0xbea40a41	-0.32039073
141	0x3df7a914	0.12092796
142	0x3d6e9ddb	0.05825601
143	0xbe4560fa	-0.19275275
144	0x3e092bde	0.1339564
145	0x3e53dfbe	0.2069082
146	0x3d3e6e27	0.04649177
147	0xbcf71c01	-0.03016472
148	0x3db9e260	0.09076381
149	0xbdd66cfc	-0.10470006
150	0xbdd70aec	-0.1050013
151	0x3dcc30c9	0.099702425
152	0x3de64e20	0.1124537
153	0x3d927e6f	0.071530215
154	0xbe1aaefb	-0.15105812
155	0x3df29e1e	0.11846565
156	0xbd531e7d	-0.051542748
157	0x3dd5a224	0.104313165
158	0x3dd5e9bd	0.10444973
159	0xbd2011c0	-0.039079428
160	0x3e0bfc65	0.136705
161	0x3da47f2f	0.08032071
162	0x3de510e7	0.111848645
163	0x3c19ae78	0.0093799755
164	0x3d8f8542	0.07007839
165	0x3d98eb25	0.07466725
166	0x3de2da83	0.11076834
167	0x3bd5d77b	0.0065259314
168	0x3ddd93fb	0.10819241
169	0x3d8920b7	0.06695693
170	0x3d51e5a6	0.0512444
171	0x3e113c99	0.14183272
172	0xbe40b4e3	-0.18819003
173	0x3a1e1379	0.00060301233
174	0xbe4fdba3	-0.20298629
175	0x3e166480	0.14686775
176	0xbe76302c	-0.24041814
177	0xbd9c4a75	-0.07631389
178	0xbd81fae8	-0.06346685
179	0x3d10d1ba	0.03535626
180	0xbe2919cc	-0.16513747
181	0xbde1a6da	-0.110181525
182	0xbba34499	-0.0049825427
183	0xbd1835ac	-0.03716056
184	0xbd811bce	-0.063041314
185	0x3c420adb	0.011843408
186	0xbdbbe72f	-0.09174954
187	0xbe291933	-0.16513519
188	0x3ceb86e0	0.028750837
189	0xbdff6b3b	-0.124716245
190	0x3db9f1a9	0.09079296
191	0xbe44da35	-0.19223864
192	0x3c934cea	0.017981011
193	0x3d9d9605	0.076946296
194	0xbe0d1753	-0.13778429
195	0x3d2290d3	0.039688896
196	0xbdc502bd	-0.09619663
197	0xbd884c98	-0.06655234
198	0xbddf8dd0	-0.109157205
199	0xbda8ba52	-0.08238663
200	0x3c9f9a8f	0.019482879
201	0xbdee0ac6	-0.116231486
202	0x3e14ca1f	0.14530228
203	0x3e011a05	0.12607582
204	0x3ea5b973	0.3236805
205	0x3db0fc0c	0.08641824
206	0x3e018a62	0.12650445
207	0x3da772a1	0.081761606
208	0x3e10816e	0.14111874
209	0x3db2d9b2	0.08732928
210	0x3e529c6e	0.20567486
211	0xbe126b90	-0.14298844
212	0xbd61c4d2	-0.055119343
213	0xbe156939	-0.1459092
214	0x3db5fb4a	0.0888582
215	0xbdc3163f	-0.095257275
216	0x3e0c5b14	0.13706619
217	0x3dab5515	0.083658375
218	0xbd028331	-0.031863395
219	0xbdeaa671	-0.114575274
220	0xbe165831	-0.1468208
221	0x3d8a5e69	0.067562886
222	0xbd61afe5	-0.055099387
223	0x3bdb9c42	0.006701977
224	0x3dbb86c8	0.09156567
225	0xbcc6dee8	-0.024276212
226	0xbdf506ee	-0.11964212
227	0x3e41497e	0.18875691
228	0x3da2678a	0.07929905
229	0xbda4be00	-0.08044052
230	0x3df6f6ea	0.12058814
231	0x3df044cb	0.11731871
232	0xbdc59836	-0.096481726
233	0x3aa665ed	0.0012695171
234	0x3d84cfd3	0.06484952
235	0xbdbe9436	-0.09305613
236	0x3ddfb03a	0.109222844
237	0xbdab7d35	-0.08373491
238	0x3dcd9dba	0.100398496
239	0xbd81c08a	-0.06335552
240	0xbe3ae167	-0.18250047
241	0x3e006f18	0.12542379
242	0xbd5c720d	-0.053819705
243	0xbd27e4ac	-0.040989563
244	0x3e02cf33	0.12774353
245	0xbe317540	-0.17329884
246	0xbe466cd1	-0.19377448
247	0x3d507406	0.0508919
248	0x3e36bdcf	0.17845844
249	0xbd94e4cb	-0.07270201
250	0x3e3abe4e	0.18236658
251	0x3d057011	0.032577578
252	0x3d8891b3	0.06668415
253	0xbe10eb07	-0.14152156
254	0x3e0787ee	0.13235447
255	0x3d15d5a2	0.03658069

encoder.blks.block0.attention.W_o.weight f4 [32, 32]
0	0x3c8ec354	0.017427124
1	0xbd1fe0e4	-0.03903283
2	0xbd92a72d	-0.071607925
3	0x3d14b5b7	0.03630611
4	0xbe11ece4	-0.14250523
5	0x3d5b6e11	0.053571764
6	0x3d606d8f	0.054791983
7	0x3caa5f20	0.020797312
8	0x3df1be9d	0.11803935
9	0xbbc26e4f	-0.00593356
10	0xbc0ff9e5	-0.008787607
11	0xbe0a8d99	-0.13530578
12	0xbe5666c1	-0.20937635
13	0x3db283e0	0.087165594
14	0x3da77c51	0.08178008
15	0xbddbfe8b	-0.107419096
16	0x3d545a77	0.051844086
17	0xbd844e23	-0.06460216
18	0x3e2c5426	0.16828975
19	0xbd884c21	-0.066551454
20	0x3dd265d3	0.10273328
21	0x3d8e91d4	0.06961408
22	0x3e25977d	0.1617107
23	0x3e164769	0.14675678
24	0x3caeb9c8	0.021328822
25	0x3dc6d5bc	0.09708735
26	0xbe194bdc	-0.14970344
27	0xbd212894	-0.03934534
28	0xbd737272	-0.059435315
29	0x3d7d1893	0.061791014
30	0xbd456da7	-0.048200276
31	0x3be8a086	0.007099214
32	0x3d9ef0dd	0.07760785
33	0x3c2f9084	0.010715608
34	0x3e20197e	0.15634724
35	0xbd9dfa55	-0.07713763
36	0x3e09600c	0.13415545
37	0xbc321373	-0.010868895
38	0x3df5c040	0.119995594
39	0xbcb4260b	-0.021990797
40	0xbd428c05	-0.047496814
41	0xbe1fa0f8	-0.15588748
42	0x3e28216a	0.16418996
43	0xbd0c7f88	-0.03430131
44	0x3da23c3a	0.079216436
45	0xbdfeb231	-0.12436331
46	0xbe392f28	-0.18084395
47	0x3b0f7fd3	0.0021896258
48	0xbe2c130b	-0.1680414
49	0x3d8e3e87	0.0694552
50	0x3d3e1cc1	0.04641414
51	0xbdcf5599	-0.10123748
52	0x3d56f9da	0.05248437
53	0x3d2f9e69	0.04287568
54	0xbdbdf9ff	-0.092761986
55	0xbdbe678f	-0.09297096
56	0x3d2ce133	0.042206954
57	0xbd7f4005	-0.062316913
58	0x3d942c26	0.07234983
59	0xbda6dd13	-0.08147635
60	0xbd164901	-0.036690716
61	0xbe161933	-0.1465805
62	0xbd48d6ae	-0.04903286
63	0xbdcefce5	-0.101068296
64	0xbca83406	-0.02053262
65	0xbd5cdc4f	-0.05392104
66	0xbbb54df8	-0.0055329762
67	0x3e13a656	0.14418921
68	0xbcf30c38	-0.029668912
69	0xbc69ef12	-0.01427819
70	0x3e3c8cf5	0.18413146
71	0x3e5efde3	0.21776538
72	0x3b0695b8	0.0020536017
73	0xbe2b011a	-0.16699639
74	0x3cb883d2	0.022523794
75	0xbb255746	-0.002522902
76	0xbdf84179	-0.12121863
77	0xbe644789	-0.22292913
78	0x3c86d880	0.016460657
79	0x3e244e95	0.16045602
80	0xbe04d087	-0.12970172
81	0xbe0395af	-0.12850069
82	0xbda5619e	-0.080752596
83	0xbe054a7f	-0.13016699
84	0xbdc717be	-0.09721325
85	0x3d8a74ca	0.06760557
86	0x3e0a7425	0.13520868
87	0xbe1bf735	-0.15231021
88	0x3d3ce0bf	0.046112772
89	0xbe175940	-0.1478014
90	0x3d16e05d	0.036835063
91	0xbdaa9e14	-0.08330932
92	0xbd1a422b	-0.03766076
93	0xbda2b0b7	-0.07943862
94	0xbbfe64bc	-0.0077634733
95	0x3e3aff20	0.18261385
96	0xbdadbf49	-0.084837504
97	0x3d8ab765	0.06773261
98	0x3e0d3b1a	0.13792077
99	0x3d392d4e	0.04520922
100	0x3cdd8207	0.027039541
101	0x3c2c90d8	0.01053258
102	0xbc86efad	-0.016471708
103	0x3ced1438	0.028940305
104	0x3dc5d194	0.096591145
105	0xbda0d38b	-0.078528486
106	0x3e22200c	0.15832537
107	0x3e31bd7c	0.17357439
108	0x3cc692d7	0.02423994
109	0x3e7768c1	0.24161054
110	0x3ba909ac	0.0051586237
111	0x3d8682ec	0.0656794
112	0xbe20a7c3	-0.15688996
113	0x3e2a05b0	0.16603732
114	0x3e2ef67d	0.17086215
115	0xbe0df90e	-0.13864538
116	0xbde0e8ed	-0.10981927
117	0x3c96180f	0.018322019
118	0xbe2df029	-0.16986145
119	0x3ca60c2a	0.020269472
120	0x3da8a483	0.08234503
121	0xbd1466f5	-0.036231
122	0x3e01473f	0.12624834
123	0x39da985e	0.00041693723
124	0xbd24dfe4	-0.04025258
125	0xbe13e615	-0.14443238
126	0x3dcb8f07	0.0993939
127	0xbe5c1cf5	-0.21495421
128	0xbc0e14e0	-0.008671969
129	0x3d39ea3c	0.0453894
130	0xbddbe301	-0.10736657
131	0x3dab98c8	0.0837875
132	0x3d0aa34e	0.033847146
133	0x3df270f1	0.11837948
134	0x3dd5799b	0.10423585
135	0xbe4a7a27	-0.1977316
136	0xbe141acc	-0.14463347
137	0xbda8a35f	-0.082342856
138	0xbe27f2eb	-0.1640126
139	0x3dcb1221	0.09915567
140	0xbdaddee0	-0.08489776
141	0xbd75db0f	-0.060023364
142	0x3c86d08e	0.016456868
143	0x3e024f2d	0.12725516
144	0xbe057416	-0.13032565
145	0xbe2669c8	-0.1625129
146	0x3c651348	0.013981648
147	0x3d99b117	0.0750448
148	0x3df80503	0.12110331
149	0x3cefe900	0.029285908
150	0x3e02309a	0.12713853
151	0xbe2087aa	-0.15676752
152	0x3e245e78	0.16051662
153	0xbdeb7e88	-0.11498743
154	0xbdebb676	-0.11509411
155	0x3de6faf2	0.11278333
156	0xbc90016d	-0.017578805
157	0x3dcfd79d	0.10148547
158	0xbd3f7d87	-0.04675057
159	0x3d90830d	0.07056246
160	0x3e5f7f4c	0.21825904
161	0x3df2ebe0	0.11861396
162	0x3db77b3a	0.089590505
163	0xbd57a51b	-0.05264769
164	0xbdba9ad7	-0.091115646
165	0x3c9fbd51	0.019499453
166	0x3e0cccd5	0.13750012
167	0xbd7cc4ce	-0.061711125
168	0x3e129d0a	0.14317718
169	0xbe0bb311	-0.13642527
170	0xbd378a38	-0.04480955
171	0x3d000af1	0.031260435
172	0xbd6791cd	-0.05653553
173	0xbe423572	-0.189657
174	0x3dd2b443	0.102882884
175	0x3caf2cf1	0.021383734
176	0x3dac3644	0.08408788
177	0xbd63f22c	-0.055650875
178	0xbe4bc0c3	-0.19897752
179	0xbdbe90dd	-0.09304974
180	0x3e471f66	0.19445571
181	0xbdd6f65a	-0.104962066
182	0x3cc9fec7	0.02465762
183	0x3db4fbe9	0.088371105
184	0x3e1e8ddf	0.15483807
185	0xbe17a086	-0.14807329
186	0xbdac8884	-0.08424476
187	0xbdd7f933	-0.10545578
188	0x3e282dc4	0.16423708
189	0xbde4cfe0	-0.111724615
190	0xbe7e2627	-0.24819241
191	0xbca401e7	-0.020020438
192	0x3de42df7	0.111415796
193	0x3d8a25c5	0.06745485
194	0x3e21aacf	0.15787815
195	0x3da2e0a8	0.07953006
196	0xbd43e7bf	-0.047828432
197	0xbd980aed	-0.07423959
198	0xbe167b85	-0.14695556
199	0x3d9d9c8b	0.07695874
200	0x3ca7ddbf	0.020491479
201	0x3d740c9d	0.05958234
202	0xbe26f94a	-0.16306034
203	0xbd972e53	-0.073818825
204	0xbe0ff93e	-0.14059922
205	0xbd401df1	-0.046903554
206	0xbdb3f402	-0.08786775
207	0x3da0e449	0.07856042
208	0xbe62ff99	-0.22167815
209	0x3e3eeb94	0.18644553
210	0xbd1792a2	-0.037005074
211	0x3ce00a81	0.027348759
212	0x3d59e902	0.05320073
213	0x3c156bf2	0.009119974
214	0x3e4ab25f	0.19794606
215	0x3e2174d2	0.1576722
216	0x3dbe7a37	0.093006544
217	0x3dc9ee83	0.098599456
218	0x3e11a0bb	0.1422147
219	0xbdea1965	-0.11430625
220	0xbe0241dc	-0.12720436
221	0x3c9f231b	0.01942592
222	0x3d4f88b9	0.0506675
223	0x3bdf1cb5	0.006808842
224	0xbe0daa37	-0.13834463
225	0x3dc0bfbd	0.09411571
226	0x3dac4b45	0.08412794
227	0x3cea5dac	0.02860912
228	0x3d04e0aa	0.03244082
229	0x3d8d7865	0.06907729
230	0xbe26834f	-0.16261028
231	0xbca9948d	-0.020700717
232	0xbd531ad4	-0.051539257
233	0xbd9da26b	-0.076969944
234	0x3c60f882	0.013731124
235	0x3e6a29f4	0.22867566
236	0x3d8a15dc	0.067424506
237	0x3df03a29	0.11729843
238	0xbe037e16	-0.12841067
239	0xbce0777d	-0.027400726
240	0xbc213b3c	-0.009840783
241	0xbde14b00	-0.11000633
242	0x3d25af28	0.040450245
243	0x3d33b094	0.04386957
244	0x3d494db1	0.049146358
245	0x3df42dde	0.11922811
246	0x3ada47ca	0.0016653475
247	0x3e0d1a24	0.13779503
248	0x3d847d0f	0.064691655
249	0xbcf7c327	-0.030244423
250	0xbc235046	-0.009967869
251	0x3ce98a6a	0.028508384
252	0xbda2b797	-0.07945173
253	0x38118b2f	3.470032e-05
254	0xbe15072d	-0.14553519
255	0xbe006086	-0.12536821

encoder.blks.block0.addnorm1.ln.weight f4 [32]
0	0x3f80253a	1.0011361
1	0x3f719bb0	0.94378185
2	0x3f7a7218	0.97830343
3	0x3f87fea8	1.062459
4	0x3f853481	1.0406648
5	0x3f84312d	1.0327507
6	0x3f74861e	0.95517147
7	0x3f7d2216	0.98880136
8	0x3f78ef67	0.972403
9	0x3f812aaa	1.0091145
10	0x3f798815	0.9747327
11	0x3f828686	1.0197303
12	0x3f89c15e	1.0762136
13	0x3f7dd650	0.9915514
14	0x3f844fc2	1.033684
15	0x3f8633a4	1.048451
16	0x3f77d10a	0.96803343
17	0x3f855836	1.0417545
18	0x3f819704	1.0124211
19	0x3f7dd0ab	0.9914653
20	0x3f7b33bf	0.98125833
21	0x3f834898	1.0256529
22	0x3f7702e3	0.9648878
23	0x3f8101ce	1.0078676
24	0x3f80dfd0	1.0068302
25	0x3f7b249a	0.98102725
26	0x3f782643	0.9693338
27	0x3f839ca5	1.0282179
28	0x3f85873b	1.0431894
29	0x3f817235	1.0112978
30	0x3f7b2f35	0.9811891
31	0x3f7e634a	0.99370253

encoder.blks.block0.addnorm1.ln.bias f4 [32]
0	0x3b23b92a	0.0024982193
1	0x3d16107c	0.036636814
2	0xbd1a4c44	-0.03767039
3	0x3bf415e5	0.007448899
4	0x3c2f3bce	0.010695411
5	0xbd219169	-0.039445315
6	0x3cfbcd81	0.03073764
7	0x3ade3277	0.0016952296
8	0x3d10847b	0.035282593
9	0xbcc01da8	-0.023451641
10	0x3c13d0fc	0.009021994
11	0xbbd1e9ff	-0.0064060683
12	0xbcbe3ab3	-0.02322135
13	0x3cd98170	0.026550978
14	0xbd0c8397	-0.03430518
15	0x3c863cd8	0.016386434
16	0xbce337c9	-0.027736561
17	0xbd0cb064	-0.034347907
18	0x3b7b2831	0.0038323516
19	0xbd1ad2a1	-0.037798528
20	0x3ce486e5	0.027896354
21	0x3cf44ad8	0.029820845
22	0xbcb6dc67	-0.022321893
23	0x3be3a335	0.006946946
24	0xbc093c2a	-0.008376161
25	0xbcfa059d	-0.030520255
26	0x3d1a88c6	0.037728094
27	0x3cfaaee0	0.030600965
28	0xbd0d41e4	-0.034486666
29	0x3c84a9c5	0.016194234
30	0x3cc55b88	0.024091497
31	0xba899788	-0.001049743

encoder.blks.block0.ffn.dense1.weight f4 [64, 32]
0	0x3b953e56	0.00455455
1	0x3d9fbf59	0.078001685
2	0x3d6192af	0.05507153
3	0xbe059be8	-0.13047755
4	0xbe1b1d26	-0.15147838
5	0x3cbb160f	0.022837667
6	0xbe9b8658	-0.30375934
7	0x3de61163	0.11233785
8	0x3e64dee8	0.22350657
9	0x3e70cc05	0.23515327
10	0xbcfabc94	-0.0306075
11	0xbcc0ee6f	-0.023551194
12	0x3dc28ebc	0.09499881
13	0xbc04338a	-0.0080689285
14	0xbd0be69b	-0.03415547
15	0x3d4335f2	0.047658868
16	0x3e5a48eb	0.21316878
17	0xbd81cfb0	-0.06338441
18	0xbe2ecad8	-0.17069566
19	0x3ed5924c	0.41713178
20	0x3e3135b2	0.1730564
21	0xbc885b2d	-0.016645039
22	0xbdff3921	-0.12462068
23	0xbcbf9496	-0.023386281
24	0xbd1ce5d3	-0.038305115
25	0xbe0bfe75	-0.13671286
26	0x3c52c845	0.012865131
27	0x3ddd6f76	0.10812275
28	0xbde845f2	-0.11341466
29	0xbd05e60b	-0.03269009
30	0xbdb823fe	-0.0899124
31	0x3ee46990	0.44611788
32	0x3d8d8654	0.06910387
33	0x3daab456	0.083351776
34	0xbd0f9622	-0.035055287
35	0x3c23c209	0.009994992
36	0x3e0f2211	0.13977839
37	0x3db38190	0.087649465
38	0xbd50fa53	-0.051019978
39	0x3dd2feb6	0.103024885
40	0xbd184aa3	-0.037180554
41	0xbd39106b	-0.045181673
42	0xbd99a19e	-0.07501529
43	0xbd1e92a1	-0.038714055
44	0xbcc8fe5f	-0.024535356
45	0xbda7b13e	-0.08188103
46	0x3dabec81	0.08394719
47	0x3e46a600	0.19399261
48	0xbe326f37	-0.17425238
49	0x3cb63828	0.022243574
50	0xbdb66761	-0.08906437
51	0xbd930e75	-0.07180492
52	0x3dec728b	0.11545285
53	0xbd2adb0e	-0.041712813
54	0x3cdf5e47	0.027266635
55	0xbdc59062	-0.096466795
56	0x3e4acded	0.19805117
57	0xbd3ff029	-0.046859894
58	0x3d6e4df5	0.058179814
59	0xbc93f65d	-0.018061811
60	0x3e2565a1	0.1615205
61	0xbc47b448	-0.0121889785
62	0x3d9b8e29	0.07595474
63	0x3ca72494	0.020403184
64	0x3dfd97cf	0.12382471
65	0xbd479960	-0.048730254
66	0x3dc41519	0.095743366
67	0x3dccd52d	0.100015976
68	0xbda1e7bf	-0.0790553
69	0xbdb9c4cf	-0.090707414
70	0x3d8920b8	0.06695694
71	0x3d8502a8	0.06494647
72	0xbe7b02fb	-0.24512856
73	0x3d971d50	0.07378638
74	0xbe2c4f6a	-0.16827169
75	0xbdc5d8b8	-0.096604764
76	0x3cccb3ac	0.024988018
77	0x3d641cd5	0.05569156
78	0xbd3259a6	-0.043542527
79	0x3e62a2b9	0.22132386
80	0x3e61bd32	0.22044829
81	0x3e63a495	0.22230752
82	0xbe44febb	-0.19237797
83	0xbdd8ae32	-0.105801
84	0xbd00cbe4	-0.031444445
85	0x3e17922c	0.14801854
86	0x3d29b182	0.04142905
87	0x3d6f07eb	0.05835716
88	0x3d923927	0.07139807
89	0xbc874fe3	-0.016517585
90	0xbe394f66	-0.18096694
91	0x3e56b2a3	0.20966582
92	0xbca63a8a	-0.020291585
93	0x3e130114	0.1435588
94	0xbe344a99	-0.17606582
95	0x3b11ab16	0.002222722
96	0x3da27d26	0.079340264
97	0x3c1e5815	0.009664555
98	0x3cebcf8c	0.02878549
99	0xbe225ed2	-0.15856484
100	0x3e4ba630	0.19887614
101	0xbd63158d	-0.055440474
102	0xbc677d5a	-0.014129007
103	0xbda7d773	-0.081953906
104	0xbdf9d58c	-0.12198934
105	0xbe59231e	-0.21204802
106	0xbe03a6a6	-0.1285654
107	0xbdf88920	-0.121355295
108	0xbd9f16b1	-0.07768
109	0x3e2518dd	0.16122766
110	0x3d33426e	0.043764524
111	0x3e692d94	0.22771293
112	0xbd1b2b68	-0.037883192
113	0x3cfdc68b	0.030978462
114	0x3e3ad86c	0.18246621
115	0xbe2198f8	-0.15781009
116	0xbd81b349	-0.06333024
117	0x3ddd4b35	0.1080536
118	0xbd4f8c10	-0.050670683
119	0xbda56795	-0.08076397
120	0x3d797cb1	0.06090993
121	0xbdb65cec	-0.08904442
122	0x3ce1fadf	0.027585445
123	0xbdcb4af9	-0.09926409
124	0x3dd2216f	0.10260283
125	0xbda4b238	-0.08041805
126	0xbcd48116	-0.02594046
127	0xbd1bdea0	-0.03805411
128	0xbc9bc70c	-0.019015811
129	0x3dbac908	0.09120375
130	0xbe04fd38	-0.1298722
131	0xbd8359c7	-0.06413608
132	0xbe41f4c9	-0.18941034
133	0x3e1811c9	0.14850534
134	0x3e1f7352	0.15571335
135	0xbdc5074a	-0.09620531
136	0xbcabde5a	-0.020980049
137	0xbbe70fe8	-0.0070514567
138	0xbdb63a7f	-0.08897876
139	0xbcb43703	-0.021998888
140	0x3e09783a	0.13424769
141	0x3e250485	0.16115005
142	0x3e05fe64	0.13085324
143	0x3bee8a97	0.007279705
144	0xbdeeef18	-0.11666697
145	0xbd6ab7ad	-0.057304073
146	0x3cecd088	0.02890803
147	0xbd2bec6f	-0.041973528
148	0x3e052041	0.13000585
149	0xbe69e4be	-0.22841164
150	0x3d624318	0.055239767
151	0xbdbeb4a5	-0.09311799
152	0x3da4ce4d	0.08047161
153	0x3e32db30	0.17466426
154	0x3cdc67a6	0.026904892
155	0xbdd9d4c6	-0.106362864
156	0x3c76c672	0.0150619615
157	0xbe7d88b4	-0.2475918
158	0xbe197194	-0.14984733
159	0x3c5f9796	0.013646981
160	0xbe0c5373	-0.13703708
161	0x3df7291a	0.120683864
162	0xbd9a4043	-0.07531788
163	0x3d5c5f5a	0.05380187
164	0x3e1816b1	0.14852406
165	0x3d82df19	0.06390209
166	0x3d9f664a	0.07783182
167	0x3e394b9d	0.1809525
168	0xbdc30d6c	-0.095240444
169	0x3dca2afb	0.09871479
170	0xbde47a47	-0.11156135
171	0x3e064172	0.13110903
172	0xbc2367d8	-0.009973489
173	0x3cabe15a	0.02098148
174	0x3e1078f1	0.14108635
175	0x3d202d8f	0.039105948
176	0x3e01f7c0	0.12692165
177	0xbd76f403	-0.0602913
178	0xbd96b376	-0.07358448
179	0x3e071e85	0.13195236
180	0xbdab3b6f	-0.083609454
181	0x3d93fd3d	0.07226036
182	0x3e3c1203	0.18366246
183	0x3d9bf083	0.07614233
184	0xbce673e0	-0.028131425
185	0xbcb0b079	-0.021568524
186	0xbe152f44	-0.14568812
187	0xbe02e864	-0.12783962
188	0xbb2db928	-0.0026508067
189	0xbe138350	-0.1440556
190	0x3d8a1ab8	0.067433774
191	0x3dbca458	0.092110336
192	0xbdca372f	-0.09873807
193	0xbccc4644	-0.024935849
194	0x3e439e9a	0.1910347
195	0xbd070d38	-0.03297159
196	0x3e636642	0.22206977
197	0x3e48ac90	0.19597077
198	0xbcfcacd2	-0.030844126
199	0xbe0b6efd	-0.13616557
200	0x3e078602	0.13234714
201	0xbe3d8019	-0.18505897
202	0x3e19d77b	0.15023606
203	0xbe0bb329	-0.13642563
204	0xbdb7c0a1	-0.08972288
205	0x3d7a7c95	0.061153967
206	0xbc8772d6	-0.01653425
207	0x3e36a2af	0.17835496
208	0xbe2d0108	-0.16894925
209	0xbba11205	-0.004915478
210	0xbcd7ea25	-0.026356766
211	0x3dd29cb8	0.10283798
212	0x3dcbc906	0.099504516
213	0x3d8d21c1	0.06891204
214	0x3db3b1f7	0.087741785
215	0x3e01b1a1	0.12665416
216	0x3c4148a3	0.011797103
217	0xba8fd946	-0.0010974787
218	0xbc1b7487	-0.0094882315
219	0x3d7c4aee	0.061594896
220	0xbc38d658	-0.011281572
221	0x3d199ea5	0.03750481
222	0x3d5d8cb8	0.054089278
223	0x3c694dbf	0.0142397275
224	0x3deb4954	0.114885956
225	0x3d396053	0.045257878
226	0x3dbf34f6	0.09336273
227	0xbd32e171	-0.04367203
228	0xbe0ffdea	-0.14061704
229	0x3e0e23a3	0.13880782
230	0x3d9a3c7d	0.075310685
231	0x3e347df9	0.1762618
232	0x3d248781	0.04016829
233	0xbc784596	-0.015153309
234	0xbdd8c049	-0.105835505
235	0xbe46bd50	-0.19408154
236	0x3db78879	0.08961577
237	0x3e29bfda	0.16577092
238	0x3cd60dd2	0.026129637
239	0xbd1c7e1e	-0.038206212
240	0x3d901539	0.07035298
241	0xbdc414bc	-0.09574267
242	0x3daa47fa	0.0831451
243	0xbe285d06	-0.16441736
244	0xbe0af0fc	-0.1356849
245	0xbe0e841c	-0.13917583
246	0xbd395c0a	-0.04525379
247	0x3cedc6d1	0.029025467
248	0x3e0196f0	0.12655234
249	0xbe007996	-0.12546381
250	0xbc9147a0	-0.017734349
251	0x3ce73838	0.02822505
252	0xbc103e1d	-0.008803871
253	0xbcd84536	-0.02640019
254	0x3d8514fd	0.06498144
255	0xbd685b49	-0.05672768

encoder.blks.block0.ffn.dense1.bias f4 [64]
0	0xbc84f8d1	-0.016231926
1	0xbe03e003	-0.12878422
2	0xbc979555	-0.018503824
3	0xbd524e28	-0.051344067
4	0xbdebbe78	-0.115109384
5	0x3dc8d981	0.098071106
6	0x3d78f76f	0.060782846
7	0x3ce1565d	0.027507002
8	0xbda30c70	-0.07961357
9	0xbd1d4549	-0.038396154
10	0x3d9fd78d	0.07804785
11	0xbb5384e7	-0.003227526
12	0xbe474c47	-0.19462691
13	0xbc8cd81f	-0.017192898
14	0x3e05ff13	0.13085584
15	0xbdb4b91c	-0.08824369
16	0xbd73f472	-0.059559293
17	0x3d494c75	0.04914518
18	0x3ccc38c2	0.024929408
19	0x3dde33d5	0.1084973
20	0xbdcc7c43	-0.099846385
21	0x3da2d14a	0.07950075
22	0x3dba3c54	0.09093538
23	0x3dddcea7	0.108304314
24	0xbde52207	-0.11188131
25	0xbdbb74f7	-0.09153169
26	0x3e4b5237	0.19855581
27	0x3d5b9290	0.05360657
28	0xbc73518b	-0.014850984
29	0xbdaccbb4	-0.08437291
30	0x3df23eae	0.118283615
31	0xbc7a6660	-0.015283197
32	0x3e006750	0.1253941
33	0xbcd5a31d	-0.026078755
34	0x3d63d25f	0.055620547
35	0x3b3d0d3d	0.0028847002
36	0xbe00e5f7	-0.12587725
37	0xbd709de2	-0.05874432
38	0x3ce2b2c9	0.027673142
39	0xbe57519c	-0.21027225
40	0xbd37ec3a	-0.044903018
41	0x3d56c326	0.0524322
42	0x3de47c7e	0.111565575
43	0x3b157f78	0.0022811573
44	0xbe19fe4c	-0.15038413
45	0xbc9b03b1	-0.018922659
46	0x3e288457	0.16456734
47	0xbcc4eeae	-0.024039593
48	0x3da3451a	0.079721645
49	0xbb5c473d	-0.0033611797
50	0x3d9b673a	0.07588048
51	0xbdf77b9b	-0.12084123
52	0x3e166c19	0.14689673
53	0x3d5f24b8	0.054478377
54	0xbd4408d7	-0.047859993
55	0x3e18ad0f	0.14909767
56	0x3d44dab7	0.048060145
57	0xbe151c5c	-0.145616
58	0xbc821e3c	-0.015883557
59	0x3ddf2ac4	0.10896829
60	0x3d86bcc9	0.06578977
61	0xbdabed2f	-0.083948486
62	0xbda3f546	-0.080057666
63	0xbe2c4cde	-0.16826198
